PreTrained/cstr_ode/Deep_DQN/0_11/600.pth (torch, 43158 bytes, 13 tensors)

fc1.weight f4 [128, 4]
00000000: 7020 95bb ce9d 893e 463e cfbe 94b8 babe
00000010: f432 45be ec4b 093e 404f 22bc cefa ca3e
00000020: e45e 43bd c624 083e f984 2cbe 387c c8bd
00000030: bad1 fbbe f514 a0be 83e1 54be 9d70 483c
00000040: 40fd 3f3e 67a1 9e3e 6bac aebe 5805 57be
00000050: 65f7 363e fe01 d63e a8ee dcbd 5c91 bf3e
00000060: 28da abbd 4d3c 7f3d b0b0 e83e 9257 f1be
00000070: 25aa a7be 9928 e5bd 335e 4fbe 282f dd3e
00000080: 4122 a3be 8519 75be 938b b2be f0a2 e5be
00000090: 9def 97be ccf6 d93e c6c0 5d3e 0027 783e
000000a0: a058 ce3c e2c1 86be 6efd ad3d 32cf e2be
000000b0: 1afa b8be c6f9 83be 2685 a13e 2619 963e
000000c0: c811 63be 20cb 93bc 40ba a33e 827f fe3e
000000d0: 920d 423e ba01 9e3d 0327 ad3e bf2c 97be
000000e0: f7fc a43d b595 c1be e9ca b7be 2fd8 82be
000000f0: ceac 793e cde5 3b3e 41a3 8ebe c8ad 1a3e
00000100: c28e 8c3e 55d9 52bd ab3e 963c 39d9 e13d
00000110: d6eb 9f3e 7cca f53e 4330 c9be fb82 41be
00000120: 28fe 4e3e 63f0 d13e 3ed2 db3e 4224 eb3e
00000130: bdc2 df3d 041d ddbe 07e3 173d 9c14 a1be
00000140: 1bc6 eebe d7c1 e23e d045 c23e ddfc febe
00000150: 08aa bf3d c880 acbd b882 a8bd 1c5f 6abe
00000160: 2b88 4b3e 6c56 9bbe c361 433e 1676 813e
00000170: 161b b13e d575 463e e799 02bf 9610 9ebe
00000180: c4c7 7c3e 1714 db3d 524a c8be 411d 91be
00000190: f2d4 f03e 547f ac3e b03e 5fbe d4dc 00be
000001a0: bb2a f4be 2dd3 0bbc c4a5 bdbe 313d c4be
000001b0: 5243 d7bc 191c 8d3d cb63 47be 98e7 973e
000001c0: 56e1 a3be c15f f13e 5c54 a73e f0c5 cfbe
000001d0: 8ca2 04be 0d19 e63c 0b04 8b3d fe17 e43d
000001e0: aa38 443e e87b 0d3d 7785 7ebe d445 723e
000001f0: 5691 f5be a0bb 97be 3c2b 00be ec66 79be
00000200: 9d8a 3dbe f319 cbbe c979 e7bd f8e2 da3d
00000210: b225 a9be a717 babc 2cde b43e a2a1 6cbd
00000220: 80ac 633c c0ad 30bd 103d cf3d 60c6 a23e
00000230: 87d8 ee3e c446 a53e b2ec f63e c8dc 20bd
00000240: a06b dfbe 84af 7dbe d6d4 b43e df33 cbb9
00000250: af4b 80be 0f22 c2be 2dc6 f9be 42c7 d2be
00000260: ab9e e1bd c3bd 903e 9227 863e 20a5 f2be
00000270: 2eb0 9f3e 8a52 c8be f07b d8bd 1c9a 4fbe
00000280: f239 c9bd b8da d2bd 3123 e4be 8c2f dcbe
00000290: 283c a0bd 80e1 d33b b896 68be b8de 403e
000002a0: 9da9 e7be dc51 06bd 16f2 dd3e ae6a 57be
000002b0: 557d e13e 9f8e 433e 56cb e2be 74f8 a13e
000002c0: 25da 5bbd e81e 56be e47a d33e d994 cdbe
000002d0: 6325 773d 4dbf d3bd 33e4 b63e a8a9 073e
000002e0: d872 7a3e dbfb 2f3e d33e efbd 2695 dfbd
000002f0: cd6a d7be 202d 8e3e b1ee c63e 5c29 af3e
00000300: ac93 b4be 60ae b63c 9076 b4be 88ec 8cbe
00000310: e2b7 92be 7510 2a3e 6e19 96be 00ba 32bc
00000320: 15e4 3c3d f17f 973e ca03 b1be 3a1b b9be
00000330: 6266 90be f5b5 ab3e 64d9 2ebe e0ee d73e
00000340: a024 393e 40aa 813d 00ed 73bb 086d cabd
00000350: bca6 753d ade4 e3bd 938b f63b a128 723d
00000360: def1 c5be a719 82be 2913 d33e 466d d7be
00000370: 8d43 a6bc 7b3e f33e 14e2 463e 01d2 713c
00000380: 6881 d5be cd09 703e 5790 aabe cc33 14be
00000390: 4ac7 30be 5ac9 98bd 2e40 06bb 9626 d33e
000003a0: 6f21 933d 2e9c e13e 5b58 9f3e a42d 9bbe
000003b0: fab4 5f3e c01b b0be 2ecc 61be 0b40 063e
000003c0: 9dcc 243e 0130 c23e 7914 29be 00d4 513a
000003d0: c132 933e 38b2 05bf 96c1 b23e f387 cdbe
000003e0: e8f0 2a3a e7c9 a2bd c657 88be d857 873d
000003f0: 652d d73e 9490 11be c15f 95be 8abd 45be
-0.004550986 0.26878208 -0.40477198 -0.36468947 -0.19257718 0.13407868 -0.00990659 0.39644474
-0.047697917 0.13295278 -0.168476 -0.09789318 -0.49183446 -0.3126599 -0.20789151 0.01223388
0.18748951 0.30982515 -0.3411592 -0.20998132 0.17867811 0.41798395 -0.107877076 0.37415588
-0.083912194 0.062313367 0.45447302 -0.47137123 -0.32746997 -0.11189384 -0.20250778 0.4320004
-0.3186207 -0.23935516 -0.34872112 -0.44850874 -0.29674998 0.42571104 0.21655568 0.24233627
0.025188744 -0.26319796 0.084956035 -0.44298702 -0.36128312 -0.257765 0.31546897 0.29316062
-0.22174752 -0.018041193 0.31978035 0.49706656 0.18950489 0.07715173 0.33818826 -0.29526326
0.08056062 -0.3780953 -0.35896996 -0.2555556 0.24382326 0.18349381 -0.27858928 0.15105355
0.27452666 -0.051476795 0.01834043 0.1102776 0.31234616 0.48006046 -0.39294633 -0.18897621
0.2021414 0.41003713 0.4293384 0.459261 0.10925815 -0.431862 0.037081745 -0.31461036
-0.46635517 0.44288513 0.37943888 -0.49802294 0.09358603 -0.084230006 -0.082280576 -0.22887844
0.19876163 -0.30339372 0.19080262 0.25285405 0.34590977 0.19380887 -0.51016086 -0.3087203
0.2468558 0.10697191 -0.39119202 -0.2834263 0.47037464 0.33690894 -0.21801257 -0.12584239
-0.4768885 -0.008534235 -0.37040532 -0.38327935 -0.026277218 0.06890125 -0.19471662 0.2966888
-0.32007855 0.47143367 0.3268155 -0.40580702 -0.12952632 0.028088117 0.067878805 0.11137389
0.1916224 0.034541994 -0.248556 0.2365945 -0.47962445 -0.29635334 -0.12516493 -0.24355668
-0.18509908 -0.39668235 -0.113025256 0.10687822 -0.33036572 -0.022716356 0.35325754 -0.057771333
0.013896108 -0.04313445 0.101190686 0.31791973 0.46649572 0.32280552 0.4822746 -0.039273053
-0.436368 -0.24773985 0.3531863 -0.00038757824 -0.25057742 -0.3791661 -0.4878401 -0.41167647
-0.11016592 0.28269777 0.26202065 -0.47391605 0.31189102 -0.39125472 -0.10570514 -0.20273632
-0.09825505 -0.102956235 -0.445581 -0.43005025 -0.07823974 0.0064660907 -0.22713745 0.1883496
-0.45246592 -0.03279291 0.4334876 -0.21036789 0.44040933 0.19097374 -0.44295758 0.31634867
-0.053674836 -0.20910227 0.41304696 -0.40152624 0.06033839 -0.10339222 0.35720977 0.13248312
0.24457872 0.17185919 -0.11681905 -0.1091712 -0.4207367 0.27768803 0.38853982 0.34211242
-0.35268915 0.022299945 -0.35246706 -0.2752421 -0.28655916 0.1660784 -0.29316276 -0.010908604
0.046115953 0.295898 -0.34573203 -0.36153585 -0.28203112 0.3353726 -0.17075115 0.42174435
0.18080378 0.06331301 -0.003722012 -0.09884077 0.059973463 -0.11127601 0.0075239628 0.059120778
-0.38661093 -0.25410196 0.41225556 -0.42075557 -0.020295883 0.47508606 0.1942218 0.0147595415
-0.41700292 0.23441239 -0.33313248 -0.14472884 -0.17263523 -0.0746028 -0.0020485031 0.41240376
0.07184111 0.44064468 0.31122097 -0.3030826 0.21846381 -0.34396172 -0.22050545 0.13110368
0.16093679 0.3792725 -0.16511716 0.0008004308 0.2874966 -0.52225065 0.3491332 -0.40142784
0.0006520883 -0.07948666 -0.26629466 0.06608552 0.4202682 -0.14215308 -0.29174617 -0.19310585

fc1.bias f4 [128]
00000000: ffe3 12be 14df 3ebe 6160 f13d 7a95 2a3e
00000010: 9bac 7ebe 2dce 273d b3b6 913e 3972 1fbd
00000020: e33c 213e 1260 00be 5fe3 323e e671 b9be
00000030: 0e89 96be 20ad 80be fe58 eb3e d1c7 1bbe
00000040: 027c 2bbd a82d 6fbe 6baf ff3e af6f fa3e
00000050: 8173 c1be 1088 cfbe e933 bebe 7dbb 59bc
00000060: daf6 09be 4e90 a7be aa52 3bbe 8738 d73d
00000070: 68dd 8dbe 727a df3d 2a6a e1bd b018 78be
00000080: a39f 7a3d 711a d13e 8813 adbe 8486 cc3c
00000090: 00c5 2fbe a71c f33e 0822 f7be d26a f5be
000000a0: c976 fc3e f8f7 a1be 61f5 d23d 7174 a7bd
000000b0: 859a c2bd 1e65 e4bd b858 a33e 00ad a83c
000000c0: ce3e f9be 2e96 99be c022 2fbe bbf7 863e
000000d0: 8eaa a5be cb8d f13e 0b52 c3bd 6370 abbd
000000e0: 8147 d13e 5c59 6b3e 6379 d83e 1594 923e
000000f0: e30e 17be ea74 a1be 3e2c 13bd cb9c d23e
00000100: 01fa 1cbe 1e68 edbe 65a1 433e baef f83e
00000110: 8417 1dbe 5af9 d3be 1035 e8be 26e1 f53d
00000120: 29ba 27bd 5597 84be 8b24 d73d 23ec 3b3e
00000130: d81a cb3e fcee c63e bb4c 83bd 7ebb e1be
00000140: d853 e7be bc3a ee3e 7132 643e ce6a 693e
00000150: 2760 d9be 3f47 ed3e 1010 eb3e 4524 ed3e
00000160: 30f5 d7be 2e41 49be e0f2 adbe 253b f33e
00000170: 6cb6 49be 2cfe 67be 3c43 823e 3215 64be
00000180: 22a6 76be 76a2 2dbd c1f9 88bd 226b c7be
00000190: 69f4 cc3e f63b 57be cf1e 413e 21f8 de3e
000001a0: 5aa8 663e 0de0 783d 32b7 d83e ecd3 8f3d
000001b0: 95dd 65be 589b f43e 83f2 e73d 38c6 f9be
000001c0: 7672 04be fe60 aebe fa97 e23e d9f6 83bd
000001d0: b259 e9be cdc0 8cbc 4a9c a03e ee51 063e
000001e0: a5e9 2a3e 892e 0c3d 6bfe 3a3e 82ce 01be
000001f0: 4959 41be 0e49 efbe 3d97 bebe 1c20 593e
-0.14344786 -0.18639785 0.11785961 0.16658583 -0.24870531 0.04096811 0.284597 -0.03892729
0.15745883 -0.12536648 0.17469548 -0.3621971 -0.2940144 -0.25132084 0.45966333 -0.15212943
-0.04186631 -0.2335726 0.4993852 0.48913333 -0.37783435 -0.40533495 -0.3714898 -0.01328933
-0.13473073 -0.32727283 -0.18293253 0.105088286 -0.27707982 0.109120265 -0.11006577 -0.24228168
0.061187398 0.40840486 -0.33803964 0.024966486 -0.17164993 0.47482798 -0.4826815 -0.4793306
0.49309376 -0.31634498 0.103007086 -0.08176506 -0.095021285 -0.11152099 0.31903625 0.020590305
-0.4868073 -0.2999739 -0.171031 0.26360878 -0.32356685 0.47178492 -0.09537133 -0.083710454
0.40874866 0.22983307 0.4228011 0.28628603 -0.14751773 -0.3153451 -0.035930865 0.4113525
-0.15329744 -0.46368498 0.19104536 0.48620397 -0.15341002 -0.41401178 -0.45352983 0.12005834
-0.04094902 -0.25896707 0.10505017 0.18351798 0.39668918 0.38854206 -0.064111196 -0.44088358
-0.45181155 0.46529186 0.22284867 0.22794649 -0.4245617 0.4634342 0.45910692 0.46316734
-0.4217925 -0.1965377 -0.3397436 0.4750606 -0.19698495 -0.22655553 0.2544192 -0.2227371
-0.24086812 -0.042391263 -0.06688262 -0.38948923 0.4003022 -0.21018967 0.18859409 0.43548682
0.22525159 0.060760546 0.42327267 0.07022843 -0.22447808 0.47774768 0.11325552 -0.4878404
-0.12934288 -0.34058374 0.44256574 -0.06443567 -0.45576245 -0.017181778 0.3136924 0.13117191
0.16690691 0.034224067 0.18261115 -0.12676433 -0.18881716 -0.46735424 -0.3722476 0.21203655

bn1.weight f4 [128]
00000000: d203 7f3f 0000 803f 41b3 813f 072a 803f
00000010: bc6c 813f 7707 7f3f d3b4 803f 7613 813f
00000020: de20 813f d2af 7b3f 5c68 803f 0000 803f
00000030: 0000 803f 78d0 7d3f f6cd 7e3f 792d 7d3f
00000040: ecff 7f3f 804c 803f c2d6 7f3f ce1f 813f
00000050: 9c0f 7f3f 0000 803f ba7e 7e3f 2eb5 7f3f
00000060: b2a5 7f3f 0000 803f db04 803f 4089 803f
00000070: 9cb7 7c3f 0943 7e3f b828 803f 0000 803f
00000080: 4e59 7d3f 591b 813f 0000 803f f788 7f3f
00000090: ae9d 7d3f fe11 813f 6507 7e3f 0000 803f
000000a0: 6804 7f3f 0000 803f 1e41 813f a3e2 7e3f
000000b0: 00c5 7e3f 06e9 7f3f 9918 7e3f 21d2 803f
000000c0: 0000 803f 8e60 7e3f d7af 7d3f 9767 7f3f
000000d0: 0000 803f 3e3d 803f 132f 7f3f e2d0 7e3f
000000e0: 8d6d 803f 29c5 7e3f b314 7e3f 19cc 803f
000000f0: 7061 803f bf10 803f 1e40 803f 83de 803f
00000100: 024a 803f 0000 803f 51fb 813f 51d0 803f
00000110: 4806 803f 0000 803f 0000 803f 0bab 7f3f
00000120: f7ce 7f3f 2e21 7d3f d740 803f 9371 813f
00000130: 8185 7f3f e77d 803f fbcc 7c3f 0000 803f
00000140: 0000 803f 1c0e 823f 25e5 7e3f ca97 803f
00000150: 0485 7b3f 4191 803f a476 7f3f 1c1b 803f
00000160: 0000 803f 8e29 7d3f b3b8 7f3f ffca 7d3f
00000170: a142 823f cda3 7d3f b484 7f3f cbb9 7e3f
00000180: bc8a 7c3f 5589 7b3f 2225 803f 0000 803f
00000190: f263 803f 0d7f 7f3f 8430 813f f1b3 803f
000001a0: b5a6 813f 3122 7f3f 16b1 803f d54a 803f
000001b0: ed6d 7f3f aef4 7f3f 07ba 803f 0000 803f
000001c0: cd2b 7f3f 0000 803f 0bb2 803f 5494 7b3f
000001d0: 0000 803f 566a 803f 9f2f 803f 5db8 7e3f
000001e0: cef5 7d3f 0f44 7f3f d5cb 803f 1858 7f3f
000001f0: 6326 7f3f 0000 803f 8b2d 7e3f 7634 803f
0.99615204 1.0 1.0132829 1.0012826 1.0111308 0.99620765 1.0055183 1.0084064
1.0088155 0.98315156 1.0031848 1.0 1.0 0.99146223 0.9953302 0.9889751
0.9999988 1.0023346 0.9993707 1.0087831 0.99633193 1.0 0.9941212 0.99885833
0.99862206 1.0 1.0001482 1.0041885 0.98717666 0.9932104 1.0012426 1.0
0.98964393 1.0086471 1.0 0.99818367 0.99068725 1.0083616 0.99230033 1.0
0.996161 1.0 1.0097997 0.9956457 0.9951935 0.9996494 0.99256283 1.0064126
1.0 0.9936608 0.99096435 0.9976744 1.0 1.001869 0.99681205 0.9953748
1.0033432 0.9951959 0.99250335 1.0062286 1.0029736 1.000511 1.0019567 1.0067905
1.0022585 1.0 1.0154821 1.0063573 1.0001917 1.0 1.0 0.99870366
0.9992518 0.98878753 1.0019788 1.0112785 0.99813086 1.0038422 0.98750275 1.0
1.0 1.0160556 0.99568397 1.0046322 0.9824984 1.0044328 0.99790406 1.0008273
1.0 0.9889153 0.99891204 0.9913787 1.0176584 0.99078065 0.99811864 0.9950225
0.9864919 0.9825643 1.0011332 1.0 1.0030501 0.9980324 1.0092931 1.0054914
1.0129 0.99661547 1.0054042 1.0022837 0.9977711 0.99982727 1.0056771 1.0
0.9967621 1.0 1.0054334 0.98273206 1.0 1.0032451 1.0014533 0.99500066
0.99203193 0.99713224 1.0062205 0.99743795 0.9966795 1.0 0.99288243 1.001601

bn1.bias f4 [128]
00000000: 687a 47bc 39a3 a73b 1f70 103b 2284 84bc
00000010: 5160 6cbc 8543 2d3b 2704 32bc e291 0cbc
00000020: 21d4 ed3c bfbe 50bc aeec 803c 9a36 063c
00000030: 2a96 23bc a2d4 ef3c dc6f 93bc 72af 2dbc
00000040: d028 e2bc 4938 9cbb 3f2d 49bb 911a bdbc
00000050: dc0f 34bc 5622 ce3b df7d d9bb 1931 a2bb
00000060: 3410 1ebc 8aee d13b 3ae0 a13c c91e ca3b
00000070: 7be8 9abc 92af 173c bbad 273c 9640 48bc
00000080: b6e3 aebc f4bb 0cbc 6c93 45bb d858 0a3c
00000090: 8439 c03c 92b7 933c d421 6c3c 4439 45bc
000000a0: e567 5ebb ca5c 353c 18db 5ebc f154 cbbc
000000b0: 8d2d 8c3c 73d2 ffba 10de c4bb eeb9 cdbc
000000c0: 37a5 00bd be43 dfba 3de6 193b ab92 ea3b
000000d0: 4888 d8bb e026 8fb8 0875 5fbb 2f7f 88bc
000000e0: 629f feb8 04ec 08bd 8bdf 713c dece 4c3c
000000f0: b1b8 9e3b d2a0 18bb 5903 fd3b d428 513b
00000100: e372 4abb 2f56 d4bc 3402 5c3c b79f 50bb
00000110: 6f31 32bc a2be 87ba b6ea c83b f6ee ac3c
00000120: 2f0d a8bc 1e1a 99bc 44fe 71bb ec12 3e3c
00000130: a9ee b5bb be96 1c3c 2dcb c43c d7c7 e9bb
00000140: 3805 363c d3c7 afbb c0a0 81bc b622 363c
00000150: 84c4 f13b d463 213c 1ae7 ea3b 5990 74bb
00000160: 8872 023d 72e9 cab8 9887 6b3b 189d bdbb
00000170: 5147 e83a 8f68 bdbb 38f3 9a3b 5d9c 003b
00000180: b3e8 37bc 995e 91bb 22d0 a13c ff97 f83c
00000190: ee87 ab3b 7461 803b 5a76 b03c 6c6b c7bb
000001a0: 57e5 fd3b 8b53 e33b 4ab5 e6bb 4d74 95b7
000001b0: 9e82 9ebc f1f4 44bb 31bd 2d3c 4422 313c
000001c0: 9cab 2abb 2f00 2e3b 5aa5 a9bc e58f 9d3a
000001d0: e9b7 843c 7977 f23b 50ff d1bb 61ba 0cba
000001e0: 8f95 10bc 82cb b0bb fa3c 673b 6405 3b3c
000001f0: 9579 61bc 9373 063d 2f54 8fbb 0dc1 2dbb
-0.01217518 0.005115893 0.0022039486 -0.016176287 -0.0144272605 0.002643795 -0.010865248 -0.008579703
0.029031815 -0.01274079 0.015737858 0.008191729 -0.009984532 0.029276196 -0.017997675 -0.010600911
-0.027607352 -0.004767452 -0.0030697135 -0.023083957 -0.010990109 0.0062907143 -0.0066373195 -0.0049497006
-0.009647418 0.00640661 0.01976024 0.0061682207 -0.018909683 0.009258168 0.010234292 -0.01222243
-0.021348815 -0.008589733 -0.0030147685 0.008444034 0.023464926 0.01803187 0.014412362 -0.012037579
-0.0033936438 0.011069486 -0.013602041 -0.024820777 0.017111564 -0.0019517675 -0.006007917 -0.025113072
-0.03140756 -0.0017033739 0.002348318 0.0071585975 -0.006608043 -6.8260124e-05 -0.0034096856 -0.016662208
-0.00012141351 -0.033428207 0.014762769 0.012500493 0.0048437943 -0.0023289216 0.0077213463 0.0031915205
-0.0030891232 -0.025920002 0.01342826 -0.0031833479 -0.010876044 -0.0010356496 0.0061314953 0.02111004
-0.020514099 -0.018689211 -0.0036925236 0.011601191 -0.005552132 0.009557424 0.024022663 -0.0071344185
0.011109643 -0.005364397 -0.015823722 0.011116674 0.007378163 0.009850461 0.0071686627 -0.0037317483
0.031847507 -9.675593e-05 0.0035938974 -0.0057865493 0.0017721449 -0.0057802866 0.004728701 0.001962445
-0.011224913 -0.0044363257 0.019752566 0.030345915 0.00523471 0.0039178673 0.02154081 -0.0060858037
0.0077482867 0.0069374493 -0.0070406543 -1.7816341e-05 -0.019349393 -0.0030053223 0.010604189 0.010811392
-0.0026042229 0.0026550402 -0.020708729 0.0012021033 0.016200976 0.007399496 -0.0064086094 -0.0005368349
-0.00882472 -0.005395354 0.0035284148 0.011414859 -0.013761898 0.032825064 -0.004374049 -0.0026512772

bn1.running_mean f4 [128]
00000000: 1b8e 283b 0000 0000 400d 183d b8c6 e73c
00000010: baec 433a d1aa 333c 3d91 ea3e 7288 293b
00000020: 8029 463d 7db9 9837 5260 963e 0000 0000
00000030: 0000 0000 8ad4 a43d 2c0b d33e cdd9 2e3a
00000040: 46ae d53d 5d3e a13a bb70 323f 75cc 293f
00000050: 0400 0000 0000 0000 ff8e db3b 0bf8 2f3d
00000060: 543c d03a 0000 0000 7184 373b de67 2a3d
00000070: 0400 0000 8211 a23d e00b 2d3a 0000 0000
00000080: b902 243d 2aac e33e 0000 0000 61bf c83e
00000090: e03c 873c 7db3 703e 0400 0000 0000 0000
000000a0: bef5 823e 0000 0000 a165 2b3e 169f f73c
000000b0: f350 343e 901d 1d3e d651 a63e d970 7f3d
000000c0: 0000 0000 c26a 813a 6dbc e83a c9d2 373d
000000d0: 0000 0000 1289 073f 249b c83d 89d1 b33a
000000e0: cdf1 d53d 6e69 303e 37b4 fe3e beba b73e
000000f0: cb81 a839 2e51 283e 0b1e e43a f6d9 f83e
00000100: 3852 2f3b 0000 0000 d2fc 7a3e 0ddc 033f
00000110: 923a 1a3b 0000 0000 0000 0000 b36b 003d
00000120: 27eb 1b3b 0400 0000 17b0 e83e ae8f 193d
00000130: 4bd1 133f cf8e 933e 733d 243e 0000 0000
00000140: 0000 0000 d711 273f 4f01 3c3e ef60 523e
00000150: 81a5 123d e688 283f 85e1 a33e 37e8 513e
00000160: 0000 0000 6a41 033b 3e54 2f3a ca01 2c3f
00000170: e687 063b e21f 333b b889 033f 7abc 0d3e
00000180: 0052 973a 9295 6f39 cf7e 413b 0000 0000
00000190: 7685 d53e 6924 7f3e e288 103d 2483 e23e
000001a0: 3c30 583e be4f 2a3e 3420 183f f868 053c
000001b0: d5cb 7836 ff23 3e3f f235 b03c 0000 0000
000001c0: a32b 683e 0000 0000 ce10 533e b95e 4e3a
000001d0: 0000 0000 2a5e 163d 9370 0a3f 0500 4d3c
000001e0: 190f 4e3d 1f30 e83d 9f74 363e 3fd5 933e
000001f0: fdef 883d 0000 0000 2fcd 2c3d aaf5 7a3d
0.0025719467 0.0 0.03712201 0.028292999 0.00074739347 0.010966019 0.45813933 0.0025868681
0.04837942 1.8206187e-05 0.29370362 0.0 0.0 0.08048351 0.4121946 0.0006670028
0.10433631 0.0012301911 0.69703263 0.663276 6e-45 0.0 0.006700396 0.04296116
0.001588712 0.0 0.0028002525 0.04160296 6e-45 0.079134956 0.0006601196 0.0
0.04004166 0.44467288 0.0 0.3920851 0.01650852 0.2350597 6e-45 0.0
0.2557811 0.0 0.16737987 0.030227225 0.17609005 0.15343308 0.3248431 0.06236348
0.0 0.0009873735 0.001775635 0.044878755 0.0 0.5294353 0.09795216 0.0013719063
0.104465105 0.17227718 0.49746868 0.3588466 0.0003214016 0.16437218 0.0017403973 0.4860379
0.0026751887 0.0 0.24510506 0.51507646 0.0023533446 0.0 0.0 0.03135271
0.0023791285 6e-45 0.45446846 0.03749054 0.5774123 0.28819892 0.16039066 0.0
0.0 0.65261596 0.18359874 0.2054479 0.035802368 0.6583389 0.32007995 0.20498739
0.0 0.0020028003 0.0006688273 0.6719023 0.002052778 0.0027332236 0.5138202 0.1384143
0.0011544824 0.00022848535 0.0029525047 0.0 0.41703385 0.24916233 0.03528679 0.44240677
0.2111215 0.16631982 0.5942414 0.008142702 3.7073526e-06 0.74273676 0.021510098 0.0
0.22672896 0.0 0.20611879 0.0007872391 0.0 0.036710896 0.54078025 0.012512212
0.050307367 0.11337303 0.17817925 0.2887363 0.06686399 0.0 0.042187866 0.06126944

bn1.running_var f4 [128]
00000000: 9e76 533a 0400 0000 a80f 083b 9039 923b
00000010: 33db 8e38 7601 f639 68b4 4c3d fe7a 073a
00000020: 60e4 a43b 4f96 8134 bf5b 743b 0400 0000
00000030: 0400 0000 dedc d23b f129 e73c 5a8e 6338
00000040: 1eeb aa3a 2e84 4139 34fa 483d 9100 873b
00000050: 0400 0000 0400 0000 4a5f 1839 d510 5c3b
00000060: 8e5f a139 0400 0000 f4ab 7a3a 1deb 133b
00000070: 0400 0000 832d 753a 36e2 5e38 0400 0000
00000080: 3ad4 fa3a 3b22 db3c 0400 0000 eb8d 8c3d
00000090: 4f93 c739 1806 6e3d 0400 0000 0400 0000
000000a0: be0b 5f3d 0400 0000 5ee2 c63c 37f0 d83a
000000b0: bd42 fc3c b657 bf3c ba28 433b b773 833b
000000c0: 0400 0000 2453 f938 8a94 c939 0973 d93b
000000d0: 0400 0000 e08c d739 4271 1d3c b66d 4138
000000e0: 8c55 9b3c f124 043a bb4d ba3c 1da6 1d3c
000000f0: e157 5337 387f e03c cfa8 c139 130d 8a3c
00000100: e591 583a 0400 0000 119b 783b 37ca 3b3c
00000110: 610b 313a 0400 0000 0400 0000 688f 013b
00000120: 15f2 343a 0400 0000 dd05 bc3c ef1c 903b
00000130: ed37 ce3b 7d2d 1d3d 8cbc 493c 0400 0000
00000140: 0400 0000 cf82 dc3c 4143 0e3d e2ae c93c
00000150: ca4c ce3a b504 303d 86f1 333c 2864 863c
00000160: 0400 0000 c03a 003a 9ccd 6438 fe96 383d
00000170: 5fb5 063a b8d0 6e3a 899a 273d 84b7 7f3c
00000180: d2ce 0938 e30a cc36 5c28 8a3a 0400 0000
00000190: d643 353c 4956 793d c854 923b 6214 d33c
000001a0: f1c4 0f3a 85b5 c63a c9f6 863b 2310 293b
000001b0: 49e2 0233 af49 d33c de1d 203b 0400 0000
000001c0: 824e 453d 0400 0000 220d 313d 121c 1b38
000001d0: 0400 0000 5d5f a83a dfbc 783c d91d 8b3b
000001e0: e7c4 c43b cc9b 4d3c 3a51 1e3b 2593 623d
000001f0: fbe9 943b 0400 0000 a8ed 113b e306 af3b
0.00080666866 6e-45 0.0020761285 0.0044624284 6.811917e-05 0.00046921865 0.049976736 0.00051681686
0.0050321072 2.4137486e-07 0.003728613 6e-45 6e-45 0.006435021 0.028218241 5.4253593e-05
0.0013040041 0.00018455155 0.049066737 0.0041199406 6e-45 6e-45 0.00014531348 0.0033579369
0.00030779507 6e-45 0.0009562366 0.0022570558 6e-45 0.000935279 5.31396e-05 6e-45
0.0019136735 0.02674972 6e-45 0.06863006 0.0003806599 0.05811128 6e-45 6e-45
0.054454558 6e-45 0.024277862 0.0016551082 0.030793542 0.023357254 0.0029778914 0.004011597
6e-45 0.000118887314 0.00038448378 0.0066360277 6e-45 0.00041112956 0.009609522 4.6116962e-05
0.01896169 0.0005040905 0.022742143 0.009622124 1.2597041e-05 0.027404413 0.000369376 0.016851937
0.0008261486 6e-45 0.0037934224 0.011461786 0.000675371 6e-45 6e-45 0.0019769315
0.0006902528 6e-45 0.022952015 0.0043979804 0.006293288 0.03837346 0.0123130195 6e-45
6e-45 0.026917843 0.034732107 0.024619523 0.0015739438 0.04297324 0.010982877 0.01640518
6e-45 0.0004891567 5.4550925e-05 0.045065872 0.0005138721 0.0009110081 0.04091886 0.015607718
3.285596e-05 6.080941e-06 0.0010540592 6e-45 0.011063537 0.060873304 0.004465673 0.025766555
0.00054843636 0.0015160298 0.0041187746 0.0025796972 3.047379e-08 0.025791971 0.0024431865 6e-45
0.048170574 6e-45 0.043225415 3.6981022e-05 6e-45 0.0012845803 0.015181749 0.0042455015
0.006004918 0.012549352 0.0024157302 0.05531611 0.004544494 6e-45 0.0022266898 0.005341397

fc2.weight f4 [64, 128]
00000000: 23cd 45bd 05ef 6b3c 6153 073d fda5 043c
00000010: b6ab 6bbd 915b b43d 0e20 70bd 9e0d a23d
00000020: 0885 8bbd 0c8c 35bb a2b6 323d 785c f4bc
00000030: c241 a33d c1ff 82bd b166 8cbd b963 1abd
00000040: a8f5 1a3d 5380 a73d bda8 3dbd ceed 353d
00000050: fa27 b9bc 63b2 e9bb 0939 933d 16aa 81bd
00000060: c5fd 5e3c 8fe1 b43d 3f74 0abc 840c 993d
00000070: 4d26 e0bc aa34 803d 45cb aabd e5e7 5bbc
00000080: 294f 36bc 20e9 a23c 6d0a 0c3d c512 843d
00000090: fae5 9cbc 825b ca3a a38b 7e3d 70dc b4bc
000000a0: 3fd6 a83d 4696 7fbd 2e9c 9abc 1649 573b
000000b0: fc7e 013d 2c3e 5f3d 28ea 1cbb 0087 a6bd
000000c0: 88e8 423d fca4 ee3c bdbc 213d 577b 58bd
000000d0: 04b7 4e3d 93af d53d 84de 95bb 59a6 c4bd
000000e0: 0466 863d fa7d aabd a64e 763c 66b9 a23c
000000f0: 85ca 2dbd 00f9 eb3c f2f8 9bbd 084f e83c
00000100: eba9 54bd 56db d2bb 5385 9e3c 3f81 ae3d
00000110: 221a 20bd a7bc 5f3d 340d f4b9 bba0 1bbd
00000120: b107 98bd feeb 80bd e3af bb3d 6927 a2bc
00000130: 6564 a73c ec82 003d 0ce6 6e3d 781b a13d
00000140: 1556 883d dca6 8bbd 00e1 ffbb 4130 2abd
00000150: 90e8 3fbd 954e 673c 78e5 9c3d d75f 95bd
00000160: c99a 523d 5ff8 2fbd 2098 7ebc eb62 863d
00000170: 10a7 89bc f943 313c 5f25 83bd 9c05 a53d
00000180: 1799 24bb 317a 6bbd 2477 fa3c 025a 85bd
00000190: 272e 76bd 29f4 453a cb27 913d 0cf0 84bc
000001a0: df28 013d 27ed b23d 67a4 853d e79d 37bd
000001b0: e7f9 ba3c c7af 07bd 097d 8abd 1f20 f8b9
000001c0: 72a1 763d fbf3 aa3d 8ded 653c c310 a03c
000001d0: 9902 26bd aa74 5a3d 089a 17bd 533c 72bd
000001e0: 805b 8e3c 65e8 433d 12fb 96bd 03a8 9a3d
000001f0: 0e94 983c 09c5 7dbd 8813 22bc 461f a73d
00000200: a453 85bd 8f74 2bbc a7e9 d43c 6269 a1bd
00000210: c9fa 553d bdb7 213d 9112 6a3d 1eab 56bd
00000220: 2cb1 b03d 978e 3ebd 3e6e bd3d e4d2 92bd
00000230: da02 cdbd 6b8e 693d f477 ed3b 5063 163c
00000240: 69a3 20bd daab 07bd 3a6e c2bc 418c a0bd
00000250: 4922 68bc 5750 a339 cffc 4939 ce49 e73c
00000260: 4218 ae3d 9f99 de3c 0f77 e3bc 1fa5 19bd
00000270: 42b5 a1bd 833c 66bd 71b0 2abc 4089 f8bc
00000280: e53b 263d c8da 0cbd 8d66 953d c8c0 70bd
00000290: f030 803b 2054 9d3d 01ff 8e3d eb7e 8ebd
000002a0: c3ce 4c3c deb3 ec3c 927a 16bd 6ffd edbc
000002b0: e000 e83c 4888 67bd 6dd6 fa3b d180 2e3d
000002c0: d253 67bd 4ae2 9e3d 6ac1 52bb 945a 103d
000002d0: ccff c43d 8437 76bc d7bd 593d 44f6 4cbc
000002e0: c8dd 89bc 6747 f2bb 651a 7bba b1f8 07bd
000002f0: d599 bb3c 1f26 053c 172a 783d e22f b2bc
00000300: f865 5a3c e6de 57bd 101d 99bd 5f91 f33c
00000310: 1cb0 6f3c 5d30 52bd 6b96 c1bc ba2b 993c
00000320: f357 3cbc 4afb bb3c 53ac 3a3c 7c0f fe3c
00000330: b0ec 3f3d 2e42 cabc 7eab 383d 854b 3a3d
00000340: 5c6d d73c 35dd 913c 246a 21ba 3cd7 673d
00000350: 6410 30bd 5e6e 2fbd 08b9 243d 0865 a4bd
00000360: 703a ba3c 71a5 13bd eab9 7e3d dd64 a8bd
00000370: 8048 6e3d 9040 bc3d c84f a63c eda2 3ab9
00000380: e56d c13d db68 51bd 4f1a 31bb c56b 97bc
00000390: 3c94 71bc 9eb6 cb3c 8f57 013c 3a33 abbc
000003a0: f7d1 9fbd b68b 873c e89d 063b a189 843c
000003b0: 3e51 973d f7c9 b73d 3653 64bd 0647 393c
000003c0: 4abd f2bc 5e01 c0bd 2311 8bbd dd48 633d
000003d0: 2357 8f3d 5985 633d bbd0 503d b1fa 8cbd
000003e0: ae7e 213c 149c ae3d 5b22 4abd 833d ad3d
000003f0: 0b1c fa3c d4c9 a63d f098 dfbc bdf7 193d
-0.048291337 0.014400248 0.0330385 0.008096215 -0.057536803 0.088065274 -0.05862432 0.079127535
-0.06812483 -0.0027701883 0.043631203 -0.029829249 0.07971527 -0.063964374 -0.06855524 -0.03769276
0.037831932 0.08178773 -0.0463035 0.04441624 -0.02260207 -0.007131861 0.07188613 -0.063312694
0.013610308 0.088320844 -0.008450567 0.0747309 -0.027362013 0.06260045 -0.08339552 -0.013421987
-0.011127272 0.019886553 0.03418963 0.064488925 -0.01915263 0.0015438648 0.062144887 -0.022077769
0.08243989 -0.06239917 -0.0188733 0.003284996 0.031615242 0.05450265 -0.002394328 -0.08131218
0.04758504 0.029131405 0.039486635 -0.052852 0.050467506 0.10433879 -0.004573645 -0.09602041
0.06562427 -0.08324809 0.0150334 0.019863795 -0.042429466 0.028805256 -0.07615842 0.028357998
-0.05191986 -0.0064348383 0.019350683 0.085207455 -0.039087422 0.054623272 -0.00046549144 -0.03799508
-0.07423342 -0.06295012 0.09164407 -0.019794183 0.020433614 0.031374857 0.05832486 0.078665674
0.06657044 -0.06818935 -0.0078088045 -0.041549925 -0.04685265 0.0141178565 0.07660955 -0.072936706
0.051417146 -0.042961475 -0.015539199 0.06561836 -0.016803294 0.010819429 -0.06403612 0.080577105
-0.0025115663 -0.057489578 0.030574389 -0.06511308 -0.060102608 0.00075513363 0.07087668 -0.016227745
0.03153312 0.087366395 0.06525498 -0.04482832 0.02282424 -0.03312662 -0.0676213 -0.00047326178
0.06021256 0.08347317 0.014033687 0.019539243 -0.04052982 0.053333916 -0.03701213 -0.05913956
0.017377615 0.04782905 -0.073721066 0.07551577 0.018625285 -0.061955485 -0.009892352 0.08160262
-0.06510094 -0.010464801 0.02599032 -0.07881428 0.05224112 0.039481867 0.057146613 -0.052409284
0.08627543 -0.046522703 0.09249543 -0.071691304 -0.100103095 0.057020586 0.0072469655 0.009178951
-0.03921834 -0.033122875 -0.0237342 -0.07839251 -0.0141683305 0.0003114964 0.00019263032 0.028233435
0.085007206 0.027172862 -0.027766732 -0.037510987 -0.078959 -0.056210052 -0.0104180435 -0.030338883
0.040584464 -0.034388334 0.07294951 -0.0587776 0.003912084 0.07682061 0.06982232 -0.069578014
0.012500468 0.028894361 -0.036737986 -0.02905151 0.02832073 -0.056526452 0.007654956 0.042603318
-0.05647642 0.07758005 -0.003215874 0.035242632 0.09619102 -0.015027884 0.05315956 -0.012509886
-0.016829386 -0.0073937657 -0.0009578823 -0.033196155 0.022900501 0.008126765 0.060587015 -0.021751348
0.013329975 -0.052702807 -0.07476246 0.029732404 0.01462939 -0.051315654 -0.023631295 0.018697608
-0.011495578 0.022946972 0.011393624 0.031013243 0.046856582 -0.02468976 0.045085423 0.045482177
0.026297264 0.017805675 -0.0006157479 0.056601748 -0.04298438 -0.042829864 0.040215522 -0.08027083
0.022732943 -0.03604645 0.06218902 -0.08222363 0.05817461 0.09192002 0.020301715 -0.00017799037
0.09444789 -0.05112539 -0.0027023738 -0.018484006 -0.0147448145 0.024867352 0.007894411 -0.02089845
-0.078037195 0.016546112 0.0020540897 0.016178908 0.073885426 0.089740686 -0.05574342 0.011308437
-0.029631276 -0.09375261 -0.06790378 0.05548941 0.06999042 0.055547092 0.05098031 -0.06883753
0.009856863 0.08525863 -0.04934917 0.08458998 0.03053095 0.081439644 -0.027294606 0.037589777

fc2.bias f4 [64]
00000000: 3f67 3a3c a88c b43d 4e79 813d c71a 13bd
00000010: 66a5 1dbd addb ca3c ef29 5dbd 3a9c fcbb
00000020: 99d2 dc3c dc3f f5bc 7fcd f83c 934b 5abc
00000030: 15c3 ae3d 7ae5 96bd 3b92 a23d 24f1 c63d
00000040: 422b 82bd 766f 923c 780a 1ebc c2b6 4e3d
00000050: 8a7d 8d3d b739 30bd b74e 17bd 2131 80bd
00000060: e2f9 993d a777 88bd 6380 46bd 9d28 a33d
00000070: e069 573d 3441 8e3d 950a 8b3d cd3c 90bd
00000080: 6b4e cabc 982c 603b 4399 e13d 9c85 08bd
00000090: f53b af3a abd4 9b3d 9207 543d 8252 62bd
000000a0: 29e8 4cbd cdcb b3bc 02bb d43c af66 d53d
000000b0: 4296 2b3d 6b48 9b3d 660b fa3c 6e1f 9bbc
000000c0: e631 49bc 4928 a83d 8957 f13c 16e8 c43c
000000d0: 5abb cd3c 0990 763d d9c6 793c ea01 583c
000000e0: 3f53 33bd a4d0 76bd 44e5 11bd b829 b13d
000000f0: d151 843d 685c 2ebd a0c4 a13d ba17 c0bc
0.011377155 0.088158906 0.06321965 -0.03591421 -0.038487814 0.024762953 -0.05399507 -0.0077090533
0.02695589 -0.029937677 0.030371426 -0.013323682 0.08533303 -0.07367988 0.079380475 0.09713963
-0.06355907 0.017875414 -0.009646051 0.05046726 0.0690871 -0.04302379 -0.036940303 -0.062593706
0.075183645 -0.06663447 -0.048462283 0.07966731 0.052591205 0.0694603 0.06789128 -0.07042847
-0.024695596 0.0034206267 0.110155605 -0.033330545 0.0013369309 0.076089226 0.051765032 -0.055254467
-0.050026093 -0.021947766 0.025968079 0.10419976 0.041891344 0.07582172 0.030523013 -0.018935885
-0.012279963 0.08210809 0.029460685 0.024036448 0.02511375 0.060195956 0.015245163 0.01318405
-0.04378056 -0.06025757 -0.035619035 0.08650535 0.06460918 -0.042568594 0.07898831 -0.023448814

bn2.weight f4 [64]
00000000: cca0 7f3f 917d 7e3f ac0d 803f 6c55 7f3f
00000010: 8f70 7c3f e987 7f3f f949 7e3f 315e 7c3f
00000020: 7a0c 803f dd9b 7c3f fe08 7f3f 2094 803f
00000030: 8e1e 7f3f fd8f 7d3f 293b 7e3f 889e 7e3f
00000040: 4808 803f 1af4 7d3f 22ab 7e3f d4ba 7e3f
00000050: 4e45 803f 9ff5 7e3f 8cc4 7f3f 0149 7f3f
00000060: cbb5 7f3f 8acb 7d3f fd0f 7e3f d55f 7f3f
00000070: c70e 803f aba8 7f3f d701 7f3f 4892 7f3f
00000080: 455b 803f a453 7e3f fb84 7e3f b3a2 7f3f
00000090: 2921 7f3f 69fa 7d3f 8957 7e3f fde6 7f3f
000000a0: 5669 7f3f ef32 7f3f b20f 7f3f 559a 7f3f
000000b0: 61be 7d3f d1de 7e3f 48f5 7d3f 34ec 7f3f
000000c0: 302d 7a3f eee3 7c3f 201a 803f d553 803f
000000d0: 49ad 7e3f 8fde 7e3f 2b95 7e3f 47f4 7d3f
000000e0: f770 7f3f d0a2 7d3f c7a6 7f3f c46b 7f3f
000000f0: 5496 7f3f 31b0 7d3f 1d25 803f 7ac0 7d3f
0.9985473 0.9941035 1.0004172 0.9973972 0.9860925 0.9981676 0.99331623 0.98581225
1.0003808 0.9867533 0.99623096 1.0045204 0.99656 0.99047834 0.9930902 0.9946065
1.0002527 0.99200594 0.9947988 0.9950383 1.002115 0.9959354 0.9990928 0.9972077
0.9988677 0.991387 0.99243146 0.99755603 1.000451 0.9986674 0.9961218 0.9983258
1.0027853 0.99346375 0.9942166 0.99857634 0.99659973 0.9921022 0.9935232 0.99961835
0.99770105 0.99687093 0.99633324 0.99844867 0.9911862 0.9955874 0.99202394 0.9996979
0.977252 0.98785293 1.0007973 1.0025584 0.9948316 0.9955835 0.9944636 0.9920086
0.99781746 0.9907656 0.9986386 0.9977381 0.9983876 0.9909697 1.0011326 0.9912182

bn2.bias f4 [64]
00000000: 62d4 dc3e 8a20 d4be c211 bd3e 5d13 c83e
00000010: 9c84 e53e a318 d73e fbe2 ccbe b6bd de3e
00000020: 4b39 be3e d913 be3e cedf bbbe 735a cdbe
00000030: 84f6 b93e 43b5 c03e 7852 c73e 3c6c bcbe
00000040: 22e6 c8be f8a6 d7be 10c9 c9be 135b e6be
00000050: 8e74 c1be 499e bd3e 708f bfbe abe5 cebe
00000060: ceeb d2be e7dc c4be 76d9 e33e d3e3 cd3e
00000070: 80a8 d73e 0deb c03e 7a20 f63e ab3e c9be
00000080: 2692 dfbe f55d f93e 7419 d4be 5817 bd3e
00000090: f44c c53e ff5f bd3e b7f7 b9be 27ae bb3e
000000a0: 2ab7 cbbe e0e3 c1be 9db5 da3e edf3 e13e
000000b0: 1044 c0be 5281 bf3e ac9c bb3e 0c34 e33e
000000c0: 1356 e93e a48e d13e cd8f ebbe ce58 c9be
000000d0: 70e1 cabe 1769 d9be 8cad c3be 4f84 ce3e
000000e0: ecc5 e9be ba2a d2be dfdd d4be 3022 d53e
000000f0: f3b0 bfbe 855b c23e db3b cb3e 6fcb ba3e
0.43130785 -0.41431075 0.3692761 0.39077273 0.44827735 0.42010984 -0.40016922 0.43504113
0.37153086 0.37124518 -0.36694187 -0.4010807 0.3632089 0.37638292 0.38930106 -0.36801326
-0.39238077 -0.42119575 -0.3941121 -0.4499136 -0.37784237 0.37034824 -0.37414122 -0.40409598
-0.4119553 -0.38449785 0.44501847 0.4021288 0.42120743 0.3767933 0.48071653 -0.39305624
-0.4366619 0.48704496 -0.4142567 0.36931872 0.38535273 0.36987302 -0.36321804 0.36656305
-0.3978818 -0.37869167 0.42716685 0.44131413 -0.37551928 0.3740335 0.3664297 0.44375646
0.45573482 0.4092914 -0.4600815 -0.39325565 -0.3962512 -0.4246299 -0.38218343 0.40335318
-0.45658815 -0.41048223 -0.41575524 0.41627645 -0.3743969 0.3796045 0.39694104 0.36483333

bn2.running_mean f4 [64]
00000000: cc0a aa3e 2b12 763e 8f52 803e 6cb9 d53e
00000010: 2224 263e 7af2 c43e efc1 c43d 173f f23d
00000020: b849 c03e 5a88 bb3d 5084 a33e 0391 8c3e
00000030: 17cc 8f3e 0aeb 513e 2243 733e 7329 2c3e
00000040: f7b2 893e df7d 833e 2bea b73e 7bb0 a03e
00000050: 36dc 873e 0831 963e 53da 8c3e 9e5b 883e
00000060: 6bea c03e 9f08 183e 2177 b93e 26b0 923e
00000070: 2887 a93e 6b0f f23e 46ee a43e 4b63 533e
00000080: 9e4c e03e d46c d63e 7061 8f3e 4b8f 463e
00000090: b197 bf3e 9a80 6f3e 970a 343e 9e05 4d3e
000000a0: 2136 c53e 6a78 9a3e b2ae ed3e c46a 273f
000000b0: 931a 9a3e 20b6 c43e 5e3c 583e 8a20 ba3e
000000c0: 7d15 683e 9402 8c3e 9366 d03e 96f0 dd3e
000000d0: 35ae 823e 82f4 563e eb62 3d3e ebd1 033f
000000e0: bbb5 9a3e 8b0c 1a3e b3d6 953e 7b04 4f3f
000000f0: 799c 4f3e c116 b13e fd89 a13e 59cf 313e
0.33211362 0.24030368 0.25062987 0.41743028 0.16224721 0.38466245 0.096073024 0.1182844
0.37556243 0.09156866 0.31936884 0.27454385 0.28085396 0.20499817 0.23756078 0.16812687
0.26894352 0.2568197 0.35920843 0.31384644 0.26535195 0.29334283 0.27510318 0.26632398
0.37678847 0.14847039 0.362237 0.28650016 0.3311093 0.47277388 0.32213038 0.20643346
0.43808454 0.41879904 0.28004026 0.193906 0.3742042 0.23388901 0.17582165 0.20021674
0.3851786 0.30169994 0.46422344 0.65397286 0.300984 0.384202 0.21116778 0.3635295
0.22664447 0.27345717 0.40703258 0.43347615 0.25523534 0.2099171 0.18494765 0.51492184
0.30216774 0.15043847 0.29265365 0.8086621 0.20274533 0.34587672 0.3155059 0.17364253

bn2.running_var f4 [64]
00000000: 6491 2b3e a733 bc3d 153f a73d 05f8 343e
00000010: b67a 6a3e 019d 303e 549b d53d 80da 8d3e
00000020: b2ef 913e 82f0 cf3d e4bb 4a3e f271 1a3e
00000030: 4690 b93d 669f 2e3e ce90 573e fd01 7f3d
00000040: 8d73 fe3d 9f84 ec3d 5934 633e 63a0 ef3d
00000050: 0952 953d e3a6 f43d 7263 9d3d 24d6 bb3d
00000060: 7b16 143e d6f2 863e e7a0 103e 33d9 a83d
00000070: 7f45 183e de00 883e ccad d93d 69b7 5f3d
00000080: 9a13 4d3e 131a 533e 1d5e bc3d e2e3 423d
00000090: 2176 143e f968 4b3d edd0 1a3d 8467 3c3d
000000a0: 043d 093e 4811 d33d de27 683e cae4 e93e
000000b0: 4c0f 683e cdf4 233e e356 b13e 0477 a43e
000000c0: a152 9a3d 8c76 623e 645d 353e b335 673f
000000d0: 3437 103e 7a71 463d 424e 453d 0d17 903e
000000e0: c2f1 a63e 4698 be3e dd0d 003e 95ba 273f
000000f0: ac73 7c3d 6d4c a43e 93b3 1c3e db9c 523d
0.16754681 0.091895394 0.08166329 0.17672737 0.22898373 0.17247392 0.10430017 0.27705765
0.28503186 0.10153295 0.19798237 0.15082529 0.09060721 0.17052993 0.21051332 0.062257756
0.12424383 0.11548733 0.22187938 0.11700513 0.072910376 0.119458936 0.07684983 0.091717035
0.144617 0.26357144 0.1412388 0.082445525 0.1487026 0.26563162 0.10628852 0.054618273
0.20027009 0.20615415 0.09197638 0.047580607 0.14498188 0.049660657 0.037796903 0.045997158
0.13402182 0.103060305 0.22671458 0.45682365 0.22662085 0.16011353 0.34636602 0.32122052
0.075352915 0.22115535 0.17711407 0.90316314 0.14083558 0.048448063 0.048170336 0.28142586
0.32606322 0.3722555 0.12505288 0.65519077 0.06163375 0.32089558 0.15302877 0.05141912

fc3.weight f4 [1, 64]
00000000: 0f76 d2be 3898 dd3e 26c7 e1be 4e0b dfbe
00000010: 1618 d7be 984a dabe ed17 e13e f509 d7be
00000020: 2087 ffbe 4191 05bf 3723 023f 4bcb e83e
00000030: ea72 02bf 4f28 ffbe 0c7f ebbe 119c f93e
00000040: 9aca dd3e 3c03 d53e b362 e53e 23b9 c93e
00000050: 516e e43e a3e5 e4be 68c4 f33e 9313 d03e
00000060: 449b dd3e e5ae f93e 0311 cabe e40b d4be
00000070: cd48 dbbe 7a0a efbe c8b3 cdbe c224 f13e
00000080: 2ffa cb3e 1607 c6be 9df5 ce3e 4906 fabe
00000090: 99ae e1be 2265 fdbe c78f 023f 1f0f fabe
000000a0: 421d d73e fb4c f33e 65a6 d1be 0ba3 cebe
000000b0: 54c2 f53e 097a edbe 1b74 02bf 388a cfbe
000000c0: bd22 d2be b3b2 e2be ef5a c93e 949c f43e
000000d0: 36cf d63e 2223 d33e 7f9b e63e f1a8 dcbe
000000e0: c2f8 d63e 2cd7 e83e 15f4 df3e 69c9 d0be
000000f0: ab8b 003f 7c90 f4be 4b8b d1be eeac 01bf
-0.41105697 0.43280196 -0.4409725 -0.43563312 -0.42010564 -0.42635036 0.43963566 -0.41999784
-0.4990778 -0.52174765 0.50834984 0.454676 -0.50956595 -0.4983544 -0.45995367 0.48751882
0.43318635 0.4160403 0.44801864 0.3939906 0.44615415 -0.4470645 0.47610784 0.40639934
0.4328252 0.48766246 -0.39466104 -0.41415322 -0.4282898 -0.4668768 -0.40176225 0.47098356
0.39839312 -0.3867728 0.40421763 -0.4883292 -0.4407852 -0.4949122 0.51000637 -0.4883966
0.4201451 0.4751967 -0.4094726 -0.40358767 0.47999823 -0.46382168 -0.5095841 -0.4053514
-0.41042128 -0.44276962 0.3932719 0.4777571 0.41954964 0.41237742 0.4504051 -0.43097642
0.41986662 0.45476663 0.43740907 -0.40778664 0.50213116 -0.47766483 -0.40926585 -0.50654495
