PreTrained/cstr_ode/Deep_DQN/0_11/800.pth (torch, 43158 bytes, 13 tensors)

fc1.weight f4 [128, 4]
-0.0041312515 0.26821652 -0.4033646 -0.36468947 -0.19257718 0.13407868 -0.00990659 0.39644474
-0.045606118 0.13174589 -0.16875412 -0.09789318 -0.4949931 -0.3089941 -0.20877811 0.01223388
0.18772425 0.30944756 -0.34055156 -0.20998132 0.18043385 0.41563493 -0.10898551 0.37415588
-0.08262647 0.061784536 0.45650974 -0.47137123 -0.33009106 -0.10346487 -0.20866567 0.4320004
-0.31889647 -0.2393591 -0.3487816 -0.44850874 -0.29412204 0.42123008 0.21655568 0.24233627
0.02495623 -0.26086658 0.08737156 -0.44298702 -0.36128312 -0.257765 0.31546897 0.29316062
-0.22174752 -0.018041193 0.31978035 0.49706656 0.18989934 0.076291375 0.33906892 -0.29526326
0.08012659 -0.378772 -0.3586313 -0.2555556 0.24721299 0.1801042 -0.27519956 0.15105355
0.27010706 -0.049046252 0.018621366 0.1102776 0.31093162 0.48188716 -0.39533418 -0.18897621
0.20503806 0.40769604 0.4295096 0.459261 0.11168843 -0.43211335 0.035777334 -0.31461036
-0.46635517 0.44288513 0.37943888 -0.49802294 0.09358603 -0.084230006 -0.082280576 -0.22887844
0.1996272 -0.30451915 0.19190378 0.25285405 0.3429511 0.19461772 -0.51439357 -0.3087203
0.24704461 0.106738195 -0.39078572 -0.2834263 0.47037464 0.33690894 -0.21801257 -0.12584239
-0.47606623 -0.009647193 -0.36728963 -0.38327935 -0.02609958 0.06916504 -0.19315456 0.2966888
-0.32007855 0.47143367 0.3268155 -0.40580702 -0.13138491 0.03009689 0.066016875 0.11137389
0.19137973 0.034784846 -0.24879868 0.2365945 -0.47962445 -0.29635334 -0.12516493 -0.24355668
-0.18393444 -0.39897174 -0.10876861 0.10687822 -0.329675 -0.023083359 0.35399067 -0.057771333
0.013896108 -0.04313445 0.101190686 0.31791973 0.46631977 0.32057452 0.48378718 -0.039273053
-0.4338799 -0.2513637 0.3548564 -0.00038757824 -0.25128075 -0.37774375 -0.49090153 -0.41167647
-0.11016592 0.28269777 0.26202065 -0.47391605 0.31189102 -0.39125472 -0.10570514 -0.20273632
-0.10100149 -0.10221242 -0.44317207 -0.43005025 -0.07823974 0.0064660907 -0.22713745 0.1883496
-0.454318 -0.0297819 0.43273222 -0.21036789 0.44292533 0.18817274 -0.43987107 0.31634867
-0.05347175 -0.20655191 0.41573343 -0.40152624 0.062318824 -0.10361822 0.35661402 0.13248312
0.2456322 0.17127755 -0.1157204 -0.1091712 -0.41851842 0.27493486 0.39092165 0.34211242
-0.35268915 0.022299945 -0.35246706 -0.2752421 -0.2883034 0.16782233 -0.29490703 -0.010908604
0.048338685 0.29325882 -0.34189996 -0.36153585 -0.28066194 0.33376703 -0.17066294 0.42174435
0.18080378 0.06331301 -0.003722012 -0.09884077 0.059547722 -0.11123595 0.008833946 0.059120778
-0.3867024 -0.2531871 0.4132732 -0.42075557 -0.017928045 0.47166175 0.1944493 0.0147595415
-0.41258425 0.23078664 -0.3266717 -0.14472884 -0.17309764 -0.073686585 -0.005134475 0.41240376
0.07267328 0.43997812 0.31185415 -0.3030826 0.21788229 -0.34346288 -0.22110699 0.13110368
0.1584629 0.38174585 -0.16759107 0.0008004308 0.2716941 -0.5048837 0.35497037 -0.40142784
-0.0032038267 -0.07542991 -0.2686179 0.06608552 0.4203875 -0.1396604 -0.2921503 -0.19310585
00000000: 735f 87bb ad53 893e ce85 cebe 94b8 babe
00000010: f432 45be ec4b 093e 404f 22bc cefa ca3e
00000020: 7bcd 3abd 65e8 063e e1cd 2cbe 387c c8bd
00000030: bc6f fdbe 7a34 9ebe eec9 55be 9d70 483c
00000040: c93a 403e e96f 9e3e c65c aebe 5805 57be
00000050: a7c3 383e 1ace d43e cc33 dfbd 5c91 bf3e
00000060: 1138 a9bd c811 7d3d a5bb e93e 9257 f1be
00000070: b201 a9be 64e5 d3bd 74ac 55be 282f dd3e
00000080: 6646 a3be 8d1a 75be 8093 b2be f0a2 e5be
00000090: 2a97 96be 78ab d73e c6c0 5d3e 0027 783e
000000a0: 0271 cc3c 4e90 85be dcef b23d 32cf e2be
000000b0: 1afa b8be c6f9 83be 2685 a13e 2619 963e
000000c0: c811 63be 20cb 93bc 40ba a33e 827f fe3e
000000d0: f974 423e a73e 9c3d 719a ad3e bf2c 97be
000000e0: 6919 a43d 67ee c1be 869e b7be 2fd8 82be
000000f0: 6725 7d3e 3c6d 383e f5e6 8cbe c8ad 1a3e
00000100: 794b 8a3e b9e4 48bd d68b 983c 39d9 e13d
00000110: 6e32 9f3e eab9 f63e 3e69 cabe fb82 41be
00000120: 7ff5 513e 89bd d03e afe8 db3e 4224 eb3e
00000130: e7bc e43d f63d ddbe 418b 123d 9c14 a1be
00000140: 1bc6 eebe d7c1 e23e d045 c23e ddfc febe
00000150: 08aa bf3d c880 acbd b882 a8bd 1c5f 6abe
00000160: 136b 4c3e efe9 9bbe 6d82 443e 1676 813e
00000170: 4997 af3e de49 473e 4caf 03bf 9610 9ebe
00000180: 43f9 7c3e 8e99 da3d 1115 c8be 411d 91be
00000190: f2d4 f03e 547f ac3e b03e 5fbe d4dc 00be
000001a0: f4be f3be 430f 1ebc 630d bcbe 313d c4be
000001b0: c9ce d5bc 67a6 8d3d 4fca 45be 98e7 973e
000001c0: 56e1 a3be c15f f13e 5c54 a73e f0c5 cfbe
000001d0: c489 06be c18d f63c db33 873d fe17 e43d
000001e0: 0cf9 433e 8e7a 0e3d 15c5 7ebe d445 723e
000001f0: 5691 f5be a0bb 97be 3c2b 00be ec66 79be
00000200: 4f59 3cbe 0646 ccbe 14c2 debd f8e2 da3d
00000210: 29cb a8be 5019 bdbc 443e b53e a2a1 6cbd
00000220: 80ac 633c c0ad 30bd 103d cf3d 60c6 a23e
00000230: 77c1 ee3e 5822 a43e f4b2 f73e c8dc 20bd
00000240: 8225 debe beb2 80be bdaf b53e df33 cbb9
00000250: dfa7 80be a167 c1be 7257 fbbe 42c7 d2be
00000260: ab9e e1bd c3bd 903e 9227 863e 20a5 f2be
00000270: 2eb0 9f3e 8a52 c8be f07b d8bd 1c9a 4fbe
00000280: dfd9 cebd bf54 d1bd 73e7 e2be 8c2f dcbe
00000290: 283c a0bd 80e1 d33b b896 68be b8de 403e
000002a0: 5e9c e8be 2cf9 f3bc 148f dd3e ae6a 57be
000002b0: 1cc7 e23e 5bb0 403e c836 e1be 74f8 a13e
000002c0: 3205 5bbd 5882 53be 03db d43e d994 cdbe
000002d0: 0642 7f3d ca35 d4bd 1d96 b63e a8a9 073e
000002e0: 0287 7b3e 6263 2f3e d1fe ecbd 2695 dfbd
000002f0: 0c48 d6be 43c4 8c3e e226 c83e 5c29 af3e
00000300: ac93 b4be 60ae b63c 9076 b4be 88ec 8cbe
00000310: 819c 93be 9ed9 2b3e 0efe 96be 00ba 32bc
00000320: c9fe 453d 0526 963e 830d afbe 3a1b b9be
00000330: ecb2 8fbe 83e3 aa3e 44c2 2ebe e0ee d73e
00000340: a024 393e 40aa 813d 00ed 73bb 086d cabd
00000350: 50e8 733d accf e3bd 41bc 103c a128 723d
00000360: dbfd c5be bda1 81be 8b98 d33e 466d d7be
00000370: d6dd 92bc a67d f13e b81d 473e 01d2 713c
00000380: 3e3e d3be 5553 6c3e 8341 a7be cc33 14be
00000390: 8240 31be fee8 96bd 193f a8bb 9626 d33e
000003a0: bbd5 943d d044 e13e 59ab 9f3e a42d 9bbe
000003b0: 891c 5f3e 5eda afbe df69 62be 0b40 063e
000003c0: 1944 223e 3174 c33e fe9c 2bbe 00d4 513a
000003d0: 7d1b 8b3e 0f40 01bf adbe b53e f387 cdbe
000003e0: 4bf7 51bb ff7a 9abd 4988 89be d857 873d
000003f0: 083d d73e 2303 0fbe b994 95be 8abd 45be

fc1.bias f4 [128]
-0.14485076 -0.18639785 0.11913446 0.16368526 -0.24903719 0.043192293 0.28317675 -0.036353
0.157134 -0.12758975 0.17712657 -0.3621971 -0.2940144 -0.25039074 0.46056 -0.15551911
-0.051632643 -0.23182885 0.49903348 0.4890137 -0.37783435 -0.40533495 -0.37038898 -0.010762698
-0.13618182 -0.32727283 -0.18390903 0.1061103 -0.27707982 0.109120265 -0.10982283 -0.24228168
0.062387284 0.41037518 -0.33803964 0.026831817 -0.16998018 0.47252005 -0.4826815 -0.4793306
0.49352643 -0.31634498 0.1017125 -0.08144979 -0.092328325 -0.112117216 0.31694174 0.021510916
-0.4868073 -0.29822963 -0.17519124 0.265142 -0.32356685 0.4710669 -0.092783496 -0.0864788
0.41369322 0.22983307 0.4241424 0.28615698 -0.14504382 -0.33099446 -0.034934554 0.4100307
-0.15393595 -0.46368498 0.19104742 0.4844304 -0.15503487 -0.41401178 -0.45352983 0.12354723
-0.039348375 -0.25896707 0.102313906 0.18042606 0.39353916 0.3894081 -0.06468944 -0.44088358
-0.45181155 0.46750718 0.22481166 0.22667155 -0.4218604 0.46366292 0.45910692 0.46316734
-0.4217925 -0.19832523 -0.33907568 0.47447765 -0.19812885 -0.22317466 0.2548353 -0.22012256
-0.24196227 -0.04284991 -0.07221216 -0.38948923 0.4003069 -0.21738143 0.19234547 0.4368642
0.22525159 0.06520666 0.42465386 0.07544543 -0.2232601 0.47838026 0.10818498 -0.4878404
-0.1268815 -0.34058374 0.4409887 -0.058701847 -0.45576245 -0.014390761 0.31239766 0.13271458
0.16874336 0.03276636 0.18147199 -0.1286289 -0.18714824 -0.46735424 -0.3697339 0.2112757
00000000: c253 14be 14df 3ebe c5fc f33d 1c9d 273e
00000010: 9b03 7fbe 67ea 303d 8bfc 903e e2e6 14bd
00000020: bce7 203e e3a6 02be ab60 353e e671 b9be
00000030: 0e89 96be 3733 80be 85ce eb3e 6740 1fbe
00000040: c07c 53bd 8b64 6dbe 5181 ff3e 0160 fa3e
00000050: 8173 c1be 1088 cfbe a0a3 bdbe 0756 30bc
00000060: 3f73 0bbe 4e90 a7be a652 3cbe 5b50 d93d
00000070: 68dd 8dbe 727a df3d cbea e0bd b018 78be
00000080: cf89 7f3d b21c d23e 8813 adbe 66ce db3c
00000090: 490f 2ebe 26ee f13e 0822 f7be d26a f5be
000000a0: 7faf fc3e f8f7 a1be a54e d03d 26cf a6bd
000000b0: a216 bdbd b69d e5bd 3046 a23e a937 b03c
000000c0: ce3e f9be 8eb1 98be 5565 33be b1c0 873e
000000d0: 8eaa a5be ae2f f13e 4605 bebd cc1b b1bd
000000e0: 99cf d33e 5c59 6b3e 3129 d93e 2b83 923e
000000f0: 5e86 14be 1b78 a9be 8917 0fbd 8bef d13e
00000100: 63a1 1dbe 1e68 edbe efa1 433e 4307 f83e
00000110: 76c1 1ebe 5af9 d3be 1035 e8be 5506 fd3d
00000120: c32b 21bd 5597 84be f489 d13d 9cc1 383e
00000130: f77d c93e 8060 c73e e67b 84bd 7ebb e1be
00000140: d853 e7be 1a5d ef3e 0735 663e 961c 683e
00000150: 16fe d7be 3a65 ed3e 1010 eb3e 4524 ed3e
00000160: 30f5 d7be c515 4bbe 549b adbe bcee f23e
00000170: 4ae2 4abe e687 64be c679 823e cf67 61be
00000180: f5c4 77be 6383 2fbd f8e3 93bd 226b c7be
00000190: 07f5 cc3e 3d99 5ebe 36f6 443e aaac df3e
000001a0: 5aa8 663e 128b 853d 3b6c d93e 2283 9a3d
000001b0: 4c9e 64be 42ee f43e 1690 dd3d 38c6 f9be
000001c0: 39ed 01be fe60 aebe 45c9 e13e 5971 70bd
000001d0: b259 e9be 3ac7 6bbc 96f2 9f3e 55e6 073e
000001e0: 0fcb 2c3e 0536 063d cbd3 393e 4bb7 03be
000001f0: caa3 3fbe 0e49 efbe c34d bdbe a858 583e

bn1.weight f4 [128]
0.9955533 1.0 1.0134906 1.0033754 1.0128292 0.9946167 1.006799 1.0094905
1.0098234 0.9741184 1.0038736 1.0 1.0 0.98996264 0.9960087 0.98720235
1.0001364 1.0030906 0.9995464 1.0101678 0.99633193 1.0 0.99121386 0.9991912
0.9984868 1.0 0.9997681 1.0038075 0.98717666 0.9944517 1.0017948 1.0
0.9891595 1.0098891 1.0 0.99727225 0.99004215 1.0084137 0.99230033 1.0
0.9955057 1.0 1.0109789 0.9980865 0.995047 0.9996292 0.9931719 1.0062981
1.0 0.9935402 0.9899006 0.9970973 1.0 1.0027343 0.9968805 0.9829239
1.002655 0.9946801 0.99262214 1.0073037 1.0019519 1.0010275 1.0018933 1.0073042
1.0017505 1.0 1.0165222 1.0064796 1.0019015 1.0 1.0 0.9967394
0.99900794 0.98878753 1.0024285 1.0126803 0.994738 1.0036998 0.9854382 1.0
1.0 1.0166136 0.99468166 1.0047013 0.9787946 1.0045125 0.99994475 1.0011295
1.0 0.988148 0.9980477 0.99148077 1.0193793 0.9903956 0.9982171 0.99413973
0.98092604 0.97693247 1.0018632 1.0 1.0032035 0.99863625 1.0091878 1.0050665
1.0173912 0.9956757 1.0059916 1.0031433 0.993134 1.0000143 1.0097454 1.0
0.99614865 1.0 1.0065088 0.98192656 1.0 1.003975 1.0009987 0.9945718
0.9887512 0.99487287 1.0073854 0.9972566 0.9960982 1.0 0.99177057 1.0025082
00000000: 95dc 7e3f 0000 803f 0fba 813f 9b6e 803f
00000010: 63a4 813f 339f 7e3f cade 803f fc36 813f
00000020: e541 813f d35f 793f ee7e 803f 0000 803f
00000030: 0000 803f 316e 7d3f 6dfa 7e3f 4bb9 7c3f
00000040: 7804 803f 4665 803f 46e2 7f3f 2e4d 813f
00000050: 9c0f 7f3f 0000 803f 31c0 7d3f ffca 7f3f
00000060: d59c 7f3f 0000 803f cdf0 7f3f c47c 803f
00000070: 9cb7 7c3f 6394 7e3f d03a 803f 0000 803f
00000080: 8f39 7d3f 0c44 813f 0000 803f 3c4d 7f3f
00000090: 6773 7d3f b313 813f 6507 7e3f 0000 803f
000000a0: 76d9 7e3f 0000 803f c267 813f 9982 7f3f
000000b0: 66bb 7e3f b3e7 7f3f 8340 7e3f 60ce 803f
000000c0: 0000 803f a758 7e3f 206a 7d3f c541 7f3f
000000d0: 0000 803f 9959 803f 8f33 7f3f e7a0 7b3f
000000e0: 0057 803f 5ba3 7e3f 7c1c 7e3f 54ef 803f
000000f0: f63f 803f ab21 803f 0a3e 803f 58ef 803f
00000100: 5c39 803f 0000 803f 661d 823f 53d4 803f
00000110: 4f3e 803f 0000 803f 0000 803f 502a 7f3f
00000120: fcbe 7f3f 2e21 7d3f 944f 803f 829f 813f
00000130: 26a7 7e3f 3c79 803f ae45 7c3f 0000 803f
00000140: 0000 803f 6520 823f 75a3 7e3f 0d9a 803f
00000150: 4892 7a3f de93 803f 61fc 7f3f 0325 803f
00000160: 0000 803f 44f7 7c3f 0e80 7f3f afd1 7d3f
00000170: 057b 823f 918a 7d3f 288b 7f3f f17f 7e3f
00000180: f81d 7b3f 3f18 7a3f 0e3d 803f 0000 803f
00000190: f968 803f a0a6 7f3f 112d 813f 05a6 803f
000001a0: e039 823f 9ae4 7e3f 55c4 803f 0067 803f
000001b0: 083e 7e3f 7800 803f 563f 813f 0000 803f
000001c0: 9903 7f3f 0000 803f 48d5 803f 8a5f 7b3f
000001d0: 0000 803f 4182 803f ba20 803f 429c 7e3f
000001e0: cc1e 7d3f fdaf 7e3f 01f2 803f 354c 7f3f
000001f0: 4b00 7f3f 0000 803f ade4 7d3f 3052 803f

bn1.bias f4 [128]
-0.010340003 0.006807678 0.003548918 -0.020500839 -0.018392205 0.0030352527 -0.012150866 -0.01129203
0.03085379 -0.014149788 0.020693824 0.013167658 -0.011090483 0.027092202 -0.019484421 -0.02008095
-0.030256875 -0.003772716 -0.003707356 -0.024467254 -0.012210452 0.008278951 -0.003447709 -0.009957621
-0.0146050025 0.0044056643 0.0151462965 0.00952718 -0.02287836 0.009395366 0.010523008 -0.016200518
-0.021105172 -0.007188017 -0.00071963837 0.009867986 0.023078179 0.019958908 0.018706465 -0.0115143005
-0.003712302 0.010126577 -0.014483441 -0.022501642 0.01698746 -0.005454193 -0.0053781103 -0.026731169
-0.039906625 -0.0030132618 0.0021823533 0.0081273075 -0.005078305 0.0023554168 -0.0034511962 -0.01972274
0.00039204193 -0.04317778 0.016935155 0.012961499 0.0036229882 -0.0010743295 0.0031423615 0.0017131792
-0.0017312506 -0.028762441 0.018261632 -0.0034548296 -0.0097161 -0.0019091966 0.006822039 0.028567076
-0.02337833 -0.02129261 0.00030510087 0.010130767 -0.0015493872 0.010685969 0.029036686 -0.005824426
0.015590325 -0.004918275 -0.018852958 0.018298881 0.0061372872 0.010228886 0.0064284424 -0.0033987607
0.038957294 -0.0002154335 0.0031646 -0.0057195625 -0.0010237377 -0.0039734673 0.0045623463 0.0032264108
-0.017106738 -0.0048966333 0.02070975 0.035848793 0.0058241296 0.0071987393 0.028200304 -0.010233066
0.0055671707 0.006862204 -0.006092164 -0.008456967 -0.026569858 -0.0042342967 0.010149255 0.0106046535
-0.0018591706 0.0036428608 -0.02994573 -0.0012698971 0.016380219 0.005230379 -0.001896378 -0.002379409
-0.0054563014 -0.0057834783 0.005193001 0.01385095 -0.015088555 0.039986104 -0.0013316484 -0.004297043
00000000: 1e69 29bc f112 df3b f794 683b 60f1 a7bc
00000010: 40ab 96bc 17eb 463b 6d14 47bc 3502 39bc
00000020: 16c1 fc3c 83d4 67bc 1886 a93c 29bd 573c
00000030: dbb4 35bc 77f0 dd3c cb9d 9fbc ce80 a4bc
00000040: 44dd f7bc ac3f 77bb 1df7 72bb 8d6f c8bc
00000050: 590e 48bc 70a4 073c f5f2 61bb 4a25 23bc
00000060: d249 6fbc 645d 903b 2c28 783c e417 1c3c
00000070: 666b bbbc 05ef 193c b268 2c3c f3b6 84bc
00000080: c1e4 acbc 7589 ebbb 1da6 3cba 55ad 213c
00000090: 730e bd3c dd80 a33c 4d3e 993c 7aa6 3cbc
000000a0: 184a 73bb f1e9 253c f44b 6dbc 5d55 b8bc
000000b0: 4929 8b3c 16b9 b2bb dc3a b0bb 53fb dabc
000000c0: 2175 23bd 257a 45bb d005 0f3b 6628 053c
000000d0: e967 a6bb 565d 1a3b 772d 62bb 9591 a1bc
000000e0: fa8a cd39 2fdb 30bd 98bb 8a3c 785c 543c
000000f0: a86f 6d3b 84d0 8cba 14f0 4d3b c18c e03a
00000100: 21eb e2ba 369f ebbc 6b99 953c 6c6a 62bb
00000110: 4730 1fbc 023e faba 698b df3b 8005 ea3c
00000120: e983 bfbc d76d aebc f2f5 9f39 84fb 253c
00000130: cf14 cbba 3414 2f3c 58de ed3c d4da bebb
00000140: 906e 7f3c 7b29 a1bb 8571 9abc 89e7 953c
00000150: 4c1b c93b 0f97 273c afa5 d23b bebd 5ebb
00000160: af91 1f3d fde5 61b9 2e65 4f3b 2b6b bbbb
00000170: f02e 86ba dc33 82bb bc7f 953b 3172 533b
00000180: 6e23 8cbc f073 a0bb 7ea7 a93c 2fd6 123d
00000190: 57d8 be3b 67e3 eb3b 5304 e73c 97a8 27bc
000001a0: d06c b63b 57dc e03b c7a0 c7bb 178f 0abc
000001b0: 08a9 d9bc dbbf 8abb 1049 263c 24bf 2d3c
000001c0: 6aaf f3ba 10bd 6e3b bf50 f5bc ad72 a6ba
000001d0: cf2f 863c 9963 ab3b e38f f8ba dcef 1bbb
000001e0: c6ca b2bb 5583 bdbb 0d2a aa3b 18ef 623c
000001f0: fd35 77bc 78c8 233d b58a aeba 36ce 8cbb

bn1.running_mean f4 [128]
0.0039489293 0.0 0.03692894 0.026449492 0.0011411994 0.00978404 0.44847286 0.0040664906
0.050163593 1.9868541e-05 0.30279237 0.0 0.0 0.08134114 0.43074197 0.0009259937
0.10107804 0.0019666147 0.6861274 0.67764944 6e-45 0.0 0.011535596 0.04833451
0.0024408111 0.0 0.0042863237 0.042442475 6e-45 0.07199544 0.0010320913 0.0
0.046220098 0.4348032 0.0 0.39312348 0.01688623 0.24311921 6e-45 0.0
0.26300997 0.0 0.15754944 0.037109785 0.17665933 0.15219809 0.3268816 0.055683095
0.0 0.0015886766 0.0026354773 0.038858492 0.0 0.53354466 0.09592373 0.00047066007
0.10248595 0.16824049 0.48489904 0.37592486 0.00058254664 0.15955798 0.0027699578 0.5022575
0.004134303 0.0 0.2559872 0.5227599 0.003631326 0.0 0.0 0.030064655
0.0037335264 6e-45 0.46927515 0.032035783 0.58554506 0.30081946 0.16791968 0.0
0.0 0.64657634 0.19947198 0.2121366 0.036971804 0.6548855 0.294925 0.19594495
0.0 0.0030435952 0.0010594802 0.65707195 0.0031435427 0.004341986 0.5114433 0.15573537
0.0004608443 0.0002008662 0.004432992 0.0 0.42777336 0.24339359 0.03356425 0.45387197
0.20852596 0.1798482 0.6120725 0.011175826 0.00012843836 0.7524515 0.020473368 0.0
0.23571569 0.0 0.20627858 0.0011037108 0.0 0.036764074 0.545972 0.015942294
0.05381743 0.10766499 0.18307272 0.29857484 0.06570554 0.0 0.053458337 0.057848196
00000000: 0566 813b 0000 0000 cd42 173d 9bac d83c
00000010: 4c94 953a 3d4d 203c 3c9e e53e 3240 853b
00000020: 5778 4d3d 5eab a637 9a07 9b3e 0000 0000
00000030: 0000 0000 2f96 a63d 368a dc3e 63be 723a
00000040: 0102 cf3d 52e2 003b 0ca6 2f3f 6f7a 2d3f
00000050: 0400 0000 0000 0000 ccff 3c3c 68fa 453d
00000060: 04f6 1f3b 0000 0000 4a74 8c3b 29d8 2d3d
00000070: 0400 0000 5872 933d 3d47 873a 0000 0000
00000080: 4951 3d3d 869e de3e 0000 0000 7b47 c93e
00000090: fe54 8a3c 3ef4 783e 0400 0000 0000 0000
000000a0: 3ea9 863e 0000 0000 a454 213e 6e00 183d
000000b0: 2fe6 343e d1d9 1b3e 065d a73e f513 643d
000000c0: 0000 0000 243b d03a f9b7 2c3b 152a 1f3d
000000d0: 0000 0000 6296 083f a973 c43d edc2 f639
000000e0: 27e4 d13d 3c47 2c3e b044 f83e 3979 c03e
000000f0: 0bb6 183a 2b63 233e 2e88 353b f393 003f
00000100: 0c79 873b 0000 0000 c110 833e 98d3 053f
00000110: 8afb 6d3b 0000 0000 0000 0000 274a f63c
00000120: 2eae 743b 0400 0000 d544 f03e f437 033d
00000130: 48e6 153f 0205 9a3e 23f3 2b3e 0000 0000
00000140: 0000 0000 0786 253f 6242 4c3e 563a 593e
00000150: bf6f 173d 93a6 273f 6900 973e cba5 483e
00000160: 0000 0000 0e77 473b 42de 8a3a de35 283f
00000170: e503 4e3b 3847 8e3b f3ed 023f 1879 1f3e
00000180: 7a9d f139 9c9f 5239 a242 913b 0000 0000
00000190: 1c05 db3e 2b3c 793e ab7a 093d e861 e83e
000001a0: d487 553e 202a 383e c9b0 1c3f d01a 373c
000001b0: 69ad 0639 a9a0 403f c4b7 a73c 0000 0000
000001c0: 745f 713e 0000 0000 b13a 533e 64aa 903a
000001d0: 0000 0000 ed95 163d d2c4 0b3f 6a99 823c
000001e0: aa6f 5c3d 767f dc3d 6a77 3b3e cdde 983e
000001f0: a090 863d 0000 0000 21f7 5a3d 3bf2 6c3d

bn1.running_var f4 [128]
0.0012247048 6e-45 0.0023613023 0.0055787414 0.000102281345 0.0005247686 0.05147187 0.00087509316
0.006263003 5.379549e-07 0.0040783966 6e-45 6e-45 0.0068519316 0.029199084 6.7343106e-05
0.0011904845 0.0003037471 0.051082004 0.0046720793 6e-45 6e-45 0.00024450207 0.0043794373
0.00046788756 6e-45 0.0014429215 0.0025366924 6e-45 0.0009911652 8.365841e-05 6e-45
0.0023180034 0.027818723 6e-45 0.06937955 0.0003724088 0.060841333 6e-45 6e-45
0.05602119 6e-45 0.022143465 0.0022838307 0.032312144 0.023969164 0.003025692 0.0031557884
6e-45 0.00019821837 0.00054549566 0.008032668 6e-45 0.00050083094 0.009576051 1.3503856e-05
0.02147762 0.0006574189 0.023662739 0.0104056075 2.6652497e-05 0.026732475 0.0006025866 0.018098518
0.0013037928 6e-45 0.004139485 0.012155225 0.0010356274 6e-45 6e-45 0.0022952117
0.0010947416 6e-45 0.023941798 0.0054830993 0.0073083863 0.03970772 0.011903247 6e-45
6e-45 0.028140206 0.03790383 0.025627507 0.0016324526 0.04432141 0.0121939825 0.017991126
6e-45 0.0007275233 8.815784e-05 0.046349928 0.00077608885 0.001480641 0.042374823 0.015684728
1.13771575e-05 5.237508e-06 0.0015365077 6e-45 0.011544911 0.060218845 0.0057829637 0.027639678
0.00057272817 0.0016834665 0.005038714 0.0038835674 1.3489762e-06 0.027020726 0.0027904676 6e-45
0.048740473 6e-45 0.043805037 5.7006848e-05 6e-45 0.0012861254 0.016543377 0.0060326573
0.007734316 0.011628914 0.0025233054 0.054076023 0.004542881 6e-45 0.0032400135 0.005569482
00000000: 4686 a03a 0400 0000 14c0 1a3b e0cd b63b
00000010: e17f d638 a090 093a 2bd4 523d 8266 653a
00000020: e139 cd3b fb67 1035 12a4 853b 0400 0000
00000030: 0400 0000 2b86 e03b eb32 ef3c 8e3a 8d38
00000040: 080a 9c3a 3f40 9f39 5d3b 513d 3e18 993b
00000050: 0400 0000 0400 0000 8330 8039 6281 8f3b
00000060: ce4e f539 0400 0000 6920 bd3a a33e 263b
00000070: 0400 0000 fce9 813a c471 af38 0400 0000
00000080: a5e9 173b 17e4 e33c 0400 0000 de16 8e3d
00000090: dd3f c339 c334 793d 0400 0000 0400 0000
000000a0: 7a76 653d 0400 0000 3666 b53c 52ac 153b
000000b0: bd59 043d fb5a c43c b04a 463b 58d1 4e3b
000000c0: 0400 0000 d7d8 4f39 98ff 0e3a 749b 033c
000000d0: 0400 0000 324a 033a dee4 1c3c 9f8e 6237
000000e0: d5f1 af3c a356 2c3a 5cd8 c13c 487c 2a3c
000000f0: cd93 df37 10fe da3c e7f6 1d3a 5843 943c
00000100: 07e4 aa3a 0400 0000 84a4 873b b526 473c
00000110: e4bd 873a 0400 0000 0400 0000 436b 163b
00000120: 6f7d 8f3a 0400 0000 9721 c43c 92ab b33b
00000130: 307b ef3b 90a4 223d d605 433c 0400 0000
00000140: 0400 0000 4a86 e63c 0c41 1b3d c7f0 d13c
00000150: 05f8 d53a 5e8a 353d 45c9 473c 2062 933c
00000160: 0400 0000 43b7 3e3a 61e1 b838 6cd9 3d3d
00000170: 7172 4b3a 1112 c23a 3991 2d3d 427d 803c
00000180: 85e0 3e37 dabd af36 a564 c93a 0400 0000
00000190: de26 3d3c 09a8 763d 047f bd3b 9b6c e23c
000001a0: 2323 163a c3a7 dc3a cc1b a53b 7383 7e3b
000001b0: 780e b535 925a dd3c 47e0 363b 0400 0000
000001c0: 17a4 473d 0400 0000 e96c 333d a31a 6f38
000001d0: 0400 0000 3593 a83a fa85 873c 99ad c53b
000001e0: 2570 fd3b 3387 3e3c 0a5e 253b d27e 5d3d
000001f0: 73dc 943b 0400 0000 6856 543b 3480 b63b

fc2.weight f4 [64, 128]
-0.04995361 0.016315691 0.03275955 0.0064706067 -0.059666134 0.08810022 -0.057869244 0.07748991
-0.068946466 -0.0040763076 0.044242304 -0.027937418 0.078478366 -0.06293583 -0.06942451 -0.040061735
0.038527764 0.07986459 -0.045446523 0.045366094 -0.0231013 -0.005502483 0.072065696 -0.06384132
0.011839083 0.0892993 -0.010511487 0.07441802 -0.028353455 0.063226104 -0.0858047 -0.0150027545
-0.011636777 0.020542212 0.03426246 0.06545744 -0.019194135 0.00090558175 0.06300786 -0.023462322
0.08168883 -0.06102858 -0.01833327 0.0026391174 0.03236357 0.05531814 -0.002694016 -0.08079422
0.04620911 0.027032254 0.03771956 -0.053585052 0.049253907 0.10638047 -0.0042448672 -0.09329646
0.0651485 -0.08406602 0.015966635 0.019032136 -0.045594297 0.029723981 -0.078229494 0.027656384
-0.0542576 -0.007772269 0.018603694 0.0846817 -0.040830236 0.05169235 0.0010426587 -0.038025655
-0.07613994 -0.06342802 0.09254347 -0.020718055 0.021481317 0.03067029 0.0591842 0.07757382
0.06761011 -0.067261636 -0.008741684 -0.04198498 -0.045425408 0.0147444345 0.07733408 -0.073786385
0.052740686 -0.044979453 -0.017960656 0.06650855 -0.018773375 0.008867963 -0.06308867 0.08171943
-0.0058976393 -0.059459645 0.02891196 -0.0637451 -0.060713474 0.0015628069 0.070076875 -0.016869718
0.031776022 0.087952435 0.0649638 -0.047067817 0.020321684 -0.032515444 -0.06957878 0.0010623229
0.060889594 0.084034346 0.013340525 0.017973693 -0.03912846 0.053223275 -0.036185965 -0.06093377
0.01643355 0.048711553 -0.07463987 0.076336995 0.018666655 -0.060625575 -0.008369946 0.081227995
-0.064095676 -0.010445205 0.025904102 -0.07844174 0.053077634 0.038936775 0.057574444 -0.051451948
0.08647449 -0.043798946 0.093496084 -0.07133453 -0.10019844 0.057452127 0.007224117 0.009986154
-0.03837486 -0.032162406 -0.023730587 -0.07694821 -0.014506581 0.00092585187 0.0014280017 0.028112376
0.08598957 0.027489934 -0.026739983 -0.0375941 -0.07917005 -0.05533846 -0.009619674 -0.030550724
0.039999813 -0.033787042 0.0717531 -0.05853398 0.0058116023 0.07647236 0.06999216 -0.06964574
0.012217233 0.029300654 -0.03605419 -0.029331217 0.029186223 -0.055758305 0.0062521724 0.042269457
-0.056911826 0.07849302 -0.0022205727 0.035248067 0.09539628 -0.013753922 0.05429829 -0.012302689
-0.016899094 -0.006867913 -0.0011285024 -0.03316061 0.023369202 0.009333295 0.061586026 -0.022337923
0.014347758 -0.05301661 -0.07502819 0.028661057 0.015627354 -0.05246893 -0.023305377 0.018465457
-0.010496328 0.022857327 0.012287668 0.031198582 0.047900476 -0.02509747 0.046023678 0.044771444
0.026894454 0.017579155 -0.0011311971 0.055570986 -0.0451256 -0.042266276 0.040114477 -0.08074851
0.023179391 -0.03504277 0.063025065 -0.082314804 0.05917529 0.092931435 0.020269243 0.0006590694
0.095302075 -0.04743905 -0.0016772986 -0.018041559 -0.01554524 0.025784124 0.008024194 -0.02158184
-0.07614258 0.018150708 0.0025782885 0.016949346 0.070541196 0.09045699 -0.055352308 0.0115057025
-0.02860765 -0.09196444 -0.06832686 0.05459486 0.07017831 0.056986216 0.051352978 -0.0682711
0.010095037 0.08504801 -0.049191095 0.08548675 0.03193082 0.081848085 -0.025607195 0.03742856
00000000: 289c 4cbd 7ca8 853c e12e 063d 6207 d43b
00000010: 7a64 74bd e36d b43d 4d08 6dbd 08b3 9e3d
00000020: ce33 8dbd 8c92 85bb 6b37 353d 03dd e4bc
00000030: 44b9 a03d 80e4 80bd 702e 8ebd c617 24bd
00000040: 4acf 1d3d 0c90 a33d 2226 3abd ccd1 393d
00000050: f03e bdbc 2c4e b4bb 2e97 933d 3dbf 82bd
00000060: b7f8 413c 8de2 b63d 5f38 2cbc 7a68 983d
00000070: 8145 e8bc b07c 813d 60ba afbd 1dce 75bc
00000080: 2ea8 3ebc 2448 a83c cb56 0c3d 8d0e 863d
00000090: 053d 9dbc 9064 6d3a 440a 813d 0e34 c0bc
000000a0: 794c a73d 1bf9 79bd a72f 96bc 0bf5 2c3b
000000b0: aa8f 043d 4695 623d 178e 30bb 7177 a5bd
000000c0: c445 3d3d bf72 dd3c d37f 1a3d 007c 5bbd
000000d0: 77be 493d 01de d93d 8718 8bbb 3712 bfbd
000000e0: 946c 853d ce2a acbd 76cc 823c 48e9 9b3c
000000f0: 16c1 3abd b57f f33c c936 a0bd a48f e23c
00000100: 383d 5ebd 85ae febb c666 983c 996d ad3d
00000110: 9b3d 27bd 5cbb 533d d2a9 883a cac0 1bbd
00000120: 42ef 9bbd 8de6 81bd 6e87 bd3d e9b8 a9bc
00000130: 96f9 af3c 4340 fb3c 226b 723d 06df 9e3d
00000140: 2b77 8a3d 78c0 89bd 4839 0fbc 71f8 2bbd
00000150: fe0f 3abd a492 713c 5561 9e3d 511d 97bd
00000160: 9e06 583d 603c 38bd 3a22 93bc a235 883d
00000170: 9fca 99bc ef4a 113c a234 81bd 845c a73d
00000180: fc40 c1bb f58b 73bd c6d8 ec3c ca8c 82bd
00000190: b1ae 78bd 19d7 cc3a 7784 8f3d 5d32 8abc
000001a0: 9327 023d 6820 b43d be0b 853d 2fca 40bd
000001b0: a979 a63c ea2e 05bd 527f 8ebd a43d 8b3a
000001c0: 5e67 793d 331a ac3d 3892 5a3c 913d 933c
000001d0: 2a45 20bd a600 5a3d bc37 14bd b095 79bd
000001e0: a79f 863c c485 473d cadc 98bd 9256 9c3d
000001f0: d0ea 983c 8652 78bd 1922 09bc dd5a a63d
00000200: 9844 83bd 5d22 2bbc d734 d43c 10a6 a0bd
00000210: ef67 593d 2b7c 1f3d 2ed3 6b3d 47bf 52bd
00000220: 8a19 b13d 8666 33bd e07a bf3d d717 92bd
00000230: d734 cdbd ec52 6b3d 49b8 ec3b f79c 233c
00000240: f52e 1dbd babc 03bd a666 c2bc 0697 9dbd
00000250: 03ad 6dbc deb4 723a c92b bb3a ed4b e63c
00000260: 4d1b b03d 9232 e13c cf0d dbbc 45fc 19bd
00000270: e823 a2bd 95aa 62bd d69b 1dbc 8345 fabc
00000280: d8d6 233d 4864 0abd 4af3 923d 54c1 6fbd
00000290: 416f be3b 8a9d 9c3d 0d58 8f3d 6da2 8ebd
000002a0: ca2a 483c ed07 f03c 8fad 13bd 0548 f0bc
000002b0: f217 ef3c d262 64bd 06df cc3b bd22 2d3d
000002c0: 601c 69bd f3c0 a03d 0787 11bb 4760 103d
000002d0: 205f c33d 2158 61bc e267 5e3d 3891 49bc
000002e0: f86f 8abc 3b0c e1bb 42ea 93ba 6bd3 07bd
000002f0: c570 bf3c adea 183c a141 7c3d 05fe b6bc
00000300: dc12 6b3c f227 59bd 61a8 99bd 98ca ea3c
00000310: f004 803c a9e9 56bd ebea bebc df44 973c
00000320: caf8 2bbc 4a3f bb3c 3752 493c 2b94 ff3c
00000330: 4a33 443d 3699 cdbc 5383 3c3d 4362 373d
00000340: c251 dc3c 2902 903c ad44 94ba 679e 633d
00000350: 9fd5 38bd 671f 2dbd 144f 243d 7a5f a5bd
00000360: b5e2 bd3c 0289 0fbd 4913 813d aa94 a8bd
00000370: ca61 723d d652 be3d af0b a63c 66c5 2c3a
00000380: bc2d c33d 734f 42bd cdd8 dbba e4cb 93bc
00000390: 76b1 7ebc 3a39 d33c e977 033c 66cc b0bc
000003a0: a4f0 9bbd cbb0 943c 81f8 283b 5bd9 8a3c
000003b0: e777 903d 8441 b93d 1ab9 62bd 6a82 3c3c
000003c0: 975a eabc da57 bcbd f4ee 8bbd dc9e 5f3d
000003d0: a5b9 8f3d 616a 693d 8057 523d b8d1 8bbd
000003e0: a765 253c a72d ae3d 9a7c 49bd ad13 af3d
000003f0: e4c9 023d f89f a73d 2ec6 d1bc b14e 193d

fc2.bias f4 [64]
0.012548312 0.088504806 0.06737922 -0.03296096 -0.038496684 0.026621312 -0.05420021 -0.008145768
0.026390558 -0.031263795 0.031389374 -0.012597597 0.083363764 -0.07303958 0.079843424 0.09747825
-0.060665075 0.018112874 -0.008279806 0.054551847 0.07133542 -0.039181184 -0.03601818 -0.06638981
0.074891366 -0.07486639 -0.04820806 0.08353463 0.05251867 0.069795795 0.06914913 -0.06933947
-0.025500176 0.0021243913 0.11248453 -0.03180062 0.0030467415 0.083169416 0.05614367 -0.0568494
-0.042227946 -0.01934623 0.027811348 0.10704508 0.04254783 0.07923578 0.029788787 -0.018464709
-0.012026081 0.08235287 0.03264871 0.023979994 0.024989322 0.061646197 0.016217057 0.021498382
-0.04368135 -0.062415168 -0.030468961 0.090625726 0.066630706 -0.042326327 0.0816883 -0.021465011
00000000: 6f97 4d3c 0242 b53d 1efe 893d 1202 07bd
00000010: b3ae 1dbd f014 da3c 0a01 5ebd d475 05bc
00000020: 0331 d83c 770e 00bd 2592 003d 2766 4ebc
00000030: 9fba aa3d c695 95bd f384 a33d ada2 c73d
00000040: f17b 78bd 7361 943c 06a8 07bc c271 5f3d
00000050: 4e18 923d 737c 20bd cd87 13bd 61f7 87bd
00000060: a560 993d 8d53 99bd d175 45bd 3414 ab3d
00000070: d11d 573d 19f1 8e3d 0f9e 8d3d da01 8ebd
00000080: bfe5 d0bc 5f39 0b3b 4a5e e63d 5e41 02bd
00000090: d7ab 473b ba54 aa3d e8f6 653d ebda 68bd
000000a0: 36f7 2cbd fc7b 9ebc a0d4 e33c 733a db3d
000000b0: a246 2e3d 5e46 a23d 9d07 f43c 4d43 97bc
000000c0: 0a09 45bc 9fa8 a83d a7ba 053d b171 c43c
000000d0: 68b6 cc3c b980 7c3d a2d9 843c 601d b03c
000000e0: 37eb 32bd 0ca7 7fbd 0b9a f9bc fb99 b93d
000000f0: ae75 883d 5f5e 2dbd 324c a73d 64d7 afbc

bn2.weight f4 [64]
0.9991141 0.99388987 1.0000017 0.9974151 0.984155 0.9983243 0.99306744 0.984561
1.0002134 0.98499453 0.99535894 1.0042149 0.9963802 0.98786896 0.9925413 0.99375135
0.9984393 0.99124485 0.9940539 0.9942882 1.001879 0.99545795 0.9989247 0.9972925
0.9987894 0.99083894 0.9918388 0.9975813 0.9999915 0.9981289 0.9960631 0.997176
1.0027071 0.9935228 0.993665 0.9991077 0.99651784 0.9905372 0.99120176 0.99930364
0.9965736 0.9961948 0.99620557 0.9979307 0.99061763 0.9954582 0.99122965 0.9995645
0.97694445 0.9869126 1.0001076 1.0021207 0.99424577 0.9953947 0.9933493 0.99160063
0.9974318 0.98964214 0.9972438 0.9977887 0.99789786 0.98971736 1.0007598 0.9902205
00000000: f1c5 7f3f 916f 7e3f 0e00 803f 9956 7f3f
00000010: 95f1 7b3f 2e92 7f3f ab39 7e3f 310c 7c3f
00000020: fe06 803f 9a28 7c3f d8cf 7e3f 1d8a 803f
00000030: c612 7f3f fbe4 7c3f 3017 7e3f 7d66 7e3f
00000040: b899 7f3f 39c2 7d3f 517a 7e3f ac89 7e3f
00000050: 923d 803f 55d6 7e3f 87b9 7f3f 904e 7f3f
00000060: aab0 7f3f 9fa7 7d3f 26e9 7d3f 7d61 7f3f
00000070: 71ff 7f3f 6085 7f3f fefd 7e3f ed46 7f3f
00000080: b558 803f 8357 7e3f d460 7e3f 86c5 7f3f
00000090: cb1b 7f3f d993 7d3f 66bf 7d3f 5dd2 7f3f
000000a0: 731f 7f3f 9f06 7f3f 5407 7f3f 6378 7f3f
000000b0: 1e99 7d3f 59d6 7e3f 3ac1 7d3f 76e3 7f3f
000000c0: 0819 7a3f 4ea6 7c3f 8703 803f 7e45 803f
000000d0: e486 7e3f 30d2 7e3f 244c 7e3f 8ad9 7d3f
000000e0: b157 7f3f 3059 7d3f 5f4b 7f3f 156f 7f3f
000000f0: 3c76 7f3f 1e5e 7d3f e618 803f 177f 7d3f

bn2.bias f4 [64]
0.54959166 -0.5297257 0.48244676 0.50645787 0.5658735 0.53700566 -0.5164603 0.5529504
0.48299548 0.4817269 -0.47842258 -0.5165029 0.47286445 0.48849857 0.50391656 -0.48080078
-0.5090923 -0.53919965 -0.509762 -0.5694986 -0.49159026 0.48354086 -0.48592526 -0.5219128
-0.5272474 -0.49706873 0.56467533 0.5196099 0.5375515 0.48977163 0.5986824 -0.5058721
-0.55482185 0.6057641 -0.5325691 0.4813309 0.5006076 0.4805705 -0.47328576 0.47705936
-0.51384217 -0.49076775 0.5454155 0.55921835 -0.4887828 0.4873116 0.4777876 0.56223845
0.5743682 0.52527106 -0.57860714 -0.50691104 -0.5134507 -0.5417447 -0.49638355 0.51961315
-0.5741123 -0.52523994 -0.5319896 0.5344522 -0.48527855 0.4928401 0.5135084 0.47489014
00000000: 0ab2 0c3f 1a9c 07bf 4303 f73e 39a7 013f
00000010: 16dd 103f 3479 093f be36 04bf 288e 0d3f
00000020: 2f4b f73e e9a4 f63e cef3 f4be 8939 04bf
00000030: 4a1b f23e 7c1c fa3e ad00 013f 852b f6be
00000040: df53 02bf fd08 0abf c37f 02bf a9ca 11bf
00000050: b8b1 fbbe ab92 f73e 32cb f8be 149c 05bf
00000060: b0f9 06bf cb7f febe 908e 103f 2805 053f
00000070: fa9c 093f 59c3 fa3e 4043 193f d580 01bf
00000080: ce08 0ebf 5b13 1b3f 7356 08bf 0171 f63e
00000090: d227 003f 560d f63e 8352 f2be 2041 f43e
000000a0: 298b 03bf e945 fbbe 5aa0 0b3f ef28 0f3f
000000b0: bd41 fabe e880 f93e 94a0 f43e dcee 0f3f
000000c0: cb09 133f 2a78 063f 991f 14bf ecc4 01bf
000000d0: 8171 03bf c8af 0abf fc25 febe 5e05 053f
000000e0: 06f9 12bf 2076 06bf 7830 08bf dcd1 083f
000000f0: 6e76 f8be 8a55 fc3e 4975 033f cd24 f33e

bn2.running_mean f4 [64]
0.3646186 0.25767785 0.26439595 0.45312753 0.17757039 0.4387389 0.094243854 0.13240092
0.3655477 0.08707048 0.33803546 0.26772603 0.27598915 0.23203029 0.242389 0.17038615
0.29029766 0.28125378 0.35836208 0.35676304 0.29040614 0.32839754 0.29176462 0.28448364
0.3941323 0.15202923 0.39416885 0.29436296 0.33882898 0.48331055 0.3322649 0.24052425
0.4189374 0.41832015 0.32940826 0.23258582 0.41556913 0.25122264 0.21378803 0.23178367
0.46068987 0.3342507 0.4993007 0.6820851 0.29845178 0.42319766 0.20372687 0.38257307
0.22980371 0.30433565 0.4706527 0.41878083 0.2767968 0.24613903 0.20740914 0.5241118
0.3023823 0.16951787 0.33493367 0.83231556 0.2561386 0.34951437 0.33929956 0.20676386
00000000: 4aaf ba3e 5aee 833e e85e 873e 5500 e83e
00000010: 03d5 353e 63a2 e03e ec02 c13d 1b94 073e
00000020: 1129 bb3e 0252 b23d fc12 ad3e 6313 893e
00000030: 734e 8d3e 5999 6d3e d234 783e b579 2e3e
00000040: e5a1 943e 7f00 903e 3c7b b73e a5a9 b63e
00000050: 1db0 943e b923 a83e 2c62 953e d7a7 913e
00000060: b5cb c93e 8dad 1b3e 80d0 c93e beb6 963e
00000070: fe7a ad3e 7b74 f73e a01e aa3e fd4b 763e
00000080: f77e d63e 0f2e d63e 33a8 a83e fa2a 6e3e
00000090: 7ac5 d43e 41a0 803e 40eb 5a3e b358 6d3e
000000a0: 8bdf eb3e e822 ab3e 57a4 ff3e 219d 2e3f
000000b0: acce 983e 5dad d83e c79d 503e 9ee0 c33e
000000c0: aa51 6b3e e2d1 9b3e 64f9 f03e 716a d63e
000000d0: 4fb8 8d3e df0b 7c3e 1063 543e 312c 063f
000000e0: dad1 9a3e 1896 2d3e 6d7c ab3e a212 553f
000000f0: 9924 833e 8cf3 b23e acb8 ad3e e8b9 533e

bn2.running_var f4 [64]
0.1741535 0.113172956 0.08943814 0.21503212 0.3488248 0.21401134 0.14461765 0.40852186
0.33858088 0.1825687 0.24362387 0.17932813 0.08759779 0.21101108 0.2685537 0.08479962
0.12797534 0.15335812 0.26706392 0.14585634 0.08921128 0.14412779 0.089318134 0.1029527
0.16305788 0.33616614 0.16466554 0.09074764 0.17528842 0.2738106 0.11630277 0.069042414
0.18909891 0.21278645 0.12375198 0.06351914 0.18354735 0.05361301 0.045844197 0.06040787
0.19218054 0.12347794 0.26752988 0.47266886 0.30702546 0.18784574 0.44996613 0.3927989
0.07140965 0.30860618 0.23358876 1.1672194 0.17081864 0.06494871 0.052480217 0.29378182
0.4194217 0.5046649 0.13894127 0.72500324 0.07971494 0.42873842 0.16771361 0.06656918
00000000: 4c55 323e 39c7 e73d 582b b73d 6131 5c3e
00000010: 2a99 b23e ca25 5b3e a616 143e c729 d13e
00000020: 795a ad3e 4af3 3a3e 8978 793e cba1 373e
00000030: 7866 b33d 4a13 583e df7f 893e 6cab ad3d
00000040: f80b 033e e909 1d3e 9abc 883e 5d5b 153e
00000050: 67b4 b63d 3c96 133e 6dec b63d ddd8 d23d
00000060: a5f8 263e f81d ac3e 159e 283e e6d9 b93d
00000070: cf7e 333e e730 8c3e 2630 ee3d 1c66 8d3d
00000080: 25a3 413e b1e4 593e ae71 fd3d 5316 823d
00000090: d6f3 3b3e 5199 5b3d 20c7 3b3d 3e6e 773d
000000a0: faca 443e 01e2 fc3d adf9 883e a701 f23e
000000b0: 7132 9d3e a25a 403e f661 e63e f01c c93e
000000c0: 393f 923d a101 9e3e e431 6f3e 7267 953f
000000d0: 15eb 2e3e d403 853d 7ff5 563d 926a 963e
000000e0: 71be d63e b831 013f 9f46 0e3e d099 393f
000000f0: 9641 a33d 9a83 db3e 1ebd 2b3e 6c55 883d

fc3.weight f4 [1, 64]
-0.52453876 0.5417823 -0.54848266 -0.5484425 -0.5339635 -0.5392362 0.5548156 -0.53504944
-0.6125399 -0.6358621 0.62373585 0.57036656 -0.6182628 -0.61300886 -0.57490724 0.6039752
0.5495353 0.5300744 0.56341326 0.50677925 0.55571854 -0.55599433 0.58495486 0.5184879
0.5421053 0.600716 -0.5079265 -0.5272941 -0.54058444 -0.5785657 -0.51260006 0.58122575
0.50815177 -0.4953889 0.51668954 -0.6011412 -0.5537382 -0.6039871 0.6201953 -0.5954497
0.52963185 0.5844775 -0.5225679 -0.51395535 0.59541625 -0.5757723 -0.62520957 -0.51868474
-0.5245396 -0.5576081 0.5026879 0.5924149 0.5332189 0.52231264 0.56182235 -0.5433473
0.53343844 0.5670586 0.5516399 -0.5207571 0.61247444 -0.5925171 -0.518703 -0.616681
00000000: 2c48 06bf 3fb2 0a3f 5c69 0cbf ba66 0cbf
00000010: d5b1 08bf 620b 0abf 6508 0e3f 00f9 08bf
00000020: 6acf 1cbf dcc7 22bf 27ad 1f3f 8b03 123f
00000030: 7946 1ebf 26ee 1cbf 1f2d 13bf 1e9e 1a3f
00000040: 58ae 0c3f f5b2 073f da3b 103f 49bc 013f
00000050: 9243 0e3f a555 0ebf 9abf 153f 9fbb 043f
00000060: 6ac7 0a3f 86c8 193f 7907 02bf bffc 06bf
00000070: be63 0abf e21c 14bf c239 03bf 36cb 143f
00000080: 3c16 023f 9da3 fdbe c445 043f 64e4 19bf
00000090: c9c1 0dbf e69e 1abf 1fc5 1e3f 646f 18bf
000000a0: f495 073f 51a0 153f 03c7 05bf 9492 03bf
000000b0: 336d 183f d065 13bf bc0d 20bf 86c8 04bf
000000c0: 3a48 06bf 68bf 0ebf 27b0 003f 81a8 173f
000000d0: 0981 083f 48b6 053f 97d3 0f3f cf18 0bbf
000000e0: 6c8f 083f c12a 113f 4638 0d3f 5650 05bf
000000f0: 20cb 1c3f 33af 17bf b8c9 04bf cede 1dbf
