PreTrained/cstr_ode/DQN/0_1/500.pth (torch, 38048 bytes, 5 tensors)

fc1.weight f4 [128, 4]
-0.097499646 0.36489296 -0.5194371 -0.3679695 -0.18293118 0.19665655 -0.046870507 0.3841569
0.15272579 -0.121649496 -0.2635551 -0.03210968 -0.36290553 -0.5101206 -0.17256784 0.05139028
0.21265297 0.28502667 -0.32398373 -0.21773142 0.4649524 0.08695324 -0.20316514 0.40095222
-0.090898804 0.07620789 0.34847128 -0.41710016 -0.4814476 -0.037017368 -0.26677108 0.40184742
-0.20245236 -0.41614515 -0.30671975 -0.4682805 -0.58478475 0.67325354 0.31826383 0.20713547
0.25068754 -0.5031379 -0.06699915 -0.46684736 -0.43951303 -0.17882523 0.2942851 0.32657403
-0.2885887 -0.040035393 0.39906585 0.50052714 0.26865724 -0.01183015 0.44757423 -0.25414398
0.2767475 -0.6083442 -0.45254505 -0.21405654 0.20264384 0.22522798 -0.32145116 0.20440581
0.58645546 -0.38937405 -0.09911198 0.12966931 0.21686776 0.57341063 -0.47863963 -0.18323487
0.31463137 0.28479353 0.3234848 0.38357422 0.30910355 -0.6752146 -0.09695408 -0.29249868
-0.46597707 0.44424623 0.38017988 -0.49876398 0.09358603 -0.084230006 -0.082280576 -0.22887844
0.18078528 -0.40146813 0.16641857 0.267625 0.65268266 -0.1520729 -0.37881365 -0.32434845
0.1455821 0.21043491 -0.48188698 -0.28790975 0.47037464 0.33690894 -0.21801257 -0.12584239
-0.44698495 -0.038301278 -0.34721622 -0.38567835 0.17235433 -0.1614659 -0.21690404 0.32110807
-0.32564175 0.44094506 0.32037702 -0.42164147 -0.030141175 -0.14070623 -0.03876435 0.13752167
0.2083576 0.018126044 -0.20592415 0.3035209 -0.47962445 -0.29635334 -0.12516493 -0.24355668
0.052458715 -0.6709115 -0.35637093 0.13447872 -0.4684299 0.09822042 0.29718223 -0.079789184
-0.035946243 0.01233867 0.09520838 0.32988578 0.52545965 0.33300427 0.39352754 -0.0705023
-0.36117756 -0.34488854 0.4419319 0.05970698 -0.06589493 -0.6151435 -0.56249887 -0.39656252
-0.101418376 0.274203 0.27032053 -0.48221594 0.31189102 -0.39125472 -0.10570514 -0.20273632
0.105604716 -0.3606575 -0.57904315 -0.3689388 -0.07823974 0.0064660907 -0.22713745 0.1883496
-0.5346375 0.03102341 0.5064681 -0.20450808 0.76493734 -0.17842549 -0.3891516 0.3461632
-0.05703913 -0.23495863 0.5033234 -0.4177915 0.056077853 -0.11327445 0.45834425 0.12820478
0.48035848 -0.08722744 -0.24992844 -0.086256534 -0.36575776 0.18233198 0.49291897 0.31001487
-0.35268915 0.022299945 -0.35246706 -0.2752421 -0.39057907 0.27009326 -0.39718792 -0.010908604
-0.07488968 0.41855964 -0.48170212 -0.34325612 -0.42885005 0.48490745 -0.39456037 0.39491066
0.18080378 0.06331301 -0.003722012 -0.09884077 0.25867736 -0.35050163 -0.12166569 0.08021276
-0.37799838 -0.41038832 0.48827472 -0.37274662 0.08404436 0.49740565 0.29416308 -0.0054282276
-0.3548323 0.1415409 -0.32280722 -0.16382988 -0.010962323 -0.29386047 -0.11012134 0.3673205
0.1526851 0.31880197 0.19240026 -0.37474498 0.47438717 -0.62586135 -0.3406771 0.1759981
0.16297911 0.377231 -0.1630746 0.0008004308 0.22529422 -0.4784019 0.3933917 -0.4134612
-0.2967338 0.19371092 -0.3287823 -0.010079772 0.65203756 -0.41176152 -0.41119227 -0.1656444
00000000: e5ad c7bd 40d3 ba3e d4f9 04bf 8066 bcbe
00000010: 5052 3bbe 5660 493e 4afb 3fbd 37b0 c43e
00000020: 2664 1c3e 5f23 f9bd b2f0 86be 7185 03bd
00000030: c1ce b9be 4397 02bf a0b5 30be 9d7e 523d
00000040: b3c1 593e 04ef 913e 32e1 a5be fcf4 5ebe
00000050: 3e0e ee3e 8a14 b23d 860a 50be 9c49 cd3e
00000060: 2729 babd e212 9c3d d46a b23e 278e d5be
00000070: 4d80 f6be 869f 17bd 3896 88be f2be cd3e
00000080: ac4f 4fbe fa10 d5be 5f0a 9dbe 76c2 efbe
00000090: 74b4 15bf 585a 2c3f 7af3 a23e 521b 543e
000000a0: 1e5a 803e a5cd 00bf da36 89bd 9e06 efbe
000000b0: da07 e1be f61d 37be 89ac 963e b634 a73e
000000c0: e6c1 93be 27fc 23bd 5c52 cc3e 8c22 003f
000000d0: 718d 893e 3fd3 41bc 7328 e53e 291f 82be
000000e0: d9b1 8d3e 72bc 1bbf fcb3 e7be a331 5bbe
000000f0: de81 4f3e 2aa2 663e 3f95 a4be c24f 513e
00000100: f221 163f 095c c7be 39fb cabd 08c8 043e
00000110: 9512 5e3e 0acb 123f 4110 f5be eca1 3bbe
00000120: 5d17 a13e 75d0 913e cd9f a53e d763 c43e
00000130: d242 9e3e ddda 2cbf dc8f c6bd 63c2 95be
00000140: 8c94 eebe 3e74 e33e f0a6 c23e fe5d ffbe
00000150: 08aa bf3d c880 acbd b882 a8bd 1c5f 6abe
00000160: c71f 393e 3b8d cdbe a169 2a3e 2506 893e
00000170: 3616 273f 00b9 1bbe ddf3 c1be 0011 a6be
00000180: 7913 153e 407c 573e e4b9 f6be e868 93be
00000190: f2d4 f03e 547f ac3e b03e 5fbe d4dc 00be
000001a0: 36db e4be cde1 1cbd 53c6 b1be a277 c5be
000001b0: a77d 303e 5157 25be 181c 5ebe 4768 a43e
000001c0: 84ba a6be 8dc3 e13e 7508 a43e 64e1 d7be
000001d0: a0ea f6bc 4b15 10be 5ec7 1ebd 7bd2 0c3e
000001e0: b25b 553e 127d 943c c8dd 52be 1767 9b3e
000001f0: 5691 f5be a0bb 97be 3c2b 00be ec66 79be
00000200: f3de 563d dbc0 2bbf 4076 b6be cab4 093e
00000210: 0bd6 efbe ca27 c93d 4528 983e 8368 a3bd
00000220: 5e3c 13bd 2228 4a3c 9cfc c23d cae6 a83e
00000230: 8684 063f 897f aa3e 717c c93e 8363 90bd
00000240: 44ec b8be 3b95 b0be e644 e23e 4e8f 743d
00000250: ecf3 86bd 0b7a 1dbf edff 0fbf 3e0a cbbe
00000260: 70b4 cfbd 5664 8c3e 7467 8a3e 02e5 f6be
00000270: 2eb0 9f3e 8a52 c8be f07b d8bd 1c9a 4fbe
00000280: 4947 d83d 1aa8 b8be 2c3c 14bf 8ce5 bcbe
00000290: 283c a0bd 80e1 d33b b896 68be b8de 403e
000002a0: 01de 08bf ce24 fe3c e5a7 013f 916a 51be
000002b0: efd2 433f 2cb5 36be e13e c7be 4e3c b13e
000002c0: dda1 69bd ff98 70be cdd9 003f c4e8 d5be
000002d0: e4b1 653d 6ffc e7bd 19ac ea3e 1d48 033e
000002e0: 8cf1 f53e 4da4 b2bd 3eed 7fbe 44a7 b0bd
000002f0: 9a44 bbbe 3cb5 3a3e e05f fc3e 45ba 9e3e
00000300: ac93 b4be 60ae b63c 9076 b4be 88ec 8cbe
00000310: fbf9 c7be aa49 8a3e 375c cbbe 00ba 32bc
00000320: c35f 99bd 734d d63e a9a1 f6be 44bf afbe
00000330: 3c92 dbbe ca45 f83e d103 cabe bb31 ca3e
00000340: a024 393e 40aa 813d 00ed 73bb 086d cabd
00000350: 5c71 843e f374 b3be dc2b f9bd 9646 a43d
00000360: 0189 c1be 6b1e d2be 25ff f93e a5d8 bebe
00000370: 731f ac3d f4ab fe3e 8b9c 963e 46df b1bb
00000380: 94ac b5be 19f0 103e fd46 a5be 05c3 27be
00000390: 519b 33bc e174 96be 4c87 e1bd 6f11 bc3e
000003a0: 7c59 1c3e 033a a33e 9304 453e 93de bfbe
000003b0: e0e2 f23e 7338 20bf 3b6d aebe d938 343e
000003c0: ffe3 263e 6c24 c13e 07fd 26be 00d4 513a
000003d0: 87b3 663e 18f1 f4be a36a c93e 30b1 d3be
000003e0: 7eed 97be 285c 463e 2756 a8be a125 25bc
000003f0: efeb 263f 68d2 d2be cb87 d2be b09e 29be

fc1.bias f4 [128]
-0.047301527 -0.1986849 0.19095966 0.28730765 -0.25927287 0.036717787 0.33268866 0.26360777
0.23200963 0.008300992 0.17456248 -0.3287837 -0.2013849 -0.16488808 0.42096773 -0.10700106
-0.040821545 -0.14892103 0.51642275 0.513265 -0.37709332 -0.40533495 -0.40039915 0.0577556
-0.062104307 -0.32727283 -0.20864856 0.14131041 -0.28351828 0.16920748 -0.14541449 -0.24228168
0.07177905 0.46401125 -0.3260736 -0.0069462443 -0.08128025 0.5350141 -0.47438163 -0.4793306
0.51119107 -0.31634498 0.32150927 -0.012388154 -0.073762074 -0.08569331 0.34418657 0.28407982
-0.4868073 -0.19594836 -0.07571056 0.4283078 -0.32356685 0.5171869 0.06753744 0.06470419
0.4636599 0.27484673 0.45639017 0.30514812 -0.14956032 -0.34490952 0.24769983 0.44339514
-0.071676806 -0.42350104 0.23826402 0.50848603 0.23612893 -0.41401178 -0.45352983 0.19472793
0.26757556 -0.25249362 0.11471361 0.27233395 0.4346523 0.41218895 -0.05382005 -0.44088358
-0.45181155 0.5130095 0.26054156 0.22624041 -0.31437248 0.48353612 0.5543908 0.50651515
-0.4217925 -0.10484849 -0.38095918 0.5132798 -0.15054111 -0.17029332 0.25372586 -0.2303139
-0.14751816 0.3163989 0.22975007 -0.32098112 0.4444945 -0.2316345 0.23073797 0.4713801
0.26547658 0.09196878 0.4325047 0.33891544 -0.1331753 0.5019829 0.31245205 -0.4878404
-0.15990648 -0.28838924 0.4890756 0.2766343 -0.45576245 0.22282948 0.3201597 0.4074764
0.25524867 0.26871127 0.21667829 -0.12659878 -0.0790797 -0.38341153 -0.35077903 0.28994098
00000000: 3fbf 41bd 0e74 4bbe ee8a 433e fd19 933e
00000010: 6abf 84be 6465 163d 2b56 aa3e 99f7 863e
00000020: ef93 6d3e e200 083c 82c0 323e 5656 a8be
00000030: d837 4ebe 6cd8 28be 1589 d73e 5f23 dbbd
00000040: 7e34 27bd c17e 18be 4834 043f 5665 033f
00000050: 6012 c1be 1088 cfbe 1e01 cdbe 2391 6c3d
00000060: 1661 7ebd 4e90 a7be f8a7 55be adb3 103e
00000070: 4f29 91be ba44 2d3e 89e7 14be b018 78be
00000080: e500 933d e292 ed3e 1ef3 a6be 529d e3bb
00000090: 4276 a6bd aff6 083f 26e2 f2be d26a f5be
000000a0: 6bdd 023f f8f7 a1be dd9c a43e aff7 4abc
000000b0: 9210 97bd f97f afbd 3939 b03e e972 913e
000000c0: ce3e f9be b0a6 48be 230e 9bbd 294b db3e
000000d0: 8eaa a5be 5c66 043f 1251 8a3d a183 843d
000000e0: d564 ed3e b6b8 8c3e f9ab e93e 603c 9c3e
000000f0: 5726 19be fb97 b0be 06a5 7d3e b004 e33e
00000100: 4acb 92bd 21d5 d8be 7cfb 733e 242c 023f
00000110: c8cb 713e 5af9 d3be 1035 e8be c266 473e
00000120: aaff 883e d846 81be f8ee ea3d 5b6f 8b3e
00000130: bf8a de3e 6e0a d33e 6a72 5cbd 7ebb e1be
00000140: d853 e7be 9754 033f b465 853e 91ab 673e
00000150: 6ef5 a0be 0c92 f73e 8eec 0d3f faaa 013f
00000160: 30f5 d7be ceba d6bd 150d c3be 4e66 033f
00000170: 7327 1abe 5f61 2ebe 5be8 813e 68d7 6bbe
00000180: 000f 17be 09ff a13e 9a43 6b3e a357 a4be
00000190: c894 e33e 9831 6dbe 9346 6c3e bc58 f13e
000001a0: 8cec 873e 215a bc3d 4271 dd3e 5386 ad3e
000001b0: 1b5f 08be f481 003f b7f9 9f3e 38c6 f9be
000001c0: 86be 23be c1a7 93be 1e68 fa3e 03a3 8d3e
000001d0: b259 e9be 692d 643e f9eb a33e bfa0 d03e
000001e0: f4af 823e 8694 893e eae0 5d3e 1ca3 01be
000001f0: 8af4 a1bd 844e c4be 4f99 b3be 2573 943e

fc2.weight f4 [64, 128]
-0.17244413 0.070963435 0.16708966 0.09234381 -0.098687805 0.33765072 -0.03737165 -0.16739997
0.046257976 -0.04589273 0.1962811 -0.07004111 0.100148946 -0.14278443 0.058535535 -0.11886207
0.25539556 -0.056703698 0.0005017309 0.15183705 -0.02215958 -0.019168101 0.0011162669 0.15939401
-0.11041067 0.08312121 -0.093821086 0.22875282 -0.027219793 0.13298415 -0.051514205 -0.012738853
0.20575906 0.0039630956 -0.0016408873 0.082407475 -0.104703575 0.11655795 0.060529333 -0.023915512
0.19372028 -0.058850035 -0.16264986 0.261241 -0.0422075 -0.020595033 0.10889431 -0.24412672
0.04379574 -0.126441 -0.07914593 -0.24791776 0.05688635 0.18985812 -0.09147989 -0.24466822
0.07271483 0.028051501 0.043053858 0.1667906 -0.07725548 -0.03752516 -0.3433924 0.15894459
-0.1639287 -0.03440039 0.16412011 0.19772778 -0.084120825 0.056624763 -0.01122831 0.055508595
-0.31025484 -0.08109793 0.24801083 0.020714577 0.12491916 0.15772247 0.31492278 0.075437166
0.071684465 0.001578398 0.1525022 0.09350054 -0.13478477 0.07092 0.028323011 -0.011729304
0.053493023 -0.16357693 -0.001830591 0.12286559 -0.12712602 -0.097742766 0.013110869 0.38912508
-0.101925746 -0.4869208 -0.057202827 0.0065199398 0.056404658 -0.07298579 0.029308362 0.10921724
0.13946356 0.2674574 0.19675536 -0.28514868 0.51033914 0.07964342 -0.19427548 3.6520243e-05
-0.0007684503 0.141675 0.11073169 -0.35446972 -0.03826523 -0.12576021 0.08132172 -0.30015448
0.13317202 -0.106706604 0.06875201 0.20361742 -0.054769788 -0.061926004 -0.073929146 0.15864237
-0.073373124 -0.0258339 0.0208583 -0.0855002 0.042896662 0.03795388 0.04664002 -0.061910134
0.07991636 -0.05239321 0.08004324 -0.08482545 -0.07875136 0.04592905 0.0010372449 -0.00045899092
-0.057186052 -0.04263482 -0.034027316 -0.094307825 0.004593427 0.015632266 -7.4831725e-05 0.020283597
0.078309044 0.023501052 -0.03791509 -0.044526525 -0.056551356 -0.0694033 -0.019792296 -0.015632857
0.031126516 -0.0459218 0.070463516 -0.070261635 -0.0006221071 0.071269356 0.087892056 -0.051200032
0.0075611034 0.01044067 -0.049721014 -0.03880959 0.015612448 -0.06979713 0.006382438 0.030016392
-0.034831207 0.06786094 -0.011375369 0.032711513 0.087531544 -0.035213776 0.039757565 -0.022376364
-0.02098627 -0.023155719 -0.00871975 -0.04160587 0.015161801 -0.005033006 0.04943795 -0.026101967
0.003305082 -0.03287961 -0.08223673 0.027563639 0.005751435 -0.035398096 -0.029884538 0.014965763
-0.021540636 0.057759654 -0.0032307308 0.02537648 0.03030539 -0.029886467 0.029899942 0.0652247
0.004067487 0.009105252 -0.005000344 0.052980576 -0.045734838 -0.05516376 0.030406099 -0.08507557
0.0014170824 -0.04620748 0.05278187 -0.09047928 0.048034374 0.081889085 0.009689009 -0.01425633
0.08619298 -0.043311227 -0.012641483 -0.038705695 -0.020406647 0.010856308 0.004199958 -0.024898132
-0.096541405 -0.0037050503 -0.010824325 0.006461854 0.067727596 0.07771688 -0.060430326 -0.0055114063
-0.043794665 -0.08146273 -0.072502024 0.082957864 0.051535808 0.03942054 0.0409205 -0.07749164
0.0011045359 0.07396102 -0.05753584 0.07031229 0.014996806 0.06218505 -0.04634318 0.032647006
00000000: 3295 30be 4755 913d 8d19 2b3e c01e bd3d
00000010: d51c cabd 8ee0 ac3e 0413 19bd e66a 2bbe
00000020: 0179 3d3d 04fa 3bbd eafd 483e b771 8fbd
00000030: e41a cd3d 1536 12be f5c2 6f3d f56d f3bd
00000040: 35c3 823e 2342 68bd 9786 033a 2c7b 1b3e
00000050: 0288 b5bc 6c06 9dbc b44f 923a 2f38 233e
00000060: fd1e e2bd 743b aa3d 4525 c0bd 2e3e 6a3e
00000070: 0bfc debc ff2c 083e 8f00 53bd 9fb6 50bc
00000080: 81b2 523e dbdc 813b 0b13 d7ba 40c5 a83d
00000090: d46e d6bd efb5 ee3d 9bed 773d 77ea c3bc
000000a0: 9c5e 463e bc0c 71bd af8d 26be 61c1 853e
000000b0: c6e1 2cbd eab6 a8bc fb03 df3d 5bfc 79be
000000c0: 2963 333d c079 01be 4317 a2bd 27de 7dbe
000000d0: a901 693d 2b6a 423e cf59 bbbd 4e8a 7abe
000000e0: 83eb 943d 43cc e53c 3e59 303d 28cb 2a3e
000000f0: 1f38 9ebd fbb3 19bd 21d1 afbe 5fc2 223e
00000100: eddc 27be 6ce7 0cbd 1a0f 283e 2779 4a3e
00000110: 8a47 acbd 5eef 673d f2f6 37bc fb5c 633d
00000120: b9d9 9ebe ac16 a6bd 8df6 7d3e 9eb1 a93c
00000130: 9ed5 ff3d 0082 213e 8f3d a13e cd7e 9a3d
00000140: 4ecf 923d 40e2 ce3a 8929 1c3e 367d bf3d
00000150: 0505 0abe 813e 913d a905 e83c 442c 40bc
00000160: 801b 5b3d b680 27be 71f0 efba f4a0 fb3d
00000170: 532d 02be 5c2d c8bd f8ce 563c 673b c73e
00000180: 72be d0bd af4d f9be 834d 6abd 38a5 d53b
00000190: 9208 673d 9379 95bd 1718 f03c 4aad df3d
000001a0: 89cf 0e3e 2df0 883e 3d7a 493e 02ff 91be
000001b0: 96a5 023f 171c a33d 27f0 46be 502d 1938
000001c0: d471 49ba 4013 113e 4cc7 e23d 0e7d b5be
000001d0: 00bc 1cbd 49c7 00be 008c a63d d9ad 99be
000001e0: 3f5e 083e fe88 dabd dbcd 8c3d 1681 503e
000001f0: 4956 60bd 1fa6 7dbd 2a68 97bd 2573 223e
00000200: a644 96bd 9da1 d3bc 07df aa3c bb1a afbd
00000210: 69b4 2f3d 8775 1b3d 9b09 3f3d 7b95 7dbd
00000220: 30ab a33d 439a 56bd b6ed a33d f7b8 adbd
00000230: 6548 a1bd 1920 3c3d 2af4 873a b8a4 f0b9
00000240: ec3b 6abd d9a1 2ebd 3a60 0bbd 7624 c1bd
00000250: 7584 963b 3d0f 803c faee 9cb8 c929 a63c
00000260: 7e60 a03d 4785 c03c da4c 1bbd 7261 36bd
00000270: 65a2 67bd 5123 8ebd 7423 a2bc 7a10 80bc
00000280: 09fd fe3c 7f18 3cbd 2d4f 903d 55e5 8fbd
00000290: e714 23ba abf5 913d c000 b43d 20b7 51bd
000002a0: 22c3 f73b 580f 2b3c 43a8 4bbd cef6 1ebd
000002b0: 5acb 7f3c ccf1 8ebd c523 d13b f0e4 f53c
000002c0: 2bab 0ebd adfa 8a3d c15f 3abc 82fc 053d
000002d0: bd43 b33d 523c 10bd d4d8 223d a34e b7bc
000002e0: 66eb abbc 10b1 bdbc 48dd 0ebc eb6a 2abd
000002f0: 3469 783c eaeb a4bb 737f 4a3d cbd3 d5bc
00000300: 139a 583b c5ac 06bd bb6b a8bd 24cd e13c
00000310: 8976 bc3b 98fd 10bd 6bd0 f4bc f632 753c
00000320: fd75 b0bc 6395 6c3d abba 53bb 56e2 cf3c
00000330: 0243 f83c 77d4 f4bc b9f0 f43c 8794 853d
00000340: 8e48 853b 322e 153c edd9 a3bb 2902 593d
00000350: 7454 3bbd 65f3 61bd 3616 f93c 1a3c aebd
00000360: 65bd b93a 0e44 3dbd cd31 583d 334d b9bd
00000370: b1bf 443d 77b5 a73d a6be 1e3c 6293 69bc
00000380: f285 b03d 1d67 31bd 391e 4fbc dd89 1ebd
00000390: d72b a7bc a8de 313c cd9f 893b 2bf7 cbbc
000003a0: 80b7 c5bd 6ed0 72bb 8258 31bc f6bd d33b
000003b0: c4b4 8a3d 072a 9f3d ca85 77bd 0799 b4bb
000003c0: 0962 33bd efd5 a6bd f17b 94bd d0e5 a93d
000003d0: 3617 533d 6f77 213d 419c 273d f0b3 9ebd
000003e0: 13c6 903a e078 973d b3aa 6bbd e4ff 8f3d
000003f0: 2ab5 753c c0b5 7e3d 59d2 3dbd deb8 053d

fc2.bias f4 [64]
0.082960874 0.064502954 0.112149954 -0.042986583 -0.054235283 0.08532366 -0.047435034 -0.023772148
0.07465321 0.012364275 0.025239846 -0.012584311 0.1262707 -0.07262142 0.08164177 0.03832355
-0.09231321 0.012478879 -0.026518177 0.03153912 0.07463319 0.0038142174 -0.050271254 -0.07237996
0.055682935 -0.09056814 -0.03897174 0.086033024 0.045549247 0.10642138 0.033900615 -0.07711697
0.107363775 -0.0074519524 0.067752086 0.040594395 -0.0037624838 0.049963396 0.036478665 -0.009610634
-0.0894429 -0.04158653 0.09428622 0.12344016 0.02058816 0.11596905 0.18199094 0.020385323
-0.0361443 0.12810926 0.002559258 0.0025832402 0.024666054 0.051056102 0.015542837 -0.008919896
-0.053051077 0.039334506 -0.060021237 0.06372245 0.061893232 0.021648172 0.13498032 0.027220167
00000000: 64e7 a93d 201a 843d e0ae e53d b312 30bd
00000010: d125 5ebd 2cbe ae3d 3d4b 42bd cfbd c2bc
00000020: c8e3 983d 8793 4a3c cbc3 ce3c 6d2e 4ebc
00000030: 1b4d 013e 8aba 94bd cd33 a73d 28f9 1c3d
00000040: b50e bdbd 3674 4c3c a63c d9bc 2a2f 013d
00000050: 49d9 983d f3f7 793b 3be9 4dbd f23b 94bd
00000060: ca13 643d ca7b b9bd d5a0 1fbd 1532 b03d
00000070: d991 3a3d 74f3 d93d 5fdb 0a3d 81ef 9dbd
00000080: 8ae1 db3d 822f f4bb 9bc1 8a3d 4f46 263d
00000090: 0194 76bb 6ba6 4c3d a76a 153d ec75 1dbc
000000a0: d72d b7bd a356 2abd 2219 c13d 32ce fc3d
000000b0: 80a8 a83c 2e81 ed3d d55b 3a3e 1fff a63c
000000c0: 0c0c 14bd 132f 033e 39b9 273b 944b 293b
000000d0: 7710 ca3c 3420 513d 62a7 7e3c c124 12bc
000000e0: 164c 59bd 381d 213d d4d8 75bd ea80 823d
000000f0: c283 7d3d 8257 b13c 4838 0a3e d4fc de3c

fc3.weight f4 [1, 64]
-0.2103698 0.03309839 -0.23884915 -0.0739539 -0.040709306 -0.19622418 0.06311166 -0.23045014
-0.27876765 -0.29746255 0.113899656 0.05636853 -0.28932482 -0.102550715 -0.041563656 0.09648697
0.05624142 0.023185339 0.058642723 0.012696016 0.12932105 -0.2637055 0.098226726 0.05055548
0.034030642 0.06340784 -0.0128343 -0.27502695 -0.034004882 -0.27262586 -0.2291135 0.06429337
0.2489126 -0.004320562 0.035883393 -0.25062913 -0.27000004 -0.34159014 0.116460286 -0.25149116
0.043071304 0.08359455 -0.1839271 -0.22960696 0.08754765 -0.28747073 -0.7255585 -0.21949765
0.014213322 -0.24162762 -0.0060774246 0.056272186 0.045680285 0.025861247 0.08016705 -0.058273032
-0.007193262 0.15289854 0.027101085 -0.349266 0.09453204 -0.2497994 -0.19515172 -0.27673444
00000000: 2e6b 57be 2d92 073d df94 74be 2475 97bd
00000010: cdbe 26bd feee 48be b040 813d 1ffb 6bbe
00000020: a2ba 8ebe 034d 98be 3944 e93d b0e2 663d
00000030: 6222 94be 1c06 d2bd a73e 2abd f69a c53d
00000040: 675d 663d 2eef bd3c 5a33 703d f302 503c
00000050: bd6c 043e 6804 87be 182b c93d 4313 4f3d
00000060: b763 0b3d f8db 813d f546 52bc 55d0 8cbe
00000070: b448 0bbd 9e95 8bbe bb9c 6abe 3eac 833d
00000080: f2e2 7e3e 8093 8dbb 77fa 123d 7652 80be
00000090: 723d 8abe e7e4 aebe bb82 ee3d 73c3 80be
000000a0: 896b 303d 9f33 ab3d 6357 3cbe 161e 6bbe
000000b0: 2f4c b33d 5d2f 93be 34be 39bf fec3 60be
000000c0: fede 683c 3b6d 77be 2225 c7bb aa7d 663d
000000d0: 401b 3b3d f7da d33c 9f2e a43d b4af 6ebd
000000e0: 75b5 ebbb 6f91 1c3e 1803 de3c fed2 b2be
000000f0: 049a c13d 6acb 7fbe dad5 47be 23b0 8dbe
