PreTrained/cstr_ode/DQN/0_1/700.pth (torch, 38048 bytes, 5 tensors)

fc1.weight f4 [128, 4]
-0.13471551 0.50594795 -0.63545257 -0.3679695 -0.18293118 0.19665655 -0.046870507 0.3841569
0.18832007 -0.11153794 -0.28724292 -0.03210968 -0.34078428 -0.49919042 -0.20108621 0.05139028
0.18602823 0.31164512 -0.35061342 -0.21773142 0.4925442 0.09593402 -0.24328919 0.40095222
-0.14982925 0.08322372 0.31149396 -0.41710016 -0.50157255 -0.072740085 -0.28094918 0.40184742
-0.16160169 -0.389188 -0.33125404 -0.4682805 -0.76309 0.6405437 0.27864492 0.20713547
0.28419828 -0.49718472 -0.09921391 -0.46684736 -0.43951303 -0.17882523 0.2942851 0.32657403
-0.28589177 -0.05519662 0.40452033 0.50052714 0.26064518 0.017078497 0.46642488 -0.25414398
0.30666474 -0.601978 -0.4792711 -0.21405654 0.08138137 0.33367965 -0.42811674 0.20440581
0.6168973 -0.39039662 -0.1256007 0.12966931 0.10702922 0.68441796 -0.59334177 -0.18323487
0.3031923 0.31095952 0.2666608 0.38357422 0.3367155 -0.66005003 -0.131243 -0.29249868
-0.46597707 0.44424623 0.38017988 -0.49876398 0.09358603 -0.084230006 -0.082280576 -0.22887844
0.1645382 -0.3978709 0.15375541 0.267625 0.6986717 -0.14941707 -0.3955865 -0.32434845
0.065690234 0.32495797 -0.5899296 -0.28790975 0.47037464 0.33690894 -0.21801257 -0.12584239
-0.53299826 0.060052555 -0.44339472 -0.38567835 0.20650522 -0.15401424 -0.24053513 0.32110807
-0.32564175 0.44094506 0.32037702 -0.42164147 -0.010526289 -0.12743507 -0.07579642 0.13752167
0.2083576 0.018126044 -0.20592415 0.3035209 -0.47962445 -0.29635334 -0.12516493 -0.24355668
0.094821475 -0.65287304 -0.3996621 0.13447872 -0.51426446 0.10409519 0.30343276 -0.079789184
-0.035946243 0.01233867 0.09520838 0.32988578 0.51194245 0.2909037 0.34078366 -0.0705023
-0.3447889 -0.34941426 0.46036628 0.05970698 -0.030985292 -0.6090605 -0.58398414 -0.39656252
-0.101418376 0.274203 0.27032053 -0.48221594 0.31189102 -0.39125472 -0.10570514 -0.20273632
0.14181736 -0.35550922 -0.60226965 -0.3689388 -0.07823974 0.0064660907 -0.22713745 0.1883496
-0.55036044 0.007858483 0.52296364 -0.20450808 0.81116056 -0.18195873 -0.39733747 0.3461632
-0.058324344 -0.21044464 0.51919055 -0.4177915 0.053006265 -0.090122044 0.47713614 0.12820478
0.5109149 -0.08152133 -0.2797799 -0.086256534 -0.3796427 0.15046547 0.5118074 0.31001487
-0.35268915 0.022299945 -0.35246706 -0.2752421 -0.4741339 0.38291088 -0.5056578 -0.010908604
-0.13271396 0.53891426 -0.5877266 -0.34325612 -0.43111044 0.427765 -0.40140498 0.39491066
0.18080378 0.06331301 -0.003722012 -0.09884077 0.2885612 -0.34519255 -0.15253645 0.08021276
-0.36125606 -0.41243124 0.5042282 -0.37274662 0.037327025 0.49146643 0.31230918 -0.0054282276
-0.33169094 0.1480507 -0.35991764 -0.16382988 0.010892578 -0.28470734 -0.14273189 0.3673205
0.15961286 0.33424672 0.14672157 -0.37474498 0.50471735 -0.6214552 -0.36883843 0.1759981
0.11941444 0.42078748 -0.20664723 0.0008004308 0.27522117 -0.50182486 0.40030512 -0.4134612
-0.33628377 0.17683198 -0.34090024 -0.010079772 0.6848527 -0.41089696 -0.43757963 -0.1656444
00000000: ddf2 09be ce85 013f 05ad 22bf 8066 bcbe
00000010: 5052 3bbe 5660 493e 4afb 3fbd 37b0 c43e
00000020: fad6 403e 016e e4bd 8111 93be 7185 03bd
00000030: 477b aebe e395 ffbe 8be9 4dbe 9d7e 523d
00000040: 2f7e 3e3e f38f 9f3e 9a83 b3be fcf4 5ebe
00000050: c12e fc3e 0e79 c43d cd20 79be 9c49 cd3e
00000060: d76c 19be 3371 aa3d 237c 9f3e 278e d5be
00000070: 0f67 00bf c1f8 94bd 92d8 8fbe f2be cd3e
00000080: ea7a 25be a643 c7be 219a a9be 76c2 efbe
00000090: de59 43bf acfa 233f 8caa 8e3e 521b 543e
000000a0: 7082 913e ff8e febe aa30 cbbd 9e06 efbe
000000b0: da07 e1be f61d 37be 89ac 963e b634 a73e
000000c0: 6860 92be da15 62bd 4a1d cf3e 8c22 003f
000000d0: 4973 853e 34e8 8b3c 3ecf ee3e 291f 82be
000000e0: 2903 9d3e 3b1b 1abf 0663 f5be a331 5bbe
000000f0: 47ab a63d 0fd8 aa3e 1e32 dbbe c24f 513e
00000100: fbec 1d3f 11e2 c7be 789d 00be 08c8 043e
00000110: 2332 db3d 0436 2f3f 3fe5 17bf eca1 3bbe
00000120: 053c 9b3e 1636 9f3e c487 883e d763 c43e
00000130: f965 ac3e 0af9 28bf 9164 06be 63c2 95be
00000140: 8c94 eebe 3e74 e33e f0a6 c23e fe5d ffbe
00000150: 08aa bf3d c880 acbd b882 a8bd 1c5f 6abe
00000160: b47c 283e bcb5 cbbe 0f72 1d3e 2506 893e
00000170: 26dc 323f ca00 19be 508a cabe 0011 a6be
00000180: 9a88 863d e460 a63e a005 17bf e868 93be
00000190: f2d4 f03e 547f ac3e b03e 5fbe d4dc 00be
000001a0: 9372 08bf abf9 753d a204 e3be a277 c5be
000001b0: 1b76 533e e9b5 1dbe d74e 76be 4768 a43e
000001c0: 84ba a6be 8dc3 e13e 7508 a43e 64e1 d7be
000001d0: 7576 2cbc 577e 02be 273b 9bbd 7bd2 0c3e
000001e0: b25b 553e 127d 943c c8dd 52be 1767 9b3e
000001f0: 5691 f5be a0bb 97be 3c2b 00be ec66 79be
00000200: c331 c23d b022 27bf 83a0 ccbe cab4 093e
00000210: d6a6 03bf dc2f d53d 8a5b 9b3e 8368 a3bd
00000220: 5e3c 13bd 2228 4a3c 9cfc c23d cae6 a83e
00000230: a90e 033f 54f1 943e 327b ae3e 8363 90bd
00000240: 2c88 b0be 6de6 b2be 21b5 eb3e 4e8f 743d
00000250: ded4 fdbc 64eb 1bbf fc7f 15bf 3e0a cbbe
00000260: 70b4 cfbd 5664 8c3e 7467 8a3e 02e5 f6be
00000270: 2eb0 9f3e 8a52 c8be f07b d8bd 1c9a 4fbe
00000280: 9238 113e 4e05 b6be 582e 1abf 8ce5 bcbe
00000290: 283c a0bd 80e1 d33b b896 68be b8de 403e
000002a0: 6ce4 0cbf dec0 003c f2e0 053f 916a 51be
000002b0: 38a8 4f3f 6453 3abe d16f cbbe 4e3c b13e
000002c0: 82e5 6ebd cd7e 57be ace9 043f c4e8 d5be
000002d0: 191d 593d e891 b8bd 304b f43e 1d48 033e
000002e0: 52cb 023f a8f4 a6bd 503f 8fbe 44a7 b0bd
000002f0: 8760 c2be 9f13 1a3e cf05 033f 45ba 9e3e
00000300: ac93 b4be 60ae b63c 9076 b4be 88ec 8cbe
00000310: aec1 f2be e50c c43e ca72 01bf 00ba 32bc
00000320: 2be6 07be 49f6 093f 4075 16bf 44bf afbe
00000330: 82ba dcbe 0404 db3e f484 cdbe bb31 ca3e
00000340: a024 393e 40aa 813d 00ed 73bb 086d cabd
00000350: 4bbe 933e 14bd b0be 8432 1cbe 9646 a43d
00000360: 8ef6 b8be 302a d3be 1915 013f a5d8 bebe
00000370: 39e4 183d 7da1 fb3e fde6 9f3e 46df b1bb
00000380: 65d3 a9be 9a9a 173e 2047 b8be 05c3 27be
00000390: c976 323c 29c5 91be 4f28 12be 6f11 bc3e
000003a0: 8e71 233e 6322 ab3e 2e3e 163e 93de bfbe
000003b0: 2835 013f b017 1fbf 64d8 bcbe d938 343e
000003c0: 8f8f f43d 7571 d73e 559b 53be 00d4 513a
000003d0: cae9 8c3e 9877 00bf cbf4 cc3e 30b1 d3be
000003e0: 632d acbe 7113 353e 7a8a aebe a125 25bc
000003f0: 8252 2f3f 1661 d2be 700a e0be b09e 29be

fc1.bias f4 [128]
-0.027221953 -0.1986849 0.20609374 0.315128 -0.23264317 0.035660774 0.31281412 0.27471337
0.26294848 0.07119087 0.17591618 -0.3287837 -0.19592917 -0.16426308 0.4263788 -0.018488279
-0.03496934 -0.0399689 0.4961886 0.51704216 -0.37709332 -0.40533495 -0.41306278 0.067004085
-0.029182788 -0.32727283 -0.12519465 0.14957261 -0.28351828 0.1880689 -0.14541449 -0.24228168
0.08593024 0.46690708 -0.3260736 -0.04515437 -0.059468746 0.550758 -0.47438163 -0.4793306
0.52576524 -0.31634498 0.3386406 0.009039238 -0.069847554 -0.08002798 0.3439082 0.29605368
-0.4868073 -0.11676104 -0.02591678 0.4507155 -0.32356685 0.52488524 0.12290984 0.02114602
0.50156385 0.2808764 0.46106365 0.30633062 -0.1059876 -0.30356744 0.24357598 0.44915566
0.067989185 -0.42350104 0.24155512 0.51270807 0.30696946 -0.37194893 -0.45352983 0.20119423
0.25339898 -0.25249362 0.10675855 0.3115878 0.43729198 0.42025465 -0.049507108 -0.44088358
-0.45181155 0.522379 0.26956636 0.22431542 -0.2963558 0.4878943 0.5660998 0.527654
-0.4217925 -0.070528716 -0.38095918 0.5095056 -0.1199223 -0.12662297 0.23025607 -0.2305379
-0.13031209 0.32238835 0.26463088 -0.3162943 0.45198554 -0.23168115 0.25081328 0.47902906
0.2756779 0.09393671 0.43659014 0.3497664 -0.10806833 0.50457054 0.34529918 -0.4878404
-0.15957363 -0.320034 0.50222576 0.29915297 -0.45576245 0.23996928 0.31646463 0.4279343
0.2840826 0.2823306 0.22234584 -0.14085576 -0.05124823 -0.38341153 -0.3487913 0.30960274
00000000: 9300 dfbc 0e74 4bbe 3d0a 533e 7558 a13e
00000010: 033a 6ebe 0811 123d 2c29 a03e 3ba7 8c3e
00000020: 2fa1 863e 85cc 913d 5f23 343e 5656 a8be
00000030: a8a1 48be 9534 28be 524e da3e bb74 97bc
00000040: 033c 0fbd 6eb6 23bd 6f0c fe3e e05c 043f
00000050: 6012 c1be 1088 cfbe f77c d3be 7039 893d
00000060: be10 efbc 4e90 a7be 0733 00be 9029 193e
00000070: 4f29 91be 2295 403e 89e7 14be b018 78be
00000080: 32fc af3d 720e ef3e 1ef3 a6be caf3 38bd
00000090: 8095 73bd 7afe 0c3f 26e2 f2be d26a f5be
000000a0: 8d98 063f f8f7 a1be 4d62 ad3e 5019 143c
000000b0: 3c0c 8fbd b6e5 a3bd bc14 b03e 5994 973e
000000c0: ce3e f9be 6a20 efbd 6d4f d4bc 2fc4 e63e
000000d0: 8eaa a5be e15e 063f 27b8 fb3d 6b3a ad3c
000000e0: 7d66 003f 08cf 8f3e 8910 ec3e 5ed7 9c3e
000000f0: 0710 d9bd 316d 9bbe fb6b 793e bbf7 e53e
00000100: ea3d 8b3d 21d5 d8be 3a5a 773e d640 033f
00000110: 1a2b 9d3e 1770 bebe 1035 e8be dc05 4e3e
00000120: 83bd 813e d846 81be 3aa4 da3d 7088 9f3e
00000130: bce4 df3e 9e2b d73e f7c7 4abd 7ebb e1be
00000140: d853 e7be a1ba 053f 9a04 8a3e f1b2 653e
00000150: f3bb 97be 48cd f93e ebeb 103f 5514 073f
00000160: 30f5 d7be 5c71 90bd 150d c3be f66e 023f
00000170: d399 f5bd 74a9 01be 3fc8 6b3e 2112 6cbe
00000180: 8870 05be 1610 a53e b37d 873e 54f1 a1be
00000190: a66a e73e d33d 6dbe 996a 803e 4c43 f53e
000001a0: a725 8d3e e461 c03d be88 df3e 9514 b33e
000001b0: ee52 ddbd 892b 013f 0ecb b03e 38c6 f9be
000001c0: 4567 23be 7fdb a3be de91 003f 942a 993e
000001d0: b259 e9be 82ba 753e a707 a23e 341a db3e
000001e0: 4673 913e a38d 903e a1ae 633e 7e3c 10be
000001f0: aae9 51bd 844e c4be c694 b2be 4084 9e3e

fc2.weight f4 [64, 128]
-0.2686085 0.070963435 0.20371468 0.10832108 -0.13465291 0.39256418 -0.03425843 -0.15479141
0.067840956 0.09022071 0.21746647 -0.07004111 0.09494591 -0.15588312 0.09305923 -0.24027845
0.2900871 -0.19903325 0.010080537 0.17354533 -0.02215958 -0.019168101 0.02665618 0.2139283
-0.2195886 0.08312121 -0.17251438 0.26460096 -0.027219793 0.14727876 -0.051514205 -0.012738853
0.22210267 0.0036916062 -0.0016408873 0.07995444 -0.11028968 0.15051065 0.060529333 -0.023915512
0.23056793 -0.058850035 -0.17718126 0.3206783 -0.054194327 -0.03344853 0.14158365 -0.25631684
0.04379574 -0.26678088 -0.1783115 -0.21094488 0.05688635 0.21291813 -0.10234603 -0.24228932
0.10482598 0.048281096 0.054039642 0.20037687 -0.130747 -0.036168847 -0.31205449 0.19380161
-0.034323905 -0.03440039 0.19686379 0.23144631 -0.03086256 0.4280213 -0.01122831 0.09305313
-0.2861665 -0.08109793 0.264427 0.053138185 0.14485092 0.19766107 0.3310685 0.075437166
0.071684465 0.017873442 0.19410974 0.14110228 -0.15374388 0.07752746 0.0372501 0.01547023
0.053493023 -0.26303104 -0.001830591 0.13593772 -0.22660947 -0.18895134 0.026273958 0.39741132
-0.12185205 -0.47878212 -0.055953637 0.3922106 0.090623155 -0.083494544 0.06549325 0.1470374
0.15955782 0.29062927 0.2230916 -0.2528727 0.5648183 0.095621385 -0.19968103 3.6520243e-05
-0.009213099 0.119119585 0.1486607 -0.3695176 -0.03826523 -0.14020213 0.101138756 -0.27334544
0.15590708 -0.11089575 0.10049396 0.19931445 -0.06546388 -0.061926004 -0.06432758 0.19127116
-0.073373124 -0.0258339 0.0208583 -0.0855002 0.042896662 0.03795388 0.04664002 -0.061910134
0.07991636 -0.05239321 0.08004324 -0.08482545 -0.07875136 0.04592905 0.0010372449 -0.00045899092
-0.057186052 -0.04263482 -0.034027316 -0.094307825 0.004593427 0.015632266 -7.4831725e-05 0.020283597
0.078309044 0.023501052 -0.03791509 -0.044526525 -0.056551356 -0.0694033 -0.019792296 -0.015632857
0.031126516 -0.0459218 0.070463516 -0.070261635 -0.0006221071 0.071269356 0.087892056 -0.051200032
0.0075611034 0.01044067 -0.049721014 -0.03880959 0.015612448 -0.06979713 0.006382438 0.030016392
-0.034831207 0.06786094 -0.011375369 0.032711513 0.087531544 -0.035213776 0.039757565 -0.022376364
-0.02098627 -0.023155719 -0.00871975 -0.04160587 0.015161801 -0.005033006 0.04943795 -0.026101967
0.003305082 -0.03287961 -0.08223673 0.027563639 0.005751435 -0.035398096 -0.029884538 0.014965763
-0.021540636 0.057759654 -0.0032307308 0.02537648 0.03030539 -0.029886467 0.029899942 0.0652247
0.004067487 0.009105252 -0.005000344 0.052980576 -0.045734838 -0.05516376 0.030406099 -0.08507557
0.0014170824 -0.04620748 0.05278187 -0.09047928 0.048034374 0.081889085 0.009689009 -0.01425633
0.08619298 -0.043311227 -0.012641483 -0.038705695 -0.020406647 0.010856308 0.004199958 -0.024898132
-0.096541405 -0.0037050503 -0.010824325 0.006461854 0.067727596 0.07771688 -0.060430326 -0.0055114063
-0.043794665 -0.08146273 -0.072502024 0.082957864 0.051535808 0.03942054 0.0409205 -0.07749164
0.0011045359 0.07396102 -0.05753584 0.07031229 0.014996806 0.06218505 -0.04634318 0.032647006
00000000: 0e87 89be 4755 913d 959a 503e 71d7 dd3d
00000010: 74e2 09be 2cfe c83e 9152 0cbd a481 1ebe
00000020: 33f0 8a3d a3c5 b83d 88af 5e3e b771 8fbd
00000030: 0073 c23d d39f 1fbe d695 be3d 8e0b 76be
00000040: 4c86 943e 5fcf 4bbe d628 253c deb5 313e
00000050: 0288 b5bc 6c06 9dbc 105e da3c 0510 5b3e
00000060: d5db 60be 743b aa3d 9ca7 30be c779 873e
00000070: 0bfc debc 3ed0 163e 8f00 53bd 9fb6 50bc
00000080: e26e 633e e0ee 713b 0b13 d7ba 27bf a33d
00000090: 8edf e1bd 771f 1a3e 9bed 773d 77ea c3bc
000000a0: 001a 6c3e bc0c 71bd 016f 35be f22f a43e
000000b0: dffa 5dbd 5301 09bd 4efb 103e f63b 83be
000000c0: 2963 333d 8197 88be 4a97 36be ef01 58be
000000d0: a901 693d 3607 5a3e cc9a d1bd b11a 78be
000000e0: 01af d63d 66c2 453d ac58 5d3d 982f 4d3e
000000f0: 8be2 05be c925 14bd 9bc5 9fbe ee73 463e
00000100: 3997 0cbd 6ce7 0cbd a996 493e 4300 6d3e
00000110: 7bd3 fcbc 9c25 db3e f2f6 37bc a492 be3d
00000120: 6a84 92be ac16 a6bd fa62 873e 6da7 593d
00000130: cd53 143e aa67 4a3e cf81 a93e cd7e 9a3d
00000140: 4ecf 923d 536b 923c b4c4 463e 1e7d 103e
00000150: 096f 1dbe b8c6 9e3d 9093 183d d976 7d3c
00000160: 801b 5b3d 01ac 86be 71f0 efba 4233 0b3e
00000170: 500c 68be 767c 41be 7c3c d73c 7f79 cb3e
00000180: 918d f9bd ee22 f5be a42f 65bd d4cf c83e
00000190: a298 b93d 30ff aabd 5321 863d f990 163e
000001a0: 2063 233e 5ccd 943e 2072 643e 8878 81be
000001b0: ef97 103f 25d5 c33d 2f79 4cbe 502d 1938
000001c0: 8af2 16bc f8f4 f33d 833a 183e 6931 bdbe
000001d0: 00bc 1cbd 2691 0fbe d621 cf3d eff3 8bbe
000001e0: 1ba6 1f3e 501d e3bd c7cf cd3d 1619 4c3e
000001f0: ed11 86bd 1fa6 7dbd 2ebe 83bd 96dc 433e
00000200: a644 96bd 9da1 d3bc 07df aa3c bb1a afbd
00000210: 69b4 2f3d 8775 1b3d 9b09 3f3d 7b95 7dbd
00000220: 30ab a33d 439a 56bd b6ed a33d f7b8 adbd
00000230: 6548 a1bd 1920 3c3d 2af4 873a b8a4 f0b9
00000240: ec3b 6abd d9a1 2ebd 3a60 0bbd 7624 c1bd
00000250: 7584 963b 3d0f 803c faee 9cb8 c929 a63c
00000260: 7e60 a03d 4785 c03c da4c 1bbd 7261 36bd
00000270: 65a2 67bd 5123 8ebd 7423 a2bc 7a10 80bc
00000280: 09fd fe3c 7f18 3cbd 2d4f 903d 55e5 8fbd
00000290: e714 23ba abf5 913d c000 b43d 20b7 51bd
000002a0: 22c3 f73b 580f 2b3c 43a8 4bbd cef6 1ebd
000002b0: 5acb 7f3c ccf1 8ebd c523 d13b f0e4 f53c
000002c0: 2bab 0ebd adfa 8a3d c15f 3abc 82fc 053d
000002d0: bd43 b33d 523c 10bd d4d8 223d a34e b7bc
000002e0: 66eb abbc 10b1 bdbc 48dd 0ebc eb6a 2abd
000002f0: 3469 783c eaeb a4bb 737f 4a3d cbd3 d5bc
00000300: 139a 583b c5ac 06bd bb6b a8bd 24cd e13c
00000310: 8976 bc3b 98fd 10bd 6bd0 f4bc f632 753c
00000320: fd75 b0bc 6395 6c3d abba 53bb 56e2 cf3c
00000330: 0243 f83c 77d4 f4bc b9f0 f43c 8794 853d
00000340: 8e48 853b 322e 153c edd9 a3bb 2902 593d
00000350: 7454 3bbd 65f3 61bd 3616 f93c 1a3c aebd
00000360: 65bd b93a 0e44 3dbd cd31 583d 334d b9bd
00000370: b1bf 443d 77b5 a73d a6be 1e3c 6293 69bc
00000380: f285 b03d 1d67 31bd 391e 4fbc dd89 1ebd
00000390: d72b a7bc a8de 313c cd9f 893b 2bf7 cbbc
000003a0: 80b7 c5bd 6ed0 72bb 8258 31bc f6bd d33b
000003b0: c4b4 8a3d 072a 9f3d ca85 77bd 0799 b4bb
000003c0: 0962 33bd efd5 a6bd f17b 94bd d0e5 a93d
000003d0: 3617 533d 6f77 213d 419c 273d f0b3 9ebd
000003e0: 13c6 903a e078 973d b3aa 6bbd e4ff 8f3d
000003f0: 2ab5 753c c0b5 7e3d 59d2 3dbd deb8 053d

fc2.bias f4 [64]
0.10303066 0.064502954 0.13315812 -0.042986583 -0.054235283 0.10576949 -0.047435034 -0.031359833
0.08525088 0.022136705 0.025239846 -0.012584311 0.12917005 -0.10691501 0.12354463 0.03832355
-0.09231321 0.012478879 -0.026518177 0.03153912 0.08327653 0.017094873 -0.050271254 -0.07237996
0.055682935 -0.09056814 -0.05050491 0.07174196 0.045549247 0.1257427 0.054708026 -0.07711697
0.09676067 -0.0074519524 0.067752086 0.06179939 -0.04077706 0.017300107 0.036478665 0.008056773
-0.0894429 -0.04158653 0.11650305 0.13861011 0.02058816 0.13519727 0.20797384 0.038891032
-0.0361443 0.14029711 0.002559258 0.0025832402 0.024666054 0.051056102 0.015542837 -0.008919896
-0.053051077 0.031062111 -0.060021237 0.030899305 0.061893232 0.04327563 0.15611388 0.04165507
00000000: bd01 d33d 201a 843d 9a5a 083e b312 30bd
00000010: d125 5ebd ad9d d83d 3d4b 42bd 2b73 00bd
00000020: 0398 ae3d 0958 b53c cbc3 ce3c 6d2e 4ebc
00000030: 2745 043e 42f6 dabd f804 fd3d 28f9 1c3d
00000040: b50e bdbd 3674 4c3c a63c d9bc 2a2f 013d
00000050: e38c aa3d 8c0a 8c3c 3be9 4dbd f23b 94bd
00000060: ca13 643d ca7b b9bd 3dde 4ebd 73ed 923d
00000070: d991 3a3d b2c2 003e 8615 603d 81ef 9dbd
00000080: 752a c63d 822f f4bb 9bc1 8a3d 5b21 7d3d
00000090: d905 27bd f4b8 8d3c a76a 153d 8e00 043c
000000a0: d72d b7bd a356 2abd 2799 ee3d cfef 0d3e
000000b0: 80a8 a83c 2771 0a3e 18f7 543e 344c 1f3d
000000c0: 0c0c 14bd 0caa 0f3e 39b9 273b 944b 293b
000000d0: 7710 ca3c 3420 513d 62a7 7e3c c124 12bc
000000e0: 164c 59bd f875 fe3c d4d8 75bd 8a20 fd3c
000000f0: c283 7d3d c941 313d 51dc 1f3e 829e 2a3d

fc3.weight f4 [1, 64]
-0.24180932 0.03309839 -0.2699164 -0.0739539 -0.040709306 -0.22815408 0.06311166 -0.25169098
-0.3143751 -0.33455548 0.113899656 0.05636853 -0.32845336 -0.06547946 -0.09515609 0.09648697
0.05624142 0.023185339 0.058642723 0.012696016 0.11701271 -0.2982323 0.098226726 0.05055548
0.034030642 0.06340784 -0.016511042 -0.29710284 -0.034004882 -0.31273854 -0.25409627 0.06429337
0.22242092 -0.004320562 0.035883393 -0.2814297 -0.3478239 -0.409286 0.116460286 -0.2831328
0.043071304 0.08359455 -0.21507785 -0.26861873 0.08754765 -0.31827956 -0.80279034 -0.25920781
0.014213322 -0.27625173 -0.0060774246 0.056272186 0.045680285 0.025861247 0.08016705 -0.058273032
-0.007193262 0.14541027 0.027101085 -0.40435985 0.09453204 -0.2817668 -0.22712111 -0.30984128
00000000: dd9c 77be 2d92 073d 7b32 8abe 2475 97bd
00000010: cdbe 26bd 39a1 69be b040 813d a4dd 80be
00000020: c6f5 a0be db4a abbe 3944 e93d b0e2 663d
00000030: 0a2b a8be 181a 86bd 32e1 c2bd f69a c53d
00000040: 675d 663d 2eef bd3c 5a33 703d f302 503c
00000050: 5ca4 ef3d e7b1 98be 182b c93d 4313 4f3d
00000060: b763 0b3d f8db 813d 2a42 87bc dd1d 98be
00000070: b448 0bbd 441f a0be e818 82be 3eac 833d
00000080: 4fc2 633e 8093 8dbb 77fa 123d 8e17 90be
00000090: f915 b2be ef8d d1be bb82 ee3d c8f6 90be
000000a0: 896b 303d 9f33 ab3d 5e3d 5cbe 6588 89be
000000b0: 2f4c b33d 8af5 a2be ab83 4dbf e3b6 84be
000000c0: fede 683c de70 8dbe 2225 c7bb aa7d 663d
000000d0: 401b 3b3d f7da d33c 9f2e a43d b4af 6ebd
000000e0: 75b5 ebbb 6ee6 143e 1803 de3c 4108 cfbe
000000f0: 049a c13d bd43 90be 7092 68be 84a3 9ebe
