PreTrained/cstr_ode/Deep_DQN/0_4/100.pth (torch, 43158 bytes, 13 tensors)

fc1.weight f4 [128, 4]
-0.006250715 0.27072912 -0.41402996 -0.3679695 -0.19257718 0.13407868 -0.00990659 0.39644474
-0.04932202 0.13702981 -0.1621444 -0.098282695 -0.47755507 -0.3314601 -0.20689572 0.018521786
0.19271125 0.30496737 -0.34392655 -0.21773142 0.17518108 0.42122614 -0.10834109 0.37415588
-0.09286669 0.06837171 0.4417782 -0.46383518 -0.31754526 -0.12420802 -0.19310409 0.4320004
-0.32955885 -0.22554284 -0.33669567 -0.4682805 -0.29646182 0.431337 0.218893 0.24233627
0.028962668 -0.25664648 0.084095016 -0.46684736 -0.36128312 -0.257765 0.31546897 0.29316062
-0.22174752 -0.018041193 0.31978035 0.49706656 0.20274585 0.057206184 0.33619684 -0.29440117
0.08740904 -0.38431612 -0.3517142 -0.25829178 0.22776872 0.199548 -0.2946443 0.15105355
0.2726227 -0.047169127 0.02451304 0.115852356 0.31082624 0.47945914 -0.3846738 -0.18323487
0.20010656 0.40817103 0.44014335 0.44117838 0.10517408 -0.43124786 0.042276174 -0.31280267
-0.46597707 0.44424623 0.38017988 -0.49876398 0.09358603 -0.084230006 -0.082280576 -0.22887844
0.19496275 -0.2988494 0.18619895 0.25285405 0.35299844 0.19207199 -0.4994902 -0.32434845
0.24802987 0.10627842 -0.3916701 -0.28790975 0.47037464 0.33690894 -0.21801257 -0.12584239
-0.47598055 -0.009305275 -0.37621093 -0.38567835 -0.03149778 0.07777996 -0.19923773 0.2966888
-0.30270126 0.4541722 0.34432134 -0.42164147 -0.11683987 0.016929818 0.08009658 0.118587136
0.19799013 0.028174259 -0.24218838 0.2365945 -0.47962445 -0.29635334 -0.12516493 -0.24355668
-0.18183054 -0.39889857 -0.10936693 0.10687822 -0.33502066 -0.016342126 0.34847525 -0.051400125
0.013896108 -0.04313445 0.101190686 0.31791973 0.46577975 0.32468253 0.48239303 -0.036160827
-0.4454694 -0.240581 0.34389085 -0.003241241 -0.2566763 -0.374272 -0.47271204 -0.4220041
-0.101418376 0.274203 0.27032053 -0.48221594 0.31189102 -0.39125472 -0.10570514 -0.20273632
-0.0871469 -0.1021856 -0.45718697 -0.43171895 -0.07823974 0.0064660907 -0.22713745 0.1883496
-0.4599999 -0.03062863 0.43093073 -0.203946 0.4454298 0.1838319 -0.45992735 0.31634867
-0.053093817 -0.2263957 0.3968575 -0.4040476 0.050454486 -0.10054748 0.36093935 0.13957226
0.23863378 0.1779185 -0.12066815 -0.105152726 -0.41790348 0.27647167 0.39110363 0.34211242
-0.35268915 0.022299945 -0.35246706 -0.2752421 -0.2867847 0.16630414 -0.29338858 -0.010908604
0.027332747 0.31601274 -0.37166104 -0.34325612 -0.2788992 0.33288062 -0.16336873 0.42174435
0.18080378 0.06331301 -0.003722012 -0.09884077 0.06298216 -0.11100427 -0.0056674513 0.06379652
-0.3947637 -0.25503278 0.40340224 -0.40577334 -0.030832037 0.48849866 0.18453354 0.01415652
-0.4296056 0.24358201 -0.35182172 -0.14193213 -0.17403811 -0.06617037 0.002748555 0.41240376
0.06733607 0.44289282 0.3081892 -0.31610698 0.23415492 -0.36058825 -0.20282356 0.14706135
0.16516578 0.37504447 -0.1608882 0.0008004308 0.26857108 -0.49376887 0.35706535 -0.4134612
0.00449634 -0.082685634 -0.26167762 0.06608552 0.42603546 -0.14652933 -0.2847357 -0.18491942
00000000: ccd2 ccbb 029d 8a3e bcfb d3be 8066 bcbe
00000010: f432 45be ec4b 093e 404f 22bc cefa ca3e
00000020: e305 4abd 8b51 0c3e 2e09 26be 7048 c9bd
00000030: 1982 f4be 23b5 a9be 79dc 53be 00bb 973c
00000040: 1956 453e af24 9c3e 2417 b0be fcf4 5ebe
00000050: ab62 333e f4aa d73e efe1 ddbd 5c91 bf3e
00000060: e430 bebd 7806 8c3d c130 e23e ce7b edbe
00000070: 4b95 a2be c660 febd 14bd 45be 282f dd3e
00000080: f0bb a8be b4f4 66be 6063 acbe 76c2 efbe
00000090: d8c9 97be 34d8 dc3e 7d25 603e 0027 783e
000000a0: 1e43 ed3c 2b67 83be 023a ac3d 9e06 efbe
000000b0: 1afa b8be c6f9 83be 2685 a13e 2619 963e
000000c0: c811 63be 20cb 93bc 40ba a33e 827f fe3e
000000d0: 9c9c 4f3e 0851 6a3d fe21 ac3e c0bb 96be
000000e0: 8303 b33d 15c5 c4be e213 b4be d23e 84be
000000f0: 343c 693e 5056 4c3e 9edb 96be c8ad 1a3e
00000100: 3495 8b3e 6a34 41bd 92cf c83c 0044 ed3d
00000110: 9e24 9f3e ab7b f53e f7f3 c4be eca1 3bbe
00000120: bce8 4c3e cbfb d03e 785a e13e 22e2 e13e
00000130: 8265 d73d 85cc dcbe c829 2d3d ac27 a0be
00000140: 8c94 eebe 3e74 e33e f0a6 c23e fe5d ffbe
00000150: 08aa bf3d c880 acbd b882 a8bd 1c5f 6abe
00000160: 51a4 473e ca02 99be f0aa 3e3e 1676 813e
00000170: 36bc b43e 85ae 443e 2ebd ffbe 0011 a6be
00000180: 8bfb 7d3e 80a8 d93d fc88 c8be e868 93be
00000190: f2d4 f03e 547f ac3e b03e 5fbe d4dc 00be
000001a0: b9b3 f3be 2775 18bc b89e c0be a277 c5be
000001b0: d103 01bd 1a4b 9f3d fa04 4cbe 98e7 973e
000001c0: a9fb 9abe 4289 e83e e34a b03e 64e1 d7be
000001d0: be49 efbd 67b0 8a3c ad09 a43d d0dd f23d
000001e0: edbd 4a3e b4cd e63c 3b00 78be d445 723e
000001f0: 5691 f5be a0bb 97be 3c2b 00be ec66 79be
00000200: c931 3abe 6f3c ccbe c5fb dfbd f8e2 da3d
00000210: d487 abbe ecdf 85bc 596b b23e f088 52bd
00000220: 80ac 633c c0ad 30bd 103d cf3d 60c6 a23e
00000230: af7a ee3e ca3c a63e 38fc f63e 601d 14bd
00000240: 9114 e4be de5a 76be 7612 b03e 006b 54bb
00000250: 136b 83be 94a0 bfbe 5007 f2be ec10 d8be
00000260: 70b4 cfbd 5664 8c3e 7467 8a3e 02e5 f6be
00000270: 2eb0 9f3e 8a52 c8be f07b d8bd 1c9a 4fbe
00000280: 137a b2bd af46 d1bd 6914 eabe 440a ddbe
00000290: 283c a0bd 80e1 d33b b896 68be b8de 403e
000002a0: 1b85 ebbe e5e8 fabc f4a2 dc3e 38d7 50be
000002b0: 600f e43e 6e3e 3c3e 997b ebbe 74f8 a13e
000002c0: e778 59bd 46d4 67be e830 cb3e 54df cebe
000002d0: 5da9 4e3d d6eb cdbd 0bcd b83e 08ec 0e3e
000002e0: 6a5c 743e 4430 363e dd20 f7bd 505a d7bd
000002f0: 72f7 d5be b28d 8d3e bc3e c83e 5c29 af3e
00000300: ac93 b4be 60ae b63c 9076 b4be 88ec 8cbe
00000310: 72d5 92be a24b 2a3e 0737 96be 00ba 32bc
00000320: ede8 df3c 6ccc a13e 5b4a bebe 44bf afbe
00000330: e0cb 8ebe 546f aa3e 224a 27be e0ee d73e
00000340: a024 393e 40aa 813d 00ed 73bb 086d cabd
00000350: cafc 803d 3556 e3bd 07b6 b9bb c0a7 823d
00000360: 781e cabe a893 82be bd8a ce3e 86c1 cfbe
00000370: 7893 fcbc 7f1c fa3e 5cf6 3c3e c0f0 673c
00000380: 44f5 dbbe 906d 793e fa21 b4be a856 11be
00000390: 0c37 32be 5584 87bd 1a21 343b 9626 d33e
000003a0: 7ee7 893d d9c2 e23e faca 9d3e c6d8 a1be
000003b0: 4fc6 6f3e 069f b8be fbb0 4fbe 4097 163e
000003c0: 3821 293e d405 c03e e0bf 24be 00d4 513a
000003d0: 2682 893e 46cf fcbe 45d1 b63e 30b1 d3be
000003e0: 0956 933b 1657 a9bd 9cfa 85be d857 873d
000003f0: 5221 da3e c90b 16be e1c8 91be 845b 3dbe

fc1.bias f4 [128]
-0.13622022 -0.18639785 0.11910926 0.17729865 -0.23932947 0.039010163 0.2893153 -0.046951097
0.1477922 -0.12421895 0.17553644 -0.3621971 -0.2940144 -0.25284156 0.45995462 -0.13607424
-0.005663054 -0.24288575 0.49901247 0.4900138 -0.37709332 -0.40533495 -0.3760934 -0.0095775435
-0.12582432 -0.32727283 -0.17965464 0.094725125 -0.25957397 0.11153727 -0.116433814 -0.24228168
0.06434345 0.41153547 -0.33803964 0.020624276 -0.18094572 0.4860888 -0.47438163 -0.4793306
0.49402034 -0.31634498 0.10157881 -0.0342243 -0.10829765 -0.10779051 0.3164239 0.019072315
-0.4868073 -0.2997481 -0.17674883 0.26612252 -0.32356685 0.47068682 -0.11170881 -0.086804226
0.39565015 0.25272992 0.42312747 0.2897494 -0.15174669 -0.32947668 -0.041515708 0.414013
-0.16324344 -0.46368498 0.20495373 0.48565257 -0.14180757 -0.41401178 -0.45352983 0.12810871
-0.036795374 -0.25249362 0.09447332 0.19342692 0.39679736 0.38748616 -0.068353325 -0.44088358
-0.45181155 0.46571535 0.22597918 0.21916518 -0.4342838 0.46464115 0.47277296 0.4512979
-0.4217925 -0.1855509 -0.34338728 0.4727984 -0.21051143 -0.23169513 0.25665593 -0.22378336
-0.24318403 -0.040386856 -0.04922534 -0.38948923 0.41642052 -0.23443583 0.18143712 0.4355754
0.2500706 0.062122475 0.42551082 0.06665178 -0.23284194 0.4729321 0.12309858 -0.4878404
-0.1494743 -0.34058374 0.45187628 -0.074726075 -0.45576245 -0.028430842 0.31345236 0.12610811
0.16291104 0.05010947 0.18528451 -0.13277094 -0.19345473 -0.46735424 -0.37111464 0.21671326
00000000: 507d 0bbe 14df 3ebe 8eef f33d c78d 353e
00000010: c912 75be 1fc9 1f3d 2321 943e cb4f 40bd
00000020: d756 173e 8166 febd d3bf 333e e671 b9be
00000030: 0e89 96be 7374 81be 2c7f eb3e 0c57 0bbe
00000040: 2491 b9bb 0bb7 78be 907e ff3e 17e3 fa3e
00000050: 6012 c1be 1088 cfbe 508f c0be 21eb 1cbc
00000060: 17d8 00be 4e90 a7be 63f7 37be 3fff c13d
00000070: e1e6 84be a76d e43d da74 eebd b018 78be
00000080: 80c6 833d c7b4 d23e 8813 adbe 3ef4 a83c
00000090: d649 39be a2e0 f83e 26e2 f2be d26a f5be
000000a0: 3cf0 fc3e f8f7 a1be 8d08 d03d c82e 0cbd
000000b0: 29cb ddbd 45c1 dcbd 5002 a23e 8b3d 9c3c
000000c0: ce3e f9be 9578 99be a5fd 34be 3641 883e
000000d0: 8eaa a5be ddfd f03e 97c7 e4bd 6ac6 b1bd
000000e0: a892 ca3e d165 813e 2aa4 d83e 095a 943e
000000f0: 7c63 1bbe 2bb1 a8be 600c 2abd 83f9 d33e
00000100: 4a29 27be 1e68 edbe 64df 513e 74a7 f83e
00000110: 0136 11be 5af9 d3be 1035 e8be ee2e 033e
00000120: bfb6 16bd d846 81be 3a7b c13d b511 463e
00000130: 0629 cb3e 9664 c63e d4fc 8bbd 7ebb e1be
00000140: d853 e7be 3e72 ee3e 1667 673e d66c 603e
00000150: 725a debe 72e5 ed3e 4c0f f23e 8510 e73e
00000160: 30f5 d7be 0e01 3ebe 75d0 afbe a212 f23e
00000170: 4f90 57be 7d41 6dbe 6868 833e 7727 65be
00000180: 3c05 79be b06c 25bd 83a0 49bd 226b c7be
00000190: 1235 d53e f20f 70be a7ca 393e bd03 df3e
000001a0: 4109 803e 2374 7e3d 8edc d93e ba80 883d
000001b0: 1e6e 6ebe 2824 f23e 1c1b fc3d 38c6 f9be
000001c0: ca0f 19be fe60 aebe 545c e73e fc09 99bd
000001d0: b259 e9be cce7 e8bc d47c a03e 7c22 013e
000001e0: 27d2 263e 963f 4d3d 39bb 3d3e 1bf5 07be
000001f0: ff18 46be 0e49 efbe bd02 bebe 15ea 5d3e

bn1.weight f4 [128]
1.0019826 1.0 1.0046816 0.9936611 1.0089301 0.99098426 1.0047749 1.0018421
1.0045135 0.9946965 0.99827576 1.0 1.0 0.9962514 0.996537 0.99891603
0.99377537 0.9990676 0.99917006 1.0086647 1.0 1.0 0.99512774 0.9948053
1.0006775 1.0 0.9992664 0.9987638 1.000656 0.99334866 0.99978673 1.0
0.9945043 1.0049946 1.0 1.0012032 0.9917216 1.0056245 1.0 1.0
0.9965626 1.0 1.0009764 0.99241644 0.9977962 1.0006001 0.9977846 1.001343
1.0 0.9973474 0.99356306 1.0050536 1.0 1.0063076 0.995362 0.9972088
1.006123 0.9978563 0.9972637 1.0047455 1.000755 0.9966843 0.99689364 1.006173
1.0010105 1.0 1.0031942 1.0058353 1.0001522 1.0 1.0 1.0023469
1.0000279 1.0 0.9992418 0.9953144 0.9974259 1.0021001 1.0023216 1.0
1.0 0.99940354 1.0024372 1.0062608 0.99829894 1.0037657 0.9942719 0.99491125
1.0 1.0017664 0.9994904 0.9993727 1.0080343 0.99643195 1.0043768 0.999822
1.0000705 1.0023633 0.99498034 1.0 1.005318 0.99831134 0.9996365 1.0058008
1.0041473 1.0053616 0.9921935 1.0031681 0.9961674 1.0030112 1.0043294 1.0
1.0054704 1.0 1.0055957 1.0033139 1.0 1.0036322 0.9950925 0.9996791
1.001465 1.0052595 1.0052235 0.9938231 0.9962491 1.0 0.9915575 0.9951841
00000000: f740 803f 0000 803f 6899 803f 9360 7e3f
00000010: 9f24 813f 25b1 7d3f 779c 803f 5d3c 803f
00000020: e693 803f 6ea4 7e3f 008f 7f3f 0000 803f
00000030: 0000 803f 550a 7f3f 0d1d 7f3f f6b8 7f3f
00000040: 1068 7e3f e5c2 7f3f 9cc9 7f3f ed1b 813f
00000050: 0000 803f 0000 803f b1c0 7e3f 8fab 7e3f
00000060: 3316 803f 0000 803f eccf 7f3f fcae 7f3f
00000070: 7f15 803f 194c 7e3f 06f2 7f3f 0000 803f
00000080: d597 7e3f aaa3 803f 0000 803f 6d27 803f
00000090: 77e1 7d3f 4eb8 803f 0000 803f 0000 803f
000000a0: ba1e 7f3f 0000 803f ff1f 803f 010f 7e3f
000000b0: 926f 7f3f aa13 803f d06e 7f3f 022c 803f
000000c0: 0000 803f 2952 7f3f 265a 7e3f 99a5 803f
000000d0: 0000 803f b0ce 803f 0bd0 7e3f 1349 7f3f
000000e0: a3c8 803f 8373 7f3f ad4c 7f3f 809b 803f
000000f0: bd18 803f b426 7f3f 6c34 7f3f 47ca 803f
00000100: 1d21 803f 0000 803f ab68 803f 36bf 803f
00000110: fd04 803f 0000 803f 0000 803f e74c 803f
00000120: ea00 803f 0000 803f 50ce 7f3f edcc 7e3f
00000130: 4e57 7f3f d144 803f 134c 803f 0000 803f
00000140: 0000 803f e9d8 7f3f dd4f 803f 27cd 803f
00000150: 8590 7f3f 657b 803f 9a88 7e3f 81b2 7e3f
00000160: 0000 803f e239 803f 9ade 7f3f e4d6 7f3f
00000170: 4507 813f 2a16 7f3f 6b8f 803f 56f4 7f3f
00000180: 4f02 803f 714d 803f 08b7 7e3f 0000 803f
00000190: 43ae 803f 5591 7f3f 2de8 7f3f 15be 803f
000001a0: e687 803f b0af 803f 6500 7e3f d067 803f
000001b0: d404 7f3f ac62 803f de8d 803f 0000 803f
000001c0: 41b3 803f 0000 803f 5cb7 803f 976c 803f
000001d0: 0000 803f 0577 803f 62be 7e3f f8ea 7f3f
000001e0: 0130 803f 58ac 803f 2aab 803f 316b 7e3f
000001f0: 2e0a 7f3f 0000 803f b6d6 7d3f 63c4 7e3f

bn1.bias f4 [128]
-0.00093593064 6.167454e-05 -0.00581651 0.012165552 -0.008850849 -0.0072063194 -0.0051830597 -0.00348155
-0.00037424362 0.0029471274 0.009838419 0.008775192 0.011499314 0.0057926085 -0.0040470455 -0.0009003111
-0.0035847125 -0.003033179 -0.0013812461 -0.00461334 0.005391965 -0.0026181033 -0.007708517 -0.005067627
-0.0026567068 -0.0072852573 0.015066458 -0.0043079765 -0.0070435815 0.0068685943 0.004172705 -0.006735463
-0.007951874 -0.0016024325 -0.00023962243 0.008234429 0.008507283 -0.0028423418 0.0034708832 0.009316245
0.0029552227 0.0060002804 -0.0046166284 -0.007794725 -0.00803321 -0.0038989133 -0.0040618232 -0.010759109
-0.0029485659 -0.0041504125 -1.0898675e-06 0.010984093 0.00059439003 0.005183277 7.577145e-05 -0.0056883874
0.002568205 -0.0083097685 -0.0013589808 0.002901546 0.006598964 0.007200278 0.012723007 0.002815377
0.004662127 -0.008095753 -8.0699865e-05 0.0053308113 -0.0059243706 -0.0024806317 -0.009685336 0.0012475107
-0.0023230969 -0.0072376207 -0.008366378 0.002258406 -0.00427668 0.0009941017 0.0068944376 -0.0077371616
0.00573448 0.0024187723 0.0058947513 0.003522881 0.009737005 0.0063158018 0.008726469 0.0068702647
0.010526827 -0.0023575523 0.011068315 0.003750971 -0.001433825 0.0093065975 -0.002667013 0.004524367
-0.011341429 -6.8201196e-05 0.001517146 0.005884902 0.000310779 -0.00032411705 0.010369077 0.0028594753
0.012948728 0.004289569 -0.0070179394 0.007018314 -0.0001389478 -0.0076131294 0.0058260597 -0.0029543757
-0.0020604227 0.011979506 0.00040937777 0.005998016 0.0017111193 0.0035183989 0.004754377 -0.004723418
0.00031824806 -0.0015791928 0.00314673 -0.0011191625 -0.0051559373 0.00882666 -0.008387322 0.005433095
00000000: 3e59 75ba 4457 8138 6c98 bebb 0652 473c
00000010: 2703 11bc fd22 ecbb a8d6 a9bb b72a 64bb
00000020: 2136 c4b9 9824 413b 5231 213c d3c5 0f3c
00000030: 9e67 3c3c eccf bd3b 149d 84bb db02 6cba
00000040: 7fed 6abb 4dc8 46bb ee0a b5ba 802b 97bb
00000050: 15af b03b 7c94 2bbb ba97 fcbb 560e a6bb
00000060: 251c 2ebb 2bb9 eebb 4ed9 763c ed29 8dbb
00000070: d8cd e6bb f211 e13b 30bb 883b 29b5 dcbb
00000080: 9448 02bc b608 d2ba 2843 7bb9 b3e9 063c
00000090: 2262 0b3c 9546 3abb c277 633b 2aa3 183c
000000a0: 69ac 413b 009e c43b 1647 97bb e46a ffbb
000000b0: ba9d 03bc e984 7fbb 0b19 85bb f946 30bc
000000c0: ba3c 41bb 2f00 88bb 9047 92b5 a0f6 333c
000000d0: d7d0 1b3a 7bd8 a93b 7de7 9e38 a765 babb
000000e0: 544f 283b b225 08bc d41f b2ba dd27 3e3b
000000f0: 1f3c d83b 4ff0 eb3b 2974 503c 3082 383b
00000100: c1c4 983b 0da4 04bc 693d a9b8 16ae ae3b
00000110: 3921 c2bb 1892 22bb 3eaf 1ebc 8383 a33a
00000120: 193f 18bb 9029 edbb 2213 09bc c401 143b
00000130: 6423 8cbb 854c 823a bcea e13b 0488 fdbb
00000140: 4ee8 bb3b 4484 1e3b c228 c13b 23e0 663b
00000150: f687 1f3c c9f4 ce3b 77f9 0e3c f51f e13b
00000160: b678 2c3c 2a81 1abb e157 353c dad2 753b
00000170: 2fef bbba b37a 183c 0ec9 2ebb 2441 943b
00000180: 67d1 39bc 3d07 8fb8 f9da c63a 23d6 c03b
00000190: 0df0 a239 41ee a9b9 10e3 293c 0966 3b3b
000001a0: e726 543c 838f 8c3b bef6 e5bb e3f9 e53b
000001b0: 84b2 11b9 8f77 f9bb 88e8 be3b 339e 41bb
000001c0: 2808 07bb b145 443c c1a1 d639 018b c43b
000001d0: a347 e03a f094 663b 9bca 9b3b e7c6 9abb
000001e0: 88da a639 ebfc ceba 5e39 4e3b ddb0 92ba
000001f0: 23f3 a8bb b29d 103c fa6a 09bc 1b08 b23b

bn1.running_mean f4 [128]
0.0025359448 0.0 0.0389594 0.038627043 0.0007682123 0.012448502 0.44303134 0.002115321
0.041063998 0.00015993745 0.28399956 0.0 0.0 0.07664475 0.4172465 0.0009296441
0.13062215 0.001018229 0.6951772 0.64905477 0.0 0.0 0.0010764159 0.048463352
0.0015512268 0.0 0.0026820695 0.03646282 3.081176e-06 0.09726835 0.0004946672 0.0
0.04409101 0.4405999 0.0 0.3701989 0.0093653435 0.25254995 0.0 0.0
0.26764756 0.0 0.16361529 0.055470135 0.15097421 0.14225264 0.31780207 0.07642751
0.0 0.0009278799 0.0018894877 0.049971465 0.0 0.5185523 0.082244605 0.0021926304
0.09980036 0.19744757 0.4956992 0.37155843 0.00021998066 0.12647569 0.0015341049 0.4881793
0.002306536 0.0 0.24812208 0.5183638 0.0024435513 0.0 0.0 0.039576776
0.002299343 0.0 0.4171105 0.047291137 0.56043035 0.30013317 0.13838917 0.0
0.0 0.64180464 0.19305581 0.20462337 0.024810763 0.6423914 0.35518005 0.21041392
0.0 0.0020785965 0.0005543913 0.6674555 0.0016573967 0.0024537472 0.50332946 0.114097126
0.0024795895 0.0003989528 0.003160102 0.0 0.4404372 0.20178595 0.032595955 0.44803938
0.23492652 0.15593198 0.588634 0.007062221 8.344198e-09 0.7180217 0.028154237 0.0
0.18128063 0.0 0.23376338 0.00060366956 0.0 0.029730847 0.52523315 0.010853792
0.048846286 0.123515874 0.18890402 0.2527733 0.06050272 0.0 0.025251564 0.067952015
00000000: 1832 263b 0000 0000 e493 1f3d 6437 1e3d
00000010: db61 493a cdf4 4b3c 01d5 e23e 33a1 0a3b
00000020: b932 283d e2b4 2739 6468 913e 0000 0000
00000030: 0000 0000 ecf7 9c3d 55a1 d53e 5cb3 733a
00000040: d0c1 053e 1976 853a 22f7 313f 7428 263f
00000050: 0000 0000 0000 0000 8616 8d3a 8281 463d
00000060: 8952 cb3a 0000 0000 a9c5 2f3b 0a5a 153d
00000070: 33c6 4e36 a134 c73d 8eac 013a 0000 0000
00000080: c698 343d 4f96 e13e 0000 0000 b68a bd3e
00000090: 1971 193c 3a4e 813e 0000 0000 0000 0000
000000a0: 1a09 893e 0000 0000 c48a 273e a734 633d
000000b0: fc98 1a3e adaa 113e f4b6 a23e 0786 9c3d
000000c0: 0000 0000 f73c 733a b0a8 f73a e1ae 4c3d
000000d0: 0000 0000 d8bf 043f dc6f a83d 3cb2 0f3b
000000e0: 2264 cc3d b22f 4a3e 49cc fd3e e83c be3e
000000f0: 9caa 6639 d882 013e 0514 c93a a3f2 f93e
00000100: 4129 173b 0000 0000 b713 7e3e 7db3 043f
00000110: fd23 203b 0000 0000 0000 0000 421b 223d
00000120: 93b0 163b 0000 0000 828f d53e 5ab4 413d
00000130: 5d78 0f3f 0eab 993e e4b5 0d3e 0000 0000
00000140: 0000 0000 4f4d 243f 6cb0 453e ca88 513e
00000150: f13f cb3c c373 243f 29da b53e bf76 573e
00000160: 0000 0000 1039 083b 9254 113a 5dde 2a3f
00000170: 013d d93a 0ccf 203b 33da 003f c1ab e93d
00000180: 9c80 223b 8a2a d139 b719 4f3b 0000 0000
00000190: fc80 e13e faa0 4e3e 5683 053d 6b65 e53e
000001a0: 9490 703e a2ac 1f3e b8b0 163f 346a e73b
000001b0: 2c5a 0f32 45d0 373f b7a3 e63c 0000 0000
000001c0: a1a1 393e 0000 0000 ab5f 6f3e 943f 1e3a
000001d0: 0000 0000 1b8e f33c ae75 063f 1ad4 313c
000001e0: 0b13 483d e4f5 fc3d 0e70 413e 816b 813e
000001f0: b3d1 773d 0000 0000 5edc ce3c 6d2a 8b3d

bn1.running_var f4 [128]
0.0008397435 6e-45 0.0020571079 0.0045908755 7.706205e-05 0.0005770867 0.048484776 0.000395629
0.0041871127 5.1007673e-06 0.0031779576 6e-45 6e-45 0.0065535083 0.030738859 0.00011285055
0.0014424523 0.00013538013 0.053361468 0.0038479145 6e-45 6e-45 2.2086484e-05 0.0035319184
0.000314208 6e-45 0.00093930465 0.0017574695 1.4630522e-08 0.00149997 3.1952663e-05 6e-45
0.0021955357 0.028332952 6e-45 0.06608253 0.00023814641 0.058314845 6e-45 6e-45
0.05658881 6e-45 0.0266977 0.0040307455 0.025411524 0.022494484 0.0034566962 0.0067008575
6e-45 0.00011242424 0.00046618274 0.0066887233 6e-45 0.0003020657 0.007667025 7.837421e-05
0.017269624 0.00043082202 0.0250147 0.010883762 6.319111e-06 0.018730225 0.0003073096 0.019369898
0.0006441907 6e-45 0.0050377417 0.012279943 0.00074476865 6e-45 6e-45 0.002591398
0.000690358 6e-45 0.01921506 0.004608541 0.0049033207 0.039113373 0.009737537 6e-45
6e-45 0.025690628 0.035124294 0.02577773 0.0011456754 0.041049358 0.015207984 0.015008458
6e-45 0.0005641659 4.013253e-05 0.04662149 0.00035869257 0.00078618876 0.04091275 0.0117948055
7.50517e-05 1.4365106e-05 0.0010797097 6e-45 0.011558579 0.04555804 0.004268912 0.027719162
0.00053146813 0.0013276763 0.0054555996 0.002298554 3.578941e-12 0.022540301 0.002712306 6e-45
0.036152065 6e-45 0.041048322 2.3317081e-05 6e-45 0.0010225603 0.013208492 0.0038247472
0.0055048307 0.016544212 0.002339803 0.04948298 0.004239791 6e-45 0.00128806 0.00560841
00000000: 3b22 5c3a 0400 0000 8bd0 063b 0e6f 963b
00000010: 609c a138 a247 173a f997 463d 6d6c cf39
00000020: 0c34 893b 4227 ab36 4845 503b 0400 0000
00000030: 0400 0000 d0be d63b 0fd0 fb3c 2daa ec38
00000040: ab10 bd3a d4f4 0d39 8e91 5a3d 4b2d 7c3b
00000050: 0400 0000 0400 0000 5d46 b937 c277 673b
00000060: 49bc a439 0400 0000 ab3b 763a e45a e63a
00000070: b759 7b32 a49a c43a e904 0638 0400 0000
00000080: fae2 0f3b 821a e83c 0400 0000 4756 873d
00000090: f1b6 7939 8cdb 6e3d 0400 0000 0400 0000
000000a0: abc9 673d 0400 0000 23b5 da3c 5814 843b
000000b0: d42b d03c 5a46 b83c bd89 623b de92 db3b
000000c0: 0400 0000 4ec5 eb38 fd69 f439 142d db3b
000000d0: 0400 0000 925e 9e39 ab3b fb3b d55c a438
000000e0: 0779 8d3c f4df e139 a1eb cc3c ce51 323c
000000f0: c008 d436 2170 993c 651e a139 9fad 9e3c
00000100: e8de 283a 0400 0000 a413 a53b d031 493c
00000110: 943c 433a 0400 0000 0400 0000 72d4 293b
00000120: 24f9 343a 0400 0000 e768 9d3c 3e03 973b
00000130: 09ac a03b 5835 203d 318a 1f3c 0400 0000
00000140: 0400 0000 2775 d23c 7ede 0f3d d12b d33c
00000150: 7d2a 963a 5f23 283d e82a 793c 09e6 753c
00000160: 0400 0000 88e4 133a fa53 2838 2df6 3e3d
00000170: e70e bc39 3c18 4e3a 2194 273d 003f 413c
00000180: 1365 9d38 a901 7137 0c85 8d3a 0400 0000
00000190: 3260 3d3c 119b 3a3d 3be2 8b3b 4c13 e33c
000001a0: 3952 0b3a 6d05 ae3a e3c4 b23b 56a3 163b
000001b0: 78d8 7b2c 70a6 b83c f2c0 313b 0400 0000
000001c0: 3014 143d 0400 0000 4922 283d 0d99 c337
000001d0: 0400 0000 6e07 863a 6e68 583c 9ca8 7a3b
000001e0: de61 b43b ba87 873c 6157 193b aaae 4a3d
000001f0: f2ed 8a3b 0400 0000 1fd4 a83a c1c6 b73b

fc2.weight f4 [64, 128]
-0.06587125 0.009244053 0.031163543 0.003184694 -0.070694484 0.09449113 -0.059730485 0.064988896
-0.072442375 -0.021599041 0.036760543 -0.038914036 0.07042877 -0.07025345 -0.06684217 -0.053620342
0.030399041 0.0680666 -0.04867503 0.03821582 -0.02499543 -0.015692018 0.07229039 -0.058423746
-0.0040298877 0.08711522 -0.026280234 0.07137717 -0.024195546 0.061480045 -0.0995983 -0.012071947
-0.008189043 0.019247908 0.029365906 0.060927015 -0.017057851 0.003422959 0.05689919 -0.02414367
0.08475921 -0.06478859 -0.017363489 0.007884679 0.029026216 0.050500356 -0.0014173179 -0.07755918
0.051912814 0.012876198 0.021883799 -0.05600235 0.05069925 0.090578906 -0.0016244679 -0.085899256
0.061479215 -0.08246836 0.013732852 0.02096352 -0.055824976 0.011955748 -0.09260468 0.02966478
-0.068344705 -0.0059329504 0.020029882 0.08655446 -0.05444764 0.060834028 -0.008141692 -0.038466547
-0.09009031 -0.077399135 0.07767893 -0.023851376 0.009237171 0.032474548 0.050579082 0.07876785
0.082403645 -0.07061401 -0.0039350684 -0.0409874 -0.05238451 0.012326601 0.074883714 -0.0647193
0.05078521 -0.05913135 -0.03142871 0.06404406 -0.03354992 -0.005825765 -0.067700334 0.0652886
-0.011042364 -0.07239612 0.01667074 -0.06641418 -0.059861153 -0.0066024847 0.07254173 -0.015218181
0.026785873 0.08125888 0.06560484 -0.04714489 -0.009268554 -0.036998767 -0.06847998 -0.008432057
0.054860912 0.07784997 0.016235514 0.015929712 -0.042119388 0.059395704 -0.042344917 -0.062476754
0.01275285 0.047159873 -0.072368436 0.06999991 0.022396477 -0.047235895 -0.020719169 0.07913814
-0.069272526 -0.019275744 0.026456093 -0.0797042 0.047037937 0.04365571 0.0574125 -0.05793792
0.08567014 -0.044223584 0.09192703 -0.07709954 -0.07051431 0.05714857 0.007208009 0.003652541
-0.044575114 -0.038531594 -0.023661202 -0.08151128 0.011530618 0.009140562 0.0032634023 0.025844809
0.08240742 0.016059168 -0.03381344 -0.038871426 -0.05365607 -0.05860081 -0.01563725 -0.022920756
0.037235532 -0.03509676 0.07616883 -0.05942176 0.0011916247 0.076979905 0.094710834 -0.051632218
0.013209426 0.017178562 -0.038780887 -0.033368587 0.027176097 -0.05836851 0.011176536 0.03927325
-0.04073394 0.071969904 -0.007283918 0.037789773 0.09304236 -0.022137597 0.051345874 -0.019305287
-0.015464301 -0.015971093 0.0012931889 -0.035366494 0.019371284 0.00720123 0.054568626 -0.020540133
0.007389699 -0.040089138 -0.07626736 0.032615125 0.0098368265 -0.041917242 -0.03489967 0.020640686
-0.017450672 0.05079866 0.008784235 0.030924218 0.042611536 -0.024217587 0.041699346 0.058093257
0.0013742591 0.019271843 0.00046692288 0.058121305 -0.039103784 -0.044184126 0.040458124 -0.08012933
0.008604132 -0.04211252 0.05693126 -0.080205046 0.052139297 0.08598674 0.020139085 -0.0023654138
0.085216194 -0.038445737 -0.00862203 -0.031311825 -0.0150946975 0.02259972 0.009550619 -0.019448768
-0.084352 0.009307435 0.00056550757 0.011591639 0.07280725 0.08919455 -0.054718386 -0.0028158322
-0.031935826 -0.07911583 -0.067079335 0.08481295 0.057580985 0.05069758 0.052131403 -0.07206691
0.0069187013 0.084111966 -0.051212534 0.0820036 0.026717732 0.05841782 -0.03241506 0.038170263
00000000: 82e7 86bd 5e74 173c b04a ff3c 4db6 503b
00000010: 45c8 90bd 9184 c13d f4a7 74bd e618 853d
00000020: ab5c 94bd 79f0 b0bc 3992 163d 5364 1fbd
00000030: f53c 903d 0ae1 8fbd 8ce4 88bd 01a1 5bbd
00000040: 6907 f93c 8066 8b3d 785f 47bd 3188 1c3d
00000050: 37c3 ccbc 8c8c 80bc fc0c 943d bd4d 6fbd
00000060: 260d 84bb 7769 b23d a549 d7bc 322e 923d
00000070: bd35 c6bc 80d2 7b3d 32fa cbbd 6ac9 45bc
00000080: 562b 06bc caad 9d3c c590 f03c 9b8e 793d
00000090: e8bc 8bbc b953 603b 200f 693d f2c8 c5bc
000000a0: 3d96 ad3d e1af 84bd e03d 8ebc be2e 013c
000000b0: 63c8 ed3c 76d9 4e3d 4cc5 b9ba 59d7 9ebd
000000c0: 88a2 543d b0f6 523c a745 b33c b862 65bd
000000d0: 04aa 4f3d 6f81 b93d 19ec d4ba f3eb afbd
000000e0: a1d1 7b3d 2ce5 a8bd c2ff 603c b0bb ab3c
000000f0: bba8 64bd 0be2 433c 86a7 bdbd 8d03 f33c
00000100: 4ff8 8bbd 3269 c2bb b515 a43c 7743 b13d
00000110: 7d04 5fbd 1a2d 793d bb64 05bc 198f 1dbd
00000120: 4581 b8bd 7083 9ebd 2116 9f3d f663 c3bc
00000130: 8157 173c 0804 053d 032c 4f3d 0a51 a13d
00000140: 3ec3 a83d 149e 90bd bff1 80bb 67e2 27bd
00000150: 2491 56bd 83f5 493c a25c 993d 8d8b 84bd
00000160: 2704 503d b733 72bd 64bb 00bd 8829 833d
00000170: a46b 09bd 0fe6 bebb 79a6 8abd 08b6 853d
00000180: 08eb 34bc 6b44 94bd 1391 883c 2804 88bd
00000190: f830 75bd a859 d8bb c290 943d ad55 79bc
000001a0: 0c6e db3c 0e6b a63d d55b 863d 001b 41bd
000001b0: 22db 17bc 058c 17bd 3b3f 8cbd 9c26 0abc
000001c0: d6b5 603d ce6f 9f3d 5700 853c 077f 823c
000001d0: 6185 2cbd e948 733d dd71 2dbd a0e7 7fbd
000001e0: 54f1 503c b62a 413d e735 94bd 1d5c 8f3d
000001f0: d178 b73c 6d7a 41bd 3fbb a9bc 2d13 a23d
00000200: c1de 8dbd 2ae8 9dbc 73ba d83c f53b a3bd
00000210: daaa 403d 54d0 323d 5f29 6b3d 5050 6dbd
00000220: d473 af3d ca23 35bd 3d44 bc3d 5de6 9dbd
00000230: ce69 90bd 9e14 6a3d 2931 ec3b 785f 6f3b
00000240: 6594 36bd 4ed3 1dbd 23d5 c1bc 63ef a6bd
00000250: ebea 3c3c 4cc2 153c cede 553b 7eb8 d33c
00000260: 39c5 a83d 848e 833c f67f 0abd a537 1fbd
00000270: 78c6 5bbd 6707 70bd b119 80bc 4fc4 bbbc
00000280: 4984 183d 9fc1 0fbd 67fe 9b3d 3b64 73bd
00000290: 4a30 9c3a a4a7 9d3d c1f7 c13d 4e7c 53bd
000002a0: 596c 583c 0eba 8c3c b5d8 1ebd 80ad 08bd
000002b0: 68a0 de3c d213 6fbd ca1d 373c fddc 203d
000002c0: a2d8 26bd f564 933d efad eebb 73c9 1a3d
000002d0: fe8c be3d e859 b5bc 0d50 523d 1f26 9ebc
000002e0: fb5d 7dbc cfd5 82bc 3880 a93a 75dc 10bd
000002f0: 87b0 9e3c 4cf8 eb3b 5a83 5f3d c843 a8bc
00000300: 4a25 f23b 8234 24bd 1032 9cbd 7097 053d
00000310: a42a 213c 6ab1 2bbd f5f2 0ebd a816 a93c
00000320: b6f4 8ebc 4112 503d c1eb 0f3c c954 fd3c
00000330: 6f89 2e3d f663 c6bc efcc 2a3d 32f3 6d3d
00000340: 7c20 b43a fcdf 9d3c 54cd f439 9b10 6e3d
00000350: 4a2b 20bd 6afa 34bd 6bb7 253d d91a a4bd
00000360: 58f8 0c3c 2e7e 2cbd c130 693d 8b42 a4bd
00000370: 0490 553d d119 b03d b9fa a43c 0f05 1bbb
00000380: d485 ae3d 4779 1dbd 6a43 0dbc d440 00bd
00000390: c04f 77bc 0c23 b93c 337a 1c3c 0653 9fbc
000003a0: bec0 acbd 367e 183c 923e 143a dcea 3d3c
000003b0: f81b 953d a2ab b63d 6320 60bd d389 38bb
000003c0: 24cf 02bd 7b07 a2bd e460 89bd 69b2 ad3d
000003d0: 0ada 6b3d 44a8 4f3d bd87 553d d197 93bd
000003e0: 46b6 e23b e542 ac3d 3cc4 51bd 81f1 a73d
000003f0: 25df da3c 8647 6f3d a7c5 04bd 6c58 1c3d

fc2.bias f4 [64]
0.010696645 0.07644404 0.03513438 -0.048569262 -0.03999195 0.018322097 -0.051540058 -0.009250764
0.030623993 -0.037159935 0.028317807 7.7486475e-05 0.08653031 -0.07734897 0.06909064 0.070150726
-0.06673868 0.016240727 -0.013536089 0.04262255 0.066235736 -0.049481403 -0.045319237 -0.069515124
0.06286694 -0.06600031 -0.060961 0.076313674 0.046060055 0.06510033 0.06184758 -0.07677193
-0.019129992 -0.006928088 0.08283084 -0.01765592 -0.016813552 0.05214485 0.051948726 -0.055190824
-0.06343839 -0.027738603 0.029812658 0.08828528 0.038255002 0.056755 0.035135 -0.02235127
-0.014527599 0.07316919 0.022792326 0.011529976 0.060397305 0.053204566 0.018124992 -0.0105505455
-0.034702234 -0.048876416 -0.043084018 0.07882424 0.06603481 -0.03968334 0.057523884 -0.0225728
00000000: fb40 2f3c b18e 9c3d 11e9 0f3d 90f0 46bd
00000010: 99ce 23bd 3918 963c ab1b 53bd 8490 17bc
00000020: 2bdf fa3c 0435 18bd bffa e73c 3c80 a238
00000030: ce36 b13d 2369 9ebd 657f 8d3d 2fab 8f3d
00000040: 4aae 88bd 460b 853c 79c6 5dbc fc94 2e3d
00000050: 9aa6 873d 03ad 4abd aaa0 39bd f25d 8ebd
00000060: 62c0 803d 2c2b 87bd 3eb2 79bd 584a 9c3d
00000070: 78a9 3c3d 5253 853d e353 7d3d 9a3a 9dbd
00000080: 80b6 9cbc 0405 e3bb 37a3 a93d 26a3 90bc
00000090: 93bc 89bc d795 553d 30c8 543d c60f 62bd
000000a0: fdeb 81bd 113c e3bc ad39 f43c eace b43d
000000b0: 47b1 1c3d ee77 683d b8e9 0f3d 031a b7bc
000000c0: 2b05 6ebc bad9 953d f9b6 ba3c 39e8 3c3c
000000d0: 2a63 773d 08ed 593d dd7a 943c 32dc 2cbc
000000e0: ee23 0ebd a332 48bd de78 30bd 9a6e a13d
000000f0: 423d 873d ff8a 22bd 2a9e 6b3d 98ea b8bc

bn2.weight f4 [64]
0.9950384 1.0067502 1.0097276 0.99454147 0.9910211 0.99856794 0.9958641 0.99477917
1.006384 0.99859935 0.9986492 1.0062168 1.0058659 0.99099463 0.99503624 1.0054027
1.0049741 0.9975885 0.9982495 0.99730104 1.0060405 1.007411 1.0062035 0.9994483
1.0069457 1.0067843 0.994554 0.9942014 1.0110196 1.006331 1.0259714 1.0031384
1.0062517 1.013403 0.99658334 1.0046848 0.99442565 1.0108694 1.0087639 1.0085294
1.0053194 1.005772 1.0000321 1.006623 0.99515826 0.9936677 0.9935456 1.0085716
1.0002118 1.0037 1.0061269 1.006779 0.9941071 0.9981659 0.9987903 0.9937317
1.0095217 1.0066847 1.0049111 0.994403 1.0036489 0.99524707 1.0096619 1.0097187
00000000: d6ba 7e3f 31dd 803f c13e 813f 459a 7e3f
00000010: 8fb3 7d3f 26a2 7f3f f3f0 7e3f d9a9 7e3f
00000020: 31d1 803f 35a4 7f3f 79a7 7f3f b6cb 803f
00000030: 37c0 803f d3b1 7d3f b2ba 7e3f 09b1 803f
00000040: fea2 803f f661 7f3f 478d 7f3f 1f4f 7f3f
00000050: efc5 803f d8f2 803f 47cb 803f d8db 7f3f
00000060: 99e3 803f 4fde 803f 179b 7e3f fc83 7e3f
00000070: 1769 813f 74cf 803f 0853 833f d766 803f
00000080: dbcc 803f 31b7 813f 1620 7f3f 8399 803f
00000090: ae92 7e3f 2b64 813f 2d1f 813f 7e17 813f
000000a0: 4eae 803f 23bd 803f 0d01 803f 06d9 803f
000000b0: b1c2 7e3f 0261 7e3f 0159 7e3f e018 813f
000000c0: f106 803f 3e79 803f c4c8 803f 22de 803f
000000d0: ce7d 7e3f cd87 7f3f b9b0 7f3f 3365 7e3f
000000e0: 0238 813f 0bdb 803f eda0 803f 3291 7e3f
000000f0: 9177 803f 83c8 7e3f 9a3c 813f 763e 813f

bn2.bias f4 [64]
0.09949524 -0.097889185 0.090797365 0.09126362 0.12349202 0.099343166 -0.094877765 0.108089454
0.09438377 0.095229976 -0.09345298 -0.09777133 0.09252374 0.093152076 0.094693914 -0.09073724
-0.09232214 -0.09972379 -0.09593847 -0.105600506 -0.09161411 0.09066351 -0.09193988 -0.09359096
-0.099884294 -0.096186675 0.103114404 0.091853745 0.10435702 0.092905976 0.14692113 -0.09663368
-0.1011632 0.13916966 -0.094647765 0.09210243 0.091283664 0.09267529 -0.09180026 0.09174117
-0.09309191 -0.092685536 0.1001074 0.10702874 -0.091565266 0.09027381 0.0937481 0.10481345
0.11659854 0.10273826 -0.11371663 -0.10117865 -0.090420984 -0.09863804 -0.09252138 0.09301579
-0.13223048 -0.098969385 -0.10716053 0.093750864 -0.094290294 0.095106445 0.0930226 0.09090277
00000000: 29c4 cb3d 207a c8bd f8f3 b93d 6ce8 ba3d
00000010: 62e9 fc3d 6e74 cb3d 464f c2bd 015e dd3d
00000020: 474c c13d ef07 c33d 4764 bfbd 563c c8bd
00000030: 167d bd3d 84c6 be3d e2ee c13d 72d4 b9bd
00000040: 6413 bdbd fd3b ccbd 637b c4bd 1445 d8bd
00000050: 2ea0 bbbd caad b93d fa4a bcbd 9eac bfbd
00000060: 2390 ccbd 85fd c4bd a52d d33d d11d bc3d
00000070: 22b9 d53d 7d45 be3d 7e72 163e e1e7 c5bd
00000080: a72e cfbd 7e82 0e3e b0d6 c1bd 33a0 bc3d
00000090: eef2 ba3d 8bcc bd3d c601 bcbd cbe2 bb3d
000000a0: f9a6 bebd ead1 bdbd 1c05 cd3d e231 db3d
000000b0: 9286 bbbd 7ae1 b83d 01ff bf3d 6fa8 d63d
000000c0: 37cb ee3d 7068 d23d 44e4 e8bd c136 cfbd
000000d0: a32e b9bd be02 cabd d97b bdbd 107f be3d
000000e0: 6d67 07be 76b0 cabd fb76 dbbd 7400 c03d
000000f0: 451b c1bd 2bc7 c23d a282 be3d 3b2b ba3d

bn2.running_mean f4 [64]
0.21868269 0.20195568 0.104829274 0.19633472 0.09501775 0.17238133 0.09498803 0.161402
0.36892825 0.06444377 0.21091232 0.15033686 0.17871968 0.08063129 0.13293256 0.13128188
0.2207 0.08567948 0.16730765 0.15254429 0.42790952 0.1287411 0.162657 0.06600715
0.20983362 0.18222685 0.13730364 0.35081512 0.14446187 0.37083703 0.14410473 0.10929291
0.24777442 0.10419389 0.12449819 0.07531327 0.108571805 0.15509707 0.093336254 0.11521031
0.20421596 0.18853882 0.15596825 0.37947023 0.18053184 0.15977038 0.24244857 0.19784383
0.12281591 0.12451827 0.32887802 0.18041101 0.43842041 0.17869987 0.14014538 0.2737694
0.24114463 0.2649872 0.31263417 0.75213957 0.15509453 0.27981025 0.16908084 0.1169589
00000000: 5bee 5f3e 78cd 4e3e bbb0 d63d f80b 493e
00000010: ab98 c23d bb84 303e 1689 c23d 9146 253e
00000020: 2ae4 bc3e 18fb 833d 66f9 573e e8f1 193e
00000030: 4b02 373e 0522 a53d 791f 083e c26e 063e
00000040: 2eff 613e b978 af3d b252 2b3e 9234 1c3e
00000050: f516 db3e b5d4 033e 8e8f 263e c22e 873d
00000060: a0de 563e ad99 3a3e 5399 0c3e 0a9e b33e
00000070: d0ed 133e 5ade bd3e 3190 133e f6d4 df3d
00000080: 94b8 7d3e 9b63 d53d e8f8 fe3d d83d 9a3d
00000090: e55a de3d c4d1 1e3e 1427 bf3d 62f3 eb3d
000000a0: fd1d 513e 5210 413e 24b6 1f3e ec49 c23e
000000b0: 57dd 383e d99a 233e 7044 783e 9397 4a3e
000000c0: e886 fb3d 6f03 ff3d b362 a83e aabd 383e
000000d0: a478 e03e 19fd 363e 4582 0f3e 812b 8c3e
000000e0: 9eee 763e 67ac 873e 9611 a03e 388c 403f
000000f0: 1ad1 1e3e 4a43 8f3e 8723 2d3e 2688 ef3d

bn2.running_var f4 [64]
0.10095129 0.053020597 0.014375116 0.048489247 0.037393358 0.03256156 0.04536835 0.06216526
0.13927686 0.033895735 0.10629287 0.037399787 0.0366786 0.12112349 0.13141789 0.021031804
0.05557597 0.021226902 0.04829561 0.032124437 0.21542434 0.031543914 0.031304155 0.007753244
0.052254308 0.08669344 0.041067846 0.14028448 0.027227698 0.15099707 0.011566231 0.022767859
0.07509421 0.01263732 0.016734434 0.010991325 0.023839548 0.020001836 0.015615306 0.017713478
0.0592692 0.054277215 0.03595713 0.15786374 0.08549002 0.05320459 0.12667505 0.06579299
0.02037657 0.021740949 0.14044508 0.43004984 0.19063139 0.041915555 0.036043823 0.11650342
0.069968216 0.11062787 0.1856063 0.651122 0.04633901 0.09028928 0.01718734 0.025328849
00000000: 8dbf ce3d 202c 593d 9b85 6b3c a99c 463d
00000010: c729 193d 455f 053d 2ad4 393d 00a1 7e3d
00000020: 989e 0e3e 41d6 0a3d 14b0 d93d 8530 193d
00000030: 4d3c 163d 980f f83d 6992 063e e44a ac3c
00000040: a1a3 633d 0ae4 ad3c 9ed1 453d ea94 033d
00000050: 3398 5c3e 3134 013d c938 003d ed0e fe3b
00000060: 9d08 563d 558c b13d c236 283d bca6 0f3e
00000070: 9f0c df3c fa9e 1a3e 4a80 3d3c a983 ba3c
00000080: feca 993d c30c 4f3c a716 893c f514 343c
00000090: 284b c33c e4da a33c 57d7 7f3c db1b 913c
000000a0: 43c4 723d c951 5e3d c947 133d 08a7 213e
000000b0: 6415 af3d 0eed 593d 1bb7 013e 7abe 863d
000000c0: c4ec a63c 131a b23c d6d0 0f3e 7e2f dc3e
000000d0: e034 433e a5af 2b3d b0a2 133d 5899 ee3d
000000e0: 7f4b 8f3d dd90 e23d 940f 3e3e eeaf 263f
000000f0: f9cd 3d3d 96e9 b83d 77cc 8c3c 727e cf3c

fc3.weight f4 [1, 64]
-0.054311104 0.074761905 -0.12788866 -0.09062219 -0.077470675 -0.067267805 0.09211938 -0.07090586
-0.15877236 -0.16174415 0.1666034 0.104419254 -0.17018227 -0.13876767 -0.112951525 0.14273442
0.094758995 0.07368459 0.10944278 0.04603387 0.11775577 -0.12582143 0.1319271 0.076549724
0.08592871 0.13210675 -0.047470104 -0.07458693 -0.086499326 -0.13188949 -0.061605114 0.106785364
0.053657364 -0.05983862 0.06658416 -0.1465975 -0.10112103 -0.14802209 0.16395824 -0.15010482
0.08648833 0.12551692 -0.063839994 -0.060715023 0.12961447 -0.12034227 -0.17167467 -0.052119985
-0.05997115 -0.10465962 0.046330348 0.13844562 0.078171834 0.062419217 0.116418436 -0.077954255
0.0847866 0.08257709 0.10207533 -0.06102866 0.1469408 -0.13979231 -0.08538797 -0.15108375
00000000: 5275 5ebd c51c 993d 3ff5 02be 2098 b9bd
00000010: f2a8 9ebd b4c3 89bd 16a9 bc3d 1737 91bd
00000020: 3995 22be 42a0 25be 159a 2a3e c3d9 d53d
00000030: 4344 2ebe 1d19 0ebe 2153 e7bd f928 123e
00000040: 0111 c23d f2e7 963d 8923 e03d 038e 3c3d
00000050: f029 f13d 55d7 00be e617 073e 1ac6 9c3d
00000060: 64fb af3d fe46 073e 0370 42bd 08c1 98bd
00000070: 8f26 b1bd 0a0e 07be a555 7cbd 49b2 da3d
00000080: d3c7 5b3d 5719 75bd 475d 883d a81d 16be
00000090: 8b18 cfbd 1a93 17be abe4 273e 14b5 19be
000000a0: cb20 b13d 8287 003e 8bbe 82bd 51b0 78bd
000000b0: a8b9 043e 0276 f6bd 7ccb 2fbe c47b 55bd
000000c0: 4fa4 75bd c857 d6bd e4c4 3d3d b0c4 0d3e
000000d0: 8e18 a03d 4bab 7f3d ca6c ee3d 7ba6 9fbd
000000e0: 99a4 ad3d 2d1e a93d df0c d13d 30f9 79bd
000000f0: a677 163e b725 0fbe e3df aebd b3b5 1abe
