PreTrained/cstr_ode/Deep_DQN/0_4/800.pth (torch, 43158 bytes, 13 tensors)

fc1.weight f4 [128, 4]
0	0xbbcb2a7e	-0.006200134
1	0x3e85b975	0.26118055
2	0xbed3a9ef	-0.41340587
3	0xbebdd796	-0.37078542
4	0xbe4532f4	-0.19257718
5	0x3e094bec	0.13407868
6	0xbc224f40	-0.00990659
7	0x3ecaface	0.39644474
8	0xbd216774	-0.0394053
9	0x3df59906	0.119920775
10	0xbe1d518e	-0.15363142
11	0xbd9f77d9	-0.07786531
12	0xbef757dd	-0.48309222
13	0xbea717ea	-0.32635432
14	0xbe509586	-0.20369539
15	0x3cb49504	0.022043712
16	0x3e3df3f6	0.18550095
17	0x3ea01b59	0.31270865
18	0xbeb46503	-0.35233316
19	0xbe534dbd	-0.20635124
20	0x3e3a26a8	0.18178809
21	0x3ed42c2f	0.4143996
22	0xbdfc1545	-0.12308744
23	0x3ebf915c	0.37415588
24	0xbdae652f	-0.08515393
25	0x3d8c981e	0.068649516
26	0x3ee32044	0.44360554
27	0xbeeff6f4	-0.46868098
28	0xbea22a85	-0.31673065
29	0xbde0d20d	-0.10977564
30	0xbe575d7c	-0.21031755
31	0x3edd2f28	0.4320004
32	0xbea41ce4	-0.32053292
33	0xbe726cad	-0.23674269
34	0xbeaf0987	-0.34186956
35	0xbed520df	-0.4162664
36	0xbe95e317	-0.29274818
37	0x3ed700d6	0.41992825
38	0x3e5d75b1	0.21626927
39	0x3e782700	0.24233627
40	0x3d010268	0.031496435
41	0xbe82f8e5	-0.25580516
42	0x3dcb5b76	0.09929554
43	0xbed54a91	-0.41658452
44	0xbeb8fa1a	-0.36128312
45	0xbe83f9c6	-0.257765
46	0x3ea18526	0.31546897
47	0x3e961926	0.29316062
48	0xbe6311c8	-0.22174752
49	0xbc93cb20	-0.018041193
50	0x3ea3ba40	0.31978035
51	0x3efe7f82	0.49706656
52	0x3e5178b1	0.20456196
53	0x3d4fdd39	0.050748084
54	0x3eb6421b	0.3559731
55	0xbe95c9b3	-0.29255447
56	0x3db0055e	0.08594774
57	0xbec9bbff	-0.39401242
58	0xbeb3417f	-0.35010907
59	0xbe6731d3	-0.225776
60	0x3e752174	0.23938543
61	0x3e40710f	0.18793128
62	0xbe90e8ae	-0.2830252
63	0x3e1aadc8	0.15105355
64	0x3e84945a	0.25894433
65	0xbd234cc1	-0.03986812
66	0x3cfe0584	0.03100849
67	0x3df2e3c9	0.11859853
68	0x3e9b4078	0.30322623
69	0x3ef91f75	0.48656812
70	0xbec7bfdc	-0.39013565
71	0xbe3b0dbc	-0.18266958
72	0x3e583d44	0.21117121
73	0x3ecc8170	0.39942503
74	0x3ee18609	0.44047573
75	0x3eebcbed	0.4605402
76	0x3de3755b	0.11106368
77	0xbedb2b86	-0.42806643
78	0x3d25e174	0.040498212
79	0xbe9d6f03	-0.30748758
80	0xbee3237d	-0.44363013
81	0x3edc9c49	0.43087986
82	0x3ecb986a	0.3976472
83	0xbf02267c	-0.5083997
84	0x3dbfaa08	0.09358603
85	0xbdac80c8	-0.084230006
86	0xbda882b8	-0.082280576
87	0xbe6a5f1c	-0.22887844
88	0x3e4dcdac	0.20097989
89	0xbe9af0d8	-0.30261874
90	0x3e43658a	0.19081703
91	0x3e817616	0.25285405
92	0x3ebc63e7	0.3679497
93	0x3e2e18e6	0.17001686
94	0xbefced5c	-0.4939984
95	0xbe9fcfaf	-0.31213138
96	0x3e8948b4	0.2681328
97	0x3dbd494c	0.09242496
98	0xbebe567a	-0.3717535
99	0xbe95e2ae	-0.29274505
100	0x3eef34f5	0.4672009
101	0x3eae1f50	0.34008265
102	0xbe5f65fb	-0.21816246
103	0xbdfb39ac	-0.122668594
104	0xbef8082d	-0.48443738
105	0x3aceb0c2	0.0015769231
106	0xbec52488	-0.38504434
107	0xbec2747b	-0.37979493
108	0xbcf130b5	-0.02944217
109	0x3d9aaad7	0.07552116
110	0xbe469ef1	-0.19396569
111	0x3e97a995	0.29621568
112	0xbe9b49bb	-0.3032969
113	0x3ee2e5d6	0.44315976
114	0x3eafa374	0.34304392
115	0xbed90c66	-0.42392272
116	0xbdfef0e7	-0.12448292
117	0x3c8d500f	0.017250089
118	0x3d92da79	0.071705766
119	0x3dfa29a9	0.12214977
120	0x3e4e3236	0.20136341
121	0x3ccb2a70	0.02480051
122	0xbe748bf0	-0.23881507
123	0x3e7245d4	0.2365945
124	0xbeec4780	-0.461483
125	0xbe93035b	-0.28713498
126	0xbdea618d	-0.114443876
127	0xbe63261f	-0.22182511
128	0xbe41b11a	-0.18915215
129	0xbecab720	-0.39592838
130	0xbde36423	-0.11103084
131	0x3dc5d2f2	0.09659375
132	0xbead5b6e	-0.33858818
133	0xbc6fe226	-0.01464132
134	0x3eb0ba14	0.34516966
135	0xbd3442dd	-0.04400908
136	0x3c63ac80	0.013896108
137	0xbd30adc0	-0.04313445
138	0x3dcf3d10	0.101190686
139	0x3ea2c660	0.31791973
140	0x3eec524c	0.46156538
141	0x3ea721ea	0.32643062
142	0x3ef9743b	0.4872149
143	0xbcabb7d8	-0.020961687
144	0xbedeea59	-0.43538168
145	0xbe7be71c	-0.2459988
146	0x3eb5fc70	0.35544157
147	0x3c44f65c	0.012021627
148	0xbe845b1f	-0.2585077
149	0xbebdf607	-0.37101766
150	0xbef33a2c	-0.4750532
151	0xbed65a25	-0.4186565
152	0xbdd4d56c	-0.103922695
153	0x3e8bab41	0.27279094
154	0x3e8094d2	0.2511354
155	0xbef14861	-0.47125533
156	0x3ea31c40	0.3185749
157	0xbecbf8fe	-0.39838403
158	0xbdd5f9d3	-0.10448041
159	0xbe56c80b	-0.20974748
160	0xbdaac6eb	-0.08338722
161	0xbdd02b1a	-0.10164471
162	0xbeeb2708	-0.45928216
163	0xbee243cb	-0.44192347
164	0xbda03c28	-0.07823974
165	0x3bd3e180	0.0064660907
166	0xbe6896b8	-0.22713745
167	0x3e40deb8	0.1883496
168	0xbee9dc5f	-0.45675942
169	0xbd1b6874	-0.03794141
170	0x3eda6557	0.4265544
171	0xbe592958	-0.21207178
172	0x3ee72116	0.4514243
173	0x3e320c54	0.17387515
174	0xbee7fdd8	-0.45310855
175	0x3ea1f874	0.31634867
176	0xbd848ccf	-0.064721696
177	0xbe57b188	-0.21063817
178	0x3eceb9f7	0.40376255
179	0xbed7387e	-0.42035288
180	0x3d3bac0b	0.04581837
181	0xbdc43a5d	-0.095814444
182	0x3ebb4f38	0.36583877
183	0x3e07e2ca	0.13270107
184	0x3e80fb72	0.25191838
185	0x3e38c262	0.18042901
186	0xbdce1087	-0.10061746
187	0xbda9d32c	-0.08292231
188	0xbedab80c	-0.42718542
189	0x3e943393	0.28945598
190	0x3ec2d007	0.38049337
191	0x3eaf295c	0.34211242
192	0xbeb5848b	-0.35452685
193	0x3cc5bc24	0.024137564
194	0xbeb5677f	-0.35430524
195	0xbe9091e8	-0.28236318
196	0xbe8e0788	-0.2774012
197	0x3e20b01f	0.15692185
198	0xbe916920	-0.28400517
199	0x3c9021da	0.017594267
200	0x3d48b9fd	0.049005497
201	0x3e951b1c	0.29122245
202	0xbeb55485	-0.35416046
203	0xbeb6ebfd	-0.3572692
204	0xbe8eccc6	-0.27890605
205	0x3ea97683	0.3309823
206	0xbe4394b9	-0.19099702
207	0x3ed579b9	0.4169443
208	0x3e3924a0	0.18080378
209	0x3d81aa40	0.06331301
210	0xbb73ed00	-0.003722012
211	0xbdca6d08	-0.09884077
212	0x3d868b48	0.065695345
213	0xbdf8331f	-0.121191256
214	0x396dc8e2	0.00022676916
215	0x3d2d3816	0.042289816
216	0xbec7ab24	-0.38997757
217	0xbe81d66f	-0.25358912
218	0x3ed35991	0.4127927
219	0xbed16505	-0.40897384
220	0xbc7e8e5b	-0.01553687
221	0x3ef08a38	0.46980453
222	0x3e4aee5f	0.19817494
223	0x3d092514	0.033482626
224	0xbecd8d53	-0.40146884
225	0x3e61c71f	0.22048615
226	0xbead4cc4	-0.3384763
227	0xbe0d165f	-0.13778065
228	0xbe364312	-0.17799023
229	0xbd9db162	-0.07699849
230	0xbbdc3f8f	-0.006721444
231	0x3ed32696	0.41240376
232	0x3d9172f4	0.07102004
233	0x3ee0e43b	0.43924126
234	0x3e9fdd56	0.31223553
235	0xbea6e605	-0.32597366
236	0x3e73ecc1	0.23820783
237	0xbebc3cee	-0.36765236
238	0xbe4a93ab	-0.19782893
239	0x3e000028	0.1250006
240	0x3e23b056	0.15985236
241	0x3ec2be41	0.38035777
242	0xbe2a30c2	-0.16620162
243	0xbc863c3c	-0.016386144
244	0x3e809f26	0.2512142
245	0xbef554ef	-0.47916362
246	0x3eb68d0b	0.35654482
247	0xbed47b80	-0.41500473
248	0x3af86913	0.0018952213
249	0xbda4d691	-0.08048738
250	0xbe93a8ef	-0.28839824
251	0x3d067324	0.03282465
252	0x3ee146cc	0.43999326
253	0xbe1f696b	-0.15567558
254	0xbe8af48f	-0.27139708
255	0xbe45151e	-0.19246337

fc1.bias f4 [128]
0	0xbddc06e8	-0.10743505
1	0xbe3edf14	-0.18639785
2	0x3e0c9354	0.13728076
3	0x3e307ce8	0.17235148
4	0xbe769c95	-0.24083169
5	0x3d28d508	0.041218787
6	0x3e95d765	0.29265895
7	0xbd4bc2e0	-0.049746394
8	0x3e24e82f	0.16104196
9	0xbe06dd83	-0.13170438
10	0x3e3858a2	0.1800256
11	0xbeb971e6	-0.3621971
12	0xbe96890e	-0.2940144
13	0xbe67047c	-0.22560304
14	0x3eeba4b4	0.46024096
15	0xbe173c59	-0.14769115
16	0xbd59ced7	-0.053175773
17	0xbe7cc52d	-0.24684592
18	0x3f005b38	0.5013919
19	0x3eff7956	0.4989726
20	0xbebc239b	-0.36745915
21	0xbecf8810	-0.40533495
22	0xbebe31d0	-0.3714738
23	0xbc36d177	-0.011158339
24	0xbe0ac127	-0.13550244
25	0xbea9304b	-0.33044657
26	0xbe3579ea	-0.17722288
27	0x3dcc5d89	0.09978778
28	0xbe8abd77	-0.27097675
29	0x3de796e1	0.11308075
30	0xbdf55dc2	-0.119807735
31	0xbe872cc7	-0.2640135
32	0x3d6c80da	0.05774007
33	0x3ece979e	0.4035005
34	0xbead1388	-0.33803964
35	0x3cd1913d	0.02558195
36	0xbe2d75d3	-0.16939478
37	0x3ef99acc	0.48750913
38	0xbef87ec7	-0.48534223
39	0xbef1d3fc	-0.47232044
40	0x3efd36ce	0.49455875
41	0xbea1f7f8	-0.31634498
42	0x3dfa5e11	0.12224973
43	0xbd328ba2	-0.043590195
44	0xbdc45fb4	-0.095885664
45	0xbdd2b7b5	-0.102889456
46	0x3ea3140f	0.3185124
47	0x3c19752f	0.009366318
48	0xbef84ddf	-0.4849691
49	0xbe9e467e	-0.30913156
50	0xbe2aeb6a	-0.16691366
51	0x3e87c03e	0.26513857
52	0xbea5aa8e	-0.32356685
53	0x3ef75370	0.48305845
54	0xbdc6c0a8	-0.09704715
55	0xbda1335d	-0.07871125
56	0x3ed816b8	0.42204833
57	0x3e53da37	0.20688711
58	0x3edf4818	0.4360969
59	0x3e994335	0.29934087
60	0xbe15f29b	-0.14643328
61	0xbeb1293a	-0.34601766
62	0xbd2a95df	-0.041646834
63	0x3ed000a5	0.40625492
64	0xbe3878ca	-0.18014827
65	0xbeed681e	-0.46368498
66	0x3e3c9abd	0.18418403
67	0x3ef87c6b	0.48532423
68	0xbe1bb53d	-0.15205856
69	0xbed696ac	-0.4191183
70	0xbee83510	-0.45352983
71	0x3e060c0e	0.13090536
72	0xbce3b3fd	-0.027795786
73	0xbe805cea	-0.25070888
74	0x3dc17acf	0.09447252
75	0x3e35b5ae	0.17745087
76	0x3ece4bfc	0.40292346
77	0x3ec5e7f5	0.38653532
78	0xbd94e780	-0.072707176
79	0xbee1bb7e	-0.44088358
80	0xbee753d8	-0.45181155
81	0x3eeda250	0.46412897
82	0x3e67b24d	0.2262661
83	0x3e71d500	0.2361641
84	0xbedc0415	-0.42971864
85	0x3ef56ae7	0.47933123
86	0x3eeaa8ae	0.45831817
87	0x3ee8c8fa	0.45465833
88	0xbed7f530	-0.4217925
89	0xbe261ba7	-0.16221486
90	0xbeae5552	-0.3404947
91	0x3ef2862b	0.47367987
92	0xbe60cc6e	-0.21952984
93	0xbe704d82	-0.23467067
94	0x3e855cf8	0.26047492
95	0xbe75de40	-0.24010563
96	0xbe6671b4	-0.22504312
97	0xbd1d9370	-0.038470685
98	0xbd74dedc	-0.059782848
99	0xbec76b22	-0.38948923
100	0x3ece44bc	0.40286815
101	0xbe7ed79e	-0.24886939
102	0x3e422406	0.18959054
103	0x3ee1b97e	0.44086832
104	0x3e5b23f3	0.21400432
105	0x3d8b2bb1	0.06795443
106	0x3ed4313a	0.41443807
107	0x3da2719f	0.07931828
108	0xbe758a51	-0.23978545
109	0x3ef002bd	0.4687709
110	0x3df5c3d0	0.12000239
111	0xbef9c638	-0.4878404
112	0xbe0e4e53	-0.13897066
113	0xbeae60fe	-0.34058374
114	0x3eea0fa7	0.45715067
115	0xbd75254d	-0.059850026
116	0xbeead562	-0.45865923
117	0xbd168b7c	-0.036754116
118	0x3ea2ee33	0.31822357
119	0x3e0394bc	0.12849706
120	0x3e2b0a38	0.16703117
121	0x3d983f8a	0.07433994
122	0x3e386411	0.18006922
123	0xbe1c68d2	-0.15274361
124	0xbe435235	-0.19074328
125	0xbeef490e	-0.46735424
126	0xbec1f08b	-0.37878832
127	0x3e580100	0.21094131

bn1.weight f4 [128]
0	0x3f7da435	0.99078685
1	0x3f800000	1.0
2	0x3f7f7419	0.99786526
3	0x3f821b25	1.0164534
4	0x3f80a2f7	1.0049733
5	0x3f7d25a1	0.9888554
6	0x3f8110c7	1.0083245
7	0x3f80217a	1.0010216
8	0x3f800a47	1.0003136
9	0x3f7999d5	0.97500354
10	0x3f7bbcb3	0.9833481
11	0x3f800000	1.0
12	0x3f800000	1.0
13	0x3f7e05d7	0.9922766
14	0x3f7e9e27	0.9946007
15	0x3f7c96a3	0.98667353
16	0x3f7d0728	0.98839045
17	0x3f802c33	1.0013489
18	0x3f8092d0	1.0044804
19	0x3f816858	1.0109968
20	0x3f7d5183	0.989525
21	0x3f800000	1.0
22	0x3f8052e0	1.0025291
23	0x3f7e44df	0.9932384
24	0x3f7f97c6	0.9984096
25	0x3f7f3013	0.9968273
26	0x3f7f90a4	0.9983008
27	0x3f80d09a	1.006366
28	0x3f7983c2	0.9746667
29	0x3f7e1a77	0.9925913
30	0x3f7f63ca	0.9976164
31	0x3f7cc801	0.9874268
32	0x3f7c78d9	0.986219
33	0x3f81414c	1.0098052
34	0x3f800000	1.0
35	0x3f7f276c	0.9966953
36	0x3f7bcb82	0.98357403
37	0x3f800677	1.0001973
38	0x3f7bf8b1	0.9842635
39	0x3f804d13	1.0023521
40	0x3f7e8050	0.9941454
41	0x3f800000	1.0
42	0x3f80c819	1.0061065
43	0x3f7e98bf	0.9945182
44	0x3f8008c5	1.0002676
45	0x3f806a6b	1.0032476
46	0x3f807782	1.0036471
47	0x3f80a308	1.0049753
48	0x3f80dd24	1.0067487
49	0x3f7de304	0.99174523
50	0x3f7c35b4	0.98519444
51	0x3f80c9be	1.0061567
52	0x3f800000	1.0
53	0x3f831a34	1.0242372
54	0x3f7e40e9	0.99317795
55	0x3f7e6c7f	0.993843
56	0x3f7f662d	0.9976528
57	0x3f7d06b5	0.9883836
58	0x3f804713	1.002169
59	0x3f80ee56	1.0072734
60	0x3f80b8ab	1.0056356
61	0x3f815411	1.010378
62	0x3f7fe7b5	0.9996293
63	0x3f8176f9	1.0114433
64	0x3f80772b	1.0036367
65	0x3f800000	1.0
66	0x3f810cd9	1.0082046
67	0x3f8047ba	1.0021889
68	0x3f7b9110	0.9826822
69	0x3f7f1d73	0.9965431
70	0x3f800000	1.0
71	0x3f7fa088	0.99854326
72	0x3f7fa5f7	0.9986262
73	0x3f801910	1.0007648
74	0x3f818c06	1.0120857
75	0x3f824fdd	1.0180622
76	0x3f7cbf00	0.9872894
77	0x3f7f90e3	0.99830455
78	0x3f7eaa15	0.99478275
79	0x3f800000	1.0
80	0x3f800000	1.0
81	0x3f80d9ad	1.0066429
82	0x3f7f3e64	0.99704576
83	0x3f80d87d	1.0066067
84	0x3f7e6974	0.9937966
85	0x3f8080e3	1.0039333
86	0x3f802085	1.0009924
87	0x3f7eab0a	0.99479735
88	0x3f800000	1.0
89	0x3f7ed860	0.9954891
90	0x3f8020b8	1.0009985
91	0x3f7e2f8f	0.9929132
92	0x3f80a0fb	1.0049127
93	0x3f7d9914	0.99061704
94	0x3f80e42b	1.0069631
95	0x3f7c17bd	0.9847372
96	0x3f8140ab	1.009786
97	0x3f7c74cd	0.98615724
98	0x3f7bd3af	0.9836988
99	0x3f800000	1.0
100	0x3f80e654	1.007029
101	0x3f81802d	1.0117241
102	0x3f801668	1.0006838
103	0x3f81bcbb	1.0135721
104	0x3f7efd59	0.9960533
105	0x3f806dce	1.003351
106	0x3f803962	1.0017512
107	0x3f7fd3bf	0.99932474
108	0x3f7a1106	0.97682226
109	0x3f7fc696	0.99912393
110	0x3f811fba	1.0087807
111	0x3f800000	1.0
112	0x3f812d26	1.0091903
113	0x3f800000	1.0
114	0x3f80ec7f	1.0072173
115	0x3f7c4307	0.98539776
116	0x3f7f4244	0.9971049
117	0x3f81153d	1.0084606
118	0x3f7dd5cf	0.9915437
119	0x3f816505	1.0108954
120	0x3f7c688b	0.9859702
121	0x3f80fb35	1.0076662
122	0x3f815e4e	1.0106905
123	0x3f7d7c6f	0.99017996
124	0x3f7eff75	0.99608546
125	0x3f800000	1.0
126	0x3f7c519f	0.98562044
127	0x3f80424b	1.0020231

bn1.bias f4 [128]
0	0xbc357491	-0.011075155
1	0xbc67e3c2	-0.014153423
2	0xbb44f3e6	-0.0030052601
3	0x3bcbf7f5	0.006224627
4	0xbcf4be12	-0.029875789
5	0xbae75edc	-0.0017652172
6	0xbbdadfc4	-0.006679507
7	0xbbb40d72	-0.005494767
8	0x3bbd246a	0.005772163
9	0x3a27d5d8	0.00064024096
10	0x3d04384c	0.03228025
11	0x3c8b4050	0.01699844
12	0x3cf15308	0.029458538
13	0x3aa5e841	0.0012657718
14	0xbc37b071	-0.0112115005
15	0xbca4c4de	-0.020113405
16	0x3b289f20	0.0025729612
17	0x3c19854b	0.009370158
18	0x3b06792e	0.0020519006
19	0xbb24bf03	-0.0025138266
20	0x3bc71aba	0.006076184
21	0x3cab3625	0.020899842
22	0x3bbaea16	0.0057041747
23	0xbc194973	-0.009355891
24	0xbbc8028f	-0.0061038206
25	0xbca5ec9f	-0.020254431
26	0x3c3e034b	0.011597465
27	0xbbe7c0ec	-0.0070725586
28	0xbc874861	-0.016514005
29	0x3b05809f	0.0020370854
30	0x3ba144df	0.00492154
31	0xbc69d332	-0.014271544
32	0xb882cfb9	-6.2375744e-05
33	0x3c039cbc	0.008032974
34	0x3cf85c31	0.030317398
35	0x3c6c79b8	0.014433317
36	0x3ca3456c	0.019930564
37	0x3b22e4bb	0.0024855572
38	0x3c0ceb93	0.008601087
39	0x3cf1abff	0.02950096
40	0x3c27b500	0.010236025
41	0x3cec0405	0.02881051
42	0xbb842f62	-0.004033969
43	0xbc1aca27	-0.009447611
44	0xbc983b42	-0.018582944
45	0xbc8d348a	-0.017236967
46	0x3a963e80	0.0011462718
47	0xbc231db2	-0.00995581
48	0xbc514518	-0.012772821
49	0xbc36f401	-0.0111665735
50	0x3b0e14b1	0.0021679814
51	0x3a3372b2	0.0006845399
52	0x3cb0c45a	0.021578003
53	0x3c95b926	0.018276762
54	0x3af2e3da	0.001853104
55	0xbcdcf52e	-0.02697238
56	0x3b80ca5b	0.0039303727
57	0xbd0c6b0f	-0.034281787
58	0xba931608	-0.0011221776
59	0xbb67274a	-0.003527122
60	0x3c5aba7e	0.013350127
61	0x3ba15a5d	0.004924102
62	0x3ca9542d	0.020670021
63	0x3b70b477	0.003672866
64	0x3cd32f4f	0.025779394
65	0xbc4cd7e2	-0.012502642
66	0x3ccc2814	0.024921454
67	0xbaf47bc7	-0.0018652611
68	0x3bb1ffcb	0.005432104
69	0x3c438306	0.011933094
70	0xbcf7434a	-0.030183453
71	0x3ccb4e1d	0.02481752
72	0x3c03553a	0.008015925
73	0xbcec796d	-0.028866494
74	0xba866f25	-0.0010256512
75	0x3b06994c	0.002053815
76	0x3a66497a	0.00087847526
77	0xbbe86738	-0.0070923828
78	0x3bd47b76	0.0064844443
79	0x3c84b1b3	0.016198015
80	0x3c32bed4	0.010909755
81	0x3c402605	0.011727815
82	0x3c46d5ef	0.012135967
83	0x3c7f3d87	0.015578634
84	0x3c9ad13a	0.018898595
85	0x3cab2c72	0.020895217
86	0x3c8f26c2	0.017474536
87	0xbb793c34	-0.0038030269
88	0x3d214c66	0.0393795
89	0xbafeea74	-0.0019448535
90	0x3c2197d7	0.009862862
91	0xbbcff20b	-0.0063459924
92	0xbc77a330	-0.0151145905
93	0x3cda60ae	0.026657429
94	0x3b0f90cd	0.0021906376
95	0xbb734155	-0.0037117798
96	0xbc74ba53	-0.014937001
97	0xbb7a6153	-0.0038204982
98	0xbc6c55f7	-0.0144247925
99	0x3c835428	0.01603134
100	0xbc094739	-0.008378797
101	0x3c6856b4	0.014180828
102	0x3cfad323	0.030618256
103	0xbb887794	-0.0041646454
104	0x3c318c36	0.010836652
105	0xbbdf9a69	-0.006823827
106	0xbb2fbee7	-0.0026816668
107	0xbc126d6c	-0.008937221
108	0xbcc82dfe	-0.024435993
109	0xbbbb96be	-0.005724757
110	0xbb4eff55	-0.0031585295
111	0xbc0c6d8b	-0.008571039
112	0xbb64ac01	-0.0034892561
113	0x3ccf15a2	0.02527887
114	0xbc356f44	-0.011073891
115	0xba36c9da	-0.0006972827
116	0x3c69d730	0.014272496
117	0x3c47b86c	0.012189966
118	0x3cc23743	0.023707991
119	0xbcd01b4c	-0.025403641
120	0x3cbf6e0b	0.023367902
121	0xbc0fe126	-0.008781707
122	0x3c78af47	0.015178508
123	0x3be937fb	0.007117269
124	0xbc174f8e	-0.009235276
125	0x3d03b54b	0.032155316
126	0x3bfa1d13	0.0076328604
127	0x3b8095af	0.0039240937

bn1.running_mean f4 [128]
0	0x3b8c0174	0.004272634
1	0x00000000	0.0
2	0x3d39b5c4	0.04533936
3	0x3d045f43	0.03231741
4	0x3aafe8f6	0.0013420868
5	0x3bce7757	0.0063008475
6	0x3ee56d05	0.44809738
7	0x3b4a29c7	0.0030847655
8	0x3d4e4762	0.050361045
9	0x37b7bfb5	2.190457e-05
10	0x3ea09c02	0.31369025
11	0x00000000	0.0
12	0x00000000	0.0
13	0x3dd9d86f	0.106369846
14	0x3ee2822d	0.4423994
15	0x3a8a9ae4	0.0010574725
16	0x3dc7f2d2	0.09763111
17	0x3ad8ccca	0.0016540524
18	0x3f32aac4	0.6979182
19	0x3f306032	0.6889678
20	0x39246520	0.00015677931
21	0x00000000	0.0
22	0x3b7bcbf5	0.0038421128
23	0x3d711bd6	0.058864437
24	0x3b03bdb4	0.0020102086
25	0x00000004	6e-45
26	0x3b8eda9b	0.004359556
27	0x3d107db8	0.035276145
28	0x3932301e	0.00016993328
29	0x3dae18a0	0.085007906
30	0x3a295a46	0.000646029
31	0x381bc73e	3.714044e-05
32	0x3d438341	0.047732595
33	0x3ed54209	0.41651943
34	0x00000000	0.0
35	0x3ec70d12	0.3887716
36	0x3c95aafe	0.018270012
37	0x3e817f91	0.25292638
38	0x38b6b7fe	8.7127075e-05
39	0x307d8c52	9.224027e-10
40	0x3e87beec	0.2651285
41	0x00000000	0.0
42	0x3e311768	0.17294085
43	0x3d7c2bb0	0.0615651
44	0x3e26bf22	0.16283849
45	0x3e1bea6e	0.15226147
46	0x3eac40cd	0.3364319
47	0x3d5ab1cc	0.053392217
48	0x387aac3e	5.9765058e-05
49	0x3a9511b7	0.0011373077
50	0x3b341729	0.0027479625
51	0x3cf9c3f5	0.030488947
52	0x00000000	0.0
53	0x3f0c1960	0.5472622
54	0x3dc18a4e	0.09450208
55	0x3b122253	0.002229829
56	0x3dc7d65e	0.09757684
57	0x3e124f03	0.14287953
58	0x3efde5c1	0.4958935
59	0x3ed5649c	0.4167832
60	0x3a023124	0.0004966429
61	0x3e03193b	0.12802593
62	0x3b2de6a3	0.0026535175
63	0x3f05defb	0.52293366
64	0x3b5a38c1	0.0033297988
65	0x00000000	0.0
66	0x3e805627	0.2506573
67	0x3f02597b	0.50917786
68	0x3b63e928	0.0034776423
69	0x00019fce	1.49163e-40
70	0x00000000	0.0
71	0x3cddb254	0.027062573
72	0x3b828dc5	0.0039841854
73	0x3880af28	6.136141e-05
74	0x3eea6290	0.45778322
75	0x3cb5db42	0.022199277
76	0x3f1765e2	0.59139836
77	0x3e9b819c	0.30372322
78	0x3e2175a6	0.15767536
79	0x00000000	0.0
80	0x00000000	0.0
81	0x3f22c455	0.6358083
82	0x3e55e700	0.20888901
83	0x3e665e89	0.22497
84	0x3d01a4a5	0.031651158
85	0x3f295450	0.66144276
86	0x3e94bdca	0.29051048
87	0x3e401003	0.18756108
88	0x00000000	0.0
89	0x3b7b0474	0.0038302215
90	0x3a6f1a36	0.0009121032
91	0x3f2da3fe	0.6782836
92	0x3b1177ab	0.0022196572
93	0x3b83b168	0.004018951
94	0x3f03b7e2	0.5145246
95	0x3e0107c9	0.12600626
96	0x3c10a6a1	0.00882879
97	0x399daf26	0.0003007587
98	0x3b8b9d6b	0.004260709
99	0x00000000	0.0
100	0x3edc5d64	0.4304
101	0x3e53057b	0.2060756
102	0x3cc7b612	0.02437881
103	0x3eeef261	0.46669295
104	0x3e55fcc0	0.20897198
105	0x3e362d67	0.17790757
106	0x3f213ddd	0.6298502
107	0x3c2769f7	0.010218135
108	0x382937bd	4.034465e-05
109	0x3f3e5249	0.7434431
110	0x3cd92d87	0.026510967
111	0x00000000	0.0
112	0x3e58a63b	0.21157162
113	0x00000000	0.0
114	0x3e6a67f9	0.22891225
115	0x3a8f02f2	0.0010910912
116	0x00000004	6e-45
117	0x3ccdef2f	0.025138466
118	0x3f0c0d30	0.5470762
119	0x3c68641c	0.014184024
120	0x3d524532	0.05133552
121	0x3e0aaec2	0.13543227
122	0x3e3e2f5d	0.18572755
123	0x3e8835f3	0.2660366
124	0x3d805ec9	0.06268079
125	0x00000000	0.0
126	0x3cd864cd	0.026415253
127	0x3d4d23cc	0.050082967

bn1.running_var f4 [128]
0	0x3ace1321	0.0015722254
1	0x00000004	6e-45
2	0x3b3be24f	0.0028668826
3	0x3bac524d	0.0052588345
4	0x392a9d66	0.00016271099
5	0x3a00a44b	0.0004907294
6	0x3d527acd	0.051386643
7	0x3a3097de	0.0006736497
8	0x3bc6f0b1	0.006071173
9	0x34aa662e	3.1739313e-07
10	0x3b7bc78a	0.0038418495
11	0x00000004	6e-45
12	0x00000004	6e-45
13	0x3c4292a8	0.011875786
14	0x3d102594	0.035192087
15	0x38cbaa16	9.711475e-05
16	0x3a93163c	0.0011221836
17	0x397c26c2	0.00024047031
18	0x3d6de387	0.058078315
19	0x3b8d20c7	0.004306886
20	0x3832126d	4.2455667e-05
21	0x00000004	6e-45
22	0x38ab0e67	8.156598e-05
23	0x3bafa56b	0.0053602955
24	0x39bd0fbb	0.0003606061
25	0x00000004	6e-45
26	0x3ad85217	0.0016503957
27	0x3b03a878	0.002008943
28	0x385038c0	4.9643917e-05
29	0x3ac700e5	0.0015182762
30	0x38180758	3.6246463e-05
31	0x36d0b733	6.2202103e-06
32	0x3b212927	0.002459118
33	0x3cf87b8d	0.030332351
34	0x00000004	6e-45
35	0x3d8ca584	0.06867507
36	0x39e08289	0.00042821866
37	0x3d82eb57	0.06392544
38	0x375c7740	1.3140787e-05
39	0x2bdd44cf	1.5722093e-12
40	0x3d742007	0.059600856
41	0x00000004	6e-45
42	0x3cdb1422	0.026742999
43	0x3bb036b0	0.005377613
44	0x3ce3ad8e	0.027792718
45	0x3cc666d6	0.024218958
46	0x3b1f9737	0.0024351606
47	0x3b4c1752	0.003114183
48	0x37897d46	1.6390008e-05
49	0x38e751ed	0.00011030198
50	0x3a2e597e	0.00066509086
51	0x3c04f3c9	0.008114764
52	0x00000004	6e-45
53	0x3a077d2d	0.0005168494
54	0x3c1b1547	0.009465522
55	0x3882832d	6.2233164e-05
56	0x3cacfb6e	0.021115985
57	0x3a2f0542	0.00066765037
58	0x3cefbc40	0.02926457
59	0x3c6adbc7	0.014334626
60	0x37b0d0ef	2.1078127e-05
61	0x3c9052e1	0.017617645
62	0x3a1d5d25	0.00060029543
63	0x3cb907d3	0.022586739
64	0x3a7d3386	0.00096588617
65	0x00000004	6e-45
66	0x3bcf0e82	0.006318868
67	0x3c74a8e0	0.014932841
68	0x3a8ca9a1	0.0010731706
69	0x00000076	1.65e-43
70	0x00000004	6e-45
71	0x3b1387ed	0.0022511438
72	0x3aaced5e	0.00131933
73	0x36c52ca1	5.876253e-06
74	0x3c9c0138	0.01904355
75	0x3b9feb23	0.0048803254
76	0x3bbac6e8	0.005699981
77	0x3d320c4e	0.043468766
78	0x3c18c4e8	0.00932429
79	0x00000004	6e-45
80	0x00000004	6e-45
81	0x3cf62b91	0.030050071
82	0x3d32eda6	0.04368367
83	0x3cdc1c3d	0.026868934
84	0x3aa44aa9	0.0012534457
85	0x3d1adb02	0.03780652
86	0x3ca5b9d7	0.020230217
87	0x3c7b4fb8	0.015338831
88	0x00000004	6e-45
89	0x3aa4141d	0.0012518201
90	0x3897850b	7.225022e-05
91	0x3d62f69d	0.05541097
92	0x39e055e9	0.00042788617
93	0x3ab666ad	0.0013916098
94	0x3d3130cf	0.043259438
95	0x3c24081b	0.010011698
96	0x39786994	0.00023690454
97	0x3749acf0	1.2020799e-05
98	0x3aca40c5	0.001543068
99	0x00000004	6e-45
100	0x3c68031d	0.0141608985
101	0x3d367ab6	0.04455062
102	0x3bbce4cf	0.005764581
103	0x3d02ea81	0.03196192
104	0x3a5c4cec	0.0008403796
105	0x3ab1e15a	0.0013571188
106	0x3c0e1b1b	0.008673455
107	0x3b484b1a	0.0030562342
108	0x36a16f4e	4.8111315e-06
109	0x3cb81291	0.02246979
110	0x3b32db2c	0.002729128
111	0x00000004	6e-45
112	0x3d17a031	0.037018005
113	0x00000004	6e-45
114	0x3d1fdd33	0.03902931
115	0x38cbc857	9.7171105e-05
116	0x00000004	6e-45
117	0x3a2f1f0d	0.0006680347
118	0x3c65ae4c	0.014018606
119	0x3b9eae01	0.00484252
120	0x3be9ba58	0.0071328096
121	0x3c92682c	0.017871939
122	0x3b59ea4a	0.003325122
123	0x3d376592	0.0447746
124	0x3b8923b2	0.0041851634
125	0x00000004	6e-45
126	0x3a8987fd	0.0010492798
127	0x3ba385aa	0.004990299

fc2.weight f4 [64, 128]
0	0xbd579290	-0.052630007
1	0x3bf40b16	0.0074476106
2	0x3c9a4340	0.018830895
3	0xbc4bdac3	-0.012442294
4	0xbd7e2c42	-0.062053926
5	0x3dab6fd4	0.08370939
6	0xbd507960	-0.050897002
7	0x3d99a0c2	0.07501365
8	0xbdb84ee1	-0.0899942
9	0xbb51040a	-0.0031893277
10	0x3d6a9e21	0.05727971
11	0xbd06bfbc	-0.032897696
12	0x3d98e9ea	0.074664906
13	0xbd7b4b41	-0.061351065
14	0xbda1110d	-0.0786458
15	0xbd278d36	-0.040906154
16	0x3d36570d	0.04451661
17	0x3da14086	0.07873635
18	0xbd158c10	-0.036510527
19	0x3d257a59	0.040399883
20	0xbcbf4c50	-0.023351818
21	0xbbfae719	-0.0076569435
22	0x3d8db02b	0.06918367
23	0xbd8a7c3c	-0.06761977
24	0x3c19689d	0.009363321
25	0x3daac61a	0.08338566
26	0xbc533776	-0.012891641
27	0x3d6c8578	0.057744473
28	0xbcbc5d36	-0.022993665
29	0x3d932cea	0.07186301
30	0xbdad5a85	-0.08464531
31	0xbc1dc608	-0.009629734
32	0xbc996575	-0.018725136
33	0x3ce76eb7	0.028251035
34	0x3d17e05d	0.037079204
35	0x3d9254d8	0.07145089
36	0xbc39b05b	-0.01133355
37	0xbc03e445	-0.008050029
38	0x3d6939f1	0.056940023
39	0xbcab1d8b	-0.02088811
40	0x3d9546f3	0.07288923
41	0xbd765060	-0.060135245
42	0xbc20ae00	-0.00980711
43	0xba6b8cfd	-0.00089855475
44	0x3d190006	0.037353538
45	0x3d7c31a7	0.06157079
46	0xbc0cf38e	-0.00860299
47	0xbd887032	-0.066620246
48	0x3d4a8974	0.04944749
49	0x3cb87d24	0.02252061
50	0x3d13df21	0.036101464
51	0xbd939fb1	-0.07208193
52	0x3d5a4b8f	0.053294715
53	0x3db2ac0a	0.0872422
54	0x3b81cf17	0.0039614546
55	0xbd8a0593	-0.067393444
56	0x3d4156f2	0.047202058
57	0xbd8f9caf	-0.07012307
58	0x3cc56d4a	0.024099965
59	0x3c218c06	0.009860044
60	0xbd327e9a	-0.043577768
61	0x3cdeaffb	0.027183523
62	0xbda42314	-0.08014503
63	0x3ca04055	0.019561926
64	0xbd630ee9	-0.05543414
65	0xbc213376	-0.009838929
66	0x3c2d54c9	0.010579296
67	0x3d9ea462	0.07746197
68	0xbd271b7b	-0.04079769
69	0x3d8086f6	0.06275742
70	0xbc412f0a	-0.011791
71	0xbd52a94b	-0.05143098
72	0xbd9d11b3	-0.076693915
73	0xbd9e418c	-0.07727346
74	0x3dca19ba	0.09868188
75	0xbd2916f4	-0.041281655
76	0x3d54caf7	0.051951375
77	0x3cb6649d	0.022264773
78	0x3d897269	0.06711275
79	0x3dac7fff	0.08422851
80	0x3dab1499	0.08353538
81	0xbd72f539	-0.059315894
82	0xbc7893c4	-0.015171949
83	0xbd43bcce	-0.04778748
84	0xbd193547	-0.037404325
85	0x3cc3d024	0.02390296
86	0x3db37d0a	0.08764084
87	0xbda26b2f	-0.079306
88	0x3d61e892	0.055153437
89	0xbd492b91	-0.049113814
90	0xbc81e237	-0.015854938
91	0x3d979a62	0.07402493
92	0xbca837dc	-0.020534448
93	0x3bf0168b	0.007326906
94	0xbd63d5ad	-0.0556237
95	0x3da7f70e	0.08201419
96	0x3c722395	0.014778991
97	0xbda22946	-0.079180285
98	0x3ccdf57a	0.025141466
99	0xbd78edc4	-0.060773626
100	0xbd891110	-0.066927075
101	0x3be12750	0.0068711415
102	0x3d5d7a83	0.054071914
103	0xbcca196e	-0.024670329
104	0x3d22c879	0.039741967
105	0x3db2c61a	0.08729191
106	0x3d537545	0.05162551
107	0xbd677824	-0.05651106
108	0xbb89f6cd	-0.004210329
109	0xbcc70782	-0.024295572
110	0xbd9e550b	-0.077310644
111	0xbc0e3459	-0.008679473
112	0x3d8b4512	0.068002835
113	0x3da4c924	0.08046177
114	0x3b97c423	0.0046315356
115	0x39ec059d	0.0004501761
116	0xbd143a65	-0.036188502
117	0x3d864565	0.06556205
118	0xbd03c21a	-0.03216753
119	0xbd9749e7	-0.07387143
120	0xbb62f9f4	-0.0034633847
121	0x3d7015f7	0.058614697
122	0xbdab6263	-0.08368375
123	0x3da7aa3d	0.08186767
124	0x3cf70c3a	0.030157197
125	0xbd384dec	-0.044996187
126	0xbce4cace	-0.027928736
127	0x3d87c142	0.06628658
128	0xbd8cac86	-0.06868844
129	0xbd1b8838	-0.037971705
130	0x3cc1f429	0.023675995
131	0xbda09fe2	-0.07842995
132	0x3d5354f7	0.0515947
133	0x3d44be6a	0.048033156
134	0x3d7c5039	0.061599944
135	0xbd7237e3	-0.05913533
136	0x3da718d7	0.08159035
137	0xbd0291dd	-0.031877387
138	0x3db847d2	0.08998074
139	0xbd840674	-0.06446543
140	0xbd647253	-0.05577309
141	0x3d78d0ac	0.06074588
142	0xbb0dfbbb	-0.0021664936
143	0x3ba1caf8	0.004937526
144	0xbd36b335	-0.0446045
145	0xbd0af63f	-0.033926245
146	0xbc83e359	-0.016099619
147	0xbdb71dcc	-0.0894123
148	0xbc9f421a	-0.0194407
149	0x3ca53a18	0.020169303
150	0xbb8fbb59	-0.0043863473
151	0x3cb87606	0.022517215
152	0x3da57591	0.08079065
153	0xbaa73f06	-0.0012759871
154	0xbcf3b309	-0.029748457
155	0xbd2711e8	-0.04078856
156	0xbda46166	-0.0802639
157	0xbd414b66	-0.047191046
158	0xbc697302	-0.014248611
159	0xbd02d3df	-0.031940337
160	0x3cfd4a32	0.030919168
161	0xbcef42db	-0.029206684
162	0x3db001ae	0.085940704
163	0xbd5d0a6a	-0.05396501
164	0x3b310f1b	0.002701706
165	0x3d919150	0.07107794
166	0x3d818de1	0.063258894
167	0xbd394aa7	-0.04523721
168	0x3bece803	0.0072298064
169	0x3d07fcb6	0.03319999
170	0xbd069276	-0.03285452
171	0xbd14ff0a	-0.036376037
172	0x3cf7c03c	0.030243032
173	0xbd589137	-0.052872863
174	0x3be9b38f	0.0071320008
175	0x3d548c85	0.051891822
176	0xbd46cd37	-0.048535552
177	0x3d9aa02e	0.07550083
178	0xbbd73d10	-0.0065685585
179	0x3d21ea2e	0.03952997
180	0x3ddd1c02	0.10796358
181	0xbcf8e485	-0.030382404
182	0x3d623a38	0.055231303
183	0xbb95be41	-0.004569799
184	0xbc84831f	-0.016175805
185	0xbc5b7e62	-0.013396831
186	0x3c0059ff	0.007833957
187	0xbd5717bf	-0.05251288
188	0x3cba3589	0.022730606
189	0x3bdce8a7	0.0067416015
190	0x3d6df5a4	0.05809559
191	0xbd059d51	-0.03262073
192	0x3c3d18d9	0.011541569
193	0xbd61f2c6	-0.055163167
194	0xbdb6894c	-0.08912906
195	0x3ccd89fb	0.025090208
196	0x3c43a7b5	0.01194184
197	0xbd0d3933	-0.034478378
198	0xbd544f59	-0.051833484
199	0x3cad043d	0.021120185
200	0xbc6ce0bb	-0.014457877
201	0x3c87d13a	0.01657926
202	0x3bf56a0b	0.007489448
203	0x3d03d9c3	0.032190096
204	0x3d2f0061	0.04272497
205	0xbcf870fe	-0.030327316
206	0x3d3a1681	0.045431618
207	0x3d7780a5	0.06042542
208	0x3ca05dbc	0.019575946
209	0x3ccf07da	0.025272299
210	0xbbcc9c28	-0.006244201
211	0x3d5d7446	0.054065965
212	0xbcee339c	-0.029077344
213	0xbd202b1d	-0.039103616
214	0x3d7fb964	0.06243266
215	0xbda4309c	-0.08017084
216	0x3cc0eb19	0.023549603
217	0xbd1ef15d	-0.0388044
218	0x3d6eafed	0.058273245
219	0xbd9ae63f	-0.07563447
220	0x3d5acc5d	0.053417552
221	0x3db8a2ab	0.090154015
222	0x3ce0ac6b	0.027425965
223	0x3a120ceb	0.0005571383
224	0x3dc41080	0.095734596
225	0xbd3cbb67	-0.04607716
226	0xbbe82505	-0.007084491
227	0xbc859205	-0.01630498
228	0xbca07edc	-0.019591741
229	0x3cdd2f6f	0.027000157
230	0x3c464a37	0.012102655
231	0xbcdeeffc	-0.027214043
232	0xbd9c04ce	-0.07618104
233	0x3bb76854	0.0055971537
234	0xbceb4543	-0.02871955
235	0x3c76bcba	0.015059644
236	0x3d43844c	0.04773359
237	0x3db6742a	0.08908875
238	0xbd6aad13	-0.057293963
239	0xbca53b4d	-0.020169878
240	0xbce3f349	-0.027825968
241	0xbd820a1e	-0.06349586
242	0xbd90f3f1	-0.07077778
243	0x3d7f4ff1	0.062332097
244	0x3d88b537	0.06675189
245	0x3d66ced2	0.056349583
246	0x3d56f441	0.052479032
247	0xbd8f39e7	-0.06993466
248	0x3bdfd407	0.0068306956
249	0x3dc0cb7a	0.0941381
250	0xbd78ed74	-0.060773328
251	0x3daeecba	0.08541246
252	0x3d07d02c	0.033157513
253	0x3d982085	0.074280776
254	0xbd032725	-0.032019753
255	0x3d1615bf	0.036641832

fc2.bias f4 [64]
0	0x3c696baa	0.0142468605
1	0x3db705f7	0.089366846
2	0x3d334831	0.04377002
3	0xbd140749	-0.03613976
4	0xbd018071	-0.031616632
5	0x3d2543d1	0.040347878
6	0xbd6d0cc4	-0.057873502
7	0xbc366196	-0.011131665
8	0x3cd4aa03	0.025959974
9	0xbd23c749	-0.039984975
10	0x3d1957fe	0.03743743
11	0x3c454c71	0.012042151
12	0x3dac5258	0.08414143
13	0xbd85fdd8	-0.065425575
14	0x3d7ce739	0.06174395
15	0x3d956159	0.07293958
16	0xbd46796c	-0.04845564
17	0x3ceb73d1	0.028741749
18	0xbb609520	-0.0034268573
19	0x3d924008	0.07141119
20	0x3d8448b1	0.06459177
21	0xbd21325c	-0.039354667
22	0xbd1c0a9c	-0.038096055
23	0xbd546639	-0.0518553
24	0x3d9b1f8f	0.07574379
25	0xbd748860	-0.05970037
26	0xbd40f8e1	-0.04711235
27	0x3d9b34e6	0.07578449
28	0x3d58083e	0.052742235
29	0x3d8ff57d	0.07029245
30	0x3d83f74a	0.06443651
31	0xbd80529a	-0.06265755
32	0xbc040914	-0.008058805
33	0x3b20f399	0.0024559258
34	0x3dea7a75	0.11449138
35	0x3ad6751b	0.0016361804
36	0xbbb3b385	-0.005484047
37	0x3d92c575	0.07166568
38	0x3d73ed40	0.05955243
39	0xbd5d6423	-0.054050576
40	0xbd85b8e7	-0.06529408
41	0xbc4cd01c	-0.012500789
42	0x3d239b6b	0.03994314
43	0x3dd8fd9a	0.10595246
44	0x3d45ca64	0.048288718
45	0x3d8c29c0	0.06843901
46	0x3d03d1a6	0.03218236
47	0xb9af8e07	-0.0003348442
48	0xbb02982b	-0.0019927125
49	0x3d9b3ef3	0.07580366
50	0x3ca84ee9	0.02054544
51	0x3ba573b7	0.0050491947
52	0x3d9adebc	0.075620145
53	0x3d8c7cdb	0.06859752
54	0x3c3fb8f3	0.01170181
55	0x3ad7f860	0.001647722
56	0xbd02a902	-0.03189946
57	0xbd16ab46	-0.036784433
58	0xbcddd853	-0.02708069
59	0x3dac88e9	0.08424551
60	0x3d8b5abc	0.068044156
61	0xbd233eb4	-0.03985472
62	0x3d9accb7	0.075585775
63	0xbb8257a7	-0.003977734

bn2.weight f4 [64]
0	0x3f818363	1.0118221
1	0x3f7aa5ad	0.9790905
2	0x3f827718	1.0192595
3	0x3f80a78f	1.0051135
4	0x3f740c0c	0.9533088
5	0x3f7a416d	0.9775608
6	0x3f81322b	1.0093435
7	0x3f777f78	0.96678877
8	0x3f7cd2a4	0.9875891
9	0x3f778c5f	0.96698564
10	0x3f8169dd	1.0110432
11	0x3f7bb894	0.9832852
12	0x3f7c941f	0.98663515
13	0x3f7fdc2d	0.99945337
14	0x3f7ad87e	0.9798659
15	0x3f7ce813	0.9879162
16	0x3f7bdb6d	0.9838169
17	0x3f775ed0	0.9662905
18	0x3f814bc2	1.0101244
19	0x3f8120fe	1.0088193
20	0x3f7de053	0.99170417
21	0x3f7dbf74	0.9912026
22	0x3f7d7752	0.99010193
23	0x3f80e04d	1.0068451
24	0x3f7c3423	0.98517054
25	0x3f7a3680	0.9773941
26	0x3f80ccab	1.006246
27	0x3f811861	1.0085565
28	0x3f7dc17b	0.9912335
29	0x3f7ccaab	0.98746747
30	0x3f853006	1.040528
31	0x3f7b48cf	0.9815797
32	0x3f7c6974	0.9859841
33	0x3f83db78	1.0301352
34	0x3f807c66	1.0037963
35	0x3f7e6bee	0.9938344
36	0x3f80cb79	1.0062095
37	0x3f7bd7bd	0.98376065
38	0x3f7b605f	0.98193926
39	0x3f7e0353	0.9922382
40	0x3f78c441	0.9717446
41	0x3f7c3330	0.98515606
42	0x3f7a04de	0.97663677
43	0x3f7b4c16	0.9816297
44	0x3f811937	1.008582
45	0x3f802c3d	1.00135
46	0x3f784439	0.969791
47	0x3f7bdfab	0.98388165
48	0x3f784e7d	0.96994764
49	0x3f78d80b	0.97204655
50	0x3f7c3f0a	0.9853369
51	0x3f82d252	1.0220435
52	0x3f80b3af	1.0054835
53	0x3f7a2572	0.97713387
54	0x3f7b0dac	0.98067737
55	0x3f80c5c9	1.0060359
56	0x3f835195	1.0259272
57	0x3f7df6f3	0.9920494
58	0x3f81d9ed	1.0144631
59	0x3f81303b	1.0092844
60	0x3f7aeb3f	0.9801521
61	0x3f781b15	0.96916324
62	0x3f81f714	1.0153527
63	0x3f7e1c34	0.99261785

bn2.bias f4 [64]
0	0x3f164f52	0.58714783
1	0xbf0c936b	-0.5491244
2	0x3ef5c612	0.48002678
3	0x3f04efc3	0.5192835
4	0x3f1bc06b	0.6084048
5	0x3f0f54d9	0.5598884
6	0xbf0a56c8	-0.5403867
7	0x3f173e81	0.5907975
8	0x3efe8384	0.49709713
9	0x3f00a0fa	0.5024563
10	0xbefee490	-0.49783754
11	0xbf085e36	-0.53268754
12	0x3ef73764	0.48284447
13	0x3f02c9fa	0.5108944
14	0x3f078859	0.52942425
15	0xbef63c15	-0.48092714
16	0xbf0273df	-0.50958055
17	0xbf101b08	-0.56291246
18	0xbf08036c	-0.5313022
19	0xbf1b5503	-0.6067659
20	0xbefd33a3	-0.49453458
21	0x3ef403ee	0.47659248
22	0xbefbe109	-0.49195126
23	0xbf086c9f	-0.5329074
24	0xbf0c8541	-0.5489083
25	0xbf03c0ac	-0.5146587
26	0x3f1af965	0.60536796
27	0x3f08ef75	0.5349038
28	0x3f0ed666	0.55795896
29	0x3eff148e	0.4982037
30	0x3f24a529	0.64314514
31	0xbf07ae1d	-0.5300005
32	0xbf13db6b	-0.5775668
33	0x3f2363b6	0.6382402
34	0xbf0cf8ac	-0.55066943
35	0x3ef97bea	0.4872735
36	0x3f03ac95	0.51435214
37	0x3ef84c77	0.48495838
38	0xbef723b5	-0.4826943
39	0x3ef61dca	0.48069602
40	0xbf052c98	-0.5202117
41	0xbefff956	-0.49994916
42	0x3f1062ba	0.56400645
43	0x3f163514	0.5867474
44	0xbf0119a0	-0.50429726
45	0x3eff1eb8	0.49828124
46	0x3efff94c	0.49994886
47	0x3f1576bc	0.583843
48	0x3f1aaa09	0.60415703
49	0x3f0c6553	0.5484211
50	0xbf1da8c0	-0.6158562
51	0xbf082144	-0.5317576
52	0xbf0510e6	-0.5197891
53	0xbf10dbcb	-0.5658538
54	0xbf020455	-0.5078786
55	0x3f0a9cb5	0.54145366
56	0xbf1c1045	-0.60962325
57	0xbf0d0dc3	-0.55099124
58	0xbf0fbfde	-0.5615214
59	0x3f0ec4f5	0.5576928
60	0xbf005d78	-0.5014262
61	0x3f0391b8	0.51394224
62	0x3f0382c9	0.5137144
63	0x3ef0b9c3	0.47016725

bn2.running_mean f4 [64]
0	0x3f08d531	0.53450304
1	0x3ecc0ef4	0.39855158
2	0x3ea05338	0.3131349
3	0x3efb1ab6	0.49043816
4	0x3e4acd2e	0.19804832
5	0x3e99054f	0.29886863
6	0x3da07d80	0.07836437
7	0x3e130c8d	0.14360256
8	0x3ec9de9f	0.3942766
9	0x3d8c910c	0.06863603
10	0x3ee25fa0	0.4421358
11	0x3e9454db	0.2897099
12	0x3ea053cf	0.3131394
13	0x3ec463b4	0.38357317
14	0x3e2c9714	0.16854507
15	0x3e77c6df	0.24196957
16	0x3e9b5ec3	0.30345735
17	0x3e846449	0.25857762
18	0x3ece1d04	0.40256512
19	0x3efa4e83	0.48888025
20	0x3e90ba61	0.28267196
21	0x3e71a62a	0.23598543
22	0x3ea0b9cd	0.31391755
23	0x3e865747	0.26238462
24	0x3ee1929c	0.44057167
25	0x3ea29965	0.31757656
26	0x3ef081a6	0.46973914
27	0x3ebf81e4	0.37403786
28	0x3e9e5503	0.30924234
29	0x3f0bad7f	0.5456161
30	0x3eae4f2b	0.34044775
31	0x3e62c539	0.22145547
32	0x3ed65113	0.4185873
33	0x3ee8e865	0.45489803
34	0x3eb4672b	0.3523496
35	0x3e81be4a	0.25340492
36	0x3ed7c9a5	0.4214603
37	0x3e705c7c	0.2347278
38	0x3e18b314	0.14912063
39	0x3e8243ea	0.2544244
40	0x3e18a4f2	0.14906672
41	0x3ed3a13d	0.41333953
42	0x3ead682d	0.33868542
43	0x3f21cdb8	0.63204527
44	0x3eb8860b	0.36039767
45	0x3ecdb851	0.40179685
46	0x3e95eb0d	0.29280892
47	0x3eda8ede	0.42687124
48	0x3e8f88af	0.2803397
49	0x3e803205	0.25038162
50	0x3ee2da7a	0.4430731
51	0x3e895330	0.2682128
52	0x3f18a62a	0.59628546
53	0x3ec79d13	0.38987026
54	0x3e17d1f3	0.14826183
55	0x3ec43df5	0.3832852
56	0x3e9d2a6e	0.30696434
57	0x3e5e8852	0.2173169
58	0x3eeeb4c7	0.46622297
59	0x3f7ff1d1	0.9997836
60	0x3e7e13cd	0.24812241
61	0x3e7dfc67	0.24803315
62	0x3ec39cf3	0.3820568
63	0x3e81a8fc	0.25324237

bn2.running_var f4 [64]
0	0x3eb653ac	0.35610712
1	0x3e3f3cd0	0.18675542
2	0x3ddcbde8	0.10778409
3	0x3e762e32	0.2404106
4	0x3e707f1e	0.23485991
5	0x3dde01c0	0.108401775
6	0x3e1b51d2	0.1516793
7	0x3eb86c2b	0.36020026
8	0x3e40a16b	0.18811576
9	0x3e03c8fd	0.1286964
10	0x3ec005a0	0.37504292
11	0x3dbd64c3	0.092477344
12	0x3dd3928f	0.10330688
13	0x3e3c903c	0.18414396
14	0x3ea5c032	0.32373196
15	0x3d934f52	0.071928635
16	0x3db91e2b	0.09038957
17	0x3db95cd7	0.09050911
18	0x3e9c797e	0.3056144
19	0x3e82beb8	0.25536132
20	0x3dc0ed04	0.09420207
21	0x3dbaef44	0.091276675
22	0x3dd9bbbb	0.1063151
23	0x3dafe905	0.08589367
24	0x3e5803bb	0.21095173
25	0x3e3c46bc	0.18386358
26	0x3e7c1ba9	0.24619927
27	0x3e1a532e	0.15070793
28	0x3dcba5ce	0.09943734
29	0x3e9ffcba	0.31247503
30	0x3e03be28	0.12865508
31	0x3da06b97	0.07833021
32	0x3e446e84	0.19182783
33	0x3e65dc37	0.22447287
34	0x3e077164	0.13226849
35	0x3d8b22a6	0.06793718
36	0x3e46ee5b	0.19426863
37	0x3d14cf99	0.036330793
38	0x3dc6d8a2	0.09709288
39	0x3d97c6d4	0.0741097
40	0x3da96f4a	0.0827318
41	0x3e49a3f4	0.1969145
42	0x3e224595	0.15846856
43	0x3ed574e5	0.41690746
44	0x3e869367	0.26284334
45	0x3e3b0681	0.182642
46	0x3ed48338	0.41506362
47	0x3e846926	0.25861472
48	0x3dd9dfe1	0.10638405
49	0x3e5eec94	0.21769935
50	0x3e6370b7	0.22210966
51	0x3f73efcd	0.9528778
52	0x3ebfa752	0.37432343
53	0x3e2ba709	0.16762938
54	0x3d3725f1	0.044713918
55	0x3e361754	0.17782336
56	0x3de153e7	0.11002331
57	0x3f226104	0.63429284
58	0x3e97f947	0.2968237
59	0x3f8a0f5b	1.0785936
60	0x3db64e29	0.089016266
61	0x3e8f8747	0.28032896
62	0x3e23c0a4	0.15991455
63	0x3dd2182b	0.10258516

fc3.weight f4 [1, 64]
0	0xbedfafed	-0.43688908
1	0x3edb4c51	0.42831662
2	0xbedb13bf	-0.42788503
3	0xbedc396c	-0.4301256
4	0xbf02930e	-0.5100564
5	0xbed3eb2d	-0.41390362
6	0x3ef9d806	0.48797625
7	0xbf002e9d	-0.50071126
8	0xbf07c683	-0.5303728
9	0xbf0dd652	-0.5540515
10	0x3f0fdfb7	0.56200737
11	0x3ef45499	0.47720793
12	0xbf044a04	-0.5167544
13	0xbf09a078	-0.5376048
14	0xbf088160	-0.5332241
15	0x3eed8c14	0.46395934
16	0x3ed1be30	0.40965414
17	0x3ee7e21e	0.452897
18	0x3f012d28	0.5045953
19	0x3eda78b4	0.42670214
20	0x3ee16b23	0.4402705
21	0xbed16a0a	-0.40901214
22	0x3eedcb24	0.46444046
23	0x3ed4213e	0.41431612
24	0x3ee8b291	0.45448735
25	0x3f02b381	0.5105515
26	0xbedf3ad0	-0.43599558
27	0xbed4a931	-0.41535333
28	0xbeeb9abb	-0.46016487
29	0xbef57888	-0.4794352
30	0xbeeb25da	-0.45927316
31	0x3ef8977e	0.4855308
32	0x3ecf0b11	0.4043813
33	0xbeec2544	-0.4612218
34	0x3ed68225	0.41896167
35	0xbefb5d38	-0.49094558
36	0xbee65bdb	-0.44991955
37	0xbef2b5be	-0.47404283
38	0x3f052936	0.5201601
39	0xbef0fcf4	-0.47067988
40	0x3ed4585a	0.41473657
41	0x3eeef58d	0.46671715
42	0xbed22af7	-0.41048405
43	0xbee08f37	-0.43859264
44	0x3f0152d4	0.5051701
45	0xbeeddb32	-0.46456295
46	0xbf17fd6f	-0.59371084
47	0xbeca691a	-0.3953331
48	0xbee087e7	-0.43853685
49	0xbf04dcdb	-0.518995
50	0x3ed83b4a	0.42232734
51	0x3f0e7559	0.5564781
52	0x3eca6b39	0.3953493
53	0x3ed6b5c8	0.41935563
54	0x3ef1781f	0.47161958
55	0xbee0f4ef	-0.4393687
56	0x3efd3818	0.4945686
57	0x3eed8587	0.46390936
58	0x3f0369ed	0.51333505
59	0xbed30c6c	-0.41220415
60	0x3f03ee0e	0.5153512
61	0xbf0c0af8	-0.54704237
62	0xbec9f5bd	-0.39445296
63	0xbee37e31	-0.44432214
