PreTrained/cstr_ode/Deep_DQN/0_4/900.pth (torch, 43158 bytes, 13 tensors)

fc1.weight f4 [128, 4]
000000 5f da f5 bb 70 d7 86 3e 68 9b d5 be e2 15 bc be
       -0.0075028385 0.2633624 -0.41720128 -0.36735445
000010 f4 32 45 be ec 4b 09 3e 40 4f 22 bc ce fa ca 3e
       -0.19257718 0.13407868 -0.00990659 0.39644474
000020 12 13 23 bd 46 99 f6 3d f7 b9 1c be 1a 90 9e bd
       -0.03981311 0.12040953 -0.15305315 -0.07742329
000030 8f 24 f7 be da 41 a7 be f9 8b 4d be bc 62 cd 3c
       -0.4827008 -0.32667428 -0.20072927 0.025071494
000040 a0 49 3d 3e 41 5f a0 3e 4b 0a b4 be ac 8e 52 be
       0.18485117 0.31322673 -0.35164103 -0.20562238
000050 99 56 3c 3e 3a 41 d3 3e 62 8d 01 be 5c 91 bf 3e
       0.1839241 0.412607 -0.1265159 0.37415588
000060 28 b1 ae bd 37 6d 8d 3d af 99 e2 3e 60 5c f0 be
       -0.085298836 0.06905597 0.44257876 -0.46945477
000070 f7 bb a1 be 1a 54 e3 bd ed f7 57 be 28 2f dd 3e
       -0.31588718 -0.111000255 -0.2109067 0.4320004
000080 bd 03 a4 be a2 97 72 be 5f 7b af be 86 e2 d3 be
       -0.32034102 -0.23690656 -0.34273812 -0.4138376
000090 2e 11 95 be de 34 d6 3e b1 75 5d 3e 00 27 78 3e
       -0.2911467 0.4183721 0.21626927 0.24233627
0000a0 63 72 f6 3c 12 18 82 be 20 09 d1 3d 75 40 d4 be
       0.03008384 -0.2540899 0.102068186 -0.41455427
0000b0 1a fa b8 be c6 f9 83 be 26 85 a1 3e 26 19 96 3e
       -0.36128312 -0.257765 0.31546897 0.29316062
0000c0 c8 11 63 be 20 cb 93 bc 40 ba a3 3e 82 7f fe 3e
       -0.22174752 -0.018041193 0.31978035 0.49706656
0000d0 1c a7 51 3e 9d 2b 4c 3d 04 51 b7 3e 75 6a 95 be
       0.20473903 0.04984628 0.35803998 -0.29182783
0000e0 76 dd b0 3d 7d 49 ca be a6 e7 b2 be 10 7c 66 be
       0.0863599 -0.39509192 -0.3494236 -0.22508264
0000f0 7f b6 75 3e 03 dc 3f 3e 27 9e 90 be c8 ad 1a 3e
       0.23995398 0.18736272 -0.2824566 0.15105355
000100 0d 6c 83 3e 53 89 20 bd c6 62 03 3d d9 09 f7 3d
       0.25668374 -0.039193463 0.03207662 0.12062425
000110 fa 47 9b 3e 77 24 f9 3e 1d 38 c8 be 03 e5 3a be
       0.3032835 0.48660633 -0.3910531 -0.18251424
000120 56 61 5b 3e 96 a2 cb 3e a9 e2 e0 3e 9a c7 eb 3e
       0.2142385 0.3977248 0.43922928 0.4605072
000130 d4 2e e6 3d 84 45 d9 be bf 6a 33 3d b6 60 9d be
       0.112394005 -0.4243585 0.043802973 -0.30737847
000140 55 f4 e1 be 0c 0d dc 3e 8d c7 cc 3e 03 b5 01 bf
       -0.44131723 0.42978704 0.39995995 -0.50666827
000150 08 aa bf 3d c8 80 ac bd b8 82 a8 bd 1c 5f 6a be
       0.09358603 -0.084230006 -0.082280576 -0.22887844
000160 e9 f7 4d 3e a1 f0 9a be 96 5f 43 3e 16 76 81 3e
       0.20114101 -0.3026171 0.19079432 0.25285405
000170 30 a5 bc 3e a9 50 2d 3e b8 59 fc be 34 1f a0 be
       0.36844778 0.169253 -0.492872 -0.31273806
000180 68 84 89 3e 74 00 bc 3d c7 c6 bd be 59 b3 96 be
       0.2685883 0.09179774 -0.37065718 -0.29433706
000190 f5 34 ef 3e 50 1f ae 3e fb 65 5f be ac 39 fb bd
       0.4672009 0.34008265 -0.21816246 -0.122668594
0001a0 ba 30 f8 be fb 75 ee 3a fa 8c c5 be 52 27 c2 be
       -0.48474675 0.001819312 -0.3858412 -0.37920624
0001b0 53 6d f3 bc d0 86 9a 3d 8a 9b 45 be 81 54 97 3e
       -0.029715216 0.07545245 -0.19297615 0.2955666
0001c0 50 54 9b be c3 e8 e2 3e 7a 9e af 3e ec 0d d9 be
       -0.30337763 0.44318208 0.34300596 -0.42393434
0001d0 52 d3 00 be 9a 02 92 3c d9 0c 90 3d e2 4f f8 3d
       -0.12580612 0.017823506 0.070337005 0.121246114
0001e0 6f d7 4e 3e 91 00 c6 3c b6 e6 73 be d4 45 72 3e
       0.20199369 0.024170192 -0.23818478 0.2365945
0001f0 2b f1 ec be fd 4e 92 be ce 16 e9 bd 15 58 64 be
       -0.46277747 -0.28575888 -0.11381303 -0.22299226
000200 a3 bb 42 be 6d 47 ca be 08 41 e3 bd 54 f8 c9 3d
       -0.1901689 -0.3950762 -0.11096388 0.09861818
000210 93 7a ad be b5 3c 60 bc 03 a0 b0 3e cb f1 35 bd
       -0.3388258 -0.013686349 0.3449708 -0.044420045
000220 80 ac 63 3c c0 ad 30 bd 10 3d cf 3d 60 c6 a2 3e
       0.013896108 -0.04313445 0.101190686 0.31791973
000230 ef 74 ec 3e e1 e3 a6 3e 12 82 f9 3e 4e d0 ac bc
       0.46182963 0.32595733 0.48732048 -0.021095421
000240 ec 12 de be e6 5d 7d be f7 d5 b6 3e 1b 0e 40 3c
       -0.4337381 -0.2474285 0.35710117 0.011722113
000250 90 f3 83 be 59 53 be be 96 f9 f1 be 07 4f d6 be
       -0.2577176 -0.37172964 -0.4726073 -0.41857168
000260 1c 2d d5 bd 42 08 8b 3e 58 8f 80 3e e8 6b f1 be
       -0.104089946 0.27154738 0.25109363 -0.47152638
000270 a5 92 a3 3e c4 53 cc be d1 6b d5 bd 13 95 57 be
       0.31947818 -0.39907658 -0.10420955 -0.21052961
000280 99 df ac bd 16 5d cd bd 3e 0d eb be 34 77 e2 be
       -0.08441085 -0.1002752 -0.4590854 -0.4423157
000290 28 3c a0 bd 80 e1 d3 3b b8 96 68 be b8 de 40 3e
       -0.07823974 0.0064660907 -0.22713745 0.1883496
0002a0 2d 70 e9 be 08 00 1d bd c8 bf da 3e f0 ec 58 be
       -0.45593396 -0.038330108 0.42724442 -0.21184134
0002b0 9a c5 e7 3e f6 ba 32 3e a5 5f e6 be 74 f8 a1 3e
       0.45267946 0.17454132 -0.44994846 0.31634867
0002c0 01 1d 84 bd c3 7f 57 be 6d 15 cf 3e e1 24 d7 be
       -0.064508446 -0.21044831 0.40446034 -0.42020324
0002d0 05 b1 37 3d 5c eb c2 bd d6 8c bb 3e c3 28 09 3e
       0.044846553 -0.095175475 0.36630887 0.13394456
0002e0 87 69 81 3e bb c1 39 3e 9a 2e ca bd 23 8f ad bd
       0.25275823 0.18140309 -0.0987217 -0.08474567
0002f0 ff 16 da be 6e f0 93 3e d2 5d c3 3e 5c 29 af 3e
       -0.4259567 0.2889437 0.38157517 0.34211242
000300 bf 86 b5 be 51 df c5 3c b3 69 b5 be 82 db 90 be
       -0.35454366 0.024154337 -0.35432205 -0.2829247
000310 1e 89 8d be 69 b3 1f 3e b6 ea 90 be 27 c4 90 3c
       -0.27643675 0.15595783 -0.2830407 0.017671658
000320 51 16 5e 3d ee c2 92 3e 95 87 b4 be bd 15 b8 be
       0.0542205 0.28664345 -0.3525969 -0.35954085
000330 cf 82 90 be 35 92 ab 3e 2a 68 46 be a0 fd d4 3e
       -0.282248 0.33509985 -0.19375673 0.4159975
000340 a0 24 39 3e 40 aa 81 3d 00 ed 73 bb 08 6d ca bd
       0.18080378 0.06331301 -0.003722012 -0.09884077
000350 8f 5f 8a 3d e3 6d f8 bd 89 ca 02 3b d8 6b 19 3d
       0.067565076 -0.12130334 0.0019957146 0.037456363
000360 4d 0c c8 be 1c 6e 81 be e7 00 d3 3e 54 fd d1 be
       -0.39071885 -0.2527932 0.41211626 -0.41013587
000370 84 e9 81 bc 1e 0d f1 3e dd ea 49 3e 87 1c 0b 3d
       -0.01585842 0.4708032 0.197185 0.033962753
000380 5c bd cb be 46 d4 5d 3e 60 bb ad be 3d a4 0e be
       -0.39792907 0.21663007 -0.33932018 -0.1392984
000390 90 e0 34 be 8c a5 a0 bd a6 7e d1 bb 96 26 d3 3e
       -0.17663789 -0.078440756 -0.0063932715 0.41240376
0003a0 7b 8e 95 3d 1f b9 e0 3e 88 30 a0 3e 59 28 a6 be
       0.073025666 0.43891236 0.31287026 -0.32452658
0003b0 9e 46 74 3e 00 80 bc be 71 2b 4a be 5f 4c ff 3d
       0.23855063 -0.36816406 -0.19743134 0.124657385
0003c0 48 fd 22 3e c0 17 c3 3e d1 e3 2a be cd a7 9b bc
       0.15916932 0.38104057 -0.16688468 -0.019000912
0003d0 53 0d 7b 3e 9a 31 f2 be f3 07 b7 3e 57 02 d4 be
       0.24516802 -0.47303468 0.35748252 -0.41408035
0003e0 c6 2b 09 3b 34 20 a5 bd c3 33 93 be 89 2e 09 3d
       0.0020930632 -0.08062783 -0.2875043 0.033491645
0003f0 55 2b e1 3e a5 76 20 be 85 fc 8a be 98 dd 44 be
       0.43978372 -0.1567026 -0.27145782 -0.19225156

fc1.bias f4 [128]
000000 3a ba dd bd 14 df 3e be dd aa 0c 3e fc 35 31 3e
       -0.108265355 -0.18639785 0.13737054 0.1730575
000010 9d ad 77 be 68 d7 27 3d 46 58 96 3e 7f ec 4e bd
       -0.24187322 0.04097691 0.29364222 -0.05051851
000020 2c 77 25 3e f1 49 08 be cb 73 39 3e e6 71 b9 be
       0.16158742 -0.13309456 0.18110578 -0.3621971
000030 0e 89 96 be 2f 2a 65 be b1 7b e9 3e 66 d1 17 be
       -0.2940144 -0.22379373 0.45602182 -0.14825973
000040 e0 c8 62 bd 2a 76 7c be 1f 3e 01 3f 21 5b fc 3e
       -0.05536735 -0.24654451 0.50485414 0.49288276
000050 a7 06 bd be 10 88 cf be cd 34 be be 43 bf 57 bc
       -0.36919138 -0.40533495 -0.3714966 -0.013168159
000060 ab 24 0a be 4b 30 a9 be c3 03 35 be 15 02 ce 3d
       -0.1349055 -0.33044657 -0.17677216 0.10058991
000070 f1 bb 8a be 5d 7a ed 3d 38 a8 f6 bd c2 93 86 be
       -0.27096513 0.115956046 -0.12043804 -0.26284605
000080 ea 22 6a 3d 29 ba d0 3e 88 13 ad be c5 9f d6 3c
       0.057162203 0.4076703 -0.33803964 0.02619923
000090 c1 c2 2b be 8b d5 fa 3e 40 5b f8 be 82 6d f1 be
       -0.16773511 0.48991045 -0.48507118 -0.4715386
0000a0 2f 36 fd 3e f8 f7 a1 be 20 63 fb 3d 49 57 3a bd
       0.494554 -0.31634498 0.12274766 -0.045493398
0000b0 08 11 c0 bd 58 c1 d1 bd 3f c6 a6 3e de ff 13 3c
       -0.093782485 -0.102419555 0.32573125 0.009033171
0000c0 ab 4b f8 be e8 c4 9e be 33 0b 29 be 35 ca 85 3e
       -0.4849523 -0.31009603 -0.16508178 0.26130834
0000d0 8e aa a5 be 92 10 fa 3e 83 4d c7 bd a9 8e a3 bd
       -0.32356685 0.48840767 -0.09731581 -0.07986195
0000e0 c5 b8 d9 3e 55 e5 55 3e 61 cd df 3e b6 04 99 3e
       0.4252378 0.20888264 0.4371138 0.29886407
0000f0 8d 3f 15 be f0 27 b4 be a2 d6 2b bd 00 81 cf 3e
       -0.14575024 -0.3518672 -0.041952737 0.40528107
000100 9e 87 35 be 1e 68 ed be db e5 3b 3e a6 c4 f7 3e
       -0.17727515 -0.46368498 0.18349402 0.48392218
000110 ac 30 1b be ac 96 d6 be 10 35 e8 be 2c 31 06 3e
       -0.15155286 -0.4191183 -0.45352983 0.13104695
000120 e4 f1 d4 bc 58 1b 80 be a8 95 be 3d 48 ba 36 3e
       -0.025994249 -0.25020862 0.093058884 0.17844498
000130 a6 00 cf 3e d8 bf c5 3e a9 1f 96 bd 7e bb e1 be
       0.40430182 0.38622928 -0.073302574 -0.44088358
000140 d8 53 e7 be 37 82 ed 3e ab f5 67 3e 9e 4e 72 3e
       -0.45181155 0.4638841 0.22652309 0.23662803
000150 85 d7 dc be 76 af f5 3e f8 92 e9 3e 73 5d e9 3e
       -0.43133178 0.4798543 0.4561994 0.4557911
000160 30 f5 d7 be 07 85 24 be 12 99 ae be 76 a1 f1 3e
       -0.4217925 -0.16066371 -0.34101158 0.47193497
000170 bd cb 61 be 10 7c 74 be 15 b4 85 3e 54 4d 77 be
       -0.22050376 -0.23875451 0.26113954 -0.24150592
000180 58 4f 65 be 5a f6 1c bd 2f 34 77 bd 22 6b c7 be
       -0.22393548 -0.038320877 -0.0603525 -0.38948923
000190 20 b6 ce 3e 7b 53 81 be 48 c3 46 3e 34 f1 e0 3e
       0.40373325 -0.25259003 0.19410431 0.43934023
0001a0 ee d4 59 3e 16 cc 89 3d 2e 16 d4 3e 59 e8 a8 3d
       0.21272632 0.067283794 0.41423172 0.08247442
0001b0 e1 a1 77 be 19 c7 f0 3e 4b fb f2 3d 38 c6 f9 be
       -0.24182846 0.470269 0.118643366 -0.4878404
0001c0 5c a8 0a be fe 60 ae be 55 d3 e6 3e 36 3e 67 bd
       -0.13540787 -0.34058374 0.4508311 -0.056455813
0001d0 62 d5 ea be e7 62 12 bd f7 7a a5 3e d0 59 03 3e
       -0.45865923 -0.035738852 0.32320377 0.1282723
0001e0 a5 6d 2c 3e b5 a1 9b 3d 35 d5 37 3e 75 a1 1d be
       0.16838701 0.075992025 0.17952426 -0.15393622
0001f0 90 09 43 be 0e 49 ef be 49 f8 c0 be a0 ed 56 3e
       -0.19046617 -0.46735424 -0.37689427 0.20989084

bn1.weight f4 [128]
000000 10 3e 7d 3f 00 00 80 3f 6a 28 7f 3f a5 97 82 3f
       0.98922825 1.0 0.9967104 1.0202528
000010 77 9c 80 3f a4 0e 7d 3f c0 42 81 3f 97 27 80 3f
       1.0047749 0.98850465 1.0098495 1.0012082
000020 2c 05 80 3f 4c 34 79 3f 91 ef 7a 3f 00 00 80 3f
       1.0001578 0.97345424 0.980218 1.0
000030 00 00 80 3f 64 fc 7d 3f 6f 85 7e 3f 7b a7 7c 3f
       1.0 0.9921324 0.99422354 0.98693055
000040 ef 9e 7c 3f 20 15 80 3f d6 bc 80 3f 4f 55 81 3f
       0.98680013 1.0006447 1.0057628 1.0104159
000050 50 46 7d 3f 00 00 80 3f 19 3f 80 3f 06 de 7d 3f
       0.98935413 1.0 1.0019256 0.99166906
000060 56 df 7f 3f 13 30 7f 3f 7f 3c 7f 3f 52 23 81 3f
       0.9995016 0.9968273 0.99701685 1.0088904
000070 b4 4b 79 3f 31 97 7d 3f 60 4f 7f 3f 16 b6 7c 3f
       0.9738114 0.99058825 0.9973049 0.9871534
000080 b6 32 7c 3f 00 52 81 3f 00 00 80 3f 80 ec 7e 3f
       0.9851488 1.010315 1.0 0.9957962
000090 ab c7 7b 3f 98 0c 80 3f be da 7b 3f 15 7e 80 3f
       0.98351544 1.0003843 0.9838065 1.0038477
0000a0 42 6b 7e 3f 00 00 80 3f 3b cd 80 3f 9a f4 7e 3f
       0.9938241 1.0 1.0062631 0.9959198
0000b0 ae 10 80 3f 7e 5b 80 3f 8e a4 80 3f 56 c8 80 3f
       1.000509 1.0027921 1.0050218 1.0061138
0000c0 08 ee 80 3f 18 cb 7d 3f 34 f8 7b 3f 11 d4 80 3f
       1.0072641 0.9913802 0.984256 1.0064718
0000d0 00 00 80 3f 6f 36 83 3f be 49 7e 3f 64 3d 7d 3f
       1.0 1.0250987 0.9933127 0.989218
0000e0 16 26 7f 3f ba 9c 7d 3f 57 6c 80 3f 68 de 80 3f
       0.9966749 0.9906727 1.0033063 1.0067873
0000f0 e3 da 80 3f cb 7a 81 3f 20 e4 7f 3f b2 7f 81 3f
       1.0066799 1.0115598 0.99957466 1.0117095
000100 9d 70 80 3f 00 00 80 3f b0 17 81 3f 11 57 80 3f
       1.0034367 1.0 1.0085354 1.002657
000110 af 19 7b 3f 73 1d 7f 3f 00 00 80 3f 37 9a 7f 3f
       0.98086065 0.9965431 1.0 0.9984469
000120 18 6c 7f 3f 19 0f 80 3f 44 78 81 3f 21 bf 82 3f
       0.9977431 1.0004607 1.0114827 1.0214578
000130 e4 1a 7c 3f db 47 7f 3f 86 5d 7e 3f 00 00 80 3f
       0.9847853 0.9971902 0.99361455 1.0
000140 00 00 80 3f 10 f7 80 3f 34 54 7f 3f a8 e3 80 3f
       1.0 1.0075397 0.9973786 1.0069475
000150 53 8a 7e 3f ec 6e 80 3f 91 0b 80 3f 0d 8e 7e 3f
       0.99429816 1.0033851 1.000353 0.994355
000160 00 00 80 3f 64 b2 7e 3f fe 22 80 3f ba 67 7e 3f
       1.0 0.9949095 1.0010679 0.99377024
000170 dc 96 80 3f c7 31 7d 3f 67 0a 81 3f 3e 3c 7b 3f
       1.0046039 0.9890408 1.00813 0.981388
000180 f9 1f 81 3f 4d 13 7c 3f 3e 8d 7b 3f 00 00 80 3f
       1.0087882 0.9846695 0.98262393 1.0
000190 e7 f6 80 3f 71 a6 81 3f ff 5e 80 3f d7 bc 81 3f
       1.0075349 1.0128919 1.002899 1.0135754
0001a0 1a bd 7e 3f 96 88 80 3f ba 51 80 3f c4 a4 7f 3f
       0.99507296 1.0041683 1.0024941 0.9986079
0001b0 b3 d0 79 3f e9 e5 7f 3f fb 5b 81 3f 00 00 80 3f
       0.97584075 0.9996019 1.0106195 1.0
0001c0 67 70 81 3f 00 00 80 3f c7 01 81 3f 2b 0e 7c 3f
       1.0112427 1.0 1.0078667 0.9845912
0001d0 44 42 7f 3f 54 1d 81 3f 3d 75 7d 3f 98 4b 81 3f
       0.9971049 1.0087075 0.99007016 1.0101194
0001e0 42 b7 7b 3f 6e fd 80 3f 5f 69 81 3f 07 2a 7d 3f
       0.98326504 1.0077341 1.0110282 0.98892254
0001f0 aa 38 7f 3f 00 00 80 3f fc d9 7b 3f a0 7c 80 3f
       0.9969584 1.0 0.9837949 1.0038033

bn1.bias f4 [128]
000000 ea f4 31 bc af 80 83 bc 97 69 3d b8 41 76 72 3b
       -0.010861615 -0.016052572 -4.515945e-05 0.0036996754
000010 d2 e1 ed bc ef 30 a3 ba e6 18 ef bb cc d5 b0 bb
       -0.029038344 -0.0012450496 -0.0072966693 -0.0053965803
000020 02 57 0f 3c 9a 09 a6 3b b5 79 0f 3d 4f 3b 98 3c
       0.008748772 0.0050670626 0.03502818 0.018582968
000030 01 fa f3 3c d3 33 39 3b 3b 3f 16 bc 21 68 9f bc
       0.029782297 0.002825965 -0.009170349 -0.019458832
000040 fc 48 b2 3b 1a 86 11 3c aa 21 70 3b de a8 e0 ba
       0.0054408293 0.00888207 0.003664116 -0.001714017
000050 df 98 ac 3b f6 6a b2 3c d3 7e a1 3b 80 eb 1c bc
       0.005267247 0.021779519 0.0049284487 -0.009577632
000060 ed 16 e1 bb 85 48 af bc 1c db 57 3c 3a 20 df bb
       -0.006869188 -0.021396885 0.013174798 -0.0068092616
000070 bd 45 69 bc 02 05 d1 ba c5 38 c8 3b 7d ec 7c bc
       -0.014237818 -0.0015946927 0.006110283 -0.015437243
000080 ea f0 a0 3a b4 3f ed 3b 7f e8 ef 3c 7e 2f 57 3c
       0.0012278829 0.00724026 0.029285667 0.013133882
000090 39 15 c0 3c b7 1f 44 3a f4 50 18 3c ed 2a f8 3c
       0.02344762 0.00074815325 0.0092966445 0.030293906
0000a0 00 d6 16 3c 36 7c f9 3c d9 cc b3 bb 07 1f 11 bc
       0.009206295 0.030454736 -0.005487066 -0.008857495
0000b0 93 87 96 bc ed ee 9c bc da e7 e8 ba c9 04 0a bc
       -0.018375194 -0.019156897 -0.0017769292 -0.008423992
0000c0 ee 82 3f bc 47 a7 1a bc 83 19 0d 3b e5 45 a9 3a
       -0.011688931 -0.009439296 0.0021530099 0.0012914507
0000d0 7d 5d bc 3c f5 e5 9d 3c 56 97 e1 3a a0 e8 df bc
       0.022993797 0.019274691 0.0017211239 -0.027332604
0000e0 b5 88 81 3b 18 13 12 bd 31 3b 48 ba cd 0a 59 bb
       0.0039530643 -0.03566274 -0.0007638215 -0.003311801
0000f0 49 26 30 3c 49 af a7 3b 54 a4 ac 3c 84 bc 2c 3b
       0.010751315 0.005117331 0.021074452 0.0026357481
000100 50 81 bb 3c 36 e9 53 bc c4 5c da 3c bd 34 9c bb
       0.02288881 -0.01293402 0.026655562 -0.004767029
000110 d3 9e 1b 3c a3 3e 2a 3c 55 57 f1 bc 8b 10 b8 3c
       0.009498316 0.01039091 -0.029460588 0.022468826
000120 98 55 f3 3b a5 55 e9 bc 19 17 3a bb 30 2c 85 3a
       0.007425975 -0.028483221 -0.0028395115 0.0010160264
000130 2f 43 dc ba 5b 40 1b bc 0e c5 13 3b 52 88 94 3c
       -0.001680469 -0.009475793 0.0022547874 0.018131409
000140 b6 4c 1a 3c c7 6d 2a 3c 32 75 08 3c 01 d9 84 3c
       0.009417703 0.0104021495 0.008328723 0.016216757
000150 84 18 98 3c cf 02 c2 3c a8 d4 7d 3c e6 d2 e0 ba
       0.018566377 0.02368298 0.015492596 -0.0017152696
000160 58 17 26 3d 2f 83 15 bb c3 b6 10 3c 38 a7 81 bb
       0.040549606 -0.0022813787 0.008832636 -0.0039567016
000170 a5 29 94 bc 00 f3 e2 3c 86 b4 42 3b b2 be ae bb
       -0.018086264 0.027703762 0.002970965 -0.0053327912
000180 14 79 4c bc dc 3c 12 ba 8c ee 74 bc b4 49 74 3c
       -0.012480039 -0.0005578527 -0.014949452 0.01491015
000190 57 bd 09 bc d5 58 4d 3c d9 83 06 3d 8a 2e 9b bb
       -0.008406959 0.012533386 0.032840583 -0.0047357725
0001a0 19 3d 2f 3c 4e a9 e1 bb 90 59 d1 b9 73 74 0a bc
       0.010695719 -0.006886638 -0.00039930316 -0.008450615
0001b0 ea 2d bc bc d0 83 7d bb 28 2d 96 bb e0 5c ba bb
       -0.022971112 -0.0038683303 -0.0045830198 -0.005687341
0001c0 ef e2 6f bb 5a a3 bb 3c 0c 8c 3f bc 3a fd 62 ba
       -0.0036603769 0.02290504 -0.011691105 -0.00086589495
0001d0 61 a5 7c 3c 07 e5 1f 3c 45 40 da 3c a0 00 b0 bc
       0.015420289 0.009759194 0.026641974 -0.021484673
0001e0 df 3b af 3c e3 1b bd bb 2a 94 5d 3c 12 95 c8 3b
       0.021390853 -0.0057711466 0.013524095 0.006121286
0001f0 7d 43 1e bc 56 55 04 3d 42 7c ec 3b a7 4a 37 3b
       -0.009659645 0.032307945 0.007216961 0.002796808

bn1.running_mean f4 [128]
000000 6f f9 8d 3b 00 00 00 00 b3 d3 32 3d 5e 8e 01 3d
       0.0043327133 0.0 0.043658923 0.031629913
000010 f8 c0 9a 3a ce 96 a5 3b 6f 64 e7 3e 52 f3 2d 3b
       0.0011806777 0.0050533777 0.45193812 0.0026542735
000020 de 2a 4f 3d 5f 71 c1 36 1f fe a2 3e 00 00 00 00
       0.05057799 5.7650464e-06 0.31834504 0.0
000030 00 00 00 00 0c 28 e1 3d e7 20 e1 3e 5c 31 6d 3a
       0.0 0.109939665 0.43970415 0.00090481876
000040 f2 c4 c5 3d 24 c7 c1 3a be f7 33 3f d9 4a 30 3f
       0.09656705 0.001478408 0.702999 0.6886421
000050 6a 1b 5c 3a 00 00 00 00 00 cb 45 3b 9d c9 6f 3d
       0.0008396419 0.0 0.0030180812 0.058541883
000060 4b 04 05 3b 04 00 00 00 c6 e3 8f 3b cb 62 0b 3d
       0.0020296748 6e-45 0.0043911664 0.034029763
000070 4a 31 5d 3a 1d d9 af 3d 59 5e 0f 3a db cd 14 39
       0.00084378256 0.08586333 0.0005469076 0.00014191067
000080 fe 3b 44 3d 9d 6a d7 3e 00 00 00 00 3a 25 c9 3e
       0.047908776 0.42073527 0.0 0.39286214
000090 15 30 ad 3c ad ea 81 3e a3 a9 8d 39 f0 88 1d 33
       0.021141091 0.25374356 0.00027020005 3.6678955e-08
0000a0 e2 7b 86 3e 00 00 00 00 e0 6d 35 3e b2 40 7b 3d
       0.2626639 0.0 0.17717695 0.061340995
0000b0 8d 9e 2a 3e 6c e6 1c 3e a1 7c b0 3e 4f f5 62 3d
       0.16662045 0.15322274 0.34470084 0.055409726
0000c0 d1 24 9d 38 b4 d1 7d 3a 8f 3c 37 3b c0 dc d3 3c
       7.493201e-05 0.0009682432 0.002795968 0.025862098
0000d0 00 00 00 00 2d 2c 0e 3f f7 b6 c3 3d 1c 2e e1 3a
       0.0 0.55536157 0.09556382 0.0017179879
0000e0 b6 7f c3 3d fd 5c 14 3e ba db ff 3e e6 3e d6 3e
       0.09545843 0.14488597 0.49972326 0.41844863
0000f0 5e f1 ed 39 e6 64 fe 3d 2d 8b 17 3b cf 36 06 3f
       0.00045383995 0.124215886 0.0023123727 0.5242738
000100 3e 9b 62 3b 00 00 00 00 53 99 80 3e 31 ca 01 3f
       0.0034577395 0.0 0.25116977 0.50699145
000110 ee 04 79 3b 04 00 00 00 00 00 00 00 01 32 c6 3c
       0.0037997323 6e-45 0.0 0.024193766
000120 3d 1f 67 3b 52 15 3e 39 b2 0a ec 3e 0d 96 a8 3c
       0.0035266422 0.00018127754 0.4610191 0.020579362
000130 99 26 18 3f 92 6e 99 3e 73 d1 22 3e 00 00 00 00
       0.59433895 0.2996717 0.15900211 0.0
000140 00 00 00 00 5a f4 22 3f 7b a7 57 3e bc 5e 65 3e
       0.0 0.636541 0.21059982 0.2239942
000150 0a e2 f7 3c 9b 4f 2a 3f f9 29 91 3e 8e 27 3d 3e
       0.030259151 0.6652772 0.28352335 0.1847212
000160 00 00 00 00 b1 aa 5e 3b 07 a4 4c 3a d6 59 2e 3f
       0.0 0.0033976252 0.00078064244 0.6810583
000170 c3 2c fa 3a 44 2b 70 3b 8c 37 04 3f be 95 01 3e
       0.0019086826 0.0036646882 0.5164726 0.12654778
000180 5c ba 2f 3c f5 21 04 3a d1 0b 77 3b 00 00 00 00
       0.010725584 0.00050404604 0.0037696252 0.0
000190 33 56 dc 3e 08 08 51 3e 34 a9 c3 3c 83 92 ed 3e
       0.43034515 0.2041322 0.023884393 0.46400842
0001a0 56 07 55 3e a6 79 36 3e 2f e7 22 3f cf 00 1b 3c
       0.2080358 0.17819843 0.6363401 0.009460642
0001b0 b7 f6 b7 38 b4 00 40 3f 18 cc ca 3c 00 00 00 00
       8.772074e-05 0.7500107 0.024755523 0.0
0001c0 f9 f9 60 3e 00 00 00 00 d9 59 5e 3e 31 71 0a 3b
       0.21970357 0.0 0.21713962 0.0021124596
0001d0 04 00 00 00 f4 03 ea 3c 3b 2b 0e 3f b2 f1 54 3c
       6e-45 0.028566338 0.55534714 0.012997078
0001e0 cc 26 50 3d af a6 0d 3e cb 54 3c 3e e9 ce 89 3e
       0.05081825 0.13833116 0.18391721 0.26915672
0001f0 5b 9b 81 3d 00 00 00 00 2e 09 e6 3c b5 02 3c 3d
       0.0632846 0.0 0.02808055 0.04590102

bn1.running_var f4 [128]
000000 0d 16 cf 3a 04 00 00 00 81 34 32 3b bd 21 a8 3b
       0.0015799418 6e-45 0.002719194 0.005130975
000010 73 8d 1a 39 4c 82 db 39 4f 9e 55 3d 88 58 19 3a
       0.00014739278 0.00041868014 0.052152928 0.0005849679
000020 3d 1c d2 3b 47 c3 dd 33 3b fb 80 3b 04 00 00 00
       0.0064120577 1.0326635e-07 0.003936199 6e-45
000030 04 00 00 00 3b 7a 4c 3c 72 9b 15 3d 65 2a ac 38
       6e-45 0.012480314 0.036525197 8.209496e-05
000040 f0 7a 8d 3a 05 1b 69 39 53 16 72 3d 1a 0a 85 3b
       0.0010794085 0.00022230677 0.05910332 0.004060042
000050 3a 7f 69 39 04 00 00 00 e6 65 83 38 ed c5 af 3b
       0.00022268007 6e-45 6.265547e-05 0.0053641708
000060 23 98 c2 39 04 00 00 00 c3 64 da 3a 5d 11 f5 3a
       0.00037115914 6e-45 0.0016662109 0.0018697191
000070 af 61 68 39 e0 0e ce 3a 30 9a fb 37 9d eb 67 37
       0.00022161634 0.0015720986 2.999333e-05 1.3823531e-05
000080 15 b2 23 3b 04 e6 fe 3c 04 00 00 00 4c 1d 8c 3d
       0.0024977971 0.03111554 6e-45 0.068415254
000090 66 78 0c 3a 05 9a 85 3d 00 30 f2 37 78 f1 cb 2f
       0.0005358517 0.065235175 2.8871e-05 3.709706e-10
0000a0 37 ed 75 3d 04 00 00 00 89 9c e0 3c 82 df b1 3b
       0.06004068 6e-45 0.027418392 0.0054282555
0000b0 7e 4a e9 3c 83 fb c4 3c ff d6 1d 3b 0a d2 54 3b
       0.028477903 0.024045711 0.0024084446 0.0032473826
0000c0 3e bb ac 37 78 14 c0 38 5f 12 30 3a a6 52 ed 3b
       2.059119e-05 9.159086e-05 0.00067166047 0.0072425185
0000d0 04 00 00 00 ba 5a 0c 3a 59 78 1e 3c c3 dc 2b 38
       6e-45 0.00053540955 0.009672248 4.0975177e-05
0000e0 f1 8b a7 3c 27 50 38 3a 20 92 fb 3c 0f dd 7c 3c
       0.020452471 0.00070309866 0.030709326 0.015433564
0000f0 92 74 a9 37 11 3d 86 3c 1d e2 08 3a 28 b0 c3 3c
       2.0200652e-05 0.01638654 0.0005221682 0.023887709
000100 35 73 87 3a 04 00 00 00 a7 c4 df 3b 7d 13 7f 3c
       0.0010334017 6e-45 0.0068288627 0.015568611
000110 50 3d a8 3a 04 00 00 00 04 00 00 00 03 3a fd 3a
       0.0012835655 6e-45 6e-45 0.0019319657
000120 0c 95 9b 3a 8d 6a 85 37 c4 f3 91 3c a9 88 92 3b
       0.0011869981 1.5904452e-05 0.017816432 0.0044718576
000130 8b e9 b2 3b f1 87 36 3d 47 62 11 3c 04 00 00 00
       0.0054599694 0.044563238 0.008873529 6e-45
000140 04 00 00 00 f1 0c f9 3c 2f a6 39 3d b8 90 df 3c
       6e-45 0.030401679 0.0453245 0.027290687
000150 28 fa 90 3a 66 da 19 3d a9 2c b0 3c 7b 5a 65 3c
       0.001106088 0.037561797 0.02150567 0.013998623
000160 04 00 00 00 61 ea 93 3a 33 27 80 38 e0 c4 69 3d
       6e-45 0.001128506 6.110817e-05 0.05707252
000170 28 87 bf 39 e4 88 a1 3a e9 37 33 3d 90 0d 16 3c
       0.00036531058 0.0012324122 0.043754492 0.009158507
000180 ab 6b 86 39 39 d5 52 38 e2 6c b2 3a 04 00 00 00
       0.0002563869 5.026648e-05 0.0013612772 6e-45
000190 2b e8 78 3c 5a 3a 30 3d dc 1e b1 3b 66 3b 08 3d
       0.015192072 0.0430244 0.00540529 0.03325977
0001a0 90 0c 84 3a ab b3 aa 3a 42 d2 13 3c 0b 64 30 3b
       0.0010074545 0.0013023516 0.009022297 0.00269151
0001b0 79 0c 2f 37 25 37 af 3c 14 e8 30 3b 04 00 00 00
       1.0433717e-05 0.0213886 0.0026993798 6e-45
0001c0 b9 89 13 3d 04 00 00 00 6f cc 1e 3d 4c 8c ec 39
       0.036020014 6e-45 0.03876918 0.00045117957
0001d0 04 00 00 00 b9 9a 5a 3a 68 0a 61 3c 9f b8 8a 3b
       6e-45 0.00083390955 0.013735391 0.0042334343
0001e0 78 eb dd 3b 02 8f 97 3c 16 2a 6a 3b 01 5a 31 3d
       0.006772455 0.018500809 0.0035730652 0.043298725
0001f0 68 92 89 3b 04 00 00 00 6e ee 90 3a 45 ec 94 3b
       0.004198361 6e-45 0.0011057386 0.004544767

fc2.weight f4 [64, 128]
000000 c6 6d 53 bd cd 53 d4 3b 1d 51 95 3c dc 12 60 bc
       -0.05161836 0.0064797164 0.018227154 -0.013676371
000010 08 7c 7b bd 51 7c a9 3d a9 79 4f bd f6 a7 95 3d
       -0.061397582 0.082756646 -0.050653134 0.07307427
000020 44 a9 ba bd b3 94 31 bb 54 d9 72 3d e4 b5 01 bd
       -0.09114316 -0.0027096688 0.05928929 -0.031667605
000030 ef 0f 9b 3d 93 fe 7a bd b7 d0 a1 bd eb 89 25 bd
       0.075713985 -0.061277937 -0.07901137 -0.040414732
000040 e1 8a 35 3d 55 eb a3 3d 03 fb 13 bd 67 09 29 3d
       0.0443219 0.080038704 -0.036128055 0.041268732
000050 07 62 d7 bc 60 cf d1 bb 3d a7 8d 3d 55 46 8b bd
       -0.02629186 -0.006402895 0.06916664 -0.06800524
000060 dc 88 2a 3c 70 c3 a8 3d ce 32 45 bc 05 0e 6a 3d
       0.010408606 0.08240402 -0.012036039 0.057142276
000070 15 8b d4 bc fa f9 93 3d 92 7d ab bd 3e 10 20 bc
       -0.025945226 0.072254136 -0.0837356 -0.009769497
000080 37 59 9c bc 83 8b ea 3c 20 d6 1b 3d 78 c3 92 3d
       -0.01908551 0.028630977 0.038046002 0.07166189
000090 c1 8b 2a bc 43 8f 0c bc cb 61 5c 3d 90 d5 a0 bc
       -0.0104092965 -0.008579078 0.0538042 -0.019633085
0000a0 01 3f 94 3d a1 87 71 bd cd ea 1a bc aa 4b 8a ba
       0.072385795 -0.058967236 -0.009455395 -0.0010551114
0000b0 91 39 1a 3d 0d 12 7e 3d 22 c0 18 bc e2 bf 87 bd
       0.037652556 0.062028933 -0.009323152 -0.066283956
0000c0 b4 53 50 3d d6 ad bf 3c de ec 18 3d 13 22 96 bd
       0.050861076 0.023398321 0.03733527 -0.07330718
0000d0 13 05 5e 3d ed 6b b4 3d 36 e9 8e 3b a1 ac 86 bd
       0.054204058 0.08809648 0.004361297 -0.06575895
0000e0 d4 be 3e 3d ad 6a 8b bd 4e ce c6 3c 40 e4 20 3c
       0.046568707 -0.06807456 0.024268296 0.009820044
0000f0 99 ba 2c bd ae 89 e1 3c 9c 10 a1 bd 36 ee 9d 3c
       -0.04217014 0.027531471 -0.07864496 0.019278627
000100 80 e3 5e bd d7 32 34 bc 1e 3b 2c 3c fa 6c 9d 3d
       -0.05441618 -0.010998449 0.0105121415 0.07686801
000110 12 e0 21 bd 64 08 82 3d 89 ca 51 bc 4c 24 56 bd
       -0.03952033 0.06349257 -0.012804636 -0.05228071
000120 bd d1 9c bd 21 14 9f bd 5d 38 cc 3d 6b 34 2f bd
       -0.07657192 -0.07767511 0.09971688 -0.0427746
000130 76 a9 62 3d 93 e5 b2 3c b1 5a 8b 3d 1a cf ae 3d
       0.05533739 0.021837985 0.068044074 0.08535595
000140 6b 8b ac 3d dc 31 72 bd 06 78 7f bc aa 97 45 bd
       0.08425029 -0.05912958 -0.015592581 -0.04824034
000150 66 43 1a bd e8 51 c9 3c 28 b7 b3 3d 99 40 a3 bd
       -0.037661932 0.024575189 0.08775169 -0.079713054
000160 a7 fd 65 3d 75 f0 44 bd e4 7c 74 bc c8 e9 97 3d
       0.056150105 -0.04808088 -0.014922354 0.07417637
000170 31 dd a3 bc 40 45 0b 3c 58 b7 62 bd 8d ae a8 3d
       -0.020002933 0.008500397 -0.05535063 0.08236418
000180 ba 15 73 3c 10 6d a9 bd d6 92 d2 3c be 5a 74 bd
       0.014836723 -0.08272755 0.025704782 -0.05965685
000190 37 ad 89 bd c5 46 f8 3b 47 8d 57 3d e2 a0 cd bc
       -0.06722491 0.0075767958 0.052624967 -0.025101129
0001a0 f6 49 28 3d ae 9a b5 3d df ad 54 3d fe a9 6f bd
       0.04108616 0.088673934 0.05192363 -0.058511727
0001b0 86 2c 1c bb 78 48 c2 bc 7b 19 a0 bd 54 ef 14 bc
       -0.002383025 -0.023716196 -0.0781736 -0.009090263
0001c0 90 01 8d 3d ec a7 a6 3d 5b e4 81 3b a3 b0 1d bb
       0.06885064 0.08137497 0.0039639897 -0.0024061583
0001d0 e6 7f 0f bd ab 42 88 3d d1 fc 03 bd b8 21 9b bd
       -0.035034083 0.06653341 -0.032223526 -0.07574791
0001e0 85 39 90 bb 74 af 71 3d 1a cc ab bd 2d b4 a8 3d
       -0.004401388 0.059005216 -0.08388539 0.08237491
0001f0 6b 49 fd 3c 27 42 34 bd 94 e4 e5 bc 3d b2 86 3d
       0.030918797 -0.0440084 -0.028063096 0.06576965
000200 27 33 8c bd eb ea 26 bd 2e a3 c1 3c 6e 9a 9f bd
       -0.06845694 -0.04075138 0.02363738 -0.07793127
000210 fa c4 54 3d 8f f6 4c 3d 02 9c 7d 3d 40 a1 6e bd
       0.051945664 0.050039824 0.06191636 -0.05825925
000220 28 b1 a6 3d e6 42 10 bd 96 fa b6 3d 6f a3 7d bd
       0.081392586 -0.03522005 0.08934514 -0.06192344
000230 9a 66 5a bd 55 87 7c 3d 0f 89 5b bb 87 5f c3 3b
       -0.053320505 0.0616525 -0.0033498441 0.0059623155
000240 be ab 33 bd 86 61 09 bd b9 7b 7b bc 36 41 ba bd
       -0.043864958 -0.03354027 -0.015349322 -0.09094469
000250 99 fc 9b bc 96 a8 bc 3c 52 60 92 bb 90 37 b2 3c
       -0.019041346 0.023029607 -0.0044670487 0.02175501
000260 22 d4 a4 3d 0d 0c 73 bb 25 82 eb bc f5 4a 24 bd
       0.080482736 -0.003708604 -0.028748581 -0.040110547
000270 66 98 a3 bd da 59 3b bd 39 ad 57 bc 94 42 04 bd
       -0.07988052 -0.045739986 -0.013163858 -0.032290056
000280 cd d5 f7 3c be 4b e9 bc b1 0c b5 3d 99 7f 59 bd
       0.030253315 -0.0284785 0.08840311 -0.053100202
000290 8b f1 21 3b 15 43 90 3d 62 e9 82 3d bf da 3d bd
       0.0024710621 0.07044045 0.063921705 -0.04635119
0002a0 d2 15 d7 3b 90 94 12 3d 2b d2 03 bd fa 9c 14 bd
       0.0065638805 0.03578621 -0.032182854 -0.036282517
0002b0 58 1a fd 3c ef e4 54 bd 96 11 d2 3b b9 c6 54 3d
       0.03089635 -0.05197614 0.006410788 0.05194733
0002c0 5a 96 4b bd 37 b7 9b 3d a9 e9 d1 bb 87 b6 25 3d
       -0.049703933 0.07603305 -0.0064060283 0.040457275
0002d0 90 1d e2 3d 9a 59 ff bc 8d 72 64 3d ea c4 bf bb
       0.11040795 -0.031170655 0.055773307 -0.0058523314
0002e0 b2 6a 82 bc b7 0d 60 bc 46 81 08 3c 4f 95 61 bd
       -0.015920017 -0.013675145 0.008331602 -0.055074032
0002f0 fc 40 be 3c ff 44 f1 3b 67 2d 70 3d e5 05 0d bd
       0.023224346 0.0073629613 0.05863705 -0.03442945
000300 d5 fb 4d 3c 58 e6 6c bd 02 67 b9 bd 71 07 c5 3c
       0.0125722485 -0.05783686 -0.0905285 0.0240514
000310 31 91 50 3c 87 dd 03 bd ad ae 5e bd db ea b4 3c
       0.012729929 -0.032193687 -0.054365803 0.022084644
000320 4f a8 64 bc 91 bf 6c 3c 0f 35 ef 3b ee 16 07 3d
       -0.0139561435 0.01444997 0.0073000262 0.03298085
000330 30 ac 2e 3d ef 76 fe bc 71 eb 3c 3d 27 f8 80 3d
       0.04264468 -0.031062571 0.046122972 0.06297331
000340 a1 b1 b3 3c f2 2b d4 3c 07 85 f5 bb 43 45 5c 3d
       0.021935286 0.025899861 -0.0074926647 0.05377699
000350 29 89 e7 bc 6b f0 1d bd 47 77 85 3d ae 7e a3 bd
       -0.028263645 -0.03855936 0.06516891 -0.079831466
000360 93 b4 d5 3c c7 c4 1c bd 56 09 73 3d 88 59 9a bd
       0.026087081 -0.0382736 0.059335075 -0.07536608
000370 42 ff 5e 3d 75 8e ba 3d d5 66 e7 3c f7 65 bf 3a
       0.05444265 0.09109203 0.028247276 0.0014602531
000380 2a c4 c4 3d b8 da 40 bd a8 d6 d4 bb f3 f8 63 bc
       0.09607728 -0.047083586 -0.0064953156 -0.013914335
000390 a4 e7 9e bc c0 60 e4 3c 07 59 53 3c 00 ba e7 bc
       -0.019397564 0.027878165 0.012899644 -0.028286934
0003a0 56 77 9a bd c6 b4 9c 3b 65 83 fc bc f4 bd 81 3c
       -0.07542293 0.004782292 -0.030824373 0.015837647
0003b0 7d 7b 34 3d 92 e7 b5 3d 89 c7 68 bd 02 ff b4 bc
       0.04406308 0.08882059 -0.056830917 -0.022094253
0003c0 c1 ba dd bc b9 bc 7a bd 51 c7 91 bd 5b fc 75 3d
       -0.02706659 -0.061215136 -0.07118095 0.060055118
0003d0 f7 de 8d 3d 5d 2c 65 3d a9 ca 55 3d 60 f1 8d bd
       0.06927293 0.05595051 0.052195225 -0.06930804
0003e0 fe 50 ee 3b c6 7e c2 3d 8e 53 7d bd ed 7d b0 3d
       0.0072728386 0.09496836 -0.061847262 0.086177684
0003f0 81 98 09 3d fe 46 9d 3d 03 63 fe bc d8 e2 18 3d
       0.033592705 0.07679556 -0.031053072 0.03732571

fc2.bias f4 [64]
000000 d7 45 7a 3c 1e fd bb 3d 8f 9f 42 3d f9 9e 14 bd
       0.01527544 0.09179138 0.04751545 -0.03628442
000010 c7 8f fe bc e5 7d 24 3d f2 92 74 bd 05 ee c5 bb
       -0.031074418 0.040159125 -0.05971045 -0.006040337
000020 d1 32 d2 3c 78 91 2e bd f4 40 1c 3d c2 f5 62 3c
       0.025658997 -0.0426192 0.03814788 0.013852539
000030 1a f0 ab 3d 84 e8 85 bd c9 97 7b 3d fb 0b 96 3d
       0.08395405 -0.065384895 0.06142405 0.07326504
000040 3b 65 3f bd 4d a7 ea 3c ad a8 26 bb 9b ad 98 3d
       -0.0467274 0.028644228 -0.0025430128 0.074549876
000050 2c dd 86 3d 9a 90 1a bd ad 41 12 bd 76 10 56 bd
       0.06585154 -0.03773556 -0.035707165 -0.052261792
000060 38 31 a1 3d 52 43 75 bd 2b 27 3e bd 08 7a 97 3d
       0.07870716 -0.059878655 -0.046424072 0.073963225
000070 a6 f6 59 3d 6c 17 8e 3d 36 48 87 3d ad 78 7e bd
       0.053213738 0.06938061 0.0660557 -0.062126804
000080 07 0b f6 bb aa 6d 2e 3b 58 11 ef 3d 7a c0 a2 3a
       -0.007508639 0.0026615658 0.1167323 0.0012416982
000090 80 eb 9e bb 6c 9c 94 3d c0 b1 67 3d 24 0f 60 bd
       -0.004849851 0.072563976 0.056566 -0.05470194
0000a0 f5 34 87 bd 1f a3 34 bc ba f5 2f 3d fc ce da 3d
       -0.066018976 -0.011025219 0.042958952 0.106840104
0000b0 87 0e 4c 3d ca a1 8f 3d 28 9a 09 3d 9f 5b 85 3b
       0.04981854 0.07013281 0.03359428 0.00406976
0000c0 c0 49 cf ba 45 3d 9b 3d 7e 1e a7 3c 0a e5 cf 3b
       -0.0015814826 0.075800456 0.020400282 0.0063444423
0000d0 d6 d8 9a 3d 0e d8 93 3d 09 9e 60 3c 06 4a 00 3b
       0.075608894 0.072189435 0.0137095535 0.0019575371
0000e0 06 6c 01 bd 28 c7 10 bd 49 59 d0 bc 9e 3a aa 3d
       -0.03159716 -0.03534618 -0.0254332 0.083119616
0000f0 df 58 8e 3d c2 87 24 bd aa e6 99 3d 18 63 93 ba
       0.069505446 -0.04016853 0.07514699 -0.0011244742

bn2.weight f4 [64]
000000 e6 a1 81 3f 49 2b 7a 3f b8 8e 82 3f 88 c8 80 3f
       1.0127532 0.977223 1.0199804 1.0061197
000010 12 69 73 3f 89 d7 79 3f 9c 27 81 3f de c9 76 3f
       0.950822 0.97594506 1.0090213 0.96401775
000020 d1 76 7c 3f 56 fb 76 3f dc 85 81 3f c1 3c 7b 3f
       0.986188 0.9647726 1.0118976 0.9813958
000030 dd 33 7c 3f d3 10 80 3f 88 37 7a 3f 85 90 7c 3f
       0.9851664 1.0005134 0.97740984 0.9865802
000040 26 77 7b 3f 6f f1 76 3f c3 66 81 3f cd 40 81 3f
       0.9822868 0.9646215 1.0109485 1.0097901
000050 c5 7b 7d 3f 74 64 7d 3f 5e 1f 7d 3f f7 ff 80 3f
       0.9901698 0.98981404 0.9887599 1.0078114
000060 7e d4 7b 3f 69 aa 79 3f 0a ea 80 3f 48 45 81 3f
       0.9837111 0.9752565 1.0071423 1.0099268
000070 e2 67 7d 3f 5c 6e 7c 3f b4 4f 85 3f 4a e7 7a 3f
       0.9898664 0.98605895 1.0414948 0.9800917
000080 89 00 7c 3f 03 ff 83 3f 0b 9c 80 3f 1c 6b 7e 3f
       0.98438317 1.0312198 1.004762 0.99382186
000090 b3 f1 80 3f 41 25 7b 3f 58 38 7b 3f ed a7 7d 3f
       1.0073761 0.9810372 0.9813285 0.9908436
0000a0 b1 ce 77 3f 56 ce 7b 3f 9e a5 79 3f 03 ea 7a 3f
       0.9679976 0.9836172 0.97518337 0.98013324
0000b0 20 31 81 3f 22 44 80 3f 1c 94 77 3f 02 80 7b 3f
       1.0093117 1.0020792 0.9671037 0.982422
0000c0 9e ef 77 3f 2e 2c 78 3f 8a eb 7b 3f c9 01 83 3f
       0.9685 0.9694241 0.9840628 1.023492
0000d0 e1 d7 80 3f 03 b6 79 3f 49 96 7a 3f a3 e0 80 3f
       1.0065881 0.9754335 0.97885567 1.0068554
0000e0 01 73 83 3f b3 50 7e 3f ad f4 81 3f ee 57 81 3f
       1.0269471 0.9934189 1.0152794 1.0104959
0000f0 a0 61 7a 3f 7c 78 77 3f 5f 12 82 3f 90 be 7d 3f
       0.97805214 0.9666822 1.0161856 0.991189

bn2.bias f4 [64]
000000 92 96 23 3f 00 ed 19 bf b9 0b 08 3f 28 29 12 3f
       0.6390163 -0.6012726 0.5314289 0.5709405
000010 57 01 29 3f 79 b3 1c 3f 64 93 17 bf b4 8d 24 3f
       0.6601767 0.61211354 -0.59209275 0.6427872
000020 de 48 0c 3f 7a a9 0d 3f 69 5e 0c bf 24 89 15 bf
       0.54798687 0.55336726 -0.5483156 -0.58412385
000030 64 9a 08 3f 17 c4 0f 3f 60 c1 14 3f 0e 3d 08 bf
       0.5336058 0.56158584 0.58107567 -0.5321816
000040 07 c6 0f bf 4a 63 1d bf 0c 1b 15 bf ec a9 28 bf
       -0.5616154 -0.6147963 -0.58244395 -0.6588428
000050 3d d7 0b bf 0b 49 07 3f 28 19 0b bf 3e c1 15 bf
       -0.546253 0.5284583 -0.5433526 -0.5849799
000060 b1 c8 19 bf 30 d6 10 bf 3d 3f 28 3f e6 3a 16 3f
       -0.60071856 -0.56576824 0.65721494 0.5868362
000070 e3 15 1c 3f 3d b2 0c 3f a9 d9 31 3f 27 d6 14 bf
       0.60970896 0.5495947 0.6947275 -0.5813927
000080 c7 54 21 bf 85 96 30 3f a9 49 1a bf af c5 09 3f
       -0.63019985 0.68979675 -0.60268646 0.53817266
000090 e6 d4 10 3f 38 3b 09 3f 2c 9a 08 bf 72 25 08 3f
       0.5657486 0.53605986 -0.5336025 0.53182137
0000a0 60 85 12 bf 69 23 0d bf d9 cb 1d 3f b3 97 23 3f
       -0.57234764 -0.55132157 0.6163917 0.6390335
0000b0 7e 2b 0e bf 2f aa 0c 3f a0 06 0d 3f 41 f3 22 3f
       -0.55535114 0.5494718 0.55088234 0.63652426
0000c0 bf fd 27 3f c8 a0 19 3f 8e 16 2b bf 18 26 15 bf
       0.6562156 0.6001096 -0.6683129 -0.5826125
0000d0 f5 69 12 bf 74 42 1e bf 68 2f 0f bf b0 d6 17 3f
       -0.5719293 -0.6182015 -0.5593171 0.5931196
0000e0 2f 2b 29 bf 8e 55 1a bf 96 d2 1c bf 2c 18 1c 3f
       -0.6608152 -0.60286796 -0.6125883 0.60974383
0000f0 d6 64 0d bf 40 b3 10 3f b3 d7 10 3f 15 7e 05 3f
       -0.5523199 0.56523514 0.5657913 0.5214551

bn2.running_mean f4 [64]
000000 7a ed 04 3f ad 0e d9 3e 41 a7 bb 3e d0 de 04 3f
       0.5192486 0.4239401 0.36651042 0.51902485
000010 85 9a 40 3e 78 c5 b2 3e 8a ed 7a 3d 3d 04 09 3e
       0.18808945 0.34916282 0.06126169 0.13380523
000020 7e ef c9 3e de 3d 80 3d 00 a5 e7 3e ae 58 a5 3e
       0.3944053 0.062618 0.45243073 0.3229422
000030 70 61 ab 3e 4e 2d d6 3e f3 4c 3b 3e af c4 83 3e
       0.33472776 0.4183144 0.18291073 0.25735995
000040 60 36 9d 3e 39 2a 81 3e e1 7c d4 3e 1e e4 05 3f
       0.30705547 0.25227526 0.41501525 0.52301204
000050 bc e2 9e 3e 9b 26 80 3e a9 b4 af 3e 57 cc 87 3e
       0.3103236 0.25029454 0.3431752 0.26523086
000060 ce 4c eb 3e e0 fb 9d 3e 84 80 f8 3e 3b 91 be 3e
       0.45957035 0.30856228 0.4853555 0.37220177
000070 09 7d a1 3e db d5 11 3f e5 2d bd 3e d8 1a 6d 3e
       0.31540707 0.5696694 0.36949077 0.23154771
000080 c0 48 e6 3e e3 4f f2 3e 39 06 ba 3e c2 2a 85 3e
       0.4497738 0.47326574 0.36332873 0.26009184
000090 24 b1 da 3e a3 66 7c 3e 02 40 1d 3e a8 e1 7c 3e
       0.42713273 0.24648528 0.15356448 0.24695456
0000a0 8e c4 17 3e 5c 44 e4 3e b8 2d b0 3e 0c 67 2b 3f
       0.14821073 0.44583404 0.3440988 0.6695411
0000b0 60 1d c8 3e f0 d4 d8 3e 95 ba a8 3e b1 19 ee 3e
       0.3908491 0.42349958 0.3295485 0.46503976
0000c0 88 f5 9e 3e 6d 60 85 3e d5 88 e7 3e 86 1f 98 3e
       0.310467 0.2605013 0.45221582 0.2971155
0000d0 a1 74 1b 3f c3 b7 df 3e 78 a4 5c 3e aa c0 c1 3e
       0.60724837 0.43694887 0.21547115 0.37842304
0000e0 3c ee a6 3e 86 c4 51 3e 2d 00 fb 3e d0 7f 81 3f
       0.32603633 0.20485124 0.49023572 1.011713
0000f0 37 96 85 3e 0a b6 8d 3e 07 da e2 3e 31 4e 8e 3e
       0.26091167 0.27677947 0.44306967 0.2779403

bn2.running_var f4 [64]
000000 09 09 aa 3e 90 d8 50 3e 86 31 13 3e 77 3a 88 3e
       0.33210018 0.20395112 0.1437436 0.26607105
000010 ea d8 69 3e 77 02 1b 3e 32 23 f1 3d 4a 4b 98 3e
       0.22836652 0.15137659 0.11774291 0.2974494
000020 22 31 57 3e 48 ac fb 3d df 00 ca 3e cc da ea 3d
       0.21014836 0.122887194 0.3945379 0.114675134
000030 90 7e fb 3d 9d ac 44 3e a5 10 b2 3e 38 28 9d 3d
       0.12279999 0.19206472 0.34778324 0.07673687
000040 53 4a c4 3d a2 00 ac 3d 47 76 ae 3e aa a2 99 3e
       0.09584489 0.08398558 0.34074613 0.30006915
000050 6a 4b e0 3d 1b 1a d8 3d 41 20 fe 3d 69 f2 b7 3d
       0.10951884 0.10551854 0.12408496 0.08981783
000060 25 b1 63 3e b9 16 32 3e 77 26 83 3e 93 3d 16 3e
       0.22235544 0.1739148 0.25615284 0.14671926
000070 a9 e2 d8 3d 44 11 b4 3e f8 af 1f 3e d3 13 a7 3d
       0.10590107 0.35169423 0.1559447 0.08158078
000080 fc 6d 60 3e 38 27 73 3e ad 07 0f 3e 00 cb 9b 3d
       0.21916956 0.2374543 0.13967772 0.076070786
000090 fb f1 47 3e 21 6e 27 3d ed 4f 0e 3e c9 8d 98 3d
       0.19525902 0.04087651 0.13897677 0.07448918
0000a0 03 b0 bf 3d ac 24 61 3e 3c b5 29 3e b9 55 fb 3e
       0.093597434 0.21986645 0.16573042 0.4908884
0000b0 f4 7b 8f 3e f1 97 44 3e f5 d5 d9 3e 65 7a 9c 3e
       0.28024256 0.19198586 0.4254605 0.3056213
0000c0 00 9d 07 3e d6 34 78 3e da 3b 66 3e 2d ac 6b 3f
       0.13243484 0.24238905 0.22483769 0.92059594
0000d0 0d 0d cc 3e 3d 51 51 3e 71 fc 96 3d af e9 2e 3e
       0.39853707 0.20441146 0.07372368 0.1708133
0000e0 59 e5 0d 3e bd 23 0f 3f 8d 5c a3 3e de 00 8b 3f
       0.1385702 0.5591391 0.31906548 1.085964
0000f0 3f 43 bd 3d 22 d6 a8 3e 4f 53 59 3e 71 e3 fe 3d
       0.09241342 0.3297587 0.21223186 0.12445725

fc3.weight f4 [1, 64]
000000 3b e3 f4 be 8e fb f2 3e 87 3a ef be dd be f0 be
       -0.47829613 0.47457546 -0.4672434 -0.47020617
000010 95 82 0f bf 9a 5c eb be 1f ee 08 3f 37 37 0d bf
       -0.5605863 -0.45969087 0.53488344 -0.55162376
000020 4f c1 13 bf e8 3c 1a bf 6f ba 1a 3f 97 cd 05 3f
       -0.5771684 -0.60249186 0.60440725 0.5226683
000030 96 da 0f bf fb 29 14 bf 41 b0 15 bf 21 1e 02 3f
       -0.5619291 -0.5787656 -0.5847207 0.50827223
000040 da b5 e8 3e 4a b2 ff 3e a3 2e 0c 3f 52 01 f0 3e
       0.45451242 0.4994071 0.5475866 0.46876007
000050 3f 77 f8 3e 25 65 e8 be 8f 80 02 3f 91 54 e9 3e
       0.48528478 -0.45389667 0.50977415 0.45572332
000060 70 3b 00 3f 81 8d 0e 3f 48 2b f4 be 81 69 e9 be
       0.50090694 0.5568467 -0.4768927 -0.45588306
000070 dd b8 01 bf 25 9e 06 bf 6a 34 00 bf 40 01 08 3f
       -0.50672704 -0.5258506 -0.5007998 0.5312691
000080 3d 2e e7 3e 69 a4 00 bf 04 aa eb 3e 02 ed 07 bf
       0.45152465 -0.5025087 0.4602815 -0.5309602
000090 c8 c2 fa be 00 98 04 bf b2 cb 10 3f d9 d3 03 bf
       -0.4897673 -0.51794434 0.56560814 -0.5149513
0000a0 ba 3f eb 3e c0 03 03 3f 53 f5 e9 be 88 2c f9 be
       0.45947057 0.511776 -0.4569498 -0.48666787
0000b0 8d 30 0c 3f ad 05 01 bf e1 0a 25 bf 95 62 e2 be
       0.5476158 -0.50399286 -0.64469725 -0.44215837
0000c0 bc 60 f8 be ac f0 11 bf d0 9d f0 3e f1 4e 1a 3f
       -0.48511302 -0.5700786 0.469954 0.60276705
0000d0 18 0d df 3e 27 95 ee 3e d4 5b 04 3f b3 a7 f5 be
       0.43564677 0.4659817 0.5170262 -0.47979507
0000e0 ee 4e 09 3f 89 b1 02 3f 99 3c 0e 3f 47 d5 e7 be
       0.5363606 0.5105215 0.55561215 -0.45279905
0000f0 c5 5e 0f 3f 3c fc 18 bf f1 6c de be 19 20 fa be
       0.5600398 -0.5975988 -0.4344249 -0.48852614
