PreTrained/cstr_ode/Deep_DQN/0_6/300.pth (torch, 43158 bytes, 13 tensors)

fc1.weight f4 [128, 4]
000000 04 9c 8f 3a 83 6a 82 3e 09 1a cb be 23 15 c6 be
       0.001095653 0.25471887 -0.396683 -0.38688
000010 f4 32 45 be ec 4b 09 3e 40 4f 22 bc ce fa ca 3e
       -0.19257718 0.13407868 -0.00990659 0.39644474
000020 4a b6 30 bd 9b bb 01 3e bd d1 21 be 87 34 af bd
       -0.043142594 0.12669222 -0.15802665 -0.08554941
000030 e8 f5 f7 be 45 f0 a5 be ee e4 4e be e5 68 33 3c
       -0.484298 -0.32409874 -0.20204517 0.010950302
000040 c1 16 43 3e 51 44 9d 3e c2 36 b1 be 00 66 48 be
       0.19051649 0.30716184 -0.3461209 -0.1957016
000050 d1 a4 32 3e 1b ac d7 3e e1 e3 f5 bd 5c 91 bf 3e
       0.17445685 0.42123494 -0.12006355 0.37415588
000060 32 36 ab bd f1 a7 90 3d be 30 e1 3e 8a 43 f2 be
       -0.08359946 0.07063282 0.439825 -0.47317153
000070 cd f2 a3 be 58 3d fa bd 0e 88 56 be 28 2f dd 3e
       -0.3202118 -0.12218732 -0.20950338 0.4320004
000080 9f 9a a7 be e6 e3 66 be 55 1e ae be 0b 6b e2 be
       -0.32735154 -0.22547874 -0.34007517 -0.44222292
000090 28 6f 9a be d7 d9 db 3e dd 17 4b 3e 00 27 78 3e
       -0.3016293 0.42939636 0.19833322 0.24233627
0000a0 cd 9b 31 3d 3a 17 86 be 56 9a bd 3d 99 da d0 be
       0.043361474 -0.26189595 0.09257953 -0.40791777
0000b0 1a fa b8 be c6 f9 83 be 26 85 a1 3e 26 19 96 3e
       -0.36128312 -0.257765 0.31546897 0.29316062
0000c0 c8 11 63 be 20 cb 93 bc 40 ba a3 3e 82 7f fe 3e
       -0.22174752 -0.018041193 0.31978035 0.49706656
0000d0 3b ef 4d 3e 72 e5 46 3d 8d 0a b3 3e 1d 96 99 be
       0.2011079 0.04855866 0.34968987 -0.2999734
0000e0 5e fb b0 3d f0 b4 c8 be f3 62 b3 be a6 98 6a be
       0.086416945 -0.39200544 -0.3503643 -0.22909793
0000f0 7f 1c 7b 3e 0a 76 3a 3e 50 eb 8d be c8 ad 1a 3e
       0.24522589 0.18209091 -0.27718592 0.15105355
000100 a9 e0 84 3e d0 bb 21 bd dc b5 04 3d c7 00 02 3e
       0.25952652 -0.039485753 0.032399997 0.12695609
000110 e3 48 a0 3e 04 84 f4 3e e2 5a c6 be 8f c1 4b be
       0.31305608 0.4775697 -0.38741213 -0.19898055
000120 2b bc 4b 3e a8 5c d1 3e 14 b1 de 3e 8c ad f4 3e
       0.19895999 0.40891004 0.43494475 0.47788656
000130 65 7d d8 3d e2 da de be 35 c6 1d 3d 73 1b a0 be
       0.10570792 -0.4352637 0.038519103 -0.31270942
000140 c8 60 e0 be ed 8e f0 3e 0f ed c1 3e b4 d5 ed be
       -0.43823838 0.46984044 0.37876174 -0.46452105
000150 08 aa bf 3d c8 80 ac bd b8 82 a8 bd 1c 5f 6a be
       0.09358603 -0.084230006 -0.082280576 -0.22887844
000160 ca bd 50 3e b3 b8 9d be 06 d0 47 3e 16 76 81 3e
       0.20384899 -0.30804977 0.19512948 0.25285405
000170 7e 46 b7 3e 35 93 38 3e 72 70 00 bf b3 ff a2 be
       0.3579597 0.18024905 -0.5017158 -0.31835708
000180 21 cf 6d 3e c0 72 07 3e 06 e1 d0 be 19 98 8c be
       0.23223545 0.13227367 -0.4079668 -0.2745979
000190 f2 d4 f0 3e 54 7f ac 3e b0 3e 5f be d4 dc 00 be
       0.47037464 0.33690894 -0.21801257 -0.12584239
0001a0 46 4d ea be 24 1c f3 bc 2a a2 af be 23 f3 cd be
       -0.4576208 -0.029676504 -0.3430341 -0.4022456
0001b0 67 00 0a bd 00 d7 a6 3d a5 43 46 be f8 61 97 3e
       -0.03369179 0.08146477 -0.19361742 0.29566932
0001c0 3f 81 a0 be 7c a2 e9 3e 64 e1 ab 3e e7 5f da be
       -0.31348607 0.45631778 0.33570397 -0.42651293
0001d0 91 68 f3 bd 9e d5 e8 3b 9c 07 a3 3d 8e b2 dd 3d
       -0.11885179 0.0071055433 0.07960436 0.10825072
0001e0 35 b0 4f 3e a1 3a bf 3c f3 0d 73 be d4 45 72 3e
       0.20282061 0.023343386 -0.2373579 0.2365945
0001f0 b9 48 f3 be 57 62 96 be 29 e3 fd bd b8 2f 72 be
       -0.4751642 -0.29371902 -0.12396843 -0.23651016
000200 68 5c 32 be 2c f4 ce be 66 5b d0 bd b9 04 e5 3d
       -0.17418063 -0.40420663 -0.10173683 0.111825414
000210 1d b0 a9 be b5 72 bd bc f6 5f b4 3e 97 80 15 bd
       -0.33142176 -0.023125986 0.35229462 -0.036499586
000220 80 ac 63 3c c0 ad 30 bd 10 3d cf 3d 60 c6 a2 3e
       0.013896108 -0.04313445 0.101190686 0.31791973
000230 62 00 ee 3e 8f 55 a5 3e f3 51 f8 3e b7 74 d2 bc
       0.46484667 0.3229184 0.48500022 -0.02569042
000240 16 95 de be b2 0a 7b be d3 5c b6 3e b4 9c 38 3c
       -0.4347312 -0.24515799 0.35617694 0.01126783
000250 a7 2a 82 be bc ee bd be a4 fb f1 be da 06 d9 be
       -0.25423166 -0.37096202 -0.472623 -0.4238804
000260 b6 1a ab bd aa 56 8d 3e 9f 67 7d 3e 35 cc ed be
       -0.08354704 0.27605182 0.2474656 -0.4644486
000270 2e b0 9f 3e 8a 52 c8 be f0 7b d8 bd 1c 9a 4f be
       0.31189102 -0.39125472 -0.10570514 -0.20273632
000280 06 6c a4 bd 13 ed d5 bd e6 68 ef be 79 79 d9 be
       -0.08028416 -0.10445609 -0.4675972 -0.4247549
000290 28 3c a0 bd 80 e1 d3 3b b8 96 68 be b8 de 40 3e
       -0.07823974 0.0064660907 -0.22713745 0.1883496
0002a0 0f 41 e7 be a3 3c 26 bd 6b c0 de 3e e2 88 48 be
       -0.45166823 -0.04058517 0.43506178 -0.19583467
0002b0 6b 50 e6 3e bc 98 33 3e a0 d7 e7 be 74 f8 a1 3e
       0.4498323 0.17538732 -0.45281696 0.31634867
0002c0 94 1b 88 bd 9b 72 4c be 29 34 ce 3e 00 e9 dc be
       -0.06645885 -0.19965594 0.4027417 -0.43146515
0002d0 e5 e3 29 3d 35 c5 b8 bd 8e 39 c0 3e 2b 7d e3 3d
       0.041477103 -0.09021989 0.3754391 0.11107858
0002e0 a9 a5 85 3e 0c ad 34 3e fa 22 b7 bd 9a 65 a8 bd
       0.2610295 0.17644137 -0.08942218 -0.08222504
0002f0 03 fd db be c2 87 95 3e 87 5a c1 3e 5c 29 af 3e
       -0.4296647 0.29205137 0.3776438 0.34211242
000300 48 82 b2 be e4 9a 95 3c f2 64 b2 be ea da 8a be
       -0.34865022 0.018262334 -0.3484264 -0.27120143
000310 6a 91 91 be d6 c3 27 3e fb f2 94 be 6e 42 47 bc
       -0.28431255 0.16383299 -0.2909163 -0.012161834
000320 8a 6a 51 3d 1f 69 91 3e f1 78 ae be db 45 c0 be
       0.051126994 0.28400514 -0.34076646 -0.37553295
000330 8a 0f 90 be cf 92 aa 3e db 6a 3c be fb 34 d5 3e
       -0.28136855 0.3331513 -0.18400137 0.41641983
000340 a0 24 39 3e 40 aa 81 3d 00 ed 73 bb 08 6d ca bd
       0.18080378 0.06331301 -0.003722012 -0.09884077
000350 79 8d 74 3d 34 01 f6 bd 58 4f 15 bb b4 bd 83 3d
       0.05970523 -0.12011948 -0.0022782888 0.064326674
000360 68 65 c9 be b9 f9 83 be 8b b2 d1 3e 53 97 d1 be
       -0.3933518 -0.2577646 0.4095653 -0.40935764
000370 be b1 59 bc 4e 3a f1 3e 02 7a 46 3e 53 60 ee 3c
       -0.013287006 0.47114795 0.1938248 0.029098665
000380 66 32 d5 be e4 c6 71 3e ef de af be 2c ad 22 be
       -0.41640013 0.23611027 -0.34349772 -0.15886372
000390 f6 53 29 be f1 65 a5 bd e0 95 c1 bb 96 26 d3 3e
       -0.16535935 -0.080760844 -0.005907759 0.41240376
0003a0 dc 70 8b 3d 11 54 e0 3e 11 f5 9f 3e b5 52 aa be
       0.068086356 0.43814138 0.31241658 -0.33266225
0003b0 df 65 6c 3e db 35 ba be 1e f2 50 be 10 19 f1 3d
       0.23085736 -0.36369213 -0.2040486 0.117723584
0003c0 bb 0b 29 3e 92 10 c0 3e 5a d5 24 be d6 0c 38 b9
       0.16508381 0.37512642 -0.16097012 -0.00017552389
0003d0 ca b0 83 3e bd 22 fb be 06 de b4 3e cf b8 d2 be
       0.25720817 -0.4904994 0.3532564 -0.41156623
0003e0 4b dd a0 3b 40 df aa bd 6b 98 8c be 8d 7b 4c 3d
       0.0049091927 -0.08343363 -0.27460036 0.049922515
0003f0 b8 77 de 3e 6e 97 23 be 24 12 8d be fa 19 4b be
       0.43450713 -0.15975735 -0.27552903 -0.19834128

fc1.bias f4 [128]
000000 dc bf e0 bd 14 df 3e be 22 a3 03 3e 57 43 30 3e
       -0.10974094 -0.18639785 0.12855199 0.17213188
000010 71 d3 72 be 33 b5 16 3d 9f 09 98 3e 28 8b 2b bd
       -0.23713471 0.0367939 0.2969484 -0.041880757
000020 cb 82 1c 3e a0 22 01 be 47 e0 38 3e e6 71 b9 be
       0.15284269 -0.12610865 0.18054305 -0.3621971
000030 0e 89 96 be b8 0e 72 be 68 f7 ea 3e 63 37 1d be
       -0.2940144 -0.23638427 0.4589188 -0.1535316
000040 09 56 1d bd b0 8a 79 be b7 a9 fc 3e 85 96 f9 3e
       -0.038412128 -0.24369311 0.49348232 0.4874765
000050 aa 9a d2 be 10 88 cf be f7 fc bb be 4c ef 5c bc
       -0.41133624 -0.40533495 -0.36716434 -0.013484787
000060 1d 34 0d be 4e 90 a7 be 64 ef 2f be cd 84 c0 3d
       -0.13789411 -0.32727283 -0.17181164 0.0940033
000070 b6 ff 85 be 29 52 e5 3d 7d 59 f8 bd d6 4f 7f be
       -0.26171654 0.111973114 -0.121264435 -0.24932799
000080 1c c0 a2 3d 74 20 d3 3e 88 13 ad be 46 30 ba 3c
       0.07946798 0.41235697 -0.33803964 0.022728097
000090 1a b5 2c be cb 4f fb 3e f3 fa fb be d2 6a f5 be
       -0.1686596 0.49084315 -0.49214897 -0.4793306
0000a0 5c 2c 00 3f f8 f7 a1 be b4 22 e2 3d c9 ac 51 bd
       0.5006769 -0.31634498 0.11041775 -0.05119017
0000b0 f6 36 be bd 71 0f bf bd 7d ed a3 3e bc 84 3f 3c
       -0.09287827 -0.09329117 0.32017127 0.011689361
0000c0 6c 50 fb be a3 bc 9a be d8 38 15 be ff 10 87 3e
       -0.49084795 -0.30222043 -0.14572465 0.26380154
0000d0 8e aa a5 be 43 d6 f1 3e c9 59 c0 bd 79 f0 b2 bd
       -0.32356685 0.4723378 -0.09392125 -0.08737273
0000e0 48 ad d0 3e fb 9a 6c 3e 21 e6 da 3e 22 6e 9a 3e
       0.40757203 0.23105995 0.427537 0.3016215
0000f0 01 4e 1b be fd 4a af be f9 ba 25 bd 92 5d d5 3e
       -0.15166475 -0.342369 -0.040461514 0.4167295
000100 4e e0 36 be 1e 68 ed be 4c 37 55 3e 83 1a fc 3e
       -0.17859003 -0.46368498 0.20821875 0.49238977
000110 6e 59 22 be 5a f9 d3 be 10 35 e8 be 62 a0 03 3e
       -0.15854427 -0.41401178 -0.45352983 0.1285415
000120 e6 78 0e bd 15 54 85 be d0 5d d0 3d f9 0f 3d 3e
       -0.034783266 -0.26040712 0.10174143 0.18463124
000130 da de cd 3e 2c 8b c6 3e ac b1 99 bd 7e bb e1 be
       0.40209085 0.38778055 -0.07504591 -0.44088358
000140 d8 53 e7 be 27 7d ef 3e 52 de 68 3e d1 49 5a 3e
       -0.45181155 0.4677517 0.22741058 0.21317221
000150 68 8a d9 be f1 5b e8 3e c3 fa e6 3e b1 93 f0 3e
       -0.42488408 0.45382646 0.4511319 0.4698768
000160 30 f5 d7 be aa d3 38 be f7 25 b0 be 9c c2 ef 3e
       -0.4217925 -0.18049493 -0.34403965 0.46828163
000170 1d 8c 5b be 62 f6 77 be bb 74 87 3e 90 1f 67 be
       -0.21440168 -0.24215081 0.26456246 -0.22570634
000180 ba 93 6f be 89 f5 39 bd 85 f6 3c bd 22 6b c7 be
       -0.23396197 -0.045400176 -0.046133537 -0.38948923
000190 60 ac c6 3e f0 d3 77 be f0 73 3e 3e a5 bd e1 3e
       0.38803387 -0.24201941 0.18598914 0.4409
0001a0 9d d7 5d 3e 45 13 97 3d 4c af d4 3e 8b 07 96 3d
       0.21664281 0.07376722 0.4153999 0.073256575
0001b0 25 63 63 be 95 7e f2 3e b4 b2 db 3d 38 c6 f9 be
       -0.2220579 0.473622 0.10727444 -0.4878404
0001c0 f4 e5 0c be fe 60 ae be d3 32 ed 3e 43 e8 75 bd
       -0.13759595 -0.34058374 0.46327838 -0.060035955
0001d0 b2 59 e9 be 29 2f 0d bd fc be a3 3e 55 99 ff 3d
       -0.45576245 -0.034468804 0.31981647 0.12480418
0001e0 25 b9 28 3e 07 e3 66 3d 72 5d 3a 3e e9 99 10 be
       0.16476877 0.056368854 0.18199709 -0.14121212
0001f0 b4 86 41 be 0e 49 ef be 4b 51 c4 be 73 39 58 3e
       -0.18899041 -0.46735424 -0.38343272 0.21115665

bn1.weight f4 [128]
000000 8f 3b 7f 3f 00 00 80 3f 38 bb 80 3f 6c 88 80 3f
       0.99700254 1.0 1.0057135 1.0041633
000010 16 e8 80 3f 1f f1 7c 3f 23 54 81 3f a6 50 7f 3f
       1.0070827 0.9880542 1.0103801 0.99732435
000020 8f 79 80 3f f8 c2 79 3f 20 2a 7b 3f 00 00 80 3f
       1.0037097 0.97563124 0.9811115 1.0
000030 00 00 80 3f 08 c3 7c 3f 9b 99 7f 3f e6 41 7b 3f
       1.0 0.98735094 0.9984376 0.9814743
000040 9c 15 7e 3f 62 3b 80 3f c1 59 80 3f 86 15 82 3f
       0.99251723 1.0018122 1.0027391 1.0162818
000050 43 d3 7a 3f 00 00 80 3f 92 6e 81 3f 5d 64 7f 3f
       0.9797861 1.0 1.0111868 0.9976252
000060 f1 6e 7f 3f 00 00 80 3f d5 3f 7f 3f 6c 9d 7f 3f
       0.9977866 1.0 0.99706775 0.9984958
000070 d7 46 7d 3f 49 f1 7d 3f 08 f0 7f 3f 93 3f 7e 3f
       0.9893622 0.99196297 0.99975634 0.99315757
000080 97 09 7b 3f 97 b5 81 3f 00 00 80 3f e9 ef 7f 3f
       0.9806151 1.0133542 1.0 0.9997545
000090 54 45 7e 3f f8 a2 80 3f 4c 4c 79 3f 00 00 80 3f
       0.99324536 1.0049734 0.97382045 1.0
0000a0 33 06 7f 3f 00 00 80 3f af 8f 80 3f 54 ca 7d 3f
       0.99618834 1.0 1.0043849 0.99136853
0000b0 0d ec 7f 3f 03 13 80 3f 81 4f 80 3f af d5 80 3f
       0.9996956 1.0005802 1.0024263 1.0065211
0000c0 e5 e2 7e 3f f4 ed 7f 3f 3d 74 7e 3f fb 34 81 3f
       0.99564964 0.9997246 0.99396116 1.0094293
0000d0 00 00 80 3f 07 2c 83 3f 82 2e 7e 3f 54 89 80 3f
       1.0 1.0247811 0.99289715 1.0041909
0000e0 2a 4b 80 3f c1 1e 7f 3f d4 26 80 3f f2 8b 80 3f
       1.0022938 0.996563 1.0011849 1.0042708
0000f0 67 8d 7f 3f 55 6b 80 3f 3c 30 80 3f 44 a9 81 3f
       0.9982514 1.0032755 1.001472 1.0129781
000100 70 9d 7f 3f 00 00 80 3f db ba 7f 3f 3b da 80 3f
       0.99849606 1.0 0.99894494 1.0066599
000110 7f 27 80 3f 00 00 80 3f 00 00 80 3f 9b 4f 80 3f
       1.0012053 1.0 1.0 1.0024294
000120 fc dd 7d 3f 93 21 80 3f 39 08 81 3f eb a9 80 3f
       0.99166846 1.0010246 1.0080634 1.0051855
000130 4c 35 7c 3f 79 bd 7e 3f ca 2c 7f 3f 00 00 80 3f
       0.98518825 0.9950786 0.9967772 1.0
000140 00 00 80 3f db ec 7f 3f 0a 15 80 3f 1f db 80 3f
       1.0 0.9997079 1.0006421 1.006687
000150 67 41 80 3f ee c0 80 3f 80 ab 7d 3f a1 27 7f 3f
       1.0019959 1.0058877 0.99089813 0.99669844
000160 00 00 80 3f 8a 3f 7d 3f a6 26 7f 3f 57 06 7f 3f
       1.0 0.9892508 0.9966835 0.9961905
000170 ef bc 81 3f 5b d8 7c 3f 48 a1 7f 3f 55 6b 7e 3f
       1.0135783 0.9876763 0.9985547 0.99382526
000180 5d 04 82 3f 94 c4 7d 3f 41 62 7d 3f 00 00 80 3f
       1.0157582 0.9912808 0.9897805 1.0
000190 06 d4 80 3f 76 8b 80 3f 53 3a 80 3f 60 73 81 3f
       1.0064704 1.004256 1.0017799 1.0113335
0001a0 60 c5 7f 3f 66 cd 80 3f 09 01 7d 3f d8 19 80 3f
       0.99910545 1.0062683 0.98829705 1.0007887
0001b0 5b 7d 7d 3f ae d3 7e 3f 83 47 81 3f 00 00 80 3f
       0.990194 0.9954175 1.0099949 1.0
0001c0 e5 ee 80 3f 00 00 80 3f 67 ca 80 3f 02 e5 7c 3f
       1.0072905 1.0 1.0061768 0.9878694
0001d0 00 00 80 3f 81 49 80 3f ca 47 7e 3f b6 c3 80 3f
       1.0 1.0022432 0.9932829 1.0059726
0001e0 1c c7 7d 3f cf 54 80 3f 72 3f 80 3f 32 8a 7d 3f
       0.9913194 1.0025882 1.0019362 0.99038994
0001f0 bf 8a 7e 3f 00 00 80 3f d6 81 7e 3f d0 9d 7f 3f
       0.9943046 1.0 0.99416864 0.9985018

bn1.bias f4 [128]
000000 d9 2c de bb d0 ec 1b bc fa 91 27 bb 8b 9d 65 3c
       -0.0067802486 -0.00951691 -0.0025569187 0.014014612
000010 64 d7 8a bc a5 74 4b bb 9a 20 d7 bb fa 8d 27 bb
       -0.01694841 -0.0031044867 -0.0065651657 -0.0025566802
000020 a5 39 82 3b ab 4f 32 bb 7a 83 3b 3c d0 ce 93 3c
       0.003974157 -0.002720813 0.011444921 0.018042952
000030 d0 1c cd 3c b1 ff 22 3a 05 ce 2e 3b 70 6c 1b bc
       0.025038153 0.00062179106 0.002667309 -0.009486303
000040 78 00 b7 bb 84 7f 30 b8 97 08 2a bb 26 21 20 3b
       -0.0055847727 -4.2080428e-05 -0.0025945061 0.002443382
000050 5e 7b d0 39 68 2a 87 3c 64 c0 6c bb d9 f7 a2 bb
       0.00039764767 0.016499713 -0.0036125416 -0.0049733934
000060 8b 0f 16 ba 96 3a 61 bc 92 46 92 3c a7 7f 05 bc
       -0.0005724362 -0.013746878 0.017855916 -0.0081481105
000070 34 73 30 bc 7e 57 d5 3b f8 61 32 3c db 4a c4 bb
       -0.010769654 0.006510674 0.010887615 -0.005990369
000080 64 41 0c bc 26 c7 57 3a 0d 74 fd b9 1f a7 e4 3b
       -0.008560512 0.00082312746 -0.00048342385 0.00697793
000090 7e 0b 5e 3c 11 0b 46 ba d7 e7 a2 ba 52 fd 9e 3c
       0.013552545 -0.00075547496 -0.0012428713 0.019407902
0000a0 b8 a4 b3 39 6a fa e4 3c 05 7c 89 3b 29 9f 8c bc
       0.00034264266 0.027951438 0.0041956925 -0.017165737
0000b0 e0 92 0c bc e6 11 68 bc 33 be e1 bb ea 7b 7a bc
       -0.00857994 -0.014164424 -0.0068891286 -0.0152883325
0000c0 91 17 7d bc 6a 93 00 bc 54 b8 6d 3a 45 ec b6 3b
       -0.015447513 -0.007847646 0.00090682996 0.0055823647
0000d0 4d 48 0e 3c 94 03 81 3c e7 40 a8 3b 21 fb 80 bc
       0.00868423 0.015748776 0.00513469 -0.015744748
0000e0 23 23 24 3c 63 10 b3 bc 70 f5 8a 3b 0d c3 0f 3a
       0.010018143 -0.0218584 0.004240684 0.0005484082
0000f0 c5 b2 49 3c e5 b0 06 3c 70 79 74 3c 23 4f 24 3c
       0.012310688 0.008220886 0.014921531 0.010028633
000100 89 25 a7 3c 8f ba 8e ba a3 34 3b 3c 9c b2 8d ba
       0.02040364 -0.0010889339 0.011426124 -0.0010810676
000110 af 40 ff bb d6 ed db 3b 61 c3 61 bc 7d db a4 3c
       -0.0077896933 0.006711702 -0.013779492 0.020124191
000120 38 1c 16 3b f1 2a d6 bc 97 13 67 bc 31 1d ae ba
       0.0022905003 -0.026143523 -0.014103792 -0.0013283846
000130 c5 df 49 bb 80 ff 93 bb 86 03 bc 3b c0 89 4f 3b
       -0.0030803543 -0.004516542 0.0057377247 0.0031667799
000140 81 72 40 bc 9a 68 8a 3c 83 7d 3f 3c e7 b7 3a 3b
       -0.01174605 0.016895581 0.011687639 0.0028490962
000150 06 d4 17 3c ff db 8a 3c ff 44 21 3c a2 42 87 39
       0.009266859 0.016950605 0.00984311 0.00025798852
000160 43 5a de 3c 5a 0e bc ba 39 f5 30 3c 75 5c 53 bb
       0.02714265 -0.0014347539 0.010800653 -0.0032251154
000170 7b b3 9a bc 21 4c 62 3c 5e 17 f0 b9 3d af 21 bb
       -0.018884411 0.013812096 -0.00045793777 -0.00246711
000180 ae 5f 9b bc d0 66 32 3b 8a c8 fb bb f6 a4 9b 3c
       -0.018966522 0.0027221926 -0.007683818 0.018999558
000190 5d 05 f2 3a 73 3e 84 bb 59 fe b6 3c 2e 12 b1 3b
       0.0018464733 -0.004035765 0.02233808 0.0054037785
0001a0 e5 32 43 3c f4 86 14 bb 09 f2 f4 ba 4d d2 dc 3b
       0.01191399 -0.0022663446 -0.0018687855 0.006738937
0001b0 f1 4c 82 bc e8 ac c7 bb b1 de 8e 3b 5e ad 79 bc
       -0.01590583 -0.00609361 0.004360043 -0.015239088
0001c0 c4 69 ba bb 52 9d cb 3c e4 ba 04 39 bc 5f 36 3c
       -0.005688878 0.02485529 0.00012658123 0.011131223
0001d0 bc 9d 33 3b 4a 3d 88 3c ab c8 e4 3b cd 95 19 bc
       0.002740725 0.016630787 0.0069819293 -0.009374094
0001e0 8b d6 10 bc 4c 2b 5a bb e7 59 f7 3b a8 e7 d3 ba
       -0.0088402135 -0.0033289967 0.007548559 -0.0016167061
0001f0 ed fa c6 ba a5 a0 3f 3c c3 2f e2 3b bf 41 d0 ba
       -0.0015180983 0.0116960155 0.0069026663 -0.0015888734

bn1.running_mean f4 [128]
000000 72 61 3e 3b 00 00 00 00 56 c7 35 3d 61 ab 09 3d
       0.002904978 0.0 0.044379555 0.033610705
000010 5f ea 5f 3a 20 78 2f 3c 4b 94 ef 3e 43 1d 0a 3b
       0.0008541699 0.010709792 0.46792826 0.002107457
000020 d2 ab 31 3d 1a de 4c 37 bc e0 9b 3e 00 00 00 00
       0.04337675 1.221106e-05 0.30444896 0.0
000030 00 00 00 00 59 ad c9 3d a2 00 d1 3e 05 97 08 3a
       0.0 0.098475166 0.40820795 0.0005210492
000040 46 b0 c5 3d d7 6d 8a 3a 03 08 33 3f 0b 0d 26 3f
       0.09652762 0.0010561299 0.699341 0.6486365
000050 94 15 b1 38 00 00 00 00 8c 80 af 3b ec 7f 37 3d
       8.444037e-05 0.0 0.0053559 0.04479973
000060 bd ad f9 3a 00 00 00 00 47 db 2d 3b c4 65 08 3d
       0.001904897 0.0 0.0026528405 0.033300176
000070 54 cc 15 39 64 86 cf 3d e1 a7 b8 39 56 ae 2e 39
       0.00014285865 0.10133055 0.00035220294 0.00016658878
000080 e4 d4 5d 3d 5d 42 ea 3e 00 00 00 00 35 f4 c6 3e
       0.054158106 0.45753756 0.0 0.3885819
000090 8c 9d c4 3c 73 3e 77 3e 49 50 68 36 00 00 00 00
       0.024000905 0.24144916 3.4617426e-06 0.0
0000a0 16 3b 84 3e 00 00 00 00 c4 ca 3b 3e 91 6c 34 3d
       0.2582633 0.0 0.18339068 0.04404885
0000b0 d5 b3 2a 3e 7c 95 27 3e 5a 88 af 3e 58 6a 7f 3d
       0.16670163 0.16365618 0.34283715 0.062357277
0000c0 17 55 00 39 29 f0 59 3a 40 8c 0a 3b b7 a9 43 3d
       0.0001223873 0.000831368 0.0021140724 0.047769275
0000d0 00 00 00 00 67 cc 05 3f ab e2 cd 3d ca 41 76 3b
       0.0 0.5226502 0.10052999 0.0037575834
0000e0 b4 e0 d9 3d 52 5d 36 3e 8e 6f 03 3f 8d d0 c0 3e
       0.10638562 0.17809036 0.51342094 0.37659112
0000f0 2c 6d 59 39 9e 70 02 3e 7a d0 c5 3a eb d9 fc 3e
       0.00020735402 0.12738273 0.0015092038 0.49385008
000100 4d f7 1a 3b 00 00 00 00 87 28 7d 3e 54 81 01 3f
       0.0023645938 0.0 0.24722491 0.50587964
000110 87 65 27 3b 00 00 00 00 00 00 00 00 ab fb 1d 3d
       0.0025542693 0.0 0.0 0.038570087
000120 36 11 0d 3b 3b 03 1b 39 f5 08 dd 3e 16 51 1f 3d
       0.002152515 0.00014783155 0.43170896 0.03889569
000130 c5 65 12 3f 7a e2 8d 3e c7 08 0e 3e 00 00 00 00
       0.5718654 0.2771185 0.13870536 0.0
000140 00 00 00 00 9b da 26 3f af 5f 3a 3e 32 2f 37 3e
       0.0 0.65177315 0.18200563 0.17889097
000150 41 86 1b 3d ad 51 23 3f 8e 88 ad 3e 12 b7 63 3e
       0.03796983 0.637965 0.33893245 0.22237805
000160 00 00 00 00 0c 0d 02 3b 81 df f6 39 4e c4 2f 3f
       0.0 0.0019844202 0.000470873 0.6865891
000170 5a cc b4 3a cf da 1c 3b 7f 88 06 3f 1c ce f3 3d
       0.0013793812 0.002393413 0.52552027 0.119045466
000180 25 04 b1 3b ca 79 75 39 a7 9d 3e 3b 00 00 00 00
       0.0054021054 0.0002341039 0.0029085667 0.0
000190 1d 3c c7 3e 21 73 55 3e 83 25 15 3d 52 22 e4 3e
       0.3891305 0.208447 0.036412727 0.44557434
0001a0 d4 cc 56 3e a1 ff 27 3e 4a 34 15 3f 6c 6e da 3b
       0.20976573 0.16406108 0.5828291 0.0066659953
0001b0 68 36 7a 39 6b d5 3a 3f 8e d7 9e 3c 00 00 00 00
       0.00023862126 0.729819 0.019389894 0.0
0001c0 f7 95 52 3e 00 00 00 00 a8 11 73 3e 83 5b ae 3a
       0.2056502 0.0 0.23737204 0.0013302419
0001d0 00 00 00 00 dd 27 11 3d 9b 0c 0a 3f 98 95 21 3c
       0.0 0.035438407 0.53925484 0.009862326
0001e0 d4 10 44 3d 95 5b 04 3e dc 45 33 3e fd c6 83 3e
       0.04786761 0.12925561 0.17507118 0.25737754
0001f0 00 61 8e 3d 00 00 00 00 55 05 78 3c ee 06 7b 3d
       0.06952095 0.0 0.01513799 0.061285906

bn1.running_var f4 [128]
000000 69 7e 8d 3a 04 00 00 00 cf 1d 2a 3b bd b8 91 3b
       0.001079512 6e-45 0.0025957709 0.0044470713
000010 b7 47 fb 38 16 ff 06 3a 87 b9 42 3d a1 cf de 39
       0.000119819706 0.0005149705 0.047540214 0.00042497835
000020 f8 f2 a7 3b 46 5a a0 34 15 70 85 3b 04 00 00 00
       0.0051253997 2.9868005e-07 0.004072199 6e-45
000030 04 00 00 00 5b 0d 1b 3c 4a da ed 3c 51 71 2b 38
       6e-45 0.009463633 0.029034752 4.087511e-05
000040 6a 80 af 3a 6e 06 37 39 7a e6 54 3d 52 9f 6d 3b
       0.0013389711 0.00017454635 0.051977612 0.0036258292
000050 1b 1f 5a 37 04 00 00 00 c4 44 15 39 94 bc 6f 3b
       1.3001055e-05 6e-45 0.00014235365 0.0036580907
000060 3c 0e f9 39 04 00 00 00 58 9b 80 3a 5b 33 d4 3a
       0.00047503586 6e-45 0.0009811921 0.0016189622
000070 7b fc 00 38 c6 07 b6 3a 21 b0 9c 37 bc be f1 37
       3.075272e-05 0.0013887815 1.8678666e-05 2.8818256e-05
000080 7a c8 2f 3b a8 47 e4 3c 04 00 00 00 6b f2 8a 3d
       0.0026822374 0.0278662 6e-45 0.06784519
000090 7f f9 3c 3a e8 e8 76 3d 5a bd 94 34 04 00 00 00
       0.00072088087 0.06028071 2.770492e-07 6e-45
0000a0 ef 87 75 3d 04 00 00 00 7c 3b ed 3c fc 4b 48 3b
       0.05994409 6e-45 0.028959028 0.0030562868
0000b0 e7 b8 dd 3c e9 58 d6 3c e9 d4 01 3b 0a 8d 8c 3b
       0.027065707 0.026165443 0.0019810742 0.004289274
0000c0 11 8b 00 38 d7 6d cb 38 57 ec 1b 3a c5 7a cd 3b
       3.0647094e-05 9.7002536e-05 0.0005947998 0.006270739
0000d0 04 00 00 00 b3 de a1 39 de 77 23 3c 7a f3 04 39
       6e-45 0.00030874237 0.009977309 0.00012679203
0000e0 dd 94 9a 3c 4a 91 ff 39 00 db c8 3c 60 e9 1c 3c
       0.018869812 0.0004874564 0.02451849 0.009577125
0000f0 6b 56 ca 36 86 51 89 3c dd 0b a8 39 3e a8 88 3c
       6.0301295e-06 0.016762506 0.00032052296 0.016681787
000100 52 79 4a 3a 04 00 00 00 cf 0b 95 3b 12 65 50 3c
       0.00077237666 6e-45 0.004548527 0.01271941
000110 66 93 71 3a 04 00 00 00 04 00 00 00 16 72 22 3b
       0.00092153845 6e-45 6e-45 0.0024787239
000120 3a 44 2d 3a d5 5e 91 37 88 ec a5 3c 6c 33 82 3b
       0.0006609593 1.7329507e-05 0.020254388 0.003973415
000130 a6 ce c7 3b 26 02 25 3d c5 2c 3e 3c 04 00 00 00
       0.0060976325 0.040285252 0.011607354 6e-45
000140 04 00 00 00 3f 1c d4 3c bf f8 0f 3d 5e c8 d7 3c
       6e-45 0.025892375 0.035149332 0.02634066
000150 2d c0 ea 3a 2f 8a 19 3d c3 41 55 3c 28 7a 71 3c
       0.0017910056 0.037485298 0.013016167 0.014738597
000160 04 00 00 00 fd 0c 12 3a e6 03 0c 38 62 cd 48 3d
       6e-45 0.00055713934 3.338223e-05 0.049023993
000170 85 31 96 39 43 7f 51 3a 8a c0 2c 3d 62 ef 48 3c
       0.00028647124 0.0007991681 0.042175807 0.012264105
000180 b8 da 35 39 4d 07 82 37 a4 27 7d 3a 04 00 00 00
       0.00017342984 1.5500607e-05 0.0009657091 6e-45
000190 23 0b 50 3c e5 d2 2f 3d b2 16 91 3b 8f 26 d4 3c
       0.012697968 0.042925734 0.0044277543 0.025897292
0001a0 82 54 49 3a 9f 22 9e 3a 59 c5 94 3b 9b fa f3 3a
       0.0007680134 0.0012064761 0.0045401272 0.0018614115
0001b0 c2 e2 f4 37 6a c5 c3 3c 2d 3b 15 3b 04 00 00 00
       2.9192659e-05 0.023897845 0.0022770867 6e-45
0001c0 b9 09 24 3d 04 00 00 00 1d 89 23 3d 7f b2 58 39
       0.040048335 6e-45 0.039925683 0.0002066586
0001d0 04 00 00 00 0b 81 a5 3a dc 0f 64 3c 87 74 49 3b
       6e-45 0.0012626959 0.013919797 0.0030739622
0001e0 fb 87 b4 3b e4 8e 82 3c 49 80 24 3b 55 05 53 3d
       0.005509374 0.015937276 0.0025100878 0.051518757
0001f0 a8 e9 9f 3b 04 00 00 00 aa a6 18 3a de c4 a9 3b
       0.004880149 6e-45 0.0005823175 0.005180939

fc2.weight f4 [64, 128]
000000 1d 75 05 bd 2b c6 5d 3b bc 06 b4 3c f7 b0 33 bb
       -0.03258239 0.003384004 0.021975867 -0.0027418712
000010 bf 60 2d bd 0c 6c 94 3d 93 58 48 bd 59 27 9c 3d
       -0.042328592 0.07247171 -0.048912596 0.076246925
000020 26 84 a0 bd 03 28 eb bb c9 be 7c 3d 3a 4d ea bc
       -0.07837705 -0.0071764006 0.061705384 -0.028601278
000030 ce 25 a6 3d 9d 51 6b bd 32 28 9e bd 76 e4 b6 bc
       0.081126794 -0.05745088 -0.077225104 -0.022325736
000040 3f f4 ff 3c 00 64 ca 3d df 27 20 bd 0e ff 28 3d
       0.031244395 0.09882355 -0.039100524 0.041258864
000050 78 b2 6b bc 33 3f 50 bb d9 39 9e 3d 30 c0 90 bd
       -0.014385812 -0.003177595 0.07725877 -0.07067907
000060 31 2f f4 3c 3a c9 a1 3d ed 75 40 3c 1e e2 7b 3d
       0.029807659 0.07899709 0.011746866 0.06149494
000070 71 77 91 bc 3a 69 93 3d bc cb 86 bd d2 84 25 3a
       -0.01775715 0.07197805 -0.06581828 0.0006314042
000080 75 5e bb bc 33 80 f4 3c c5 6d 8c 3c 0d af 90 3d
       -0.022872189 0.029846286 0.017142186 0.07064638
000090 6b 94 54 bc db 10 d7 bb 7c 2d 84 3d a6 82 66 bc
       -0.012974839 -0.0065632886 0.06453988 -0.014069235
0000a0 5a 20 99 3d f8 9a 53 bd b1 d8 0f bc a8 88 a4 bb
       0.07476874 -0.05166146 -0.008779691 -0.0050211735
0000b0 ce a9 29 3d 1a 2e 80 3d a7 19 42 bc d7 0c 93 bd
       0.041421704 0.06258793 -0.011846936 -0.071801834
0000c0 f2 bd 1e 3d 05 4d 2e 3d 98 0c 6b 3d a8 6f 92 bd
       0.038755365 0.04255392 0.057385057 -0.07150203
0000d0 0a 3c 71 3d 96 fe ab 3d 91 5b 05 3c 71 2e 9e bd
       0.05889515 0.08398168 0.008139507 -0.07723702
0000e0 ca 09 5a 3d 01 59 91 bd 6a 74 c4 3c b4 a5 10 3c
       0.05323199 -0.07097054 0.023981292 0.008828569
0000f0 01 7d b4 bc 5f 70 16 3d 9a ea 6d bd ad ee 99 3c
       -0.022032263 0.03672826 -0.05808506 0.018790567
000100 e3 de 12 bd 26 1b 75 bc d7 40 09 3c 47 4b 9b 3d
       -0.035857093 -0.014960086 0.008377275 0.075827174
000110 55 2a bf bc e4 05 75 3d 21 cb b8 bc 01 ea 50 bd
       -0.023335615 0.05982007 -0.022557797 -0.051004414
000120 71 51 6f bd f4 a6 8a bd e4 7d ce 3d fa 24 0d bd
       -0.058427278 -0.06770125 0.100826055 -0.03445909
000130 87 58 f7 3c ff 03 b4 3c b0 85 87 3d 2d 7d 9d 3d
       0.03019358 0.021974562 0.06617296 0.07689891
000140 97 b3 86 3d 6c 00 7f bd 34 4a 85 bc a3 23 4c bd
       0.06577223 -0.06225626 -0.016270734 -0.049838673
000150 1c fb 35 bd d5 bc bf 3c a6 ab b1 3d 0d e1 9f bd
       -0.04442893 0.023405472 0.086753175 -0.07806597
000160 e7 c0 7c 3d 67 73 eb bc de f1 6a 3b 30 b9 96 3d
       0.061707404 -0.028741552 0.003584973 0.073595405
000170 c1 cb 6d bb 82 b7 ee 3c d5 bb 70 bd 02 91 a7 3d
       -0.0036284777 0.029140238 -0.05877288 0.08181955
000180 73 41 1d 3b 7f 79 76 bd ea 83 dc 3c 3f 7c 64 bd
       0.002399531 -0.06017446 0.02691837 -0.055782553
000190 73 25 92 bd c3 58 11 3c 8f 84 51 3d cb 28 d3 bc
       -0.07136049 0.00887126 0.05115181 -0.025776288
0001a0 c2 35 26 3d 6a 3f aa 3d a8 4c 5f 3d 79 af 69 bd
       0.04057861 0.083128765 0.054516464 -0.05705211
0001b0 42 ee 1a 3b e7 6a a4 bc b2 23 98 bd dd 3d 88 bc
       0.0023640548 -0.020070506 -0.07428683 -0.016631061
0001c0 9a 8c 8f 3d 11 f5 ac 3d 87 d3 ae 3b cd cf a9 3c
       0.070092395 0.0844518 0.0053352746 0.02072897
0001d0 bd 4b 09 bd 86 86 82 3d ee 37 00 bd 5a de 93 bd
       -0.033519495 0.063733146 -0.03130334 -0.072201446
0001e0 86 52 9e 3b 9c 29 64 3d 40 ac ab bd 2f 44 ac 3d
       0.004831615 0.055703744 -0.083824635 0.084114425
0001f0 81 52 f7 3c 65 4d 2a bd 1a ca e6 bc df 6c 91 3d
       0.030190708 -0.041577715 -0.028172541 0.07100844
000200 80 2e 86 bd 5f 02 0e bc 4f b3 1c 3d 00 16 aa bd
       -0.06551838 -0.0086675575 0.03825694 -0.083049774
000210 af 35 58 3d f9 0c 8b 3d ea d7 41 3d 5c e5 7f bd
       0.05278557 0.06789584 0.047325052 -0.062474594
000220 6e e6 aa 3d 2c fb 90 bd 1e c0 9b 3d 2f 14 a7 bd
       0.08344732 -0.07079157 0.07605003 -0.081581466
000230 22 56 99 bd a1 2b 3e 3d ba 5c 6f 3c 92 8c d1 3b
       -0.07487132 0.046428327 0.01460951 0.006394931
000240 b2 53 64 bd 27 a8 06 bd df c8 fa bc e8 9a cd bd
       -0.05574388 -0.032875206 -0.03061336 -0.10039312
000250 a3 61 d9 bc c3 01 ec 3b 1a 60 9e b9 3a 3a 23 3d
       -0.026535815 0.0072023585 -0.0003020771 0.03985045
000260 82 8f b0 3d 8b bb ca 3c d4 57 f7 bc cd 24 e4 bc
       0.08621122 0.02474763 -0.030193247 -0.02784958
000270 73 da d9 bd 93 e1 89 bd d3 b3 50 bc 68 e6 30 bd
       -0.10637369 -0.06732478 -0.012738186 -0.043188483
000280 cc 94 0d 3d dc 82 38 bd 57 77 a1 3d af e1 89 bd
       0.034565732 -0.045046672 0.078840904 -0.06732499
000290 14 b0 50 bb e8 0d ab 3d 1e 5d 53 3d 28 3f 47 bd
       -0.0031843232 0.08352262 0.051602475 -0.048644215
0002a0 ae 2a af 3c 19 48 3f 3c 25 fd 49 bd 5a 77 b1 bc
       0.021382656 0.011674904 -0.049313683 -0.021663357
0002b0 81 c0 8d 3c c0 99 89 bd d1 76 b5 3c c5 ba f6 3c
       0.017303707 -0.067187786 0.022151383 0.030118356
0002c0 68 10 c1 bc eb 5c 9c 3d c4 77 82 bb 5c 30 4f 3d
       -0.023567393 0.0763491 -0.0039815623 0.05058323
0002d0 9d 79 b3 3d 8f 96 fe bc 98 8e 2a 3d 7d c9 96 bc
       0.0876343 -0.031077651 0.041639894 -0.018406624
0002e0 b5 75 b4 bb 98 23 3b bc b8 a4 df bb 13 ac e1 bc
       -0.005507196 -0.01142206 -0.006825056 -0.027547872
0002f0 72 1d c0 3c 8d 33 3e bb 59 2e 6f 3d 9c 6b 42 bc
       0.02345154 -0.0029022426 0.05839381 -0.011866476
000300 53 9b 32 3c 13 29 0e bd 85 09 89 bd f5 58 2e 3d
       0.01090129 -0.03470714 -0.06691269 0.042565305
000310 b3 c3 4e 3c a7 d4 29 bd 13 a2 e9 bc fb 42 20 3d
       0.0126199005 -0.041462567 -0.028519666 0.039126378
000320 41 61 65 bc 34 fe f7 3c 2e 60 34 bb 07 df 25 3d
       -0.014000238 0.03027258 -0.0027523148 0.0404959
000330 1f f0 f1 3c 32 21 76 bc 6d 35 ff 3c 1b 20 76 3d
       0.029533444 -0.015022563 0.031153405 0.060089212
000340 24 c1 8b 3b b2 90 58 3c bd 4b 0c 3c 6b 7f 8d 3d
       0.0042649675 0.013218092 0.008562979 0.06909069
000350 e8 11 4b bd ad 50 5c bd 3d 3a 0c 3d 00 16 8f bd
       -0.049577624 -0.053787876 0.034235228 -0.06986618
000360 06 7e a8 3b 43 09 1d bd 86 41 74 3d 79 10 b5 bd
       0.0051419763 -0.03833891 0.0596328 -0.088410325
000370 d5 4a 61 3d 9c c5 bb 3d 9e 31 62 3c 75 4f 4a bc
       0.055003006 0.0916855 0.013805775 -0.012348046
000380 c1 18 98 3d 86 98 39 bd 86 e4 f2 bb 0b 56 14 bd
       0.074265964 -0.045311473 -0.007412496 -0.03621487
000390 8d 8a 7e bb 5b ff 67 3c 61 ce c1 3c 0b d8 22 bc
       -0.0038839907 0.014160003 0.02365798 -0.009939204
0003a0 a1 e5 bf bd 62 ac dc bb df e5 5e ba 3d 2f 08 3c
       -0.0936997 -0.006734417 -0.00085028814 0.008312044
0003b0 60 6d b0 3d 28 85 9d 3d e4 27 82 bd 3f 1b 01 3c
       0.086146116 0.07691413 -0.06355265 0.007880031
0003c0 f7 1f 26 bd 7b 8a a1 bd b4 f8 69 bd 86 74 87 3d
       -0.040557828 -0.07887741 -0.057121947 0.06614022
0003d0 02 b8 59 3d 0e 1c 35 3d de dd 29 3d e0 4c 9c bd
       0.053154 0.04421621 0.041471355 -0.0763185
0003e0 c4 f5 fd 3b fd 78 99 3d 4d 95 33 bd a3 b6 92 3d
       0.007750245 0.0749378 -0.043843556 0.071637414
0003f0 fe 46 a5 3c fa 85 6c 3d f7 ef 19 bd 06 47 47 3d
       0.020175453 0.057744958 -0.037582364 0.048651718

fc2.bias f4 [64]
000000 d1 50 9a 3c bc 05 92 3d 69 5c 28 3d 01 c3 2d bd
       0.018837364 0.0713 0.041103754 -0.0424223
000010 75 bf c9 bc 0f cb b7 3c 94 60 4f bd d6 d0 4e bc
       -0.024627427 0.022435693 -0.050629213 -0.012623033
000020 77 23 b7 3c 58 84 09 bd b3 07 04 3d 90 67 9a 3b
       0.022355778 -0.03357348 0.032233905 0.0047120526
000030 d2 4a b0 3d 01 72 8e bd 59 82 8a 3d 6d 6c 8e 3d
       0.08608021 -0.06955338 0.06763143 0.06954274
000040 2c 53 50 bd e9 24 53 3c b0 e4 ab bb 7f cd 82 3d
       -0.05086057 0.012887218 -0.0052457675 0.063868515
000050 b6 12 8b 3d 63 11 02 bd 71 8a 17 bd 90 1e 95 bd
       0.06790678 -0.031754863 -0.036997262 -0.0728122
000060 fa 91 90 3d 5e 30 84 bd fb 47 38 bd 6b 39 a5 3d
       0.07059093 -0.06454538 -0.04499052 0.08067592
000070 35 cf 3a 3d f2 b8 8b 3d 62 4a 9f 3d c5 36 93 bd
       0.045607764 0.06822385 0.07777859 -0.07188181
000080 35 30 48 bc 28 f3 f3 3b 96 26 c7 3d 26 a7 9f bb
       -0.012218525 0.007444758 0.097241566 -0.0048722206
000090 14 cd e9 bb db d3 6d 3d cc 72 52 3d 46 61 44 bd
       -0.007135043 0.05806337 0.05137901 -0.04794433
0000a0 e0 59 60 bd cb ab 6c bc 6a a2 4f 3d ca 29 d5 3d
       -0.05477321 -0.0144452555 0.050692 0.10408361
0000b0 22 6c 33 3d 4f f3 9b 3d 72 44 16 3d 91 cd a5 bc
       0.043804295 0.07614767 0.03668637 -0.020239623
0000c0 f5 ab 88 38 a2 d9 9c 3d 10 ba a2 3c 3b 95 6b 3c
       6.517015e-05 0.07658698 0.019864112 0.014378841
0000d0 2c 94 83 3d 76 b9 95 3d 79 23 8d 3c 27 a8 96 bb
       0.06424746 0.073107645 0.017228829 -0.004597682
0000e0 c3 17 f9 bc 1e 1c 29 bd f6 9f f4 bc 86 7d 97 3d
       -0.030406838 -0.04128658 -0.029861432 0.073969886
0000f0 e7 fa 77 3d 91 c4 33 bd d5 a7 83 3d da 80 ca bb
       0.060542013 -0.043888632 0.06428496 -0.006179911

bn2.weight f4 [64]
000000 f5 26 81 3f 1a 9a 7d 3f 09 5b 82 3f ad c0 80 3f
       1.0090014 0.99063265 1.0184032 1.00588
000010 2d 0e 78 3f 4f 19 7b 3f 45 ec 7f 3f d5 ea 77 3f
       0.9689663 0.9808549 0.99969894 0.968427
000020 97 ca 7d 3f 3e df 7a 3f f6 2b 81 3f 4f cf 7c 3f
       0.9913725 0.9799689 1.0091541 0.9875383
000030 8b 17 7d 3f ac 41 80 3f 04 aa 7a 3f c1 d2 7d 3f
       0.9886405 1.0020041 0.97915673 0.9914971
000040 06 f1 7b 3f 6c 90 78 3f 80 f8 80 3f 26 03 81 3f
       0.9841465 0.9709537 1.0075836 1.0079086
000050 a4 8c 7e 3f c4 d1 7d 3f 9f c6 7d 3f d4 5f 81 3f
       0.9943335 0.991482 0.99131197 1.010737
000060 83 b3 7c 3f eb e2 7b 3f 33 a0 80 3f 31 eb 80 3f
       0.98711413 0.98393124 1.0048889 1.0071775
000070 77 3f 7e 3f bd 41 7d 3f 7e 37 81 3f 4d cd 7b 3f
       0.9931559 0.98928434 1.009506 0.9836014
000080 1b 08 7d 3f c4 ef 80 3f 30 57 80 3f 17 ee 7e 3f
       0.9884049 1.0073171 1.0026608 0.99582046
000090 d0 aa 80 3f 26 85 7e 3f 3d c8 7b 3f f0 c8 7d 3f
       1.0052128 0.9942192 0.98352414 0.9913473
0000a0 e7 97 79 3f 9a 51 7d 3f 97 ac 79 3f 69 96 7b 3f
       0.9749741 0.9895264 0.97528976 0.9827638
0000b0 99 80 80 3f 53 dc 7f 3f d0 02 79 3f 04 95 7c 3f
       1.0039245 0.99945563 0.97269917 0.9866488
0000c0 38 ce 78 3f 16 3b 79 3f 48 2e 7d 3f 46 75 82 3f
       0.97189665 0.97355783 0.98898745 1.0192039
0000d0 1d a5 80 3f 7d c4 79 3f f0 19 7c 3f e6 c5 80 3f
       1.0050389 0.9756544 0.9847708 1.0060394
0000e0 a5 b8 82 3f ba 3d 7b 3f fc b8 81 3f 46 12 81 3f
       1.0212599 0.9814106 1.0134578 1.0083702
0000f0 ed 62 7c 3f fe 76 79 3f c3 06 82 3f 19 94 7e 3f
       0.9858845 0.9744719 1.0158314 0.9944473

bn2.bias f4 [64]
000000 ec a1 e9 3e b7 84 d8 be 24 df b6 3e 46 0b c9 3e
       0.4563135 -0.42288753 0.35717118 0.39266413
000010 b9 7f f5 3e 5e 2b dd 3e 4e 20 d3 be 62 34 ec 3e
       0.47949007 0.4319715 -0.41235584 0.46133715
000020 17 38 c0 3e 31 a5 c2 3e 47 86 c0 be b9 83 d0 be
       0.37542793 0.38016656 -0.37602445 -0.40725496
000030 d6 13 b9 3e 5d 63 c6 3e df b5 cd 3e 03 96 b7 be
       0.36147946 0.38747683 0.4017782 -0.35856637
000040 04 10 c4 be 6a a6 de be 0c 66 cf be f8 9e f2 be
       -0.3829347 -0.4348634 -0.40507543 -0.4738691
000050 0d 88 bd be 06 9e b4 3e db d1 bc be f3 a1 ce be
       -0.3701786 0.35276812 -0.36878857 -0.40357932
000060 95 b7 d7 be 85 76 c7 be fe 7a f2 3e 2d 05 d0 3e
       -0.4213225 -0.3895761 0.4735946 0.4062895
000070 89 9f dc 3e f2 92 bf 3e ab 82 03 bf 9d 32 cf be
       0.43090466 0.37416798 -0.5137126 -0.40468302
000080 c2 96 e4 be 2b 0a 03 3f 1e 12 d7 be 72 f8 ba 3e
       -0.4464627 0.5118739 -0.4200601 0.36517674
000090 40 33 c7 3e 66 fa ba 3e b9 c2 b8 be b7 33 b7 3e
       0.38906288 0.36519164 -0.36086062 0.35781643
0000a0 74 fb c8 be f6 44 c0 be 39 a9 de 3e 6a 12 ea 3e
       -0.39254344 -0.37552613 0.43488482 0.45717174
0000b0 b1 39 c3 be 87 42 bf 3e 38 af c0 3e 91 c0 e7 3e
       -0.38129953 0.37355444 0.3763368 0.45264104
0000c0 9b 8a f3 3e 5e eb d7 3e 77 e1 f7 be d4 3d d0 be
       0.47566685 0.42171758 -0.48414204 -0.4067217
0000d0 1e 54 c8 be 9e 9a df be 48 91 c3 be 8c a3 d3 3e
       -0.39126676 -0.4367265 -0.38196778 0.41335714
0000e0 32 10 f7 be dd 68 d7 be 79 21 de be ee 02 db 3e
       -0.48254544 -0.42072192 -0.43384913 0.42775673
0000f0 5b e3 c1 be 38 72 c7 3e 3f 9f c5 3e 29 30 b3 3e
       -0.3786877 0.3895433 0.38598058 0.3499768

bn2.running_mean f4 [64]
000000 2f d6 0a 3f 97 6e 31 3e 15 98 66 3e 6f 42 bb 3e
       0.5423307 0.17327343 0.22518952 0.36574122
000010 e5 e0 18 3e 7b 9f a7 3e 14 3e 11 3e d0 eb 64 3e
       0.1492954 0.3273886 0.14183837 0.2235558
000020 0f 3a b5 3e 97 00 f7 3d 04 45 b0 3e 05 ae 78 3e
       0.35395858 0.120606594 0.34427655 0.24285133
000030 f8 5f 93 3e 72 2f 9c 3e d1 da 23 3e fa 82 35 3e
       0.28784156 0.30504948 0.1600144 0.17725745
000040 2f dd 84 3e 14 10 14 3e 05 f3 c0 3e 28 5c d6 3e
       0.2595 0.14459258 0.3768541 0.41867185
000050 96 d9 88 3e 38 5c b1 3e 65 00 a4 3e 25 23 2d 3e
       0.26728505 0.3464067 0.3203155 0.16907938
000060 c2 b6 bc 3e d5 d3 87 3e ef ae f6 3e c0 bd 96 3e
       0.36858183 0.26528803 0.4818034 0.29441643
000070 1d c9 8f 3e d1 00 e0 3e b6 ed bb 3e a4 21 37 3e
       0.28083125 0.43750623 0.36704797 0.17883927
000080 97 2c e4 3e 6c fc c6 3e 26 7b 91 3e 5d e3 47 3e
       0.4456527 0.38864458 0.28414267 0.19520326
000090 a2 39 88 3e 5e 7b 39 3e 4e d6 f5 3d 0d 15 a2 3e
       0.2660647 0.18113467 0.12003766 0.31656685
0000a0 57 9c 25 3e f6 cf b1 3e 19 5e 88 3e f4 4b 1d 3f
       0.1617292 0.34728974 0.2663429 0.6144402
0000b0 57 d8 86 3e 58 0c a2 3e 2a 90 93 3e 9c e8 21 3e
       0.2633693 0.31650043 0.28820926 0.1581139
0000c0 20 cd 84 3e 92 c5 84 3e ba 6d b3 3e 61 5b a9 3e
       0.25937748 0.25931984 0.35044652 0.3307753
0000d0 f1 4a 09 3f 89 b8 6f 3e e3 a0 46 3e 49 4b d8 3e
       0.53629977 0.23410238 0.19397311 0.42244938
0000e0 dc d8 ba 3e 9f 2a 93 3e 94 71 f1 3e 2d a5 61 3f
       0.36493576 0.28743455 0.47156966 0.88142663
0000f0 38 03 23 3e 00 4b 85 3e 8e 57 c1 3e 37 74 33 3e
       0.15919197 0.26033783 0.3776211 0.17524801

bn2.running_var f4 [64]
000000 82 6f c5 3e 68 6e 12 3e d4 17 59 3d 96 cd 10 3e
       0.38561636 0.14299929 0.05300124 0.14140925
000010 20 da 05 3e 38 ec 0e 3e 40 84 e8 3d b0 52 7d 3e
       0.1307149 0.13957298 0.1135335 0.24738574
000020 9c 6a 42 3e fd a4 d3 3d 18 ae 65 3e 71 06 b2 3d
       0.18985981 0.103342034 0.22429693 0.08692635
000030 81 91 c9 3d b9 f6 18 3e 0c 5a 4b 3e 00 20 1c 3d
       0.09842206 0.14937867 0.19858569 0.038116455
000040 fe 02 89 3d e6 f3 5d 3d 6d 89 42 3e a9 bf 52 3e
       0.06690024 0.054187678 0.18997736 0.20580925
000050 27 12 9e 3d fb 09 3d 3e a4 e4 d4 3d 91 a3 27 3d
       0.07718306 0.18460838 0.10395172 0.040927473
000060 35 66 13 3e 66 e1 f2 3d cd 2e 7b 3e fb 47 b2 3d
       0.14394458 0.118593976 0.24529572 0.087051354
000070 40 9a d5 3d 9a 73 66 3e ce a3 9c 3e 66 d8 83 3d
       0.104298115 0.22505036 0.30593723 0.06437759
000080 25 98 5a 3e 48 b9 1d 3e 4a 72 c3 3d 59 22 6b 3d
       0.21347101 0.1540271 0.09543283 0.057405803
000090 2d 37 ab 3d 8a f7 f1 3c 28 c8 cc 3c 33 cf ee 3d
       0.08360133 0.029536981 0.024997786 0.11660614
0000a0 e6 17 a8 3d 6e 8a 09 3e 6a 89 d7 3d 00 a8 e4 3e
       0.08207683 0.13431713 0.105242565 0.44659424
0000b0 af eb 36 3e 5f 82 e6 3d 38 b7 92 3e d2 a8 80 3d
       0.17863344 0.11255335 0.2865541 0.062822
0000c0 4d 7e c5 3d eb 16 4c 3e 86 79 0e 3e 9c 43 5d 3f
       0.096432306 0.19930618 0.13913545 0.8643129
0000d0 72 fd a5 3e ea 38 9d 3d c0 ce 8b 3d 33 8a 4b 3e
       0.32419926 0.07676871 0.06826544 0.19876938
0000e0 09 94 18 3e 70 64 46 3e 40 68 94 3e 54 81 4d 3f
       0.14900221 0.19374251 0.28985786 0.80275464
0000f0 98 fc 7f 3d b1 0d 47 3e 4e 33 16 3e e2 53 56 3d
       0.06249675 0.19438817 0.14668009 0.05232609

fc3.weight f4 [1, 64]
000000 85 7f aa be 1a ba ad 3e f1 34 ac be 0f 3e ab be
       -0.33300415 0.33931047 -0.3363414 -0.33445784
000010 1f 3e c7 be 4f bd a1 be 16 99 bf 3e 07 92 be be
       -0.38914582 -0.31589743 0.37421483 -0.37220785
000020 70 13 dd be b7 cc e4 be 38 89 ed 3e f0 34 bf 3e
       -0.43178892 -0.44687435 0.46393752 0.37345076
000030 5d 97 d4 be 86 0f e0 be 34 e1 d0 be 65 2f bb 3e
       -0.4152173 -0.43761843 -0.40796816 0.36559597
000040 aa 0e 9f 3e ba 70 b3 3e 6c 6f cc 3e 26 9b a3 3e
       0.31065875 0.3504694 0.39928758 0.31954306
000050 12 3f ae 3e 90 80 9f be 59 ee ba 3e 9c e1 9e 3e
       0.34032494 -0.31152773 0.3650997 0.310315
000060 6a ac b1 3e b5 7d cc 3e 25 7f a9 be 86 d3 a2 be
       0.34701854 0.39939657 -0.33104816 -0.31802005
000070 af e3 b7 be 80 7f bf be f0 b0 bd 3e 95 0a c6 3e
       -0.35915896 -0.37401962 0.37049055 0.38679948
000080 5d 18 99 3e 25 5d b5 be 8f cc a1 3e 24 13 ca be
       0.299014 -0.35422626 0.31601378 -0.39467728
000090 7a d1 b5 be a2 51 c6 be 44 36 d4 3e ac 9c bc be
       -0.3551138 -0.38734156 0.4144765 -0.3683828
0000a0 a6 18 a0 3e 60 88 ba 3e dd 00 9d be d7 94 a9 be
       0.31268805 0.3643217 -0.3066472 -0.33121368
0000b0 98 b8 d0 3e 23 d6 bb be 15 59 f0 be 90 ff 95 be
       0.40765834 -0.3668681 -0.46942964 -0.2929654
0000c0 1c df a7 be 4b 5b c9 be 54 63 a1 3e 8d 82 e1 3e
       -0.32787406 -0.39327464 0.31521094 0.44044915
0000d0 a0 e0 98 3e d9 a3 a4 3e 48 8c ba 3e 31 78 ae be
       0.29858875 0.32156256 0.3643515 -0.34076074
0000e0 6b 5f c7 3e 01 81 b0 3e 9b 55 d2 3e 2c e4 a0 be
       0.38939986 0.34473422 0.41080937 -0.3142408
0000f0 0d 80 d4 3e c1 63 dc be 63 99 98 be f6 8f b5 be
       0.41503945 -0.43044856 -0.29804525 -0.35461396
