PreTrained/cstr_ode/Deep_DQN/0_6/400.pth (torch, 43158 bytes, 13 tensors)

fc1.weight f4 [128, 4]
0	0x3ba30324	0.0049747396
1	0x3e818e21	0.25303748
2	0xbecc096c	-0.39850938
3	0xbec5c946	-0.38630122
4	0xbe4532f4	-0.19257718
5	0x3e094bec	0.13407868
6	0xbc224f40	-0.00990659
7	0x3ecaface	0.39644474
8	0xbd290d5a	-0.0412725
9	0x3dfd4fdd	0.12368748
10	0xbe2484b7	-0.16066252
11	0xbdb19c05	-0.086723365
12	0xbef82a42	-0.4846974
13	0xbea5d2f5	-0.3238751
14	0xbe470520	-0.19435549
15	0x3c549f36	0.012977412
16	0x3e47777e	0.19479176
17	0x3e9b13ed	0.3028864
18	0xbeaf065c	-0.3418454
19	0xbe4b816c	-0.1987359
20	0x3e34e614	0.17665893
21	0x3ed6b8bf	0.41937825
22	0xbdfbe4f5	-0.122995295
23	0x3ebf915c	0.37415588
24	0xbda92ef0	-0.08260906
25	0x3d92e2cf	0.071721666
26	0x3ee0fcc4	0.43942845
27	0xbef19692	-0.4718519
28	0xbea5b66a	-0.32365733
29	0xbdf12f69	-0.11776621
30	0xbe5d48d5	-0.21609814
31	0x3edd2f28	0.4320004
32	0xbea784ec	-0.327186
33	0xbe65fed9	-0.22460498
34	0xbeae30f0	-0.3402171
35	0xbee01c0a	-0.43771392
36	0xbe9c9c0f	-0.30587813
37	0x3edc9c80	0.4308815
38	0x3e487db0	0.19579196
39	0x3e782700	0.24233627
40	0x3d416280	0.047213078
41	0xbe864a24	-0.2622844
42	0x3dc1cb49	0.09462602
43	0xbecc4819	-0.39898756
44	0xbeb8fa1a	-0.36128312
45	0xbe83f9c6	-0.257765
46	0x3ea18526	0.31546897
47	0x3e961926	0.29316062
48	0xbe6311c8	-0.22174752
49	0xbc93cb20	-0.018041193
50	0x3ea3ba40	0.31978035
51	0x3efe7f82	0.49706656
52	0x3e4e1e77	0.20128809
53	0x3d48219c	0.048860177
54	0x3eb2af1c	0.34899223
55	0xbe9aaa3e	-0.3020801
56	0x3dafa026	0.08575468
57	0xbec80aa5	-0.3907062
58	0xbeb44204	-0.35206616
59	0xbe687f4a	-0.22704807
60	0x3e7f40c2	0.24927047
61	0x3e3651c3	0.17804627
62	0xbe8bd92c	-0.27314126
63	0x3e1aadc8	0.15105355
64	0x3e8328d7	0.25617096
65	0xbd1cca29	-0.038278732
66	0x3d09ff37	0.033690657
67	0x3e0200c7	0.12695609
68	0x3e9f388e	0.31097835
69	0x3ef59378	0.47964072
70	0xbec72e41	-0.38902476
71	0xbe49d449	-0.19709887
72	0x3e4abea6	0.19799289
73	0x3ed24f77	0.41076252
74	0x3edcfd17	0.43161842
75	0x3ef5882f	0.47955462
76	0x3dd875b8	0.10569328
77	0xbedf8199	-0.43653563
78	0x3d1a0953	0.03760655
79	0xbea01acd	-0.31270447
80	0xbee0efaa	-0.4393285
81	0x3eef2b02	0.467125
82	0x3ec142d9	0.37746313
83	0xbeee8b0d	-0.46590462
84	0x3dbfaa08	0.09358603
85	0xbdac80c8	-0.084230006
86	0xbda882b8	-0.082280576
87	0xbe6a5f1c	-0.22887844
88	0x3e536850	0.20645261
89	0xbe9e5376	-0.3092305
90	0x3e4990c4	0.1968413
91	0x3e817616	0.25285405
92	0x3eb66979	0.35627344
93	0x3e39918a	0.18121925
94	0xbf00fb75	-0.5038369
95	0xbea2ff71	-0.3183551
96	0x3e68497a	0.22684279
97	0x3e10566d	0.14095469
98	0xbed481f2	-0.4150539
99	0xbe8a3764	-0.26995385
100	0x3ef0d4f2	0.47037464
101	0x3eac7f54	0.33690894
102	0xbe5f3eb0	-0.21801257
103	0xbe00dcd4	-0.12584239
104	0xbeeb9046	-0.4600851
105	0xbce00979	-0.027348267
106	0xbeb263b7	-0.348417
107	0xbecc54e0	-0.39908504
108	0xbd0fdd43	-0.03512312
109	0x3dab08e9	0.08351309
110	0xbe42e9e4	-0.19034535
111	0x3e97d38d	0.29653588
112	0xbea0f962	-0.31440264
113	0x3ee89f69	0.4543412
114	0x3eab0968	0.33405614
115	0xbeda2763	-0.42608175
116	0xbdf04a41	-0.11732913
117	0x3b04e283	0.0020276613
118	0x3da8b05e	0.08236764
119	0x3ddd64ac	0.10810217
120	0x3e51d02c	0.20489568
121	0x3cae3afd	0.021268362
122	0xbe70edfb	-0.23528282
123	0x3e7245d4	0.2365945
124	0xbef5567d	-0.47917548
125	0xbe92106f	-0.28528163
126	0xbdf76867	-0.1208046
127	0xbe6c16cb	-0.2305557
128	0xbe33078f	-0.17483352
129	0xbece381d	-0.40277186
130	0xbdd3c1f3	-0.10339727
131	0x3de3dd0f	0.11126148
132	0xbeaa6aed	-0.33284703
133	0xbcade00b	-0.021224996
134	0x3eb3bd9e	0.35105604
135	0xbd04fe93	-0.032469343
136	0x3c63ac80	0.013896108
137	0xbd30adc0	-0.04313445
138	0x3dcf3d10	0.101190686
139	0x3ea2c660	0.31791973
140	0x3eed726f	0.46376368
141	0x3ea5033d	0.32229033
142	0x3ef95258	0.48695636
143	0xbcd9951e	-0.026560362
144	0xbede4932	-0.4341522
145	0xbe7a0723	-0.24416785
146	0x3eb70edf	0.35753533
147	0x3c6a7526	0.014310157
148	0xbe81fbb0	-0.25387335
149	0xbebcffa7	-0.36913797
150	0xbef262fb	-0.4734114
151	0xbed7f893	-0.42181835
152	0xbda21c51	-0.07915557
153	0x3e8ae3c8	0.27126908
154	0x3e7e1070	0.24810958
155	0xbeeb877f	-0.46001813
156	0x3ea174f9	0.31534556
157	0xbec9e7ea	-0.3943475
158	0xbdd7733b	-0.10520025
159	0xbe52fc34	-0.2060402
160	0xbda42b20	-0.08016038
161	0xbdd67fa4	-0.10473564
162	0xbeef06fb	-0.46685013
163	0xbed9e328	-0.4255612
164	0xbda03c28	-0.07823974
165	0x3bd3e180	0.0064660907
166	0xbe6896b8	-0.22713745
167	0x3e40deb8	0.1883496
168	0xbee837ff	-0.45355222
169	0xbd25ab8c	-0.040446803
170	0x3ede620d	0.43434182
171	0xbe467322	-0.19379857
172	0x3ee88c7a	0.45419675
173	0x3e3081a8	0.1723696
174	0xbee514c3	-0.44742402
175	0x3ea1f874	0.31634867
176	0xbd85d924	-0.06535557
177	0xbe4a1e09	-0.1973802
178	0x3ece5d4b	0.40305552
179	0xbede190f	-0.43378493
180	0x3d201691	0.03908402
181	0xbdb46f4f	-0.08810293
182	0x3ec1b161	0.37830642
183	0x3ddd1fef	0.107971065
184	0x3e86706a	0.2625764
185	0x3e3247f2	0.17410257
186	0xbdb8b475	-0.090187944
187	0xbdab36db	-0.08360072
188	0xbedc5759	-0.4303539
189	0x3e97316d	0.29529896
190	0x3ec09ffa	0.37622052
191	0x3eaf295c	0.34211242
192	0xbeb3030a	-0.34963256
193	0x3c9da50e	0.019243743
194	0xbeb2e5b3	-0.34940872
195	0xbe8b5bab	-0.27218375
196	0xbe9078f5	-0.28217283
197	0x3e259315	0.16169389
198	0xbe93da85	-0.28877655
199	0xbc0a50a0	-0.008442074
200	0x3d5d3527	0.05400577
201	0x3e8f58cb	0.2799743
202	0xbeade947	-0.3396704
203	0xbec11256	-0.37709302
204	0xbe8fe349	-0.28103092
205	0x3eab24b8	0.33426452
206	0xbe400b30	-0.18754268
207	0x3ed64746	0.41851252
208	0x3e3924a0	0.18080378
209	0x3d81aa40	0.06331301
210	0xbb73ed00	-0.003722012
211	0xbdca6d08	-0.09884077
212	0x3d7320cc	0.05935745
213	0xbdf56df1	-0.1198386
214	0xbb7610de	-0.0037546675
215	0x3d8b42a4	0.0679982
216	0xbec8c364	-0.3921157
217	0xbe842a07	-0.25813314
218	0x3ed2551a	0.41080552
219	0xbed26585	-0.41093078
220	0xbba9ea2f	-0.0051853876
221	0x3eecc83c	0.46246517
222	0x3e4e6c1f	0.20158432
223	0x3cf42310	0.029801875
224	0xbed39f5b	-0.41332516
225	0x3e71e6a1	0.23623134
226	0xbeaf5e62	-0.34251696
227	0xbe21b8bb	-0.15793125
228	0xbe2ab0c8	-0.16668999
229	0xbda23370	-0.07919967
230	0xbbdae36e	-0.0066799438
231	0x3ed32696	0.41240376
232	0x3d8dce0d	0.06924067
233	0x3edfe59f	0.43729874
234	0x3ea0417b	0.31299958
235	0xbeaaf658	-0.3339107
236	0x3e6c8d43	0.23100762
237	0xbeba1275	-0.36342207
238	0xbe51446d	-0.20436259
239	0x3dec1c95	0.11528889
240	0x3e2a2201	0.16614534
241	0x3ebf8577	0.37406513
242	0xbe23bf15	-0.15990861
243	0xbbc1310d	-0.00589574
244	0x3e7fa8b6	0.24966702
245	0xbef85bcc	-0.48507535
246	0x3eb46cdc	0.35239303
247	0xbed08473	-0.4072605
248	0x3b9db7b9	0.004813161
249	0xbdaabace	-0.083364114
250	0xbe8dd639	-0.277025
251	0x3d439243	0.047746908
252	0x3ee0414b	0.43799815
253	0xbe27bee4	-0.16381413
254	0xbe8b4290	-0.2719922
255	0xbe497018	-0.19671667

fc1.bias f4 [128]
0	0xbdda7a9b	-0.106679164
1	0xbe3edf14	-0.18639785
2	0x3e051750	0.12997174
3	0x3e3086da	0.17238942
4	0xbe77342d	-0.24140997
5	0x3d1550ec	0.036454126
6	0x3e98c449	0.29837254
7	0xbd215bdc	-0.039394245
8	0x3e1e6082	0.15466502
9	0xbdfe8908	-0.124284804
10	0x3e372055	0.17883427
11	0xbeb971e6	-0.3621971
12	0xbe96890e	-0.2940144
13	0xbe714c66	-0.235643
14	0x3eea5a0e	0.4577183
15	0xbe215bab	-0.15757625
16	0xbd3c345b	-0.045948368
17	0xbe7b385b	-0.24533217
18	0x3efed708	0.4977343
19	0x3ef8debd	0.48607436
20	0xbed1e551	-0.40995267
21	0xbecf8810	-0.40533495
22	0xbebb1c90	-0.3654523
23	0xbc881c35	-0.016615013
24	0xbe0fac89	-0.1403066
25	0xbea7904e	-0.32727283
26	0xbe327313	-0.1742671
27	0x3dc0754c	0.093973726
28	0xbe87818a	-0.26466018
29	0x3ddb8b2b	0.107199036
30	0xbdfc9964	-0.123339444
31	0xbe82b442	-0.2552815
32	0x3da1d18e	0.079012975
33	0x3ed4687d	0.41485968
34	0xbead1388	-0.33803964
35	0x3ca958ca	0.02067222
36	0xbe2b50ee	-0.16730091
37	0x3efbde9f	0.49193284
38	0xbefe3fa9	-0.49657944
39	0xbef3b9d4	-0.47602713
40	0x3f00e7be	0.5035361
41	0xbea1f7f8	-0.31634498
42	0x3dde0c6b	0.10842212
43	0xbd50685e	-0.050880782
44	0xbdbd1670	-0.09232795
45	0xbdb93022	-0.09042384
46	0x3ea530d2	0.3226381
47	0x3c00851d	0.007844237
48	0xbefacfab	-0.48986563
49	0xbe9bd519	-0.30436018
50	0xbe150e15	-0.14556153
51	0x3e86b499	0.2630966
52	0xbea5aa8e	-0.32356685
53	0x3ef6072c	0.48052347
54	0xbdbab6d4	-0.09116903
55	0xbda5d96f	-0.08098113
56	0x3ed1ead5	0.40999475
57	0x3e6cd273	0.23127155
58	0x3ed9ad04	0.42514813
59	0x3e99bcd0	0.30026865
60	0xbe1c6446	-0.15272626
61	0xbeb310d3	-0.34973773
62	0xbd251b55	-0.04030927
63	0x3ed3582e	0.41278213
64	0xbe3c81da	-0.1840891
65	0xbeed681e	-0.46368498
66	0x3e5461dc	0.20740455
67	0x3ef8d04d	0.4859642
68	0xbe20ebb8	-0.1571492
69	0xbed3f95a	-0.41401178
70	0xbee83510	-0.45352983
71	0x3e052214	0.13001281
72	0xbd1177bf	-0.03551459
73	0xbe86b7a6	-0.26311988
74	0x3dcb1d34	0.099176794
75	0x3e3af2e7	0.18256722
76	0x3ecddda9	0.40208176
77	0x3ec6ea51	0.38850644
78	0xbd9d848c	-0.07691297
79	0xbee1bb7e	-0.44088358
80	0xbee753d8	-0.45181155
81	0x3eee0c49	0.46493748
82	0x3e695b41	0.22788717
83	0x3e5a53ed	0.21321078
84	0xbeda8c37	-0.426851
85	0x3ee98121	0.4560633
86	0x3ee6d4d2	0.45084244
87	0x3ef11a80	0.4709053
88	0xbed7f530	-0.4217925
89	0xbe33ccf4	-0.17558652
90	0xbeb2516f	-0.34827754
91	0x3eec605e	0.46167272
92	0xbe5f935b	-0.21833555
93	0xbe76faae	-0.24119064
94	0x3e891f4c	0.2678169
95	0xbe683e92	-0.22680119
96	0xbe6a06fb	-0.22854225
97	0xbd314cab	-0.043286007
98	0xbd37eeb4	-0.04490538
99	0xbec76b22	-0.38948923
100	0x3ec44295	0.38332048
101	0xbe7c9e6c	-0.24669808
102	0x3e3f974d	0.1871006
103	0x3edf5219	0.43617323
104	0x3e5754e9	0.21028484
105	0x3d9ac2f6	0.07556717
106	0x3ed76855	0.42071787
107	0x3d98db5a	0.07463713
108	0xbe62baa7	-0.22141515
109	0x3ef37d7c	0.47556674
110	0x3de6c55e	0.112681136
111	0xbef9c638	-0.4878404
112	0xbe0e60a2	-0.1390405
113	0xbeae60fe	-0.34058374
114	0x3eec0184	0.46094906
115	0xbd6a5de5	-0.05721845
116	0xbee959b2	-0.45576245
117	0xbd264ed7	-0.04060253
118	0x3ea35b7d	0.31905738
119	0x3e017041	0.12640478
120	0x3e25bca6	0.16185245
121	0x3d5b3c0f	0.053524073
122	0x3e397eaa	0.18114725
123	0xbe11c3e4	-0.14234883
124	0xbe407ea7	-0.18798314
125	0xbeef490e	-0.46735424
126	0xbec30271	-0.380878
127	0x3e577bb7	0.21043287

bn1.weight f4 [128]
0	0x3f7dfeec	0.99217105
1	0x3f800000	1.0
2	0x3f80af27	1.0053452
3	0x3f80d79e	1.0065801
4	0x3f80fd8a	1.0077374
5	0x3f7d190d	0.9886635
6	0x3f815384	1.0103612
7	0x3f7fcca3	0.99921626
8	0x3f80081c	1.0002475
9	0x3f772b5d	0.9655054
10	0x3f7a6ab4	0.97819066
11	0x3f800000	1.0
12	0x3f800000	1.0
13	0x3f7c51ec	0.985625
14	0x3f7f7e4e	0.998021
15	0x3f7a3ffd	0.9775389
16	0x3f7dca22	0.99136555
17	0x3f804e56	1.0023906
18	0x3f807b23	1.0037578
19	0x3f823040	1.0170975
20	0x3f79b1d4	0.9753697
21	0x3f800000	1.0
22	0x3f81b848	1.0134363
23	0x3f7f92fb	0.9983365
24	0x3f7f8c40	0.9982338
25	0x3f800000	1.0
26	0x3f7eec86	0.99579656
27	0x3f7ef251	0.99588495
28	0x3f7cf8f6	0.98817384
29	0x3f7d7322	0.99003804
30	0x3f7ff09a	0.99976504
31	0x3f7d4176	0.9892801
32	0x3f7a2a19	0.97720486
33	0x3f819f1b	1.012668
34	0x3f800000	1.0
35	0x3f7f7b88	0.9979787
36	0x3f7e1c1f	0.9926166
37	0x3f804ca4	1.0023389
38	0x3f78b4f4	0.9715111
39	0x3f8007ea	1.0002415
40	0x3f7ecef3	0.9953453
41	0x3f800000	1.0
42	0x3f808312	1.004
43	0x3f7d8f63	0.99046916
44	0x3f8010d3	1.0005134
45	0x3f80111c	1.0005221
46	0x3f807d72	1.0038283
47	0x3f80c64b	1.0060514
48	0x3f7f1c4b	0.99652547
49	0x3f7fd144	0.9992869
50	0x3f7e8341	0.9941903
51	0x3f815f1e	1.0107152
52	0x3f800000	1.0
53	0x3f836380	1.026474
54	0x3f7dd94e	0.99159706
55	0x3f815c45	1.0106283
56	0x3f802de3	1.0014004
57	0x3f7ebdd1	0.99508387
58	0x3f809538	1.0045538
59	0x3f806f71	1.0034009
60	0x3f7fa119	0.9985519
61	0x3f80826a	1.0039799
62	0x3f803cf4	1.0018601
63	0x3f81d180	1.0142059
64	0x3f7fc032	0.9990264
65	0x3f800000	1.0
66	0x3f7f7c3c	0.9979894
67	0x3f80faff	1.0076598
68	0x3f8044aa	1.0020955
69	0x3f800000	1.0
70	0x3f800000	1.0
71	0x3f804290	1.0020313
72	0x3f7de643	0.99179476
73	0x3f7eda87	0.99552196
74	0x3f813574	1.0094438
75	0x3f80fd41	1.0077287
76	0x3f7b62a5	0.98197395
77	0x3f7e1d00	0.99263
78	0x3f7f2802	0.9967042
79	0x3f800000	1.0
80	0x3f800000	1.0
81	0x3f7fbab5	0.9989427
82	0x3f80210f	1.0010089
83	0x3f80d9c7	1.006646
84	0x3f801e9b	1.000934
85	0x3f80c7f9	1.0061027
86	0x3f7d34e7	0.9890885
87	0x3f7f17bd	0.99645597
88	0x3f800000	1.0
89	0x3f7cbe3b	0.9872777
90	0x3f7e60ec	0.9936664
91	0x3f7f15c6	0.996426
92	0x3f81cf9f	1.0141486
93	0x3f7cb980	0.9872055
94	0x3f7ff4fe	0.99983203
95	0x3f7e9125	0.9944022
96	0x3f829305	1.0201117
97	0x3f7c25c9	0.98495156
98	0x3f7c65a6	0.98592603
99	0x3f800000	1.0
100	0x3f80c3ae	1.0059717
101	0x3f80bdef	1.0057963
102	0x3f8027f7	1.0012196
103	0x3f816a7c	1.0110621
104	0x3f7f8617	0.9981398
105	0x3f80d1e5	1.0064055
106	0x3f7dd639	0.99155
107	0x3f802933	1.0012573
108	0x3f7d2b55	0.98894244
109	0x3f7e6d92	0.9938594
110	0x3f81aad7	1.0130261
111	0x3f800000	1.0
112	0x3f810471	1.007948
113	0x3f800000	1.0
114	0x3f80bd9f	1.0057868
115	0x3f7d7633	0.9900848
116	0x3f800000	1.0
117	0x3f804453	1.0020851
118	0x3f7e1bf9	0.9926143
119	0x3f811cae	1.0086877
120	0x3f7d765a	0.99008715
121	0x3f80453b	1.0021127
122	0x3f8039e3	1.0017666
123	0x3f7d2440	0.9888344
124	0x3f7e25ba	0.99276316
125	0x3f800000	1.0
126	0x3f7f66b4	0.9976609
127	0x3f7fb34d	0.99882966

bn1.bias f4 [128]
0	0xbc2a794d	-0.010404897
1	0xbc091e9e	-0.008369116
2	0xbbae0fa7	-0.0053119245
3	0x3c881149	0.016609805
4	0xbc9ebca0	-0.019377053
5	0xba434dad	-0.0007450234
6	0xbc118caa	-0.008883635
7	0x3c05b004	0.008159641
8	0x3b997143	0.0046826913
9	0xbb69fcca	-0.0035703653
10	0x3c8d8add	0.01727813
11	0x3ca6a780	0.020343542
12	0x3ccbc6ef	0.024875132
13	0xba558b13	-0.0008146029
14	0xbb52aad7	-0.0032145286
15	0xbc61c6b1	-0.013780282
16	0xbbeaac8d	-0.007161683
17	0x3acc6867	0.0015595079
18	0xbbca2a00	-0.0061695576
19	0x3aa5289d	0.0012600605
20	0xbacb2b50	-0.0015500579
21	0x3ca32880	0.019916773
22	0xb9cfa28b	-0.0003960322
23	0xbbff8b3a	-0.0077985795
24	0xbb02223f	-0.0019856838
25	0xbc8d3729	-0.017238216
26	0x3c466c1d	0.012110737
27	0xbb6e9328	-0.003640363
28	0xbca83347	-0.020532263
29	0x3c158a4c	0.009127211
30	0x3c6e12ec	0.0145308785
31	0xbc0f761a	-0.008756185
32	0xbc083cc2	-0.008315267
33	0x3ba20e3c	0.0049455445
34	0x3b1c525f	0.0023852808
35	0x3c0d8ec5	0.008639996
36	0x3c57b821	0.013166458
37	0x3a12ab61	0.00055949955
38	0x3b94d04d	0.004541433
39	0x3cbce5e1	0.023058834
40	0xb6f78b20	-7.37737e-06
41	0x3ce8294f	0.02834001
42	0x3c02906a	0.007969001
43	0xbc9db06f	-0.01924917
44	0xbc1c4069	-0.009536841
45	0xbc76a8d8	-0.015054904
46	0xbbf3776c	-0.0074300077
47	0xbcb2c308	-0.021821514
48	0xbccce332	-0.025010679
49	0xbc120544	-0.008912388
50	0xbb26a0e2	-0.0025425483
51	0x3bb8a12c	0.0056344476
52	0x3c3a0046	0.011352604
53	0x3c982329	0.018571453
54	0x3ba9bea5	0.0051801973
55	0xbcad5401	-0.02115822
56	0x3c22c14b	0.00993378
57	0xbcf1abe4	-0.02950091
58	0x3c29670d	0.010339511
59	0xbabd5430	-0.0014444645
60	0x3c7ef22a	0.015560666
61	0x3bdba6fa	0.0067032548
62	0x3c627855	0.013822635
63	0x3c1fcfc5	0.009754126
64	0x3cc57523	0.024103707
65	0x3b330ad6	0.002731969
66	0x3c9d73ce	0.019220259
67	0xbb43a6f7	-0.0029854157
68	0xbc3bc155	-0.011459668
69	0x3c3f883b	0.011690195
70	0xbc83954d	-0.016062403
71	0x3cef1b75	0.029187897
72	0xbb1c4f27	-0.002385089
73	0xbcfe3014	-0.031028785
74	0xbc75c122	-0.01499966
75	0x3b231f2d	0.0024890408
76	0xbb83a1fc	-0.004017113
77	0xba48adf1	-0.0007655314
78	0x3c4ce14f	0.01250489
79	0x3bc88bb1	0.006120168
80	0xbc17a9ac	-0.0092567615
81	0x3c91ec43	0.017812854
82	0x3c135107	0.008991486
83	0x3b7daaea	0.003870661
84	0x3c1d02f4	0.009583224
85	0x3c710ddb	0.014712776
86	0x3c2b4cc6	0.010455316
87	0xbb405665	-0.002934837
88	0x3d0b1d1a	0.0339633
89	0x3b0d9ea9	0.0021609461
90	0x3c584c45	0.013201778
91	0xbc0714d5	-0.008244713
92	0xbcb79a1a	-0.022412349
93	0x3c77f291	0.015133516
94	0xbb2b9aae	-0.0026184726
95	0x3ac316ee	0.0014884153
96	0xbcdb37ec	-0.026760064
97	0x3af7bff7	0.0018901814
98	0xbba7806d	-0.005111745
99	0x3cbe4ed2	0.023230944
100	0x3ba5776c	0.0050496366
101	0xbad7e104	-0.0016470258
102	0x3ceb3592	0.028712068
103	0x3bd38c3c	0.006455926
104	0x3c8466c3	0.016162282
105	0xbba6b774	-0.0050877873
106	0xbbc96cf2	-0.0061470205
107	0x3b3e35df	0.002902381
108	0xbcccf8ab	-0.025020918
109	0xbc0630dd	-0.008190361
110	0x3bd1ed56	0.0064064665
111	0xbc9a69fa	-0.018849362
112	0xbbecbf18	-0.0072249286
113	0x3d132af8	0.03592965
114	0xbb8a9025	-0.004228609
115	0x3c2a60e9	0.010399082
116	0x394219be	0.00018510871
117	0x3c5f7ac8	0.013640113
118	0x3c29d674	0.010366071
119	0xbc4da337	-0.0125511205
120	0xbbdb6c8b	-0.006696289
121	0xbbe7d8f9	-0.0070754257
122	0x3c3bc588	0.011460669
123	0x3ba40056	0.005004923
124	0xbb8a02cb	-0.0042117587
125	0x3c98961f	0.01862627
126	0x3c83652c	0.016039453
127	0x3a15e315	0.0005717737

bn1.running_mean f4 [128]
0	0x3acce7f4	0.0015633092
1	0x00000000	0.0
2	0x3d391b90	0.0451923
3	0x3d0a3f1d	0.033751596
4	0x39e4f1f4	0.00043667818
5	0x3c269e3f	0.010169565
6	0x3eedd584	0.46451962
7	0x3aece13e	0.0018072498
8	0x3d31f344	0.043444887
9	0x38ba2b11	8.877193e-05
10	0x3e9d2de6	0.3069908
11	0x00000000	0.0
12	0x00000000	0.0
13	0x3dc7f742	0.097639576
14	0x3ed29c7c	0.41135013
15	0x39a28305	0.00030996665
16	0x3dba16d5	0.09086386
17	0x3a22006d	0.0006179873
18	0x3f327278	0.69705915
19	0x3f26d458	0.6516776
20	0x34d86116	4.0303775e-07
21	0x00000000	0.0
22	0x3c0a6ff0	0.00844954
23	0x3d2e567f	0.042562958
24	0x3a8846d5	0.0010397086
25	0x00000000	0.0
26	0x3ac1df0b	0.0014791203
27	0x3d05f376	0.032702886
28	0x3663e561	3.3959152e-06
29	0x3dc9ab26	0.09847097
30	0x396460e9	0.00021779876
31	0x36864f6e	4.002758e-06
32	0x3d617a91	0.05504853
33	0x3ee8a60d	0.45439187
34	0x00000000	0.0
35	0x3ec47eeb	0.3837808
36	0x3cc658d5	0.02421228
37	0x3e7a86d9	0.24465503
38	0x31925130	4.258389e-09
39	0x314aa07d	2.9486096e-09
40	0x3e8721f3	0.2639309
41	0x00000000	0.0
42	0x3e35cd9e	0.17754218
43	0x3d3cf2ab	0.046129864
44	0x3e28ca20	0.16483355
45	0x3e2811e6	0.16413078
46	0x3eb17761	0.3466139
47	0x3d5e810f	0.0543223
48	0x2deaa1d6	2.667459e-11
49	0x3a042f8b	0.0005042485
50	0x3a8bafbd	0.0010657232
51	0x3d3c54fa	0.045979477
52	0x00000000	0.0
53	0x3f0817ac	0.5316112
54	0x3dcd3781	0.10020352
55	0x3bca54fc	0.0061746817
56	0x3dda03c1	0.10645247
57	0x3e354296	0.17701182
58	0x3f01595d	0.5052698
59	0x3ec33fb7	0.38134548
60	0x38fd613e	0.00012082093
61	0x3dfb3375	0.12265674
62	0x3a822619	0.0009929567
63	0x3effd2d5	0.4996554
64	0x3aaa307a	0.0012984418
65	0x00000000	0.0
66	0x3e810d3f	0.25205418
67	0x3effe28b	0.49977526
68	0x3ab1288e	0.0013516115
69	0x00000000	0.0
70	0x00000000	0.0
71	0x3d1c2893	0.038124632
72	0x3abbdbe3	0.0014332499
73	0x36155329	2.2251136e-06
74	0x3ede1f7b	0.43383393
75	0x3d14c271	0.036318246
76	0x3f138e9e	0.5763949
77	0x3e8fbc56	0.28073376
78	0x3e0d8b83	0.13822751
79	0x00000000	0.0
80	0x00000000	0.0
81	0x3f2597a2	0.646845
82	0x3e3e966e	0.18612072
83	0x3e3bdc69	0.18345799
84	0x3d0aacbc	0.03385614
85	0x3f23b2d9	0.63944775
86	0x3ea944be	0.3306026
87	0x3e6307cc	0.22170943
88	0x00000000	0.0
89	0x3ab23c61	0.0013598317
90	0x39909c27	0.00027582163
91	0x3f2cef4f	0.67552656
92	0x3a6cb25d	0.0009029264
93	0x3abb2ed2	0.0014280921
94	0x3f064cd5	0.52460986
95	0x3df4bd86	0.11950211
96	0x3bf32945	0.007420691
97	0x3980609e	0.00024486048
98	0x3b080992	0.0020757657
99	0x00000000	0.0
100	0x3ec59025	0.38586536
101	0x3e5110dc	0.20416588
102	0x3d1060ea	0.035248674
103	0x3ee45b70	0.4460101
104	0x3e525b53	0.2054265
105	0x3e2d72ab	0.16938274
106	0x3f180d4e	0.593953
107	0x3bd7ffb9	0.006591764
108	0x38f9fd72	0.00011920453
109	0x3f3bd49a	0.7337128
110	0x3cb80c0d	0.022466684
111	0x00000000	0.0
112	0x3e5237c5	0.20529087
113	0x00000000	0.0
114	0x3e6ffbbc	0.23435873
115	0x3a9f2884	0.0012142812
116	0x00000000	0.0
117	0x3cf4bbd9	0.029874729
118	0x3f0a56d2	0.5403873
119	0x3c28be36	0.010299256
120	0x3d3bb6ab	0.045828503
121	0x3e00558d	0.12532635
122	0x3e32f158	0.17474878
123	0x3e84112b	0.25794348
124	0x3d8d10dc	0.06887981
125	0x00000000	0.0
126	0x3ca75415	0.020425836
127	0x3d7862d1	0.060641114

bn1.running_var f4 [128]
0	0x3a0afdba	0.00053020904
1	0x00000004	6e-45
2	0x3b20ab33	0.0024516105
3	0x3b88a22b	0.0041697226
4	0x382fb517	4.1891904e-05
5	0x39eb7a76	0.00044913933
6	0x3d3f08f6	0.046639405
7	0x39ab61e2	0.0003268859
8	0x3b82ba9e	0.0039895317
9	0x362d642d	2.5837319e-06
10	0x3b86c7bc	0.0041131657
11	0x00000004	6e-45
12	0x00000004	6e-45
13	0x3c1cc16a	0.009567598
14	0x3ce9fd7a	0.02856325
15	0x37b111fc	2.1108419e-05
16	0x3aacc668	0.0013181688
17	0x38aff189	8.38964e-05
18	0x3d4a85a4	0.049443856
19	0x3b7516d4	0.003739764
20	0x331354cb	3.4303223e-08
21	0x00000004	6e-45
22	0x3982ea33	0.00024970024
23	0x3b4288ae	0.0029683518
24	0x3976c314	0.0002353306
25	0x00000004	6e-45
26	0x39f8b430	0.00047436496
27	0x3abbcb78	0.0014327606
28	0x3486dddf	2.5120877e-07
29	0x3abfa53a	0.0014621385
30	0x372ed719	1.04212895e-05
31	0x348c157a	2.6092658e-07
32	0x3b319edb	0.0027102742
33	0x3cdec448	0.027193204
34	0x00000004	6e-45
35	0x3d8c1f4d	0.06841908
36	0x3a43ce9e	0.0007469448
37	0x3d6f5623	0.058431756
38	0x2fd30872	3.8386677e-10
39	0x2d068871	7.647314e-12
40	0x3d6b471c	0.057440862
41	0x00000004	6e-45
42	0x3ce02627	0.027361942
43	0x3b52478e	0.0032086107
44	0x3cdf3684	0.027247675
45	0x3cdcfc37	0.026975734
46	0x3b024be2	0.0019881655
47	0x3b608938	0.0034261476
48	0x2cea1fed	6.6542245e-12
49	0x386a4a78	5.5859302e-05
50	0x39811d30	0.00024626544
51	0x3bc79ac2	0.0060914466
52	0x00000004	6e-45
53	0x399fe69d	0.00030498664
54	0x3c26b97f	0.010176062
55	0x39682c54	0.00022141758
56	0x3c90ea1e	0.01768976
57	0x39fc1461	0.0004808037
58	0x3cc5d00b	0.024147054
59	0x3c1f21ab	0.009712617
60	0x36573955	3.2070868e-06
61	0x3c826136	0.015915494
62	0x39632061	0.00021660469
63	0x3c85de48	0.016341344
64	0x39c0cb0b	0.00036772373
65	0x00000004	6e-45
66	0x3b92b869	0.00447755
67	0x3c4f5753	0.012655097
68	0x39cf84d1	0.00039581073
69	0x00000004	6e-45
70	0x00000004	6e-45
71	0x3b156958	0.0022798385
72	0x39ec9a9b	0.00045128618
73	0x33e55974	1.0679915e-07
74	0x3cab7872	0.020931456
75	0x3b671fb8	0.0035266709
76	0x3bc64338	0.0060504936
77	0x3d222f6a	0.039596
78	0x3c3d4726	0.011552608
79	0x00000004	6e-45
80	0x00000004	6e-45
81	0x3cd1ff84	0.025634535
82	0x3d0e9e50	0.034818947
83	0x3cd41c3f	0.025892375
84	0x3acacff4	0.0015473352
85	0x3d14454e	0.036198907
86	0x3c585fa4	0.013206396
87	0x3c71ae8b	0.014751087
88	0x00000004	6e-45
89	0x39d4fc22	0.00040623645
90	0x378c3643	1.6714568e-05
91	0x3d45f20a	0.04832653
92	0x393bcead	0.00017910702
93	0x39e90317	0.00044443525
94	0x3d28389a	0.041069604
95	0x3c48f0b3	0.012264418
96	0x3985416a	0.00025416474
97	0x3703fc54	7.866958e-06
98	0x3a2ecd5c	0.0006668174
99	0x00000004	6e-45
100	0x3c50319d	0.012707141
101	0x3d2cc04a	0.04217557
102	0x3b7b14cf	0.0038311963
103	0x3cd0cf91	0.0254896
104	0x3a45074f	0.00075160427
105	0x3aa5cc5f	0.0012649408
106	0x3b9dd661	0.0048168157
107	0x3ac258ff	0.0014827548
108	0x35b79bee	1.3679944e-06
109	0x3cc2d48f	0.023782996
110	0x3b20c157	0.0024529302
111	0x00000004	6e-45
112	0x3d25dd2d	0.040494133
113	0x00000004	6e-45
114	0x3d1f3fe3	0.038879286
115	0x38a174aa	7.6988086e-05
116	0x00000004	6e-45
117	0x3a76027a	0.00093845243
118	0x3c62c185	0.013840084
119	0x3b355f2c	0.0027675135
120	0x3b9afaed	0.0047296197
121	0x3c78fb7b	0.015196676
122	0x3b288cc6	0.0025718673
123	0x3d531fd6	0.051544033
124	0x3ba0e032	0.0049095387
125	0x00000004	6e-45
126	0x3a5df695	0.00084672245
127	0x3ba1632b	0.004925152

fc2.weight f4 [64, 128]
0	0xbcc53cab	-0.02407678
1	0x3b9b5746	0.0047406284
2	0x3cb7d9c3	0.022442704
3	0xbb241f9a	-0.002504325
4	0xbd0bec36	-0.034160815
5	0x3d925999	0.07145996
6	0xbd4e4b4f	-0.05036479
7	0x3da03138	0.07821888
8	0xbda11315	-0.07864968
9	0xbbb70b46	-0.0055860607
10	0x3d88daef	0.06682383
11	0xbcf18348	-0.029481545
12	0x3da3d62b	0.07999834
13	0xbd704a43	-0.05866457
14	0xbd9b3251	-0.075779565
15	0xbc696dff	-0.0142474165
16	0x3d0681cc	0.032838628
17	0x3ddee340	0.10883188
18	0xbd25b9ae	-0.04046028
19	0x3d38ed61	0.045148257
20	0xbc5ce532	-0.013482379
21	0xbb825760	-0.003977701
22	0x3da2706b	0.07931598
23	0xbd8e8852	-0.06959595
24	0x3d1d5c35	0.038418014
25	0x3da3e642	0.080029026
26	0x3cb1f0dd	0.021721298
27	0x3d7b0757	0.061286297
28	0xbc8b647f	-0.017015694
29	0x3d8f8499	0.07007713
30	0xbd674145	-0.05645873
31	0x3bd3182a	0.0064420896
32	0xbcbba3ac	-0.022905193
33	0x3ce6df11	0.028182538
34	0x3c79fdf9	0.015258306
35	0x3d8dd0a1	0.069245584
36	0xbc556662	-0.013024898
37	0xbbaecffc	-0.0053348523
38	0x3d84bfc7	0.06481891
39	0xbc75ad8c	-0.01499499
40	0x3d9bd214	0.076084286
41	0xbd578afc	-0.05262278
42	0xbc2b8c5f	-0.010470479
43	0xbb655c6f	-0.0034997722
44	0x3d23eb9e	0.040019624
45	0x3d7a70c3	0.061142694
46	0xbc29faab	-0.010374705
47	0xbd964713	-0.07337775
48	0x3d34aedc	0.04411207
49	0x3d51a6f9	0.05118463
50	0x3d8781a2	0.06616522
51	0xbd93f452	-0.07224335
52	0x3d69c160	0.057069182
53	0x3daf67d5	0.08564726
54	0x3bd9400e	0.0066299504
55	0xbda2b04c	-0.07943782
56	0x3d5abc16	0.05340203
57	0xbd8ceca6	-0.068810746
58	0x3cb9a416	0.02266125
59	0x3c2780b7	0.010223559
60	0xbc46349d	-0.012097505
61	0x3d20b7a3	0.03923763
62	0xbd44cfea	-0.048049845
63	0x3ca91ba8	0.02064307
64	0xbcd0e690	-0.025500566
65	0xbc53f672	-0.012937175
66	0x3c224aaf	0.009905501
67	0x3d9f38c7	0.07774501
68	0xbc81ccb2	-0.015844677
69	0x3d6dce7a	0.05805824
70	0xbcb07eeb	-0.021544894
71	0xbd513c80	-0.051083088
72	0xbd4992b1	-0.04921216
73	0xbd85bd24	-0.06530216
74	0x3dd22776	0.10261433
75	0xbd1105d4	-0.03540595
76	0x3d1765f7	0.036962476
77	0x3cc043d7	0.023469849
78	0x3d8651fc	0.06558606
79	0x3d9b4ac6	0.07582621
80	0x3d88d750	0.066816926
81	0xbd822da9	-0.06356365
82	0xbc6f8f1a	-0.01462152
83	0xbd410d06	-0.04713156
84	0xbd390787	-0.045173194
85	0x3cb53471	0.022119733
86	0x3dae7f14	0.08520332
87	0xbd9f4b15	-0.07777993
88	0x3d787f5d	0.060668338
89	0xbca16ed5	-0.01970617
90	0x3c53e942	0.012934031
91	0x3d9419ce	0.07231484
92	0x3b8b5fc3	0.004253359
93	0x3d1f132c	0.038836643
94	0xbd7690db	-0.06019674
95	0x3da7db88	0.08196169
96	0x39cc9a4c	0.00039024872
97	0xbd6ed5af	-0.058309253
98	0x3cf57a2f	0.029965488
99	0xbd66d74f	-0.056357678
100	0xbd8e9e3a	-0.06963773
101	0x3c028cef	0.0079681715
102	0x3d4957f4	0.049156144
103	0xbcc42a3c	-0.02394592
104	0x3d2044d9	0.03912816
105	0x3db0f6a2	0.086407915
106	0x3d663033	0.05619831
107	0xbd6f0f19	-0.058364008
108	0x3c0118f6	0.007879486
109	0xbca4a601	-0.020098688
110	0xbd964067	-0.073365025
111	0xbc7b5d8f	-0.01534213
112	0x3d8db1de	0.06918691
113	0x3daae292	0.08343996
114	0x3bd360dd	0.006450756
115	0x3cac5286	0.021035444
116	0xbd1726ef	-0.036902364
117	0x3d7fc7e0	0.062446475
118	0xbd033da9	-0.032041226
119	0xbd957a65	-0.072987355
120	0x3b85c1b6	0.00408193
121	0x3d5e3274	0.054247335
122	0xbda8e58b	-0.08246907
123	0x3daa462c	0.083141655
124	0x3ceafdf5	0.02868555
125	0xbd30e7ee	-0.043189935
126	0xbce10ca4	-0.027471848
127	0x3d92a89e	0.071610674
128	0xbd8254ac	-0.06363806
129	0xbbd6d3f8	-0.0065560304
130	0x3d258fbc	0.04042028
131	0xbdac844f	-0.08423673
132	0x3d637ec0	0.0555408
133	0x3d983605	0.074321784
134	0x3d3d5912	0.046227522
135	0xbd7cfddc	-0.061765537
136	0x3da70dd3	0.08156934
137	0xbd797ab9	-0.060908053
138	0x3d95e8dc	0.07319805
139	0xbda96b0d	-0.082723714
140	0xbd9bddc7	-0.0761066
141	0x3d3a3662	0.04546202
142	0x3c782b33	0.015147018
143	0x3c159aa7	0.00913111
144	0xbd6400f2	-0.055664964
145	0xbcf6a3d8	-0.030107424
146	0xbcfc816a	-0.030823428
147	0xbdd22570	-0.10261047
148	0xbcc9c04b	-0.024627825
149	0x3bb9961b	0.005663646
150	0x3b154150	0.0022774525
151	0x3d2d2b84	0.042277828
152	0x3db37063	0.087616704
153	0x3cd7c7cb	0.026340386
154	0xbcdf16ac	-0.02723249
155	0xbcd33836	-0.02578364
156	0xbddace3c	-0.10683867
157	0xbd8c4f9e	-0.06851123
158	0xbc23c477	-0.009995571
159	0xbd30aba1	-0.043132428
160	0x3d068c19	0.03284845
161	0xbd3dc5d4	-0.04633124
162	0x3d9e6e62	0.077358976
163	0xbd8a5425	-0.067543305
164	0xbb93a0af	-0.004505239
165	0x3dab2fcd	0.08358727
166	0x3d595db8	0.053067893
167	0xbd4d3dbe	-0.05010771
168	0x3cb3cf2b	0.021949371
169	0x3c28262e	0.010263009
170	0xbd504aa6	-0.05085244
171	0xbca2b6c8	-0.019862548
172	0x3c86080a	0.016361255
173	0xbd8b058c	-0.06788167
174	0x3cc6689b	0.024219802
175	0x3ce66ae2	0.028127138
176	0xbcc46e46	-0.023978364
177	0x3da24784	0.07923797
178	0xbb0f7040	-0.0021886975
179	0x3d58888a	0.05286459
180	0x3daf7770	0.08567703
181	0xbcfb78d8	-0.030697271
182	0x3d2607d1	0.040534798
183	0xbca77f1e	-0.020446356
184	0xbb834a5c	-0.004006667
185	0xbc55ea43	-0.013056341
186	0xbbf20cac	-0.0073867645
187	0xbcd90da4	-0.026495762
188	0x3cd2a389	0.025712745
189	0xbb63b1b1	-0.0034743364
190	0x3d7b1d09	0.061306987
191	0xbc301ad0	-0.01074858
192	0x3c68b39b	0.0142029775
193	0xbd078877	-0.033089127
194	0xbd869400	-0.065711975
195	0x3d3434b8	0.04399559
196	0x3c7e6289	0.015526422
197	0xbd2fbe1e	-0.04290592
198	0xbcda3ebe	-0.026641246
199	0x3d37f0bc	0.044907317
200	0xbc3687a5	-0.011140739
201	0x3c99bb95	0.018766204
202	0xbb78c63b	-0.0037959951
203	0x3d2c1409	0.042011295
204	0x3ce03ec7	0.027373685
205	0xbc65e0b9	-0.014030629
206	0x3cf46072	0.029831145
207	0x3d74f26b	0.0598015
208	0x3ba6cee3	0.005090581
209	0x3c5b44ad	0.013383073
210	0x3c13d1ee	0.009022219
211	0x3d91239f	0.07086872
212	0xbd50e44b	-0.050998967
213	0xbd60ecb5	-0.05491324
214	0x3d086972	0.033303685
215	0xbd8dc25e	-0.06921838
216	0x3b75c512	0.0037501496
217	0xbd112fcd	-0.035445977
218	0x3d7f4b40	0.062327623
219	0xbdb5eb42	-0.088827625
220	0x3d6d6adf	0.05796325
221	0x3dc11e44	0.09429601
222	0x3c64debd	0.013969121
223	0xbc642b04	-0.013926271
224	0x3d946a62	0.072468534
225	0xbd349513	-0.04408748
226	0xbb6f22b9	-0.0036489202
227	0xbd19ec1a	-0.03757868
228	0xbb0f52dc	-0.0021869456
229	0x3c60bf44	0.013717476
230	0x3cdf0ae6	0.027226876
231	0xbc0ed896	-0.00871863
232	0xbdc2d34f	-0.0951296
233	0xbc0214c3	-0.00793952
234	0x3902dcb4	0.00012479984
235	0x3bcafee8	0.006194938
236	0x3daf8fa8	0.08572322
237	0x3d99ca7b	0.07509323
238	0xbd83491a	-0.064104274
239	0x3c1d8374	0.00961386
240	0xbd2ac0f0	-0.041687906
241	0xbda49120	-0.08035493
242	0xbd651ec9	-0.055937562
243	0x3d83156a	0.06400569
244	0x3d595e18	0.05306825
245	0x3d2fe72c	0.042945072
246	0x3d270833	0.040779304
247	0xbda05915	-0.07829491
248	0x3bd2b868	0.0064306743
249	0x3d96998f	0.07353508
250	0xbd30eb2f	-0.04319304
251	0x3d8f92fd	0.07010458
252	0x3c9e9da6	0.019362282
253	0x3d64699c	0.05576478
254	0xbd11b659	-0.03557429
255	0x3d4de74a	0.050269403

fc2.bias f4 [64]
0	0x3c92fdea	0.017943341
1	0x3d8f1c5d	0.06987832
2	0x3d369781	0.04457808
3	0xbd297586	-0.041371845
4	0xbcb159f5	-0.02164934
5	0x3d07159e	0.0329796
6	0xbd4f903c	-0.050674662
7	0xbc369221	-0.011143238
8	0x3cac2918	0.021015689
9	0xbd07e59a	-0.03317795
10	0x3d0cf8ba	0.03441689
11	0x3bc517d0	0.0060148016
12	0x3da7f722	0.08201434
13	0xbd8aed2b	-0.067835175
14	0x3d8fa938	0.07014698
15	0x3d914a6e	0.070942745
16	0xbd3d89df	-0.046274062
17	0x3c57f2c9	0.013180443
18	0xbaeece6b	-0.0018219476
19	0x3d945cd5	0.07244269
20	0x3d9012bf	0.070348255
21	0xbce3f500	-0.027826786
22	0xbd0412c3	-0.032244455
23	0xbd9a6c96	-0.075402424
24	0x3d96fccb	0.07372435
25	0xbd81bde1	-0.06335045
26	0xbd3775cc	-0.044790074
27	0x3da907e8	0.08253461
28	0x3d3e5619	0.046468828
29	0x3d8a442c	0.06751284
30	0x3da41028	0.08010894
31	0xbd8f5709	-0.069990225
32	0xbc2a986e	-0.010412319
33	0x3c1f9e2b	0.0097423
34	0x3dd2cb23	0.102926515
35	0xbbf0c1bf	-0.007347315
36	0xbbca6c3c	-0.0061774533
37	0x3d8267f4	0.06367484
38	0x3d6dbc56	0.05804094
39	0xbd4bee10	-0.04978758
40	0xbd495c31	-0.049160186
41	0xbc510438	-0.0127573535
42	0x3d545da1	0.051847104
43	0x3dd6ac9e	0.10482143
44	0x3d3d1410	0.04616171
45	0x3da57aca	0.08080061
46	0x3d17b5a3	0.037038457
47	0xbc964315	-0.018342534
48	0xbab67d54	-0.0013922849
49	0x3d9d8a79	0.07692427
50	0x3c95b2fa	0.01827382
51	0x3c556b76	0.013026109
52	0x3d8607c6	0.065444514
53	0x3da03190	0.07821953
54	0x3c82291a	0.01588874
55	0xbb663fba	-0.0035133199
56	0xbcf202cf	-0.029542355
57	0xbd262f4c	-0.04057245
58	0xbcc74f26	-0.024329733
59	0x3d96f2b2	0.07370509
60	0x3d6d14ed	0.057881285
61	0xbd3818bc	-0.044945464
62	0x3d85bfe2	0.06530739
63	0xbb420fb1	-0.0029611404

bn2.weight f4 [64]
0	0x3f818d65	1.0121275
1	0x3f7de955	0.9918416
2	0x3f82b83e	1.0212476
3	0x3f8129f6	1.009093
4	0x3f76250e	0.9615029
5	0x3f79e98a	0.9762198
6	0x3f805fef	1.0029277
7	0x3f7608a5	0.9610694
8	0x3f7caa5a	0.98697436
9	0x3f796e78	0.97434187
10	0x3f819c99	1.0125915
11	0x3f7baf79	0.98314625
12	0x3f7c2ec6	0.9850887
13	0x3f8088f9	1.0041801
14	0x3f78de26	0.9721397
15	0x3f7cb5cc	0.987149
16	0x3f7a805c	0.9785211
17	0x3f775fe5	0.966307
18	0x3f8161d3	1.0107979
19	0x3f815e37	1.0106877
20	0x3f7d6755	0.989858
21	0x3f7cb4b5	0.9871324
22	0x3f7cbc4f	0.98724836
23	0x3f81d475	1.0142962
24	0x3f7b992a	0.98280585
25	0x3f7a9e39	0.9789768
26	0x3f810a01	1.0081178
27	0x3f8159a5	1.0105482
28	0x3f7d172f	0.988635
29	0x3f7c3465	0.9851745
30	0x3f81a784	1.0129247
31	0x3f7aa38c	0.979058
32	0x3f7be0b6	0.98389757
33	0x3f8154b1	1.0103971
34	0x3f80b4a3	1.0055126
35	0x3f7f05f7	0.99618477
36	0x3f8119c1	1.0085984
37	0x3f7dacbb	0.9909169
38	0x3f79fe09	0.9765325
39	0x3f7cd414	0.98761106
40	0x3f766c86	0.96259344
41	0x3f7c6350	0.9858904
42	0x3f787400	0.97052
43	0x3f7a7d2e	0.9784726
44	0x3f80fd9e	1.0077398
45	0x3f803269	1.0015384
46	0x3f777e05	0.96676666
47	0x3f7b2ba4	0.98113465
48	0x3f77b83e	0.96765506
49	0x3f7785da	0.96688616
50	0x3f7c276d	0.9849766
51	0x3f831f15	1.024386
52	0x3f810fc2	1.0082934
53	0x3f78584b	0.97009724
54	0x3f7aecae	0.98017395
55	0x3f812a39	1.009101
56	0x3f831be0	1.0242882
57	0x3f79a388	0.97515154
58	0x3f821075	1.0161272
59	0x3f8187a2	1.0119517
60	0x3f7b5a62	0.9818479
61	0x3f77ea79	0.9684215
62	0x3f8273a4	1.0191541
63	0x3f7d659b	0.9898316

bn2.bias f4 [64]
0	0x3f0a478f	0.5401544
1	0xbf01a15b	-0.50636834
2	0x3edff699	0.43742827
3	0x3ef32b4a	0.47493964
4	0x3f0fef3b	0.5622441
5	0x3f03dc2f	0.5150785
6	0xbefd4fc5	-0.49474922
7	0x3f0b84ba	0.544994
8	0x3ee8c422	0.45462137
9	0x3eeb3985	0.4594232
10	0xbee8fd8d	-0.45505944
11	0xbefa1695	-0.48845354
12	0x3ee138a2	0.4398852
13	0x3eef616b	0.46754012
14	0x3ef7c35e	0.4839124
15	0xbee03f7d	-0.43798438
16	0xbeedfe61	-0.46483138
17	0xbf046c04	-0.5172732
18	0xbef8f923	-0.48627576
19	0xbf0ef583	-0.5584337
20	0xbee6e6be	-0.45097917
21	0x3edd97da	0.43279916
22	0xbee5cac9	-0.44881275
23	0xbef95360	-0.48696423
24	0xbf00e911	-0.5035563
25	0xbef06b1d	-0.4695672
26	0x3f0ecc81	0.557808
27	0x3efaa32c	0.48952615
28	0x3f03618e	0.5132073
29	0x3ee8a671	0.45439485
30	0xbf18bbf7	-0.5966181
31	0xbef898e0	-0.48554134
32	0xbf07ecfe	-0.53095996
33	0x3f186183	0.5952379
34	0xbf01006f	-0.50391287
35	0x3ee3be0a	0.44480926
36	0x3ef1044d	0.47073594
37	0x3ee371e4	0.4442283
38	0xbee0f970	-0.43940306
39	0x3edfb6e0	0.4369421
40	0xbef33bdf	-0.47506616
41	0xbee96904	-0.45587933
42	0x3f04af59	0.5183006
43	0x3f0a81d5	0.5410436
44	0xbeec7a31	-0.46186975
45	0x3ee8a9d3	0.45442066
46	0x3ee999e9	0.45625237
47	0x3f096f6c	0.5368564
48	0x3f0f253c	0.5591619
49	0x3f0115e4	0.5042403
50	0xbf118b83	-0.56853503
51	0xbef965c4	-0.48710454
52	0xbef2f9ef	-0.4745631
53	0xbf05233d	-0.52006894
54	0xbeecf74a	-0.46282417
55	0x3efe115e	0.49622625
56	0xbf107f84	-0.56444573
57	0xbf00ce32	-0.5031463
58	0xbf03dad4	-0.5150578
59	0x3f02fe3f	0.511692
60	0xbeea6df8	-0.45787024
61	0x3ef0d86f	0.47040126
62	0x3ef017cb	0.46893153
63	0x3edb818f	0.42872283

bn2.running_mean f4 [64]
0	0x3f078baf	0.52947515
1	0x3e49fa73	0.19724445
2	0x3e908588	0.28226876
3	0x3ec4bb0f	0.38423964
4	0x3e294506	0.16530237
5	0x3e8ff72b	0.28118262
6	0x3e217599	0.15767516
7	0x3e51bc1b	0.20481913
8	0x3ec8638b	0.39138445
9	0x3e07dbe9	0.13267483
10	0x3ec671a7	0.38758585
11	0x3e819c96	0.25314778
12	0x3e94c057	0.29052994
13	0x3ea6d81c	0.32586753
14	0x3e44af56	0.1920751
15	0x3e4eba4a	0.20188251
16	0x3e91e818	0.28497386
17	0x3e2d44fc	0.16920847
18	0x3ed6a0a8	0.41919446
19	0x3ef9f3d5	0.48818842
20	0x3ea9d426	0.3316967
21	0x3eb4fd14	0.35349333
22	0x3ec57440	0.38565254
23	0x3e5bd73e	0.21468827
24	0x3ed8ebb6	0.42367333
25	0x3e845705	0.2584764
26	0x3efd760b	0.49504122
27	0x3ea28ec6	0.31749552
28	0x3ea94b2d	0.33065167
29	0x3ee8848c	0.45413625
30	0x3ed41a3b	0.41426262
31	0x3e3fd6e8	0.18734324
32	0x3f03c64e	0.51474464
33	0x3ee874f0	0.45401716
34	0x3ea8a318	0.3293693
35	0x3e44b73c	0.19210523
36	0x3e994515	0.29935518
37	0x3e4c756e	0.19966671
38	0x3e12084c	0.14260978
39	0x3ea195eb	0.3155969
40	0x3e2f41a0	0.17114878
41	0x3eb6b188	0.3568232
42	0x3ea5f197	0.3241088
43	0x3f2388ca	0.638806
44	0x3e9873fa	0.29775983
45	0x3eb9ec10	0.36312914
46	0x3e9fbd1a	0.3119896
47	0x3e544e5f	0.20733021
48	0x3e89a2d8	0.26882052
49	0x3e9cca0d	0.30622903
50	0x3eaf44e5	0.3423225
51	0x3eb40ba5	0.35165134
52	0x3f0ec45c	0.5576837
53	0x3e9e0d78	0.3086965
54	0x3e29d4b9	0.16585054
55	0x3eddb8bf	0.43305013
56	0x3ec9428a	0.39308578
57	0x3e84187d	0.25799933
58	0x3f052a67	0.52017826
59	0x3f60a361	0.87749296
60	0x3e05984a	0.13046375
61	0x3e9759b0	0.29560614
62	0x3edc1298	0.42982936
63	0x3e3da4ea	0.18519941

bn2.running_var f4 [64]
0	0x3ec95c45	0.3932821
1	0x3e1250b5	0.142886
2	0x3daebdac	0.08532271
3	0x3e249a1c	0.16074413
4	0x3e0fe3ac	0.14051694
5	0x3dca2a43	0.09871342
6	0x3de2bf84	0.11071685
7	0x3e89a0c8	0.2688048
8	0x3e52bd9b	0.20580141
9	0x3dc5186b	0.09623798
10	0x3e914368	0.2837174
11	0x3dca383e	0.098740086
12	0x3dca4a3a	0.09877439
13	0x3e2b9c67	0.16758882
14	0x3e8126cf	0.2522492
15	0x3d4dd62d	0.050253082
16	0x3d9a297d	0.075274445
17	0x3d918d67	0.071070485
18	0x3e63dca2	0.22252133
19	0x3e85724a	0.26063758
20	0x3df5a9cb	0.11995276
21	0x3e46aa28	0.19400847
22	0x3e216989	0.15762915
23	0x3d85d857	0.06535404
24	0x3e4953da	0.19660893
25	0x3df0fa3a	0.11766477
26	0x3e8be19a	0.27320558
27	0x3dd7c01d	0.105346896
28	0x3e054b40	0.13016987
29	0x3e7372e1	0.23774292
30	0x3e9fcdf1	0.31211808
31	0x3d9a4e25	0.07534436
32	0x3e94a00b	0.29028353
33	0x3e5e9e78	0.21740139
34	0x3e0075c0	0.12544918
35	0x3d811983	0.06303694
36	0x3dd5fd69	0.10448725
37	0x3d1b3c3a	0.037899233
38	0x3cfba675	0.030719021
39	0x3dec60f2	0.11541928
40	0x3dc8a226	0.09796552
41	0x3e173a6b	0.14768378
42	0x3e1bc7b1	0.15212895
43	0x3ef3b3ab	0.47598013
44	0x3e39621c	0.18103832
45	0x3e117cd2	0.14207771
46	0x3ea03037	0.31286785
47	0x3dc23814	0.09483352
48	0x3ddb5db9	0.107112356
49	0x3e7fc8b9	0.24978913
50	0x3e0bcd00	0.1365242
51	0x3f58af3a	0.84642375
52	0x3eaf1078	0.34192252
53	0x3de46269	0.11151583
54	0x3d67b8dc	0.05657278
55	0x3e5d8714	0.2163356
56	0x3e2bc6f3	0.16775112
57	0x3e50d194	0.20392448
58	0x3eabaebd	0.33531752
59	0x3f53578e	0.8255547
60	0x3d783f63	0.060607325
61	0x3e68b782	0.22726253
62	0x3e49b875	0.19699271
63	0x3d6a9860	0.057274222

fc3.weight f4 [1, 64]
0	0xbecc0e23	-0.39854535
1	0x3ed1bc7a	0.4096411
2	0xbec9e0c9	-0.3942931
3	0xbecb04d1	-0.39652112
4	0xbeedb2e7	-0.46425554
5	0xbec2b17e	-0.3802604
6	0x3ee4021f	0.44532868
7	0xbee6b995	-0.45063463
8	0xbeffaba2	-0.49935633
9	0xbf04340f	-0.51641935
10	0x3f079cff	0.5297393
11	0x3edfeba9	0.43734482
12	0xbef48767	-0.47759554
13	0xbf00dd0d	-0.50337297
14	0xbefa24a5	-0.48856083
15	0x3eda2302	0.42604834
16	0x3ebea2ee	0.3723368
17	0x3ed42be9	0.4143975
18	0x3eedd43c	0.46450984
19	0x3ec5b47b	0.38614258
20	0x3ece6368	0.40310216
21	0xbebdac76	-0.3704564
22	0x3edb1ccb	0.42795405
23	0x3ebfce50	0.3746209
24	0x3ed35e71	0.4128299
25	0x3eed3a3e	0.46333498
26	0xbecbb900	-0.3978958
27	0xbec2eb64	-0.38070214
28	0xbedb4e77	-0.428333
29	0xbee0a1a8	-0.43873334
30	0x3ee1525c	0.44008148
31	0x3ee656d0	0.44988108
32	0x3ebbc706	0.3667528
33	0xbed7b4b9	-0.42130068
34	0x3ec3049f	0.38089463
35	0xbee92eb4	-0.45543444
36	0xbed5e6db	-0.4177769
37	0xbee403a1	-0.4453402
38	0x3ef1c5d2	0.47221237
39	0xbedbc96c	-0.4292711
40	0x3ec03ffe	0.37548822
41	0x3edaa278	0.4270208
42	0xbebe165b	-0.3712643
43	0xbece243c	-0.4026202
44	0x3ef31b2e	0.47481674
45	0xbedbcaba	-0.42928106
46	0xbf0c83f5	-0.5488885
47	0xbeb78480	-0.35843277
48	0xbeca8f8b	-0.3956264
49	0xbef18bda	-0.4717701
50	0x3ec4b3ef	0.38418528
51	0x3f02c4da	0.5108162
52	0x3eb8b960	0.3607893
53	0x3ec6a666	0.38798827
54	0x3eda7307	0.42665884
55	0xbecf8d69	-0.40537575
56	0x3ee8e1ae	0.4548468
57	0x3ed28b5e	0.41121954
58	0x3ef40741	0.47661784
59	0xbec1a084	-0.37817776
60	0x3ef39a21	0.4757853
61	0xbf02048f	-0.50788206
62	0xbeb7c7d3	-0.3589464
63	0xbed3b32d	-0.41347638
