PreTrained/cstr_ode/Deep_DQN/0_2/100.pth (torch, 43158 bytes, 13 tensors)

fc1.weight f4 [128, 4]
00000000: 601a fabb 1768 8b3e 0593 d3be 3969 bbbe
00000010: 16b2 3fbe 58cd 0e3e 3f2d 23bc c839 c83e
00000020: 3f4a 44bd af03 0d3e 999d 24be 9b40 b6bd
00000030: 2596 f4be a2ca a9be 05db 51be b7bc a63c
00000040: 51b1 4d3e 0dc3 973e d40d b1be d151 64be
00000050: 085b 343e 9c2a d73e c1d1 ddbd bf65 be3e
00000060: f01c bdbd 2dff 893d e977 e33e f44e efbe
00000070: e413 a3be 66cc 04be 21d2 45be 5c6a da3e
00000080: c3a5 a8be 90d0 66be 02e9 adbe 9345 edbe
00000090: 3cf0 96be 682a dc3e d19a 603e a017 733e
000000a0: 0ff2 ed3c 265b 83be 706f af3d 8358 ebbe
000000b0: 1afa b8be c6f9 83be 2685 a13e 2619 963e
000000c0: f5de 5cbe ad52 44bc e4b6 a33e ba64 fb3e
000000d0: b135 4d3e e907 753d 7a81 ac3e 7a71 97be
000000e0: fe2c b13d e21b c4be 3c14 b6be 0857 7fbe
000000f0: f286 693e dfbe 463e b633 95be 21d4 1d3e
00000100: 9918 8c3e 1cac 53bd 9d39 c83c dad5 e03d
00000110: 52b8 9e3e 12e6 f53e 7cf2 c4be ef6a 3bbe
00000120: 74fa 4c3e 266a d13e a535 de3e 63fd e63e
00000130: fc84 d63d 8629 ddbe 2783 313d a45f 9ebe
00000140: 8c94 eebe 3e74 e33e f0a6 c23e fe5d ffbe
00000150: 08aa bf3d c880 acbd b882 a8bd 1c5f 6abe
00000160: 9063 483e 2967 99be ea62 3f3e 1676 813e
00000170: 66d7 b43e 206b 453e 5c9a ffbe 040d a0be
00000180: 5f20 7d3e fd71 da3d af0c c9be 566a 93be
00000190: f2d4 f03e 547f ac3e b03e 5fbe d4dc 00be
000001a0: 5012 f6be 9763 99bb fa42 bfbe 0db0 c3be
000001b0: 0af2 fcbc 1753 9e3d 56ce 4dbe 0d69 943e
000001c0: 38c9 9bbe 6849 e83e d06f af3e 64e1 d7be
000001d0: a160 eebd 122b 833c 4123 a53d f188 ee3d
000001e0: 36a5 483e 7fdf f93c ce2a 7abe 3a12 6b3e
000001f0: 5691 f5be a0bb 97be 3c2b 00be ec66 79be
00000200: 7995 3abe ed49 ccbe f626 e2bd 7bb2 cd3d
00000210: b1b3 abbe 67df 8bbc a238 b23e c459 57bd
00000220: 80ac 633c c0ad 30bd 103d cf3d 60c6 a23e
00000230: 775c ee3e e733 a63e b434 f73e 672a 01bd
00000240: 2a93 e4be 3cb2 74be eec2 af3e 006b 54bb
00000250: 073d 83be 5d89 bfbe e798 f2be eeec d3be
00000260: 70b4 cfbd 5664 8c3e 7467 8a3e 02e5 f6be
00000270: 2eb0 9f3e 8a52 c8be f07b d8bd 1c9a 4fbe
00000280: b9cf b2bd 94fc d0bd 7c48 e9be 5aae dcbe
00000290: 283c a0bd 80e1 d33b b896 68be b8de 403e
000002a0: 2a3a ecbe 53ca 06bd 82f7 db3e 61fd 4dbe
000002b0: eb0c e43e 46ad 3b3e 500a ecbe 6a96 9e3e
000002c0: 65d8 62bd c62b 63be ca5d cc3e 6f8c cfbe
000002d0: 4331 4e3d f999 cbbd 684c b93e 6b44 0a3e
000002e0: 1500 773e dcfe 353e 78e6 eebd 94da e3bd
000002f0: 32a6 d6be f7fc 8d3e d973 c73e 78d3 b33e
00000300: ac93 b4be 60ae b63c 9076 b4be 88ec 8cbe
00000310: 539c 94be 86d9 2d3e e7fd 97be 00ba 32bc
00000320: d034 f33c 918f a03e 3e2d bdbe 8143 b2be
00000330: 2ff3 8ebe e11e aa3e 07a0 26be ec15 dc3e
00000340: a024 393e 40aa 813d 00ed 73bb 086d cabd
00000350: 662c 823d 148a e5bd ae07 d6bb 1c55 6b3d
00000360: 9064 cabe 9012 82be fc77 cd3e a727 d2be
00000370: b5d9 f8bc c5ca f93e fc0a 3e3e c0f0 673c
00000380: 61f8 dbbe ca4d 793e fa0f b4be a01c 0cbe
00000390: 80c9 36be 075b 89bd 2572 0c3b 9bc0 d13e
000003a0: 9853 8a3d fdfb e23e bc4d 9d3e edb5 a3be
000003b0: c44c 713e 0c3d b9be 1d63 4ebe 5c07 123e
000003c0: 78ba 283e 2339 c03e a026 25be 00d4 513a
000003d0: b9fd 8f3e a06b 01bf 776f b53e b354 d2be
000003e0: 8cdb 9c3b 703f aabd 08fa 82be c0fc 923d
000003f0: 14fb d93e 8f29 15be 293a 92be 32f0 36be
-0.0076325387 0.27227852 -0.41323105 -0.36603716 -0.18720278 0.1394552 -0.009959518 0.39106584
-0.04792237 0.13770936 -0.16075744 -0.08899041 -0.477708 -0.3316241 -0.20493706 0.020353658
0.20087172 0.29641 -0.34580863 -0.22296835 0.1761285 0.42024696 -0.10831023 0.37187
-0.09234035 0.06738124 0.44427422 -0.46739924 -0.31851113 -0.12968597 -0.19318439 0.4265927
-0.32938966 -0.22540498 -0.33966833 -0.46342143 -0.2948016 0.43001103 0.21934058 0.23739481
0.029046087 -0.25655478 0.08566177 -0.45965967 -0.36128312 -0.257765 0.31546897 0.29316062
-0.21569426 -0.011982602 0.31975472 0.49100286 0.20040013 0.059821997 0.33692533 -0.29578763
0.0865116 -0.38302523 -0.35562313 -0.24935544 0.22805384 0.19408749 -0.29141015 0.15412952
0.27362517 -0.05167781 0.024441535 0.10978289 0.31 0.48027092 -0.3846625 -0.1830251
0.20017415 0.40901297 0.43400303 0.45115194 0.104745835 -0.43195742 0.043337967 -0.30932343
-0.46597707 0.44424623 0.38017988 -0.49876398 0.09358603 -0.084230006 -0.082280576 -0.22887844
0.1956923 -0.29961517 0.18690076 0.25285405 0.35320586 0.19279146 -0.49922454 -0.3125993
0.2471938 0.10666273 -0.3926749 -0.28792065 0.47037464 0.33690894 -0.21801257 -0.12584239
-0.48060846 -0.0046810615 -0.37355787 -0.38220254 -0.030877132 0.07730692 -0.20098242 0.28986397
-0.30426955 0.45368505 0.34264994 -0.42164147 -0.11639524 0.016011748 0.08063365 0.11647213
0.19594273 0.030502079 -0.24430391 0.22956172 -0.47962445 -0.29635334 -0.12516493 -0.24355668
-0.18221082 -0.3990015 -0.110425875 0.10043808 -0.3353553 -0.0170743 0.34808832 -0.05257584
0.013896108 -0.04313445 0.101190686 0.31791973 0.4655492 0.32461473 0.48282397 -0.03153458
-0.44643527 -0.23896116 0.34328407 -0.003241241 -0.25632498 -0.37409487 -0.4738228 -0.413917
-0.101418376 0.274203 0.27032053 -0.48221594 0.31189102 -0.39125472 -0.10570514 -0.20273632
-0.08731026 -0.102044255 -0.45563114 -0.4310177 -0.07823974 0.0064660907 -0.22713745 0.1883496
-0.46138126 -0.032907795 0.4296227 -0.20116188 0.44541106 0.18327817 -0.46101618 0.30974132
-0.05538215 -0.22184667 0.39915305 -0.4053683 0.05033995 -0.09941477 0.36191106 0.13502662
0.24121125 0.17773002 -0.11665052 -0.11125675 -0.41923672 0.2773206 0.38955572 0.35122275
-0.35268915 0.022299945 -0.35246706 -0.2752421 -0.29025516 0.1697751 -0.296859 -0.010908604
0.029688269 0.31359532 -0.3694858 -0.34817126 -0.2791991 0.33226684 -0.16271983 0.42985475
0.18080378 0.06331301 -0.003722012 -0.09884077 0.063561246 -0.11207977 -0.006531677 0.057454214
-0.39529848 -0.25404787 0.40130603 -0.41045877 -0.030377248 0.48787513 0.18558878 0.01415652
-0.42962936 0.2434608 -0.3516844 -0.13682795 -0.17850304 -0.06706815 0.002143034 0.4096726
0.067542255 0.44332877 0.3072337 -0.31974736 0.2356444 -0.36179388 -0.20154996 0.1426062
0.16477382 0.37543592 -0.16128016 0.0008004308 0.28123263 -0.5055485 0.35436603 -0.41080245
0.004786914 -0.08312881 -0.25581384 0.071771145 0.4257437 -0.14566635 -0.28559998 -0.17865065

fc1.bias f4 [128]
00000000: 9711 0ebe 0b61 44be e224 f63d 5061 353e
00000010: f761 72be 008b 233d fe45 933e dded 37bd
00000020: 327d 173e f8e7 fcbd c92f 363e e671 b9be
00000030: d6a3 99be fce7 80be 46d1 ea3e ef8c 0abe
00000040: 681d 4abb aa5d 78be e361 003f 566e f93e
00000050: 6012 c1be 1088 cfbe 5d33 c0be eee0 29bc
00000060: f8cf 00be 4e90 a7be e058 3abe 263e bf3d
00000070: f4c1 85be 8c92 e03d 1e69 edbd b018 78be
00000080: eb32 813d fb3e d33e 8813 adbe db8b b13c
00000090: d8e8 39be 9ef5 f83e 26e2 f2be d26a f5be
000000a0: d8c7 fc3e f8f7 a1be e4ed d03d 7376 13bd
000000b0: 728b d4bd 99a4 dcbd fefc a23e 827a 9b3c
000000c0: ce3e f9be b5b1 97be 33c3 2dbe 085b 883e
000000d0: 8eaa a5be 8682 f13e 5651 e5bd e3f1 adbd
000000e0: f89c ca3e aa22 783e f4aa d93e 8919 943e
000000f0: bcfc 1abe 1121 a3be fedf 25bd c8dc d33e
00000100: 525d 2dbe 1e68 edbe 660d 503e c251 f83e
00000110: ca47 12be 5af9 d3be 1035 e8be 084c 043e
00000120: 9521 f7bc d157 81be de5e c33d 1971 443e
00000130: 21d5 ca3e 75be c63e ef80 89bd 7ebb e1be
00000140: d853 e7be 6a24 ef3e ab3d 683e aad9 613e
00000150: 6c1e debe f9da ec3e b777 ef3e 8363 eb3e
00000160: 30f5 d7be 4d73 3fbe 51eb afbe 188a f23e
00000170: 3060 55be c55e 6cbe 50c0 833e 0508 66be
00000180: 20d3 7abe 13c3 18bd 3f08 4ebd 226b c7be
00000190: 539c d53e 3c25 71be 0150 3b3e 7204 de3e
000001a0: c35a 733e 50e8 7b3d 6d98 d93e c530 843d
000001b0: 8a12 68be 5863 f23e 8e53 003e 38c6 f9be
000001c0: 4eb4 19be 9900 b2be ddb9 e73e c448 98bd
000001d0: b259 e9be ea1e e6bc 1ea6 9c3e ac5f 013e
000001e0: e0a6 263e f401 4f3d e282 3d3e baf3 06be
000001f0: f2d4 45be 0e49 efbe 49fd bebe f5cc 5d3e
-0.13873897 -0.19177644 0.120187536 0.17712903 -0.23670183 0.039927483 0.28764337 -0.04490458
0.14793852 -0.12348932 0.17791666 -0.3621971 -0.3000781 -0.2517699 0.45862788 -0.13530324
-0.0030840281 -0.2425448 0.50149363 0.48716992 -0.37709332 -0.40533495 -0.37539187 -0.010368569
-0.12579334 -0.32727283 -0.18197966 0.09338026 -0.26124537 0.109654516 -0.11592315 -0.24228168
0.0630854 0.41258988 -0.33803964 0.021673134 -0.18155229 0.4862489 -0.47438163 -0.4793306
0.4937122 -0.31634498 0.10201624 -0.036001634 -0.103781596 -0.10773582 0.31833643 0.018979315
-0.4868073 -0.29627767 -0.16968994 0.2663195 -0.32356685 0.47169894 -0.11197154 -0.08493402
0.39572883 0.24231973 0.4251324 0.28925732 -0.15135473 -0.31861165 -0.04049682 0.4137938
-0.1693013 -0.46368498 0.20317611 0.48499876 -0.14285198 -0.41401178 -0.45352983 0.12919629
-0.03016738 -0.2526231 0.09539579 0.19183768 0.3961573 0.38817182 -0.06714045 -0.44088358
-0.45181155 0.4670747 0.22679774 0.22055689 -0.43382585 0.46260813 0.46771023 0.4597436
-0.4217925 -0.18696328 -0.3435922 0.47370982 -0.20837474 -0.23083027 0.2573266 -0.22463997
-0.244946 -0.037295412 -0.050300833 -0.38948923 0.41720828 -0.2354936 0.18292238 0.43362767
0.23765092 0.061500847 0.42499104 0.064546145 -0.22663322 0.47341418 0.12531874 -0.4878404
-0.15010187 -0.3476608 0.4525899 -0.07435754 -0.45576245 -0.028090913 0.30595487 0.12634152
0.16274595 0.050538972 0.18506959 -0.13178912 -0.19319513 -0.46735424 -0.37302616 0.21660216

bn1.weight f4 [128]
00000000: af24 803f 8dad 7e3f 686b 803f d58c 7e3f
00000010: d3ff 803f 3797 7d3f 1acd 803f f51f 803f
00000020: 1c64 803f 9fff 7d3f b99b 7e3f 0000 803f
00000030: 1685 7e3f 34fe 7e3f d4d6 7e3f e299 7f3f
00000040: 8f57 7e3f a164 7f3f e0e6 7f3f 34eb 803f
00000050: 0000 803f 0000 803f e0ec 7e3f 10a8 7e3f
00000060: 4317 803f 0000 803f 5268 7f3f 6c5e 7f3f
00000070: 0000 803f 243d 7e3f 6075 7f3f 0000 803f
00000080: 2e6b 7e3f 33c3 803f 0000 803f f436 803f
00000090: 958a 7e3f a68c 803f 0000 803f 0000 803f
000000a0: 5bf5 7e3f 0000 803f 6d09 803f a11a 7e3f
000000b0: 7258 7f3f 4433 803f c684 7f3f 0235 803f
000000c0: 0000 803f 1ef0 7f3f 90c0 7e3f 1e18 813f
000000d0: 0000 803f 41fe 803f 01cb 7e3f 873c 7f3f
000000e0: 7fcc 803f 89de 7f3f bf2c 7f3f 0fb1 803f
000000f0: 5612 803f 6d39 7f3f 06fd 7e3f 14ba 803f
00000100: b005 803f 0000 803f f974 803f 48d9 803f
00000110: 0411 803f 0000 803f 0000 803f 7548 803f
00000120: 4a17 803f 65cc 7f3f f101 803f a99d 7e3f
00000130: 2d38 7f3f a155 803f 59f9 7f3f 0000 803f
00000140: 0000 803f de1f 803f 7740 803f d0dd 803f
00000150: 017c 7f3f 7392 803f ed97 7e3f 6b81 7e3f
00000160: 0000 803f 0119 803f 07f2 7f3f 66f7 7f3f
00000170: 7bcd 803f 624a 7f3f 97b0 803f a0a6 7f3f
00000180: e91d 803f 3d14 813f e58f 7e3f 0000 803f
00000190: 9ca7 803f c84f 7f3f a7c5 7f3f c5d4 803f
000001a0: 0b7b 803f 907e 803f cb0d 7e3f 12cb 803f
000001b0: ba23 803f 5667 803f a4a1 803f 0000 803f
000001c0: a06e 803f d37d 7e3f aac4 803f f6cd 803f
000001d0: 0000 803f a08d 803f 8370 7f3f da92 7f3f
000001e0: ef39 803f feaf 803f a3a9 803f 9b52 7e3f
000001f0: 76fe 7e3f 0000 803f 6794 7d3f 5492 7e3f
1.0011195 0.9948357 1.0032778 0.9943364 1.0078071 0.9905886 1.0062592 1.0009753
1.0030551 0.9921817 0.99456364 1.0 0.99421823 0.99606633 0.9954655 0.9984418
0.99352354 0.9976292 0.9996166 1.0071778 1.0 1.0 0.9958019 0.99475193
1.0007099 1.0 0.99768555 0.9975345 1.0 0.99312043 0.99788475 1.0
0.99382293 1.005957 1.0 1.001677 0.9943021 1.0042922 1.0 1.0
0.9959313 1.0 1.0002877 0.9925938 0.9974433 1.0015645 0.9981197 1.0016177
1.0 0.99975765 0.9951258 1.0085485 1.0 1.0077592 0.9952851 0.9970173
1.0062407 0.99948937 0.9967765 1.0054034 1.0005596 0.99697 0.99604833 1.0056787
1.0001736 1.0 1.0035697 1.0066309 1.0005193 1.0 1.0 1.0022112
1.0007107 0.99921256 1.0000592 0.9945932 0.9969509 1.0026132 0.9998985 1.0
1.0 1.0009725 1.0019673 1.0067692 0.9979859 1.0044693 0.9945057 0.99416226
1.0 1.000763 0.9997868 0.99986875 1.0062708 0.99722874 1.0053891 0.99863625
1.0009128 1.0084301 0.99438316 1.0 1.005115 0.9973111 0.9991097 1.0064932
1.003755 1.0038624 0.99239796 1.0061972 1.0010903 1.0031536 1.0049329 1.0
1.003376 0.9941074 1.0060017 1.0062854 1.0 1.004322 0.99781054 0.9983345
1.001768 1.0053709 1.0051769 0.99344796 0.99607027 1.0 0.9905457 0.9944203

bn1.bias f4 [128]
00000000: 9de4 29bb 9e76 78b9 0a13 a8bb 3637 493c
00000010: 6947 dbbb 9f15 06bc 5788 c0bb b123 62bb
00000020: d168 11bb 6170 cd3b f5ca 353c e39c 473c
00000030: 25a4 403c 6af5 913b cd78 423a bf2b 9a3a
00000040: ba62 4bbb c630 61bb 4b42 ba3a 5c02 9bba
00000050: 1fea a13b 4d24 ecbb 6973 00bc 0565 a1bb
00000060: 4224 47bb 7717 c0bb 435c 3a3c a197 a7bb
00000070: bcf1 d2bb 613c d23b 85f4 8c3b 3e76 90bb
00000080: 6034 bbbb 9720 b6ba 8365 6fbb c678 ee3b
00000090: d988 173c a4e3 b3bb c365 9e3b 6311 2d3c
000000a0: e056 4a3b 050f fa3b b59b 4cbb 6c4c e5bb
000000b0: bfbe 08bc da9d adbb 440c d3ba ced6 0abc
000000c0: 88d8 0a3a 804a 6bbb ab97 3f3a fe9e 453c
000000d0: 8406 423b 987d b43b 7fec 36ba 91f3 b1bb
000000e0: aeb0 b73a 18dc e0bb 7330 f2ba d87c 583b
000000f0: fd62 bb3b fe1f e03b 8128 163c dcd8 ec3a
00000100: 88ef 12ba 9fd3 13bc 75f6 a539 287e 9e3b
00000110: ef8e b3bb 5c0f 82bb 33ca b7bb 1a53 adb9
00000120: 2403 93ba ec94 cfbb bf92 30bc 489a e43a
00000130: a93c 66bb f039 ab3a 59a4 fd3b 40ca c2bb
00000140: db90 0a3b 420d e737 ea0c 9b3b 9bed aa3b
00000150: 8365 163c 812c d43b 542e f53b b1ae b53b
00000160: a073 013c 56ef 13bb 59e2 2b3c 6540 873b
00000170: a8bb a1ba 6e85 273c f631 53bb 7243 b43b
00000180: ad64 cabb cd3b 1e3b 1b2a aa3a 8174 a73b
00000190: d945 1bbb 8948 b5ba d400 113c c1bb 763b
000001a0: 0241 283c daea 613b cfdf 02bc 3b8b 873b
000001b0: c49a 0a3a c3fe e8bb 0b2c b13b 66ec bfbb
000001c0: de0d 143a b129 1d3c 969d db39 456b c73b
000001d0: 2110 863b 14c8 2f3b de8a 5d3b 954e 50ba
000001e0: 92d0 38bb a7a0 bc37 bcc2 d83a 0610 05bb
000001f0: 3a75 91bb 74a6 cd3b 2277 1bbc b630 ae39
-0.0025923618 -0.00023695311 -0.0051292228 0.01228123 -0.0066918624 -0.008183866 -0.005875628 -0.0034506137
-0.002218772 0.0062695 0.011095752 0.012183401 0.011757885 0.0044543045 0.00074185134 0.0011762305
-0.0031034187 -0.0034361347 0.0014210431 -0.0011826265 0.0049412395 -0.007206476 -0.007840016 -0.0049253725
-0.0030386602 -0.005862172 0.011374536 -0.005114511 -0.0064375084 0.006415889 0.00430161 -0.004408627
-0.0057130307 -0.001389521 -0.0036529012 0.007277581 0.009248936 -0.0054897834 0.0048339083 0.010563227
0.0030874535 0.007631185 -0.0031220738 -0.0069976356 -0.008346259 -0.0052983584 -0.0016101678 -0.008474065
0.0005296548 -0.003590256 0.0007308672 0.0120618325 0.0029605934 0.005508136 -0.00069779897 -0.0054306467
0.0014014447 -0.0068621747 -0.0018477574 0.0033033397 0.0057185874 0.0068397513 0.00916493 0.001807
-0.0005605151 -0.009022622 0.00031654877 0.0048368163 -0.0054796855 -0.003969116 -0.005608821 -0.00033059047
-0.0011216146 -0.0063348915 -0.0107771745 0.0017440999 -0.003513137 0.0013063531 0.007740539 -0.0059445202
0.002114347 2.754352e-05 0.004731764 0.005216313 0.009179476 0.006475032 0.0074823294 0.0055445065
0.007901102 -0.0022573075 0.010490977 0.0041275495 -0.0012339251 0.010224683 -0.0032225824 0.005501204
-0.0061765523 0.002414453 0.0012982519 0.005110324 -0.0023692755 -0.0013830821 0.008850295 0.003764853
0.010269405 0.0034472258 -0.00798793 0.0041364706 0.0005287344 -0.007110448 0.0054068617 -0.0058570383
0.00056478183 0.00959246 0.00041888346 0.0060857856 0.004091278 0.0026822137 0.0033804695 -0.000794628
-0.002820049 2.2486156e-05 0.0016537528 -0.002030374 -0.0044390233 0.0062759463 -0.009488853 0.0003322416

bn1.running_mean f4 [128]
00000000: 3efc 2f3b e870 2f26 5b8a 1e3d 74de 263d
00000010: 2877 563a feeb 3f3c 98ec e63e f60c 163b
00000020: 789b 2d3d 903d ea38 f9c4 933e 0000 0000
00000030: 803b 2c26 e7af a33d 9291 d03e cb0b 7b3a
00000040: d72a 093e d86c 8e3a de97 333f 28b9 253f
00000050: 0000 0000 0000 0000 7896 a03a e5b1 373d
00000060: bce8 dc3a 0000 0000 0641 393b aa81 0f3d
00000070: 0000 0000 4e5a c83d 65f3 113a 0000 0000
00000080: cbab 313d c9b8 e53e 0000 0000 05cb c13e
00000090: 63d4 023c 6d56 7c3e 0000 0000 0000 0000
000000a0: e553 853e 0000 0000 e683 2d3e 1400 503d
000000b0: 9338 223e 195f 173e 01e3 a33e e211 9f3d
000000c0: 0000 0000 9e81 8a3a c41b 063b 3404 4d3d
000000d0: 0000 0000 e1f8 043f 85b8 a93d 0b03 453b
000000e0: 0470 cb3d db58 3e3e cc95 003f 549a bc3e
000000f0: ed06 7e39 cecb 0e3e a81e d03a e255 f63e
00000100: bca4 173b 0000 0000 ba64 793e 54ca 023f
00000110: d101 263b 0000 0000 0000 0000 edab 1c3d
00000120: fc26 1f3b f823 6a37 5c4f d73e c2f9 3c3d
00000130: f1a2 0f3f a77a 963e bdfa 123e 0000 0000
00000140: 0000 0000 3aa3 253f 0bda 3e3e de97 4b3e
00000150: 9525 e13c 5ddd 253f c5d8 b53e a844 5e3e
00000160: 0000 0000 b9ac 0e3b 26e7 0a3a f702 2d3f
00000170: 150f e23a 94d5 2b3b d272 023f eadb ef3d
00000180: 0267 1d3b ea81 ee39 0288 5b3b 0000 0000
00000190: 9113 de3e 73eb 543e 3e69 093d 3967 e03e
000001a0: ef78 653e 954a 1f3e e558 163f 1032 f23b
000001b0: 33b5 2038 dd0e 393f d16b 023d 0000 0000
000001c0: 4a36 3e3e cac6 2725 1f3e 693e 9fc5 2b3a
000001d0: 0000 0000 fbdf 003d 0b4a 053f 82bc 403c
000001e0: 3936 4c3d 09b5 033e 120d 3e3e 4abc 853e
000001f0: 6563 7a3d 0000 0000 e75b c83c fe3a 883d
0.002685323 6.086834e-16 0.038706165 0.04073949 0.0008181208 0.01171398 0.45102382 0.002289591
0.042384595 0.000111694564 0.28861216 0.0 5.9755125e-16 0.07992535 0.4073606 0.00095766474
0.13395248 0.0010866178 0.70153606 0.6473565 0.0 0.0 0.0012251874 0.044847388
0.0016854028 0.0 0.0028267517 0.035035767 0.0 0.09782849 0.00055675796 0.0
0.043376725 0.44867542 0.0 0.37850204 0.007985207 0.24642344 0.0 0.0
0.2604057 0.0 0.16944847 0.050781325 0.15841894 0.1478237 0.32009128 0.07767083
0.0 0.0010567193 0.0020463327 0.050052837 0.0 0.5194226 0.082871474 0.0030061628
0.09933475 0.18588583 0.5022857 0.36836493 0.00024225908 0.13944933 0.0015878277 0.48112398
0.002313896 0.0 0.2435483 0.5108998 0.0025330673 0.0 0.0 0.0382499
0.002428471 1.39558615e-05 0.42052734 0.046136625 0.56108004 0.2939045 0.14353462 0.0
0.0 0.6470219 0.18637864 0.19882151 0.02748374 0.647909 0.35516945 0.21705878
0.0 0.0021770431 0.0005298726 0.6758265 0.0017246926 0.0026219832 0.5095645 0.11711867
0.0024017696 0.0004549169 0.0033497815 0.0 0.43374303 0.20792942 0.033547632 0.43828753
0.22409414 0.15555795 0.5872939 0.007391222 3.8315728e-05 0.72288305 0.031841103 0.0
0.18575397 1.4552293e-16 0.22777604 0.000655258 0.0 0.031463604 0.52066106 0.011763694
0.0498564 0.12862028 0.18559673 0.26120216 0.061129946 0.0 0.024457885 0.06651877

bn1.running_var f4 [128]
00000000: c113 673a 6bcd 0b25 7935 0d3b bae1 a73b
00000010: 44b6 ac38 3359 1a3a ad84 483d b6bf e039
00000020: 20db 973b 65e0 7f36 709b 573b 0400 0000
00000030: 3abc 0625 253d d93b 436f 013d e948 ed38
00000040: eb77 da3a 8abe 1839 ed55 5a3d a32e 823b
00000050: 0400 0000 0400 0000 08fc d637 3a80 663b
00000060: d088 b539 0400 0000 ee35 813a a8c8 e83a
00000070: 0400 0000 6c23 c23a e066 2038 0400 0000
00000080: 8cdf 163b f2f8 e23c 0400 0000 f01b 8c3d
00000090: 5edc 4c39 02cc 743d 0400 0000 0400 0000
000000a0: f966 693d 0400 0000 bd96 d53c 680e 7f3b
000000b0: b558 d53c 734c b93c 5ce3 4a3b d1af d53b
000000c0: 0400 0000 8e74 1039 f33c 063a 7217 e63b
000000d0: 0400 0000 0080 a539 53d3 ed3b bc21 e838
000000e0: bb16 953c 30a7 073a 5938 d03c f5dd 2f3c
000000f0: f5f3 f236 4751 ac3c 120d a339 9816 9c3c
00000100: 92c0 263a 0400 0000 15b2 a23b 92df 433c
00000110: dab2 483a 0400 0000 0400 0000 e230 2c3b
00000120: dfba 3e3a ea1e 0136 3650 a33c 5524 9d3b
00000130: 490e a53b 5e33 1e3d 974f 243c 0400 0000
00000140: 0400 0000 258e de3c c3a8 0f3d 4b57 cc3c
00000150: e5b9 a73a 1fe4 263d a8fc 783c b89e 7f3c
00000160: 0400 0000 d747 193a ae48 1138 d8bc 463d
00000170: 8466 c039 7356 5e3a 8fbb 2e3d c709 433c
00000180: 1ab4 9738 bbaf 7f37 0995 953a 0400 0000
00000190: 6b61 3f3c 1b18 393d d61d 943b 39ca dd3c
000001a0: 9a9d 0d3a ba66 af3a 3381 b63b cb1d 1d3b
000001b0: b419 3a36 452f bb3c 894e 523b 0400 0000
000001c0: ceb1 113d 4ab5 ff22 90a4 273d e207 ed37
000001d0: 0400 0000 7a2f 8b3a 6023 643c 1672 843b
000001e0: 1e9b c43b 6553 893c cc9e 1f3b 96f1 4b3d
000001f0: 5768 843b 0400 0000 1c6a 9a3a f805 bd3b
0.0008814894 1.2125926e-16 0.0021546765 0.0051233443 8.235549e-05 0.00058879255 0.048954654 0.00042867445
0.004634276 3.8128576e-06 0.0032899044 6e-45 1.1686421e-16 0.0066296034 0.031600248 0.00011314621
0.0016667818 0.00014566831 0.0533046 0.0039728447 6e-45 6e-45 2.562815e-05 0.0035171644
0.00034624944 6e-45 0.0009857991 0.0017759996 6e-45 0.0014811582 3.8242782e-05 6e-45
0.0023021428 0.027706597 6e-45 0.06841266 0.00019537049 0.05976487 6e-45 6e-45
0.056982968 6e-45 0.026072854 0.00389185 0.026043275 0.022619462 0.003095827 0.006521203
6e-45 0.0001377633 0.00051207765 0.007021838 6e-45 0.0003156662 0.007257858 0.000110689056
0.018199315 0.0005174754 0.025417494 0.010734071 7.2405624e-06 0.02103485 0.0003109952 0.019053742
0.00063610927 6e-45 0.0049650767 0.011955159 0.00076560455 6e-45 6e-45 0.0026274254
0.0007275771 1.9240492e-06 0.019935708 0.004795591 0.0050371033 0.038623206 0.010028741 6e-45
6e-45 0.02716739 0.035073053 0.024943968 0.001279649 0.040744897 0.015196957 0.015601806
6e-45 0.0005847192 3.4638382e-05 0.04851994 0.00036697474 0.000848151 0.04265934 0.011904187
7.2337876e-05 1.52401e-05 0.0011412214 6e-45 0.011680941 0.045189004 0.0045201583 0.027073966
0.00054022076 0.0013382055 0.005569601 0.0023974057 2.773112e-06 0.022849688 0.0032090268 6e-45
0.03556996 6.9309836e-18 0.040928423 2.8256272e-05 6e-45 0.0010619008 0.01392445 0.0040419204
0.0059999367 0.016763398 0.0024356125 0.04979094 0.0040407586 6e-45 0.0011780891 0.005768534

fc2.weight f4 [64, 128]
00000000: 9d2f 67bd 8fe4 d239 2f43 f83c 57ad 253c
00000010: ce2e 7ebd 6666 ac3d f6fa 6cbd dbe4 923d
00000020: 1f65 89bd ebba ccbc 79e7 3f3d ac9b 12bd
00000030: b5de 7d3d 38f3 8abd b208 8abd 05b5 3abd
00000040: c2ef ca3c ecb1 9c3d 4f3e 46bd 262f 273d
00000050: 830d bcbc 40f4 98bc 7dbe 9b3d 3ae7 7fbd
00000060: 12b3 ad3b efd8 aa3d 9db9 8cbc d540 8f3d
00000070: fa96 dcbc 4272 813d f713 b3bd 60af 86bc
00000080: 60d1 e6bb f7e2 ae3c 9bfc b33c bcee 7c3d
00000090: 9a90 9abc 068f 3c3b ab5e 723d 0bf5 adbc
000000a0: b653 ab3d 3597 76bd c9e4 84bc 2f71 3b3b
000000b0: 3626 023d dbff 583d 6eea afbb eafb a0bd
000000c0: 7930 473d 8895 ad3c e694 003d 5b24 63bd
000000d0: b480 433d 5e13 ba3d 1e65 d539 41a1 aebd
000000e0: 9df9 803d 4ccc 9bbd 3135 683c 7207 a53c
000000f0: 909b 3ebd 7978 8b3c 0c99 abbd a584 e53c
00000100: f031 7abd a803 0bbc 9eec 983c 1a6a ab3d
00000110: 150f 3fbd 4d45 6f3d 5291 4ebc 0985 32bd
00000120: dfe8 a4bd a875 8bbd c1ea ac3d 4dbb b2bc
00000130: 96eb 863c 07e2 fc3c e68a 5b3d 12c2 9c3d
00000140: 03bc a43d a6b1 91bd 368c bcbb 56ff 36bd
00000150: 50ea 5cbd 08d1 6d3c 3b8a 9a3d 65dc 8bbd
00000160: 88c7 593d 9856 50bd 3c7b 9fbc e822 843d
00000170: 7175 babc babe 3d3b 92cf 8abd 26d9 883d
00000180: be48 4bbc be89 95bd b75c c43c 994f 85bd
00000190: e3fd 80bd 56a9 51bb 8fed 903d 4d8f 8dbc
000001a0: 0d52 033d 6817 aa3d 475e 863d b079 48bd
000001b0: 60db acbb 960f 01bd cf67 86bd 4ce9 02bc
000001c0: e0a2 6e3d ad24 863d b9f1 683c 6c7d 8d3c
000001d0: 02d1 21bd 9e8f 723d e06e 23bd 6b5a 82bd
000001e0: 9fea 873c bcbf 413d 182d 95bd 38ee 953d
000001f0: 7150 c33c 7667 2ebd 85e4 87bc a352 a03d
00000200: 83b7 8bbd 2d3e d2bc fb49 dc3c f169 a0bd
00000210: 1f86 463d 3c38 373d 2725 6a3d 4bba 65bd
00000220: a9b4 b03d f6f9 45bd 8eda ba3d 104f 95bd
00000230: dcad 9dbd 1857 6a3d 3711 ea3b 61a7 ae3b
00000240: 879e 37bd 384b 17bd cc1a c2bc bfdf a7bd
00000250: 4c61 733c 620c aa3b ad27 a33b 6998 d53c
00000260: 02ac aa3d ac5c 563c 80b0 03bd f32e 1cbd
00000270: 9e3a 89bd 751f 6fbd 6768 63bc 9ba2 c2bc
00000280: 2d7c 193d 61ed 0fbd 3a3f 983d 9624 73bd
00000290: 302f c339 37c6 9d3d 78b7 c83d 7e10 26bd
000002a0: 9efe 583c 40bf a93c 36ff 1ebd c0e4 06bd
000002b0: e270 de3c ee4f 6ebd 2c82 343c 0f51 1f3d
000002c0: c680 23bd bcd6 963d 9ca9 cbbb 2748 213d
000002d0: ffdb c03d 3448 b7bc afe1 513d c1b0 acbc
000002e0: cf28 71bc 0f0d 5cbc 93fb 7d3a 7b49 11bd
000002f0: a941 ab3c 79c6 ee3b 7566 663d 4d8b aabc
00000300: 2871 143c 9407 33bd cb06 9cbd 5cb7 043d
00000310: b1ab 343c bda7 38bd 8538 11bd 889a af3c
00000320: 210c 81bc 0c14 323d 9233 0d3c 8f0c 033d
00000330: de12 2f3d 2f1e c6bc 4073 2b3d 6227 603d
00000340: 8798 753a 5138 9c3c 39bd 8e39 379a 6e3d
00000350: bf9a 1fbd 0c16 35bd de30 283d 323b a3bd
00000360: 1647 463c 1a94 25bd 9e2b 703d 3210 a5bd
00000370: ed9b 5c3d 0691 b33d 1be9 a43c 420d 08bb
00000380: 3354 af3d 5591 19bd d8c3 debb 2e86 e9bc
00000390: c11e 70bc 2e0e bb3c d5b5 323c c130 a0bc
000003a0: fb39 acbd a518 1d3c 21f6 e2ba 7392 5b3c
000003b0: d628 813d b3d8 b53d 28cc 5abd 4fbc 32bc
000003c0: c7e1 01bd 01c4 a8bd 6b34 89bd ad2b a43d
000003d0: 322c 783d 5e6e 4e3d d3f0 523d 85ee 8fbd
000003e0: 4187 023c 4945 ac3d 5b5c 51bd 0740 a83d
000003f0: 8b21 db3c 999c 7f3d 1e95 02bd 7725 1f3d
-0.056441892 0.0004022461 0.030305473 0.010112128 -0.062056355 0.084179685 -0.057856523 0.07172557
-0.067087404 -0.024991473 0.04685161 -0.03579299 0.061979968 -0.067846715 -0.0673994 -0.04558279
0.024772529 0.076511234 -0.048399266 0.04081645 -0.022955662 -0.018671155 0.07604692 -0.062476374
0.005300888 0.08342158 -0.017178351 0.069947876 -0.02692746 0.06320621 -0.08744042 -0.016441047
-0.0070440024 0.02134846 0.021971038 0.061751112 -0.01886778 0.0028771772 0.059172314 -0.02123501
0.08365576 -0.060202796 -0.016222375 0.0028601398 0.031774722 0.052978378 -0.0053685224 -0.07860549
0.04863021 0.021189466 0.031392 -0.055454593 0.047730163 0.09085725 0.00040701864 -0.085268505
0.0629761 -0.07607326 0.014172838 0.020145152 -0.046535075 0.01702522 -0.08378801 0.028017351
-0.06108278 -0.008484758 0.018667515 0.08369847 -0.046645243 0.0584157 -0.012607889 -0.043583903
-0.08052229 -0.068095505 0.08443213 -0.021817828 0.016469758 0.030869497 0.05359926 0.076542035
0.08043673 -0.07113962 -0.005754019 -0.0446771 -0.053934395 0.014515169 0.075458966 -0.06829146
0.053168803 -0.050863832 -0.019467942 0.0645197 -0.022761079 0.0028952793 -0.06777872 0.06682043
-0.01240748 -0.07301663 0.023969991 -0.06509323 -0.06298425 -0.0031991801 0.07076561 -0.017280245
0.03206067 0.08305246 0.06560951 -0.048944175 -0.005275175 -0.031509005 -0.06562769 -0.007990193
0.0582608 0.06549964 0.014217787 0.01727172 -0.039505966 0.059218995 -0.03990066 -0.06364902
0.016591368 0.047301993 -0.072839916 0.07320827 0.023842068 -0.042579137 -0.016588459 0.07828262
-0.068221115 -0.025664413 0.026890745 -0.07832707 0.04846775 0.044731364 0.057164337 -0.056085866
0.08628208 -0.048334084 0.09123717 -0.072904706 -0.07699177 0.057211965 0.0071431655 0.0053300117
-0.044828918 -0.03693697 -0.023694418 -0.08196973 0.01485474 0.0051894644 0.004979095 0.026073651
0.08333589 0.013083618 -0.032150745 -0.03813071 -0.067006335 -0.05837961 -0.013879872 -0.023759177
0.03747194 -0.03513849 0.074339345 -0.059361063 0.00037228456 0.07703822 0.09800619 -0.040543072
0.013244299 0.020721078 -0.038817607 -0.032932997 0.027153436 -0.058181696 0.0110173635 0.038895663
-0.03991773 0.07365176 -0.0062152874 0.03937545 0.09416961 -0.022373296 0.05124062 -0.021080377
-0.014719202 -0.013430848 0.00096886716 -0.035470467 0.020905333 0.0072868434 0.056250054 -0.020818377
0.009060182 -0.0437084 -0.07618483 0.032401428 0.011027263 -0.045081843 -0.03545429 0.02143599
-0.015752854 0.04347615 0.008618252 0.0319944 0.042742603 -0.024184315 0.041857958 0.05472506
0.00093687366 0.019069823 0.00027225332 0.05825254 -0.038965937 -0.04421048 0.04106223 -0.07970275
0.012101909 -0.040424444 0.058635347 -0.0805973 0.05385964 0.087678954 0.020130685 -0.0020759855
0.085609816 -0.037492115 -0.0067982487 -0.028506365 -0.01465577 0.02283391 0.01090761 -0.019554498
-0.084094964 0.009588395 -0.0017315784 0.013401615 0.06306617 0.08879223 -0.053417355 -0.010909154
-0.03170946 -0.0824051 -0.06699451 0.08016143 0.060589023 0.050398223 0.0514992 -0.07027916
0.007966817 0.084116526 -0.051113468 0.08215337 0.026749393 0.062405203 -0.03188049 0.03885409

fc2.bias f4 [64]
00000000: bc7e 473c d842 9e3d bf1e 243d ec7b 4fbd
00000010: 979e 31bd 4930 983c b619 51bd 7a70 29bc
00000020: 34c8 fa3c e869 23bd 3297 dd3c d3f0 af3a
00000030: d08b b13d 0b0b 9dbd bdc3 8d3d 6c10 8b3d
00000040: 7ff1 8abd 918f 833c 5f86 6abc 6130 353d
00000050: 50ac 833d c49c 43bd e780 3bbd 8820 90bd
00000060: 474b 843d 9702 84bd 9d56 6cbd 6ba1 9b3d
00000070: 2ca5 3b3d e72f 863d 2687 763d 763f 9ebd
00000080: bfb6 97bc c867 37bc a8ff 9e3d b15b 91bc
00000090: df04 85bc 86ef 533d f16f 4a3d f8db 62bd
000000a0: 1f9e 81bd 419e e1bc f78a 093d 3789 b63d
000000b0: b4de 1b3d 538e 3c3d 6ef9 0c3d 8fd7 adbc
000000c0: d42c 78bc 9c33 973d 027a b93c 5679 3d3c
000000d0: f13a 713d 8921 5a3d 6efe 963c 867c 32bc
000000e0: afeb 19bd 42dc 45bd a1a2 30bd e457 993d
000000f0: 33f6 863d 5a8a 26bd d381 703d f348 cabc
0.012176212 0.07727593 0.040068384 -0.05065529 -0.043364134 0.018577712 -0.05104991 -0.010341758
0.030613042 -0.039895922 0.027049635 0.0013423212 0.08669245 -0.07668122 0.069221 0.067902416
-0.06784343 0.016059669 -0.014314263 0.04423559 0.064293504 -0.047756925 -0.045777228 -0.07037455
0.064596705 -0.064458065 -0.05769979 0.075991474 0.045811817 0.065521054 0.06018748 -0.07726948
-0.018519757 -0.011194177 0.07763606 -0.017743917 -0.016237674 0.0517421 0.049423162 -0.05538556
-0.06328987 -0.027541282 0.033579793 0.089128904 0.038054183 0.04603417 0.034417562 -0.02122095
-0.015147407 0.073828906 0.022641186 0.011564573 0.0588941 0.053254638 0.018431868 -0.0108939465
-0.03757828 -0.048305757 -0.043123845 0.07487467 0.065899275 -0.040659286 0.05871756 -0.024692988

bn2.weight f4 [64]
00000000: e46f 7e3f f8c1 803f 3b2a 813f 6492 7e3f
00000010: 4f6f 7e3f ed73 7f3f afb0 7e3f a81b 7f3f
00000020: 6de4 803f 460f 803f 0846 7f3f 75c9 803f
00000030: 66c2 803f 2adf 7d3f 5be8 7e3f a8c9 803f
00000040: 77a2 803f 6577 7f3f 2924 7f3f 903d 7f3f
00000050: 6dd6 803f 4af4 803f a8d3 803f cfd2 7f3f
00000060: fde1 803f 8aa9 803f 3baa 7e3f 7869 7e3f
00000070: 0f74 813f c1d3 803f b01f 833f 2e81 803f
00000080: 49de 803f 4770 813f 9f09 7f3f b695 803f
00000090: ec67 7e3f b17e 813f 6d2d 813f 3c18 813f
000000a0: 49b3 803f 57c7 803f 040a 803f 7fea 803f
000000b0: c595 7e3f 7165 7e3f 318c 7e3f b11a 813f
000000c0: 4f37 803f fc91 803f 3ce6 803f eda7 803f
000000d0: 9d70 7e3f 659e 7f3f 6ea2 7f3f 156e 7e3f
000000e0: 54b4 803f 3ec3 803f c286 803f 1b71 7e3f
000000f0: 0b7d 803f ffb6 7e3f 792f 813f 033f 813f
0.9938948 1.0059195 1.0091013 0.99442124 0.99388593 0.99786264 0.9948835 0.99651575
1.006971 1.0004661 0.99716234 1.006148 1.0059326 0.99168646 0.99573296 1.0061541
1.004958 0.99791557 0.9966455 0.9970331 1.0065438 1.0074551 1.0064592 0.99931043
1.0068966 1.0051739 0.994785 0.9937968 1.0113543 1.0064622 1.0244045 1.0039423
1.0067836 1.0112389 0.99624056 1.0045688 0.9937732 1.0116788 1.0091988 1.0085521
1.0054713 1.0060834 1.0003057 1.0071563 0.9944728 0.9937354 0.99432665 1.008627
1.0016879 1.0044551 1.0070262 1.0051247 0.99390584 0.99851066 0.99857223 0.9938672
1.0055032 1.0059583 1.0041125 0.99391335 1.003816 0.9949798 1.0092613 1.0097355

bn2.bias f4 [64]
00000000: 107e c93d dee8 c6bd 2aa9 b93d 4279 ba3d
00000010: 996d f83d 8393 ca3d 0d1c c1bd 988e d93d
00000020: af2a c13d c26f c13d 4c5d bfbd 233b c7bd
00000030: 5dec bc3d 3e00 bd3d 5467 c13d d20d babd
00000040: a09e bcbd a69c cbbd 204c c4bd 9a74 d6bd
00000050: 6092 bbbd 2281 b93d 42e0 bbbd 4a55 bfbd
00000060: 9cdf cbbd 91da c2bd cc80 d33d 9b97 bb3d
00000070: 4006 d53d e013 be3d 1109 203e 7403 c5bd
00000080: e5bd cebd 9b99 0d3e 6d08 c1bd a692 bc3d
00000090: be26 ba3d 3eab bd3d 13f5 bbbd 0c96 bb3d
000000a0: 5187 bebd 3b1d bdbd 63e7 cc3d f903 dc3d
000000b0: da69 babd 5c64 b83d 709d be3d 6402 d53d
000000c0: ad47 ec3d 99cc d03d 9b6f e8bd fcc6 cbbd
000000d0: ad9a b8bd 01c3 c9bd cce2 bcbd 331d be3d
000000e0: a16a 04be 6e8d c8bd 9cee d9bd 5924 bf3d
000000f0: 2461 c0bd 241f c13d cb25 be3d c0dc b93d
0.09838498 -0.09712385 0.090654686 0.09105159 0.12130279 0.09891417 -0.094291784 0.10622901
0.094319694 0.09445144 -0.09343967 -0.09728076 0.0922477 0.09228562 0.094435364 -0.09084667
-0.09209943 -0.09941988 -0.09584832 -0.10471459 -0.09158778 0.09057833 -0.09173633 -0.093424395
-0.099547595 -0.095143445 0.103273004 0.09159776 0.10401583 0.092811346 0.15628459 -0.09619799
-0.10094813 0.13828127 -0.09425435 0.092076585 0.09089421 0.092611775 -0.091776036 0.091594785
-0.09303153 -0.09234091 0.10005071 0.10742945 -0.09102221 0.09003517 0.093073726 0.104008466
0.115371086 0.10195274 -0.11349412 -0.09950063 -0.09013877 -0.09851647 -0.092229456 0.09282913
-0.129313 -0.097926006 -0.10641214 0.09333105 -0.09393528 0.09429768 0.09284552 0.09075308

bn2.running_mean f4 [64]
00000000: 4eb8 853e 6c0c 4d3e 2e7f d23d 1dab 1e3e
00000010: e72c b33d 174c 3c3e 5e40 cd3d cdab 0f3e
00000020: 9a7e bd3e ef21 633d 48c5 403e b0e8 163e
00000030: 18c7 363e ed6e ad3d b20c 063e 28c9 133e
00000040: b8a6 553e 2b20 a33d f214 303e b29e cf3d
00000050: eeae dc3e f569 1d3e e5dd 3c3e bdd5 653d
00000060: b482 6a3e 18c3 243e db18 bf3d 2025 ab3e
00000070: 5f34 143e 4557 c63e 08aa 433e cb5c ea3d
00000080: 2133 5b3e 1dac bb3d 7870 c03d fcc6 b13d
00000090: 8a5d e93d eaad 283e e14b cb3d a245 fc3d
000000a0: fec7 3c3e f648 503e bfa3 1c3e 95f9 cb3e
000000b0: 06ba 373e e16d 863e a22c 783e 7e40 5d3e
000000c0: 4f3b dd3d b64f 163e e8d1 b43e 669f 433e
000000d0: 37be d03e da1a 473e 7e44 1a3e 117f 7e3e
000000e0: 986d 3e3e 1de3 9d3e 7c06 a33e 6cba 373f
000000f0: ea79 283e bca8 953e 313e 403e a723 f43d
0.26117176 0.2002427 0.10278164 0.15494962 0.08748799 0.18388401 0.10022043 0.1403038
0.37010652 0.055452283 0.18825257 0.147372 0.17849386 0.08468423 0.1309078 0.14432204
0.2086438 0.0796512 0.1719549 0.101376906 0.4310221 0.1537245 0.18444021 0.05611204
0.22901422 0.16090047 0.09330913 0.33426762 0.14473103 0.38738456 0.1910783 0.1144348
0.21406223 0.091636874 0.09396452 0.086805314 0.11394794 0.16472593 0.09926582 0.12317969
0.18435666 0.20340332 0.15296839 0.39838853 0.17942056 0.26255706 0.24235776 0.21606633
0.10802328 0.14678845 0.35316396 0.19103774 0.40770122 0.19443837 0.1506519 0.2485316
0.18596494 0.30837336 0.31840885 0.7176883 0.16452757 0.29230297 0.18773724 0.11920863

bn2.running_var f4 [64]
00000000: 354f 0d3e 524b 603d 3860 583c 1668 f73c
00000010: 8195 203d 2218 2d3d 4948 4c3d 4252 7f3d
00000020: 011b 1f3e a7ca 003d a3c2 d83d eba2 063d
00000030: a81b 213d e638 fa3d 1b4c 0f3e 2d5a d23c
00000040: b69d 4d3d 2a9f 913c 2b9a 593d 76d0 923c
00000050: fc64 523e a519 313d 7dc3 1a3d bca1 cd3b
00000060: b602 733d a1b4 d03d 8153 b83c 99b3 f53d
00000070: b429 e23c 3d18 333e c7d3 1d3d 6a8f bc3c
00000080: e52f 653d 4399 2f3c 83ae 3f3c a723 163c
00000090: cff2 c53c 1a52 d63c a57e 8c3c 5a36 ab3c
000000a0: 9a70 5c3d f242 663d 7217 0b3d 2137 3b3e
000000b0: 5883 a23d 013b af3d 39a8 053e 8c81 a03d
000000c0: 1aae 8c3c 67f5 de3c 00b5 1e3e a15e d53e
000000d0: 9a14 333e a539 3f3d 71e0 203d 0a77 bb3d
000000e0: 3968 6f3d 2204 fa3d 53e7 463e b8ba 0e3f
000000f0: 044f 493d 8e6e e23d 02a6 9e3c d0db db3c
0.13799746 0.05475933 0.013206534 0.030201 0.039205078 0.042259343 0.049873624 0.062334307
0.15537645 0.031443264 0.10583999 0.032870214 0.039333016 0.12217884 0.13993876 0.025677765
0.050199233 0.01777609 0.05312554 0.017921668 0.20546335 0.043237347 0.03778409 0.0062753838
0.059328757 0.10190702 0.022500755 0.11997146 0.027607776 0.17489715 0.038532045 0.023017604
0.05595388 0.010717693 0.011699322 0.009163774 0.024163632 0.026162196 0.017150233 0.02089994
0.053818323 0.056216188 0.033957906 0.18282749 0.07935208 0.08556176 0.13052453 0.07837209
0.017172862 0.027216626 0.15498734 0.4167376 0.17488328 0.046685833 0.039276544 0.09153564
0.058449004 0.122078195 0.1942418 0.5575366 0.04914762 0.11056243 0.019366268 0.026838213

fc3.weight f4 [1, 64]
00000000: ce2b 56bd ac16 943d 8f2c 02be 074b b8bd
00000010: e69c 93bd 50c8 86bd 8453 b83d ecc4 87bd
00000020: 276d 21be 6591 20be abc9 2a3e 212f d03d
00000030: 646c 2bbe 5dca 08be 6b0d e5bd f9f4 123e
00000040: 2ed6 bf3d 8886 943d 4784 df3d b438 343d
00000050: 3906 f13d a659 00be c8b6 053e 0f45 9b3d
00000060: bb8f ad3d a9c9 003e 879d 44bd 064d 97bd
00000070: c430 acbd b8bb 06be 3eda 8bbd 5685 d63d
00000080: dbbe 593d ba34 63bd ee35 853d 75d1 15be
00000090: e0c9 cbbd 28ac 17be dccb 273e 8e03 18be
000000a0: 9d85 b03d 74df fc3d d86f 82bd ac05 7dbd
000000b0: 3f92 013e 6485 f3bd 3a49 2bbe eda0 4cbd
000000c0: 5512 6cbd c8f2 cebd 87fc 3b3d 7957 043e
000000d0: d73f 9e3d dfa7 7e3d d159 eb3d 0efa 9dbd
000000e0: db17 9f3d 0a36 a13d 6f73 ce3d 43fb 75bd
000000f0: b7e2 133e dcfc 0abe b738 adbd 386b 19be
-0.05228787 0.07230887 -0.1271231 -0.08998685 -0.072076604 -0.06581175 0.09000304 -0.06629357
-0.15764295 -0.15680464 0.16678493 0.10165239 -0.16740566 -0.13358445 -0.111842 0.14351262
0.093670234 0.07252222 0.10913902 0.04399939 0.11768765 -0.12534198 0.13058007 0.07581531
0.0847468 0.12576927 -0.048001792 -0.07387738 -0.08407739 -0.13157547 -0.06828736 0.104746506
0.05316053 -0.055470206 0.06504427 -0.14630683 -0.09950614 -0.14811766 0.1638636 -0.14845106
0.08619235 0.12347308 -0.06368989 -0.061772987 0.12653445 -0.118906766 -0.16727152 -0.04995816
-0.05763467 -0.101049006 0.045895126 0.12923993 0.0772702 0.062171813 0.114917405 -0.0771371
0.07768222 0.07871635 0.10080611 -0.060054075 0.14441954 -0.1357302 -0.08458083 -0.14982307
