PreTrained/cstr_ode/Deep_DQN/0_2/1000.pth (torch, 43242 bytes, 13 tensors)

fc1.weight f4 [128, 4]
00000000: 894f a43c 60f8 7a3e d9d3 c3be 5a03 cabe
00000010: 16b2 3fbe 58cd 0e3e 3f2d 23bc c839 c83e
00000020: d72e 26bd 2645 093e a4ed 1dbe 79fd 96bd
00000030: 4d50 ffbe 995c a5be d716 42be 0513 7b3c
00000040: 189c 483e db63 993e 65a0 b0be 0690 60be
00000050: 9cc8 413e 6733 cf3e 1789 dcbd bf65 be3e
00000060: 1929 a1bd 1e3c 883d 170b e23e 9936 efbe
00000070: 1b6b adbe a4f3 02be 8606 48be 5c6a da3e
00000080: 0759 a8be 7985 63be d70d b5be 3ae2 dcbe
00000090: 832a 96be 929a d73e 29a1 5b3e a017 733e
000000a0: 8abf 363d 72d6 82be 1781 cc3d 045b d5be
000000b0: 1afa b8be c6f9 83be 2685 a13e 2619 963e
000000c0: f5de 5cbe ad52 44bc e4b6 a33e ba64 fb3e
000000d0: 3b18 513e aaad 723d 869f af3e 4ff6 99be
000000e0: 2cf2 873d e3f1 bfbe 36ea bcbe 7efa 70be
000000f0: 05d3 733e 2df2 3d3e 66db 8fbe 21d4 1d3e
00000100: b601 7f3e 86f9 58bd ecd8 d73c 227c f33d
00000110: e3fc 9d3e 0cb8 f53e d3cd c2be 6c6b 39be
00000120: 813b 463e 4c9a d13e be46 e03e e2cb e53e
00000130: 599d d43d aa1e e0be 2d99 273d afdb 9cbe
00000140: 2867 ebbe d346 dd3e 54e1 c53e d74f ffbe
00000150: 08aa bf3d c880 acbd b882 a8bd 1c5f 6abe
00000160: 55fd 553e bb5b 9fbe c15c 4d3e 1676 813e
00000170: b9a9 b73e 6af5 3a3e 4d02 febe 13b0 a2be
00000180: cb1e 6d3e 58d3 f63d 7474 ccbe d5b9 93be
00000190: f2d4 f03e 547f ac3e b03e 5fbe d4dc 00be
000001a0: 7acb febe 4ff0 513c dc93 bbbe 6a8a babe
000001b0: 76cb f5bc cbd2 973d 0ba7 46be 0d69 943e
000001c0: c011 a5be b720 ea3e 6f4e ab3e 97a4 d6be
000001d0: 5daa f2bd b1f5 f23b 37ed a53d 32a2 ed3d
000001e0: 1d41 493e eb56 f53c 4791 79be 3a12 6b3e
000001f0: d93a f4be f52c 99be 1a32 00be 69a4 76be
00000200: d817 30be b361 d1be 0b3c d0bd 8be2 d43d
00000210: 5bee aabe 0629 a4bc 8e38 b33e eba3 43bd
00000220: 80ac 633c c0ad 30bd 103d cf3d 60c6 a23e
00000230: dfce ea3e 918a a53e be0c fc3e 4274 01bd
00000240: 1435 dabe 244e 82be de2b ba3e dc53 ae3b
00000250: 3edf 83be 913a bcbe ae47 f8be 858f cabe
00000260: 62d1 d2bd 380e 8c3e a192 853e 5cfb f4be
00000270: bae4 9e3e 1687 c7be 75f8 d9bd 1703 4ebe
00000280: 381e a0bd cd34 e3bd 3bb1 ebbe 61d8 dabe
00000290: 283c a0bd 80e1 d33b b896 68be b8de 403e
000002a0: cd9f f5be 53cd dabc b6cb d23e 9ec0 4bbe
000002b0: c1f0 e73e 5253 383e 8c2d e3be 6a96 9e3e
000002c0: 155d 8cbd 911c 48be 3c71 d33e 335e d1be
000002d0: d336 5c3d cc20 c8bd 73a8 ba3e e36b 023e
000002e0: e660 873e 6dd2 2d3e 0721 bebd 64ea e0bd
000002f0: bdab d4be 3b29 923e a1ce c73e 78d3 b33e
00000300: ac93 b4be 60ae b63c 9076 b4be 88ec 8cbe
00000310: cb19 8fbe 73d4 223e 5e7b 92be 00ba 32bc
00000320: 8e75 483d 3e0f 963e 1e9b b4be fd82 bbbe
00000330: ddf2 8cbe e262 aa3e c0c5 37be ec15 dc3e
00000340: a024 393e 40aa 813d 00ed 73bb 086d cabd
00000350: 4e3d 6d3d 831b 06be c1d8 e4bb 2626 4b3d
00000360: f662 c6be 8337 82be 609e d23e d85e d3be
00000370: 5062 eb39 84fb ea3e 1859 563e 634b e63c
00000380: 1c98 d2be e69f 6a3e 86a4 a8be a6de 11be
00000390: 5330 44be 4ea6 8abd b15b 99bb 9bc0 d13e
000003a0: d2c6 963d 7dbb e13e 2d8b 9d3e 1d59 a6be
000003b0: 8b36 703e 94f5 b9be c6c0 4ebe 90e3 0a3e
000003c0: fbf2 2a3e c11c bf3e 1eee 22be 00d4 513a
000003d0: ab19 933e d980 03bf 1de4 ad3e 6f2c cbbe
000003e0: c30c 953b d9eb a9bd 5f26 84be c0fc 923d
000003f0: 0246 de3e 4dca 19be 7c25 8ebe b975 3cbe
0.020057457 0.2450881 -0.38247564 -0.39455682 -0.18720278 0.1394552 -0.009959518 0.39106584
-0.040572014 0.13405284 -0.15422684 -0.07372565 -0.49865952 -0.3229721 -0.18954025 0.015324359
0.19590795 0.29958996 -0.3449737 -0.2192994 0.18924183 0.40468904 -0.10768335 0.37187
-0.07869167 0.066520914 0.44149086 -0.46721342 -0.33870777 -0.12788254 -0.19533738 0.4265927
-0.32880422 -0.22218885 -0.3536212 -0.43141347 -0.2932931 0.42110115 0.21448196 0.23739481
0.04461626 -0.25554234 0.099855594 -0.41671002 -0.36128312 -0.257765 0.31546897 0.29316062
-0.21569426 -0.011982602 0.31975472 0.49100286 0.204194 0.05924765 0.34301394 -0.3007073
0.066379875 -0.37489232 -0.3689744 -0.23533055 0.23810966 0.18549414 -0.28097075 0.15412952
0.24902996 -0.05297234 0.026348554 0.11888911 0.30857 0.4799198 -0.38047656 -0.18107384
0.19358636 0.40938032 0.43803972 0.44882113 0.10381574 -0.43773395 0.040917564 -0.30636355
-0.4597714 0.43218097 0.38648474 -0.498656 0.09358603 -0.084230006 -0.082280576 -0.22887844
0.2089742 -0.31124672 0.20054914 0.25285405 0.35871676 0.1825768 -0.4961113 -0.3177496
0.23156278 0.12052029 -0.39932597 -0.28852716 0.47037464 0.33690894 -0.21801257 -0.12584239
-0.49764615 0.012813642 -0.36636245 -0.36433727 -0.030004244 0.074132524 -0.1939966 0.28986397
-0.32240105 0.45728084 0.33458278 -0.41922447 -0.118489005 0.0074145426 0.08101886 0.11603202
0.19653745 0.029948672 -0.24371825 0.22956172 -0.47701147 -0.29917112 -0.12519112 -0.24086155
-0.17196596 -0.4089485 -0.10167702 0.10394772 -0.33384976 -0.020039093 0.35004085 -0.047763746
0.013896108 -0.04313445 0.101190686 0.31791973 0.45860955 0.3233228 0.49228472 -0.031605013
-0.4261862 -0.25450242 0.36361593 0.0053200554 -0.25756258 -0.36763433 -0.48492187 -0.39562622
-0.10293843 0.27354598 0.2608843 -0.47848022 0.3103388 -0.3897025 -0.106430925 -0.20118366
-0.07818264 -0.11094055 -0.46033654 -0.4274321 -0.07823974 0.0064660907 -0.22713745 0.1883496
-0.4797348 -0.026709234 0.41171044 -0.19897696 0.45300868 0.18000534 -0.44370687 0.30974132
-0.068536915 -0.19542147 0.41297328 -0.4089218 0.053763222 -0.097718805 0.36456642 0.12736468
0.26441115 0.16974802 -0.09283643 -0.109822065 -0.41537276 0.2854708 0.39024833 0.35122275
-0.35268915 0.022299945 -0.35246706 -0.2752421 -0.27949366 0.15901355 -0.28609747 -0.010908604
0.048940234 0.29308504 -0.35274595 -0.36623374 -0.2752904 0.33278567 -0.1794653 0.42985475
0.18080378 0.06331301 -0.003722012 -0.09884077 0.057919793 -0.13096432 -0.006983847 0.049596928
-0.38747376 -0.25432977 0.41136456 -0.41283298 0.0004489594 0.45895016 0.20932424 0.028112119
-0.41131675 0.22912559 -0.3293802 -0.1424509 -0.19159059 -0.06770001 -0.00468012 0.4096726
0.07362141 0.44088355 0.30770245 -0.32489863 0.23458306 -0.36320174 -0.20190725 0.1356337
0.16694252 0.37326625 -0.15911147 0.0008004308 0.2873052 -0.5136848 0.339631 -0.39682338
0.0045486405 -0.082969375 -0.25810525 0.071771145 0.43412787 -0.15018578 -0.27762973 -0.18404283

fc1.bias f4 [128]
00000000: 1464 eabd 0b61 44be 0c69 043e b798 1c3e
00000010: f3ea 75be 1a0f 663d 4b51 9a3e e18d d4bc
00000020: eac5 1c3e e058 04be 4830 363e e671 b9be
00000030: d6a3 99be 1d88 74be b9d6 ed3e 2ece 0fbe
00000040: cb5c 8cbd b10e 7bbe 81d0 013f 28b4 f73e
00000050: 8a20 c1be 1088 cfbe 6236 b9be f596 d1bb
00000060: e5c5 ddbd 4e90 a7be 7cec 4cbe d45d cb3d
00000070: d4ff 8ebe 111b da3d 39ea eebd 33db 7abe
00000080: 0039 973d d602 d33e 8813 adbe 3af2 e53c
00000090: af16 25be f854 f73e cccb f4be 4636 f6be
000000a0: 85c4 fb3e f8f7 a1be d77e d53d e8c7 4dbd
000000b0: c536 b5bd 1f3e d7bd 4f55 a03e 9f00 1f3c
000000c0: ce3e f9be 3e34 9dbe 18d1 1abe 203b 883e
000000d0: 8eaa a5be fee1 f23e 1478 c9bd 3e9a 89bd
000000e0: 842a d53e 8b7b 4f3e 7172 dd3e 41a0 983e
000000f0: 3f35 1dbe bbd2 a0be 7f47 24bd 6999 d93e
00000100: 1cdb 3bbe 1e68 edbe 4089 443e c1f5 f63e
00000110: e76b 1fbe 5af9 d3be 1035 e8be 148f 0a3e
00000120: 6e8c 02bd 4589 84be 9b20 ca3d fc29 3e3e
00000130: da13 cd3e 8ef8 c63e 16ea 94bd 7ebb e1be
00000140: d853 e7be 5c81 ed3e f4a4 643e 825f 723e
00000150: ce94 dbbe 7f7c eb3e 2240 e73e 2980 ec3e
00000160: 30f5 d7be 3e2a 3ebe f4b5 a9be de10 f53e
00000170: f92f 63be 4604 7abe 6927 8c3e 5bc5 6abe
00000180: 873e 63be c530 2cbd b968 85bd 226b c7be
00000190: ba44 cf3e 0de4 75be 3a26 3c3e 1e1a df3e
000001a0: 0a58 593e b61f a13d d507 d63e 73e9 8f3d
000001b0: 388b 6cbe 95e7 ed3e 3ecd 053e 38c6 f9be
000001c0: 0ced 1ebe 9900 b2be 1135 e73e 8600 90bd
000001d0: b259 e9be 6a02 d2bc 22a9 9c3e 9e3c 013e
000001e0: ec37 303e ab62 9e3d 5bee 3a3e 1ba1 ffbd
000001f0: a36b 3cbe 0e49 efbe c970 c1be cf9f 5d3e
-0.1144487 -0.19177644 0.12930697 0.15292631 -0.24015407 0.056166746 0.30140147 -0.02594656
0.15309873 -0.12924528 0.17791855 -0.3621971 -0.3000781 -0.23880048 0.46452883 -0.14043495
-0.06853636 -0.24517323 0.50708777 0.48379636 -0.37720138 -0.40533495 -0.36174303 -0.0063961693
-0.10828761 -0.32727283 -0.20012087 0.09930006 -0.27929556 0.10649694 -0.11665768 -0.2449768
0.07383919 0.412131 -0.33803964 0.028069604 -0.16121934 0.48307014 -0.47811735 -0.48088282
0.4917337 -0.31634498 0.104245834 -0.050239474 -0.08848337 -0.105098955 0.31315085 0.009704738
-0.4868073 -0.3070392 -0.15118825 0.2660761 -0.32356685 0.47438043 -0.09837356 -0.067188725
0.41634 0.20261972 0.43251374 0.29809764 -0.15352343 -0.31410775 -0.040107246 0.42499855
-0.18345302 -0.46368498 0.19192982 0.4823437 -0.15568505 -0.41401178 -0.45352983 0.13531142
-0.031872205 -0.25885978 0.098695 0.18570703 0.40054208 0.38861507 -0.07271211 -0.44088358
-0.45181155 0.46387756 0.2232855 0.23669246 -0.42886966 0.4599342 0.45166117 0.46191528
-0.4217925 -0.18570802 -0.33146632 0.4786443 -0.22186269 -0.24415693 0.27373818 -0.22926848
-0.22191821 -0.042038698 -0.06514115 -0.38948923 0.40482122 -0.24012776 0.18373957 0.43574613
0.2122499 0.078673765 0.4180285 0.07026949 -0.23099983 0.46465746 0.13066575 -0.4878404
-0.15520114 -0.3476608 0.45157674 -0.0703135 -0.45576245 -0.025635917 0.30597788 0.1262078
0.17208833 0.07733663 0.18254988 -0.124819 -0.18400435 -0.46735424 -0.3778136 0.21642993

bn1.weight f4 [128]
00000000: 109c 7e3f 8dad 7e3f 0959 803f 1dee 823f
00000010: dc25 813f f576 7b3f 87a6 803f 4af4 803f
00000020: dc6f 7f3f 1924 733f 0683 7e3f 0000 803f
00000030: 1685 7e3f 1192 7c3f 16ce 7e3f f311 7f3f
00000040: a301 803f 7ab0 7b3f c574 813f 7579 813f
00000050: 7538 7e3f 0000 803f f297 813f 0d39 803f
00000060: fdd1 7f3f 0000 803f e088 7e3f 0634 7e3f
00000070: b8b7 803f 30c8 7c3f c2aa 7f3f 0f43 7f3f
00000080: cc50 7a3f c58c 823f 0000 803f 0139 7f3f
00000090: e7f2 7a3f c7f5 7d3f ab8f 7c3f 2d6f 7f3f
000000a0: 6f9c 7f3f 0000 803f c383 813f 3b5e 7d3f
000000b0: f2be 803f 22f2 7d3f 381a 7f3f c477 803f
000000c0: 0000 803f 3d5d 7d3f 489e 7e3f 1a01 823f
000000d0: 0000 803f f196 843f fbca 7e3f 8d0b 803f
000000e0: f0c2 803f 649d 813f ebd9 7f3f 918d 803f
000000f0: 90af 7e3f 8ace 7f3f c1cb 7b3f e8a9 813f
00000100: c572 7e3f 0000 803f 6c89 7f3f e328 813f
00000110: eda5 7e3f 0000 803f 0000 803f 7eee 7f3f
00000120: 5254 803f 825c 7f3f 1eae 803f b5c4 813f
00000130: 184e 7e3f 1d7e 7f3f d86a 7f3f 0000 803f
00000140: 0000 803f c09b 803f 8b40 803f 4579 803f
00000150: 52b9 7d3f 48a9 813f 1425 7d3f ce8b 7f3f
00000160: 0000 803f e2e1 7e3f 6f2c 803f 49d2 7d3f
00000170: e0a4 803f 4261 7c3f d90f 803f 7258 7e3f
00000180: 7cce 823f b547 7d3f b73d 7d3f 0000 803f
00000190: 26ef 803f 3f14 813f e235 813f 9cbc 813f
000001a0: e916 803f 2432 7d3f 5a84 783f 1ac5 7c3f
000001b0: 710e 7e3f afca 7e3f 9e21 813f 0000 803f
000001c0: af2e 813f d37d 7e3f a450 813f 16b9 783f
000001d0: 0000 803f aa2b 803f b495 803f 358a 803f
000001e0: e387 793f 56a2 7f3f 148b 7f3f cf73 7d3f
000001f0: c9da 7d3f 0000 803f 3124 7d3f 161b 803f
0.9945688 0.9948357 1.0027171 1.0228916 1.0089679 0.9822839 1.005082 1.0074551
0.9978006 0.94976956 0.99418676 1.0 0.99421823 0.9866038 0.9953321 0.99636763
1.00005 0.98316157 1.011376 1.0115191 0.99304897 1.0 1.0124495 1.001741
0.9992979 1.0 0.99427605 0.9929813 1.0056067 0.9874296 0.9986993 0.997117
0.97779536 1.019921 1.0 0.99696356 0.9802689 0.9920315 0.9865672 0.99779016
0.99848074 1.0 1.0118335 0.9897191 1.0058272 0.9919759 0.9964938 1.003655
1.0 0.98970395 0.9946027 1.0156586 1.0 1.0358564 0.99528474 1.0003525
1.005949 1.0126157 0.9994189 1.0043203 0.9948664 0.9992453 0.9835778 1.0129976
0.99393874 1.0 0.99819064 1.0090603 0.9947193 1.0 1.0 0.99973285
1.0025733 0.9975053 1.0053136 1.0138155 0.9933791 0.9980181 0.99772406 1.0
1.0 1.0047531 1.0019697 1.0037009 0.991109 1.0129786 0.988847 0.998227
1.0 0.9956342 1.001356 0.99148995 1.0050316 0.98585904 1.0004836 0.99353707
1.0219264 0.9893754 0.98922294 1.0 1.0072982 1.0084304 1.0094569 1.0135684
1.0006992 0.98904634 0.9707695 0.98738253 0.99240786 0.9952802 1.0088384 1.0
1.0092372 0.9941074 1.0102735 0.9715742 1.0 1.0013325 1.0045686 1.0042177
0.9747297 0.9985708 0.9982159 0.99004835 0.99161965 1.0 0.9888335 1.0008266

bn1.bias f4 [128]
00000000: 449a 8bbc ecab b3bc 9e7e 993c 3187 87bc
00000010: 7e74 acba 689e 993b c4b2 b2bb 4c92 7dbc
00000020: 6614 243d 083c 01bc 57dd dd3c 3923 c63c
00000030: c62c fabb c5bb b23c c9c7 72bb 6ac0 11bd
00000040: 4d35 b4bc 45f8 58bb 4aa1 f33b 98f2 dc39
00000050: 78a3 1fbb d821 1cbc 031f 833a 7310 663c
00000060: 7971 a53b 078b 81bc b738 cc3b 50a2 fcbc
00000070: 54f9 d4bc 8e49 84bc eee4 e63b 952b 54bc
00000080: dd6f c7bb 6810 a8bc 0677 0abc 8b46 143a
00000090: 9185 a53c da42 d43b a856 ef3b f283 433c
000000a0: 8265 5bbc d43c 383d 21f5 7bbc c6aa abbc
000000b0: decb babb 2bb6 dfbc aeb9 7abb 2172 9c3b
000000c0: 84c8 373c abbd 04bc 11d9 50ba 570c 04bb
000000d0: 06e1 173d e463 e4ba 39a6 af3c 2766 4dbc
000000e0: 6484 5d3c 9845 14bd 4033 6b3b 2437 0d3c
000000f0: 05ed a3bb 97eb 92bb b8bc 9d3c 6227 653c
00000100: 90fe 213c c301 02bc 073b d53c 32fb a2bb
00000110: ba04 9c3c a5dd 493c 8297 8cbc cd71 003d
00000120: c650 d23b 637b 4cbc 5a74 89bc d212 b43c
00000130: 4f6b 5abc 5cd4 6cbc d608 b23b 9f3a 1f3d
00000140: 07f6 e03c f849 983c 87b5 9fbc 61e7 c63c
00000150: 3244 c53b a5b4 113c dcb0 1f3c 3633 fcbb
00000160: 8605 053d 997a 85bb 1451 a3bb ecb5 7fbc
00000170: 17a0 7fbc d546 723c 01c9 d23b 920a 9bbc
00000180: 7d11 863c be19 7d3b cc37 70bb 1ccf cc3c
00000190: e3e0 d53c be2d 82bb 38f8 033d 273f dabb
000001a0: 08a4 a9bb d547 86bb f87f 5c3b 9d07 76bb
000001b0: b270 d13b ff51 9a39 b73e b0bc 05b5 eb3b
000001c0: 014e 25bb 7824 a73c d2ca a8bc 54a1 83bb
000001d0: 36b3 0e3d fca9 92ba 7bec 3c3c adaf f3bc
000001e0: e346 173c 7739 523a 15b4 4c3b 05e1 003c
000001f0: 89bf 03bb 2b35 2a3d fa06 4b3c 8b85 6bbb
-0.017041333 -0.021932565 0.018737134 -0.016543956 -0.0013157276 0.004688073 -0.0054534394 -0.015476774
0.040058516 -0.007887848 0.027083082 0.024186717 -0.007634732 0.021818051 -0.003704535 -0.03558389
-0.021998072 -0.0033106965 0.0074349986 0.00042142416 -0.002435891 -0.009529553 0.0010003749 0.014042008
0.0050489274 -0.015813364 0.006232347 -0.030839115 -0.025997795 -0.016148355 0.0070463335 -0.012949844
-0.006086333 -0.020515636 -0.008451229 0.00056562637 0.020205291 0.006477696 0.0073040314 0.011933314
-0.013390901 0.044979885 -0.0153782675 -0.020955455 -0.0057005724 -0.027308544 -0.0038257646 0.0047743474
0.01121724 -0.008101861 -0.0007966916 -0.0020148957 0.037079833 -0.0017424789 0.021441566 -0.012536562
0.013520334 -0.036199182 0.0035888702 0.008619104 -0.00500262 -0.004483651 0.019255027 0.01398644
0.009887353 -0.00793499 0.026029123 -0.0049737925 0.019045223 0.012320911 -0.017162088 0.03135853
0.0064183204 -0.01248059 -0.016779114 0.02198163 -0.013331248 -0.014454927 0.005433182 0.038874265
0.027461065 0.018589959 -0.019495739 0.024280252 0.0060200924 0.008893167 0.009746756 -0.0076965345
0.03247597 -0.0040734527 -0.0049840305 -0.015607338 -0.015602133 0.0147873955 0.006432653 -0.018925939
0.016365761 0.003862008 -0.0036654351 0.025001101 0.02610821 -0.003972738 0.03221914 -0.0066603604
-0.0051770248 -0.0040979185 0.0033645611 -0.003754116 0.006391608 0.0002943426 -0.02151428 0.00719321
-0.0025223496 0.020403132 -0.020604525 -0.0040170345 0.034838878 -0.0011189575 0.011530991 -0.029746855
0.009233209 0.0008019427 0.0031235267 0.007866149 -0.0020103178 0.04155461 0.0123918 -0.0035937752

bn1.running_mean f4 [128]
00000000: ba0d 653b 0400 0000 5694 403d 8e43 cb3c
00000010: d351 933a 313f c03c 6231 ec3e 7cc0 873b
00000020: ce26 3d3d 5cb7 1e35 90c3 9e3e 0000 0000
00000030: 0400 0000 0b6a c03d 04bd d33e 5e6e 923a
00000040: 3f3b 963d 5e9a bd3a bd12 323f fc09 293f
00000050: 0400 0000 0000 0000 1c97 bb3c a706 503d
00000060: ba97 2f3b 0000 0000 9afc 763b b431 253d
00000070: 0400 0000 736f bb3d 4661 483a 0400 0000
00000080: d160 623d 4d51 e03e 0000 0000 248b c63e
00000090: 4647 e53c 846c 7a3e 0400 0000 0400 0000
000000a0: 6ea2 883e 0000 0000 cf79 103e 0e85 443d
000000b0: a47e 2e3e 88e8 1e3e 3563 ae3e ff36 453d
000000c0: 0000 0000 8d26 9a3a b308 343b 5dff 613d
000000d0: 0000 0000 3cbd 073f 13b8 bc3d 01bb 193b
000000e0: 7e91 f53d ff41 093e ed27 ff3e 3349 cb3e
000000f0: 0862 9239 9fe2 283e 1c63 133b 5c73 053f
00000100: ef7f 3e3b 0000 0000 5de3 773e 03e5 003f
00000110: 2f7c 463b 0000 0000 0000 0000 33ef 3c3d
00000120: 34dc 623b 7fdc f70c b977 e33e 5d41 2f3d
00000130: 5f0d 153f 0574 993e 0ec7 173e 0000 0000
00000140: 0000 0000 802d 243f fbc3 453e e480 5e3e
00000150: 751e e13c e20a 243f 25e3 923e 3b32 543e
00000160: 0000 0000 8e82 493b db46 8c3a 8660 2f3f
00000170: 568d 053b 005a 613b 932b 053f 5651 fb3d
00000180: 6f55 5c3b 94b1 d739 1089 7b3b 0000 0000
00000190: dd88 d63e b756 633e 628b 1c3d 3dbb e33e
000001a0: 6476 4f3e 770b 3b3e 7c6d 1a3f e536 2b3c
000001b0: 1b7d 010d 81ab 3a3f d9a0 003d 0000 0000
000001c0: 3f33 473e 0400 0000 32f0 5f3e 706f 603a
000001d0: 0000 0000 1f1a 0c3d 9dd2 083f 3eb7 813c
000001e0: 4836 663d d95c 0b3e 78b2 2a3e 92b7 943e
000001f0: f534 8c3d 0000 0000 e55c 2b3d 1208 8e3d
0.0034950809 6e-45 0.047016464 0.024812486 0.0011239595 0.023467632 0.46131426 0.004142819
0.046179585 5.912641e-07 0.31008577 0.0 6e-45 0.09395226 0.41355145 0.0011171808
0.07335519 0.0014465561 0.6955984 0.6603086 6e-45 0.0 0.022899203 0.050787594
0.0026793317 0.0 0.0037687183 0.040330604 6e-45 0.091521166 0.00076438894 6e-45
0.055268113 0.43812028 0.0 0.3877803 0.027988087 0.24455458 6e-45 6e-45
0.26686424 0.0 0.14108966 0.047978453 0.17040497 0.15518391 0.34060064 0.04814815
0.0 0.0011760757 0.0027471005 0.055175174 0.0 0.53023124 0.09214797 0.002345741
0.11990641 0.13404082 0.49835148 0.39704284 0.0002792033 0.16492699 0.0022489494 0.5212915
0.0029067954 0.0 0.24207826 0.50349444 0.0030286422 0.0 0.0 0.046126556
0.0034616115 3.8189082e-31 0.4442728 0.042786945 0.5822353 0.29971328 0.14822027 0.0
0.0 0.6413193 0.19313042 0.21728855 0.027480343 0.64079106 0.28688923 0.20722286
0.0 0.0030747983 0.0010702269 0.6850666 0.0020378432 0.003438592 0.52019614 0.12271373
0.0033620258 0.00041140302 0.0038381256 0.0 0.41901293 0.22201048 0.038218863 0.4447879
0.20260006 0.18266092 0.6032331 0.0104501 3.9901784e-31 0.72917944 0.031403396 0.0
0.19453143 6e-45 0.21868971 0.00085615274 0.0 0.0342046 0.5344637 0.015834447
0.05620411 0.13609637 0.16669643 0.29046303 0.06846038 0.0 0.041836638 0.06935133

bn1.running_var f4 [128]
00000000: 1919 8d3a 0400 0000 1d4f 3d3b 1e55 9c3b
00000010: d376 e938 e70f 723a 8bce 3f3d 32cc 4d3a
00000020: 1e87 bc3b f8df 9530 72e5 c23b 0400 0000
00000030: 0400 0000 f671 193c 145d e03c 78a7 e638
00000040: 4420 a03a 875c 4139 6513 4b3d 13cc b63b
00000050: 0400 0000 0400 0000 6251 313a 59e0 8d3b
00000060: 16d7 253a 0400 0000 860e a43a 811d 153b
00000070: 0400 0000 2b6d 9b3a d5f6 5738 0400 0000
00000080: 1109 0d3b fdad ca3c 0400 0000 b278 943d
00000090: 3fbc 683a 3f56 773d 0400 0000 0400 0000
000000a0: ece2 6e3d 0400 0000 385c 913c 3d1a 603b
000000b0: 2d2a fc3c 1217 d13c ccce f73a 0a30 203b
000000c0: 0400 0000 fc9e ff38 c655 2e3a 331f 0a3c
000000d0: 0400 0000 a873 cd39 b834 143c 2976 8f38
000000e0: 4fca be3c 6660 5b3a 7a58 a43c d303 d43b
000000f0: ac83 e636 cdb2 ee3c 09af e939 9a00 583c
00000100: 8531 433a 0400 0000 af1d 643b 6146 423c
00000110: 99e6 533a 0400 0000 0400 0000 10bb 493b
00000120: a968 8a3a 2c55 770b ff9d f43c 7578 aa3b
00000130: 34f3 073c b633 163d e798 493c 0400 0000
00000140: 0400 0000 161a d53c dcf1 063d f697 c63c
00000150: 5a16 6c3a 5b5d 273d 3ef3 023c e1b2 a73c
00000160: 0400 0000 2269 5a3a 76ae d338 11dc 4b3d
00000170: e3dd bf39 ed92 883a a5e7 273d 4688 7e3c
00000180: f01a 9638 aeeb 3237 b521 aa3a 0400 0000
00000190: fb5d 353c 738d 563d def1 b93b 2fb9 c93c
000001a0: cca1 1e3a e08a f63a 8873 8b3b 9e38 4c3b
000001b0: 309e 870b 7782 f13c 90e4 4e3b 0400 0000
000001c0: 523b 243d 0400 0000 7638 3d3d 06a9 0c38
000001d0: 0400 0000 7ebd 973a efa8 963c 6e8a b13b
000001e0: 77a0 ef3b 8e64 903c b72a 2f3b a932 7c3d
000001f0: 5383 a43b 0400 0000 6217 083b f027 d33b
0.0010764926 6e-45 0.0028886267 0.004770889 0.000111324385 0.0009233937 0.046827834 0.0007850557
0.005753412 1.0904833e-09 0.005947762 6e-45 6e-45 0.009365549 0.027388133 0.00010998448
0.0012216647 0.00018440383 0.049579043 0.0055785268 6e-45 6e-45 0.0006764141 0.004329723
0.0006326301 6e-45 0.0012516535 0.0022753181 6e-45 0.0011858096 5.1489875e-05 6e-45
0.0021520297 0.024741167 6e-45 0.07249583 0.00088781485 0.060384985 6e-45 6e-45
0.05832188 6e-45 0.017744169 0.0034195327 0.03078183 0.025523696 0.0018906235 0.0024442696
6e-45 0.00012188961 0.00066503545 0.00843029 6e-45 0.00039186818 0.009045772 6.8407804e-05
0.023289828 0.00083685515 0.02006172 0.0064701824 6.869863e-06 0.029137993 0.00044571634 0.013183737
0.00074460387 6e-45 0.0034807732 0.0118576 0.0008083373 6e-45 6e-45 0.0030781664
0.0010559756 4.7634546e-32 0.029860495 0.005202348 0.00829773 0.03667041 0.012304521 6e-45
6e-45 0.026013415 0.0329455 0.024242382 0.0009006016 0.040860515 0.007992564 0.020471038
6e-45 0.0008331706 0.0001009376 0.04977042 0.00036595677 0.0010419764 0.040992398 0.01553542
7.157575e-05 1.06645e-05 0.0012980016 6e-45 0.01106977 0.05238099 0.005674585 0.024624435
0.00060513313 0.0018809699 0.0042557158 0.0031161676 5.223812e-32 0.029481156 0.003156934 6e-45
0.040095635 6e-45 0.046196423 3.3536016e-05 6e-45 0.0011576859 0.0183911 0.0054181134
0.00731283 0.017626073 0.002672834 0.06157175 0.005020538 6e-45 0.002076589 0.00644397

fc2.weight f4 [64, 128]
00000000: f435 27bd ed72 8a3a c4e3 b53c 09be b538
00000010: 1a17 3cbd 87a2 973d d66a 61bd 49b0 9f3d
00000020: 56b5 a4bd b6a6 52bd 91bc 763d 5d29 f9bc
00000030: 489f 813d b4e7 82bd e9d6 91bd c907 06bd
00000040: 7f85 df3c ff49 b83d ff7c 32bd 7dab 513d
00000050: d7d4 b6bc c3c6 a6bc 0e70 a63d 89b8 8fbd
00000060: 23f6 ab3c dacc aa3d a537 96ba 04a4 7c3d
00000070: 6c00 06bd 5aa8 873d 4dc1 95bd 8b26 77bc
00000080: 54b5 61bc 91b6 c03c 6d5a 953c 8e2b 873d
00000090: 072f 67bc 9653 23bb 4a41 723d 52d1 8cbc
000000a0: 9b61 a13d e8cc 60bd 4cd3 7cbc 27f0 39bb
000000b0: 5d8f 0c3d 3acf 683d 2d5e 18bc c957 a1bd
000000c0: fcc0 573d b72d 0c3d 2c72 433d 448d 89bd
000000d0: 50d8 5a3d d2bc b23d 1fb0 7d3a 176d b9bd
000000e0: d902 593d cdad 64bd d6b2 923c 3821 843c
000000f0: 3e0e 02bd 2be0 ba3c 0782 8cbd 0e65 cd3c
00000100: 1a82 41bd 4a03 3bbc c80c 813c c4fe a53d
00000110: 68f7 f3bc ca2a 693d 505a 8fbc 1dde 54bd
00000120: ba42 88bd 162d 9bbd 9a91 c03d f7ba 09bd
00000130: bf29 513d 55f9 e23c d67e 7e3d 427a a23d
00000140: 52ff a93d f069 87bd 8304 05bc 3909 3fbd
00000150: 2e60 43bd c0ba 9d3c 2252 a53d 543f 9bbd
00000160: 18c7 6d3d 2857 19bd 31ae b7bb e1a9 8c3d
00000170: 5356 21bc 6682 963c 5167 80bd af1f 9b3d
00000180: 9425 35bc faef c0bd 3e15 203d e3e7 74bd
00000190: bf4b 84bd f710 253b eede 643d 7b3c a0bc
000001a0: 062b 273d 4e46 c43d 806e 663d d2be 4fbd
000001b0: 08a9 5fbc c793 c4bc aee2 8ebd 9f14 2cbc
000001c0: bef5 813d 063f 883d d170 163c 7b0e e83b
000001d0: 35ac 0fbd b0d1 783d 5d03 0bbd 2178 87bd
000001e0: f403 a73b a695 4f3d 46e7 9cbd b6ab a03d
000001f0: 479e ce3c 3fcd 1fbd f96f a3bc 5d39 913d
00000200: ce91 97bd df96 69bd fa49 f53c 65ae afbd
00000210: cb10 3e3d 3897 6d3d 9714 483d 884c 7ebd
00000220: 06e4 9c3d 601b 74bd d187 ab3d aec0 36bd
00000230: 54d4 a7bd a96e 463d c20d 4b3c bc2c 753b
00000240: 807c 39bd 7245 1abd 431e d6bc c17a bbbd
00000250: 4c2a cbbc 4303 adbc f03f 97bc ee98 0f3d
00000260: 8f8e 993d 575b 95bc b4f7 05bd 8bc5 0ebd
00000270: 0609 eebd 1f92 89bd 712d 6fbc a300 2cbd
00000280: 025a 023d 55a8 38bd 9034 303d 4e30 82bd
00000290: bda5 03bc f385 a33d e3cb 653d 3cbb 5cbc
000002a0: 420a 8d3c be1d 523d b664 47bd 4d17 b6bc
000002b0: 328c 933c 75df 86bd 640b c43c 4444 163d
000002c0: 2fe4 04bc f67c 943d f8c7 38bc 77e7 2d3d
000002d0: 88a3 fe3d 4160 00bd 1de7 2d3d 0e36 883c
000002e0: 01bd 62bc 11f0 a7bc 5d9b 91bb 6220 f1bc
000002f0: db49 9f3c a9a3 42bb 8d26 653d 5bbd 3ebc
00000300: 3c0d 003c 5948 8ebd 91d0 88bd 7da6 2f3d
00000310: 245f 063c 6bcf 8cbc 506a 87bd 8e74 f13c
00000320: 2f42 86bc 13a3 a93b 6e37 8d3b 1bc7 053d
00000330: bfae 223d a41b 89bc 849e 123d 1856 ae3d
00000340: 07cd 0c3d 27c5 973c 03ab eb3b 0f60 903d
00000350: 2322 22bd 5619 4ebd 0677 233d 31b0 9dbd
00000360: b335 303d 5d67 29bd b640 6b3d 9ad0 adbd
00000370: c74a 573d fefd b13d 0704 9e3c cc11 16bc
00000380: e05d dd3d 0f5d 6fbd 5829 0dbc c962 1c3b
00000390: 632c 09bb 61c3 793c 5af2 753c 091e 22bc
000003a0: 5465 bfbd faac f33a 35f2 ccbc 3b31 183c
000003b0: a676 1a3d a0ad a83d 75e7 87bd d764 363b
000003c0: d8fa 20bd 841e 5bbd 966e 7abd 6f86 643d
000003d0: 991e bb3d b302 323d 32dd 443d 8d3d 9bbd
000003e0: 96aa 363b eedd a13d 3a2f 3abd 8563 973d
000003f0: 6b87 a53c 166e c13d e16b 23bd 69c8 293d
-0.040822938 0.0010562815 0.022203334 8.6661494e-05 -0.04592047 0.074040465 -0.055033527 0.077972956
-0.080423996 -0.05142852 0.060238425 -0.030415231 0.063292086 -0.0639185 -0.07121069 -0.03272227
0.027285336 0.08998489 -0.043576237 0.051188935 -0.022318287 -0.020358449 0.081268415 -0.07017619
0.02099139 0.083398536 -0.0011460675 0.061679855 -0.032715246 0.066239074 -0.0731226 -0.015084873
-0.013776142 0.023524554 0.018231595 0.06600104 -0.014110333 -0.0024921647 0.059144296 -0.017189655
0.07879945 -0.054882914 -0.0154312365 -0.0028371902 0.03431641 0.05683825 -0.009299797 -0.07878072
0.05267428 0.034223285 0.047716305 -0.067163974 0.053428948 0.08727421 0.0009677428 -0.0905401
0.05298123 -0.05582981 0.017907541 0.016129121 -0.031751864 0.02281197 -0.06860738 0.0250726
-0.047243215 -0.011414358 0.015753165 0.08105233 -0.029781058 0.056925572 -0.017499119 -0.051969636
-0.06653352 -0.07576959 0.09402771 -0.03362557 0.051065203 0.027706781 0.06213268 0.07933475
0.083006516 -0.06612003 -0.008118751 -0.046639655 -0.047699146 0.019254088 0.08072306 -0.07580438
0.0580512 -0.037436634 -0.005605482 0.06868339 -0.009847241 0.018372726 -0.06269706 0.075744025
-0.011056323 -0.09420772 0.039082758 -0.059791457 -0.0645976 0.0025187114 0.055876665 -0.01956009
0.040812515 0.09583722 0.056257725 -0.05071909 -0.01365114 -0.023996247 -0.069768295 -0.010502963
0.063457 0.06652646 0.009182171 0.0070818043 -0.03507634 0.06074685 -0.033938754 -0.0661471
0.005096907 0.050679825 -0.076612994 0.07845251 0.025221957 -0.039014097 -0.019950854 0.07091019
-0.07400857 -0.057028648 0.029942501 -0.08578185 0.046402734 0.05800554 0.04884776 -0.062084705
0.076606795 -0.05959642 0.08375514 -0.044617347 -0.08194795 0.048445377 0.012393417 0.0037410697
-0.045284748 -0.037663884 -0.026137477 -0.09154273 -0.024800442 -0.02111972 -0.018463105 0.035057954
0.07497894 -0.01823203 -0.03270693 -0.03485636 -0.11622815 -0.067173235 -0.014598236 -0.041992795
0.03182412 -0.04508241 0.043018878 -0.0635687 -0.008035121 0.07984533 0.056102645 -0.0134723745
0.017216805 0.051297896 -0.04868003 -0.022227908 0.018011186 -0.0658559 0.023931213 0.036686197
-0.008111044 0.07250397 -0.011278145 0.04245707 0.12433535 -0.031341795 0.042456735 0.016627338
-0.013839007 -0.020500215 -0.0044435696 -0.029434387 0.019444397 -0.00296996 0.055944968 -0.011641826
0.007815655 -0.06947393 -0.06680406 0.042883385 0.008201394 -0.017188748 -0.066120744 0.029474523
-0.01638898 0.0051769107 0.0043095862 0.032660585 0.039717432 -0.016736813 0.035795704 0.08512515
0.034375217 0.018526627 0.007192017 0.07049572 -0.039583337 -0.05031713 0.03990843 -0.076996215
0.04301996 -0.04135834 0.05743476 -0.08487053 0.052561548 0.08691023 0.01928903 -0.009159517
0.10808921 -0.058438357 -0.008615814 0.0023862591 -0.0020930998 0.015244336 0.015011394 -0.009894856
-0.09345499 0.001859098 -0.025017837 0.009289081 0.03771081 0.08236241 -0.06635944 0.0027831101
-0.039301723 -0.0534959 -0.06114062 0.05579227 0.091366954 0.043459605 0.04806251 -0.07580099
0.0027872673 0.07903658 -0.045455195 0.07392029 0.020206174 0.09444825 -0.039897803 0.04145089

fc2.bias f4 [64]
00000000: 5a16 843c 8391 d73d bbe3 533d 3a93 e3bc
00000010: 5552 dbbc 7ce8 923d 4501 5bbd da63 183b
00000020: f47b d13c 35af 06bd 315d 0c3d 9e1c e23b
00000030: b13c a23d 54c6 5cbd b094 983d e234 8a3d
00000040: 10a2 62bd 9ca0 853c afac a3bb 729d ad3d
00000050: 81d9 703d e615 0bbd fc19 10bd eaac 41bd
00000060: 829e 8e3d 4f88 89bd 52d9 37bd 5f90 a53d
00000070: 0ef7 803d 2f96 913d 7e27 913d 13c2 95bd
00000080: fed1 19bc ee3b cb3b 25d1 d03d 5675 74bc
00000090: 6655 ea39 9ba5 963d df1e 1a3d 5c9b 53bd
000000a0: c93a 8ebd 5c2e abbc 35de 853d 306d e23d
000000b0: 1eaa 493d de15 813d bc68 153d b409 503b
000000c0: e64b 79bc 6f98 ad3d 4c8b 9d3c 0bfc 413b
000000d0: 2827 703d f0d5 853d 34b3 b53c fd7f 3e3a
000000e0: 6458 15bd 69a6 3cbd 0b8e d3bc 2bd6 bf3d
000000f0: cb60 783d bf23 22bd 36f4 7e3d 3322 52bc
0.01612394 0.10525801 0.051730853 -0.027780164 -0.026772657 0.07173249 -0.053468008 0.0023252876
0.0255718 -0.032881934 0.03426856 0.006900384 0.07921732 -0.053900078 0.07450235 0.06748368
-0.055330336 0.016311936 -0.0049949507 0.08477296 0.058801178 -0.03395643 -0.03518103 -0.047284044
0.06963827 -0.06715452 -0.044884987 0.08084177 0.06297122 0.07108723 0.07087611 -0.07312407
-0.009388445 0.0062022125 0.10196141 -0.014920553 0.00044695585 0.073558055 0.037627097 -0.051661834
-0.06944806 -0.02089613 0.06536523 0.11055982 0.049234502 0.06302999 0.036476836 0.0031744065
-0.0152158495 0.0847634 0.019231461 0.0029599692 0.058631092 0.06534946 0.022180177 0.00072669965
-0.03646125 -0.04605714 -0.025824567 0.09367021 0.060639184 -0.03958487 0.062244616 -0.012825537

bn2.weight f4 [64]
00000000: 4f49 803f 3bef 753f 9acb 813f 4a5d 803f
00000010: 5508 763f 55a8 793f c6ae 7f3f ef0d 793f
00000020: 7c6f 7e3f 1457 7b3f ce6f 803f 2306 7d3f
00000030: 5022 7e3f 7b8c 7c3f 6996 7a3f 0a73 7e3f
00000040: b09f 7c3f c4dc 783f d85f 803f 7518 803f
00000050: 4733 7f3f 1057 7c3f b986 7e3f ce71 7f3f
00000060: cfe3 7d3f c4b9 7c3f 1248 803f 4b80 803f
00000070: 4bf7 7e3f e80f 7e3f 0dce 843f 5c13 7d3f
00000080: 24d2 7d3f dbb3 823f 4fec 7b3f ae00 803f
00000090: f408 803f 2836 7e3f 1e96 7d3f 0dd7 7e3f
000000a0: 272e 7e3f 5a12 7e3f 5d73 7c3f e4c3 7c3f
000000b0: f913 803f 81f5 7f3f 6efc 793f 0844 7c3f
000000c0: 8f07 783f ae35 7b3f b53d 7e3f 7fc2 813f
000000d0: e949 803f b81d 7c3f 39fd 7c3f 7b00 803f
000000e0: a328 823f 8e7e 7d3f 3234 813f 9181 803f
000000f0: fb62 7d3f c220 7a3f 93c6 813f 9c2d 7e3f
1.0022372 0.9606816 1.0140259 1.002847 0.96106464 0.9752248 0.9987606 0.97286886
0.9938886 0.98179746 1.003412 0.9883749 0.99271107 0.98651856 0.9788576 0.99394286
0.98681164 0.9721186 1.0029249 1.0007464 0.9968762 0.98570347 0.9942432 0.9978303
0.99175733 0.98720956 1.0021994 1.0039152 0.9959609 0.9924302 1.0375382 0.98857665
0.99148774 1.0211138 0.98407453 1.0000207 1.0002732 0.99301386 0.99057186 0.9954689
0.9928917 0.9924675 0.9861353 0.98736405 1.0006095 0.99983984 0.976508 0.9854131
0.96886533 0.98128784 0.9931291 1.013748 1.0022556 0.9848285 0.9882389 1.0000147
1.0168651 0.9902123 1.0094054 1.003954 0.9897916 0.97706234 1.0138725 0.99288344

bn2.bias f4 [64]
00000000: 145e 183f b618 0fbf 8633 fc3e ab8d 073f
00000010: 57bb 1e3f fe04 123f 1ad0 0cbf 0ce8 193f
00000020: 8fd6 023f aeca 033f e00f 03bf 084d 0bbf
00000030: eb56 fe3e f378 053f ba7b 0a3f 009c fdbe
00000040: e545 05bf 2cc6 12bf 1318 0bbf 35a7 1dbf
00000050: 5ecd 01bf c4fe fa3e 5e2b 01bf 46aa 0abf
00000060: 3863 0fbf 3c2f 07bf 03e1 1c3f 5850 0b3f
00000070: 61b1 113f a607 033f 5c97 283f 593a 0abf
00000080: a2de 15bf c999 263f 5aee 0ebf 1e16 003f
00000090: 464d 063f bc8f fe3e 12b5 fdbe 8f3f fd3e
000000a0: 0353 08bf 3c14 03bf 9c61 133f f7af 183f
000000b0: edbb 03bf f01d 023f d671 033f 7b9c 173f
000000c0: 2ede 1d3f c8c0 0e3f 27ca 1fbf 9769 0bbf
000000d0: cb45 07bf a262 13bf 8cd9 04bf edb7 0c3f
000000e0: 8c79 1fbf 5a06 0fbf 8465 12bf cbe8 103f
000000f0: a4ce 03bf f6d1 063f 24db 053f ed15 f83e
0.5951855 -0.5589708 0.4925806 0.52950543 0.6200461 0.5703887 -0.5500504 0.601197
0.5110864 0.5148114 -0.511961 -0.54414415 0.49675688 0.5213768 0.5409504 -0.4953308
-0.52059776 -0.57333636 -0.5433361 -0.6158326 -0.5070399 0.49022496 -0.504568 -0.54166067
-0.5601077 -0.5280645 0.6128084 0.5441947 0.56911284 0.51183546 0.65855956 -0.5399528
-0.58542836 0.6507841 -0.55832446 0.5003375 0.5246166 0.49719036 -0.49552208 0.49462554
-0.53251666 -0.5120275 0.57570815 0.596435 -0.51458627 0.5082693 0.51345575 0.59223145
0.61667144 0.5576291 -0.62417835 -0.5445799 -0.5284087 -0.57572377 -0.5189445 0.5496815
-0.6229484 -0.55869067 -0.5718615 0.56605214 -0.51487184 0.52664125 0.5228751 0.48454228

bn2.running_mean f4 [64]
00000000: fff6 f83e c03b 493e 5282 a43e b620 f53e
00000010: 7209 9a3e 7bbb 903e 18d3 643e 0ceb 6d3e
00000020: fc68 003f 3e0a 2b3e 49a5 ce3e de7d bf3e
00000030: 197c b03e 0234 ed3e adb6 2d3e c6f2 713e
00000040: 1c1c ce3e f5dd a13e 9d29 c53e 8787 f43e
00000050: 2775 b93e 6a4e 933e 4e2d c63e 029b a63e
00000060: 1249 db3e 882d 453e cb50 e13e be95 b63e
00000070: 1823 9f3e d0dd 0b3f b3d7 d13e 9f21 853e
00000080: d74a e43e 1480 d93e 5094 5e3e a22c 9e3e
00000090: eed2 003f 60c7 873e 9ba3 723e a67a 883e
000000a0: c6ab 143e b86c cf3e 0195 a83e 192a 373f
000000b0: b6d2 c63e 6fea 133f 796e b13e 68f5 d43e
000000c0: 01b4 4f3e 0e7e 023f a9fe c83e a688 cf3e
000000d0: 6d1b 083f 17ec ac3e 20e2 813e 66d1 073f
000000e0: 87ed d83e f391 fd3e 638d 133f f38f 813f
000000f0: efd6 5f3e cd28 eb3e 5fc9 f63e 3c8f 4a3e
0.48625943 0.19651699 0.32130677 0.4787652 0.3008533 0.28268036 0.22346151 0.23234195
0.50160193 0.16703126 0.40360478 0.37400717 0.3446968 0.4632874 0.16964217 0.23627767
0.4025582 0.31614652 0.3850831 0.4775965 0.36222193 0.28770763 0.3870644 0.32540137
0.42829186 0.1925565 0.44006953 0.3566112 0.31081462 0.54635334 0.40984878 0.26002213
0.44588348 0.42480528 0.21736264 0.30893427 0.50321853 0.265193 0.23695223 0.26656073
0.14518651 0.40512633 0.3292618 0.7154861 0.38832635 0.5777959 0.34654596 0.4159348
0.2028351 0.50973594 0.3925679 0.40533942 0.5316685 0.33773872 0.25367832 0.5305389
0.4236872 0.49525413 0.57637614 1.0122055 0.21859334 0.45929566 0.4820051 0.19781202

bn2.running_var f4 [64]
00000000: b669 993e a910 8a3d 519f e73d 7602 803e
00000010: d6e5 6e3e 17cc a03d 9852 2c3e e50e e03e
00000020: 1d1f 943e ec34 bc3d 42ac 943e 8129 263e
00000030: 6ea7 fb3d 6a15 7a3e 7288 bb3e 6b7f 8b3d
00000040: 88bf 183e b8de f23d ade5 633e c2be 803e
00000050: 5b5e 163e 0434 ec3d 758e 273e 4116 f63d
00000060: 5961 4e3e c0d6 003f e256 5e3e d326 0e3e
00000070: 5700 e03d f783 a23e 9a40 3b3e 205f bd3d
00000080: 4ee7 593e 689d 493e 1301 b93d 1784 023e
00000090: 7b6c 8d3e ea1f 873d ec66 983d 9da8 a03d
000000a0: eaf0 5b3e 99ce 3a3e c9a1 b53d dee3 093f
000000b0: 8b1f 803e 387c bd3e b612 f13e 3194 803e
000000c0: cdc2 9b3d e3a3 b23e a7d4 363e 1d60 563f
000000d0: 8634 9a3e 448f 013e 668f a93d b224 a43e
000000e0: d93b 3e3e d69e 8b3e a291 cc3e 593b 8f3f
000000f0: 395e a33d 050c f43e 7e3b 833e 6650 7d3d
0.29963464 0.06741459 0.11309684 0.25001878 0.23329863 0.07851427 0.16828382 0.43761364
0.28929988 0.091897815 0.29037672 0.1622677 0.12287794 0.24422231 0.36627537 0.068114124
0.14916813 0.118588865 0.22255583 0.25145537 0.14684431 0.11533359 0.16362937 0.12015963
0.20154323 0.5032768 0.2171283 0.13881998 0.10937565 0.31741306 0.18286362 0.09246659
0.21279642 0.19688952 0.09033408 0.12745701 0.27621827 0.06597884 0.07441506 0.078446604
0.2147862 0.18242873 0.08868749 0.5386332 0.25024065 0.37008834 0.47084588 0.2511306
0.07605515 0.3489066 0.17854558 0.8374041 0.30118197 0.12652308 0.08279304 0.32059246
0.18577518 0.2726962 0.3995486 1.1189986 0.07976956 0.4766542 0.25631326 0.061844252

fc3.weight f4 [1, 64]
00000000: 82fc d2be 8782 d23e c402 d0be 2179 d2be
00000010: 87b6 01bf 098d d1be b427 ee3e ada1 00bf
00000020: 7f42 06bf 3ba7 0abf 8018 0c3f 041b ef3e
00000030: 426e 01bf d0cf 02bf e7fe 09bf 17cb ea3e
00000040: f329 cf3e ea5d e73e 4af6 f93e b369 d13e
00000050: dbb0 dd3e 0513 cfbe 5372 e93e 395b ca3e
00000060: afc7 e73e 5cb7 003f 5a5a d9be 69cb cbbe
00000070: 97d7 e7be 0d4d f5be f57b ebbe 4e07 ef3e
00000080: 5cfd cb3e 142f e4be 8291 cc3e 0f41 eebe
00000090: 3b41 dbbe 930d e3be c9dc fd3e be05 edbe
000000a0: b864 d83e 2c69 eb3e 8124 d0be 1673 e3be
000000b0: 77e9 f33e a957 debe 0e3a 18bf 233c c8be
000000c0: dcf0 e5be 2ae1 febe 4940 d63e 0aa4 083f
000000d0: 9ae9 bf3e a875 d73e 73c2 e83e 8b09 d4be
000000e0: 172b f43e 2cd4 df3e e2fa fc3e fe50 cabe
000000f0: ef1d 033f ef7e 0abf 0732 bfbe af8c e0be
-0.41208273 0.4111521 -0.4062711 -0.4110804 -0.5066914 -0.40927914 0.46514666 -0.502467
-0.52445215 -0.54161423 0.54724884 0.467003 -0.50558865 -0.51098347 -0.53904575 0.4585807
0.40461692 0.45188838 0.48820716 0.40900955 0.43298993 -0.40444198 0.45595035 0.39522722
0.45269534 0.50279784 -0.42451745 -0.39803627 -0.4528167 -0.47910348 -0.4599301 0.4668526
0.39841735 -0.44567168 0.39954764 -0.4653401 -0.42823204 -0.44346294 0.49582508 -0.46293443
0.42264342 0.45978677 -0.4065285 -0.4442374 0.47639057 -0.43426254 -0.59463584 -0.3910838
-0.44910324 -0.49781162 0.4184592 0.53375304 0.3748291 0.42081952 0.45460853 -0.4141353
0.47689125 0.43716562 0.49410158 -0.39514917 0.5121755 -0.54099935 -0.37342855 -0.43857333
