PreTrained/cstr_ode/Deep_DQN/0_2/1100.pth (torch, 43242 bytes, 13 tensors)

fc1.weight f4 [128, 4]
00000000: e158 a43c 13f7 7a3e 31d2 c3be 5a03 cabe
00000010: 16b2 3fbe 58cd 0e3e 3f2d 23bc c839 c83e
00000020: 0bc8 1dbd 4d71 083e f0af 1cbe 79fd 96bd
00000030: 4953 ffbe ae2b a5be 482d 3fbe 0513 7b3c
00000040: 1a4f 493e f1f3 983e e112 afbe 0690 60be
00000050: 4e3a 453e 349b cd3e 0c2b debd bf65 be3e
00000060: 20ea 9fbd 4f0e 883d c9f9 e13e 9936 efbe
00000070: d192 aebe 2270 00be 43d1 44be 5c6a da3e
00000080: 6ce3 a7be d55b 64be cfb0 b5be 3ae2 dcbe
00000090: e964 97be 23c9 d83e 29a1 5b3e a017 733e
000000a0: 236a 393d d488 83be 8af5 c93d 045b d5be
000000b0: 1afa b8be c6f9 83be 2685 a13e 2619 963e
000000c0: f5de 5cbe ad52 44bc e4b6 a33e ba64 fb3e
000000d0: ff8c 523e f696 703d a043 af3e 4ff6 99be
000000e0: 53fa 813d 0ac6 bebe 6b2b bebe 7efa 70be
000000f0: 3011 783e 34b4 393e 47bc 8dbe 21d4 1d3e
00000100: 8d80 7c3e fc8e 57bd fec8 ec3c 227c f33d
00000110: bc7c 9e3e 20ea f43e f3b7 c1be 6c6b 39be
00000120: 2789 463e 6e57 d03e 98a7 e13e e2cb e53e
00000130: 4eda d13d b694 debe 4eac 323d afdb 9cbe
00000140: 2867 ebbe d346 dd3e 54e1 c53e d74f ffbe
00000150: 08aa bf3d c880 acbd b882 a8bd 1c5f 6abe
00000160: 3201 563e 0cc7 9fbe b7b1 4d3e 1676 813e
00000170: 5d28 b83e 9f88 3b3e 791b fdbe 13b0 a2be
00000180: 570c 6d3e fafb f63d 1088 ccbe d5b9 93be
00000190: f2d4 f03e 547f ac3e b03e 5fbe d4dc 00be
000001a0: a0ca febe 09cb 513c ce84 bbbe 6a8a babe
000001b0: 98d0 fbbc f98e 993d 1a6a 47be 0d69 943e
000001c0: c011 a5be b720 ea3e 6f4e ab3e 97a4 d6be
000001d0: 9825 f4bd 9273 043c c1ab a43d 32a2 ed3d
000001e0: 41c7 493e d525 f13c 240b 79be 3a12 6b3e
000001f0: d93a f4be f52c 99be 1a32 00be 69a4 76be
00000200: b0e4 31be 1788 d0be 457c d3bd 8be2 d43d
00000210: 2265 acbe a114 8fbc 1fc5 b13e eba3 43bd
00000220: 80ac 633c c0ad 30bd 103d cf3d 60c6 a23e
00000230: 603b ea3e 45c1 a53e b989 fc3e 4274 01bd
00000240: 8935 d9be fd09 83be d243 bb3e dc53 ae3b
00000250: 0a8d 83be 9033 bcbe a941 f8be 858f cabe
00000260: 62d1 d2bd 380e 8c3e a192 853e 5cfb f4be
00000270: bae4 9e3e 1687 c7be 75f8 d9bd 1703 4ebe
00000280: 0482 9cbd 6138 e4bd 3d1c ecbe 61d8 dabe
00000290: 283c a0bd 80e1 d33b b896 68be b8de 403e
000002a0: 3522 f6be e886 e3bc a42d d13e 9ec0 4bbe
000002b0: b1b5 e73e a950 3b3e 5e98 e2be 6a96 9e3e
000002c0: 06db 8abd 7362 48be 1f76 d33e 335e d1be
000002d0: b312 5b3d 9c17 c5bd cc61 bb3e e36b 023e
000002e0: d73a 883e 1043 2e3e 2068 b8bd 64ea e0bd
000002f0: cd04 d3be 6f0e 913e c660 c93e 78d3 b33e
00000300: ac93 b4be 60ae b63c 9076 b4be 88ec 8cbe
00000310: 00f9 8ebe fc92 223e 965a 92be 00ba 32bc
00000320: 2ed0 483d 5602 963e b07a b4be fd82 bbbe
00000330: a6e7 8abe 377b a83e 26c0 38be ec15 dc3e
00000340: a024 393e 40aa 813d 00ed 73bb 086d cabd
00000350: b181 713d 74df 06be 9f40 c3bb 2626 4b3d
00000360: 5d04 c6be 6e8c 82be 0ff0 d23e d85e d3be
00000370: a7ad 533b 0870 e93e 9152 593e 634b e63c
00000380: 791d d1be 2d69 673e 6687 a7be a6de 11be
00000390: 84e0 42be e274 8bbd 8ee7 d5bb 9bc0 d13e
000003a0: 1ae1 9a3d 69cd e03e f055 9e3e 1d59 a6be
000003b0: bc0b 703e cd32 babe 929e 4ebe 90e3 0a3e
000003c0: 1f36 293e 1ffb bf3e faaa 24be 00d4 513a
000003d0: d69a 913e 88a2 02bf abbc ae3e 6f2c cbbe
000003e0: 5b20 8a3b 0174 a9bd 6f61 85be c0fc 923d
000003f0: 5d7d de3e b041 1abe 17ef 8dbe b975 3cbe
0.020061912 0.24508314 -0.382463 -0.39455682 -0.18720278 0.1394552 -0.009959518 0.39106584
-0.038520854 0.13324471 -0.1530149 -0.07372565 -0.4986823 -0.32259887 -0.18669617 0.015324359
0.19659081 0.29873613 -0.3419409 -0.2192994 0.19260523 0.40157473 -0.10848054 0.37187
-0.07808328 0.06643354 0.44135883 -0.46721342 -0.34096387 -0.12542775 -0.19220452 0.4265927
-0.32790697 -0.22300656 -0.35486457 -0.43141347 -0.29569176 0.42340955 0.21448196 0.23739481
0.045267235 -0.2569033 0.09861286 -0.41671002 -0.36128312 -0.257765 0.31546897 0.29316062
-0.21569426 -0.011982602 0.31975472 0.49100286 0.20561598 0.058737718 0.3423128 -0.3007073
0.06346574 -0.37260467 -0.371425 -0.23533055 0.24225307 0.18135148 -0.27682707 0.15412952
0.24658413 -0.052626595 0.028904434 0.11888911 0.3095454 0.47834873 -0.37835655 -0.18107384
0.19388257 0.40691704 0.44073176 0.44882113 0.102467164 -0.43472832 0.043621354 -0.30636355
-0.4597714 0.43218097 0.38648474 -0.498656 0.09358603 -0.084230006 -0.082280576 -0.22887844
0.20898893 -0.31206548 0.20087324 0.25285405 0.35968295 0.18313836 -0.49435022 -0.3177496
0.23149239 0.120597795 -0.39947557 -0.28852716 0.47037464 0.33690894 -0.21801257 -0.12584239
-0.49763966 0.012804755 -0.3662476 -0.36433727 -0.030739114 0.07497973 -0.19474068 0.28986397
-0.32240105 0.45728084 0.33458278 -0.41922447 -0.11921233 0.008084195 0.08040572 0.11603202
0.19704916 0.029436985 -0.24320656 0.22956172 -0.47701147 -0.29917112 -0.12519112 -0.24086155
-0.17372394 -0.40728828 -0.10326437 0.10394772 -0.33670908 -0.017465891 0.34720704 -0.047763746
0.013896108 -0.04313445 0.101190686 0.31791973 0.45748425 0.32374015 0.49323824 -0.031605013
-0.42423657 -0.25593558 0.3657518 0.0053200554 -0.25693542 -0.3675809 -0.48487595 -0.39562622
-0.10293843 0.27354598 0.2608843 -0.47848022 0.3103388 -0.3897025 -0.106430925 -0.20118366
-0.07641986 -0.11143566 -0.46115294 -0.4274321 -0.07823974 0.0064660907 -0.22713745 0.1883496
-0.48072973 -0.02777429 0.40855134 -0.19897696 0.45255807 0.18292488 -0.44256872 0.30974132
-0.06780057 -0.19568805 0.41301057 -0.4089218 0.05348463 -0.09623644 0.3659805 0.12736468
0.2660739 0.1701777 -0.09004235 -0.109822065 -0.412146 0.28331324 0.39331645 0.35122275
-0.35268915 0.022299945 -0.35246706 -0.2752421 -0.27924347 0.15876383 -0.28584737 -0.010908604
0.04902666 0.29298657 -0.35249853 -0.36623374 -0.2712986 0.32906505 -0.18042049 0.42985475
0.18080378 0.06331301 -0.003722012 -0.09884077 0.058961574 -0.13171178 -0.005958631 0.049596928
-0.38675204 -0.25497764 0.41198775 -0.41283298 0.003229955 0.45593286 0.21222903 0.028112119
-0.40842798 0.22598715 -0.32720488 -0.1424509 -0.19030958 -0.06809403 -0.0065278476 0.4096726
0.07562466 0.43906716 0.3092494 -0.32489863 0.23441976 -0.36366883 -0.20177677 0.1356337
0.16524552 0.37496278 -0.16080847 0.0008004308 0.28438443 -0.51029253 0.34128317 -0.39682338
0.004215283 -0.08274079 -0.26050898 0.071771145 0.4345502 -0.1506412 -0.27721474 -0.18404283

fc1.bias f4 [128]
00000000: 7e74 eabd 0b61 44be 4802 063e d524 1d3e
00000010: fbd9 76be ab08 6a3d 6491 9a3e c266 cbbc
00000020: a451 1d3e e1de 01be 3130 363e e671 b9be
00000030: d6a3 99be 3a6a 75be a13b ee3e 6f02 14be
00000040: 49bf 8fbd cf2e 7cbe 836f 013f 8aa1 f73e
00000050: 8a20 c1be 1088 cfbe e30b b9be d24d fdbb
00000060: 78c0 dcbd 4e90 a7be 27ee 4cbe 67b8 c93d
00000070: d4ff 8ebe 111b da3d 8bf6 efbd 33db 7abe
00000080: 79e9 933d e9e3 d33e 8813 adbe 3e7c e83c
00000090: d5e6 22be 2e9e f73e cccb f4be 4636 f6be
000000a0: 71bf fa3e f8f7 a1be 9dca df3d 4e91 56bd
000000b0: 2208 b5bd ef58 d4bd d73f 9e3e 7a30 233c
000000c0: ce3e f9be 0655 9dbe 364c 1bbe af14 8a3e
000000d0: 8eaa a5be 0f4a f33e 5543 c8bd d7a7 83bd
000000e0: c5e0 d63e 8b7b 4f3e 6838 dc3e 838b 963e
000000f0: 6378 1bbe ccd0 a1be 5c37 22bd 2d9e d83e
00000100: dce5 3bbe 1e68 edbe 4089 443e 88f5 f43e
00000110: fb79 1fbe 5af9 d3be 1035 e8be 04eb 0b3e
00000120: 4dfe 01bd 4589 84be ef70 cd3d 9b14 3e3e
00000130: d760 cd3e 0ce7 c63e 566b 94bd 7ebb e1be
00000140: d853 e7be 5410 ec3e ad45 623e 825f 723e
00000150: 497b dbbe 3504 eb3e 2240 e73e 2980 ec3e
00000160: 30f5 d7be a1ad 3dbe 9719 a9be d367 f53e
00000170: a24e 68be f627 7abe 695f 8c3e eea6 6cbe
00000180: c417 64be c2d0 2abd e07f 81bd 226b c7be
00000190: c044 cf3e 832d 75be 7bb5 403e 4c0c df3e
000001a0: 0a58 593e 162d a03d dd89 d93e 237c 8b3d
000001b0: 388b 6cbe 52d6 ed3e 6f4c 063e 38c6 f9be
000001c0: 0253 1dbe 9900 b2be 6da6 e93e 10f0 8bbd
000001d0: b259 e9be 4511 d1bc 23a9 9c3e dd76 083e
000001e0: 3040 313e 548e b03d 40dd 343e c79c 01be
000001f0: 96e0 3bbe 0e49 efbe b8e7 c1be 76bc 5e3e
-0.11448 -0.19177644 0.13086808 0.15346082 -0.2410659 0.057137173 0.3018905 -0.024829272
0.15363175 -0.12682678 0.17791821 -0.3621971 -0.3000781 -0.23966303 0.46529868 -0.14454053
-0.070189066 -0.24627231 0.5056078 0.48365432 -0.37720138 -0.40533495 -0.3614188 -0.007730224
-0.10778898 -0.32727283 -0.20012723 0.09849625 -0.27929556 0.10649694 -0.11716946 -0.2449768
0.07222266 0.4138482 -0.33803964 0.028379556 -0.15908368 0.4836287 -0.47811735 -0.48088282
0.48974183 -0.31634498 0.10927317 -0.052384667 -0.08839442 -0.10368525 0.3090808 0.009960288
-0.4868073 -0.3072893 -0.15165791 0.26968905 -0.32356685 0.4751744 -0.097784676 -0.06428497
0.4196836 0.20261972 0.43011785 0.29403314 -0.15182643 -0.31604612 -0.039603576 0.4230818
-0.18349403 -0.46368498 0.19192982 0.47843575 -0.15573876 -0.41401178 -0.45352983 0.1366387
-0.03173666 -0.25885978 0.10031306 0.18562548 0.40112945 0.3884815 -0.07247035 -0.44088358
-0.45181155 0.46106207 0.22096892 0.23669246 -0.42867497 0.45901647 0.45166117 0.46191528
-0.4217925 -0.18523265 -0.33027336 0.47930774 -0.22686246 -0.24429306 0.27416542 -0.23110554
-0.22274691 -0.041702993 -0.06323218 -0.38948923 0.4048214 -0.23943143 0.1881923 0.4356407
0.2122499 0.078210995 0.42487994 0.068107866 -0.23099983 0.46452576 0.13115095 -0.4878404
-0.15363696 -0.3476608 0.45634785 -0.06832898 -0.45576245 -0.02552093 0.3059779 0.13326593
0.17309642 0.08620897 0.17662525 -0.12657462 -0.18347391 -0.46735424 -0.378721 0.2175158

bn1.weight f4 [128]
00000000: d171 7e3f 8dad 7e3f d440 803f 3f5d 833f
00000010: 8c21 813f efb1 7b3f 7d98 803f d1eb 803f
00000020: a771 7f3f f409 733f 8dc3 7e3f 0000 803f
00000030: 1685 7e3f e9ca 7c3f 7961 7e3f 7103 7f3f
00000040: a8c9 7f3f 55d5 7a3f c994 813f 8d4d 813f
00000050: 7538 7e3f 0000 803f af9e 813f 764d 803f
00000060: f4fe 7f3f 0000 803f 1149 7e3f 8175 7e3f
00000070: b8b7 803f 49d8 7c3f cda0 7f3f 0f43 7f3f
00000080: 07ea 793f 5cf3 823f 0000 803f 86fc 7e3f
00000090: dfcf 7a3f 9adc 7d3f ab8f 7c3f 2d6f 7f3f
000000a0: fbc2 7f3f 0000 803f 02a7 813f 0adc 7c3f
000000b0: f8e5 803f 0593 7d3f a618 7f3f 9482 803f
000000c0: 0000 803f 7c58 7d3f d79e 7e3f 5deb 813f
000000d0: 0000 803f 4b92 843f 5532 7f3f e469 7f3f
000000e0: afbe 803f b4d1 813f f3dd 7f3f 80a0 803f
000000f0: 5964 7f3f f4de 7f3f d2f5 7b3f 80d6 813f
00000100: 650a 7e3f 0000 803f f9dd 7f3f 8d53 813f
00000110: 68a8 7d3f 0000 803f 0000 803f 09b8 7f3f
00000120: 7155 803f 825c 7f3f 88ab 803f 50e3 813f
00000130: e7b1 7e3f ee48 7f3f 488d 7f3f 0000 803f
00000140: 0000 803f 7387 803f f431 803f 7f55 803f
00000150: 36a5 7d3f 23e0 813f 30a2 7c3f 1589 7f3f
00000160: 0000 803f 0188 7e3f e930 803f 6793 7d3f
00000170: ed6a 803f 5422 7c3f a223 803f 3d06 7e3f
00000180: 2106 823f 4725 7d3f 026b 7d3f 0000 803f
00000190: 9002 813f f826 813f 5532 813f 19f2 813f
000001a0: d123 803f e5ee 7c3f 99d6 773f 37ab 7c3f
000001b0: 710e 7e3f 279a 7e3f 6969 813f 0000 803f
000001c0: 603f 813f d37d 7e3f aa70 813f 9b2e 783f
000001d0: 0000 803f a406 803f 0469 803f 0e72 803f
000001e0: f35b 793f 5f79 7f3f a173 7f3f e649 7d3f
000001f0: 14b6 7d3f 0000 803f 0a4f 7d3f 1d36 803f
0.9939242 0.9948357 1.0019784 1.0262831 1.0088363 0.9831838 1.0046536 1.0071965
0.99782795 0.9493706 0.99517137 1.0 0.99421823 0.98747116 0.9936748 0.99614626
0.9991708 0.9798177 1.0123531 1.0101792 0.99304897 1.0 1.0126551 1.0023639
0.999984 1.0 0.9933024 0.99398047 1.0056067 0.98767525 0.9985474 0.997117
0.9762272 1.0230517 1.0 0.9960407 0.97973436 0.99164736 0.9865672 0.99779016
0.9990689 1.0 1.0129092 0.9877325 1.0070181 0.9905246 0.99646986 1.0039849
1.0 0.9896314 0.9946112 1.0149952 1.0 1.0357145 0.99686176 0.9977095
1.0058192 1.0142121 0.9994804 1.0048981 0.99762493 0.99949574 0.9842197 1.0143585
0.9923461 1.0 0.9994808 1.0103623 0.9908509 1.0 1.0 0.9989019
1.0026075 0.9975053 1.0052347 1.0147495 0.9949021 0.99720657 0.99824953 1.0
1.0 1.0041336 1.0015244 1.0026091 0.99080217 1.0146526 0.9868498 0.99818546
1.0 0.99426275 1.0014926 0.99053043 1.0032631 0.9848988 1.0010874 0.9922827
1.015812 0.98885006 0.98991406 1.0 1.0078907 1.0090017 1.0093485 1.0152007
1.001093 0.98802024 0.96811825 0.98698753 0.99240786 0.9945397 1.0110294 1.0
1.0097466 0.9941074 1.0112507 0.96946114 1.0 1.0002027 1.0032048 1.0034807
0.9740593 0.9979457 0.9978581 0.98940885 0.99105954 1.0 0.9894873 1.0016514

bn1.bias f4 [128]
00000000: 282a 99bc 463e bfbc 3567 a93c 46e0 b6bc
00000010: e3ee c23a 5943 0a3c a16b 5fbb 6559 90bc
00000020: 5967 3a3d f9f1 24bc 951e 003d 25e0 ae3c
00000030: 583a 34bc 1e60 d93c d107 76bb b1ad 12bd
00000040: 9364 c7bc 7174 a6bb 7b38 d83b 33b4 afba
00000050: 5ebb 8fbb f7f6 14bc 709a 32bb 5e45 723c
00000060: 80cf e43b b201 94bc d622 833b 8a84 05bd
00000070: 89c4 e5bc 20c8 aabc 63da af3b dcbb 64bc
00000080: e25c afbb bd1c abbc 40f6 01bc 307d 3bbb
00000090: 328c 9b3c 79b6 423c 2d05 1c3c d35f 1b3c
000000a0: 9aca 78bc 7607 483d bb9b 73bc 67f6 bdbc
000000b0: ed02 aa39 e738 ffbc 8181 85bb e7b1 cb3b
000000c0: c35a 213c dfea 04bc 2f8c 8539 222e 853a
000000d0: 57c8 293d b99d 9bbb 4634 d43c 4226 36bc
000000e0: 5126 503c 1cc7 1ebd e9f8 383b d957 df3b
000000f0: 1899 adbb 1b61 95bb 3e5f ab3c 1e92 613c
00000100: 79d7 3e3c 6ee7 2bbc 08ae a63c f2a1 85bb
00000110: ae92 9c3c 6238 4a3c ea14 a3bc b7b1 003d
00000120: 4cc6 bf3b d5a4 8bbc 1248 88bc 08f6 b83c
00000130: 1c49 25bc f757 79bc 1608 b93b e535 363d
00000140: 4899 f73c 3dff ab3c 6566 9dbc 6ed6 e43c
00000150: f348 393b f014 f53b 4662 353c 1c9a 3fbc
00000160: b8a6 173d 892c 90bb aa48 49bb 3d30 abbc
00000170: 1c94 50bc fee3 9b3c 6ce1 d33b 343c a6bc
00000180: 661d b63c aa69 57ba ff74 d2bb 3cdc d43c
00000190: 3b0d e03c 007b 3fbb bdcf 103d a355 fcbb
000001a0: b590 1cbc 6ea6 ccbb 32df 503a 5083 2bbb
000001b0: 353b 273c 2e51 223b 3257 d8bc 614a da3b
000001c0: 5bbe 03bc 9428 5c3c 3dbc c0bc 9d60 6b3a
000001d0: 6268 193d 81d6 f93a f356 813c 607c 04bd
000001e0: c24e 0f3c db3d a23b 1560 143b 1848 383c
000001f0: b6af deba 4a54 363d f351 423c c679 0bbb
-0.01869686 -0.023345124 0.020679096 -0.022323739 0.0014872219 0.0084389085 -0.0034091251 -0.017620752
0.045508716 -0.010067456 0.031279165 0.021347115 -0.011000238 0.02653509 -0.003754128 -0.035810176
-0.02433995 -0.005079799 0.00659853 -0.0013405144 -0.0043863496 -0.009092084 -0.0027252696 0.014787046
0.0069827437 -0.018067215 0.0040019555 -0.032597102 -0.028047817 -0.02084738 0.00536661 -0.013960805
-0.0053516487 -0.020887727 -0.007932246 -0.0028608553 0.018987749 0.011884325 0.009522718 0.0094832955
-0.015185023 0.04883524 -0.014868672 -0.023188783 0.00032427107 -0.031155063 -0.004074276 0.006216276
0.009848299 -0.008112638 0.00025472182 0.0010160843 0.041450825 -0.0047490266 0.025903832 -0.01111752
0.012704448 -0.038764104 0.0028224534 0.006815892 -0.005297791 -0.004558695 0.020919438 0.013767747
0.011648052 -0.010492189 0.020346656 -0.0040781433 0.019112911 0.012342544 -0.019907434 0.031419482
0.0058524963 -0.017046371 -0.016635928 0.022578254 -0.010088231 -0.015218726 0.005646716 0.04448499
0.030224457 0.02099573 -0.019213865 0.02793428 0.002827224 0.0074793026 0.0110707935 -0.011694457
0.03702423 -0.0043998403 -0.0030713477 -0.020897025 -0.0127306245 0.019029614 0.0064660814 -0.020292379
0.022230815 -0.00082173443 -0.0064226384 0.025983922 0.027350059 -0.00292176 0.035354365 -0.0077006384
-0.009555985 -0.006245426 0.0007967829 -0.0026170798 0.010206987 0.0024767625 -0.026408765 0.0066616987
-0.00804099 0.013437409 -0.023527259 0.0008978935 0.037453063 0.001906112 0.01578853 -0.032345176
0.008746805 0.0049512214 0.0022640277 0.011247657 -0.0016989622 0.044513978 0.0118603585 -0.00212823

bn1.running_mean f4 [128]
00000000: 1dcc 183b 0400 0000 d3c1 323d 1000 ab3c
00000010: d4cc 3b3a ae63 b03c db87 f13e 76bc 3a3b
00000020: 6473 293d 7e9b af34 d9a6 a23e 0000 0000
00000030: 0400 0000 0aec ca3d 0486 d03e 6ede 2c3a
00000040: 3723 9e3d 22a1 743a 75d5 343f 3c6e 2b3f
00000050: 0400 0000 0000 0000 23a8 d33c e30e 473d
00000060: 980b eb3a 0000 0000 93cf 243b 5991 123d
00000070: 0400 0000 5808 b93d c391 023a 0400 0000
00000080: 7a03 553d 0384 e13e 0000 0000 1afc ce3e
00000090: c4a2 023d f688 6d3e 0400 0000 0400 0000
000000a0: e80e 813e 0000 0000 6a4e 163e f33b 3e3d
000000b0: e6d9 373e a079 283e 6699 ad3e 278b 4e3d
000000c0: 0000 0000 dd15 4a3a bc67 ef3a 49fa 433d
000000d0: 0000 0000 6be2 083f e368 c63d b713 883b
000000e0: 3490 dd3d af16 063e a280 003f 6d59 cb3e
000000f0: 60fd 6339 9ab9 313e b28e c73a 5180 053f
00000100: 73e9 fc3a 0000 0000 3aa2 7a3e 1ab2 fe3e
00000110: c73e 043b 0000 0000 0000 0000 338a 2b3d
00000120: 29d3 173b 0400 0000 6e94 ec3e 7b8d 123d
00000130: 4ed6 173f 81e7 943e 2536 213e 0000 0000
00000140: 0000 0000 6ce6 253f 157d 3d3e 1c87 583e
00000150: f09f f23c f6b2 263f c365 8f3e 67b7 463e
00000160: 0000 0000 3f2a 073b b4c7 403a af54 323f
00000170: afc3 a53a 233e 163b 1029 083f e172 063e
00000180: e80d 513b 0690 9639 5b02 293b 0000 0000
00000190: 8ff1 d53e c9ac 703e 65e9 0a3d 72e3 e23e
000001a0: 0475 4f3e 7d5e 403e a730 1e3f b242 f73b
000001b0: 0400 0000 3f96 3e3f 98cc ee3c 0000 0000
000001c0: c08d 533e 0400 0000 68d6 5c3e da81 253a
000001d0: 0000 0000 dde3 133d 19df 0b3f a541 4d3c
000001e0: c465 523d 135e 1a3e df7d 213e 5e2d 9d3e
000001f0: 5315 933d 0000 0000 b661 373d ab3c 813d
0.002331502 6e-45 0.043641876 0.020874053 0.00071640057 0.021531906 0.47173962 0.002849368
0.04136981 3.2709426e-07 0.3176792 0.0 6e-45 0.09908302 0.40727246 0.0006594424
0.077215604 0.0009331872 0.7063821 0.6696508 6e-45 0.0 0.02583701 0.04859818
0.0017932532 0.0 0.0025148138 0.035783146 6e-45 0.090347946 0.00049808266 6e-45
0.05200527 0.4404603 0.0 0.40426713 0.031893507 0.23196778 6e-45 6e-45
0.25206685 0.0 0.1467835 0.04644389 0.17954215 0.16452646 0.33906096 0.050425675
0.0 0.00077089464 0.0018265168 0.047846112 0.0 0.53470486 0.09687974 0.004152741
0.1081852 0.1309459 0.5019628 0.39716664 0.00021742797 0.17355958 0.0015225022 0.5214892
0.0019295648 0.0 0.24475947 0.49745256 0.002017902 0.0 0.0 0.041879844
0.0023166633 6e-45 0.46206993 0.035779458 0.5931138 0.29082873 0.15743311 0.0
0.0 0.6480472 0.18504746 0.2114529 0.02961728 0.6511682 0.28007326 0.194059
0.0 0.0020624546 0.0007353977 0.69660467 0.0012646819 0.002292522 0.53187656 0.1312976
0.0031899158 0.00028717535 0.0025788757 0.0 0.41785857 0.23503412 0.03391399 0.44314152
0.20259482 0.18786044 0.6179299 0.0075457925 6e-45 0.7444801 0.029150292 0.0
0.20659542 6e-45 0.21566164 0.00063136 0.0 0.03610598 0.54637295 0.012527858
0.051366583 0.15074949 0.15770672 0.30698675 0.07181802 0.0 0.04477092 0.063103996

bn1.running_var f4 [128]
00000000: dd3d 3c3a 0400 0000 b63c 273b 492e 823b
00000010: b72e 8e38 8bfc 523a c897 3e3d 5c83 0a3a
00000020: 4a6c 983b 5354 9230 6e20 ac3b 0400 0000
00000030: 0400 0000 801d 1a3c 409f e83c 7af2 7038
00000040: a7ee 983a ac40 f138 d551 4b3d b97f 993b
00000050: 0400 0000 0400 0000 839c 483a c3fd 803b
00000060: 20b8 de39 0400 0000 8301 5b3a 87f9 f33a
00000070: 0400 0000 75c0 9b3a 0775 0938 0400 0000
00000080: 2eaf 163b 5108 c93c 0400 0000 6f3c 933d
00000090: 17bf 863a 8fbe 713d 0400 0000 0400 0000
000000a0: 8009 693d 0400 0000 320c 8f3c 107c 593b
000000b0: e3f1 fc3c 3554 d43c aabe ed3a 6e72 223b
000000c0: 0400 0000 21a3 a438 e50e e739 91b4 db3b
000000d0: 0400 0000 2dfd ac39 dd09 143c aaae dc38
000000e0: c5b7 a13c eae3 453a 7f7e a93c 6a99 dc3b
000000f0: b08c d136 88a1 ee3c e78a a039 11ea 5e3c
00000100: c7ee 003a 0400 0000 d034 6a3b 2861 463c
00000110: 1902 0d3a 0400 0000 0400 0000 358a 2a3b
00000120: 71da 393a 0400 0000 40cf e03c 950f 843b
00000130: cb19 ea3b 5fcf 173d f682 3e3c 0400 0000
00000140: 0400 0000 8366 d03c 12f8 0a3d c03f c93c
00000150: 8315 7b3a 466b 213d dfc7 033c a24c 953c
00000160: 0400 0000 bd4d 133a e6d2 9538 e2d4 4a3d
00000170: 448c 5d39 1100 363a 9318 243d e99d 793c
00000180: 4688 9a38 f6c5 fa36 cb1c 663a 0400 0000
00000190: 6d79 383c 4332 593d 1590 8e3b cdee cc3c
000001a0: b3dc 1e3a ced4 cc3a 35f5 6c3b 30db 0a3b
000001b0: 0400 0000 0344 da3c 070a 433b 0400 0000
000001c0: 8cf5 263d 0400 0000 ae98 2f3d a7fc ea37
000001d0: 0400 0000 5dc9 9b3a eaf8 883c a9af 7f3b
000001e0: a2d4 c43b 69a0 9e3c 2ec1 383b e776 763d
000001f0: 2299 a33b 0400 0000 b538 0b3b 5b02 b83b
0.0007180849 6e-45 0.0025518364 0.003972803 6.779789e-05 0.0008048496 0.04653147 0.00052838563
0.004651581 1.0646865e-09 0.0052528894 6e-45 6e-45 0.009406447 0.028396249 5.7446283e-05
0.0011667804 0.000115038216 0.049638588 0.004684415 6e-45 6e-45 0.00076527166 0.0039365008
0.00042480323 6e-45 0.0008354412 0.0018613794 6e-45 0.0011882918 3.2772336e-05 6e-45
0.0022992599 0.024540098 6e-45 0.07189261 0.0010280338 0.05901962 6e-45 6e-45
0.056893826 6e-45 0.01746187 0.003318552 0.03087706 0.02591906 0.0018138487 0.0024787444
6e-45 7.8505145e-05 0.0004407085 0.006704875 6e-45 0.00032995027 0.009035555 0.00010522951
0.019740948 0.00075489155 0.0206902 0.0067321556 6.2450636e-06 0.029129758 0.00030621068 0.0136056105
0.0004918393 6e-45 0.0035737045 0.012108125 0.0005379036 6e-45 6e-45 0.002602232
0.000708974 6e-45 0.027442575 0.004030178 0.007144188 0.037063 0.011627903 6e-45
6e-45 0.025439506 0.033927985 0.024566531 0.00095780956 0.039408945 0.008043258 0.018225018
6e-45 0.0005619189 7.1441566e-05 0.049519427 0.00021128455 0.0006942759 0.0400625 0.015235403
7.368675e-05 7.4736263e-06 0.0008778094 6e-45 0.011259419 0.05302645 0.004350672 0.025016213
0.00060601084 0.0015627386 0.0036156897 0.0021187775 6e-45 0.026643759 0.0029760615 6e-45
0.040761515 6e-45 0.042870216 2.8012624e-05 6e-45 0.0011885572 0.016720254 0.0039014614
0.006006793 0.019363599 0.0028191316 0.060171988 0.00499262 6e-45 0.0021243517 0.005615515

fc2.weight f4 [64, 128]
00000000: a48c 26bd 3e30 933a 66fd b43c 8fdb 4db9
00000010: ae39 3bbd 753e 973d 5c3e 61bd 080b 9d3d
00000020: ff03 a5bd e9bf 51bd c649 793d 8db3 f8bc
00000030: 382a 813d 25b2 82bd 95c6 91bd 2a6d 05bd
00000040: 026d e53c baa6 b83d 8d64 32bd 2b2c 5c3d
00000050: 9b7d b9bc 4359 a5bc f865 a73d 0e8f 8fbd
00000060: 8490 ad3c df28 ab3d b07f 79ba 3bc8 7b3d
00000070: b6b3 06bd bd3f 873d ec64 95bd b8f1 79bc
00000080: 5538 54bc bc62 c03c 0090 943c 2c58 873d
00000090: b0fd 66bc 3ca3 28bb 166e 733d ec5e 8cbc
000000a0: 8a41 a13d 2b8d 60bd 8355 7ebc 5a4c 36bb
000000b0: 6905 0d3d 1542 693d 663b 15bc 0617 a2bd
000000c0: 55f4 573d 14dc 0c3d 3a19 443d a164 89bd
000000d0: d703 5b3d 65e5 b63d 2c07 7c3a 6b38 b8bd
000000e0: f108 593d b7a0 66bd 8689 923c bb7d 873c
000000f0: 528f 02bd 88e1 be3c e913 8cbd 3be4 cf3c
00000100: 06c2 40bd aa84 3dbc 2181 833c 8c33 a63d
00000110: 8f38 f2bc 4f1f 693d ab36 90bc 10ae 55bd
00000120: 5adc 87bd e756 9bbd f260 c13d 8082 09bd
00000130: cf4d 563d 31e7 e23c 04ba 7f3d 1aa4 a23d
00000140: 6723 aa3d 3d55 87bd 2866 00bc 6401 3fbd
00000150: e742 44bd 1b9f 9e3c 6cec a33d 83dd 9bbd
00000160: 06ca 6d3d d979 18bd 10d4 b1bb 38bb 8c3d
00000170: ebff 1dbc 4739 983c 3f51 80bd ecc9 9b3d
00000180: 87fe 39bc 5556 c4bd 168b 203d 59a3 74bd
00000190: 8e1d 84bd 2ecc 333b 223d 643d b47e 9fbc
000001a0: 0ec5 263d 6a6c c83d e9eb 6c3d 42b1 58bd
000001b0: bc01 5bbc c4a4 c1bc 3ae2 8ebd 342f 29bc
000001c0: 136a 823d 2f1d 883d 9027 133c 13dd a73b
000001d0: e656 0fbd 1f08 793d a703 0abd 2b64 8bbd
000001e0: 47f7 9f3b 6c83 4f3d c6d0 9cbd b21f a13d
000001f0: ea27 ce3c 89d7 1fbd 7d0e a0bc e838 913d
00000200: 2f4a 96bd bd1a 81bd 86f8 f63c b129 b3bd
00000210: 2760 413d 3bda 723d 267a 463d 16bc 7dbd
00000220: a856 9b3d e362 80bd 1b5e ac3d d519 1fbd
00000230: 0935 b5bd 0355 463d 7ac3 533c 433c 8a3b
00000240: ad0c 34bd a526 17bd a40d d8bc d395 b8bd
00000250: 0718 d1bc 82be d7bc 7012 8abc c2a5 153d
00000260: 8140 9b3d d922 ccbc da8d 02bd e540 0ebd
00000270: 0a3c f7bd 4c95 8bbd d320 60bc 4da8 42bd
00000280: 0d17 013d 4dd3 3bbd 9d27 183d d708 82bd
00000290: f79b 07bc a3d2 a33d f1c9 6d3d e54b 01bc
000002a0: 6dc2 8e3c efb5 6b3d 76dd 49bd 59ea aabc
000002b0: 11a8 923c e542 87bd 7a66 cd3c 4f93 113d
000002c0: ef5b 15bb 72f8 953d 47f7 2bbc a9ac 293d
000002d0: afa4 053e 8621 e2bc 5e6c 2d3d 5543 663c
000002e0: 3d34 69bc 0cfb babc a148 9fbb 3b25 e8bc
000002f0: c057 a83c 151a 35bb 8a1e 693d c0c6 2cbc
00000300: bb98 0e3c dfa9 9abd 6798 86bd 764c 333d
00000310: 911a 163c cccb 34bc 5334 94bd e00c f73c
00000320: 96e5 7ebc 4915 6c3b 52ff 9d3b 0a2f 023d
00000330: f74d 253d a605 85bc 0fd2 133d 193d bb3d
00000340: 9017 273d c3f4 973c b09d fb3b c429 923d
00000350: 8d9d 24bd 865f 4fbd 8cd9 1d3d 2cc1 9ebd
00000360: 8594 4a3d fe62 26bd bb5e 6e3d fe55 aebd
00000370: 36f8 593d f3e6 b33d 3c54 9e3c 1885 12bc
00000380: e0d3 d73d 11e5 77bd 0080 01bc 6a63 103c
00000390: 4de9 96ba bc0e 7a3c 8d91 6a3c 8453 15bc
000003a0: a493 c1bd 9538 533b 379a a6bc c8e2 073c
000003b0: bfe6 1d3d 6303 a93d eecc 8bbd 36db 113c
000003c0: 58ee 20bd 79cf 45bd b3d1 79bd 4528 6e3d
000003d0: 4fd5 c73d 9201 303d cba0 463d c932 9ebd
000003e0: 25c4 0b3b af07 a13d 31fc 37bd 63a6 973d
000003f0: a7d9 a33c 11fe cd3d 64fc 1ebd 8a10 293d
-0.04066147 0.0011229587 0.022093486 -0.00019632115 -0.045709305 0.073849596 -0.05499111 0.0766812
-0.08057403 -0.05120841 0.06086137 -0.030359054 0.06306881 -0.063816346 -0.07117955 -0.03257481
0.02800608 0.090161756 -0.043552924 0.05375306 -0.022642901 -0.020184165 0.08173746 -0.070097074
0.021187074 0.08357405 -0.0009517623 0.06147025 -0.03288623 0.06603954 -0.0729464 -0.015255384
-0.012952884 0.02348458 0.01813507 0.06608614 -0.01409857 -0.002573206 0.059431158 -0.017135106
0.07873829 -0.05482213 -0.015523317 -0.0027816505 0.034428988 0.056947786 -0.0091084 -0.079145476
0.052723248 0.03438957 0.04787562 -0.067086466 0.05347046 0.08930472 0.0009614106 -0.08995136
0.052987043 -0.056305613 0.017887842 0.016539445 -0.031874962 0.023300901 -0.06839735 0.025377383
-0.047060035 -0.011567274 0.016052784 0.081153005 -0.029567985 0.056914624 -0.017604193 -0.052167952
-0.066338256 -0.07584935 0.09442319 -0.03357172 0.052320298 0.027698131 0.062433258 0.07941456
0.08307534 -0.06608055 -0.007836856 -0.046632186 -0.047915366 0.019362977 0.08004078 -0.076106094
0.058053993 -0.037225578 -0.005426891 0.06871647 -0.009643535 0.018582 -0.062654965 0.07606873
-0.011352188 -0.09586779 0.039195143 -0.059726093 -0.064509496 0.0027434933 0.055722363 -0.019469596
0.04071527 0.09786303 0.05784217 -0.05290342 -0.013367113 -0.023638137 -0.06976743 -0.0103261955
0.06367888 0.06646191 0.0089816 0.0051227896 -0.034994982 0.06079876 -0.03369489 -0.06806215
0.0048817727 0.050662443 -0.07657008 0.078673735 0.025165517 -0.03902391 -0.019538159 0.07090932
-0.07338368 -0.06303928 0.030147802 -0.087481864 0.04721084 0.059290152 0.048456334 -0.06194695
0.07584888 -0.06268861 0.08416387 -0.038842995 -0.08848006 0.048420917 0.012925023 0.0042186095
-0.0439574 -0.03690209 -0.026373692 -0.09012952 -0.025524152 -0.026335958 -0.016854495 0.036535032
0.075806625 -0.02491896 -0.03187356 -0.034729857 -0.120719984 -0.068155855 -0.013679701 -0.047523785
0.031516124 -0.04585581 0.037147153 -0.06349342 -0.008276931 0.0799916 0.058053914 -0.00789163
0.017426694 0.057546552 -0.049283467 -0.020863699 0.017902406 -0.06604556 0.025073279 0.035540875
-0.0022790392 0.07322778 -0.010495967 0.041424427 0.13051103 -0.027603876 0.042339675 0.014054139
-0.014233646 -0.022824787 -0.004860953 -0.028338065 0.020549655 -0.0027633954 0.05691389 -0.010545433
0.008703406 -0.075519316 -0.06572037 0.04377409 0.009161607 -0.011034917 -0.072365426 0.030157506
-0.015557667 0.003602343 0.0048216963 0.03178314 0.040357556 -0.016238045 0.036089 0.09142513
0.040793955 0.018549329 0.00767871 0.071368724 -0.040189315 -0.050628208 0.038537547 -0.07751688
0.049458046 -0.04062175 0.05819581 -0.085124955 0.053215228 0.087842844 0.019327275 -0.008942865
0.10538459 -0.06052119 -0.007904053 0.008812765 -0.0011513621 0.015262302 0.014316929 -0.00911415
-0.09451988 0.003222977 -0.020337207 0.008293815 0.038550135 0.08252599 -0.068261966 0.008902362
-0.039289802 -0.048293564 -0.060991 0.058143873 0.09757482 0.042970248 0.048493188 -0.0772453
0.0021326628 0.07862794 -0.044918243 0.074047826 0.020001246 0.10058225 -0.038814917 0.04127554

fc2.bias f4 [64]
00000000: c847 843c 2869 e33d 2d41 593d 8fa5 d7bc
00000010: 5be9 debc 171d 923d 7864 5abd 3ac4 603b
00000020: 2e78 d43c 7525 06bd 0976 0e3d 8f44 db3b
00000030: 46a5 a43d a2b4 52bd 5bcb 9e3d d3b9 893d
00000040: f209 45bd 7f1f 7c3c d63e 8abb 5d54 b43d
00000050: bfd1 723d a6d0 0abd 57e9 0cbd 1d7f 39bd
00000060: 96de 8d3d 72fc 8bbd a3c9 34bd 2c37 ab3d
00000070: 3ff4 7a3d f22c 903d f35d 933d 9a58 94bd
00000080: 2035 11bc e8ec db3b 1e38 d13d c8a6 6fbc
00000090: dacf f53a 1ebf 963d 1c3d 193d 6105 55bd
000000a0: 31ba 90bd 53bb a3bc d39d 843d 8816 e13d
000000b0: 13a0 4b3d 6e40 813d 7664 153d 6913 623b
000000c0: 2fbb 53bc 2da3 ae3d 1d0b a93c 154e 2a3b
000000d0: 4403 753d 8b72 853d b152 b63c ad5e bd3a
000000e0: 0e11 0fbd b16b 3fbd d693 c4bc daac c33d
000000f0: cb1c 743d 4c2a 22bd 6c09 843d 85af 39bc
0.01614751 0.11104041 0.053040672 -0.026324062 -0.027210882 0.07134455 -0.05331847 0.0034296648
0.025936212 -0.032750566 0.034780536 0.0066915224 0.08039336 -0.051441796 0.07753631 0.06724896
-0.048105188 0.015388369 -0.0042189164 0.088051535 0.05928206 -0.03389039 -0.034402218 -0.04528724
0.069272205 -0.068352595 -0.04413761 0.083601326 0.061268087 0.07039823 0.07195654 -0.07243462
-0.008862764 0.006711591 0.10215782 -0.014627166 0.0018753961 0.073606715 0.037411794 -0.052007083
-0.07066763 -0.019986784 0.06475415 0.109906256 0.049713206 0.06311117 0.03647276 0.0034496433
-0.012923046 0.08527217 0.020635182 0.0025986482 0.059817567 0.06515988 0.022256227 0.0014447771
-0.034928374 -0.046733562 -0.023996275 0.09554453 0.05959777 -0.03959112 0.064471096 -0.011333351

bn2.weight f4 [64]
00000000: f172 803f 8e20 753f 67f7 813f 738a 803f
00000010: cb73 753f 604c 793f 97e3 7f3f a579 783f
00000020: 9c02 7e3f 17ef 7a3f 929b 803f 51a6 7c3f
00000030: 14a7 7d3f 1ec4 7c3f d8f3 793f cc14 7e3f
00000040: 6312 7c3f 046e 783f 6286 803f d53a 803f
00000050: 80cb 7e3f 5120 7c3f f125 7e3f 23b9 7f3f
00000060: ad7f 7d3f c422 7d3f 0373 803f e4ac 803f
00000070: 81a5 7e3f 65a5 7d3f d2fa 843f a7ac 7c3f
00000080: b266 7d3f 17e2 823f c030 7c3f 0726 803f
00000090: b734 803f 9b58 7e3f 8830 7d3f aa78 7e3f
000000a0: e6b2 7e3f 8eaa 7d3f b5a2 7c3f 6e61 7c3f
000000b0: 5343 803f e225 803f bb5b 793f f4ee 7b3f
000000c0: 613f 783f a0c1 7a3f 57db 7d3f 00f8 813f
000000d0: b376 803f 83b3 7b3f 129a 7c3f 8028 803f
000000e0: 604f 823f c51e 7d3f 475b 813f 6aae 803f
000000f0: 8af1 7c3f 34a7 793f abf2 813f 31ef 7d3f
1.0035077 0.957528 1.0153626 1.0042251 0.9587981 0.97382164 0.9995665 0.97060615
0.9922273 0.9802107 1.0047476 0.9869128 0.99083066 0.9873675 0.976377 0.99250484
0.98465556 0.9704287 1.004101 1.0017954 0.99529266 0.9848681 0.99276644 0.9989187
0.9902294 0.98881173 1.0035099 1.0052762 0.9947129 0.990805 1.0389044 0.98700947
0.98984826 1.0225247 0.98511887 1.0011605 1.0016087 0.9935395 0.9890218 0.9940287
0.9949173 0.9908837 0.9868577 0.98586166 1.0020546 1.0011561 0.97405595 0.9841149
0.9697171 0.979517 0.9916281 1.0153809 1.0036224 0.9832079 0.9867259 1.001236
1.0180473 0.98875076 1.0105981 1.0053227 0.9880606 0.97520757 1.0152181 0.991931

bn2.bias f4 [64]
00000000: 2195 233f 0f62 1abf 6540 093f 5dc0 123f
00000010: 3215 2a3f eb6e 1d3f f805 18bf 2a4e 253f
00000020: 670a 0e3f a004 0f3f a11a 0ebf 4794 16bf
00000030: 055b 0a3f 4a92 103f 8bd2 153f 790b 0abf
00000040: 06a8 10bf d123 1ebf 4a36 16bf 8ceb 28bf
00000050: b71e 0dbf 91e2 083f c173 0cbf 30ed 15bf
00000060: d4ba 1abf 0a62 12bf a91d 283f 0c8d 163f
00000070: 2206 1d3f 024f 0e3f 5fc4 333f 037d 15bf
00000080: f154 21bf 2bcf 313f 6d39 1abf 7428 0b3f
00000090: 2e79 113f a858 0a3f 7706 0abf 51df 093f
000000a0: 0fad 13bf 775e 0ebf 829b 1e3f d717 243f
000000b0: 81dc 0ebf c63f 0d3f f4ae 0e3f 6b21 233f
000000c0: ee27 293f 3912 1a3f 8f37 2bbf fe89 16bf
000000d0: 148c 12bf 19cf 1ebf 031f 10bf 80e8 173f
000000e0: f29c 2abf 8d65 1abf 6981 1dbf 532a 1c3f
000000f0: 8f0b 0fbf 4617 123f 271c 113f cf57 073f
0.6389943 -0.60305876 0.53613883 0.57324773 0.6643859 0.6149737 -0.5938411 0.64572394
0.5548462 0.5586643 -0.5550938 -0.58820003 0.54045135 0.5647322 0.5852439 -0.53923756
-0.56506383 -0.617734 -0.5867659 -0.65984416 -0.5512499 0.5347071 -0.54864126 -0.58565044
-0.6044133 -0.57180846 0.6567026 0.5880897 0.6133748 0.55589306 0.70221514 -0.5839388
-0.63020235 0.6945674 -0.60243875 0.543586 0.5682553 0.5404153 -0.53916115 0.5385638
-0.5768594 -0.5561289 0.61956036 0.64098877 -0.5580521 0.55175436 0.5573571 0.63722867
0.6607655 0.60184056 -0.6688165 -0.5880431 -0.5724499 -0.62034756 -0.5629732 0.5933914
-0.6664573 -0.60311204 -0.6152559 0.6100208 -0.5587701 0.5706676 0.5668358 0.5286836

bn2.running_mean f4 [64]
00000000: 9c3d f43e bc16 5e3e 2744 af3e 890d fc3e
00000010: 66e5 9d3e cb6e 973e 6468 753e 2a9b 6f3e
00000020: e173 063f 2801 2e3e c522 db3e 844f c73e
00000030: 9004 ca3e 2670 073f 4b30 253e 242c 5d3e
00000040: c12f ce3e 9956 aa3e ee42 d63e ea12 053f
00000050: 9668 c53e 06e2 913e 6391 cc3e 082e b33e
00000060: a3c9 e33e 6ed1 4a3e 7fd8 f13e 9cd0 cb3e
00000070: eef5 903e 792a 123f 1d73 e03e 4dce 933e
00000080: 13b4 013f ec69 e03e efa9 853e 8619 a53e
00000090: e49c 083f 5693 883e edae 7a3e f0b1 903e
000000a0: 80d7 153e 695d db3e e29c b93e 3658 3b3f
000000b0: cc2d cd3e 50a2 183f a3dc b23e b083 cc3e
000000c0: 128b 803e 99b1 083f 0c36 d43e 447f cd3e
000000d0: 9664 0b3f fffd bc3e 9cc1 723e d6a7 123f
000000e0: a8d6 ea3e 2f12 ff3e 3938 1d3f 7229 863f
000000f0: a507 743e cf24 f63e 1279 003f 4abb 663e
0.47703254 0.2168836 0.34231684 0.49229077 0.3083908 0.29576716 0.23965603 0.23399034
0.5252057 0.16992629 0.42799965 0.38927853 0.39456606 0.529055 0.16131704 0.2159887
0.40270808 0.33269194 0.41847938 0.51981986 0.38556355 0.28492755 0.3995467 0.34996057
0.44489774 0.19806454 0.47235486 0.39807594 0.2831263 0.5709606 0.43837824 0.28868333
0.50665396 0.43830812 0.26106212 0.32246035 0.53364396 0.26674908 0.24480791 0.28260756
0.14632988 0.42844704 0.36252505 0.73181474 0.40074003 0.5962267 0.34933957 0.3994422
0.25106102 0.5339599 0.41447484 0.40136158 0.54450357 0.36912534 0.23706669 0.5728735
0.45866895 0.4981856 0.61413914 1.0481398 0.23831041 0.48074958 0.5018474 0.22532383

bn2.running_var f4 [64]
00000000: 8e9e 8d3e b9a9 7a3d 5a79 ee3d c23d 773e
00000010: 84a1 643e 58fa e43d 9fcf 1f3e 64ee c43e
00000020: 95ca a93e 5479 a53d 697d a63e dd28 263e
00000030: ede0 343e e4ff 953e f1ca ad3e 31e5 603d
00000040: 592b 0d3e cd72 fe3d 05f1 8b3e f722 a23e
00000050: b27f 1a3e 0fa4 f93d 20e1 213e 2f6c 173e
00000060: 2665 493e 156f fd3e 0330 683e 00eb 203e
00000070: e895 c73d 17da c63e b71e 423e 7068 d63d
00000080: 1d1a 823e 31ac 433e 23ca 063e 1778 043e
00000090: 589d 903e 9fb7 9f3d 3eed 963d 2ec4 c83d
000000a0: a4ae 6f3e 785a 3d3e 1425 033e 4a82 203f
000000b0: aabc 813e e0fa b73e d5be f43e 2ac9 773e
000000c0: 21da c33d cfd0 c93e b8fc 3b3e 2a57 3b3f
000000d0: 98f1 ad3e da16 0b3e 1f41 8d3d c836 ad3e
000000e0: 8eeb 733e 5ea1 813e b857 f13e 72a0 8b3f
000000f0: 1412 b23d eca3 f93e 6d26 803e f7b9 ab3d
0.2766003 0.061197016 0.1164424 0.24144652 0.22327238 0.11180562 0.15606545 0.38463128
0.3316237 0.08079782 0.32517555 0.16226526 0.17663927 0.29296792 0.33943895 0.054906074
0.13786067 0.1242424 0.2733232 0.316673 0.15087774 0.12189495 0.15808535 0.14787363
0.19667491 0.4949881 0.22674565 0.15714645 0.09745389 0.38838264 0.1895703 0.104691386
0.25410548 0.19108655 0.13163047 0.12936436 0.28245044 0.07798695 0.07369469 0.09803043
0.23406464 0.18491542 0.12807113 0.62698805 0.25339252 0.3593359 0.47801843 0.24197832
0.09563089 0.3941712 0.18358123 0.73179877 0.33973384 0.13582936 0.068971865 0.33830857
0.23820326 0.25318426 0.47137237 1.0908339 0.086948544 0.48757875 0.25029317 0.08385079

fc3.weight f4 [1, 64]
00000000: 4fa7 e2be eac8 e33e 997d debe 8acb e1be
00000010: 94f6 0cbf ace1 e5be a99f ff3e bf3e 0cbf
00000020: 6e44 10bf 9f3b 15bf 533a 143f c661 013f
00000030: 29f6 0abf e4e8 0abf 8da8 15bf e96d fd3e
00000040: e36f e23e 484a fc3e 8e18 053f aed9 e13e
00000050: 11f1 f03e 79e5 e2be f7e4 fc3e e142 da3e
00000060: 292f fc3e eb39 0a3f 3fbf e9be 475b dbbe
00000070: 231c fcbe 14be 04bf b4d6 fbbe 5620 013f
00000080: 7f5e e03e e1ba f4be 3077 dd3e 23f4 fcbe
00000090: d1ab eabe fa25 f1be 3636 083f d213 00bf
000000a0: f168 eb3e 3d1f ff3e f1f6 dfbe 1eb6 f8be
000000b0: 2804 023f da3f edbe 6fbc 23bf 5e5d ddbe
000000c0: e500 f8be e539 0abf d6ce ea3e caa6 113f
000000d0: b767 cf3e d520 ec3e 89ce fb3e ff4e e3be
000000e0: 8e28 023f e33e f43e a387 063f 910f dabe
000000f0: a76e 0d3f 978b 15bf c143 cebe 271d f4be
-0.4426827 0.44489223 -0.43455198 -0.441006 -0.5506375 -0.44898736 0.499265 -0.5478324
-0.56354415 -0.582941 0.57901496 0.50539815 -0.5428186 -0.5426161 -0.58460313 0.49497917
0.44225988 0.49275422 0.5199059 0.4411139 0.4705892 -0.443157 0.49393436 0.4262915
0.4925473 0.53994626 -0.45653722 -0.42843077 -0.49240217 -0.51852536 -0.49187243 0.50439966
0.43822095 -0.47798827 0.43254995 -0.49405012 -0.4583421 -0.47099286 0.5320772 -0.50030243
0.459785 0.4982852 -0.4374309 -0.48576444 0.5078759 -0.46337777 -0.639594 -0.43235296
-0.48438182 -0.5399459 0.45860928 0.56895125 0.40508816 0.461188 0.4918101 -0.44396207
0.5084313 0.4770423 0.52550715 -0.4259 0.5524697 -0.5841612 -0.40286067 -0.4767849
