DQN_preTrained/cstr_ode/DQN_cstr_ode_0_1.pth (torch, 117380 bytes, 19 tensors)

fc1.weight f4 [128, 4]
000000 e2 9d 34 3d d5 ba 69 3e 4c 4b c1 be 9f 46 c8 be
       0.04409588 0.22825177 -0.3775276 -0.3911638
000010 2e ba 5a be ef 21 2c 3e 9a 1a cf bc d8 1b c3 3e
       -0.21360084 0.1680982 -0.02528124 0.3810718
000020 3a b7 9e bd 7c b9 31 3e 32 8b 30 be 0c 83 56 bd
       -0.077497914 0.17355913 -0.17240599 -0.05237107
000030 f8 46 d3 be ba 06 cb be dd 98 2f be 10 d8 f4 3c
       -0.41265082 -0.3965357 -0.17148156 0.029888183
000040 8f 0a 30 3e 51 d0 a6 3e 59 45 b3 be 34 78 4d be
       0.17191528 0.32580808 -0.35013846 -0.20065385
000050 a6 14 1a 3e f9 59 dc 3e d6 cd cb bd 8b df b5 3e
       0.15046939 0.43037394 -0.099513695 0.35522112
000060 1a 1e ce bd c5 37 5e 3d 82 58 e7 3e c2 de ed be
       -0.10064335 0.054252405 0.45184714 -0.46459013
000070 96 4b a5 be c6 84 24 be d2 e5 3a be 5b 3a d2 3e
       -0.3228423 -0.16066274 -0.18251732 0.41060147
000080 b3 5a 98 be c6 6a 6f be d0 ed 9c be 8e fb 06 bf
       -0.29756698 -0.23380575 -0.30650187 -0.5272759
000090 b5 7f 9f be c0 db df 3e 8e 46 7f 3e d1 83 41 3e
       -0.3115212 0.43722343 0.24929258 0.1889794
0000a0 c9 b5 43 bc 43 96 60 be b9 e5 05 3e 28 11 ed be
       -0.011945196 -0.2193232 0.13075913 -0.46302152
0000b0 7c 53 b9 be 46 21 8f be 4a ad a1 3e 0b 60 95 3e
       -0.36196506 -0.27955073 0.31577522 0.29174837
0000c0 1b a7 80 be 43 43 28 bd 89 64 9a 3e ed 4c f5 3e
       -0.2512749 -0.04107977 0.30154827 0.47910252
0000d0 be 3f 4c 3e 66 b0 85 3d df bc bf 3e dd f3 94 be
       0.1994619 0.06527786 0.37448785 -0.29092303
0000e0 9a 33 b7 3d 9a ad ca be ee cf b7 be 3d f7 67 be
       0.08945389 -0.39585572 -0.35900825 -0.22652908
0000f0 16 05 76 3e 2d 82 3f 3e 0a 7d 90 be c8 ad 1a 3e
       0.24025378 0.18702002 -0.28220397 0.15105355
000100 b6 83 5b 3e 7f d0 5d bc bb 18 9f 3d dd ee 07 3e
       0.21436962 -0.013538479 0.07768389 0.13274713
000110 ab be 9a 3e 94 d7 f9 3e ff 63 c9 be ec a1 3b be
       0.30223593 0.48797286 -0.39334103 -0.18323487
000120 f3 73 3e 3e aa 63 d5 3e ec 23 f0 3e 46 d9 ac 3e
       0.18598919 0.416776 0.46902406 0.33759516
000130 dc a7 f8 3d cf 4c ea be 0b 2e 22 3d 69 6f 73 be
       0.12141392 -0.45761725 0.03959469 -0.23772968
000140 8e 0b d7 be 73 34 be 3e 27 ae b7 3e b4 05 11 bf
       -0.42001003 0.3714939 0.35875055 -0.5664933
000150 08 aa bf 3d c8 80 ac bd b8 82 a8 bd 1c 5f 6a be
       0.09358603 -0.084230006 -0.082280576 -0.22887844
000160 fb 1d 96 3e b6 b4 aa be b8 53 81 3e 86 b1 5c 3e
       0.29319748 -0.33340997 0.25259185 0.21552095
000170 58 ab c6 3e 1c 00 18 3e a1 f2 e5 be c7 34 b8 be
       0.388026 0.14843792 -0.44911674 -0.35977766
000180 c7 df 8d 3e fe 04 9e 3d 17 b3 b8 be 65 a4 99 be
       0.2770979 0.07715796 -0.36074135 -0.30008236
000190 f2 d4 f0 3e 54 7f ac 3e b0 3e 5f be d4 dc 00 be
       0.47037464 0.33690894 -0.21801257 -0.12584239
0001a0 a6 68 ed be 29 29 88 bc 5b 3a c5 be 95 b6 c4 be
       -0.46368903 -0.01662119 -0.38521084 -0.3842055
0001b0 39 a8 81 bc fa 27 6c 3d 43 fb 37 be 50 97 9a 3e
       -0.015827285 0.057655312 -0.17966942 0.30193567
0001c0 86 a4 aa be be 5a cf 3e 55 3e a0 3e 96 21 02 bf
       -0.33328646 0.40498918 0.31297556 -0.508325
0001d0 42 92 02 be 3c 9d 8a 3c 3b f7 9a 3d 9b d8 12 3e
       -0.12751105 0.016920678 0.07566687 0.14340441
0001e0 ab ff 50 3e 49 b1 b4 3c 37 ba 71 be b8 53 83 3e
       0.2041003 0.022057192 -0.23606192 0.2564981
0001f0 ff 7f f9 be e4 8b 94 be 44 3f 00 be a2 30 6c be
       -0.48730466 -0.29012978 -0.12524134 -0.23065427
000200 6d e6 18 be d5 cc d9 be 09 37 d2 bd 5e 06 33 3e
       -0.1493165 -0.42539087 -0.102644034 0.17482898
000210 eb 44 aa be 66 90 4b bd c9 c0 b2 3e e8 9e b9 bd
       -0.33255705 -0.049698256 0.34912708 -0.09063512
000220 13 ba 6f 3c a2 a4 59 bd 3f 8b d3 3d 04 da a3 3e
       0.014631766 -0.05313552 0.103292935 0.3200227
000230 95 8a d5 3e 13 4b c0 3e 30 c9 01 3f e7 c2 94 3a
       0.41707292 0.37557277 0.5069761 0.0011349589
000240 1e bc b9 be f4 d8 9f be 22 15 ce 3e f0 bd 0e 3c
       -0.36276335 -0.3122021 0.40250498 0.008712277
000250 fc f8 82 be 10 5e b5 be f8 08 00 bf ce be ec be
       -0.25580585 -0.35423326 -0.50013685 -0.46239322
000260 74 7b 31 be 6c 97 a9 3e c5 9e 4e 3e f0 cc d3 be
       -0.1733225 0.33123338 0.20177753 -0.41367292
000270 53 f0 a7 3e e6 f8 cd be f0 7b d8 bd fe 28 66 be
       0.3280054 -0.40228957 -0.10570514 -0.22476575
000280 57 6a af bd ab b7 a1 bd e6 4d ea be 89 59 dd be
       -0.085652046 -0.0789636 -0.45762557 -0.43232372
000290 28 3c a0 bd 80 e1 d3 3b b8 96 68 be b8 de 40 3e
       -0.07823974 0.0064660907 -0.22713745 0.1883496
0002a0 95 2b e3 be 62 3e 4d bd fc bd e5 3e e2 4b 82 be
       -0.44369188 -0.05010832 0.4487151 -0.2544852
0002b0 db a6 f6 3e cf de 2e 3e f3 ab d7 be 10 b2 89 3e
       0.48174176 0.17077182 -0.42123374 0.26893663
0002c0 2c 9b 3c bd 25 29 63 be 33 f0 d5 3e 29 fb b6 be
       -0.04604642 -0.22183664 0.4178482 -0.35738495
0002d0 20 e8 91 3c 09 46 9f bd 4b e3 c9 3e ca 92 0e 3e
       0.017810881 -0.0777703 0.39431223 0.13923183
0002e0 8b b5 84 3e 5d e5 1e 3e 2e de f7 bd 34 55 0c be
       0.25919756 0.15517183 -0.12102924 -0.13704377
0002f0 81 e3 d3 be 65 1e 9d 3e cf 5b c4 3e c1 7e bc 3e
       -0.4138451 0.30687252 0.38351294 0.36815456
000300 ac 93 b4 be 60 ae b6 3c 90 76 b4 be 88 ec 8c be
       -0.35268915 0.022299945 -0.35246706 -0.2752421
000310 a2 c9 6f be d7 e5 e8 3d 5f 84 76 be 00 ba 32 bc
       -0.2341676 0.113719635 -0.24073933 -0.010908604
000320 96 0c ec 3c e8 ec a0 3e 4a d6 ba be 5f 67 b4 be
       0.028814595 0.31430745 -0.36491615 -0.35235116
000330 bd 09 a1 be d7 45 ba 3e f7 29 2a be c5 6f d2 3e
       -0.31452742 0.3638141 -0.16617571 0.41100898
000340 a0 24 39 3e 40 aa 81 3d 00 ed 73 bb 08 6d ca bd
       0.18080378 0.06331301 -0.003722012 -0.09884077
000350 46 8d 4c 3d 95 2c 3a bd 59 32 49 3d b9 1e 23 3e
       0.049939416 -0.045452673 0.04912028 0.15929689
000360 d4 22 bf be 40 f3 83 be b4 26 d9 3e 5c 3a da be
       -0.3733126 -0.25771523 0.4241234 -0.4262265
000370 14 2d ac bd 1a eb 05 3f c2 d0 07 3e a8 d6 02 bc
       -0.084070355 0.5231186 0.13263229 -0.007985748
000380 27 38 d0 be 07 90 62 3e e4 44 89 be e2 ed 14 be
       -0.4066784 0.22125255 -0.26810372 -0.1454387
000390 d6 c0 6c be cc 92 e4 bb 0d b1 58 bc 3d cd bf 3e
       -0.23120436 -0.0069755074 -0.013225806 0.37461272
0003a0 32 45 6b 3d e2 04 da 3e 62 f7 a4 3e f7 49 b5 be
       0.057439037 0.4258185 0.32219988 -0.35407993
0003b0 06 c6 82 3e 2b 15 a2 be 33 39 5e be 04 af cd 3d
       0.25541705 -0.31656775 -0.21701507 0.10043147
0003c0 83 fd 16 3e 3b 16 c9 3e 88 e6 36 be 00 d4 51 3a
       0.14745145 0.39274773 -0.17861378 0.0008004308
0003d0 09 e8 84 3e 32 90 d6 be 5c 53 cc 3e 75 cb be be
       0.2595828 -0.41906887 0.39907348 -0.372646
0003e0 dd dd 49 3b f2 c4 a4 bd e0 5f 56 be d1 32 08 3e
       0.0030802407 -0.08045377 -0.20935011 0.13300635
0003f0 b9 d8 db 3e 8a 7b 08 be b6 bc 94 be d5 f9 52 be
       0.42938784 -0.13328376 -0.29050225 -0.20603116

fc1.bias f4 [128]
000000 5d 70 01 be f9 9c 4e be 07 54 9d 3d b7 f6 7b 3e
       -0.1264052 -0.20177068 0.076820426 0.24605833
000010 ca 53 81 be c7 5f 47 3d 55 4c 8a 3e aa 1b e0 bc
       -0.25259238 0.048675325 0.27011362 -0.027356941
000020 29 9d 3a 3e dd 80 a0 bd 59 0a 01 3e 01 2b ba be
       0.18224014 -0.07837079 0.12601604 -0.36360934
000030 ab bb 9f be c6 2f 4f be bc f9 dd 3e 04 14 18 be
       -0.31197867 -0.20233068 0.43354595 -0.14851385
000040 e1 b9 56 bd 52 d7 6f be e6 64 00 3f fa e2 fd 3e
       -0.05242336 -0.23421982 0.5015396 0.49587232
000050 4a 71 a1 be 10 88 cf be ce 90 9e be 6d 03 81 3d
       -0.31531745 -0.40533495 -0.30969852 0.062994815
000060 3d dc 1b be 4e 90 a7 be a7 2b 40 be 6e e7 f0 3d
       -0.15220733 -0.32727283 -0.18766652 0.11762892
000070 03 41 94 be ac 17 b4 3d 41 f7 fa bd 72 a7 82 be
       -0.2895585 0.087935776 -0.12254191 -0.25518376
000080 c3 e6 98 3d 02 16 cf 3e e4 ff ab be b6 7e f5 bc
       0.07465889 0.40446478 -0.33593667 -0.029967647
000090 9c 88 fa bd fd 24 ea 3e 08 fd 0a bf 5a 23 ea be
       -0.122330874 0.45731345 -0.54292345 -0.45730096
0000a0 eb cb 07 3f f8 f7 a1 be c2 17 ce 3d 18 9a 07 bd
       0.5304553 -0.31634498 0.10063125 -0.03310594
0000b0 7d a3 af bd 54 6f 98 bd b3 e6 9c 3e 87 f8 5f 3b
       -0.08576105 -0.07443109 0.3064476 0.0034175233
0000c0 ce 3e f9 be 6b 6d b4 be da 34 2b be d6 5c 73 3e
       -0.4868073 -0.3523973 -0.1671938 0.23765883
0000d0 8e aa a5 be b4 11 e7 3e 18 eb c3 bd 68 37 0d be
       -0.32356685 0.45130694 -0.09566325 -0.13790667
0000e0 50 58 e0 3e 7f a1 87 3e d5 42 b4 3e 25 6e 8f 3e
       0.43817377 0.264904 0.3520724 0.2801372
0000f0 d3 3c 09 be 42 2b a3 be 60 3b 20 bd 9a ae d4 3e
       -0.13402109 -0.3186894 -0.039119124 0.4153946
000100 1a 3c 3d be b5 6c f9 be 52 dc 19 3e fd 0e f8 3e
       -0.18479958 -0.4871575 0.15025452 0.48448935
000110 d7 48 f4 bd 2d 3d de be 15 a7 f7 be ec f3 69 3d
       -0.119279556 -0.43406048 -0.4836966 0.057117388
000120 a8 a3 35 bd 2d 5c 5a be 1f 7a 1b 3d 08 84 7c 3e
       -0.044345528 -0.21324225 0.03795826 0.24659741
000130 fd cc d0 3e 25 5b c9 3e ef 5f 88 bd 7e bb e1 be
       0.40781394 0.3932735 -0.06658923 -0.44088358
000140 d8 53 e7 be c3 d4 ee 3e 58 ce 6b 3e b1 78 82 3e
       -0.45181155 0.466467 0.23027933 0.25482705
000150 64 b5 03 bf 92 39 ec 3e af b8 e6 3e 0b dc e8 3e
       -0.51448655 0.46137673 0.45062777 0.4548038
000160 30 f5 d7 be 83 09 67 be e7 0a c4 be a9 97 0d 3f
       -0.4217925 -0.22562222 -0.38289568 0.5530954
000170 2a ed 5c be 42 00 5f be 49 e1 80 3e cd 5d 69 be
       -0.21574846 -0.21777442 0.2517188 -0.22789688
000180 fb f0 96 be c5 13 5c bc c1 81 c6 bc 22 6b c7 be
       -0.29480729 -0.013432448 -0.024231793 -0.38948923
000190 53 4f dd 3e f8 ac 76 be 81 f6 1e 3e b0 86 df 3e
       0.43224582 -0.2408942 0.15523721 0.43657446
0001a0 47 2b 65 3e f1 32 e7 3d 53 c4 d6 3e 1f db f4 3c
       0.2237979 0.11289013 0.41946658 0.029889641
0001b0 56 d6 8a be 88 66 bf 3e 2d 89 f1 3d 38 c6 f9 be
       -0.2711665 0.37382913 0.11793742 -0.4878404
0001c0 15 78 b3 bd fe 60 ae be 21 06 e7 3e ca f7 c4 bd
       -0.08763138 -0.34058374 0.45121863 -0.096175745
0001d0 b2 59 e9 be 61 c4 1d 3b 78 d7 ac 3e 80 74 b5 3d
       -0.45576245 0.002407335 0.3375814 0.08860111
0001e0 cb 9f c0 3d aa ea 93 3d 71 e4 6a 3e bc 03 16 be
       0.09405478 0.07222493 0.22938706 -0.14649862
0001f0 21 9a 15 be 0e 49 ef be 88 6c ab be ea 6a 73 3e
       -0.14609577 -0.46735424 -0.3348124 0.23771253

bn1.weight f4 [128]
000000 09 ec 7c 3f ea 38 7b 3f 00 b0 74 3f 53 b3 82 3f
       0.9879766 0.9813372 0.95581055 1.0210975
000010 29 10 80 3f 92 26 80 3f 00 42 77 3f ef a6 7d 3f
       1.0004932 1.0011771 0.96585083 0.99082845
000020 da c8 7e 3f 26 03 8c 3f e3 80 81 3f 66 25 7f 3f
       0.99525225 1.0938461 1.0117458 0.9966644
000030 b8 33 7d 3f 69 d0 80 3f 31 ed 80 3f 41 d7 74 3f
       0.9890704 1.0063602 1.0072385 0.9564095
000040 03 b5 7a 3f 2b 62 81 3f b2 00 85 3f 0f 03 72 3f
       0.9793245 1.0108083 1.0390837 0.9453592
000050 14 a8 8a 3f 00 00 80 3f 26 88 81 3f 6c 2a 7d 3f
       1.0832543 1.0 1.0119674 0.98892856
000060 d6 e0 77 3f 00 00 80 3f 55 e8 76 3f be 6a 7e 3f
       0.9682745 1.0 0.9644826 0.99381626
000070 8b 8b 89 3f 57 9b 7d 3f fe 19 77 3f f1 f3 7f 3f
       1.074571 0.99065155 0.96524036 0.999816
000080 61 8c 7a 3f 04 b6 73 3f c7 2f 7e 3f dd 9c 83 3f
       0.9787045 0.9519961 0.9929165 1.0282246
000090 e3 aa 6e 3f c6 0e 7f 3f 83 02 74 3f 5c cc 84 3f
       0.932295 0.9963192 0.9531633 1.0374866
0000a0 55 38 79 3f 00 00 80 3f 01 3d 7c 3f 5c bf 82 3f
       0.9735158 1.0 0.98530585 1.0214648
0000b0 b3 55 7c 3f f1 07 7b 3f 24 d0 84 3f 91 ac 84 3f
       0.98568267 0.9805899 1.037602 1.0365163
0000c0 00 00 80 3f 6b dc 79 3f 1e 3e 7a 3f 9d f4 7c 3f
       1.0 0.97601956 0.97751033 0.9881075
0000d0 00 00 80 3f e9 48 7b 3f f8 88 80 3f 08 de 86 3f
       1.0 0.9815813 1.00418 1.0536509
0000e0 8a 45 7f 3f 20 69 6e 3f 5b 9b 74 3f f8 9d 7a 3f
       0.99715483 0.9312916 0.95549554 0.9789729
0000f0 68 a5 7d 3f 09 7c 82 3f d8 cf 72 3f 1f 52 7f 3f
       0.99080515 1.0194103 0.94848394 0.9973468
000100 8c f2 70 3f 14 7b 81 3f 36 a1 79 3f 3c ff 75 3f
       0.941201 1.0115685 0.97511613 0.9609258
000110 33 a8 7f 3f 00 eb 7a 3f 58 cc 78 3f 4b 1d 7b 3f
       0.99866027 0.9801483 0.97186804 0.9809157
000120 c4 12 80 3f 1d 2f 8e 3f 6e 58 7d 3f 81 93 86 3f
       1.0005727 1.1108128 0.9896306 1.0513765
000130 ee 1a 82 3f 91 f8 7e 3f 96 e8 83 3f 00 00 80 3f
       1.0164468 0.9959803 1.0305355 1.0
000140 00 00 80 3f ec 23 77 3f 27 d9 77 3f 6a 0b 82 3f
       1.0 0.9653919 0.96815723 1.0159733
000150 c3 2f 7c 3f a7 af 7d 3f 5f d4 77 3f 58 85 84 3f
       0.9851038 0.9909615 0.9680843 1.0353193
000160 00 00 80 3f cc 34 75 3f 07 f1 7b 3f dd c0 7b 3f
       1.0 0.95783687 0.98414654 0.9834116
000170 26 57 7e 3f 50 07 81 3f 40 e2 82 3f 43 b0 82 3f
       0.9935173 1.0080357 1.0225296 1.0210041
000180 98 59 81 3f dd f0 87 3f 08 f9 7e 3f 00 00 80 3f
       1.0105467 1.0620381 0.9959874 1.0
000190 72 c9 7d 3f f7 b4 76 3f 66 0b 82 3f e8 0f 82 3f
       0.99135506 0.9636988 1.0159729 1.0161104
0001a0 e3 ce 78 3f c6 a0 79 3f 14 7e 76 3f 4c e0 7b 3f
       0.97190684 0.97510946 0.9628613 0.98389125
0001b0 81 b8 81 3f 2c b0 82 3f 47 69 76 3f 00 00 80 3f
       1.0134431 1.0210013 0.9625439 1.0
0001c0 9e 12 80 3f 00 00 80 3f 04 d6 78 3f 08 0d 78 3f
       1.0005682 1.0 0.9720156 0.96894884
0001d0 00 00 80 3f a2 fd 70 3f db be 7f 3f 22 45 80 3f
       1.0 0.9413701 0.999006 1.0021098
0001e0 c9 3c 80 3f ec a9 87 3f dd 1d 76 3f 28 44 82 3f
       1.001855 1.0598731 0.9613932 1.017705
0001f0 9a cb 7e 3f 00 00 80 3f 16 ff 8d 3f 78 1a 80 3f
       0.9952942 1.0 1.1093471 1.0008078

bn1.bias f4 [128]
000000 2b 7e 38 3c f5 0f 7d 3d d1 e5 bd 3d 95 9f 77 bd
       0.01126055 0.061782796 0.092723496 -0.060454924
000010 0a 98 72 3d d9 27 7f bd 56 72 ad 3b 7b 0d 7b 3d
       0.059227027 -0.06229386 0.005293171 0.061292153
000020 79 14 b6 bd e1 6c 8c 3d 6d d7 a7 3d 1f 20 17 3d
       -0.088906236 0.068567045 0.08195386 0.036895867
000030 b8 dd 9e bd 6a 53 52 3d 3d 46 b8 bc cb 92 d9 bd
       -0.07757133 0.05134908 -0.02249443 -0.10623702
000040 fc d6 cf 3d c2 97 97 bc 33 67 9f bc bc b2 91 3d
       0.10148427 -0.018504981 -0.019458389 0.07114169
000050 fb 61 72 bd 1a 92 e8 3d 94 20 1d 3d 77 65 cb bc
       -0.059175473 0.11355992 0.038361147 -0.024828656
000060 52 63 08 bd e1 92 9b bd 64 83 91 3d 80 93 46 3d
       -0.033297844 -0.07596374 0.07105139 0.04848051
000070 1e e3 c6 bd 8b 62 af bc f9 ab b1 bc 0d ef 7f bd
       -0.09711288 -0.021409294 -0.021688448 -0.062483836
000080 b1 68 1f b8 8d 19 64 bd 76 f1 42 bd 6c d3 00 3d
       -3.8006056e-05 -0.05568843 -0.047593556 0.031451628
000090 e1 67 47 bd aa 6e 8e bc 39 33 20 3d 0e 98 b7 3d
       -0.04868305 -0.017386753 0.03911135 0.08964549
0000a0 34 89 05 3d 7c 20 a2 3c f4 1f 83 bb e2 c0 ac bc
       0.03260155 0.01979088 -0.004001612 -0.021088067
0000b0 d9 9a 21 3d 2e 8a 7e bc 51 77 b8 bd 66 9e 59 3d
       0.039454315 -0.015535874 -0.09007133 0.053129576
0000c0 3f 64 cd 3d 39 65 ab bc 04 38 26 3c fd 2a b3 3d
       0.10028886 -0.02092229 0.010145191 0.08748434
0000d0 b4 55 15 bd 1d a6 21 3d 74 2c 1f ba 34 21 a2 bd
       -0.036458686 0.03946506 -0.00060719927 -0.07916489
0000e0 cf d3 ad bc b8 e5 b2 3d e1 a7 39 bd 8e a7 12 bd
       -0.021219162 0.087352216 -0.045326117 -0.035804324
0000f0 59 0e 10 3d 9a 1f 81 3d 95 6c 28 bd 88 51 85 bd
       0.035169933 0.06304856 -0.041119177 -0.065096915
000100 fc 6a 3d bd bf a2 a2 3d 1d 07 ca bb 98 7a 8a 3d
       -0.046244606 0.079411976 -0.0061653988 0.06761664
000110 36 71 30 3d 20 73 57 3d ed bc a7 3d c0 de 06 3d
       0.043076716 0.052600026 0.081903316 0.032927275
000120 3b d6 ac 3c 49 c6 bc bd 6e 15 8d 3c c8 87 98 ba
       0.021098247 -0.092175074 0.017222133 -0.0011637146
000130 59 50 8f bc df bf 1e bd 73 46 35 3d ba b3 81 3d
       -0.017494367 -0.0387572 0.04425664 0.06333108
000140 4c ad c7 3d c3 35 47 bd 7b d6 02 3c 66 f0 79 3c
       0.09749851 -0.048635256 0.007985706 0.015255069
000150 75 8b a6 bd c8 d4 74 bc ef 0d 37 bc 87 ea 4f 3d
       -0.08132068 -0.014943309 -0.011172756 0.050760772
000160 85 b4 a9 bd a2 04 e7 bb 48 f9 e3 3c 0c 12 04 3b
       -0.082863845 -0.007050113 0.027828828 0.0020152358
000170 94 c7 81 bd 2d 3d 1f bb b3 a6 a5 3d c3 8b 8b 3d
       -0.06336895 -0.0024297938 0.08088436 0.06813767
000180 7d 4d bb bd 0b 50 4e 3c 5f b9 37 bb e7 53 df 3d
       -0.09145639 0.012592326 -0.0028034074 0.10904675
000190 12 d4 5f 3d 51 8d 03 3c 8f 15 02 3b 14 d1 23 bd
       0.054645605 0.008029298 0.0019849276 -0.039994314
0001a0 e1 af 6f bd ac 3d eb 3c 37 fe 90 3d bb 48 1a bd
       -0.05851734 0.02871593 0.07079738 -0.037667017
0001b0 35 39 b6 bd 24 5b 7b bd 32 c0 9b bd 6b 64 c4 bd
       -0.0889763 -0.061366215 -0.07605018 -0.09589466
0001c0 4e bc 71 3c 98 4a 96 3d f7 d2 da 3d 90 95 b3 3c
       0.014754368 0.073384464 0.106847696 0.021921903
0001d0 a0 9c 00 bd 7a a0 22 bd f2 42 1e bd e7 e8 71 bc
       -0.03139937 -0.039703824 -0.038638063 -0.014765001
0001e0 3e 42 1e 3d 2a a6 fe 3c 4a 08 ac 3d fb 05 3f 3d
       0.038637392 0.031085093 0.084000185 0.046636563
0001f0 de 7f 69 3d f6 a9 c4 bd c8 a8 92 3d 55 97 40 3d
       0.05700671 -0.0960273 0.07161099 0.04701932

bn1.running_mean f4 [128]
000000 6e 43 25 3b 0d 8f 07 12 70 3c ac 3b 59 d2 c3 3d
       0.0025217193 4.2774813e-28 0.005256228 0.09561605
000010 a1 07 77 3a 0e 12 06 3b 7c 45 df 3e 31 61 48 3b
       0.0009423439 0.0020457539 0.436077 0.0030575509
000020 45 1f 82 3d d7 32 98 3c c0 99 6f 3e 64 9e b9 12
       0.063536204 0.01857893 0.23398495 1.1714188e-27
000030 4e 60 57 13 ef ed e4 3d 2b a7 c5 3e 48 4c 55 3a
       2.7184297e-27 0.11178195 0.38604102 0.0008136672
000040 f5 62 a0 3d 2e bf b6 3a ab 0b 35 3f 98 a9 2a 3f
       0.078313746 0.0013942474 0.7072093 0.6666503
000050 8e 0b 00 00 00 00 00 00 cc 46 0f 3d 61 55 d8 3d
       4.145e-42 0.0 0.034979627 0.1056316
000060 e3 37 9a 3a 00 00 00 00 4c 59 4c 3b 33 c2 43 3d
       0.0011765923 0.0 0.0031181155 0.047792625
000070 2d 0a 00 00 d7 73 8e 3d 2d ce e9 39 04 00 00 00
       3.65e-42 0.069556884 0.00044594836 6e-45
000080 79 8d 9d 3d dc ba e6 3e 31 43 59 12 8e 7e 9d 3e
       0.076929994 0.45064437 6.8555946e-28 0.30760616
000090 45 48 c7 3d 5d 67 72 3e 04 00 00 00 04 00 00 00
       0.09730581 0.23672242 6e-45 6e-45
0000a0 48 96 96 3e 00 00 00 00 e2 29 56 3e 1d dd a1 3d
       0.2941153 0.0 0.20914415 0.07903502
0000b0 e2 17 2b 3e d1 61 27 3e d0 32 a2 3e 4e 7e e2 3d
       0.1670833 0.16345908 0.31679392 0.11059247
0000c0 00 00 00 00 04 00 00 00 83 0b 13 3b 6f 41 78 3c
       0.0 6e-45 0.0022437281 0.015152319
0000d0 00 00 00 00 16 50 01 3f b3 7c ee 3d 04 00 00 00
       0.0 0.50512826 0.11644878 6e-45
0000e0 be a2 d2 3d 68 cd 2b 3e be 1a de 3e 7a d5 b2 3e
       0.10284947 0.16777575 0.43379778 0.34928495
0000f0 fa 64 2d 3a c1 70 d0 3d cc 69 b3 3a 82 66 f4 3e
       0.0006614473 0.10177756 0.0013688146 0.47734457
000100 51 2d 1b 3b 04 00 00 00 2d bd 26 3e 66 fc fe 3e
       0.0023678134 6e-45 0.16283102 0.4980194
000110 3c b0 4f 3b 04 00 00 00 04 00 00 00 f5 6e 6a 3b
       0.0031690737 6e-45 6e-45 0.0035771702
000120 54 fe 2d 3b ed 02 00 00 cd 1f bd 3e 7b c1 9c 3d
       0.0026549296 1.05e-42 0.36938325 0.07654091
000130 32 69 16 3f 20 95 92 3e 58 c4 16 3e 00 00 00 00
       0.58754265 0.28629398 0.14723337 0.0
000140 00 00 00 00 1f 70 27 3f 5e 6a 67 3e d4 a2 88 3e
       0.0 0.6540546 0.2259917 0.26686728
000150 79 a6 ef 12 99 4c 27 3f a9 b6 ae 3e a0 82 60 3e
       1.5124059e-27 0.65351254 0.34123734 0.2192483
000160 00 00 00 00 65 c8 cb 3a 04 00 00 00 f9 8f 40 3f
       0.0 0.0015547393 6e-45 0.75219685
000170 8d 8b f5 3a 2e 45 35 3b 15 65 f5 3e 33 97 d1 3d
       0.0018733606 0.0027659643 0.47928682 0.10233917
000180 66 aa d1 12 80 25 80 3a fa 01 8f 3b 00 00 00 00
       1.3231761e-27 0.0009776801 0.0043642493 0.0
000190 0d f2 e6 3e b4 f2 2c 3e 1e 38 25 3c ba 02 f4 3e
       0.45106545 0.16889459 0.01008418 0.4765833
0001a0 cd 10 57 3e 69 21 60 3e b6 02 16 3f 80 07 b5 3b
       0.21002503 0.21887745 0.58597887 0.0055245757
0001b0 04 00 00 00 ba 2f 1d 3f 6f a5 ec 3c 00 00 00 00
       6e-45 0.6140095 0.028887479 0.0
0001c0 d3 c6 84 3e 00 00 00 00 e9 0e 65 3e ed 7b 5e 39
       0.2593294 0.0 0.22368969 0.00021217736
0001d0 00 00 00 00 90 df bd 3d 01 c1 0a 3f f3 6a 0d 3c
       0.0 0.09271157 0.5420075 0.008631456
0001e0 b7 38 61 3c 1b df 1f 3e 14 93 58 3e dd 7e 81 3e
       0.013746432 0.15612452 0.21149856 0.25292102
0001f0 70 ff 06 3e 00 00 00 00 95 8e 1d 3d 5b 90 c9 3d
       0.13183379 0.0 0.038466055 0.09841987

bn1.running_var f4 [128]
000000 f6 1b 39 3a 55 f1 06 10 c9 8b 84 3a 8d c0 34 3c
       0.00070613564 2.6612756e-29 0.001011246 0.011032236
000010 ee cb ce 38 57 e8 a5 39 ec 15 76 3d a0 52 04 3a
       9.86083e-05 0.0003164436 0.0600795 0.00050477125
000020 ad 70 d4 3b 53 6e 22 3a 36 04 15 3b 66 02 7d 11
       0.0064831586 0.0006196249 0.0022738106 1.995892e-28
000030 3a 51 aa 12 29 0e 58 3c 91 73 6b 3d 2a 2d 9a 38
       1.0748532e-27 0.01318697 0.05748326 7.351705e-05
000040 77 5c 5c 3a bf 58 62 39 67 80 9b 3d b2 0f b5 3b
       0.00084061123 0.000215861 0.0759285 0.0055255527
000050 09 05 00 00 04 00 00 00 85 84 13 3b 6f d6 59 3c
       1.806e-42 6e-45 0.0022509408 0.013295754
000060 70 31 21 39 04 00 00 00 b5 82 8d 3a b0 01 2f 3b
       0.00015372573 6e-45 0.00107964 0.0026703887
000070 e6 03 00 00 2f 57 46 3b 89 3f b9 37 04 00 00 00
       1.398e-42 0.0030264368 2.2083304e-05 6e-45
000080 cc 55 b9 3b 7e 7f 2c 3d 7c 50 ad 10 08 10 88 3d
       0.0056559797 0.042113774 6.8360474e-29 0.06643683
000090 68 fb 24 3c 89 b4 68 3d 04 00 00 00 04 00 00 00
       0.010069706 0.056812797 6e-45 6e-45
0000a0 56 10 6c 3d 04 00 00 00 26 20 2c 3d 43 a8 04 3c
       0.057632767 6e-45 0.042022847 0.008096757
0000b0 a0 f3 ef 3c eb 6a e5 3c 4f dc a9 3b f8 08 61 3c
       0.029290974 0.028005084 0.0051837335 0.0137350485
0000c0 04 00 00 00 04 00 00 00 de 8b 12 3a e4 31 a3 3b
       6e-45 6e-45 0.00055903 0.0049803127
0000d0 04 00 00 00 4e 06 f7 39 49 f3 6b 3c 04 00 00 00
       6e-45 0.0004711621 0.014401265 6e-45
0000e0 25 c3 6e 3c 7e 92 df 3a d6 08 36 3d 13 02 03 3d
       0.014572893 0.0017057208 0.04444202 0.0319844
0000f0 ad c5 4b 38 a1 14 42 3c 11 2a 5a 39 30 4b 38 3d
       4.858307e-05 0.011845739 0.00020805771 0.04499358
000100 19 34 23 3a 04 00 00 00 b8 e0 6c 3c 99 27 cb 3c
       0.00062257197 6e-45 0.014457874 0.024799155
000110 5c 85 84 3a 04 00 00 00 04 00 00 00 4d a2 74 3a
       0.0010110545 6e-45 6e-45 0.0009332046
000120 c1 2e 4d 3a 53 00 00 00 a3 58 1a 3c 3b 3d 00 3c
       0.0007827096 1.16e-43 0.009420547 0.0078270985
000130 45 07 66 3b 3c 7a 66 3d 95 b2 1c 3c 04 00 00 00
       0.0035099548 0.056268916 0.009564062 6e-45
000140 04 00 00 00 56 6c 17 3d fb 96 4d 3d d2 76 02 3d
       6e-45 0.03696855 0.050192814 0.031851597
000150 7b df d2 11 ed d5 34 3d a5 f1 3c 3d 7a c7 3c 3c
       3.3269888e-28 0.044149328 0.046128888 0.011522168
000160 04 00 00 00 4d ba 8c 39 04 00 00 00 e3 c3 62 3d
       6e-45 0.00026841686 6e-45 0.055362593
000170 79 51 cc 39 25 b4 5e 3a 1e dc 2b 3d d1 0b 4e 3b
       0.00038970614 0.00084954716 0.041957967 0.0031440149
000180 e3 67 a1 11 df cc 5a 38 08 8e 52 3a 04 00 00 00
       2.5465346e-28 5.216605e-05 0.00080320286 6e-45
000190 43 9e 98 3c aa cc f6 3c 2a 98 53 3b 8a 48 2f 3d
       0.018630153 0.030126888 0.0032286742 0.042793788
0001a0 d2 aa 94 3a aa e1 80 3a 13 94 a1 3c ec f3 02 3b
       0.0011342412 0.0009832878 0.019723928 0.0019981815
0001b0 04 00 00 00 00 b5 47 3c a9 0c 75 3b 04 00 00 00
       6e-45 0.01218915 0.003739158 6e-45
0001c0 a5 ce 01 3d 04 00 00 00 35 9a 0b 3d b7 6b a4 36
       0.031691212 6e-45 0.03408261 4.9001205e-06
0001d0 04 00 00 00 86 11 0a 3c a1 6a 3b 3c 24 3d 58 3b
       6e-45 0.0084270295 0.0114389965 0.0032995427
0001e0 b0 a5 84 3b 1a af ce 3c 57 7d d3 3b 69 39 18 3d
       0.004048072 0.02522998 0.0064541507 0.037164126
0001f0 61 50 96 3c 04 00 00 00 21 8f ed 3a f6 bf 11 3b
       0.018348875 6e-45 0.0018124321 0.0022239662

fc2.weight f4 [128, 132]
000000 68 82 a8 bd 52 59 0b 3d 14 67 f3 3a 71 d1 79 bd
       -0.08227998 0.03402073 0.0018570148 -0.060990755
000010 8d b6 0b bd 0f 61 a6 3c d0 72 fe bc 1b 43 c4 3d
       -0.03410964 0.020309953 -0.031060606 0.09583112
000020 d5 54 5d bd 20 b8 d3 bc 8f 71 22 3d 5f 86 5e bd
       -0.05403598 -0.025844634 0.03965908 -0.054327365
000030 15 f8 e0 3d 5c f0 83 bd 0f 21 a9 bd 17 91 af bd
       0.10984818 -0.06442329 -0.082582586 -0.085725956
000040 af e0 1a 3d 08 e3 90 3d 6a 55 e3 bc 0e 58 3a 3d
       0.03781193 0.07074553 -0.02775069 0.04549413
000050 f2 de 73 bd 43 38 9e bb 40 17 30 3d 20 63 b0 bd
       -0.05953879 -0.0048284843 0.042990923 -0.086126566
000060 41 8f 14 3e 92 5e 0a 3d 06 78 a0 bc 4e 16 a0 3d
       0.14507772 0.033781596 -0.019588482 0.07816754
000070 b4 b9 c6 bb 4c cb dd 3d 4e fe 63 bd 45 a2 1c 3b
       -0.006064618 0.108297914 -0.055662446 0.002390043
000080 d8 5d b1 3d 94 a9 6f 3c ee 9b 47 3d e1 c6 d7 3d
       0.086604774 0.014627833 0.04873269 0.1053598
000090 11 20 69 3c 93 d8 30 bc cd ac c8 3d 94 56 28 bd
       0.014228837 -0.010793823 0.09798584 -0.041098192
0000a0 10 81 4e 3d 5c 05 02 bd 8f a1 b2 bc d5 05 a8 bc
       0.050416052 -0.031743392 -0.021805553 -0.020510593
0000b0 92 d6 7e 3d 96 bc 75 3d 19 cf a2 bc 36 4e 76 bd
       0.06221635 0.059994303 -0.019874142 -0.06013318
0000c0 71 8a f9 3c be 36 b9 3b be a3 41 3d 67 c3 8a bd
       0.030461522 0.0056522777 0.047275297 -0.06775551
0000d0 d2 2b b0 3c eb 42 c3 3d 47 bf e0 3c 9a c5 97 bd
       0.02150527 0.09534248 0.027434958 -0.074107364
0000e0 ab 37 48 3d 75 bc ee bd 70 be 44 3c 78 17 58 3d
       0.048881214 -0.11657039 0.012008294 0.052756757
0000f0 f0 4a 9f bc e8 73 17 3d b9 31 ac bd 77 e8 30 3c
       -0.019444913 0.03697577 -0.08407921 0.010797611
000100 99 f8 1a bd b6 cc dc bc c8 1a c4 3c b8 a9 a4 3d
       -0.037834737 -0.026953083 0.023938552 0.08040184
000110 91 60 7e bc 98 e4 22 3b 2e 2b 7b bc 75 d0 c6 bc
       -0.015525953 0.002485549 -0.015330119 -0.024269322
000120 2e 44 50 bd d2 c0 ed bd 64 7d 36 3d 65 af a3 bc
       -0.05084627 -0.11609043 0.044553176 -0.019981096
000130 24 fb 94 3c b3 75 07 3e 89 56 0e 3d d2 1a be 3d
       0.01818616 0.13228492 0.034750495 0.09282459
000140 7c 8a fe 3c e1 12 57 bd f5 10 33 bd 45 a9 9b bd
       0.031071894 -0.05250824 -0.043717343 -0.07600645
000150 01 21 d3 bd 3d d8 40 3a dd 1a d4 3d 8d ec 77 bd
       -0.10309029 0.0007356441 0.10356686 -0.060528327
000160 ee fb 85 3d 9d 20 85 bd b2 74 89 bc 2a e2 bc 3d
       0.065421924 -0.06500361 -0.016779277 0.09222825
000170 5e 67 9c 3c 03 ce ac 3c 88 db 2e bd af 44 7e 3d
       0.019092258 0.021094328 -0.04268983 0.06207722
000180 0b 02 55 3a b2 45 14 bd 4d 38 8b 39 6a 24 bf bd
       0.00081256096 -0.03619928 0.00026554093 -0.09333117
000190 30 db 24 bd 56 7b 37 bd ab 10 54 3d 47 91 86 bd
       -0.040248096 -0.044795357 0.05177371 -0.06570678
0001a0 7d 5a 1a 3d be 6d 49 3d eb 63 6a 3d 87 aa 1b bd
       0.037683953 0.049176924 0.057224195 -0.038004424
0001b0 0f b1 f0 bc 3e d4 8d bd 21 56 af bd d3 87 3c 3c
       -0.029381303 -0.069252476 -0.0856135 0.011506992
0001c0 55 d5 d8 3d 63 da 71 3d ea c3 d6 3c 76 ed 84 3d
       0.10587565 0.05904616 0.026216466 0.064906046
0001d0 1a dd 81 bd 66 f8 cc 3c a7 e5 a8 bc 2d d9 90 bd
       -0.06341 0.02502079 -0.02061732 -0.07072673
0001e0 89 f1 79 3d 92 2c aa 3c a7 37 c1 bd 51 71 7d 3d
       0.06102136 0.020773206 -0.09434443 0.061875645
0001f0 29 c0 3d 3d 61 61 99 bd 12 2a 82 bc 2e cb 62 3d
       0.046325836 -0.07489277 -0.015889201 0.05536955
000200 69 0b bf bd e8 08 d7 3c d8 4d 40 ba a6 da 68 bd
       -0.09328348 0.026249364 -0.00073358184 -0.056849144
000210 44 0a 6b 3d 78 32 34 3d b9 9f 07 3d f5 74 6d bd
       0.057382837 0.043993443 0.033111308 -0.057972867
000220 3f 11 d7 3d c0 52 82 bd dd da e7 3d a7 bd 97 bd
       0.10501336 -0.063634396 0.11321042 -0.0740922
000230 90 81 8c bd 77 32 c7 3d 0b c2 8a bc 35 f5 c0 3c
       -0.068606496 0.09726422 -0.01693823 0.023554424
000240 7c 3b ed bc 50 69 5e bd c6 d8 49 bd 96 09 db bd
       -0.028959028 -0.054299653 -0.049278997 -0.10695188
000250 43 37 92 bc 70 a4 dd bb d8 ff df 3c 9d 69 0e 3d
       -0.017848616 -0.0067639872 0.027343675 0.03476869
000260 cb f4 9a 3d 84 77 ff 3c d9 bd 63 bd 95 fa 2c bd
       0.07566222 0.03118492 -0.055600975 -0.04223116
000270 ed 70 6b bd 0e 40 2e bd ed 4e 35 bb 50 11 f9 3c
       -0.05748074 -0.042541556 -0.0027665452 0.030403763
000280 ea df 6f 3d 9a 97 39 bd 0b 84 a7 3d 94 95 09 bd
       0.05856315 -0.045310594 0.08179482 -0.033589914
000290 7b ae bb ba bf 64 3a 3d 6f 48 be 3d b9 51 a1 bd
       -0.0014318967 0.045506235 0.09291159 -0.078769155
0002a0 b9 ae bb 3c ca db bd bc 56 17 4b bd 8d 6f 44 bd
       0.022910463 -0.023176093 -0.0495828 -0.047957946
0002b0 97 de 5c 3b c0 b1 15 bd 2f 9b 04 bb 1c d1 48 3d
       0.003370201 -0.03654647 -0.0020234098 0.049027547
0002c0 6f 00 f5 bb 0f 44 ab 3d 82 4c 01 bd 42 ff b4 3d
       -0.0074768583 0.083625905 -0.031567104 0.08837749
0002d0 4e c2 83 3d 64 bd 4b bd 81 c7 ad 3d b5 d1 2f bd
       0.06433545 -0.049741164 0.08485318 -0.0429246
0002e0 80 00 d8 3a 87 18 6a 3b bb 21 86 3c cd 08 5c bc
       0.0016479641 0.0035720186 0.016373506 -0.013429833
0002f0 ad d0 93 3c 79 0d b1 bb 38 91 ea 3c 8e 5b 95 bc
       0.01804384 -0.0054032174 0.028633699 -0.018232133
000300 fb 81 05 3d ac 6e 1f bd c2 30 c3 bd 92 aa 7e 3d
       0.032594662 -0.038923904 -0.09530784 0.062174387
000310 03 ae b5 3c c5 85 47 bd 59 42 b5 bc 20 5d 66 3d
       0.022177702 -0.048711557 -0.022126364 0.056241155
000320 dc 04 37 bc b7 f1 0d 3d cd fc 07 3d 3b 7e 8a 3d
       -0.011170592 0.034654345 0.033200074 0.06762358
000330 90 18 47 3d 7d 72 34 bc 32 71 33 3d 52 d4 d2 3d
       0.04860741 -0.011013624 0.043809123 0.10294403
000340 70 9a 55 3c 94 64 ed 3c 02 3a 4d bc 22 9d a6 3d
       0.013037309 0.028978623 -0.012526037 0.081354395
000350 38 b6 5c bd fe 94 86 bc 0b 20 c8 3c 08 b6 85 bd
       -0.053884715 -0.016428467 0.024429342 -0.0652886
000360 5a 4f af 3c 98 bc 73 bd 89 46 b0 3d c5 6d 3c bd
       0.021400142 -0.05950603 0.086072035 -0.046003122
000370 37 a5 5f 3d b7 c8 6d 3d c5 ab e0 bb 8d 2f ea 3b
       0.05460092 0.058052745 -0.006856414 0.007146782
000380 60 65 a4 3d 76 68 ef bc 43 7d 17 bb e2 34 6f bd
       0.08027148 -0.029224616 -0.0023115433 -0.058400042
000390 3f b4 8d bb 24 9c fc 3c 8a 3f 01 bc 41 0b db bc
       -0.0043244655 0.030836172 -0.007888684 -0.026738765
0003a0 50 34 b9 bd 12 ae 63 3d 8b 34 fd 3c 8b a5 c3 3c
       -0.09043181 0.05558593 0.030908844 0.023882648
0003b0 47 3f c6 3d 07 1d 86 3d cb 25 b1 bc 2d c3 f1 3c
       0.09680038 0.06548505 -0.021624466 0.029512012
0003c0 6c bc 85 bd d9 dd c4 bd 1f 94 59 bd 19 e9 bf 3d
       -0.06530079 -0.096126266 -0.053119775 0.09370632
0003d0 7a a5 d5 3d aa 76 ce 3c a3 c3 2c 3d 7d 17 c7 bd
       0.10431953 0.025203068 0.04217876 -0.09721277
0003e0 36 79 53 bc 03 f8 c1 3d 61 c9 96 bc 2e cc 0b 3e
       -0.012907317 0.094711326 -0.018406572 0.13652107
0003f0 a5 89 8b 3c bc 7d 4d 3d 1d b7 55 bd 7c 77 82 3d
       0.017033407 0.050168738 -0.052176584 0.06370446

fc2.bias f4 [128]
000000 bf ea b9 bd 9f f9 36 3d d8 d8 7b 3d 51 98 3d 3b
       -0.090779774 0.04467165 0.061486095 0.00289299
000010 09 68 e6 bb e8 af 74 3d 94 bb fb bd 6a 7e 95 3d
       -0.007031445 0.05973807 -0.12291637 0.07299502
000020 98 6e ce 3d 4a 39 39 3d 75 7a 0d bd ba 9a 85 3d
       0.10079688 0.04522065 -0.034540612 0.065236524
000030 c0 c7 89 3d fb c1 26 bd 96 1a d6 bd ec 77 da 3c
       0.067275524 -0.040712338 -0.104542896 0.026668511
000040 f9 b8 f2 3b 1c 77 9f 3d 15 a6 23 3d df 24 82 3d
       0.0074073044 0.0778639 0.03995331 0.06354689
000050 6e 77 e2 3b 55 fa 0d be 98 b6 07 be 40 85 10 bb
       0.00691121 -0.13865025 -0.13253248 -0.002205208
000060 d2 2c 56 3c bb 85 be 3d e6 db 61 3d f0 ac 8d 3d
       0.013072209 0.09302851 0.055141352 0.06917751
000070 0f 5e 9d 3c 7d 99 75 bd 69 f1 52 bd bc 45 1d bd
       0.01920989 -0.05996083 -0.051499758 -0.038396582
000080 e8 0d 58 3d 37 2e 18 bd f5 2b 8f bd 4d 77 8d bc
       0.052747637 -0.03715345 -0.06990806 -0.017268801
000090 55 7c 1e 3c c3 9b f8 3d 30 64 d5 3d 4e 01 82 bd
       0.009673198 0.12139084 0.104195 -0.06347905
0000a0 00 29 88 bc b0 e6 0f 3d a8 ae 7b bd e3 3a c6 bd
       -0.016621113 0.03513211 -0.061445862 -0.096792005
0000b0 c1 09 1e bd 98 cd 80 3c cc 41 f8 bc 69 39 e5 3d
       -0.03858352 0.015723035 -0.030304812 0.11192591
0000c0 82 cb ae bc a3 c8 b8 bc c1 2b 0f 3c fc 0c fa bc
       -0.021337274 -0.022556609 0.008738459 -0.03052377
0000d0 c8 6a bf bc 5e 7e a2 bd 17 3c e0 3d 4d 97 80 3d
       -0.023366347 -0.07934259 0.10948961 0.06278858
0000e0 3a bb 1f bc 2d ef 3f 38 cf 46 a8 bd 22 cf eb bc
       -0.009749228 4.57607e-05 -0.08216631 -0.028785292
0000f0 33 51 54 bd cc 63 8a 3d 8b 5a a3 bd e9 49 8d bd
       -0.05183525 0.06757316 -0.07976254 -0.06898863
000100 94 00 fa bc e4 61 21 b8 65 52 37 bd 94 f1 84 bd
       -0.030517854 -3.847656e-05 -0.044756312 -0.0649139
000110 89 c4 9b bc 6c 3a c5 3d 43 59 b7 3c ed a5 a1 3c
       -0.019014614 0.09630284 0.02238143 0.01973244
000120 11 69 3a bd 90 83 34 bd 78 0c 6e bc 64 f5 ae 3d
       -0.045510355 -0.04407078 -0.01452934 0.08542898
000130 86 c9 3f bd 34 6c ba 3d 9b 2d a1 bd 43 a5 9d bd
       -0.046823047 0.09102669 -0.07870027 -0.07697537
000140 24 c3 a8 bd a8 a5 4a bc 66 95 0f 3b dd fb 8a 3d
       -0.08240345 -0.012368597 0.0021909117 0.0678632
000150 b8 68 3a bd 05 92 74 bd 67 49 d0 3d 80 1b 4d 3d
       -0.045510024 -0.059709568 0.101702504 0.050075054
000160 36 e1 91 bd d4 84 a4 3c 7b 14 1f bd bd a4 da bc
       -0.07123034 0.020082869 -0.03883789 -0.026689881
000170 c2 47 1b 3d fc 02 19 bc e6 78 6d 3d da 7f d1 bc
       0.03791023 -0.00933909 0.057976626 -0.02557366
000180 64 19 b7 3d 0e 2c e7 3b bc 49 9d 3d 5d 19 b2 bd
       0.0894039 0.0070548123 0.07680079 -0.08696244
000190 c7 fe 0b be ae a5 30 3d 2f df 1e bd 7d 7a e3 3c
       -0.13671409 0.043126754 -0.038787063 0.027768368
0001a0 34 36 6f 3d f6 df ca 3d 30 99 a7 bd dc 89 99 bd
       0.0584013 0.099059984 -0.08183515 -0.07496998
0001b0 59 c0 b2 bd 4b 77 91 3c 30 45 20 3d 2b 9d 2d 3d
       -0.08728094 0.017757079 0.039128482 0.042386215
0001c0 f4 0c 63 bd 43 03 8f bc 6c 82 db bc ab 55 ce 3d
       -0.055432275 -0.01745761 -0.026795588 0.100749336
0001d0 2c de a9 3d 1a a8 e7 bc 20 db c4 bc 76 72 7a 3d
       0.08294329 -0.0282784 -0.024030268 0.061144315
0001e0 6f cc b1 3d 74 e7 ff 3d 70 f6 8b 3d 21 13 89 3d
       0.08681571 0.12495318 0.068341136 0.06693102
0001f0 0e 02 47 3c a0 36 71 3c 5a 7e b3 bd 3a ba 8c bd
       0.012146486 0.014722496 -0.08764334 -0.068714574

bn2.weight f4 [128]
000000 1e 8e 76 3f 54 d9 79 3f 93 46 80 3f 57 55 83 3f
       0.96310604 0.9759724 1.0021538 1.0260419
000010 6e ba 81 3f f5 1b 86 3f ab e1 7e 3f 31 83 80 3f
       1.0135019 1.0477282 0.9956309 1.0040036
000020 c5 3e 84 3f 44 5a 7a 3f 1d a1 7c 3f 21 7f 85 3f
       1.0331656 0.97793984 0.9868334 1.0429422
000030 ba 55 80 3f e5 b1 87 3f 46 7c 81 3f 3e a8 79 3f
       1.0026162 1.0601164 1.011605 0.9752234
000040 dd 5c 80 3f f0 e5 84 3f 0c 72 80 3f 8e 92 7b 3f
       1.002834 1.0382671 1.0034804 0.982705
000050 71 95 82 3f b4 a4 80 3f a1 6f 84 3f b7 cd 7d 3f
       1.0201856 1.0050263 1.0346566 0.9914202
000060 ca 2c 84 3f 48 21 77 3f 70 b6 6f 3f 38 fc 72 3f
       1.0326169 0.9653516 0.9363775 0.94916105
000070 a5 0b 85 3f fe 2f 85 3f 1d 23 81 3f 80 dc 7a 3f
       1.0394179 1.0405271 1.0088841 0.97992706
000080 cd b4 81 3f 3d 27 79 3f 39 67 7d 3f c9 eb 78 3f
       1.0133301 0.973255 0.9898563 0.9723478
000090 9b 56 80 3f ce 25 7d 3f d1 55 85 3f ff 0a 6e 3f
       1.002643 0.9888581 1.0416814 0.9298553
0000a0 a8 f2 7c 3f 0b 9d 80 3f a5 6b 7b 3f 0f 64 8c 3f
       0.98807764 1.0047926 0.9821113 1.0968035
0000b0 1d 30 7e 3f 22 25 89 3f 99 f7 78 3f 5c 60 82 3f
       0.99292165 1.0714457 0.97252804 1.0185657
0000c0 d2 29 85 3f f4 ab 72 3f f6 ae 79 3f 12 a7 7e 3f
       1.0403388 0.9479363 0.97532594 0.9947368
0000d0 d7 54 84 3f 33 65 77 3f 50 9d 74 3f 7d 85 6f 3f
       1.0338391 0.9663879 0.9555254 0.9356306
0000e0 a2 8c 7d 3f 18 91 84 3f 61 70 86 3f 83 72 73 3f
       0.99042714 1.0356779 1.0503045 0.95096606
0000f0 ed 01 7f 3f 15 84 6d 3f a3 97 7a 3f d4 a4 86 3f
       0.99612314 0.92779666 0.9788763 1.0519052
000100 65 d2 80 3f 44 d9 7d 3f 4d 14 74 3f 18 3e 72 3f
       1.0064207 0.99159646 0.95343477 0.94626
000110 3b 6a 7a 3f 8f c4 7e 3f 12 76 79 3f a0 12 80 3f
       0.97818345 0.99518675 0.97445786 1.0005684
000120 d4 c0 81 3f 10 1d 7e 3f f3 1f 7f 3f ed fb 6c 3f
       1.0136971 0.99263096 0.99658126 0.9257191
000130 06 67 80 3f e1 82 78 3f 55 ca 86 3f af be 77 3f
       1.003144 0.97074705 1.0530497 0.96775335
000140 d3 e3 86 3f c5 5f 80 3f e4 23 6b 3f 09 01 7e 3f
       1.0538276 1.0029227 0.9185164 0.9922033
000150 30 b2 76 3f e2 a3 81 3f ca df 74 3f a5 df 6b 3f
       0.9636564 1.0128138 0.95653975 0.9213813
000160 1a f1 84 3f d2 50 7f 3f 4e 4e 6c 3f ec 90 79 3f
       1.0386078 0.99732697 0.92306983 0.9748676
000170 84 84 7b 3f 7e df 80 3f c5 5a 84 3f 73 f3 76 3f
       0.9824908 1.0068204 1.0340201 0.96465224
000180 7a c0 82 3f 6c d9 78 3f ad 4f 8a 3f b8 03 7e 3f
       1.0214989 0.9720676 1.0805565 0.99224424
000190 7a 8b 7c 3f 0e f9 78 3f aa 4d 78 3f c7 a4 84 3f
       0.98650324 0.9725503 0.96993506 1.0362786
0001a0 df 18 75 3f a4 ee 73 3f ac ed 90 3f 4a 3c 7e 3f
       0.95741075 0.9528601 1.1322532 0.99310744
0001b0 49 ce 79 3f 37 84 67 3f 73 a0 86 3f c3 a5 76 3f
       0.9758039 0.9043612 1.0517715 0.9634668
0001c0 d9 fc 72 3f bf 50 7b 3f b0 d5 83 3f 5e d4 7a 3f
       0.94917065 0.98170084 1.0299587 0.97980297
0001d0 ed 8f 7f 3f ba b4 85 3f 30 b6 7e 3f 1d a3 81 3f
       0.9982899 1.0445778 0.99496746 1.0127903
0001e0 0c 2f 81 3f b6 a1 6d 3f 68 4c 7f 3f af 9d 88 3f
       1.0092483 0.92824876 0.9972596 1.0673121
0001f0 48 db 7b 3f 4a 44 76 3f 9c 13 79 3f 1d 46 76 3f
       0.9838147 0.9619795 0.97295547 0.96200734

bn2.bias f4 [128]
000000 da 0a ca bd 8d 4c 8a 3c 62 b9 7c bd 45 82 8a bd
       -0.09865351 0.016882205 -0.061700232 -0.06763128
000010 c9 20 b7 bc 99 e2 ec 3d 3b b9 43 be 91 47 ca b8
       -0.0223545 0.115666576 -0.19113629 -9.645441e-05
000020 bf 16 91 bd ab 1b 39 3d f5 62 63 3c be e0 2c be
       -0.070844166 0.0451924 0.013878574 -0.16882607
000030 45 57 d2 3d 1f 42 fb 3d 16 4f 20 be cf a6 1d 3e
       0.102705516 0.12268471 -0.15655169 0.15395664
000040 28 08 36 bd 88 37 e0 3d a0 8f ac 3d 58 66 f9 bc
       -0.044441372 0.10948092 0.08425832 -0.03044431
000050 d3 e8 04 3b 43 91 b5 bd c0 00 fa bd b9 66 ae bd
       0.0020280376 -0.08865597 -0.12207174 -0.085156865
000060 7e 64 2d be 63 1e f7 bd 22 1f 25 3b 5b 1f 14 bd
       -0.16932866 -0.12066343 0.0025195559 -0.036162715
000070 92 b9 86 3d 3b 68 b3 3d 93 b8 9b 3a bc f7 3d 3d
       0.065783635 0.08760115 0.0011880569 0.046378836
000080 bb 72 eb bd a1 0d d9 3c 2a b0 0b b8 a9 76 f3 bc
       -0.114964925 0.026495757 -3.3304248e-05 -0.029719668
000090 1d 21 03 3e 09 d7 c7 bd 6e 46 a7 bd ce a4 88 bd
       0.128056 -0.097578116 -0.0816773 -0.06672059
0000a0 a2 86 b3 bd 69 6e e1 3c 09 c4 8c 3d 3b 4a 1d be
       -0.087659135 0.027518468 0.06873328 -0.15360348
0000b0 dc 0b 8b bd 09 78 87 3d 6b df ea bd 88 2d 95 3d
       -0.06789371 0.06614692 -0.11468395 0.07284075
0000c0 72 f9 3a 3d d9 0e 5d bd 5a 5a dc bd 06 29 8f bd
       0.045648046 -0.053969238 -0.10759421 -0.069902465
0000d0 7c 79 0f 3e 22 15 8e 3c 96 d1 42 bc b8 1a af bd
       0.14011186 0.017344061 -0.0118907895 -0.08550018
0000e0 18 fd 1b be bd 1f 15 3c ed 09 44 be 9b bd 76 bc
       -0.15233266 0.009101805 -0.19144411 -0.015059854
0000f0 0f ab 7e 3d 69 b1 ac bc 5f 70 c1 3b b2 fb 56 3c
       0.062174853 -0.02108069 0.0059032883 0.013121532
000100 13 79 2b 3d 21 b0 05 be ec 25 d1 3c 42 65 d2 bd
       0.041863512 -0.13055469 0.025530778 -0.1027322
000110 46 fd d3 bd 02 07 d0 3d b7 73 d3 bd 56 6a ea bc
       -0.103510424 0.10157587 -0.10324805 -0.028615158
000120 24 b3 0d be f4 07 23 be 24 8e 04 be 35 1f a6 bc
       -0.13837868 -0.15921003 -0.12944847 -0.020278553
000130 a0 5a 4b bc 2d e2 03 3d df 2a 99 3d c4 0f ba 3d
       -0.012411743 0.03219812 0.0747888 0.09085038
000140 b0 38 88 bd 1c 9e a7 3d b0 15 97 bd dc f9 06 3c
       -0.06651437 0.08184454 -0.073771834 0.008238282
000150 e2 cb 94 bd 78 be 3a 3c 74 52 10 bd d0 78 e3 bd
       -0.0726545 0.01139795 -0.035234883 -0.111070275
000160 6a 0a df bc 66 34 e0 bc 1c b5 20 be bf 4e d1 bd
       -0.027226645 -0.027368736 -0.15694088 -0.10220098
000170 5d 6f 19 3d f8 eb f1 bd c1 8c 93 3d f5 4d 5a 3b
       0.03745972 -0.118125856 0.07204581 0.0033310626
000180 22 de 43 3e 4e b9 65 3d 31 b7 c8 3d e9 ab 8c 3d
       0.19127706 0.056084923 0.09800566 0.06868727
000190 7f da b3 3d 65 37 73 3d f8 f6 9a 3c 23 fc 07 bd
       0.08781909 0.059379 0.018916592 -0.03319944
0001a0 d4 0e 4b bc 77 2e d0 3d 9b 1d 35 be 6e 2f f5 3c
       -0.012393672 0.101651125 -0.17687075 0.029929843
0001b0 a7 98 07 bc 5c 78 04 be 79 41 c4 bd f4 70 c0 3c
       -0.008276141 -0.12936538 -0.095828004 0.02349136
0001c0 3d 26 9c bd 6a 3b 94 bd 9a e7 10 3e fd 50 55 ba
       -0.07624481 -0.07237895 0.14150849 -0.00081373734
0001d0 4c 04 6b bd 82 03 85 3c eb 38 25 3d b1 68 2f 3d
       -0.057377145 0.016237024 0.040337484 0.04282445
0001e0 d7 25 75 3d a8 f1 52 3d 7f b4 f4 3d b5 bd 92 bd
       0.05985054 0.051499993 0.119484894 -0.0716509
0001f0 50 d5 8b bd 12 ff ee bd e0 7f 6a bd 28 c0 36 3d
       -0.068277955 -0.116697446 -0.057250857 0.04461685

bn2.running_mean f4 [128]
000000 e8 e5 4e 3e c1 d6 08 3f 98 e8 55 3f 67 8e 88 3f
       0.2020489 0.5345269 0.83558035 1.0668458
000010 83 2b 8f 3f 92 09 3f 3f 85 cd 4b 3e 26 db 03 3f
       1.1185154 0.7462398 0.19902618 0.5150627
000020 47 f1 29 3f 60 e8 21 3f c9 54 22 3f 40 e7 c8 3e
       0.66383785 0.632452 0.6341062 0.3923893
000030 bb 04 44 3f 81 92 16 3f ce 7d 14 3f 45 f6 30 3f
       0.7656972 0.588173 0.5800446 0.6912578
000040 63 d9 12 3f 38 83 dd 3e 9a 77 0c 3f d1 f5 da 3e
       0.57362956 0.43264174 0.5487 0.42765668
000050 32 af 30 3f f4 d9 d5 3e 67 45 00 00 8e 9a 18 3f
       0.69017327 0.41767848 2.4897e-41 0.5961083
000060 d1 90 22 3e 31 de 66 3f bb 64 76 3f 5e f3 7f 3f
       0.15875556 0.9018279 0.9624745 0.99980724
000070 90 04 46 3f d6 d3 26 3f 75 76 f1 3e 4e 7a 20 3f
       0.7735071 0.65166986 0.47160688 0.6268662
000080 05 22 26 3f 79 f5 ca 3d 7a 4c 19 3f 59 d6 43 3f
       0.6489566 0.099101014 0.5988232 0.76498944
000090 f1 fb 1a 3f ba ef 5e 3f 19 20 24 3f 92 2c 11 3f
       0.6054068 0.87084544 0.6411148 0.56708634
0000a0 aa cf 81 3f b6 e3 42 3f ce df 39 3f 15 29 00 00
       1.0141499 0.7612871 0.72607124 1.4737e-41
0000b0 ca 4b 81 3f ae 0a 08 3f 94 cc ce 3e 3b e1 15 3f
       1.0101254 0.53141296 0.40390456 0.585468
0000c0 33 37 e5 3e 16 b6 30 3f ce 80 ef 3e 5b 89 e8 3e
       0.44768676 0.6902784 0.46777958 0.45417294
0000d0 ec 29 15 3f fa 27 c0 3e bd 74 81 3f ed 43 52 3f
       0.5826709 0.375305 1.0113751 0.82134897
0000e0 38 9e a3 3e 73 e6 81 3f 89 ed 15 3f f8 5b 01 3f
       0.3195665 1.0148453 0.58565575 0.5053096
0000f0 51 68 13 3f 7a 2d 34 3f 21 8e 84 3e 98 90 98 3f
       0.5758105 0.7038189 0.25889686 1.1919127
000100 74 85 16 3f 03 fb e5 3e 59 3f c5 3e 36 66 bc 3e
       0.58797383 0.4491807 0.38524893 0.3679673
000110 b3 cb 52 3f b5 08 36 3f 08 14 f2 3e a5 3f 31 3f
       0.8234207 0.71107036 0.47280908 0.6923774
000120 85 6b 17 3f 96 d3 d0 3e 6e 82 06 3f 09 d1 19 3f
       0.59148437 0.40786427 0.5254277 0.6008459
000130 64 ee 9b 3f 36 88 35 3f 96 19 72 3f 2c d6 9f 3e
       1.2182126 0.70910966 0.9457029 0.31218088
000140 e7 23 8f 3f 1e 86 d9 3e cd 42 71 3e 01 ef 91 3f
       1.1182832 0.42485136 0.23560639 1.1401063
000150 39 b9 51 3f a8 42 1d 3f 26 48 7f 3f 66 25 9f 3e
       0.8192325 0.61429834 0.99719465 0.3108322
000160 f1 99 96 3f 3f c5 25 3f ab 4c 31 3e 7b e3 cf 3e
       1.1765729 0.647541 0.17314403 0.4060324
000170 e3 7d 3a 3f 77 c9 4b 3f ec 7d 0e 3f e4 9b 8a 3f
       0.7284834 0.79604286 0.5566089 1.0828824
000180 95 36 61 3f cf db 43 3f 7e 9b f3 3e e0 78 96 3f
       0.8797391 0.76507276 0.4757957 1.1755638
000190 65 8c a2 3d 7a 14 94 3e 2b 74 a0 3e e2 4e 88 3f
       0.079369344 0.28921872 0.3133863 1.0649073
0001a0 c7 da 02 3f 63 90 8f 3f ac 17 4e 14 33 1d 6c 3f
       0.5111508 1.1215938 1.0405011e-26 0.92232054
0001b0 48 81 26 3f 25 86 16 3f 99 d8 42 3f 28 bd 0f 3f
       0.6504102 0.5879844 0.7611175 0.56148005
0001c0 d8 11 f3 3e 91 5b 8d 3f a6 bc 0f 3f be e8 ad 3f
       0.4747455 1.1043569 0.5614723 1.3586652
0001d0 f7 4e 6f 3f 8a 2b 81 3f 62 f7 2f 3f 15 3f 04 3f
       0.93479866 1.0091412 0.6873685 0.51658756
0001e0 e8 c5 62 3f fd b7 78 3f 43 63 61 3f 50 89 82 3f
       0.8858323 0.97155744 0.88042086 1.0198154
0001f0 23 69 df 3e 1f 7d 9e 3f 50 cc e7 3d 0d dd 29 3f
       0.436349 1.2381934 0.113182664 0.6635292

bn2.running_var f4 [128]
000000 a8 13 58 3e dd 31 4f 3f 2e 4b 44 3f 62 79 a0 3f
       0.21101248 0.8093546 0.76677215 1.2537043
000010 86 e2 b8 3f 35 cf 1c 3f c3 97 55 3d 96 cf 9b 3e
       1.444413 0.6125367 0.052146684 0.30431813
000020 d1 e7 00 3f cb 17 53 3f 2e 87 e6 3e f8 ba 2f 3e
       0.50353724 0.8245818 0.4502501 0.17161167
000030 a1 22 24 3f ee 01 c8 3e 80 ee d9 3e ce 35 17 3f
       0.6411534 0.39063972 0.42564774 0.59066474
000040 5c 26 c1 3e b0 a5 36 3f 69 57 75 3f c5 dc 64 3e
       0.37724578 0.7134657 0.958365 0.22349842
000050 71 97 01 3f e2 78 9c 3e 79 b5 00 00 1b 71 e7 3e
       0.50621706 0.30560976 6.51e-41 0.4520348
000060 8c 30 11 3d a2 a2 65 3f e5 9f 84 3f 87 0c 8b 3f
       0.03544669 0.8970128 1.0361296 1.0863198
000070 cf 07 1f 3f 6d 2a f6 3e ac b8 55 3f 98 bf 35 3f
       0.6212129 0.48079243 0.8348491 0.70995474
000080 c4 a3 b2 3f 56 77 11 3e 3b 6f d9 3e 10 63 23 3f
       1.3956227 0.1420568 0.42467675 0.6382303
000090 c3 2d db 3e 3f a2 4b 3f 0c 65 08 3f 52 22 b9 3e
       0.4280835 0.7954444 0.53279185 0.36158997
0000a0 4e 88 8f 3f ac e1 34 3f a1 70 16 3f 99 3f 00 00
       1.1213472 0.7065685 0.5876561 2.2815e-41
0000b0 d2 f0 90 3f 7e 99 d7 3e 60 66 6b 3e ea 6a bf 3e
       1.1323493 0.42109293 0.22988272 0.37386256
0000c0 83 fb 70 3e ee 22 21 3f 4c 8a 81 3e 27 88 89 3e
       0.23533444 0.62943923 0.25300825 0.26861688
0000d0 44 25 28 3f ad ea ef 3e 06 92 97 3f da ed 3b 3f
       0.6568186 0.4685873 1.1841438 0.7340981
0000e0 06 c3 fb 3d 9d 4f 94 3f b7 51 cb 3e c0 24 1e 3f
       0.12293057 1.1586796 0.3971078 0.61774826
0000f0 b6 1d c5 3e a8 fc 0a 3f 88 5a c3 3d 89 af d9 3f
       0.3849923 0.5429177 0.09538752 1.7006694
000100 9a e9 c5 3e be 4f f7 3e ce 28 f8 3e 93 2b 47 3e
       0.38654786 0.48303026 0.48468632 0.19450216
000110 f1 be 7b 3f 2a 61 19 3f 23 d1 80 3e d9 e9 0a 3f
       0.9833823 0.59913886 0.2515956 0.54263073
000120 01 08 c8 3e d1 ba 3e 3e 8c 15 a7 3e 5e d6 dd 3e
       0.39068606 0.18625952 0.32633626 0.43327612
000130 5b 74 d0 3f 61 67 0a 3f b5 69 81 3f 5b 5f 07 3e
       1.6285509 0.54063994 1.0110384 0.13219969
000140 69 7c c7 3f c6 d6 5d 3e 19 4c 65 3f e7 31 b6 3f
       1.5584842 0.21663961 0.8956924 1.4233979
000150 5b 75 3e 3f ac a1 d9 3e c1 df 94 3f 57 dc 26 3f
       0.7439782 0.42506158 1.1630784 0.6517996
000160 e9 8b c9 3f 49 17 f8 3e 4f af 96 3e 3a 54 73 3e
       1.5745822 0.48455265 0.29430625 0.23762599
000170 f5 1f 15 3f 2d 69 2f 3f 2f a6 f0 3e 49 91 b5 3f
       0.5825189 0.6851986 0.47001788 1.4184963
000180 75 dd 57 3f bb 92 23 3f 4b 05 ec 3e 63 b4 c3 3f
       0.8432229 0.6389577 0.46097788 1.5289425
000190 c6 9c 8d 3e 63 87 a6 3f 68 b5 fd 3e 98 ca 9f 3f
       0.2765867 1.3010067 0.49552464 1.2483702
0001a0 80 17 ef 3e 58 ec b0 3f 3d f9 9b 14 78 6a a1 3f
       0.46697617 1.3822126 1.5749308e-26 1.2610617
0001b0 c4 1c b7 3f 88 d0 c6 3e a9 a7 23 3f cf 31 31 3f
       1.4305654 0.38830972 0.63927704 0.69216627
0001c0 12 6e 73 3f 50 5d ab 3f 53 d0 25 3f 95 a0 00 40
       0.9508983 1.3387852 0.64771 2.0098011
0001d0 b7 4f 73 3f f3 16 ab 3f 56 61 05 3f c8 79 b7 3e
       0.9504351 1.3366379 0.5210165 0.358351
0001e0 08 a9 5b 3f 39 e6 89 3f be 95 65 3f ec c6 91 3f
       0.85804796 1.0773383 0.89681613 1.1388831
0001f0 81 3c 68 3e 8a c3 d7 3f e7 20 b4 3e dc 69 f6 3e
       0.2267933 1.6856549 0.35181352 0.4812764
