DQN_preTrained/cstr_ode/DQN_cstr_ode_0_3.pth (torch, 117380 bytes, 19 tensors)

fc1.weight f4 [128, 4]
0	0xbc4c148b	-0.01245607
1	0x3e9a28d1	0.30109265
2	0xbf199565	-0.5999358
3	0xbea73acc	-0.32662046
4	0xbe4532f4	-0.19257718
5	0x3e094bec	0.13407868
6	0xbc224f40	-0.00990659
7	0x3ecaface	0.39644474
8	0xbea1d9b4	-0.31611407
9	0x3e637e8d	0.22216244
10	0xbdf82a3e	-0.12117432
11	0xbe225f30	-0.15856624
12	0xbf257ed1	-0.6464663
13	0x3e0a5262	0.13507989
14	0xbe64bfb3	-0.22338752
15	0xbcc3acb3	-0.02388606
16	0x3e6753ce	0.22590563
17	0x3e85e62f	0.2615218
18	0xbe943d12	-0.28952843
19	0xbe5680c2	-0.20947555
20	0x3e4f232f	0.20228265
21	0x3f0f889a	0.5606781
22	0x3e262ef2	0.16228846
23	0x3ebf915c	0.37415588
24	0x3e8c1bb0	0.27364874
25	0x3bc65fef	0.0060539166
26	0x3eb34ecd	0.35021058
27	0xbeaa0d98	-0.33213496
28	0xbef11b67	-0.4709122
29	0x3e88f37f	0.26748273
30	0x3daccd77	0.08437627
31	0x3edd2f28	0.4320004
32	0xbee95c30	-0.45578146
33	0x3e1c6094	0.15271217
34	0xbe1e0cff	-0.15434645
35	0xbe33bda8	-0.17552817
36	0xbe5c9133	-0.21539764
37	0x3eb05b59	0.34444693
38	0x3edd7789	0.4325526
39	0x3ec2ca43	0.38044938
40	0x3e579d19	0.21056022
41	0xbed03acf	-0.40669867
42	0x3d6da016	0.058013998
43	0xbe9ef6a6	-0.31047553
44	0xbeb8fa1a	-0.36128312
45	0xbe83f9c6	-0.257765
46	0x3ea18526	0.31546897
47	0x3e961926	0.29316062
48	0xbe81cc67	-0.2535126
49	0xbd4c01b1	-0.0498063
50	0x3e9376b0	0.2880149
51	0x3efe7f82	0.49706656
52	0x3ea08e79	0.31358698
53	0x3cad374d	0.021144534
54	0x3eb9c78b	0.36285052
55	0xbe95ad07	-0.29233572
56	0x3e11106b	0.14166419
57	0xbf1b3e10	-0.60641575
58	0xbe48dbf3	-0.19615154
59	0xbe4a5135	-0.1975754
60	0x3e93445e	0.28763098
61	0x3e0f0aa1	0.13968898
62	0xbe7069b3	-0.23477821
63	0x3e147e30	0.14501262
64	0x3e5080cd	0.20361634
65	0xbd1a666d	-0.037695337
66	0x3cf8bb89	0.030362861
67	0x3deceda4	0.11568764
68	0x3eb9ed77	0.36313984
69	0x3ed73ad6	0.42037076
70	0xbea41586	-0.3204767
71	0xbe4f8816	-0.20266756
72	0x3eb919cb	0.3615249
73	0x3f0eba0b	0.5575263
74	0x3e24ce9c	0.1609444
75	0x3efeace9	0.49741295
76	0xbb070e0f	-0.0020607745
77	0xbf0c026c	-0.54691195
78	0x3df2169e	0.1182072
79	0xbeb20f76	-0.3477742
80	0xbf198121	-0.5996266
81	0x3f285712	0.6575786
82	0x3e8ddc64	0.27707207
83	0xbefda46d	-0.4953951
84	0x3dbfaa08	0.09358603
85	0xbdac80c8	-0.084230006
86	0xbda882b8	-0.082280576
87	0xbe6a5f1c	-0.22887844
88	0x3e3414d6	0.17586073
89	0xbf115880	-0.56775665
90	0x3e0cea89	0.13761343
91	0x3e6f5011	0.23370387
92	0x3f09266b	0.53574246
93	0xbe053c59	-0.13011302
94	0xbea34711	-0.31890157
95	0x3cb3f361	0.021966638
96	0x3db3fcb7	0.08788436
97	0x3e903a26	0.28169364
98	0xbed0dc6f	-0.40793177
99	0xbe0eb69a	-0.13936844
100	0x3ef0d4f2	0.47037464
101	0x3eac7f54	0.33690894
102	0xbe5f3eb0	-0.21801257
103	0xbe00dcd4	-0.12584239
104	0xbf25cbe4	-0.6476424
105	0x3eb95081	0.36194232
106	0xbe9aba50	-0.3022027
107	0xbe9313c5	-0.2872602
108	0xbdf95535	-0.12174455
109	0x3eb34a10	0.35017443
110	0xbe313664	-0.17305905
111	0x3eb140e2	0.34619814
112	0xbedc779b	-0.43060002
113	0x3f15d7bb	0.58532304
114	0x3e8b93ad	0.27261105
115	0xbeca89e3	-0.39558324
116	0xbdbef23f	-0.093235485
117	0x3e406908	0.18790066
118	0x3e5c7bd2	0.21531609
119	0x3e5c457d	0.21510883
120	0x3e614a92	0.22001103
121	0xbc4ef7a4	-0.012632284
122	0xbe4f7816	-0.20260653
123	0x3e7245d4	0.2365945
124	0xbefc0888	-0.4922526
125	0xbeadf987	-0.33979437
126	0xbdcf7aac	-0.1013082
127	0xbe9074df	-0.28214166
128	0xbca2540a	-0.019815464
129	0xbf22f572	-0.6365577
130	0xbe58336e	-0.21113369
131	0x3d271311	0.040789668
132	0xbea7e6f4	-0.3279339
133	0x3e63d274	0.2224825
134	0x3eb7dc12	0.35910088
135	0xbe1c813a	-0.15283671
136	0x3c63ac80	0.013896108
137	0xbd30adc0	-0.04313445
138	0x3dcf3d10	0.101190686
139	0x3ea2c660	0.31791973
140	0x3e162a5a	0.14664593
141	0x3f323152	0.69606507
142	0x3e51f84a	0.20504871
143	0x3da1494e	0.0787531
144	0xbf0a70a8	-0.5407815
145	0xbe35f2bc	-0.17768377
146	0x3e81a3d4	0.25320303
147	0x3cc81f3f	0.024428962
148	0xbf01e3a9	-0.50738007
149	0xbdc610ba	-0.09671159
150	0xbf3370af	-0.70093817
151	0xbf033f99	-0.5126892
152	0xbdc1d4de	-0.09464429
153	0x3e498244	0.19678599
154	0x3ea9c39c	0.3315705
155	0xbee64659	-0.44975546
156	0x3ea80e41	0.32823375
157	0xbed243d4	-0.41067374
158	0xbe40e51e	-0.18837401
159	0xbe63cef1	-0.2224691
160	0xbef759a6	-0.48310584
161	0xbcb10a95	-0.021611491
162	0xbdbb862e	-0.09156452
163	0xbec403fc	-0.3828429
164	0xbda03c28	-0.07823974
165	0x3bd3e180	0.0064660907
166	0xbe6896b8	-0.22713745
167	0x3e40deb8	0.1883496
168	0xbf16f823	-0.58972377
169	0x3ec99184	0.39368832
170	0x3ea692e9	0.3253396
171	0xbd6adb48	-0.05733803
172	0x3f0bbbe6	0.54583585
173	0xbdd953ad	-0.10611663
174	0xbeac4011	-0.3364263
175	0x3ea1f874	0.31634867
176	0xbe382e63	-0.17986445
177	0xbedb517c	-0.42835605
178	0x3eaa4bc5	0.33260933
179	0xbf01db35	-0.5072511
180	0x3ed7e23c	0.4216479
181	0xbe0a1b60	-0.13487005
182	0x3dec931b	0.11551496
183	0x3e2d848b	0.16945092
184	0x3f01ed43	0.5075266
185	0xbdfbee9c	-0.123013705
186	0xbcf5506d	-0.029945577
187	0xbdbc46fc	-0.09193227
188	0xbe8e7a61	-0.27827743
189	0x3eecc379	0.46242884
190	0x3eec2dea	0.4612878
191	0x3eaf295c	0.34211242
192	0xbeb5114a	-0.35364753
193	0x3cc8360c	0.024439834
194	0xbeb447af	-0.3521094
195	0xbe6a1e85	-0.22863205
196	0xbe5e4119	-0.2170452
197	0x3dc5c5bc	0.096568555
198	0xbe6503a5	-0.22364672
199	0x3ca61971	0.020275803
200	0xbe7e42b0	-0.24830127
201	0x3eacf5ef	0.33781382
202	0xbeeb538f	-0.45962188
203	0xbe75752b	-0.23970477
204	0xbeb9907b	-0.36243042
205	0x3edefe7c	0.4355353
206	0xbd124e55	-0.035719234
207	0x3eb96b53	0.36214694
208	0x3e3924a0	0.18080378
209	0x3d81aa40	0.06331301
210	0xbb73ed00	-0.003722012
211	0xbdca6d08	-0.09884077
212	0x3e5d8cee	0.21635792
213	0xbe931ac4	-0.28731358
214	0x3d1e12bd	0.03859209
215	0xbe331075	-0.17486747
216	0xbe9dd236	-0.3082444
217	0xbde8d3f7	-0.11368554
218	0x3f2413c4	0.6409266
219	0xbe6f8327	-0.23389874
220	0xbd9989e6	-0.07497005
221	0x3f3a8ce9	0.7287126
222	0x3e1baabf	0.15201853
223	0xbdba9454	-0.091103226
224	0xbf16033f	-0.58598703
225	0x3eceeb07	0.40413687
226	0xbba4f326	-0.0050338684
227	0xbd4e0fb7	-0.050307956
228	0xbe8e1def	-0.27757213
229	0x3bf45da3	0.0074574514
230	0x3ba9cd23	0.005181925
231	0x3ed32696	0.41240376
232	0x3e856188	0.26050973
233	0x3f20ff69	0.62889725
234	0x3da3a193	0.07989802
235	0xbeaaf80f	-0.3339238
236	0x3e853116	0.26014012
237	0xbf193fc5	-0.5986293
238	0xbdbcb880	-0.09214878
239	0x3e3bda1f	0.18344925
240	0x3e3f4cdf	0.18681668
241	0x3eb4effd	0.35339347
242	0xbe0e943a	-0.13923731
243	0x3a51d400	0.0008004308
244	0x3e8ff945	0.28119865
245	0xbf1aed9f	-0.6051883
246	0x3e2ac4cd	0.16676636
247	0xbe9dad13	-0.30796108
248	0xbca172fa	-0.019708145
249	0x3b136829	0.0022492504
250	0xbe5b28a4	-0.21402222
251	0xbbb683de	-0.005569919
252	0x3efc1502	0.49234778
253	0xbecbb481	-0.3978615
254	0xbe2f4a98	-0.17118299
255	0xbe73c2ff	-0.23804854

fc1.bias f4 [128]
0	0xbe2b3509	-0.1671945
1	0xbe3edf14	-0.18639785
2	0x3df59cb6	0.11992781
3	0x3d9c49ce	0.076312646
4	0xbe9d31ab	-0.30701956
5	0xbb44be9e	-0.0030020843
6	0x3ef1667c	0.47148502
7	0xbe392e74	-0.18084127
8	0xbe1e7135	-0.15472873
9	0x3d401942	0.046899088
10	0x3e77f6fa	0.24215308
11	0xbeb971e6	-0.3621971
12	0xbea6cc9e	-0.32577986
13	0xbe93948c	-0.2882427
14	0x3ee11a14	0.4396521
15	0xbe48a477	-0.19593988
16	0xbe6a3d34	-0.2287491
17	0xbea12734	-0.31475222
18	0x3efb520a	0.49086028
19	0x3f1d77b8	0.615108
20	0xbed50b0e	-0.41609997
21	0xbecf8810	-0.40533495
22	0xbedc07ae	-0.4297461
23	0xbe1c649d	-0.15272756
24	0xbe38e560	-0.1805625
25	0xbea7904e	-0.32727283
26	0xbdeca5cc	-0.11555061
27	0x3dc5c7d0	0.09657252
28	0xbec5937b	-0.3858908
29	0xbd19d7ba	-0.03755925
30	0xbe30a12b	-0.1724898
31	0xbe792efd	-0.24334331
32	0x3c31181a	0.010808969
33	0x3ece1e96	0.4025771
34	0xbead1388	-0.33803964
35	0xbe98aadb	-0.29817852
36	0xbe8b1390	-0.27163363
37	0x3ea49879	0.32147577
38	0xbf01c064	-0.5068419
39	0xbeeb507f	-0.4595985
40	0x3f08cbe0	0.5343609
41	0xbea1f7f8	-0.31634498
42	0x3a37e4e2	0.0007015002
43	0xbe345317	-0.17609821
44	0xbe32d62b	-0.17464511
45	0x3e9c73ab	0.30556998
46	0x3eb15550	0.346354
47	0xbcb798d5	-0.022411743
48	0xbef96da1	-0.48716453
49	0xbebd2dc9	-0.36948994
50	0xbe5005dc	-0.20314735
51	0x3e76b31f	0.24091767
52	0xbea5aa8e	-0.32356685
53	0x3eaf704e	0.3426537
54	0xbdadf4f2	-0.08493985
55	0xbe4f858b	-0.20265786
56	0x3e9c232f	0.30495593
57	0xbde1ba6f	-0.110218875
58	0x3ea8e40e	0.32986492
59	0x3e9f9076	0.31164902
60	0xbe318f21	-0.17339756
61	0xbeefada6	-0.4681217
62	0xbd19aa2b	-0.0375158
63	0x3ee468fd	0.4461135
64	0xbe0765db	-0.13222449
65	0xbeed681e	-0.46368498
66	0x3e59a077	0.21252619
67	0x3f048329	0.51762635
68	0xbd1986b6	-0.037481986
69	0xbee43cf1	-0.44577745
70	0xbee83510	-0.45352983
71	0x3e1a1f56	0.15051016
72	0xbaa9f720	-0.0012967326
73	0xbea5f2b7	-0.3241174
74	0xbdb3b383	-0.087744735
75	0x3e98fa41	0.2987843
76	0x3ed82fc4	0.42223942
77	0x3ec2cb24	0.3804561
78	0xbe88ccfc	-0.2671889
79	0xbee1bb7e	-0.44088358
80	0xbee753d8	-0.45181155
81	0x3eb903c5	0.36135688
82	0xbeb1fd80	-0.34763718
83	0x3ea98a6d	0.33113423
84	0xbf060430	-0.5235014
85	0x3f190e64	0.59787583
86	0x3ed46107	0.41480276
87	0x3e5893be	0.21150109
88	0xbed7f530	-0.4217925
89	0xbe98656a	-0.29764873
90	0xbec1b10b	-0.37830386
91	0x3ef17a08	0.47163415
92	0xbe4cecb7	-0.20012175
93	0xbebad122	-0.3648768
94	0x3e33c5f1	0.17555977
95	0xbeb6140d	-0.35562173
96	0xbe9695c1	-0.29411128
97	0x3d22d5fa	0.039754845
98	0xbe24179f	-0.16024636
99	0xbec76b22	-0.38948923
100	0x3eda40be	0.4262752
101	0x3e81624a	0.252703
102	0x3d1682a6	0.03674569
103	0x3f02ebad	0.5114086
104	0x3cd97373	0.026544308
105	0xbe4353f8	-0.19075
106	0x3ea1e920	0.31623173
107	0x3d9fa58b	0.07795247
108	0xbe26c240	-0.16285038
109	0x3ef74676	0.48295945
110	0x3eb68597	0.35648796
111	0xbef9c638	-0.4878404
112	0xbee27d2c	-0.44236124
113	0xbeae60fe	-0.34058374
114	0x3ec0d704	0.37664044
115	0xbe0ae8ad	-0.13565321
116	0xbeb13648	-0.34611726
117	0x3bcf1df6	0.0063207103
118	0x3ea99d6c	0.33127916
119	0x3da05d15	0.07830254
120	0x3ee911f1	0.455215
121	0x3d0a720f	0.03380018
122	0x3d8ffc18	0.07030505
123	0xbd4db314	-0.05021961
124	0xbe9d8647	-0.30766508
125	0xbeef490e	-0.46735424
126	0xbec45323	-0.38344678
127	0x3e22ff0c	0.15917605

bn1.weight f4 [128]
0	0x3f61a5ac	0.8814342
1	0x3f800000	1.0
2	0x3f298984	0.6622546
3	0x3f009927	0.5023369
4	0x3f82f786	1.0231788
5	0x3f74a882	0.9556962
6	0x3ed5316d	0.4163927
7	0x3f877b8a	1.0584576
8	0x3f10b267	0.5652222
9	0x3f2d900a	0.6779791
10	0x3f1e256d	0.6177586
11	0x3f800000	1.0
12	0x3f77dfa8	0.9682565
13	0x3eaafe6b	0.3339723
14	0x3f38cf3b	0.7219121
15	0x3f56e673	0.8394539
16	0x3f6b3294	0.9187405
17	0x3f7d2ed6	0.9889959
18	0x3f3e620d	0.74368364
19	0x3f18e15d	0.5971888
20	0x3f76a17c	0.96340156
21	0x3f800000	1.0
22	0x3f990888	1.1955729
23	0x3f9766d0	1.1828251
24	0x3f1faf3f	0.6237678
25	0x3f800000	1.0
26	0x3f1cae84	0.6120379
27	0x3f011325	0.5041984
28	0x3f6a7092	0.9157802
29	0x3ecd4469	0.40091255
30	0x3f35ac4b	0.70966023
31	0x3f3f55f7	0.74740547
32	0x3f1de28b	0.616738
33	0x3f3346e7	0.70030063
34	0x3f800000	1.0
35	0x3f65e980	0.8980942
36	0x3f570c3f	0.8400306
37	0x3ed3bbfd	0.4135436
38	0x3f42eb50	0.7614031
39	0x3f84fc85	1.0389563
40	0x3ebab986	0.36469668
41	0x3f800000	1.0
42	0x3f3e1c22	0.7426168
43	0x3f9c2bca	1.2200863
44	0x3ebd2e5d	0.36949435
45	0x3f16f828	0.58972406
46	0x3f1a721e	0.6033038
47	0x3f86ac4f	1.0521334
48	0x3f4d4aeb	0.8019244
49	0x3f53ebe7	0.82781833
50	0x3f4920cf	0.78565687
51	0x3f8058d8	1.0027113
52	0x3f800000	1.0
53	0x3e91ad1d	0.28452387
54	0x3ec48eba	0.38390142
55	0x3fb32017	1.3994168
56	0x3f749271	0.9553595
57	0x3f756dc3	0.9587061
58	0x3f0c65e3	0.54842967
59	0x3f169d90	0.5883417
60	0x3f7b96d0	0.98276997
61	0x3f284de8	0.65743876
62	0x3f7baf9d	0.9831484
63	0x3f44aafc	0.768234
64	0x3f4a73e2	0.79083073
65	0x3f800000	1.0
66	0x3f319457	0.69366974
67	0x3f1ffa09	0.624909
68	0x3f17bd32	0.59273064
69	0x3f77de9a	0.9682404
70	0x3f800000	1.0
71	0x3f607563	0.8767912
72	0x3f23a983	0.6393053
73	0x3f633b7b	0.88762635
74	0x3f1677a0	0.58776283
75	0x3efcb3fb	0.49356064
76	0x3f158641	0.5840798
77	0x3edcef53	0.4315134
78	0x3f639a0d	0.8890694
79	0x3f800000	1.0
80	0x3f800000	1.0
81	0x3f2829dd	0.6568888
82	0x3f856ff6	1.0424793
83	0x3f2a41b1	0.6650649
84	0x3f90d889	1.1316081
85	0x3ed632aa	0.4183553
86	0x3f2ba7e9	0.67053086
87	0x3f4a238d	0.78960496
88	0x3f800000	1.0
89	0x3f4883ae	0.7832593
90	0x3f6b5d5e	0.9193934
91	0x3ea9d772	0.33172184
92	0x3f724ff8	0.9465327
93	0x3f369ad8	0.7133002
94	0x3f2271df	0.63455003
95	0x3f6e4e30	0.93088055
96	0x3fb1b201	1.3882447
97	0x3f1fd88a	0.6243979
98	0x3f18a73e	0.5963019
99	0x3f800000	1.0
100	0x3f40afc6	0.7526821
101	0x3ebddc63	0.37082204
102	0x3f60433f	0.8760261
103	0x3f43d52a	0.7649714
104	0x3f400410	0.750062
105	0x3f64c31d	0.8936022
106	0x3f196e3c	0.5993383
107	0x3f84b432	1.0367491
108	0x3f9bba21	1.2166177
109	0x3f12d071	0.57349306
110	0x3f1c802c	0.61133075
111	0x3f800000	1.0
112	0x3eff9d38	0.49924636
113	0x3f800000	1.0
114	0x3ef99c20	0.48751926
115	0x3f579f32	0.8422729
116	0x3f8d58c7	1.1042718
117	0x3f60ca3c	0.87808585
118	0x3e14e520	0.14540529
119	0x3f576e3f	0.841526
120	0x3f146921	0.57972914
121	0x3f4a5c28	0.7904687
122	0x3f318e9e	0.6935824
123	0x3f20ff2b	0.62889355
124	0x3f7bbe4c	0.98337245
125	0x3f800000	1.0
126	0x3f9f44c3	1.244286
127	0x3f291c04	0.66058373

bn1.bias f4 [128]
0	0x3c326eee	0.0108907055
1	0x3ed93ced	0.42429295
2	0x3ecf2f8d	0.40465966
3	0x3e0390db	0.12848227
4	0x3e7f2d61	0.24919654
5	0x3f047d96	0.5175413
6	0xbe9156c0	-0.28386497
7	0xbe619f77	-0.22033487
8	0x3ddfc1fb	0.10925671
9	0x3eeb1bba	0.4591959
10	0xbea11e56	-0.31468457
11	0x3ee98f6b	0.45617232
12	0x3ef7b6c6	0.48381633
13	0xbe6eec97	-0.2333244
14	0x3e354e47	0.17705642
15	0x3babc612	0.0052421177
16	0xbd5fd46f	-0.05464595
17	0x3eeac610	0.45854235
18	0xbe6e4e6f	-0.23272108
19	0x3e0e0952	0.13870743
20	0xbedca473	-0.43094215
21	0x3ee25f5e	0.44213384
22	0xbd974265	-0.073857106
23	0x3daabac6	0.083364055
24	0xbbac2586	-0.0052534966
25	0xbef39371	-0.47573426
26	0x3e16ee21	0.14739276
27	0x3e129f93	0.14318685
28	0xbe97ba71	-0.2963443
29	0x3d94fd85	0.072749175
30	0xbe856f0c	-0.26061285
31	0x3ed76f86	0.42077273
32	0x3df99d89	0.121882506
33	0xbce60848	-0.02808012
34	0xbef4f3c1	-0.4784222
35	0x3c0502b1	0.008118317
36	0xbeeb7b8a	-0.4599269
37	0x3e303091	0.17206027
38	0x3f048f12	0.5178081
39	0x3ecd4502	0.4009171
40	0x3ea3cc87	0.3199198
41	0x3eeb4dcd	0.45957795
42	0x3e0bc90c	0.13650912
43	0x3e1d1041	0.15338232
44	0x3eaab46e	0.33340782
45	0xbec8fc04	-0.39254773
46	0xb9fa1555	-0.0004769961
47	0xbe95e658	-0.292773
48	0xbed66186	-0.4187128
49	0x3dc85064	0.09780958
50	0xbc8b10ec	-0.016975842
51	0xb9fae990	-0.00047857733
52	0xbef1f62f	-0.47258136
53	0xbd59eeb6	-0.053206168
54	0xbe9326bf	-0.28740498
55	0xbe9747ac	-0.2954687
56	0x3eb5661e	0.35429472
57	0xbda490a1	-0.08035398
58	0xbe0f2846	-0.13980207
59	0x3d8cccc9	0.06874997
60	0xbe786a09	-0.24259199
61	0xbde8e6e2	-0.113721624
62	0xbe017359	-0.12641658
63	0x3c395405	0.011311536
64	0xbd54d3c4	-0.051959768
65	0x3ef052a9	0.46938065
66	0xbe130718	-0.14358175
67	0xbc01f6ce	-0.007932378
68	0x3ec92c61	0.3929167
69	0xbee1a59d	-0.44071665
70	0x3ef271c6	0.47352427
71	0x3ebbea3d	0.36702147
72	0x3ef4edda	0.47837716
73	0xbebf782d	-0.37396374
74	0xbdc4dce7	-0.09612446
75	0x3eafdb8c	0.34347188
76	0xbe959eb6	-0.2922265
77	0x3db6b31b	0.089208804
78	0xbd0dbd16	-0.034604155
79	0x3ef0881e	0.4697885
80	0x3ef343d2	0.4751268
81	0xbe74063f	-0.23830508
82	0x3cdec196	0.027191918
83	0xbdc10c97	-0.094262294
84	0xbe650270	-0.22364211
85	0xbec37af2	-0.38179737
86	0xbe06f02d	-0.13177557
87	0x3eac83a4	0.33694184
88	0xbed85ce3	-0.42258367
89	0x3cab5916	0.020916503
90	0xbe9cb8be	-0.30609697
91	0xbe89352d	-0.26798382
92	0xbd31c22a	-0.04339806
93	0xb916e78e	-0.00014391376
94	0xbe92aa75	-0.28645673
95	0x3d438555	0.047734577
96	0xbe878071	-0.2646518
97	0x3ea35d6b	0.3190721
98	0x3d49c579	0.04926059
99	0x3ede8cfb	0.43466935
100	0xbae14c03	-0.0017188791
101	0xbeb86150	-0.36011744
102	0x3e124905	0.14285667
103	0xbd46d3d8	-0.048541874
104	0x3e22b6b4	0.15890008
105	0xbd4832b5	-0.048876483
106	0x3e25054b	0.161153
107	0xbe65f38b	-0.22456186
108	0x3e2ffc82	0.17186168
109	0xbecbbbd5	-0.39791742
110	0xbe057591	-0.1303313
111	0xbee38c69	-0.44443062
112	0xbea53112	-0.32264
113	0x3eeb70b6	0.4598443
114	0x3e833660	0.25627422
115	0xbd353bcb	-0.044246476
116	0xbee8c632	-0.4546371
117	0xbe511e2e	-0.20421669
118	0x3d03367c	0.032034382
119	0x3e237e7f	0.15966223
120	0x3eaeeded	0.34165898
121	0xbe0c808c	-0.13720912
122	0x3e8191e1	0.2530661
123	0xbe8fd641	-0.2809315
124	0xbe533cac	-0.20628613
125	0xbee651fe	-0.4498443
126	0x3dfe0a1d	0.12404273
127	0x3e7fdc98	0.24986494

bn1.running_mean f4 [128]
0	0x3b55e7b8	0.0032639336
1	0x00000000	0.0
2	0x3c47a5af	0.012185498
3	0x3c11b4ed	0.008893234
4	0x00000004	6e-45
5	0x3d025dfe	0.03182792
6	0x3f4527c1	0.77013785
7	0x22b7d99c	4.9832652e-18
8	0x3a9619bf	0.0011451765
9	0x3ddc50fc	0.10757634
10	0x3eff82b5	0.4990441
11	0x00000000	0.0
12	0x00000004	6e-45
13	0x3df7f99f	0.12108158
14	0x3f1b7e91	0.6074
15	0x00000004	6e-45
16	0x00000004	6e-45
17	0x00000004	6e-45
18	0x3f104432	0.5635406
19	0x3f57b68c	0.8426292
20	0x31885ea8	3.968882e-09
21	0x00000000	0.0
22	0x3c8a0359	0.0168473
23	0x3d6bfd84	0.05761482
24	0x3ad1b5af	0.001599958
25	0x00000000	0.0
26	0x3b6d6f03	0.0036229498
27	0x3c3c23d4	0.011483151
28	0x30ea75d4	1.705923e-09
29	0x3cb5005c	0.022094898
30	0x00000004	6e-45
31	0x312b6a1c	2.4944091e-09
32	0x3dc920f3	0.09820738
33	0x3eb173b0	0.34658575
34	0x00000000	0.0
35	0x00000004	6e-45
36	0x00000004	6e-45
37	0x3da4cf8c	0.08047399
38	0x3a726749	0.0009246958
39	0x38e1122f	0.00010732223
40	0x3e89e1f2	0.26930195
41	0x00000000	0.0
42	0x3b6f2f6c	0.0036496771
43	0x3d4b3587	0.049611595
44	0x3ddac9ac	0.10682997
45	0x3f1a6640	0.6031227
46	0x3f1d01f5	0.6133111
47	0x3d40b03a	0.047043063
48	0x00000004	6e-45
49	0x00000004	6e-45
50	0x3b27a796	0.0025582067
51	0x3d0170e8	0.031601816
52	0x00000000	0.0
53	0x3f0e1eb9	0.5551563
54	0x3e503a0a	0.2033464
55	0x00000004	6e-45
56	0x3d1f50fa	0.038895585
57	0x00000004	6e-45
58	0x3e9a6fe4	0.3016349
59	0x3f135f37	0.5756716
60	0x00000004	6e-45
61	0x3d53d714	0.051718786
62	0x3a9757e1	0.0011546576
63	0x3f3a46bb	0.72764176
64	0x3b1155a1	0.0022176283
65	0x00000000	0.0
66	0x3ede558a	0.43424636
67	0x3f4d5dc2	0.8022119
68	0x3b383c15	0.0028111984
69	0x00000004	6e-45
70	0x00000000	0.0
71	0x3cc4ff2e	0.02404746
72	0x3b4a36cd	0.0030855418
73	0x00000004	6e-45
74	0x3ec0c033	0.37646636
75	0x3ddf29a5	0.10896615
76	0x3f36db65	0.7142852
77	0x3eafed69	0.34360817
78	0x00000004	6e-45
79	0x00000000	0.0
80	0x00000000	0.0
81	0x3efe19ca	0.4962905
82	0x3ab64db0	0.0013908651
83	0x3f271ede	0.65281475
84	0x00000004	6e-45
85	0x3f7cbcc6	0.98725545
86	0x3de7465f	0.11292719
87	0x3c992cf7	0.018698199
88	0x00000000	0.0
89	0x00000004	6e-45
90	0x00000004	6e-45
91	0x3f2f80bc	0.6855581
92	0x3ac8ce9f	0.0015320367
93	0x00000004	6e-45
94	0x3ed0e1d1	0.40797284
95	0x00000004	6e-45
96	0x00000004	6e-45
97	0x3e172a93	0.14762335
98	0x3afeceb8	0.0019440269
99	0x00000000	0.0
100	0x3f1c7fce	0.61132514
101	0x3f53b2b1	0.82694536
102	0x3ba468fc	0.005017398
103	0x3f460ef2	0.77366555
104	0x3b652066	0.0034961938
105	0x3d725fde	0.059173457
106	0x3f36a16e	0.7134007
107	0x3bb69b82	0.005572737
108	0x3d80d1db	0.06290027
109	0x3f664945	0.8995555
110	0x3e87ee0a	0.26548797
111	0x00000000	0.0
112	0x2554a3f1	1.8443614e-16
113	0x00000000	0.0
114	0x3dc9d01b	0.09854146
115	0x3a5d2d40	0.0008437224
116	0x3aa5c016	0.0012645747
117	0x3d83d90a	0.06437881
118	0x3f22e084	0.63623834
119	0x3be74033	0.0070572137
120	0x3eabeb00	0.33577728
121	0x3d2f177d	0.04274701
122	0x3d764e59	0.060133312
123	0x3efe05a7	0.49613687
124	0x00000004	6e-45
125	0x00000000	0.0
126	0x3e0d3c86	0.13792619
127	0x3c76a047	0.0150528615

bn1.running_var f4 [128]
0	0x3acc1afe	0.0015572009
1	0x00000004	6e-45
2	0x3af3b81a	0.0018594295
3	0x3b384342	0.002811626
4	0x00000004	6e-45
5	0x3ab6f8f5	0.0013959693
6	0x3d3f8111	0.046753947
7	0x1edec9df	2.3588656e-20
8	0x3959c6a2	0.00020768729
9	0x3c546002	0.012962343
10	0x3c6a31a1	0.014294059
11	0x00000004	6e-45
12	0x00000004	6e-45
13	0x3c884861	0.016636075
14	0x3c2c91ea	0.0105328355
15	0x00000004	6e-45
16	0x00000004	6e-45
17	0x00000004	6e-45
18	0x3c158861	0.009126754
19	0x3c830625	0.01599414
20	0x3030ae7b	6.427638e-10
21	0x00000004	6e-45
22	0x3a28a6c5	0.0006433542
23	0x3bf92b6f	0.0076040546
24	0x39d48bd1	0.00040539962
25	0x00000004	6e-45
26	0x3aba2d41	0.001420416
27	0x3aba5813	0.0014216922
28	0x2f02911f	1.1874988e-10
29	0x3a42e31a	0.00074343535
30	0x00000004	6e-45
31	0x2f8b946e	2.5389418e-10
32	0x3c00f3ea	0.007870654
33	0x3cc52e1b	0.024069836
34	0x00000004	6e-45
35	0x00000004	6e-45
36	0x00000004	6e-45
37	0x3c920944	0.017826684
38	0x3902246c	0.00012411334
39	0x36ddc55e	6.60929e-06
40	0x3c818649	0.015811102
41	0x00000004	6e-45
42	0x39fb8507	0.00047973564
43	0x3bc21f29	0.0059241247
44	0x3c6bd393	0.014393705
45	0x3ca148b8	0.019687995
46	0x3c3bfaa0	0.011473328
47	0x3b72239b	0.0036947492
48	0x00000004	6e-45
49	0x00000004	6e-45
50	0x3a87d895	0.0010364229
51	0x3bb2924e	0.00544957
52	0x00000004	6e-45
53	0x3c128810	0.008943573
54	0x3d39e25c	0.04538189
55	0x00000004	6e-45
56	0x3c0d66c6	0.00863046
57	0x00000004	6e-45
58	0x3b646ca6	0.0034854799
59	0x3c5116b6	0.012761762
60	0x00000004	6e-45
61	0x3b9e6c31	0.0048346748
62	0x395d6558	0.00021113956
63	0x3c826ac2	0.015920047
64	0x3a495a19	0.0007680967
65	0x00000004	6e-45
66	0x3c0b2faf	0.008495255
67	0x3c649892	0.013952391
68	0x3998630f	0.00029065504
69	0x00000004	6e-45
70	0x00000004	6e-45
71	0x3b215f80	0.0024623573
72	0x3a7aa94e	0.00095619715
73	0x00000004	6e-45
74	0x3d1a9077	0.03773543
75	0x3be6fa6e	0.0070488965
76	0x3c9f03c2	0.019410972
77	0x3cfdbf1f	0.030974923
78	0x00000004	6e-45
79	0x00000004	6e-45
80	0x00000004	6e-45
81	0x3bc82d4c	0.0061089154
82	0x39a09f5c	0.0003063631
83	0x3c94ab73	0.01814816
84	0x00000004	6e-45
85	0x3dabb776	0.08384602
86	0x3c8059bd	0.01566779
87	0x3ba49512	0.0050226534
88	0x00000004	6e-45
89	0x00000004	6e-45
90	0x00000004	6e-45
91	0x3c97be6c	0.018523417
92	0x39c2e2e7	0.0003717162
93	0x00000004	6e-45
94	0x3c49d808	0.012319572
95	0x00000004	6e-45
96	0x00000004	6e-45
97	0x3c83a81c	0.016071372
98	0x3a1ce571	0.0005985117
99	0x00000004	6e-45
100	0x3c21342b	0.009839098
101	0x3d99c676	0.075085565
102	0x3aa98073	0.0012931958
103	0x3c7736c8	0.015088744
104	0x3a1b28fa	0.0005918887
105	0x3b09b69e	0.002101339
106	0x3cf0fb87	0.029416813
107	0x3a916d93	0.0011095278
108	0x3c125559	0.008931481
109	0x3d1a9960	0.037743926
110	0x3b5506f2	0.003250536
111	0x00000004	6e-45
112	0x225b8857	2.9752212e-18
113	0x00000004	6e-45
114	0x3c83ef1a	0.016105223
115	0x38da8cf2	0.00010421303
116	0x3942de8a	0.00018584184
117	0x3b9f747e	0.004866182
118	0x3cbd87cd	0.023136044
119	0x3b141a28	0.0022598598
120	0x3b615956	0.0034385524
121	0x3b2fa831	0.002680313
122	0x3b795de5	0.003805035
123	0x3d4f1d50	0.050565064
124	0x00000004	6e-45
125	0x00000004	6e-45
126	0x3c395f43	0.011314216
127	0x3b039f3b	0.0020083922

fc2.weight f4 [128, 132]
0	0xbd841acd	-0.06450424
1	0x3d15b44b	0.036548894
2	0xbc406e3e	-0.011745034
3	0x3db560a1	0.08856321
4	0xbe015edf	-0.12633847
5	0xbdf1e84f	-0.118118875
6	0xbcfb9e37	-0.030715091
7	0x3cbd1166	0.023079585
8	0xbd8b0c98	-0.067895114
9	0xba9c27eb	-0.0011913752
10	0xbd6bd12d	-0.057572532
11	0x3d12783c	0.035759196
12	0x3dfb2245	0.12262396
13	0xbcb4f681	-0.022090198
14	0xbe2b90e3	-0.16754489
15	0xbe01b401	-0.12666322
16	0xbd9158e2	-0.07097031
17	0xbd2df12e	-0.042466335
18	0x3dbc0726	0.09181051
19	0x3d923c19	0.07140369
20	0xbe288ad7	-0.16459213
21	0xbbf5cc52	-0.0075011635
22	0xbd402f14	-0.046919897
23	0xbd208026	-0.039184712
24	0x3e25bd1d	0.16185422
25	0x3bed861b	0.0072486526
26	0xbe71adc9	-0.2360145
27	0x3f096d1f	0.5368213
28	0xbdcd0879	-0.10011382
29	0x3e13b648	0.14425004
30	0xbdc9eb20	-0.098593
31	0xbd0026ac	-0.03128688
32	0x3da7e23c	0.08197448
33	0xbbd70458	-0.006561797
34	0x3d470722	0.048590787
35	0xbca1d206	-0.019753467
36	0x3e4c91a5	0.19977434
37	0xbe287e65	-0.16454466
38	0x3e09a55d	0.13441987
39	0xbdeafc6d	-0.11473928
40	0x3d929c4b	0.07158717
41	0xbc1b3dff	-0.00947523
42	0xbd8c251d	-0.06843016
43	0x3cc65aa5	0.024213145
44	0x3def1153	0.11673226
45	0xbba0a5ae	-0.004902563
46	0xbd27e99c	-0.04099427
47	0x3eab26cc	0.33428037
48	0xbe170462	-0.14747766
49	0xbd5ace18	-0.053419203
50	0x3e4596ab	0.19295757
51	0xbdc1e4f0	-0.094674945
52	0x3dcaa95a	0.098955825
53	0x3ddd91d9	0.10818834
54	0xbca98070	-0.020691127
55	0xbe39f338	-0.18159187
56	0x3e096e7d	0.13421054
57	0xbb98a62f	-0.0046584825
58	0xbda39809	-0.07987983
59	0x3bc37a99	0.0059655425
60	0xbe0a5814	-0.13510162
61	0x3da3993e	0.07988213
62	0xbe3f5e30	-0.18688273
63	0x3e454b48	0.19266999
64	0xbdb1bf25	-0.08679036
65	0xbe564cfd	-0.20927806
66	0xbcdc07ef	-0.026859252
67	0x3e7e43dc	0.24830574
68	0xbd754cff	-0.059887882
69	0xbd62d150	-0.055375397
70	0x3e1d0102	0.15332416
71	0x3e055110	0.13019204
72	0xbd082231	-0.033235732
73	0x3ccf73ff	0.025323866
74	0x3c8db900	0.017300129
75	0x3be8a3ae	0.0070995903
76	0xbc53d992	-0.012930291
77	0x3bf96737	0.007611181
78	0x3dbffefd	0.09374807
79	0x3d2bbdf4	0.0419292
80	0x3dcc7c7a	0.099846795
81	0x3d8d7a33	0.06908073
82	0xbe1aceb2	-0.1511791
83	0xbdf4a6a5	-0.119458474
84	0xbe144838	-0.14480674
85	0xbd7748af	-0.06037205
86	0x3dfb4501	0.12269021
87	0x3e02f451	0.12788512
88	0xbc506a41	-0.012720645
89	0xbe0de77b	-0.13857834
90	0xbe56b31e	-0.20966765
91	0xbd6c164d	-0.057638455
92	0x3d432575	0.047643144
93	0x3d7bcbc9	0.06147364
94	0xbd68cae0	-0.0568341
95	0xbbb7e661	-0.00561218
96	0xbd15eb9c	-0.036601648
97	0x3c261c41	0.010138572
98	0x3b112c1e	0.002215154
99	0xbe7af937	-0.2450913
100	0xbdea5462	-0.11441876
101	0x3c5e018a	0.013550172
102	0x3d03d38b	0.032184165
103	0xbe33bc0a	-0.175522
104	0x3e808d03	0.25107583
105	0xbbcb21e4	-0.0061991084
106	0x3dbe3b38	0.09288639
107	0x3e173853	0.1476758
108	0xbd871279	-0.0659532
109	0x3dda0c75	0.10646907
110	0x3d5f62b9	0.05453751
111	0x3ccffa3a	0.025387872
112	0x3f15fa6c	0.5858524
113	0xbba5ed07	-0.0050636563
114	0xbdb9cf47	-0.09072738
115	0x3dd60efd	0.104520775
116	0xbe329d9c	-0.17442936
117	0x36e81dc0	6.917602e-06
118	0x3c9d263b	0.019183269
119	0x3d1fee94	0.039045885
120	0x3ddcb8a3	0.10777404
121	0x3cf26417	0.029588742
122	0xbdc03b6b	-0.09386333
123	0x3db0231c	0.086004466
124	0x3d9c0a28	0.07619125
125	0xbe14617f	-0.14490317
126	0x3dd96086	0.106141135
127	0x3c30b86f	0.01078616
128	0xbdbaeb45	-0.09126905
129	0x3e0f2ba8	0.13981497
130	0x3c9f2022	0.019424502
131	0xbe344fab	-0.17608516
132	0xbe523c91	-0.20530917
133	0x3ed2e3bd	0.41189376
134	0xbe932fe2	-0.2874747
135	0xbd8f80b2	-0.070069686
136	0x3e6aa32e	0.2291381
137	0xbf00eb8d	-0.5035942
138	0x3cd0256e	0.025408473
139	0xbca9660f	-0.020678548
140	0xbe66a59d	-0.22524114
141	0x3d83f304	0.06442836
142	0x392a21d0	0.0001622506
143	0x3e6c479c	0.23074192
144	0x3db831c3	0.08993866
145	0x3da8c745	0.08241133
146	0xbd437dd5	-0.047727425
147	0xbedccb90	-0.43124056
148	0xbebdfd33	-0.37107238
149	0x3d8763ee	0.06610857
150	0xbd4705c0	-0.048589468
151	0x3cfbf4dd	0.030756408
152	0x3dd76240	0.105167866
153	0xbe2f19cc	-0.17099684
154	0x3dbbd0e6	0.091707036
155	0xbdef1417	-0.11673754
156	0x3e2a2587	0.16615878
157	0xbece75da	-0.4032429
158	0x3d49cb4a	0.049266137
159	0x3d2bdab8	0.041956633
160	0x3e2aa801	0.16665651
161	0x3e9d28c4	0.30695164
162	0x3e23d32c	0.15998524
163	0xbd6845cd	-0.056707192
164	0x3e4eee4c	0.2020809
165	0x3e3a956e	0.18221065
166	0x3e899a1b	0.26875386
167	0xbe9a4416	-0.3013007
168	0xbc9da043	-0.019241458
169	0xbdcbe737	-0.0995621
170	0x3e994526	0.2993557
171	0xbced195e	-0.02894276
172	0x3e985796	0.29754323
173	0xbdd65cde	-0.10466932
174	0xbe7eebac	-0.24894589
175	0xbeb0e205	-0.3454744
176	0xbdeb2723	-0.11482074
177	0xbe81d05b	-0.25354275
178	0xbdac0b40	-0.08400583
179	0x3da99610	0.08280575
180	0x3d7d7c70	0.06188625
181	0x3d91989e	0.071091875
182	0x3cc2f656	0.023799103
183	0x3db3884c	0.08766231
184	0x3e78765c	0.242639
185	0xbe05c172	-0.13062075
186	0x3e34deaf	0.17663072
187	0x3d23f603	0.040029537
188	0x3eb7b2d1	0.35878614
189	0xbd5d9b95	-0.054103453
190	0x3dc27ba8	0.09496242
191	0x3e1adacb	0.15122525
192	0xbcbeddb8	-0.023299083
193	0x3e1d7370	0.15376067
194	0xbd1c63e9	-0.03818122
195	0x3d68765d	0.056753505
196	0x3e9063de	0.28201193
197	0x38cc7aa8	9.7503245e-05
198	0x3e79b700	0.24386215
199	0xbc050653	-0.008119184
200	0x3e28dbfc	0.16490167
201	0xbeac6653	-0.33671817
202	0x3d0ba481	0.03409243
203	0xbabbdff8	-0.0014333716
204	0x3d9b7189	0.075900145
205	0x3eb4e51d	0.3533105
206	0xbe96db62	-0.2946425
207	0x3d14b6b4	0.03630705
208	0xbd83ed29	-0.06441719
209	0x3e90b650	0.28264093
210	0xbc5650a6	-0.0130807515
211	0x3cf55750	0.02994886
212	0x3cd2c4dd	0.025728637
213	0xbcb16819	-0.021656083
214	0x3d37b5a4	0.04485096
215	0xbed07c2f	-0.40719745
216	0xbec0b748	-0.37639832
217	0x3db807de	0.089858755
218	0x3e8750df	0.26428887
219	0xbbf8f421	-0.007597462
220	0x3e2f2b34	0.17106324
221	0x3e2e1e1b	0.17003672
222	0x3d71d07d	0.05903672
223	0xbcb7e581	-0.022448303
224	0x3edc6d2a	0.43052036
225	0x3d1384a5	0.03601517
226	0x3e54ac29	0.20768799
227	0xbc0f7c3e	-0.008757649
228	0x3e67bf25	0.2263151
229	0xbcc95756	-0.024577778
230	0x3dc6c4b1	0.09705485
231	0xbcf0534e	-0.029336598
232	0x3c5d5f35	0.013511469
233	0x3d9e1cf4	0.07720366
234	0x3e357884	0.17721754
235	0xbecfcd1a	-0.40586168
236	0x3e065eec	0.13122147
237	0x3e385ca7	0.18004094
238	0xbd78bb62	-0.060725577
239	0xbbcbc03a	-0.0062179836
240	0xbc60d17f	-0.013721823
241	0xbce7481d	-0.028232628
242	0xbde89a97	-0.11357611
243	0x3e998786	0.2998621
244	0x3e2ca0c2	0.16858199
245	0x3d3d500a	0.04621891
246	0x3df8fd9f	0.121577494
247	0x3e963aa1	0.29341605
248	0x3dfdaf41	0.12386943
249	0xbe8362a3	-0.2566119
250	0xbda826ab	-0.082105
251	0x3e3a9f80	0.18224907
252	0x3e9cc36f	0.30617854
253	0x3e47215f	0.19446324
254	0xbda81d10	-0.08208668
255	0x3dc6bcbd	0.09703968

fc2.bias f4 [128]
0	0xbdd72190	-0.105044484
1	0xbe726c80	-0.23674202
2	0xbe1a89b4	-0.15091592
3	0x3bfb76b6	0.0076740636
4	0xbe8d4638	-0.27592635
5	0xbe6f896b	-0.23392265
6	0xbe818479	-0.2529638
7	0xbe03bbae	-0.12864563
8	0xbdf3b608	-0.11899954
9	0xbe14d17b	-0.14533035
10	0xbe635981	-0.22202112
11	0xbe68f00a	-0.22747818
12	0xbe1cce95	-0.1531318
13	0xbe9eb810	-0.30999804
14	0xbec1b54b	-0.37833628
15	0xbe831f59	-0.25609854
16	0xbe7afc9e	-0.24510428
17	0xbdbde7ff	-0.09272765
18	0xbe27c7b1	-0.1638477
19	0xbd7a2773	-0.061072778
20	0xbe5087b2	-0.20364264
21	0xbd475ea4	-0.04867424
22	0xbe853560	-0.26017284
23	0xbe827aac	-0.25484216
24	0x3e03ef08	0.12884152
25	0xbe3ec47c	-0.1862964
26	0xbe81fa59	-0.25386313
27	0xbb051aa0	-0.002031006
28	0xbe862321	-0.26198676
29	0xbe4dd2f1	-0.20099999
30	0xbea8a913	-0.32941493
31	0xbe712a9b	-0.23551409
32	0xbe6deae0	-0.23234129
33	0x3d477034	0.04869099
34	0xbe95f368	-0.29287267
35	0xbe9526a7	-0.29131052
36	0xbe98865a	-0.29790002
37	0x3e109dda	0.14122716
38	0x3e969958	0.29413867
39	0xbe8533cc	-0.2601608
40	0xbe279f30	-0.16369319
41	0xbe88b24e	-0.26698536
42	0xbe949f0a	-0.29027587
43	0xbe4ff4e2	-0.20308259
44	0xbe9dcb23	-0.30819044
45	0xbe909d6f	-0.28245112
46	0xbe04e45e	-0.1297774
47	0x3df3d55d	0.1190593
48	0xbe8a9fb3	-0.27074966
49	0xbd0d9d0c	-0.0345736
50	0xbd98a677	-0.07453626
51	0x3d8daee4	0.06918123
52	0xbdb666bc	-0.08906314
53	0xbeb6283b	-0.35577568
54	0xbe9798eb	-0.29608855
55	0xbe4219ef	-0.18955205
56	0xbe7ca465	-0.24672087
57	0x3d9d8679	0.07691664
58	0xbe997508	-0.299721
59	0xbeabbef6	-0.3354413
60	0xbd833b5b	-0.064078055
61	0xbe8c44a0	-0.27396107
62	0xba44425e	-0.0007486696
63	0xbe9097c8	-0.282408
64	0x3e1eaa3a	0.15494624
65	0x3d1d9a22	0.03847707
66	0xbe757da1	-0.23973705
67	0xbe9d2b35	-0.30697027
68	0x3cd0146b	0.025400361
69	0xbbbd2241	-0.0057719056
70	0xbe2da4bd	-0.16957374
71	0xbe8274e0	-0.25479794
72	0xbe3fbb0b	-0.18723695
73	0xbe57c861	-0.21072532
74	0xbe88ec2c	-0.26742685
75	0x3d508025	0.05090346
76	0xbe7c2564	-0.24623638
77	0xbe3cf43b	-0.18452542
78	0xbebc43ec	-0.3677057
79	0xbdd8b823	-0.10581996
80	0xbeb70b19	-0.35750654
81	0xbe4af00a	-0.1981813
82	0xbeb29280	-0.34877396
83	0xbe38f454	-0.18061954
84	0xbe909fa8	-0.28246808
85	0xbe952ba1	-0.2913485
86	0xbe6966be	-0.227931
87	0x3e37fe3b	0.17968075
88	0x3d32d8cd	0.04366379
89	0xbe95a4b3	-0.29227218
90	0xbe1871cd	-0.14887162
91	0xbea428fe	-0.32062525
92	0xbe5930c8	-0.21210015
93	0xbec2cf78	-0.3804891
94	0xbe2e8c71	-0.17045762
95	0xbe84f08e	-0.2596478
96	0xbe34fd8b	-0.17674844
97	0x3c85bde3	0.016325897
98	0x3ec0f934	0.37690127
99	0xbe998c98	-0.29990077
100	0xbe98486d	-0.29742756
101	0xbe1566fd	-0.14590068
102	0x3cead1b6	0.028664451
103	0xbda9db40	-0.08293772
104	0xbe182620	-0.14858294
105	0x3ed3c107	0.41358206
106	0xbe34a517	-0.17641102
107	0xbe4e5649	-0.20150103
108	0xbecd611d	-0.40113154
109	0xbe2fe4c8	-0.17177117
110	0xbe8ce021	-0.27514747
111	0x3c55702c	0.013027232
112	0xbe6c2d03	-0.23064046
113	0x3d281780	0.041038036
114	0xbdb1fe4b	-0.08691081
115	0xbe1a6b1a	-0.15079919
116	0xbe810819	-0.2520149
117	0x3d67963b	0.056539755
118	0xbeb1fe12	-0.34764153
119	0xbde83e9f	-0.11340069
120	0xbe50eaa4	-0.20402008
121	0x3dde6fe5	0.10861186
122	0xbe67e307	-0.22645198
123	0xbe7a119a	-0.24420777
124	0xbe409d36	-0.18809971
125	0xbea8936c	-0.32924974
126	0xbe764cca	-0.2405273
127	0xbe8be608	-0.27323937

bn2.weight f4 [128]
0	0x3dbb4f17	0.091459446
1	0x3fb4284a	1.4074795
2	0x3f49f20c	0.7888496
3	0x3e242505	0.16029747
4	0x3f66521d	0.89969045
5	0x3f544e0a	0.8293158
6	0x3f3d71aa	0.7400156
7	0x3f026b97	0.5094542
8	0x3f386715	0.7203229
9	0x3f3e3760	0.74303246
10	0x3f167b39	0.5878177
11	0x3f2d7566	0.6775726
12	0x3de4f584	0.11179641
13	0x3f57be9c	0.8427522
14	0x3f9bbfc5	1.2167898
15	0x3f2eafbd	0.68236905
16	0x3fa322f0	1.2745037
17	0x3ee68b0f	0.45027968
18	0x3f4cc71d	0.7999132
19	0x3b8ebdd1	0.004356124
20	0x3cd3d656	0.02585904
21	0x3f71ed4d	0.9450272
22	0x3f70bf64	0.9404204
23	0x3f6c7ab3	0.92374724
24	0x3f01a736	0.5064577
25	0x3f3b5bd4	0.73186994
26	0x3ecdb5ef	0.40177867
27	0xbad844b2	-0.0016499965
28	0x3fd7690a	1.682893
29	0x3f46ded1	0.7768374
30	0x3f84734c	1.0347686
31	0x3ecc34ff	0.39884183
32	0x3f9a9280	1.2075958
33	0x3e532f2f	0.20623468
34	0x3f37666e	0.7164067
35	0x3ecc940f	0.3995671
36	0x3f814823	1.0100139
37	0x3d71273b	0.058875304
38	0x3df49d0d	0.119440176
39	0x3ed895af	0.423017
40	0x3ee040b1	0.43799356
41	0x3f72d5f9	0.94857746
42	0x3f7c87de	0.98644817
43	0x3f92b70a	1.1462109
44	0x3f11078a	0.5665213
45	0x40054cc6	2.0828109
46	0x3f7f38ba	0.9969593
47	0x3e600561	0.21877052
48	0x3fa1104c	1.2583098
49	0x3c7241c5	0.0147861885
50	0x3d9cdac1	0.076589115
51	0x3df337c0	0.11875868
52	0x3f97ca2c	1.1858573
53	0x3f7c110c	0.9846351
54	0x3f9e8c8c	1.2386642
55	0x3f2d1223	0.676058
56	0x3f8b01f9	1.0859977
57	0xbb18ea24	-0.0023332918
58	0x3fe2e4bd	1.7726055
59	0x3f43c79d	0.7647646
60	0x3dcad29b	0.09903451
61	0x3f85ae58	1.044383
62	0x3c9f3dcb	0.019438645
63	0x3fad103a	1.3520577
64	0x3f064233	0.5244476
65	0x3df8fadf	0.12157225
66	0x3f6cf41d	0.9255999
67	0x3f9d14fe	1.2272031
68	0x3e7b3adc	0.24534172
69	0x3baf8695	0.0053566196
70	0x3fcd18a0	1.602314
71	0x3f2a742a	0.665835
72	0x3fadac1b	1.3568147
73	0x3ece1973	0.4025379
74	0x3fc6cf5a	1.5532029
75	0x3d8d17ce	0.06889306
76	0x3f93da19	1.1550933
77	0x3f9e3d6c	1.2362494
78	0x40186ded	2.3817093
79	0x3d0f3acb	0.03496818
80	0x3fda430a	1.7051709
81	0x3f6835f3	0.9070732
82	0x3f6bfa04	0.9217837
83	0x4027a798	2.619604
84	0x3fb27d5f	1.394451
85	0x401b8f24	2.4306116
86	0x3fb267ba	1.3937905
87	0x3ee8e4a5	0.45486942
88	0x3e312dfa	0.17302695
89	0x3f504916	0.8136152
90	0x3f81630b	1.010835
91	0x3f3ac34f	0.7295427
92	0x3f4bb2dd	0.795698
93	0x3f565820	0.8372822
94	0x3f38b797	0.72155136
95	0x3f90828e	1.1289842
96	0x4006dfe1	2.1074145
97	0x3e86e9f3	0.26350364
98	0x3b824591	0.003975578
99	0x3ed57ff6	0.4169919
100	0x3f6b769b	0.9197785
101	0x3f2164a1	0.6304417
102	0x3d60642c	0.05478303
103	0x4015e5c7	2.3421495
104	0x3f5db1cf	0.8659944
105	0x3cb0b2c0	0.02156961
106	0x3f6f2b76	0.9342569
107	0x3fec8b82	1.8480074
108	0x3f6cd7fc	0.92517066
109	0x3f7a0295	0.9766019
110	0x3fbaee4e	1.4603975
111	0xbb85a63b	-0.004078654
112	0x3ff7d38c	1.9361434
113	0x3eadd8ce	0.3395447
114	0x3e1d8dc3	0.15386109
115	0x3fa7ceff	1.3110045
116	0x3f4b293d	0.793598
117	0x3c24e204	0.010063652
118	0x3fc03a02	1.5017703
119	0x3f331a31	0.6996184
120	0x3f33df19	0.70262295
121	0x3e8111da	0.25208932
122	0x408440f5	4.1329293
123	0x3f829345	1.0201193
124	0x3f9ff666	1.249707
125	0x3f00ea43	0.50357455
126	0x3e9aebce	0.3025803
127	0x3f6d3ad5	0.92667896

bn2.bias f4 [128]
0	0xbd9c5cab	-0.076348625
1	0xbde0bd99	-0.10973663
2	0x3c7e3d36	0.0155175235
3	0xbe229651	-0.15877654
4	0x3c907057	0.017631693
5	0x3e590d06	0.21196374
6	0xbeb65b6b	-0.3561662
7	0xbe080783	-0.13284115
8	0xbeb48e27	-0.35264704
9	0xbec36bbf	-0.3816814
10	0xbe34834a	-0.17628208
11	0xbc9375b7	-0.018000467
12	0x3c6bd94b	0.014395068
13	0xbe073355	-0.13203175
14	0xbbe6d1be	-0.007044046
15	0xbdba5db7	-0.09099906
16	0xbe885382	-0.2662621
17	0xbe99a4c8	-0.3000853
18	0xbe833860	-0.25628948
19	0xbd98abaa	-0.07454617
20	0xbe7785fa	-0.24172202
21	0x3c82a9ad	0.015950048
22	0xbcf8d6e6	-0.030375909
23	0xbe581a86	-0.21103868
24	0xbeb2a8f3	-0.34894523
25	0xbd7be27d	-0.061495293
26	0xbe0d7bed	-0.13816805
27	0xbc807aef	-0.01568362
28	0xbd88b326	-0.06674795
29	0x3c60a4e3	0.013711187
30	0x3c9aae1c	0.01888185
31	0xbe815898	-0.25262904
32	0xbe303be5	-0.17210348
33	0xbeb7589f	-0.358098
34	0x3de61a5a	0.11235495
35	0x3e515bae	0.2044513
36	0x3d39f82a	0.045402683
37	0xbe3a2982	-0.18179896
38	0xbe26147a	-0.16218749
39	0x3d87dd7a	0.0663404
40	0xbe3432ea	-0.17597547
41	0xbe0264aa	-0.12733713
42	0xbda145d5	-0.078746475
43	0xbe80be56	-0.25145215
44	0xbe8a6694	-0.27031386
45	0x3d807a38	0.062733114
46	0xbe67afff	-0.22625731
47	0xbea5c5ac	-0.32377374
48	0x3e0ce2be	0.1375837
49	0xbe90ae08	-0.28257775
50	0x3d97f147	0.07419067
51	0xbe923518	-0.28556132
52	0x3b965fa0	0.004589036
53	0xbe861bdb	-0.26193127
54	0xbe109b5b	-0.14121763
55	0xbeb4487c	-0.3521155
56	0x3e65a097	0.22424541
57	0x3ddc7d8d	0.107661344
58	0xbe485b79	-0.19566144
59	0xbdcd576a	-0.100264385
60	0xbe95dd43	-0.29270372
61	0x3f179e17	0.592256
62	0xbf0e68a4	-0.5562842
63	0xbd0e8e18	-0.03480348
64	0xbe4194ee	-0.18904468
65	0xbe9b5415	-0.30337587
66	0xbbc8e557	-0.006130855
67	0xbb373d2d	-0.0027960048
68	0xbeb831eb	-0.35975584
69	0xbd674777	-0.05646464
70	0xbd4331b1	-0.04765481
71	0x3db20f23	0.08694293
72	0xbe67845c	-0.22609085
73	0xbd2c4ef3	-0.04206748
74	0xbd9c4e8b	-0.076321684
75	0xbdfcc40e	-0.12342082
76	0xbdecd8ae	-0.11564766
77	0x3d944831	0.07240332
78	0xbdaee227	-0.08539229
79	0xbe496714	-0.19668227
80	0xbde2202a	-0.11041291
81	0xbc70a417	-0.01468756
82	0xbdf54c8b	-0.1197749
83	0x3e596dad	0.21233244
84	0xbeb0a177	-0.34498188
85	0x3d045991	0.03231198
86	0xbdf217ea	-0.118209675
87	0xbf099571	-0.53743654
88	0xbe2ae128	-0.16687453
89	0xbe175fa4	-0.14782578
90	0xbe12d5fb	-0.1433944
91	0x3dfeba8a	0.12437923
92	0xbe82a619	-0.25517347
93	0xbdfcd2d1	-0.123448975
94	0xbe21b964	-0.15793377
95	0x3e616ae7	0.22013436
96	0x3e1fb301	0.15595628
97	0xbec8cf9f	-0.39220902
98	0xbd19c56c	-0.03754179
99	0xbdbd34ca	-0.09238584
100	0xbdb44aca	-0.088033274
101	0xbe0df0d9	-0.13861407
102	0xbe7967e8	-0.24356043
103	0x3e1f89ef	0.15579961
104	0xbee73a82	-0.45161825
105	0xbe3160e7	-0.17322122
106	0xbe15a3a9	-0.14613213
107	0xbd9801eb	-0.07422241
108	0x3dfdc0da	0.12390299
109	0xbea404af	-0.32034823
110	0xbe8e7395	-0.27822557
111	0xbe01ad2b	-0.12663715
112	0xbcaabc64	-0.020841785
113	0x3c34b84c	0.011030268
114	0xbee0bb95	-0.43893114
115	0xbdb6e96b	-0.0893124
116	0xbe122adc	-0.14274162
117	0xbeace256	-0.3376643
118	0x3d71608f	0.058929976
119	0xbe4ec749	-0.20193209
120	0x3e8976cf	0.26848456
121	0xbeb1ebfd	-0.34750357
122	0x3d3d2fe3	0.046188246
123	0x3e213467	0.15742646
124	0xbe261b11	-0.16221263
125	0x3ddfe708	0.109327376
126	0xbd14b080	-0.036301136
127	0xbde3e148	-0.11126953

bn2.running_mean f4 [128]
0	0x3faffa6f	1.3748301
1	0x3d22762e	0.039663486
2	0x00000004	6e-45
3	0x3fb17189	1.3862773
4	0x00000004	6e-45
5	0x00000004	6e-45
6	0x3d86d9b7	0.065844946
7	0x3e4f08a0	0.20218134
8	0x15f5f6a8	9.9343867e-26
9	0x3e1f15fc	0.1553573
10	0x212abe49	5.785008e-19
11	0x00000004	6e-45
12	0x23b178ec	1.9241591e-17
13	0x00000004	6e-45
14	0x0f113729	7.1596754e-30
15	0x01b1cda9	6.531464e-38
16	0x00000004	6e-45
17	0x3ddd49f6	0.108051226
18	0x00000004	6e-45
19	0x3ec75821	0.38934425
20	0x3c1068cc	0.008814048
21	0x3d0fdc8e	0.035122447
22	0x3cd48bff	0.025945662
23	0x00000004	6e-45
24	0x404de34f	3.2169988
25	0x00000004	6e-45
26	0x3cb9f07f	0.022697685
27	0x3eb9f2b1	0.3631797
28	0x00000004	6e-45
29	0x00000004	6e-45
30	0x00000004	6e-45
31	0x3d10731a	0.03526602
32	0x00000004	6e-45
33	0x3fd16eb2	1.6361907
34	0x2e495cb0	4.5784432e-11
35	0x00000004	6e-45
36	0x00000004	6e-45
37	0x4013c734	2.3090334
38	0x40ac3b9d	5.382277
39	0x3e4e977e	0.20174977
40	0x0000000d	1.8e-44
41	0x00000004	6e-45
42	0x00000004	6e-45
43	0x00000004	6e-45
44	0x00000004	6e-45
45	0x2c78202f	3.5260785e-12
46	0x235a8e2a	1.1847908e-17
47	0x3ff74a54	1.9319558
48	0x00000004	6e-45
49	0x40140b42	2.3131871
50	0x3f396f8c	0.7243583
51	0x3f9d2ad6	1.2278697
52	0x00000004	6e-45
53	0x00000004	6e-45
54	0x12115eb4	4.5870663e-28
55	0x160c904b	1.1354641e-25
56	0x3c5e241c	0.013558414
57	0x4011adc8	2.2762318
58	0x3b8abaeb	0.004233708
59	0x00000004	6e-45
60	0x3feda577	1.8566121
61	0x00000004	6e-45
62	0x400379f7	2.0543191
63	0x257650f5	2.1364528e-16
64	0x4059df54	3.4042559
65	0x3faa1b78	1.3289633
66	0x00000004	6e-45
67	0x3d21c7e5	0.039497275
68	0x400a5f33	2.1620605
69	0x3e4a6fff	0.19769286
70	0x00000004	6e-45
71	0x00000004	6e-45
72	0x3d2dcda2	0.042432435
73	0x16199681	1.2406732e-25
74	0x00000004	6e-45
75	0x3f737b9f	0.95110506
76	0x3d1016d4	0.03517802
77	0x00000004	6e-45
78	0x00000004	6e-45
79	0x3f3787d4	0.7169163
80	0x030c8230	4.129175e-37
81	0x00000004	6e-45
82	0x00000004	6e-45
83	0x28a6ea6d	1.8531368e-14
84	0x00000004	6e-45
85	0x00000004	6e-45
86	0x00000004	6e-45
87	0x403d81ff	2.9610593
88	0x4039e668	2.904688
89	0x00000004	6e-45
90	0x3c691408	0.014225967
91	0x00000004	6e-45
92	0x2551c739	1.819536e-16
93	0x00000004	6e-45
94	0x00000004	6e-45
95	0x36a468a6	4.8997636e-06
96	0x00000004	6e-45
97	0x3fa9c455	1.3263041
98	0x409f47a3	4.9774947
99	0x3199827e	4.4677213e-09
100	0x00000004	6e-45
101	0x00000004	6e-45
102	0x4001a061	2.0254138
103	0x3e9e6508	0.30936456
104	0x3e9640d6	0.2934634
105	0x40c8a0b5	6.2696176
106	0x00000004	6e-45
107	0x3e8657e0	0.26238918
108	0x00000004	6e-45
109	0x00000004	6e-45
110	0x00000004	6e-45
111	0x3f418ffd	0.75610334
112	0x00000004	6e-45
113	0x401fb077	2.4951456
114	0x3f4ae858	0.7926078
115	0x3e2e29d2	0.1700814
116	0x00000004	6e-45
117	0x4058b98e	3.3863254
118	0x00000004	6e-45
119	0x38f50af4	0.000116845506
120	0x2d2a2dfa	9.67359e-12
121	0x3f8e7642	1.112984
122	0x3d3cdee3	0.046111
123	0x3986bcf8	0.00025699264
124	0x381525b8	3.5559497e-05
125	0x3d318b3d	0.04334568
126	0x3c8d6413	0.017259633
127	0x3b352a66	0.002764368

bn2.running_var f4 [128]
0	0x409c67f8	4.8876915
1	0x3e8a453f	0.27005956
2	0x00000004	6e-45
3	0x4041035d	3.0158303
4	0x00000004	6e-45
5	0x00000004	6e-45
6	0x3f233968	0.6375947
7	0x3e768b5a	0.24076596
8	0x14dedc8a	2.2503259e-26
9	0x3e843fe1	0.25829986
10	0x20292b02	1.4329087e-19
11	0x00000004	6e-45
12	0x225571f0	2.89272e-18
13	0x00000004	6e-45
14	0x0c44232e	1.5109877e-31
15	0x003ce791	5.5932e-39
16	0x00000004	6e-45
17	0x3df43cf0	0.119256854
18	0x00000004	6e-45
19	0x3f0fa45b	0.5611016
20	0x3c4b8668	0.012422182
21	0x3e171005	0.14752205
22	0x3dedb59e	0.11606906
23	0x00000004	6e-45
24	0x414d02dd	12.813199
25	0x00000004	6e-45
26	0x3dbc7902	0.09202768
27	0x3f48b405	0.7839969
28	0x00000004	6e-45
29	0x00000004	6e-45
30	0x00000004	6e-45
31	0x3e56d743	0.20980553
32	0x00000004	6e-45
33	0x405ebc71	3.4802516
34	0x2e43a1f9	4.4481727e-11
35	0x00000004	6e-45
36	0x00000004	6e-45
37	0x40c42794	6.1298313
38	0x40f54f83	7.665956
39	0x3ecee25a	0.40407068
40	0x00000004	6e-45
41	0x00000004	6e-45
42	0x00000004	6e-45
43	0x00000004	6e-45
44	0x00000004	6e-45
45	0x2ac43789	3.485513e-13
46	0x2180878d	8.709497e-19
47	0x410945a9	8.579507
48	0x00000004	6e-45
49	0x4117abbe	9.479429
50	0x40b4cc06	5.649905
51	0x402eee28	2.733286
52	0x00000004	6e-45
53	0x00000004	6e-45
54	0x10ef0d25	9.428913e-29
55	0x151191cb	2.9397527e-26
56	0x3d165578	0.036702603
57	0x4094e255	4.6526284
58	0x3c27e3f9	0.010247224
59	0x00000004	6e-45
60	0x41013840	8.076233
61	0x00000004	6e-45
62	0x40b7b74e	5.741126
63	0x23f55935	2.6600734e-17
64	0x412efa45	10.936101
65	0x40848d2e	4.142234
66	0x00000004	6e-45
67	0x3cfac42d	0.030611122
68	0x40c81c0f	6.253425
69	0x3fd93f4f	1.6972445
70	0x00000004	6e-45
71	0x00000004	6e-45
72	0x3e5bf3c7	0.21479712
73	0x152dcba7	3.5097725e-26
74	0x00000004	6e-45
75	0x3fac1400	1.3443604
76	0x3e543974	0.20725042
77	0x00000004	6e-45
78	0x00000004	6e-45
79	0x3f8719cf	1.0554751
80	0x0289c0f2	2.0241086e-37
81	0x00000004	6e-45
82	0x00000004	6e-45
83	0x27b02ec4	4.8900516e-15
84	0x00000004	6e-45
85	0x00000004	6e-45
86	0x00000004	6e-45
87	0x40e52238	7.160427
88	0x4116f98b	9.435924
89	0x00000004	6e-45
90	0x3d022fa8	0.03178373
91	0x00000004	6e-45
92	0x251176f7	1.2617052e-16
93	0x00000004	6e-45
94	0x00000004	6e-45
95	0x35986de4	1.1356865e-06
96	0x00000004	6e-45
97	0x40314972	2.7701077
98	0x40ede8d1	7.43467
99	0x31645ee8	3.3232315e-09
100	0x00000004	6e-45
101	0x00000004	6e-45
102	0x4097d49c	4.7447033
103	0x3f681875	0.9066232
104	0x3f1c66a3	0.6109411
105	0x401780fe	2.367248
106	0x00000004	6e-45
107	0x3f25dd38	0.6479068
108	0x00000004	6e-45
109	0x00000004	6e-45
110	0x00000004	6e-45
111	0x402031fa	2.5030503
112	0x00000004	6e-45
113	0x40e3009d	7.093825
114	0x40a1b2fc	5.0530987
115	0x4027a6da	2.6195588
116	0x00000004	6e-45
117	0x40c08a68	6.0168953
118	0x00000004	6e-45
119	0x3949477d	0.00019195485
120	0x2c389a3b	2.6233588e-12
121	0x40125b2d	2.286815
122	0x3d112d77	0.03544375
123	0x39d961e5	0.00041462402
124	0x3781c90a	1.5471614e-05
125	0x3e9ff400	0.31240845
126	0x3d48477e	0.048896305
127	0x3b932e80	0.004491627
