DQN_preTrained/cstr_ode/DQN_cstr_ode_0_2.pth (torch, 117380 bytes, 19 tensors)

fc1.weight f4 [128, 4]
00000000: e49c f03d 89a2 273e 40fd 8abe 47b7 a8be
00000010: def6 1ebe a112 953e 8c5d 76bc efd6 883e
00000020: beb5 a6be af3e 5f3e da98 8abd 74e4 1dbe
00000030: 4cfd 0fbf 7ec8 62be 1dbf b6bd c063 a8bd
00000040: 92e2 773e aade 823e d0d0 96be 40a9 95be
00000050: 8e7d e4bd bcfa 233f cfcd 29be f7ba 903e
00000060: 4e4a 613e a05b 9e3d 9c35 b23e 084e bcbe
00000070: 520e d1be cbde 803e fe44 a03d 3619 103e
00000080: 24fe edbe 2579 43be ed18 0fbd fa01 d9be
00000090: 8bc8 0abe d634 d83e bbca dd3e f62b c33d
000000a0: 7b5c 683e dea0 1ebd 0326 2b3e df73 aebe
000000b0: a524 debe 9a0a 81be 0898 833e a1f1 3d3e
000000c0: b0dc 56be 7862 6c3c 27d2 9d3e 7928 113f
000000d0: 71ab 6cbd 6bea 8f3e 8839 923e 5c7c 59be
000000e0: c625 0f3e 7074 08bf f41a 8ebe efb6 c6be
000000f0: 244a 963e e103 093e ab59 6abe c8ad 1a3e
00000100: 9539 023f 3f02 b1bd 60d0 973d 2ce2 0e3e
00000110: 837c c13e 3c24 d33e a19b a2be a11a 5dbe
00000120: 065e 9d3e e4b5 cf3e 0cb1 bd3e 19eb f33e
00000130: 2986 a03e 34b7 a5be e89b 293e 4d9f 9dbe
00000140: f88c f5be b841 ca3e eedc b93e efaa 00bf
00000150: 08aa bf3d c880 acbd b882 a8bd 1c5f 6abe
00000160: fa0a 4a3e e2c5 9bbe 34d6 1c3e 224a 8fbc
00000170: fc35 153f 6852 f63d 4780 82be 9500 81be
00000180: 018e d93d 5a3b 8c3e 993d efbe 915d 8abe
00000190: f2d4 f03e 547f ac3e b03e 5fbe d4dc 00be
000001a0: e8ea f7be 1284 f33c e658 bebe a97d bbbe
000001b0: d89d 85be 2149 a63d 9179 7fbe 28e1 923d
000001c0: 74a9 bcbe 2096 b83e 3601 893e 3db8 f9be
000001d0: a457 b3be a300 b93d a1ce b2bd eb52 e93c
000001e0: 1f70 493e 2bba 9dbc 96bb 42be c761 443e
000001f0: c465 e9be 9c01 9bbe 3197 f3bc 4191 7abe
00000200: a9da 8dbd ef10 24bf 83e0 16bd 6a0d 25bd
00000210: b007 2abf 9983 953d 6404 ae3d e2f6 a2bd
00000220: d581 83bc 0d09 58bc b6e6 913d c870 933e
00000230: 8373 243e e06b 553f 8a17 843e 8959 05be
00000240: 1f0c 0fbf 66ec e8bd f4fe 7b3e dbdc 513c
00000250: b44a c6be cc85 d3be ebbb a7be 8595 d6be
00000260: 6abf cebd 5ee2 a73e 26b9 233e bb0f ddbe
00000270: 2eb0 9f3e 8a52 c8be f07b d8bd 1c9a 4fbe
00000280: af5c 60be 2aeb ebbd 38e3 b9be b22b ccbe
00000290: 283c a0bd 80e1 d33b b896 68be b8de 403e
000002a0: 798f 3abf b3a6 ac3c 5a7b d43c 2b4a 5ebe
000002b0: 4527 f53e 2c7d 603e ccb2 95be ff09 893e
000002c0: 05ed 093f c684 b4be 69e6 463e 5d30 8abd
000002d0: f3de 5fbd 703b 2b3c e522 e73e 927d 3f3e
000002e0: 4ecd f53e 0663 f33d e4bb 873d 0bc3 173e
000002f0: 3ec1 2abf a634 1c3f a5c5 323e 0941 2e3e
00000300: 6ea4 85be 8a0a 8dbd cb43 85be 8373 3bbe
00000310: 375c 4fbe f4fc a73d a51d 56be 00ba 32bc
00000320: f561 e03d a0ba a33e 477b 5fbe 8e39 96be
00000330: 2d4e e2be 4e35 913e e53a 16be 548c ea3e
00000340: a024 393e 40aa 813d 00ed 73bb 086d cabd
00000350: 26e2 ca3e 3e02 d63d 46f3 a13d aeac 013e
00000360: f1a3 cfbe 0c9e 7fbe e648 043f 47f9 9cbe
00000370: 4482 eabd b341 343f 1e83 113e 0196 abbd
00000380: 01e3 31bf b02d d83e a3d4 0bbe ba85 5fbe
00000390: 276b 93be e386 39be 1adc c8bd ecf3 873e
000003a0: 5010 b3bc 4910 363f c378 003e a180 38be
000003b0: 2a45 eb3e 424d 01bf 2cf3 87bd 1267 e83c
000003c0: b5c1 483e aa35 b03e 611f 05be 00d4 513a
000003d0: e00b c23e cc78 30bf d236 8d3e 03d2 cdbe
000003e0: 5cb5 8d3d dd90 f8bd f169 1ebe 9e8d 2d3d
000003f0: 0091 3c3f 63d9 63be 03d8 97bd 87c8 f4bd
0.117486745 0.16370596 -0.2714634 -0.3295233 -0.1552386 0.29115775 -0.015036952 0.2672648
-0.32560533 0.21801256 -0.06767435 -0.15419179 -0.56245875 -0.22146794 -0.08923171 -0.08222151
0.24207523 0.25560504 -0.29456186 -0.2923069 -0.1115676 0.64054465 -0.16582416 0.28267643
0.22001001 0.0773232 0.34806526 -0.36778283 -0.40831238 0.25169978 0.07825659 0.14072117
-0.46482956 -0.19089182 -0.03493588 -0.4238432 -0.13553064 0.4222781 0.43318734 0.09529869
0.22691528 -0.038727634 0.16713719 -0.34072778 -0.43387333 -0.252034 0.25701928 0.18549205
-0.20982623 0.014427774 0.30824396 0.5670238 -0.057780687 0.28108534 0.28559518 -0.21238846
0.13979253 -0.5330267 -0.2775494 -0.38811442 0.2935344 0.13380386 -0.22885768 0.15105355
0.50869113 -0.086430065 0.07412791 0.13953465 0.37790307 0.41238582 -0.3175936 -0.2159219
0.30735797 0.4056846 0.3704914 0.47640303 0.31352356 -0.32366335 0.1656338 -0.307856
-0.47959113 0.39503264 0.36301368 -0.50260824 0.09358603 -0.084230006 -0.082280576 -0.22887844
0.1973075 -0.3042441 0.15316087 -0.017491404 0.582855 0.120274365 -0.25488493 -0.25195757
0.10622788 0.27389032 -0.46726683 -0.2702451 0.47037464 0.33690894 -0.21801257 -0.12584239
-0.48421407 0.029726062 -0.371772 -0.3661931 -0.26096988 0.08119417 -0.24948718 0.071718514
-0.36848032 0.36052036 0.26758736 -0.48773375 -0.35027802 0.090333246 -0.087308176 0.028481921
0.19671677 -0.01925381 -0.19016871 0.19177924 -0.45585454 -0.30274665 -0.02973518 -0.24469472
-0.06926472 -0.6408834 -0.036835205 -0.040295996 -0.6641798 0.07300491 0.08496931 -0.079572454
-0.01605312 -0.013185752 0.07124083 0.28796983 0.16059689 0.8336773 0.2579921 -0.13022436
-0.5587787 -0.113732144 0.24608976 0.012809004 -0.3872887 -0.41313016 -0.32760558 -0.4191095
-0.10095103 0.32789892 0.15988597 -0.43176064 0.31189102 -0.39125472 -0.10570514 -0.20273632
-0.21910356 -0.11519463 -0.36306167 -0.39877087 -0.07823974 0.0064660907 -0.22713745 0.1883496
-0.7287517 0.021075582 0.025937725 -0.2170798 0.47881523 0.2192275 -0.29237974 0.2676544
0.5387729 -0.35257548 0.19423832 -0.06747506 -0.05465598 0.010451183 0.4514381 0.18700245
0.48008198 0.118841216 0.06627634 0.14820497 -0.66701114 0.61017835 0.17458208 0.17016996
-0.26102012 -0.06886776 -0.26028284 -0.18305783 -0.20250021 0.08202544 -0.20909746 -0.010908604
0.10956184 0.3197832 -0.2182437 -0.29340786 -0.44200268 0.2836098 -0.14670904 0.45810187
0.18080378 0.06331301 -0.003722012 -0.09884077 0.39625663 0.104496464 0.07907729 0.12663528
-0.40554765 -0.24962634 0.51673734 -0.30658934 -0.114506274 0.7041275 0.14210173 -0.0837822
-0.69487005 0.42222357 -0.13655333 -0.21828356 -0.28792688 -0.18117861 -0.09807606 0.26553285
-0.021858364 0.711186 0.12546067 -0.18017818 0.45951205 -0.5050851 -0.06638178 0.02836946
0.19605143 0.34415942 -0.13000251 0.0008004308 0.37899685 -0.6893432 0.27580887 -0.4019929
0.06919357 -0.121370055 -0.15470101 0.042371385 0.7365875 -0.22250895 -0.07414248 -0.1195231

fc1.bias f4 [128]
00000000: 8fd0 b2be 7393 a1be 9eda 773d 5895 483e
00000010: cacf 93be 5e3d 46bd 95a9 ef3e 4b02 5a3e
00000020: 0527 513e 5aa7 473c 48f2 833e 83e3 cfbe
00000030: e5a4 abbe a813 a7be 7559 aa3e b8b4 4ebe
00000040: 008e 8abd e2b3 9ebe 278d 133f 9878 ae3e
00000050: 111f cebe 1088 cfbe b979 d1be 1366 02be
00000060: 112e 83bd 4e90 a7be 2a92 27be 76fa c43d
00000070: 789e 9dbe d669 953d 2083 40be 76ee 76be
00000080: 17c9 cfbd 8902 e33e 2069 bcbe 9f81 46be
00000090: f7b7 8ebe a92e 133f c85b 06bf d26a f5be
000000a0: da7d 233f f8f7 a1be bf91 853e 424f 67be
000000b0: 1ecd 8cbd 0745 d2bd 5728 b03e 2539 ebbd
000000c0: bb38 14bf cfa0 c4be 0fef 8cbe d48b 6c3e
000000d0: 8eaa a5be 40c4 013f b3c7 07be 2f41 4abe
000000e0: bf10 9b3e b3d6 3b3e afb1 6b3e 233e 673e
000000f0: f903 3bbe 18a9 d3be 5c5b 19be 61dc 0f3f
00000100: 1a78 6cbe 73ba 0dbf 6069 7f3e 9d55 f23e
00000110: 4b3d 33be 0c4f e3be b5e0 b0be 7b09 663e
00000120: 8a8e 4fbe f034 a0be ff94 06be 2f38 d03d
00000130: 2b74 ee3e 5a13 e93e 1c32 ebbd 7ebb e1be
00000140: d853 e7be 5404 d73e 7731 bf3d 09e9 13be
00000150: 6768 fabe adf8 123f 1a58 073f 4ab0 da3e
00000160: 30f5 d7be 09d4 a5be 82ff e6be e15e d03e
00000170: 8fbe 8ebe c205 cebe 5ce5 963e 5c34 22be
00000180: 59b4 98be da17 d33d 198c ef3d b71e b2be
00000190: 9594 033f 508e ecbd ec6b 693e 1b61 d23e
000001a0: df12 b5bd 31dd bcbd b2fa c5bd 99c2 393e
000001b0: 3903 16be 5225 043f 2c07 753e 38c6 f9be
000001c0: c200 d73d 74e3 2ebe d6f8 243f e8db 403e
000001d0: b259 e9be a1a8 b63d 8bf3 c03e cb4f 413e
000001e0: 4339 e63d dd35 4bbe ea3e 173e e1e5 7ebe
000001f0: 970e a4be 1f75 c6be 2514 bdbe 4e3a 9f3e
-0.34924743 -0.31557807 0.060511224 0.1958822 -0.28869468 -0.048398368 0.46809068 0.21289937
0.20425041 0.012185896 0.25770783 -0.40603265 -0.33524242 -0.32632184 0.33271375 -0.20186126
-0.067653656 -0.30996615 0.57637256 0.3407638 -0.40258077 -0.40533495 -0.4091318 -0.1273425
-0.06405271 -0.32727283 -0.16364351 0.09618084 -0.30784965 0.07295577 -0.1880002 -0.24114403
-0.10145777 0.44337872 -0.36798954 -0.19385384 -0.2787473 0.5749307 -0.524838 -0.4793306
0.6386391 -0.31634498 0.26087758 -0.22588828 -0.068750605 -0.10267072 0.34405777 -0.11485509
-0.57899064 -0.38403937 -0.27526137 0.23100215 -0.32356685 0.5069008 -0.13259773 -0.19751428
0.30286214 0.1834362 0.23017 0.22582297 -0.18263234 -0.41339946 -0.14976257 0.56195647
-0.2309269 -0.55362624 0.24942541 0.47330943 -0.1750385 -0.44396245 -0.34546438 0.22464554
-0.20269218 -0.31290388 -0.13142775 0.10166966 0.46573004 0.45522577 -0.11484167 -0.44088358
-0.45181155 0.4199549 0.093356065 -0.14444365 -0.48907778 0.574107 0.5286881 0.42712623
-0.4217925 -0.32388332 -0.45116812 0.40697387 -0.2787976 -0.40238768 0.29471862 -0.15840286
-0.29825094 0.10307284 0.116966434 -0.3478906 0.51398593 -0.115505815 0.22795075 0.4108971
-0.0884149 -0.092218764 -0.09666957 0.1814064 -0.14649667 0.51619446 0.23928517 -0.4878404
0.104981914 -0.17078954 0.64442194 0.18833888 -0.45576245 0.08918882 0.3768581 0.18878095
0.112413906 -0.19844766 0.14770094 -0.2489238 -0.3204238 -0.3876123 -0.36929432 0.3109917

bn1.weight f4 [128]
00000000: cb86 f73e beaf 573f 0ad7 5b3f 0494 283f
00000010: 3d9f 683f 4ce1 fb3e f46c e63e 47c9 c33f
00000020: 9bde e83e a894 813f eff2 603e 866d 623f
00000030: 6b91 583f f57e 3c3f 0e5c 0c3f 0787 403f
00000040: 9be0 923f eb79 423f 75e1 043f 37a1 343f
00000050: e8bf 543f 0000 803f d382 753f 2adc b63f
00000060: 3088 4d3f 0000 803f e9ae 2f3f 6e67 003f
00000070: 64d4 5c3f 00eb 213f ede5 413f 9e1b 6d3f
00000080: 7083 073f de54 143f 2f55 783f 4e2e 603f
00000090: d4ed 603f 7fcf 843e 7b0b 553f 0000 803f
000000a0: eb8f 863e 0000 803f 271f 5d3f 1a06 b03f
000000b0: 62e9 643e b5c4 d33e 4b8c 2a3f be48 693f
000000c0: e1a7 6c3f 31d6 513f 4d0d 003f c705 343f
000000d0: 0000 803f caeb ba3e 1482 df3e 4100 ab3f
000000e0: 120f 1b3f c9cf 8e3e f275 da3e ec38 2c3f
000000f0: a9f7 463f 2d5f 183f 0f9e 553f 2fcb 2b3f
00000100: b8ed 1f3f e73e 733f 15b6 113f 7355 0e3f
00000110: fba5 663f 3355 783f ac03 933f c7b7 a23e
00000120: a679 683f 8dfd 7d3f 2b9e 853f c0f0 843f
00000130: d6fa 453f ba93 c23e 5537 743f 0000 803f
00000140: 0000 803f 68bf 013f 6c5c e43e d5ae b63f
00000150: 94b0 873f f39a a63e 596d 393f 05ed 143f
00000160: 0000 803f b6aa 283f a3f5 3d3f 2c87 f93e
00000170: 21b8 5e3f d616 303f e172 fe3e 8d32 8d3f
00000180: 4cf9 9d3f cd76 7b3f f4a2 933f 4363 893f
00000190: b30b 513f b37f 153f cae7 423f 3989 113f
000001a0: 3edd 603f afab 763f b671 553f 9fa7 1a3f
000001b0: fc4f 763f ca15 fa3e 2814 4c3f 0000 803f
000001c0: 43f3 413e 64db 833f 0bac 763e c944 583f
000001d0: 0000 803f b972 2d3f 84e8 f03e c94e 723f
000001e0: 354a 913f e81f 843f 3ea6 113f 2930 a53e
000001f0: 1e2b bd3e 7607 7a3f 699a 7e3f c01a 653e
0.48345026 0.84252536 0.85875 0.65850854 0.9086798 0.49195325 0.45005 1.52958
0.45482334 1.0123491 0.21967672 0.8844837 0.8459689 0.7363122 0.54827964 0.75206035
1.1474794 0.7596728 0.5190652 0.70558494 0.83105326 1.0 0.95902747 1.4285939
0.8028593 1.0 0.68626267 0.5015782 0.8626158 0.63249207 0.75741464 0.92620265
0.5293493 0.57942 0.9700498 0.87570655 0.87862897 0.25939557 0.8322064 1.0
0.26281676 1.0 0.8637566 1.3751862 0.22354653 0.41361013 0.6662032 0.9112662
0.9244366 0.81967455 0.50020295 0.70321316 1.0 0.36508018 0.4365393 1.3359452
0.6056987 0.27892902 0.4266811 0.67274356 0.7772165 0.59520227 0.83444303 0.6710691
0.62472105 0.95017856 0.5691846 0.55599135 0.90097016 0.97005004 1.1485496 0.31780836
0.9081062 0.9921501 1.0438894 1.0385971 0.7733587 0.3800333 0.9539693 1.0
1.0 0.5068269 0.44601762 1.4272105 1.0600762 0.32540092 0.72432476 0.58174163
1.0 0.65885484 0.74202937 0.4873594 0.8699971 0.68784845 0.4969702 1.1031052
1.2341704 0.9822815 1.1534104 1.0733417 0.81658477 0.5839798 0.7613493 0.5685001
0.8783759 0.9635572 0.83376634 0.6041202 0.96215796 0.4884475 0.79718256 1.0
0.18940453 1.0301328 0.24089067 0.8447996 1.0 0.6775318 0.47052395 0.94651467
1.1350771 1.0322237 0.5689429 0.32263306 0.36946958 0.97667634 0.9945436 0.22373486

bn1.bias f4 [128]
00000000: e685 9b3a c715 cdbe 32ed 433e 9d71 333d
00000010: 4529 6a3e a43c e43d 6156 f4bc 29ce d73e
00000020: 10b1 2d3e da4b b73e 23b7 2a3e 6bda c23e
00000030: 48bc cc3e 5c17 983b 306b 963e 8a91 a63d
00000040: d642 923d a24c 57bb 932b 93be bb66 a73e
00000050: 5d63 403b 0afb d83e 548c febb c494 4c3e
00000060: 197c d13e 3c95 d0be d230 0c3c 8bbd 213e
00000070: abc1 35be c051 213e 274b a1be 29eb abbe
00000080: b940 b13e e5d4 813c bc17 d7be edd7 54be
00000090: c4ba ef39 e215 1d3e 44b6 a13e b083 cf3e
000000a0: 2446 aa3d 8af5 d73e e75c 073e bfcc 503e
000000b0: 171d c43d 6728 aebd 3d3b 1dbd 3e5b 1a3d
000000c0: 5839 d3be 3bc4 1b3b d4fa 14bd 61af 3dbc
000000d0: b257 d5be e544 943d 0ca3 36be a130 9dbe
000000e0: a187 563e 2d6b ebbd 6b74 53be 8db4 093e
000000f0: 3ef2 a93b b391 133e 0714 60be 99f0 403d
00000100: d5d7 57bd ed39 d33e f9be 9a3d 2824 66bd
00000110: 1567 b93e ff74 d7be b57e d13e a16a 8fbd
00000120: 7dc4 c93e aab8 a13e ac12 983e 6971 933e
00000130: 0372 bb3d bfb5 d43d e44b 733e 1c0e c93e
00000140: 6b2d dd3e bd4d 43be 11a0 133d 4112 a93d
00000150: a323 a9be 171a 953b 0e6f 42be dea6 09be
00000160: c6ec bfbe 1868 42be fe13 54ba 2807 36be
00000170: ca05 193d bc1a 8a3d 0ece 50be af54 b53e
00000180: 0db3 8abe 1b23 013f 0336 293e 82be c13e
00000190: b4be 8dbd 9b55 903d 49fd 13be 1358 5f3d
000001a0: bf6e cf3a 05a4 873e 845a 963e 8f81 ebbc
000001b0: 04d1 c53e eee9 53bd 581d 91be e433 c9be
000001c0: 34d3 263c 6188 e63e 60ac 0fbe 86e9 fe3e
000001d0: 6c34 dabe e420 e73d cffc 9d3e ff0c 3f3e
000001e0: 988b ae3e ac3f dbbe 2c79 643e 9d7e 1d3e
000001f0: 5442 44bd 29ab eb3e 8151 623e 2198 623c
0.0011865466 -0.40055677 0.19133452 0.043809522 0.22867306 0.11144379 -0.029826345 0.42149475
0.16962075 0.35800058 0.16671424 0.38057265 0.39987397 0.0046414565 0.29378653 0.08133228
0.07141654 -0.0032852073 -0.28744182 0.32695565 0.00293561 0.42379028 -0.0077681933 0.19978625
0.40914991 -0.40738857 0.008556562 0.15794961 -0.1774966 0.15753841 -0.3150265 -0.3357785
0.34619692 0.015848586 -0.42010295 -0.20785494 0.00045724784 0.15340379 0.3158437 0.40530157
0.083141595 0.4217952 0.13219033 0.20390604 0.09575861 -0.085038 -0.038386572 0.03768467
-0.41254687 0.0023768086 -0.03637202 -0.011577458 -0.4166847 0.07239703 -0.17835635 -0.30701163
0.20950176 -0.114950515 -0.20649879 0.13447781 0.005186348 0.14411049 -0.2188264 0.04710445
-0.052696068 0.4125513 0.075559564 -0.056186825 0.36211458 -0.42081448 0.40916982 -0.0700276
0.3940772 0.315862 0.29701746 0.28797463 0.091526054 0.10386228 0.23759419 0.39268577
0.43198714 -0.19072624 0.036041323 0.08255435 -0.33035 0.0045502293 -0.18987677 -0.13442561
-0.3748533 -0.18985021 -0.0008090137 -0.17776167 0.037359037 0.067433804 -0.20391104 0.3541617
-0.2708973 0.5044419 0.1652451 0.37840658 -0.06921139 0.07047578 -0.1445209 0.054527353
0.0015825852 0.26492324 0.29365933 -0.028748302 0.3863603 -0.051736765 -0.283427 -0.39297402
0.010182191 0.45025924 -0.140306 0.4978754 -0.4261812 0.1128557 0.3085694 0.18657301
0.34090877 -0.42822015 0.22311848 0.1538033 -0.047914818 0.46029022 0.22101404 0.013830216

bn1.running_mean f4 [128]
00000000: 0400 0000 0400 0000 7584 2c3c 92fc 623d
00000010: 0400 0000 4f0a 893b 499d 2c3f 3901 183e
00000020: 6a43 cc3d 6213 483e db39 c63e 0400 0000
00000030: 43c2 4e25 0400 0000 cad9 853e 0400 0000
00000040: 476b bc3d 0400 0000 8b20 4b3f 7449 013f
00000050: 0400 0000 0000 0000 0400 0000 08f1 433c
00000060: 0a21 843b 0000 0000 99b9 6b3b ec18 b73c
00000070: 0400 0000 0b2f 3f3c 0400 0000 0400 0000
00000080: c5ba ac39 ddae ac3e 0400 0000 3b41 f73c
00000090: 0400 0000 e267 b93e 0400 0000 0000 0000
000000a0: a337 db3e 0000 0000 a86a ec3d 0400 0000
000000b0: 65f1 2e3e 4210 263e a7a9 f03e e478 7f3b
000000c0: 0400 0000 0400 0000 0400 0000 55f3 8b3d
000000d0: 0000 0000 3c85 1f3f 49c4 173e cc4b dd33
000000e0: e10c ab3d 5f44 b13d 4788 793e 1f24 a53e
000000f0: 0400 0000 1f10 1f3c 0400 0000 4536 323f
00000100: 0400 0000 0400 0000 5a93 c33e f9b8 173f
00000110: ab28 3a3b 0400 0000 0400 0000 52fd d43d
00000120: 0400 0000 0400 0000 b014 d03d 6ba9 843c
00000130: 5b4f 233f e0cf 883e c41e 843d 0000 0000
00000140: 0000 0000 4531 053f 2293 f43d 9478 5e3c
00000150: 066b 0825 c889 3e3f 54fd f03e 9cc9 833e
00000160: 0000 0000 0400 0000 0400 0000 871b 043f
00000170: 0400 0000 0400 0000 21f8 f03e ffdd 313d
00000180: b162 0724 75ac 153e 7c25 8f3c 0400 0000
00000190: eaa9 2a3f b20d 1a3e eb1f b23d 5048 093f
000001a0: 2e87 d824 a84f a23d 6e90 f93d 4fbe b63d
000001b0: 102d 413b dff0 383f 9dfe f83d 0000 0000
000001c0: ec97 b93e 15b4 a23c 8b1b e93e 6b32 cb3d
000001d0: 0000 0000 cd41 6f3c ebff 083f da90 3c3d
000001e0: 3ce2 d83c 7ea0 a723 0983 4c3e ed00 0c3e
000001f0: 6831 1725 42f4 402a f1dd 8539 b442 4c3e
6e-45 6e-45 0.010529627 0.05541665 6e-45 0.004182137 0.674275 0.14844216
0.09973796 0.19538644 0.38716015 6e-45 1.793347e-16 6e-45 0.26142722 6e-45
0.09200149 6e-45 0.7934653 0.50502706 6e-45 0.0 6e-45 0.011959322
0.004032259 0.0 0.003596878 0.02235075 6e-45 0.011668931 6e-45 6e-45
0.0003294555 0.3372716 6e-45 0.030182471 6e-45 0.3621207 6e-45 0.0
0.42815885 0.0 0.115437806 6e-45 0.17084272 0.1621714 0.47004434 0.0038981969
6e-45 6e-45 6e-45 0.06833521 0.0 0.62312675 0.1482097 1.0304902e-07
0.08352066 0.08655619 0.24368392 0.3225412 6e-45 0.009708433 6e-45 0.6961406
6e-45 6e-45 0.38198358 0.5926662 0.0028405588 6e-45 6e-45 0.103998795
6e-45 6e-45 0.10160196 0.016194066 0.6379296 0.26721096 0.064511806 0.0
0.0 0.52028304 0.11942126 0.013578553 1.183238e-16 0.7442899 0.47068274 0.25739753
0.0 6e-45 6e-45 0.51604503 6e-45 6e-45 0.47064307 0.043424603
2.9357054e-17 0.14616568 0.017473929 6e-45 0.6666552 0.15044287 0.08697494 0.53625965
9.390407e-17 0.079253495 0.12185751 0.08923017 0.0029476322 0.7224254 0.12157939 0.0
0.3624872 0.01986126 0.45528826 0.09921726 0.0 0.0146030905 0.535155 0.04603658
0.026475064 1.8174147e-17 0.19971861 0.13672228 1.3113902e-16 1.713777e-13 0.00025533096 0.1994732

bn1.running_var f4 [128]
00000000: 0400 0000 0400 0000 c3e8 d73a af72 b63b
00000010: 0400 0000 bbd0 593a bf8f 0d3d d20f ca3b
00000020: 560d 4b3b e51d 203d fa63 143c 0400 0000
00000030: b806 ca24 0400 0000 3602 cd3c 0400 0000
00000040: 5287 1e3b 0400 0000 832c 273d cff4 3c3c
00000050: 0400 0000 0400 0000 0400 0000 3bee d139
00000060: 4254 de3a 0400 0000 20e9 b03a 785f 453b
00000070: 0400 0000 eea1 ed3a 0400 0000 0400 0000
00000080: 2d7c 4837 db7d 1b3c 0400 0000 9297 d33a
00000090: 0400 0000 a405 073d 0400 0000 0400 0000
000000a0: bf08 183d 0400 0000 6bb5 143c 0400 0000
000000b0: d614 203c c0e8 e83c 9e7a 9e3b 74e9 ef39
000000c0: 0400 0000 0400 0000 0400 0000 2b46 123c
000000d0: 0400 0000 38e2 8e3b 50e0 c33c 2c43 1e30
000000e0: 7d89 7b3c dfb5 813b 108c 053c c5a2 1e3c
000000f0: 0400 0000 fa1c 0b3a 0400 0000 d79a 533c
00000100: 0400 0000 0400 0000 2650 d53b dcfe e43b
00000110: cbac 5c3a 0400 0000 0400 0000 e57d b93b
00000120: 0400 0000 0400 0000 4be9 953b 6228 5d3b
00000130: 77fa 363c f831 5f3d 4195 283b 0400 0000
00000140: 0400 0000 f66d fc3b 7124 8d3c eae9 063a
00000150: 27e5 2f24 cdc4 543c e9a4 823c 9510 1d3c
00000160: 0400 0000 0400 0000 0400 0000 644a 693c
00000170: 0400 0000 0400 0000 5f5f 2b3c 2daf ff3a
00000180: 77f6 1c22 05c7 3e3c a747 573b 0400 0000
00000190: b48a ed3b 01be eb3b 70b8 1e3c 5c8b 503c
000001a0: 8691 dd23 8167 2f3b e14c a23b 716f 5c3b
000001b0: f19f 6d3a eb96 793c 59f2 d83b 0400 0000
000001c0: 8fcd c73c f1cb 8b3a 235e c43c 63da bc3b
000001d0: 0400 0000 cb75 423b 3e8f 4e3c 751f d53b
000001e0: 477f 693b 7878 7021 1590 483b 540e a93c
000001f0: 220f 5824 b279 7125 5937 0137 7e73 813b
6e-45 6e-45 0.0016472567 0.0055678706 6e-45 0.00083089963 0.034560915 0.0061664367
0.003098329 0.03909101 0.009057039 6e-45 8.761492e-17 6e-45 0.025025468 6e-45
0.0024189544 6e-45 0.040813934 0.011532976 6e-45 6e-45 6e-45 0.00040041082
0.0016962367 6e-45 0.0013497211 0.0030116718 6e-45 0.0018129924 6e-45 6e-45
1.1949841e-05 0.0094904555 6e-45 0.0016143194 6e-45 0.032964364 6e-45 6e-45
0.037117716 6e-45 0.009076457 6e-45 0.009770593 0.028431296 0.0048363945 0.00045759568
6e-45 6e-45 6e-45 0.008927862 6e-45 0.0043604635 0.023910671 5.757552e-10
0.015352604 0.0039584483 0.008151069 0.009682362 6e-45 0.0005306747 6e-45 0.012915335
6e-45 6e-45 0.0065097986 0.0069883894 0.0008418082 6e-45 6e-45 0.0056607598
6e-45 6e-45 0.00457493 0.0033745994 0.011168114 0.054491013 0.0025723728 6e-45
6e-45 0.007703538 0.01722929 0.000514655 3.8141176e-17 0.012986374 0.015947776 0.009586473
6e-45 6e-45 6e-45 0.0142389275 6e-45 6e-45 0.01045975 0.0019507163
2.127242e-18 0.01164413 0.0032849105 6e-45 0.0072492007 0.007194281 0.009687528 0.012728538
2.40225e-17 0.0026764574 0.0049530123 0.003363576 0.00090646656 0.015233736 0.006620687 6e-45
0.02439001 0.0010665638 0.02397067 0.0057633384 6e-45 0.002967226 0.012607394 0.006503994
0.0035628842 8.14746e-19 0.0030603458 0.020636715 4.6850352e-17 2.094465e-16 7.701886e-06 0.0039505353

fc2.weight f4 [128, 132]
00000000: b9bf 45be 4b2e 1b3e 48e0 be3c 9f82 9f3d
00000010: e742 9fbc f507 913e 4103 84bd 6a83 2b3e
00000020: 581c 8abe b762 5e3c 6937 603d 1800 dfbe
00000030: 8050 4a3d 1c11 393c dde1 8fbd 5b47 43be
00000040: 5172 16be 51c3 9d3d e5ab 8cbd b257 8ebd
00000050: 97b9 96be 13d9 86bd 98dc a93d 9f12 b0bd
00000060: 5d6f ed3c 2db6 9cbd f98c 36bd 19b7 15bd
00000070: 1a2b 41be d63d 783e 62d1 46bd 20ad 0abd
00000080: 19c6 de3d 53a5 dabd 9881 0e3e 95ec 653e
00000090: d966 fabc d9d1 503c 0739 633e 453c d5bc
000000a0: 1630 043b c1b6 9dbd 5b30 fdbd 5e0f 21be
000000b0: 587c e23c a98b cabd e068 67bd 0954 85be
000000c0: d9ac 273d 5653 1c3d 8d4f b83c cbf8 f3bd
000000d0: 0e69 5a3e 47bf 583c 223b 923d 76ff f5bc
000000e0: 66ac 6a3e 5cf6 a0bd 1643 063d 5283 d33d
000000f0: 3bc7 1ebd ac99 b73d 03f9 65bd 8255 3c3b
00000100: ebc2 3cbd 2859 63bb 737d 803d 62d6 4f3d
00000110: aca6 e23b f139 fbbd a4ef a8bc 44de 77bd
00000120: 3f15 fdbd c227 153e 2a0c a3bd 5bd4 b2bb
00000130: 0c47 63be 2d39 18be 2992 c3bd d134 41be
00000140: c2ce 403d 08f8 a6bd f2a4 19be b237 53be
00000150: 82bf 60be b34a 313d 8c6d 753d 6075 b8bd
00000160: 0c83 0a3e e857 21bd 3fd0 393c 6dd1 c43d
00000170: 1f1f 353e 61b3 9b3d 3941 e3bd f151 bc3d
00000180: 2b75 23be b0f4 8ebd 23bd 2b3d 5cd7 97be
00000190: 2539 ac3c 2da1 9fbd 80ce 28be 6213 39be
000001a0: 3da5 ff3c 1ffb 313d e242 103e 04e3 85bd
000001b0: f941 833c c7f7 15be 1c13 aebd 143a 423d
000001c0: d63d e0bd 2f35 a23d 335b b03d 59bb 313e
000001d0: b54f 26bd f945 29be c12d fdbc 4d6c 3cbe
000001e0: 9697 343e ca54 c9bb fc6b eebd 847a 7b3d
000001f0: a2d4 4c3d e2e1 2abd b17b 1ebd a30a a73d
00000200: 2998 50bd c0d4 47be ef72 073d adec bdbd
00000210: 2fd1 10be db96 833e a3fe 5abe fd06 afbd
00000220: 42c7 5e3d 3710 413e ff69 8e3c 7d1b 35be
00000230: 09e0 47be 5c29 91bc 53ae 813d 12ac 883d
00000240: 6665 37be 52f0 1a3b 1805 d8bd d26d a1be
00000250: b426 66be a2f2 fd3c fd3d 97bd fa67 67bd
00000260: c395 463e b0b0 40bc 97b4 903d 6b0e 96bd
00000270: 546f f8bd ca8c b6be e11c d1bd 6407 533e
00000280: 60dc e1bd 6a72 883e e895 f83d 4af2 a1bd
00000290: c170 133e c1ce 3ebd 739a a93e 276f 4d3e
000002a0: 574d dfbd 2191 fa3c a3b1 813e 0705 1c3d
000002b0: a01c ccbd 60c9 21be 240b 4cbe e7cc 88be
000002c0: baa1 ebbd e28e 67be 4c67 3abe 3f9a 703e
000002d0: f0d0 c63d 1ea1 153d 56f9 0b3e acfd 91bd
000002e0: 900e 943e 57a0 123d ebac ab3d 74c0 aabd
000002f0: 6002 a53e 17a7 343d 1e48 003e 5e38 093e
00000300: e8b1 8b3a d1fb d1bd 7269 173d 1022 1c3d
00000310: 8519 b63d b8da 41bd 3498 cc3d e8bb 2a3d
00000320: a4aa ef3d 4984 80be 4455 0a3d a728 b83d
00000330: 773c d8bd f225 a13e b635 23be b92a f13c
00000340: 44fb 27be cea1 8ebe 5d76 a7bc 369b 70bc
00000350: 37ec 1cbd da54 e7bd ebc2 cfbc 0bc9 bebe
00000360: b910 9abe ea12 f33d 58fc c63c 1205 6d3e
00000370: bf92 573e a4c9 133e 084a 833c e812 163d
00000380: 4660 d73e 40ef aa3d ec26 283c ef25 c93d
00000390: 9b14 85bd dd20 e8bd 09bc 013e 5100 2abd
000003a0: 89d1 383d 57b3 1dbd 66a0 da3d fa11 78be
000003b0: 3105 143e 4f15 b83d 710a 10be cb09 98bc
000003c0: 1d1b b1bc c5a9 84bd 11a6 96bd 8300 86bd
000003d0: 9617 87be 16ad bb3d 39ef 15be 3ac8 733e
000003e0: 3865 5d3d 4cfa 0dbe 9ba3 9cbd 717a d53c
000003f0: e601 a73e f618 7abd 3f86 b9bd 9865 74bd
-0.19311418 0.15154378 0.023300305 0.07788586 -0.019441081 0.28326383 -0.06445933 0.16749349
-0.2697475 0.01357334 0.054740343 -0.4355476 0.049393177 0.011295583 -0.07025502 -0.19070189
-0.14692046 0.07703269 -0.06868724 -0.0695032 -0.2943847 -0.06584372 0.08294028 -0.08597302
0.028983766 -0.07651935 -0.044568036 -0.03655157 -0.18864098 0.24242339 -0.048539527 -0.03385651
0.10877628 -0.10676064 0.13916624 0.2245353 -0.03056662 0.012745344 0.22189723 -0.026029715
0.0020170263 -0.07700873 -0.12362739 -0.15728518 0.027647182 -0.09889919 -0.0564965 -0.26040676
0.040936325 0.038165413 0.02249887 -0.11912688 0.21329138 0.013229198 0.07140185 -0.03002904
0.22917327 -0.07859489 0.032778822 0.10327782 -0.03876422 0.089648575 -0.05614568 0.002873749
-0.046084326 -0.0034690592 0.062739275 0.05074156 0.0069168415 -0.12266911 -0.020622082 -0.060514703
-0.12357568 0.14565948 -0.079613045 -0.0054574437 -0.22195071 -0.14865561 -0.09549362 -0.18867804
0.04707218 -0.08152777 -0.15004328 -0.20626715 -0.21948054 0.04328413 0.059918925 -0.090067625
0.13526553 -0.039390475 0.011341154 0.09610257 0.17687653 0.07602573 -0.110964246 0.091953166
-0.15962665 -0.06980264 0.04192842 -0.29656494 0.021023342 -0.07794414 -0.16485023 -0.180738
0.031206721 0.04345238 0.14088014 -0.065374404 0.01602267 -0.14645301 -0.084997386 0.04741867
-0.10949294 0.079203 0.08611145 0.17356624 -0.04060336 -0.16530599 -0.030905606 -0.18400688
0.1763595 -0.006144141 -0.1164169 0.061396137 0.05000747 -0.041719325 -0.03869218 0.08156326
-0.05092636 -0.19514751 0.033068594 -0.09273658 -0.14142297 0.2570103 -0.21386199 -0.08546255
0.054389246 0.18853842 0.017384527 -0.17686267 -0.19519056 -0.017719917 0.06332078 0.06673445
-0.17909774 0.0023641777 -0.105478466 -0.315291 -0.22475702 0.030999485 -0.0738487 -0.056495644
0.19393067 -0.011760876 0.07065695 -0.07326969 -0.12130609 -0.3565429 -0.10210586 0.20608288
-0.11028361 0.2664979 0.12137967 -0.07907541 0.14398481 -0.046583895 0.33125648 0.20061933
-0.10903423 0.030586781 0.2533084 0.038090732 -0.09966397 -0.15799475 -0.19926125 -0.26718828
-0.11505456 -0.22613099 -0.18203467 0.2349634 0.097078204 0.036530606 0.13669333 -0.07128462
0.2891736 0.035797443 0.08382591 -0.08337489 0.32228374 0.04410466 0.1252751 0.13400409
0.0010657879 -0.10253108 0.036965795 0.038118422 0.08891586 -0.047327727 0.09989968 0.041683108
0.11702469 -0.25100926 0.033772722 0.08992129 -0.10558408 0.31474262 -0.15938458 0.029439317
-0.16404444 -0.27857822 -0.020442182 -0.014685443 -0.03831121 -0.11295481 -0.025361499 -0.3726276
-0.30090883 0.11868842 0.024290249 0.23146465 0.21052073 0.14432389 0.016026512 0.036639124
0.42065638 0.083464146 0.010263186 0.098216884 -0.06498071 -0.11334393 0.12669386 -0.041504208
0.045121703 -0.03850111 0.10675125 -0.24225608 0.14455105 0.08988439 -0.14066483 -0.018559357
-0.021619374 -0.064776935 -0.073558934 -0.06543066 -0.26385182 0.09163873 -0.14642037 0.23806849
0.054051608 -0.13865012 -0.07648393 0.026059361 0.32618636 -0.06105896 -0.090588085 -0.0596672

fc2.bias f4 [128]
00000000: 00c0 43be f285 70be 1863 4dbe 4f56 88be
00000010: 6472 33be 7dc0 10be aa5c 86be 3222 5b3e
00000020: 251a 00be bec2 52be 3f64 45be 1e84 01be
00000030: 6f32 38be 5124 bfbe 78d1 97be 0565 8dbe
00000040: 9a7d ebbb c56d 9f3e f347 30bd b31a ab3e
00000050: 07e8 5cbe 1e98 37be ae33 16be d7db 46be
00000060: 9055 95be 2134 eebd f5df 8bbe faa9 5cbe
00000070: e07a 6abe 6dcd 63be 005d 86be 62ad 38be
00000080: 70c5 46be d6dc 32be 38bb 80be 674c 4dbe
00000090: 48d7 36be 7fa9 d7bd a3f3 62be 981c 7dbe
000000a0: c7b1 6abe 5921 8cbe e23b 77be 155c 7e3e
000000b0: eea3 bdbe 1007 1a3e e22d 24be 8984 25be
000000c0: adc2 66be 3339 6b3d 7e12 10be 6d60 68be
000000d0: dc26 73be 5c82 89be 438a 9cbd 30c1 87be
000000e0: aae8 9fbe 3b75 8abe 404c 89be 132f d5bd
000000f0: 17c6 2abe 7cca 2bbe 65e5 bdbe a56f 87be
00000100: 329e 98be 523e 033e 87c2 6bbe cd54 8fbe
00000110: ca1e 94be 9526 7fbe c1f1 03be 754c 9fbe
00000120: df65 90be c1dd 38be cf46 16be adec 0dbe
00000130: 4857 5ebe c3ab 02be 91c8 1f3e 0538 b5be
00000140: 09eb b8be eecc 58be ae1b 6dbe c7d3 89be
00000150: 4735 62be 243a afbd 47bc 793c a060 b6bd
00000160: 33ec 96be 5116 7cbe 3ddd 10be d5e5 8cbe
00000170: d4b0 c3bd 9d23 60be f386 53be 1201 7fbe
00000180: 7f52 69bd da40 58be 9dfc 823d 3bd7 55be
00000190: 400e b0be 6e9b aabd c1f6 83be 3c81 5abe
000001a0: 0689 49be 0a27 6d3e 574b 59be 93bc 9bbe
000001b0: 1e5f 91be dc30 26be 7891 4bbe 94a2 04be
000001c0: 91de 30be f504 a4be 11be 29be 0bd4 03be
000001d0: 6d6a 03be f396 bcbe ef84 90be 3205 40be
000001e0: 6c68 bb3e ae70 d9bd faca 9cbe 527e 19be
000001f0: b2fe 98be 91e8 7dbe 1b7b 4cbe 1bb1 4bbe
-0.19116211 -0.23488596 -0.20057333 -0.26628348 -0.17524105 -0.14135928 -0.26242572 0.21399763
-0.12509973 -0.20582101 -0.19276522 -0.12648055 -0.17987989 -0.37332395 -0.29652 -0.27616134
-0.0071866037 0.31138435 -0.043037366 0.33418807 -0.21572886 -0.17929122 -0.14668152 -0.194198
-0.29166842 -0.116310365 -0.27319303 -0.21549216 -0.22898436 -0.22246332 -0.26242828 -0.1803489
-0.19411254 -0.17467055 -0.25142837 -0.20048676 -0.17855561 -0.10530376 -0.22163253 -0.24717939
-0.22919379 -0.27369192 -0.24143937 0.24839814 -0.3703913 0.15041757 -0.16033128 -0.1616384
-0.225352 0.057427596 -0.14069554 -0.22693034 -0.23745292 -0.2685727 -0.07643559 -0.26514578
-0.31232196 -0.27042565 -0.26815987 -0.10409369 -0.16677128 -0.1677646 -0.37089077 -0.26452366
-0.29808193 0.12816742 -0.23023425 -0.27994385 -0.2892974 -0.24917062 -0.1288519 -0.3111302
-0.2820272 -0.18053342 -0.14675449 -0.13859816 -0.21712983 -0.12760834 0.15603854 -0.35394302
-0.36116818 -0.21171924 -0.2315509 -0.26919386 -0.22090636 -0.08556011 0.015242643 -0.089051485
-0.2947708 -0.24617888 -0.14146896 -0.27519098 -0.09555212 -0.21888585 -0.20656948 -0.24902752
-0.05696344 -0.21118489 0.063958384 -0.20882885 -0.34385872 -0.08330427 -0.25774196 -0.21338362
-0.19681177 0.23159423 -0.21220146 -0.30417308 -0.2839288 -0.16229576 -0.1987971 -0.12952644
-0.17272402 -0.32035032 -0.16576411 -0.12873857 -0.12833567 -0.36833915 -0.2822642 -0.18751982
0.36603105 -0.10617195 -0.3062361 -0.14989594 -0.29881817 -0.24795748 -0.19968836 -0.19891779

bn2.weight f4 [128]
00000000: a0de 923f 7aa2 233f 90cc 973f ecd7 9b3f
00000010: d242 f93e 453f a33f 1cc8 283f 1e3e 4bbb
00000020: 46ef d73f c751 7b3f be9b e43e 8e1a bc3e
00000030: 9f8f 473f c7a5 7d3f 9655 7a3f cc36 8e3f
00000040: d426 a83d ff6f 6c3e 7da5 cc3e 81d2 3b3e
00000050: a496 893f b526 863f bce0 f13e 518b 883f
00000060: 456f ca3e a3f0 993f 19f4 993f f9ba 843f
00000070: 8dec 5c3e 673e e73e 7a1a 4b3f 7718 973f
00000080: d0f5 8c3f d0a0 6b3f 0fde 6c3f 2c77 1f40
00000090: 8cb8 ac3e 1376 983f 2243 a33f e4e2 813f
000000a0: da8d ad3f 3486 833f 87bd 953f c82a 133f
000000b0: a3ba 533f 2624 f13b 5f16 953f f40e 5140
000000c0: 4ed9 283f eb6b 993e 837e 533f 6d8e a13f
000000d0: eeab 513f d0a5 d73f 32c4 8c3f 5cdb 853f
000000e0: 55d0 8d3f 4adf dd3f 8ad1 0f3f bf0f b63d
000000f0: bb0f 06bc 15f2 b43f d769 823f e1ba 513f
00000100: 7b56 4f3f e1ee d13e e2ab 7e3f 095a 823f
00000110: 9d07 993f 1992 c13f 0542 d93f cffc 1e3f
00000120: 5a4f 683f 3b78 0440 8286 9f3e b2d0 533f
00000130: cc0b d83f d434 923f f468 9a3d 04a1 793f
00000140: a3e3 e63f 7c1e 823f cbd4 773f 6017 f13d
00000150: 6568 c33f 4274 963c 789c 073c b2f7 193d
00000160: 3cb6 6e3f d776 673f 7037 943f a39b 9a3f
00000170: f698 683f 46c6 1a40 6018 173f e3a8 9c3f
00000180: ae15 d33e 8209 613f f2a4 783d ca5b 783f
00000190: 6b4a 813f 47e4 9e3f d936 7c3f 0d3e 833f
000001a0: b527 6a3f 5f70 c23c 99ad 873f f526 833f
000001b0: aaaa 923f 3a37 b33f b7ec 843f cee7 f03e
000001c0: 2f37 9e3e b82b 833f b33b 743f 4801 633f
000001d0: 2d53 ee3f 9dda a73f 8f98 3e3f 8ca7 933e
000001e0: 6da3 9d3e 6263 2c3f e051 873f d918 3a3f
000001f0: eaa1 c43f bb36 2840 3dc1 983f 5d2c 783f
1.147419 0.63919795 1.1859303 1.2175269 0.48683792 1.2753683 0.6593034 -0.0031012367
1.6869895 0.9817166 0.44650072 0.3673901 0.77953523 0.9908108 0.97786844 1.1110473
0.08210531 0.23089598 0.39970008 0.1834202 1.0749097 1.0480562 0.4724177 1.0667516
0.39538017 1.2026561 1.2027618 1.036956 0.21574612 0.45164797 0.79337275 1.1804341
1.1012516 0.92042255 0.92526335 2.4916487 0.33734548 1.1911033 1.2754862 1.0147367
1.3558915 1.027533 1.1698464 0.57487154 0.8270666 0.0073590456 1.1647452 3.2665377
0.6595658 0.29965147 0.82614917 1.262159 0.8190297 1.6847477 1.0997374 1.0457568
1.1079203 1.7333767 0.56179106 0.08889722 -0.008182461 1.4136378 1.018855 0.8192578
0.80991334 0.41002563 0.9948102 1.0183727 1.1955448 1.512271 1.6973273 0.62104505
0.9074608 2.0698383 0.3115731 0.8274032 1.68786 1.1422372 0.075395495 0.97511315
1.8038219 1.0165553 0.9680907 0.117720366 1.5266234 0.018365983 0.008277051 0.037589736
0.9324682 0.9041571 1.1579418 1.2078747 0.908584 2.4183517 0.5902157 1.223904
0.41227478 0.8790513 0.06070418 0.9701506 1.0100836 1.2413415 0.9852119 1.0253311
0.9146684 0.023735223 1.0599853 1.0246264 1.1458333 1.4001229 1.038474 0.47051853
0.30901477 1.0247717 0.95403594 0.8867383 1.8619133 1.311359 0.74451536 0.28838766
0.30788746 0.67339146 1.0571861 0.72694165 1.5361912 2.6283405 1.1933972 0.96942693

bn2.bias f4 [128]
00000000: f528 d8bd 952b d5bd 8793 183e 3476 5fbe
00000010: 817c bcbe 52b1 1b3e a27d 86be 4777 bbbd
00000020: c6fa 2939 be2c 9d3d c977 a5be 3a8a 84be
00000030: 2856 13be 1f37 95be 7447 45bd 1a6f 3d3e
00000040: 6f86 50be 4864 2ebe 20aa 4abe 398c 81bd
00000050: 6586 bbbd e42b 04be b40b 15be 8fc2 53bd
00000060: 2df5 dabd 92e2 49be 9253 a0bd 9828 7fbd
00000070: 8d50 a3bb 12a3 7abe 565b 47be 859d 3cbd
00000080: 079d 81be 53ca b5bd 89a6 b63c 12c3 0e3e
00000090: f965 e73d db46 06be d1bc 6d3e 7d5d a6bd
000000a0: 51f1 df3d 7d80 79be 561a e6bd c1e5 e7be
000000b0: 97d4 86be 0b7d 26be 282d 4fbc bbbf 653e
000000c0: 458e 0c3e c7fd 05be 3806 94bb 3ee3 15be
000000d0: efbc 86bc 7359 e6bd d9eb aebe fd43 96be
000000e0: 924b fb3c e312 053d ba96 a8be e542 afbe
000000f0: 2954 babd b441 a63d 1e69 4c3e 6dbf 963d
00000100: 4697 a7bd 5d53 3fbf 0721 26be 6476 93bd
00000110: c4e5 83be 4e5b 1d3e 79c4 a13d 28ac a63e
00000120: c1fc 75be 7ebc 8bbd d67a 6f3d 1aa0 93be
00000130: 5208 8b3a f9d8 9e3b e90e 87be 623d 82bc
00000140: 81f8 4f3e 7557 acbe 8663 87be aad1 bcbd
00000150: aa14 52bd 68f7 84be c83c d1bd 4387 39be
00000160: a481 d23a 1147 3cbe 9241 52be ed1a 0f3e
00000170: 1667 a5be e5a0 bfbc f4db a0be 2db8 3ebd
00000180: 706b d43d 7c7f d3bd 409f a7bd e503 d6bd
00000190: dfe8 bebc f40b 62be 838e 83bd b559 b4ba
000001a0: 4a3b 96be 3921 d1bd 6089 91bc 45d5 19be
000001b0: 43cd 05bb 746c 42be 61ef cebc 3b85 39be
000001c0: 5379 0a3e 3918 79be c8f8 b4be 3d10 a0be
000001d0: 1a32 67bd d3b4 053e 7dfb 283c 0717 97be
000001e0: d1af da3d 8eea b7be cabe d83d f8bc bf3d
000001f0: feda 97bc 90df 583e 99f8 20bd de6e b8be
-0.10554687 -0.10408703 0.14900027 -0.21822435 -0.3681374 0.15204361 -0.26267725 -0.0915361
0.00016210516 0.076745495 -0.3231795 -0.25886708 -0.14388335 -0.29143617 -0.048163846 0.18499413
-0.20363782 -0.17030442 -0.1979146 -0.063255735 -0.09156493 -0.12907368 -0.14555246 -0.051699217
-0.10691295 -0.19715336 -0.0782844 -0.062294573 -0.0049839676 -0.24476269 -0.19468436 -0.04604866
-0.25315115 -0.08876481 0.022296207 0.13941601 0.112987466 -0.13112967 0.23216559 -0.081233
0.10934699 -0.2436542 -0.11235492 -0.45292476 -0.26334068 -0.16258638 -0.012645043 0.2243642
0.13726147 -0.1308509 -0.004517343 -0.14637467 -0.016447512 -0.1124753 -0.34164312 -0.29348746
0.030675683 0.032488715 -0.32927495 -0.34230724 -0.090980835 0.081180006 0.19961974 0.0736073
-0.0818315 -0.7473658 -0.16223536 -0.072003156 -0.25761235 0.15366861 0.07898802 0.3255322
-0.24022199 -0.068230614 0.058466755 -0.28833085 0.0010607338 0.0048476425 -0.26378563 -0.01589841
0.2030964 -0.33660474 -0.26443118 -0.09219678 -0.051289238 -0.25970006 -0.10216671 -0.18118005
0.0016060364 -0.18386485 -0.20532826 0.13975115 -0.3230521 -0.02339215 -0.3141781 -0.046562362
0.103720546 -0.1032705 -0.081846714 -0.104499616 -0.023304401 -0.22074872 -0.06423666 -0.0013759645
-0.2934211 -0.10211415 -0.0177657 -0.15022762 -0.0020416535 -0.18986684 -0.02526063 -0.1811723
0.13522844 -0.24325646 -0.35346055 -0.3126239 -0.056444265 0.1305726 0.010313866 -0.29509756
0.106780656 -0.3592114 0.10583265 0.09362215 -0.01853704 0.21179032 -0.03929958 -0.36022085

bn2.running_mean f4 [128]
00000000: 0400 0000 32f8 320f 0400 0000 cde0 7b26
00000010: 06fb 9926 0400 0000 4c7c 431c b875 6b40
00000020: e78b d225 b85f e93d 5285 3f3f 0400 0000
00000030: 0400 0000 3c87 b225 0400 0000 0400 0000
00000040: 5a27 a83e 79f9 8e40 e121 113e 5c36 9e40
00000050: 0400 0000 0400 0000 e837 383e 0400 0000
00000060: 0400 0000 0400 0000 4dfc cc25 0400 0000
00000070: 8114 863d 7ed3 6226 1df8 913d 0400 0000
00000080: 0400 0000 0400 0000 995d 863e 2187 1c32
00000090: 9f2f ed3e 0400 0000 0400 0000 0400 0000
000000a0: 0400 0000 0400 0000 0400 0000 bc2a 6840
000000b0: 0400 0000 4b4d 4d40 cd1a 0000 0360 683e
000000c0: b2d3 4e3e 0067 c63f 0400 0000 8a40 7525
000000d0: 0400 0000 0400 0000 4833 8426 0400 0000
000000e0: 0400 0000 b25e 4a35 ca39 db25 2dce 293f
000000f0: 7241 ba3e 0400 0000 0400 0000 ff5b e325
00000100: 0400 0000 a208 e83f 0400 0000 ad95 af3d
00000110: 0400 0000 0400 0000 79e1 9f25 0400 0000
00000120: 0400 0000 0504 573e e004 0f3f 4411 7c25
00000130: 7ca3 ce25 7441 5e25 7879 9240 0400 0000
00000140: 7b7d da3d 0400 0000 e017 e03d 0400 0000
00000150: 0400 0000 49d5 c03e abd9 773f 17c3 783e
00000160: 0400 0000 850e 7625 dda7 ca25 0400 0000
00000170: 06af 8a26 62f8 e524 0400 0000 0400 0000
00000180: 2a4d e93e efa8 083e 7cfe 083f 0400 0000
00000190: 0400 0000 0400 0000 0400 0000 0400 0000
000001a0: 0400 0000 9424 4e40 0400 0000 0400 0000
000001b0: 0400 0000 0400 0000 0400 0000 d446 053f
000001c0: 7f2b 263e 0400 0000 0400 0000 261d c625
000001d0: 0400 0000 f95c 7b00 04ac 373e 0400 0000
000001e0: 40e4 8540 0400 0000 0400 0000 0400 0000
000001f0: 8312 8426 b011 8a3e 0400 0000 0400 0000
6e-45 8.823878e-30 6e-45 8.738778e-16 1.0684548e-15 6e-45 6.468074e-22 3.67906
3.6523995e-16 0.1139521 0.74812806 6e-45 6e-45 3.0969716e-16 6e-45 6e-45
0.32842523 4.467953 0.1417308 4.9441357 6e-45 6e-45 0.17990077 6e-45
6e-45 6e-45 3.5559325e-16 6e-45 0.065468796 7.8696126e-16 0.07127402 6e-45
6e-45 6e-45 0.26243284 9.11112e-09 0.46325395 6e-45 6e-45 6e-45
6e-45 6e-45 6e-45 3.6276083 6e-45 3.2078426 9.614e-42 0.22692876
0.20197943 1.5500183 6e-45 2.1272229e-16 6e-45 6e-45 9.17324e-16 6e-45
6e-45 7.5388664e-07 3.8029604e-16 0.66330224 0.36378056 6e-45 6e-45 3.9440562e-16
6e-45 1.8127635 6e-45 0.0857347 6e-45 6e-45 2.773489e-16 6e-45
6e-45 0.20997627 0.55866814 2.1863366e-16 3.5846085e-16 1.9277607e-16 4.5773277 6e-45
0.10668465 6e-45 0.10942054 6e-45 6e-45 0.37662724 0.9681651 0.24293171
6e-45 2.1342018e-16 3.5155163e-16 6e-45 9.623114e-16 9.9733696e-17 6e-45 6e-45
0.45566684 0.13345693 0.5351331 6e-45 6e-45 6e-45 6e-45 6e-45
6e-45 3.2209826 6e-45 6e-45 6e-45 6e-45 6e-45 0.520612
0.1622753 6e-45 6e-45 3.4367277e-16 6e-45 1.1329118e-38 0.17936713 6e-45
4.1841125 6e-45 6e-45 6e-45 9.164358e-16 0.2696662 6e-45 6e-45

bn2.running_var f4 [128]
00000000: 0400 0000 4a1b f80d 0400 0000 f5e8 1527
00000010: 03c2 2e27 0400 0000 0f70 ff1b f009 3b40
00000020: 4922 a826 bbda 513e 982c e540 0400 0000
00000030: 0400 0000 b79f 9625 0400 0000 0400 0000
00000040: e64d c03e 8eef b241 1e60 313e 8af2 9040
00000050: 0400 0000 0400 0000 56a9 7a3e 0400 0000
00000060: 0400 0000 0400 0000 7293 c625 0400 0000
00000070: 2704 ca3d 7f8e be26 b9c0 e03d 0400 0000
00000080: 0400 0000 0400 0000 fda6 1d3f 0231 462e
00000090: 6b7c 5240 0400 0000 0400 0000 0400 0000
000000a0: 0400 0000 0400 0000 0400 0000 30be d340
000000b0: 0400 0000 70ce 4b40 d009 0000 e5b2 053f
000000c0: 9022 d33e 293d 7940 0400 0000 cb20 0e25
000000d0: 0400 0000 0400 0000 ca2f 2527 0400 0000
000000e0: 0400 0000 77e1 b633 15a6 c425 f47d e13f
000000f0: 1cda cc3e 0400 0000 0400 0000 923e 5426
00000100: 0400 0000 5200 9f40 0400 0000 9300 0e3e
00000110: 0400 0000 0400 0000 96dc 5526 0400 0000
00000120: 0400 0000 e858 a83e 46a3 9340 93e5 0426
00000130: 169f b226 1da4 ce25 f1a3 9a40 0400 0000
00000140: 9669 473e 0400 0000 43ce 453e 0400 0000
00000150: 0400 0000 80b7 d73e 5d01 c640 c92b 943f
00000160: 0400 0000 a30f 0f25 4bcd ab26 0400 0000
00000170: a6bd 4927 343c dd24 0400 0000 0400 0000
00000180: f107 d53f 085d 683e e357 5e3f 0400 0000
00000190: 0400 0000 0400 0000 0400 0000 0400 0000
000001a0: 0400 0000 8e6a 4640 0400 0000 0400 0000
000001b0: 0400 0000 0400 0000 0400 0000 a174 7e40
000001c0: 9119 d53e 0400 0000 0400 0000 d32f a426
000001d0: 0400 0000 5e36 0700 f5ad bc3e 0400 0000
000001e0: 3766 f340 0400 0000 0400 0000 0400 0000
000001f0: d9dd 2427 f498 173f 0400 0000 0400 0000
6e-45 1.529075e-30 6e-45 2.080419e-15 2.4252525e-15 6e-45 4.2258627e-22 2.9224815
1.1666635e-15 0.20493595 7.1616936 6e-45 6e-45 2.612908e-16 6e-45 6e-45
0.37559432 22.36697 0.17321822 4.529607 6e-45 6e-45 0.24478659 6e-45
6e-45 6e-45 3.4447438e-16 6e-45 0.09864073 1.3222522e-15 0.10974259 6e-45
6e-45 6e-45 0.6158293 4.5063515e-11 3.2888439 6e-45 6e-45 6e-45
6e-45 6e-45 6e-45 6.6169662 6e-45 3.184475 3.52e-42 0.52226096
0.41237307 3.894358 6e-45 1.2327647e-16 6e-45 6e-45 2.2924256e-15 6e-45
6e-45 8.516047e-08 3.4113122e-16 1.7616563 0.40010154 6e-45 6e-45 7.3637074e-16
6e-45 4.968789 6e-45 0.13867407 6e-45 6e-45 7.419817e-16 6e-45
6e-45 0.3288033 4.613681 4.610783e-16 1.2394351e-15 3.584651e-16 4.8325124 6e-45
0.19473872 6e-45 0.19316964 6e-45 6e-45 0.42132187 6.1876664 1.1575862
6e-45 1.2408571e-16 1.1921153e-15 6e-45 2.7997162e-15 9.594546e-17 6e-45 6e-45
1.6643049 0.22691739 0.86852854 6e-45 6e-45 6e-45 6e-45 6e-45
6e-45 3.1002536 6e-45 6e-45 6e-45 6e-45 6e-45 3.9758685
0.41621068 6e-45 6e-45 1.1392749e-15 6e-45 6.62352e-40 0.3685147 6e-45
7.6062274 6e-45 6e-45 6e-45 2.2879836e-15 0.5921776 6e-45 6e-45

fc3.weight f4 [64, 132]
00000000: aa44 85bd 0fe9 b2bc d49a 063d 4523 27be
00000010: ca5a 9e3c 6d27 a93e 28c4 dabc 8e5f 313d
00000020: 64a9 7bbc f576 cfbc bd72 27bd 4682 df39
00000030: 8ff5 1ebb 72b2 6abc 5369 b6bc 5ef0 683d
00000040: 11e5 f63c 62cb c5be 0170 b2bc 378d 0bbf
00000050: 70aa 963d ab1d 82bd 8f47 2e3d ef88 1bbc
00000060: 83f1 6d3b 81ef 9cbc 9fb8 b83c 7678 fe3c
00000070: b526 4e3e 5bbc 0e3d cfe8 893c 073b ebbc
00000080: 11b3 b93e 2bb5 b6bc e4b2 45bf 5095 0c3e
00000090: 8ffc c0bd 2426 813d a8be 31be 0c2e e1bd
000000a0: 5596 ebbc 9e4a 093d 7149 b9bf ec26 353d
000000b0: 8caa 0fbc f437 6a3a 0b6c 8b3c 251b 64bd
000000c0: 8f06 80bc 25ea bdbd 0865 b6bd d0b3 3ec0
000000d0: 8589 653e 7584 5fbd f98a 85bd 30d7 993d
000000e0: 3875 d8bc 7275 bb3c 182b cbbd 41f8 e13c
000000f0: c2b7 1dbf caa2 01bc c69f dabc 6680 79bc
00000100: 2214 4ebb 347d f6bd a53d 3dbf a53e a0bd
00000110: a44b 33bd 07d2 67bd 7caf ac3d 2e17 3dbe
00000120: 233d 00bf b83d a3bf e53d 10bd 8f1a 273d
00000130: 6558 cebe 135e 353c a1b4 a73c 86db 96bd
00000140: 7f55 08bd eda5 ebbc bef7 1fbd 5c0b 823a
00000150: 93ee 0bc0 85bf 123c 58ca b6be d9e1 6a3e
00000160: 3ed4 24ba 4eeb 63bb c559 823b 3f29 043d
00000170: aff7 3e3d 2dcb 9d3d d3be 55bd f161 e53b
00000180: a1b3 17be 47ec c1bd 2b17 c3bb af7d c5bc
00000190: 03ce 323d be03 423b 9ffc 0fbd 4297 9a3d
000001a0: 677e 47bf 9a12 c23c 05c9 343d 674f 873d
000001b0: ab78 58bf 3464 78bd 04c5 743c 1758 e33d
000001c0: ae81 4c3d dd93 81bd 736c ab3a fc0d 383d
000001d0: 9e1a 15bc 80c0 b73a 1549 bb3c 5469 a8bb
000001e0: 19b7 a83c 5084 16bf ae30 e83d 0699 493d
000001f0: 6fc9 c93b 35c8 84bc 24cc e5bc 0b47 6b3b
00000200: b07e a5bf f243 583c 6c2a 8e3a b053 b03c
00000210: 9b8d 52bd da89 febb 66a7 443d c440 84bc
00000220: eb50 ebbc 32f0 bdbc ef79 f7be 1390 93bd
00000230: 683e 1a3c 119f 873d 507a bdbe 7b23 e43c
00000240: 2182 c8bf 01c6 a5bd 0e2b 203d d23b 103d
00000250: 865d dbbe 5f22 8bbd 49e5 af3d 73ab 17bb
00000260: b4cb e13d 952b edbc 73e8 503d 5d01 21bd
00000270: 7ccf b73c 9f56 ddbe a0ad 683d 20a2 d7bc
00000280: 66f9 d13b 75ec d5bc 6a52 69bd 8cf3 41bd
00000290: 498f 42bd c362 49be 403d a1bc 80de 14be
000002a0: c8f2 eebd 8932 42be 7d49 1a3e b161 00c0
000002b0: 27ab 1e3b de8c 173d e52e 243b 7e94 08be
000002c0: d2b0 29bc 646c 04bf 9370 cc3c d3d8 0a3d
000002d0: a83f 90be 513f 993d 937f a6be 919f b83c
000002e0: 947c d53c e0e5 8cbd 73e6 33bd 7db1 0cbf
000002f0: 85ef c2be d677 19bd 1d7b cdbe 06dd b2be
00000300: 890d 253d d073 a1bc f081 4dbe 0f88 1f3d
00000310: e518 0d3d fa80 24bf b0b8 22bd 34f0 05bf
00000320: 22cc 2abc 5ae1 333d 366b 23be eca9 f1bc
00000330: 0d36 13be f33b 41be f5e1 b4bf 61ec e0bc
00000340: 3e43 113d 9779 ce3b 052f 9cbc 59fc 58bf
00000350: 90a0 79bf 0115 07bf 3f37 febc 5890 b63c
00000360: 3dd2 303b 8a47 20be 11c3 2cbd 77c4 d8bd
00000370: 9cb1 51bc 814c 18bd 71d6 983c af95 d8bc
00000380: 4863 643d bee1 84be bd00 46bf 4418 42bf
00000390: 550a 133d ab9b c8bf f2c6 a8bd 642f ffbb
000003a0: 99d8 063d 7884 063c d6a8 a8bd 7272 bbbd
000003b0: 545c 8e3c 2e14 2ebd 265e abbc 45fd d33b
000003c0: 6788 78bd 42fc 8b3c ea63 5dbc 8e84 01be
000003d0: 7105 113d 3a8a 0cbf da57 d73c 9d57 daba
000003e0: 7f8a bebc bb8d a4bd eb93 19bd f66c 45bf
000003f0: 4824 5dbc f10b 1dbd f896 8e3c fe57 c0bd
-0.06507237 -0.021839647 0.0328625 -0.16322048 0.019330401 0.33037892 -0.026704863 0.04330402
-0.01536021 -0.025325278 -0.040880907 0.00042630936 -0.002425525 -0.014324771 -0.02226702 0.056869857
0.030138524 -0.3863173 -0.021781923 -0.5451235 0.07356727 -0.06353315 0.042548712 -0.009493097
0.0036307282 -0.019157173 0.022548972 0.0310633 0.20131953 0.0348476 0.016834645 -0.02871467
0.3626943 -0.022303184 -0.7722609 0.13728833 -0.09423172 0.06306103 -0.17357886 -0.10995111
-0.028758207 0.033518426 -1.4475538 0.044226572 -0.008768689 0.0008934729 0.017019292 -0.05568995
-0.015628127 -0.09273175 -0.08905989 -2.979725 0.22415741 -0.05456968 -0.065206476 0.07511747
-0.026423082 0.02288315 -0.09920329 0.027584197 -0.6160852 -0.007912347 -0.026687514 -0.0152283665
-0.0031445106 -0.12035599 -0.7392219 -0.078244485 -0.04377331 -0.056596782 0.084319085 -0.18465874
-0.5009329 -1.275321 -0.035215277 0.040796813 -0.40301815 0.011069792 0.020471873 -0.073660895
-0.03328466 -0.028765643 -0.039054625 0.0009921598 -2.1864364 0.008956795 -0.3570125 0.22937717
-0.000628773 -0.0034777704 0.0039779865 0.032265898 0.04662293 0.07704768 -0.052183937 0.007000201
-0.14814617 -0.094688945 -0.0059536896 -0.024107782 0.0436535 0.0029604281 -0.035153028 0.075483814
-0.7792725 0.02369051 0.04413702 0.06606942 -0.84559125 -0.060642436 0.01493955 0.11100786
0.04992836 -0.06327031 0.0013078585 0.04493521 -0.009100584 0.0014019161 0.022861997 -0.005139509
0.02059512 -0.5879564 0.1133741 0.0492182 0.006158046 -0.016208747 -0.028051443 0.00359005
-1.2929287 0.013199793 0.0010846383 0.02152428 -0.051404577 -0.007767898 0.048011206 -0.016144164
-0.028725108 -0.023185823 -0.48335215 -0.07205214 0.009414293 0.066221364 -0.3700738 0.02784895
-1.5664712 -0.08094407 0.03910356 0.0352133 -0.4284479 -0.06793665 0.085886545 -0.0023142963
0.110251814 -0.028951446 0.05100293 -0.03930794 0.022437803 -0.4323015 0.056806207 -0.026322424
0.0064079044 -0.026113728 -0.05696336 -0.047351405 -0.04749993 -0.19666581 -0.019682527 -0.14538002
-0.116674006 -0.1896459 0.15067096 -2.0059626 0.0024210901 0.036999576 0.0025052365 -0.13337895
-0.010357099 -0.5172789 0.024956023 0.033898186 -0.28173566 0.0748278 -0.32519206 0.022537025
0.02606038 -0.06879783 -0.043920945 -0.54958326 -0.38073364 -0.0374678 -0.4013299 -0.34934253
0.04029611 -0.019708544 -0.20069098 0.038948115 0.03444757 -0.642593 -0.039726913 -0.52319646
-0.010424646 0.043916084 -0.15958866 -0.02949997 -0.14376087 -0.18870525 -1.4131457 -0.027456464
0.035464518 0.0063011157 -0.01906539 -0.8476005 -0.97510624 -0.52766424 -0.031032203 0.022285625
0.002698078 -0.1565229 -0.042178217 -0.10584348 -0.012798693 -0.037182335 0.018656941 -0.026438562
0.055758744 -0.25953478 -0.77344877 -0.75818276 0.035898525 -1.5672506 -0.08241071 -0.007787632
0.032921407 0.008210294 -0.08235328 -0.09152688 0.01737801 -0.042499714 -0.020918917 0.006469401
-0.06067696 0.01708806 -0.013512591 -0.12648222 0.03540558 -0.54898417 0.026287008 -0.0016658191
-0.0232594 -0.080348454 -0.03749458 -0.77119386 -0.01349742 -0.038341466 0.017405972 -0.09391783

fc3.bias f4 [64]
00000000: 5215 7cbd 9add f13c fe10 0a3e 8c2b 893d
00000010: 05bf 40be ca82 f83d 21a3 683e b292 6b3e
00000020: 1388 8d3d 0c1c 6f3e 4254 a9be 27c3 0b3e
00000030: f124 ed3d 79cf f63d 1438 b53d 223f 523e
00000040: 1c24 b23d 8725 663d 4442 aa3e f7c5 1fbe
00000050: d57d 5e3e b882 e43d dbd1 a5bd 7bfb b83d
00000060: 2114 153e 65ec 063d 31bb 3d3e 04d0 b03d
00000070: b9c6 743e 9f1d 003d 68d5 bb3c 058b 413e
00000080: 874a 9cbb 3564 213e c084 04be 02ff a63d
00000090: fd25 243e 6c9c 7bbe 9655 be3e eeab 42bd
000000a0: 245f 593c f45c be3d 140a 563e 4844 8b3d
000000b0: 4107 2c3e 5d77 3d3e 93bd 513d 2757 8a3d
000000c0: a878 d0bc 6bab 663e b5de 8b3e 3ea4 c53d
000000d0: 3981 823c 8dec a53d d999 8d3e b7b2 703e
000000e0: f501 c23e 6bf6 593e d16f 1b3e d82a b53d
000000f0: 70c3 07bd 73aa 443d 21ff 583e 8fc7 013e
-0.06154377 0.029524613 0.13483045 0.06697759 -0.18822868 0.12134321 0.22718479 0.23005179
0.0691072 0.23350543 -0.33072096 0.13648663 0.11579312 0.12051291 0.08848587 0.20531896
0.086982936 0.056188133 0.33253682 -0.15602861 0.21727689 0.11157745 -0.080966674 0.09032341
0.1455846 0.032940287 0.18528439 0.08633426 0.23903932 0.03127825 0.022928908 0.18900688
-0.0047696265 0.15760882 -0.12941265 0.08154108 0.16030116 -0.24571389 0.37174672 -0.047527246
0.013267312 0.09295073 0.20902282 0.06800133 0.16799642 0.18502565 0.051206183 0.06754904
-0.025448158 0.22526328 0.2731835 0.09650467 0.015930759 0.08101759 0.2765644 0.23505674
0.37892118 0.21285407 0.15179373 0.088460624 -0.033145368 0.048014116 0.21191074 0.12673782
