DQN_preTrained/cstr_ode/DQN_cstr_ode_0_6.pth (torch, 44314 bytes, 13 tensors)

fc1.weight f4 [128, 4]
00000000: 5ad7 b33d 7618 533e 6f7e 75be 0a18 97be
00000010: fdb3 0dbe a295 b6bc fc37 27be 3585 ad3e
00000020: 55a7 1bbe 2534 de3d f541 55be ad77 e2bd
00000030: c740 5fbd 9d30 8bbe b8c6 15bf 3aad 693d
00000040: 4ab4 683e 11fb 883e 9d96 97be 88bc 46be
00000050: a1ba 183e ef42 c03e 6a41 c0bd 5d04 2a3e
00000060: cf68 23be b04f ed3b 39d0 303f 1880 a9be
00000070: 0703 0fbf f526 83be 7007 64be 2292 813e
00000080: a26b 1dbe 0025 5dbe a9d9 e6be c688 b0be
00000090: 8353 5bbe 440a 923e 8c52 c63e 7351 873e
000000a0: cecc 20be 73ca fcbc edbb c53e d3d4 dbbe
000000b0: e943 c5be b458 7bbe 24c4 673e 1dec 503e
000000c0: 468f dabe 71b9 e53d e91e 983d b97f af3e
000000d0: 0c83 bbb7 5435 923d ee5e 413f fd59 0ebe
000000e0: bb75 07bd c22b 62be eca4 05bf 7412 b2bd
000000f0: 1f6a a83e a121 b03d 3467 6bbe f2c1 e33d
00000100: 4c1d 093f ba54 a2bc 9b86 2abe 5955 8f3d
00000110: 5871 ca3e 3075 c53e 5e12 9abe 2f9f 3abe
00000120: dcf8 333e 4567 843e 0010 833f f524 ac3e
00000130: 9cfd bc3d 34a2 5dbd 02ca a53e 47e0 82be
00000140: 4dba dabe 1512 f63e 899b cf3e 64c2 c8be
00000150: 08aa bf3d c880 acbd b882 a8bd 1c5f 6abe
00000160: afbb 173e b028 80be 21fc 0e3e 6c2a 2a3e
00000170: cf50 ed3e bfad bebd 7488 c4be 4fec 7ebe
00000180: 2c62 3a3e 9247 f53a 272c bdbe 936d b0bd
00000190: f2d4 f03e 547f ac3e b03e 5fbe d4dc 00be
000001a0: 440a b5be dfe6 8dbd 598f 59be 9813 91be
000001b0: a3c0 be3d 9c3d 9fbd 6401 a2be a20d 053e
000001c0: bd8f cbbe 5541 e03e 7e3d 823e 4199 92be
000001d0: 3306 38be eb72 41bd 70f3 c53e 954a f23b
000001e0: 7afd 7a3e 5661 6d3d 8c60 3ebe 658f b1bd
000001f0: dbcc c7be a176 91be 0e8d 13be babc 30be
00000200: ef7e b13d f2e8 11be 15de 8dbe 1122 3f3e
00000210: 9471 94be b5c8 aabd 316b eb3e bc9b efbc
00000220: b76b acbc d81a 8ebc 212e 913d ad42 933e
00000230: 6ab9 023e 9856 1d3f 77cf 1d3f 4512 1fbd
00000240: 3ea4 acbe 5f67 8fbe 7d55 a43e 14ce dbbc
00000250: 90ce 7fbd bb7f 65be bf57 37bf 3f98 86be
00000260: 4cdb 4dbe 4680 9b3e eb1f 2d3e 8a0d c3be
00000270: 16c9 a13e f50b cbbe 69fd 0fbe cb7f 55be
00000280: 1dbc 7e3d d7e7 04be cb2f 2abf 67a4 5fbe
00000290: 283c a0bd 80e1 d33b b896 68be b8de 403e
000002a0: d16c c2be f515 13be bb9e 003f da4d fcbd
000002b0: 2a95 753e 6d09 b53e 9a99 d5be f532 073d
000002c0: 4240 54be d55f 0cbe b1e8 083f d8c1 a6be
000002d0: ae14 23be effb 7dbd 833d 323f 3a0c 94bc
000002e0: 7849 763e 2f2f 463e b473 63be cf07 623d
000002f0: 05d6 c8be 4f02 4dbc 3ed2 eb3e b0b2 883e
00000300: 84af 7cbe 121a abbd 2760 7cbe 164c 2dbe
00000310: 45d1 6ebe 34e4 e63d 5a94 75be 00ba 32bc
00000320: 94c1 ca3d c7fd 993e fe87 84be d22d 75be
00000330: 6a2b 82bd 00c9 6b3e c25d 5dbe d7fb 8e3e
00000340: a024 393e 40aa 813d 00ed 73bb 086d cabd
00000350: 68f1 b23e d077 9b3e d32f 8bbe ec98 4b3d
00000360: 0c57 a4be 9ec2 6ebe 4a1e dd3e 35c0 9fbe
00000370: f05d debe 9a5f 153f 815f 973d fc43 57bc
00000380: c2de 92be bd7e b03e 31b0 84be d88e 92bd
00000390: 029a 67bd 8033 92be e076 4fbe da5c 723e
000003a0: da25 533d 3a98 333e fe1e 833f 53c4 75be
000003b0: 9182 de3e ff96 e5be 49ac 4dbe 70cc 283e
000003c0: 04ff 4f3e 5197 ac3e 55c3 fbbd aa7a 54bd
000003d0: 2642 af3d 4fd7 ddbe aa69 1d3f b994 c5be
000003e0: 7319 82bc 4c10 a5bd 29cf ffbd d676 843d
000003f0: 92ad 903e 9de7 af3d d13c f7be 20d9 f2bd
0.087813094 0.206148 -0.23974012 -0.29510528 -0.13838191 -0.022288147 -0.1632995 0.3389069
-0.15200551 0.108497895 -0.20825942 -0.110579826 -0.054505136 -0.27185526 -0.58506346 0.057049967
0.22725025 0.26754048 -0.29607096 -0.19407856 0.14914943 0.37551066 -0.09387477 0.16603227
-0.1595795 0.0072421655 0.6906772 -0.3310554 -0.55863994 -0.2561566 -0.22268462 0.25306803
-0.1537309 -0.21596146 -0.45087937 -0.3447935 -0.21418576 0.28523457 0.38734853 0.26429328
-0.15703127 -0.030858254 0.38619938 -0.4293581 -0.38528374 -0.24545556 0.22633415 0.2040257
-0.42687434 0.11217011 0.07427771 0.34277132 -2.235316e-05 0.07139078 0.75535476 -0.13901515
-0.03307126 -0.22087005 -0.52204776 -0.08694926 0.32893464 0.08600164 -0.22988588 0.111209765
0.5356033 -0.019815791 -0.1665291 0.06998701 0.395396 0.3856597 -0.30092138 -0.18224786
0.17575401 0.25860038 1.0239258 0.33621946 0.0922806 -0.054109767 0.32380682 -0.25561735
-0.4272026 0.4806067 0.4054835 -0.39210808 0.09358603 -0.084230006 -0.082280576 -0.22887844
0.1481769 -0.25031042 0.13963367 0.16617745 0.46350715 -0.09310483 -0.38385355 -0.24894832
0.18201512 0.0018713346 -0.36947748 -0.086146496 0.47037464 0.33690894 -0.21801257 -0.12584239
-0.35359395 -0.06928801 -0.21246089 -0.2833526 0.09314086 -0.07775423 -0.31641686 0.12993482
-0.397581 0.43799844 0.2543754 -0.28632548 -0.17971115 -0.047228735 0.3866229 0.007394145
0.24510756 0.057954155 -0.18591517 -0.086699285 -0.3902348 -0.2841082 -0.14409277 -0.17259493
0.08666789 -0.14249018 -0.27708498 0.18665339 -0.28992903 -0.08339063 0.45980218 -0.029249065
-0.021047456 -0.017346784 0.070888765 0.28761807 0.12766042 0.61460257 0.6164469 -0.038835783
-0.33719057 -0.28008553 0.32096472 -0.026831664 -0.062452853 -0.22412007 -0.71618265 -0.2628803
-0.20103186 0.30371302 0.16906707 -0.38096267 0.3159873 -0.3965756 -0.14061512 -0.2084953
0.062191118 -0.12979065 -0.66479176 -0.21840058 -0.07823974 0.0064660907 -0.22713745 0.1883496
-0.37973645 -0.14363845 0.50242203 -0.123195365 0.23982683 0.35358754 -0.4171875 0.03300758
-0.20727637 -0.13708432 0.5348006 -0.32569766 -0.15925857 -0.06200784 0.6962511 -0.018072236
0.24051464 0.19353937 -0.22212106 0.055183228 -0.39225784 -0.012512757 0.4605884 0.26698828
-0.24676329 -0.08354582 -0.24646054 -0.16923556 -0.23322017 0.11273995 -0.23982373 -0.010908604
0.09900203 0.3007643 -0.25885004 -0.2394326 -0.06355937 0.23025894 -0.21617797 0.27926514
0.18080378 0.06331301 -0.003722012 -0.09884077 0.34949803 0.30364847 -0.27184924 0.049706385
-0.32097661 -0.23316428 0.4318717 -0.3120133 -0.43431044 0.58349 0.07391263 -0.013138767
-0.28685576 0.34471694 -0.25915673 -0.071561515 -0.056543358 -0.28554916 -0.20260191 0.23668233
0.05154977 0.17538539 1.0243833 -0.24000673 0.4345899 -0.44841763 -0.20085253 0.16484237
0.20312124 0.33709195 -0.12293116 -0.051874794 0.08557539 -0.4332833 0.61489356 -0.3859003
-0.015881276 -0.08059749 -0.124906845 0.06467979 0.28257424 0.085890986 -0.48288587 -0.118578196

fc1.bias f4 [128]
00000000: 005c a1be 278c 83be 7050 4a3e 5d45 303f
00000010: 3f22 9dbe 7a41 1ebe 7b93 60bd bca1 c53c
00000020: 8bd4 b13e cf02 f63d 8f32 83bd fa14 e7be
00000030: d788 e5be 2d67 83bd 2a88 b63e 09d1 68be
00000040: 0262 443d e601 a8be a025 923e c41e d23e
00000050: 101a f8be 1088 cfbe bc66 d8be fc49 5cbe
00000060: 5983 82be 4e90 a7be 2213 cfbe 94d2 4a3e
00000070: fd08 debe 4a09 9ebb 108c 16be 6061 a0be
00000080: 5602 a23e c243 a03e 3b97 bcbe ba02 91bd
00000090: 4de7 aabd a808 453f c85c 13bf fe77 f2be
000000a0: 6446 3a3f f8f7 a1be 2252 8dbb e281 a13e
000000b0: 7c91 96bd bd01 25bd 2dfc a83e 9918 743e
000000c0: 95c2 17bf 69e5 b4be 3a2a b6be 1370 c93e
000000d0: 8eaa a5be 02ec 103f c306 39bd a228 64bd
000000e0: 1bfe 053f 40cf 9b3e 8654 3f3d 9915 293d
000000f0: a941 42be cefa 57be a20c c6bd 2a4f f63e
00000100: 31e1 b4be cee0 0cbf f770 643e e186 fb3e
00000110: 371a c6bd 6def e9be ec99 f7be c48a f03e
00000120: 3501 e9bd 64fc 9ebe 78de 1e3b 2001 403e
00000130: ee50 fbbb 1902 bc3e 756a ecbc 7ebb e1be
00000140: d853 e7be 2ddf fe3e 807c be3e bf2a 013e
00000150: 3e4e babd 6cf7 1a3f ff5f 0c3f 5ad3 363f
00000160: 30f5 d7be fbe6 8ebe bdae d0be a196 e73d
00000170: 8992 8dbe f3cc c1be f6d1 aebb 59a3 71be
00000180: 1d43 c1be cc95 123e a8da 81be 108a f2be
00000190: d553 fa3e d443 14be 6883 853e c3df 883e
000001a0: 5313 6b3e 5c76 e8bc 5791 fc3e c29e 263e
000001b0: 0c32 9ebe 57fb 0f3f f9e3 db3d 38c6 f9be
000001c0: 07de f2bd 5126 e7be ac66 093f ada0 e23d
000001d0: b259 e9be 4cb5 4d3c 8173 ce3c b8e9 f43d
000001e0: 1d94 c83e 12fb 31bc 6ce8 173e 11e8 bbbd
000001f0: f8aa 90ba 94b7 cebe 2897 d2be 46a3 b33e
-0.31515503 -0.25692865 0.19757247 0.6885584 -0.3069019 -0.15454665 -0.05482815 0.024124973
0.3473247 0.120122544 -0.06406128 -0.4513319 -0.44830963 -0.064161636 0.3565076 -0.2273599
0.04794503 -0.32813948 0.2854433 0.41039097 -0.48457384 -0.40533495 -0.4226588 -0.21512598
-0.25490835 -0.32727283 -0.40444285 0.19806892 -0.43366233 -0.0048228847 -0.14701867 -0.3132429
0.31642407 0.31301695 -0.3683413 -0.07080598 -0.083448984 0.76966333 -0.5756345 -0.47357172
0.7276366 -0.31634498 -0.0043127695 0.31544405 -0.07351968 -0.04028486 0.33004895 0.23837508
-0.59281284 -0.35331276 -0.3557909 0.39343318 -0.32356685 0.5661012 -0.045172464 -0.055702813
0.5234086 0.30431557 0.046711467 0.041280363 -0.1897036 -0.21091768 -0.09670378 0.48107272
-0.35328057 -0.55030525 0.22308718 0.49126342 -0.09672969 -0.4569048 -0.4835962 0.4698087
-0.11377183 -0.31051934 0.0024241488 0.18750429 -0.0076695597 0.3672035 -0.028859356 -0.44088358
-0.45181155 0.49779645 0.3720436 0.12613963 -0.09096955 0.60533786 0.5483398 0.71416247
-0.4217925 -0.279106 -0.40758315 0.11308027 -0.2765086 -0.37851676 -0.005335088 -0.23597468
-0.37746516 0.14314955 -0.25362134 -0.47370958 0.48892084 -0.14479 0.26076818 0.26733217
0.2295659 -0.02837675 0.49329636 0.16271499 -0.30897558 0.5624289 0.10736842 -0.4878404
-0.118587546 -0.4514642 0.5367229 0.11065803 -0.45576245 0.012555432 0.02520156 0.11958641
0.391755 -0.0108630825 0.14834756 -0.091751225 -0.0011037281 -0.40374434 -0.41130948 0.35085505

bn1.weight f4 [128]
00000000: 2942 053f dbec 223f 4cb6 703f 5946 733f
00000010: fc75 4f3f 4ebc 093f f2c4 a53f 9f63 383f
00000020: 2c5d 813f 4419 aa3e c99e 893f 42da 6e3f
00000030: 705a 4e3f ef98 ae3f 1974 413f 0df4 6b3f
00000040: c6e4 913f 0f72 3d3f 5ae7 943f 9144 ce3e
00000050: 2906 583f 0000 803f db17 533f 9a86 6a3f
00000060: 69b9 6f3f 0000 803f 718d 203f 2635 723f
00000070: 0f68 6a3f 4109 a63f 925a 6b3f 82fc 4b3f
00000080: ab27 493f 653a 533f c598 6a3f 4683 ab3f
00000090: 5a8e ac3f bacb 4a3f e492 6e3f 0a7c 823f
000000a0: 8b76 7e3f 0000 803f 5e04 8c3f a1d0 823f
000000b0: 146f c83f 0d0a da3f c035 643f 820f 613f
000000c0: e9dd 753f a858 6d3f 0f3c 463f e9f9 4d3f
000000d0: 0000 803f 5c64 543f 66d7 bb3f f6d6 353f
000000e0: a0bf 843f 7e60 3b3f cf71 8e3f b67f 363f
000000f0: ac6b 6f3f 8a6a 423f a9f9 093f 4f37 843f
00000100: d1bd 493f 3266 793f bbd6 2d3f 4150 693f
00000110: 4037 6b3f 2d05 753f cb4d 783f a667 a23f
00000120: f25d 353f 3056 543f 4e65 2e3f 0f89 9a3f
00000130: 8133 7e3f 2b47 783f d286 4b3f 0000 803f
00000140: 0000 803f 04e2 5f3f 1810 723f fdf8 6e3f
00000150: cbf3 8e3f 61ae a83f b20d 323f 07f4 793f
00000160: 0000 803f e6ea 493f c84d 273f 60b3 9a3f
00000170: 53f0 3f3f 90ae 1b3f 8bd9 a53f ab6e 743f
00000180: d0cc 903f 1bc3 303f 5e01 8f3e 918d 3e3f
00000190: dca1 4f3f 34ae 783f 0626 813f 85cd 3f3f
000001a0: 2091 7a3f 4ee5 ca3e 97b4 b43e 7975 823f
000001b0: 6b34 663f 84b3 6c3f f6c5 5b3f 0000 803f
000001c0: 127b 823f f40d 6f3f c09b 8c3f e0e1 833f
000001d0: 0000 803f 1191 a43f 50df 893f 6604 8a3f
000001e0: 7b0e 9e3f 8a44 aa3f 188f 4f3f 3296 8b3f
000001f0: 5000 bd3f 8b00 663f 35ba 833f e376 783f
0.5205408 0.6364266 0.9402816 0.95029217 0.81039405 0.53802955 1.2950728 0.7202701
1.0106559 0.332224 1.0751582 0.93301785 0.80606747 1.3640422 0.75567776 0.92169267
1.1397941 0.74002165 1.1633103 0.40286687 0.843844 1.0 0.82458276 0.91611636
0.9364229 1.0 0.6271582 0.9461235 0.9156503 1.2971574 0.91935074 0.7968217
0.78576154 0.8251098 0.9163936 1.3399436 1.3480942 0.7921711 0.9319289 1.0194104
0.9939963 1.0 1.0938833 1.0219918 1.5658898 1.7034317 0.89144516 0.8791429
0.96041733 0.92713404 0.7743539 0.8045946 1.0 0.82965636 1.4675109 0.7103113
1.0370979 0.7319411 1.1128482 0.7128862 0.9352367 0.75943816 0.53896576 1.0329379
0.7880526 0.9742156 0.6790578 0.9113808 0.9188118 0.9571102 0.969937 1.2687881
0.70846474 0.8294401 0.6812333 1.2073077 0.9929734 0.96983594 0.79502594 1.0
1.0 0.8745425 0.9455581 0.93348676 1.116815 1.3178216 0.6955215 0.9763798
1.0 0.7887405 0.6535306 1.2085991 0.7497608 0.60813236 1.2957014 0.95481366
1.1312504 0.6904771 0.2793073 0.74434763 0.8110635 0.9714081 1.0089729 0.7492297
0.97877693 0.3962807 0.3529403 1.01921 0.89923733 0.9246142 0.8584894 1.0
1.0193808 0.93380666 1.0985031 1.0303307 1.0 1.2856771 1.0771275 1.0782592
1.2348169 1.3302166 0.8107772 1.0905211 1.476572 0.8984458 1.0291201 0.97056407

bn1.bias f4 [128]
00000000: 0b2a 223d 3e22 813e e71b 813e 6d2e cdbe
00000010: 13aa c93d a6f7 db3e af3d d4bb d3f3 913c
00000020: 3f14 bdbe 8cb5 893e c8f5 4a3e f898 f53e
00000030: f20f 913e 12ec a2bc 9716 c7be 6917 cdbe
00000040: 6462 af3d 7730 4abe d98b 3d3e 80d0 e13d
00000050: 2ac0 01be b43c 23bf 428b 2bbe 88ba 2a3e
00000060: 6c3c 7ebe 9bb4 1dbf 75dc 333e e5f7 0dbe
00000070: 368f f2be ffdb 31be ee33 db3d 2d87 1abf
00000080: b64e 20bf 4a80 82bd 4cfe 66be c6ca c83d
00000090: 9207 52bd 14f2 0abf 2eea 0b3f 5db3 273f
000000a0: 635d dfbe 5cd4 2d3f 5d7f dfbd fe03 b1bd
000000b0: 7b77 d83d 2c2d 9b3c 5c4c b9be 922f a83d
000000c0: 0491 2dbf 8add 80be adcf 833e b900 af3c
000000d0: afac 2c3f 5584 9dbc 45d0 c8bd 9f09 c6bd
000000e0: 6d63 01be 0b6e 65be 651e 663e c4c3 233e
000000f0: d51f 833e df17 c53e 44a8 9e3e 02d5 173e
00000100: a330 f43d a71c 02bf eea5 5a3e 2f5f 863d
00000110: 2cc3 2f3e 8095 71be e5d3 29bf f1ed 813d
00000120: b4b4 5e3e 4dff dfbe e729 d63e b8bb 143e
00000130: 113c 7b3e f22f b2be 2168 f53e 3157 78be
00000140: e992 363f eca6 b33e bed8 85be dccb 8b3d
00000150: b352 8f3c df11 1d3e efdc c53c 9153 b3be
00000160: ce21 2d3f f2fd 69be 0e0e 4cbe 53a1 fdbd
00000170: 7881 8cbe ec5a b43e c16b f1ba 9898 773e
00000180: 2060 a4be 6d96 bf3e 0552 2abd ce51 153f
00000190: 7460 e43d 7789 403d 6662 4b3e cf45 01be
000001a0: a62d 0ebe 72f3 053e 697a 803d c1e2 6ebd
000001b0: dba8 8c3e efd0 d23e eb14 2cbe 30a6 25bf
000001c0: 0356 7a3e 2af5 373f 9ba9 73be 34a0 d83d
000001d0: b1bd 3f3f 8b2f f73e db11 8d3e 6b6a afbe
000001e0: e10b 82be 7e89 6abe 82b4 50bc d0d3 103d
000001f0: 8194 89be b607 323f 0ead 193e e9a7 10bd
0.039590877 0.25221437 0.252166 -0.40074483 0.09846892 0.42962378 -0.00647708 0.01781646
-0.3692951 0.26896322 0.1982032 0.47968268 0.28332478 -0.019887958 -0.38884422 -0.40056923
0.085636884 -0.1974505 0.18510379 0.11026096 -0.12670961 -0.637645 -0.16752341 0.16672719
-0.24827737 -0.6160371 0.17564566 -0.13864096 -0.47374886 -0.17369078 0.10703264 -0.6036251
-0.62620103 -0.063721254 -0.22557944 0.09804301 -0.05127675 -0.5427563 0.54654205 0.6550806
-0.43625936 0.6790216 -0.109129645 -0.086433396 0.10569664 0.018942438 -0.3619107 0.08212198
-0.677994 -0.2516902 0.25744382 0.02136265 0.67450994 -0.01922814 -0.09805349 -0.09669804
-0.12635584 -0.2240526 0.22472532 0.15992647 0.25610223 0.38494775 0.3098775 0.1482735
0.11923339 -0.5082497 0.2135236 0.065611236 0.17164296 -0.23592186 -0.6633895 0.06344212
0.2174862 -0.43749467 0.41828844 0.14524734 0.24534632 -0.34802204 0.47931007 -0.24252011
0.7131792 0.3508829 -0.26141924 0.068259925 0.017495489 0.15338849 0.0241532 -0.35024694
0.67629707 -0.22850779 -0.19927236 -0.12384286 -0.27442527 0.35225618 -0.0018418954 0.24179304
-0.32104588 0.37419453 -0.041582126 0.5832795 0.111512095 0.047006097 0.19861755 -0.12624286
-0.13884601 0.13081148 0.06273348 -0.058321718 0.27472576 0.4117503 -0.16804855 -0.64706707
0.24446873 0.71858466 -0.23795168 0.10577431 0.7489882 0.4827846 0.27552685 -0.34260878
-0.25399688 -0.22904012 -0.012738349 0.03535825 -0.26871112 0.69543016 0.15007421 -0.03531638

bn1.running_mean f4 [128]
00000000: 0400 0000 0400 0000 685c cb3d f330 e33e
00000010: 0400 0000 0400 0000 18f3 863e 8db4 173c
00000020: 25d6 333e 8ed1 3e3e 6f9d f43d 0400 0000
00000030: 0400 0000 676e a43e 4feb 3d3e 0400 0000
00000040: 3cc6 123e 0400 0000 2c41 493f 6b25 1a3f
00000050: 0400 0000 0000 0000 0400 0000 0400 0000
00000060: b2fd 303a 0000 0000 0400 0000 eee4 dc3d
00000070: 0400 0000 91dd 153e 0400 0000 0400 0000
00000080: df11 743e b54e e83e 0400 0000 4564 393e
00000090: d1e9 9e3d 2e49 e73e 0400 0000 0400 0000
000000a0: 4780 e93e 0000 0000 d375 2c3e fc33 3a3e
000000b0: 3a75 463e 55cd 923e 87c1 873e 4fe3 ab3e
000000c0: 0400 0000 0400 0000 0400 0000 9075 6b3e
000000d0: 0000 0000 2ce4 fb3e 31db 143e 4061 903b
000000e0: 43ab 8b3e 283b 783e c399 063f d42c 2b3e
000000f0: 0400 0000 79ab 9a3e 58a8 5b39 59d0 a63e
00000100: 0400 0000 0400 0000 0023 293e c83a be3e
00000110: 954f 903b 0400 0000 0400 0000 6ff4 c53e
00000120: 0400 0000 0400 0000 0eec a83e 38cc b93d
00000130: b630 5d3e d802 4d3e 5a0a 533e 0000 0000
00000140: 0000 0000 a5cf 5f3f ec44 4d3e 0e0f 563e
00000150: d26f cf3e 9f89 513f c4bb 393f 4449 fd3e
00000160: 0000 0000 f77a f939 0400 0000 a876 163f
00000170: bbaf 293a 0400 0000 3883 bb3e 33f1 e23d
00000180: 0400 0000 709d 143e 0400 0000 0400 0000
00000190: db37 c43e 6844 be3e b4c5 053e 7cf1 1f3e
000001a0: 4371 c53e 062a 1f3e 3ad0 3f3f 3e72 9a3d
000001b0: 0400 0000 3e8a 4e3f 9f29 163d 0000 0000
000001c0: a7dd 993e 0400 0000 ffc3 bb3e b97c db3c
000001d0: 0000 0000 e598 273e 9b3b b93e e11b 4e3d
000001e0: eb3a 483e b62f 3a3e a739 9b3d 9568 953e
000001f0: 6aaa e63d 0400 0000 0400 0000 b55c 793e
6e-45 6e-45 0.099297345 0.44373283 6e-45 6e-45 0.2635734 0.009259355
0.17562158 0.18634626 0.119440906 6e-45 6e-45 0.3211548 0.18546794 6e-45
0.14333433 6e-45 0.7861507 0.60213345 6e-45 0.0 6e-45 6e-45
0.0006751671 0.0 6e-45 0.107858524 6e-45 0.14635302 6e-45 6e-45
0.23834942 0.4537255 6e-45 0.18104656 0.07759441 0.4517302 6e-45 6e-45
0.4560568 0.0 0.16841821 0.18183893 0.19380656 0.2867228 0.26514837 0.3357186
6e-45 6e-45 6e-45 0.22994065 0.0 0.4919752 0.1453674 0.0044061244
0.272791 0.24241316 0.5257837 0.1671632 6e-45 0.30208948 0.0002094818 0.32580832
6e-45 6e-45 0.16517258 0.37154222 0.004404018 6e-45 6e-45 0.3866305
6e-45 6e-45 0.32992595 0.09072155 0.21600613 0.20020616 0.20609418 0.0
0.0 0.87426215 0.20045823 0.2090418 0.40515 0.8185062 0.7255213 0.4946996
0.0 0.00047584597 6e-45 0.58774805 0.0006473024 6e-45 0.3662355 0.11081161
6e-45 0.14513183 6e-45 6e-45 0.38323864 0.37161565 0.13063699 0.15619463
0.38562974 0.15543374 0.74927104 0.07541321 6e-45 0.8067969 0.036660787 0.0
0.3005192 6e-45 0.3667297 0.02679287 0.0 0.16366918 0.36178288 0.050319556
0.19553725 0.18182263 0.07579356 0.29181352 0.11262973 6e-45 6e-45 0.24351771

bn1.running_var f4 [128]
00000000: 0400 0000 0400 0000 5f01 2c3c b912 8e3d
00000010: 0400 0000 0400 0000 eb40 983d c9fd 0b3b
00000020: 9aec 023d 5eef 183c de11 7c3c 0400 0000
00000030: 0400 0000 445d e13d 5f7e 113d 0400 0000
00000040: 4d9c a53b 0400 0000 d2d4 823e b358 2a3d
00000050: 0400 0000 0400 0000 0400 0000 0400 0000
00000060: 23e1 1f38 0400 0000 0400 0000 9a11 433c
00000070: 0400 0000 0426 b83c 0400 0000 0400 0000
00000080: 0d70 173c b1e2 103d 0400 0000 fc78 133d
00000090: 4567 dd3b 0304 f23d 0400 0000 0400 0000
000000a0: 926e c03d 0400 0000 bd86 f23c f7ef 073d
000000b0: bac4 243d 51e1 b33d 1471 263c fdbc bd3c
000000c0: 0400 0000 0400 0000 0400 0000 f4a4 023d
000000d0: 0400 0000 c218 7d3c 50bc ba3c 19af 033a
000000e0: afa2 873d 67c4 7f3b ea47 753e f87b 573c
000000f0: 0400 0000 b228 ca3d b5e2 7636 4bf6 2a3d
00000100: 0400 0000 0400 0000 a1af d73b adcf f23c
00000110: 5c16 353a 0400 0000 0400 0000 9957 833c
00000120: 0400 0000 0400 0000 1c01 c93d 3d86 473c
00000130: 44f3 4a3d 4c76 263d 5c11 3a3d 0400 0000
00000140: 0400 0000 d57b 163e bb86 283d aac9 af3b
00000150: 3885 333e 4f9a 873d 61c0 303d 8cef 833d
00000160: 0400 0000 f899 9f37 0400 0000 6197 5c3e
00000170: 8226 1338 0400 0000 01cd eb3d 4846 853c
00000180: 0400 0000 2001 ea3a 0400 0000 0400 0000
00000190: ca97 c03c ae18 173e 0edc 943c 0641 cf3c
000001a0: 7996 013d 5232 d53c aba8 763d 1c75 ea3b
000001b0: 0400 0000 6bca aa3d 715b 0a3b 0400 0000
000001c0: e0bb c53d 0400 0000 150f 343d 4e69 783b
000001d0: 0400 0000 5824 e23c 532f f83d 019e c73b
000001e0: 9796 203d ff21 e13c b587 ce3b f52f ba3d
000001f0: c223 583c 0400 0000 0400 0000 7bd0 8f3c
6e-45 6e-45 0.010498374 0.06937165 6e-45 6e-45 0.07434257 0.0021360985
0.031963922 0.009334413 0.015385119 6e-45 6e-45 0.11004117 0.035520907 6e-45
0.005054033 6e-45 0.25552994 0.041588496 6e-45 6e-45 6e-45 6e-45
3.811823e-05 6e-45 6e-45 0.011906052 6e-45 0.022479065 6e-45 6e-45
0.009243024 0.03537244 6e-45 0.03600405 0.0067566955 0.118171714 6e-45 6e-45
0.093960896 6e-45 0.029605264 0.033187833 0.040226676 0.0878321 0.010158796 0.023161406
6e-45 6e-45 6e-45 0.031895593 6e-45 0.015447797 0.022794873 0.0005023345
0.06622826 0.0039026977 0.23953214 0.013152115 6e-45 0.09871043 3.6788817e-06 0.04173879
6e-45 6e-45 0.006582216 0.029640043 0.0006907934 6e-45 6e-45 0.01603298
6e-45 6e-45 0.09814665 0.012178001 0.049548402 0.04064016 0.04542671 6e-45
6e-45 0.14695676 0.041144114 0.0053646164 0.17531288 0.06621229 0.043152217 0.06442174
6e-45 1.9025974e-05 6e-45 0.21542121 3.5083394e-05 6e-45 0.11513711 0.016268864
6e-45 0.0017853118 6e-45 6e-45 0.023509879 0.14755508 0.018171337 0.02529956
0.031637643 0.026024971 0.060219448 0.007155074 6e-45 0.083393894 0.0021111632 6e-45
0.09654975 6e-45 0.043959696 0.0037904563 6e-45 0.02760522 0.121184014 0.0060918336
0.039206114 0.02748203 0.0063027986 0.09091178 0.013192119 6e-45 6e-45 0.017555466

fc2.weight f4 [64, 128]
00000000: d183 9cbb 3ff3 0e3e ffce 59be d968 12be
00000010: c5ea 7dbc bd91 843e 9c86 023e ddc4 203d
00000020: 2cf0 a2be 47ca 8a3d 003e f93e 4648 203e
00000030: bcd6 393e b1c7 b13d fd75 80be 265f a4be
00000040: 8c26 013e 408d 17be 0b1b 683d 0122 843d
00000050: 98bc 083c 850f a6be 9436 d7bc eb71 55be
00000060: 8a5e e0bd e662 6cbe 9115 023e 18a3 33be
00000070: 6d71 b4be d5ac 823e 6053 90be 332c a3be
00000080: 6c47 5abe 47b9 1c3e 6eba 65bd 6918 4b3e
00000090: 3f89 773e 600d 32be 93f0 993e d029 863e
000000a0: e4f8 03be f005 843e 35e5 313e d0b0 44be
000000b0: cebb a43e d555 983e 0e81 30be e84e b83d
000000c0: 428a 85be 6cef 4bbe 146b c73d 83bd 77be
000000d0: 4ac8 b73e b88e b53c 54fd 913e 74c6 2abe
000000e0: b9c8 0fbe ace2 99bd 07b7 203e 4a1c 12bd
000000f0: 60e5 aa3c da21 bc3d db97 d43d e402 acbd
00000100: e998 ac3c 77ed a0be a7e8 d7bd cb49 cbbd
00000110: 687d 80bd 3bfa b5bd a623 a1be 8862 a6be
00000120: 9235 4b3d 0a5d 93be 94d3 723e 2748 adbe
00000130: 7ba3 f13e 6481 2bbe 0252 2f3e 3df3 eabd
00000140: 1f75 bb3e 16d8 d03c 3e0f 6ebe 915e 93be
00000150: df36 2dbe cbf4 8f3e d3df 303e ec4b d1be
00000160: 2a14 b13e 0adf 1ebe 81fa 25be b122 c43d
00000170: 36d9 26be 6a53 043e a307 b0bd dc81 3c3e
00000180: 0292 a0bd fb67 cb3d 0a7a a03d b2aa 893e
00000190: 90f8 74be e492 9d3e bf19 c4bd c3ae 43be
000001a0: 3f74 a43d 3d6b f63d 58ed 82bd fd14 7abe
000001b0: 5e5a 783e ed6a c33e 4d4a c73d 019f 9bbe
000001c0: db43 b73e 8094 be3e 1856 9bbe 193a 94be
000001d0: bc6c 873e a63b a03e 6cf8 6e3e 7a2a 62be
000001e0: 4249 5cbe 8fac 723d fdb8 82be 53ca bd3e
000001f0: 4fcc 8b3e 495b 173e 9e50 d43d e80f 87be
00000200: fdc8 aa3d 3140 cebe 29a7 58be 1730 78be
00000210: 6b97 a73d 891b 543d 2d9b b43e 7375 d0be
00000220: 4f25 94be ea2b 823c 0f1d 913e 06af c53e
00000230: 0300 d3bd 5290 723e fce6 90be ff6e c3bd
00000240: 4275 97ba a4ee fe3b 2c54 123e ea03 b6bd
00000250: ba1b 863e 3427 2dbf d447 c43d 2c4d 05be
00000260: 8172 ae3d 0b75 30bf 299f f23d 09c2 aabe
00000270: 67c8 12be b201 653e 6ea2 c8bd eab4 1ebe
00000280: a5f7 b4bd bc05 df3d 3d5f 14bd 771e be3d
00000290: bf60 ca3e 62e2 d8bd 652b 833e d03a 523e
000002a0: e2b3 a2be 4604 363f 3b0a 2f3e 0c65 53be
000002b0: 0074 c63e 4254 cb3e 9775 37be e3cf 513e
000002c0: 8349 37bf ae23 8b3d c52f 3d3d efc4 90bd
000002d0: c3f7 463f 04fe a0bd 4c49 033f fc40 89bd
000002e0: a01f 60be 176f 4e3d b04c 803e d10e 053c
000002f0: cdeb 213d a100 3c3d 4d35 7a3e 1819 02be
00000300: 8b70 403e cfc3 16bf 8be9 f5bd b653 2bbe
00000310: d97b 97be ce5f 83be c2b5 3abf ebf7 aebe
00000320: 77e1 2e3d ef56 5dbd fd50 473d 770d a6be
00000330: 13da 3f3e d7e5 b0be 2681 9d3d 5ce5 59be
00000340: c257 363f 2daf f53d 4687 9cbe e89f 25be
00000350: d4b6 52bc 1460 9b3e 481c 143e a9f5 a6be
00000360: 674c 233f afb5 1c3e f26f d23d 1377 6f3d
00000370: a8b5 093e 818c 323e a58c ee3d 10d9 173e
00000380: d5e4 7b3c d38e e23c e470 263e b9cb 1c3f
00000390: 12bf 1ebe 6f41 093e 847a debd 1b89 31be
000003a0: a425 c73b de1e e13c 803c 94bd c155 19be
000003b0: 1857 e13d b1cb 883e 4109 e93c 1d87 35bf
000003c0: 7fcf aa3d 75db 123f ba61 d6be e71f 80be
000003d0: c5af 423f 937a ca3e a1f1 5b3e 09e2 98be
000003e0: 8683 bcbe 8d31 383e 033b 64be e10b 443e
000003f0: 895f d83e 5045 2b3f 5126 8cbd 522c cdbd
-0.004776456 0.13959979 -0.21270369 -0.14297809 -0.015497868 0.2589244 0.12746662 0.039250243
-0.31823862 0.067768626 0.48680115 0.1565257 0.18148321 0.08680666 -0.25090018 -0.32103842
0.1261236 -0.14799976 0.056666415 0.06451798 0.0083457455 -0.32433715 -0.026271142 -0.20844238
-0.10955532 -0.23084602 0.1270354 -0.17542684 -0.35242787 0.25522485 -0.2818861 -0.3186966
-0.21316308 0.15305053 -0.056085996 0.1983353 0.24173449 -0.17387915 0.30066356 0.26203775
-0.12887913 0.2578578 0.17372592 -0.19208074 0.32174534 0.29752985 -0.1723673 0.08999425
-0.26082045 -0.19915551 0.097372204 -0.24193387 0.35894996 0.02216278 0.28513587 -0.16677266
-0.14041413 -0.07513937 0.1569482 -0.03567151 0.020861328 0.09186144 0.10380527 -0.08398989
0.021069007 -0.3143117 -0.10542422 -0.09926184 -0.06273919 -0.08885618 -0.3147251 -0.32497048
0.049611636 -0.2878192 0.23713523 -0.3384411 0.47195038 -0.16748577 0.17121127 -0.11472175
0.36612794 0.025493663 -0.23248002 -0.28783086 -0.16915463 0.2811645 0.17272882 -0.40878236
0.34585696 -0.1551477 -0.16208841 0.09576929 -0.16293797 0.12922445 -0.085952066 0.18408912
-0.07840349 0.09931942 0.07835777 0.26888043 -0.23922944 0.3077613 -0.09575223 -0.19109635
0.08029985 0.12032173 -0.06392926 -0.24422069 0.24253222 0.38167515 0.097309686 -0.30394748
0.35793957 0.37222672 -0.30339122 -0.28950575 0.26450145 0.31295508 0.23336953 -0.22086516
-0.2151232 0.059246596 -0.2553176 0.37068424 0.27304313 0.14780916 0.10366939 -0.26379323
0.08339117 -0.4028335 -0.21157517 -0.24237095 0.081831776 0.051784072 0.3527464 -0.40714607
-0.28934714 0.01589008 0.28342482 0.38610095 -0.103027366 0.23687866 -0.28301227 -0.09542655
-0.0011555331 0.007779913 0.14289922 -0.08887465 0.2619303 -0.67637944 0.09584013 -0.1301772
0.08517934 -0.68928593 0.11846764 -0.33351162 -0.1433426 0.22363928 -0.09796606 -0.154987
-0.08836297 0.108897656 -0.03622364 0.092831545 0.39526936 -0.10590054 0.25619045 0.20530248
-0.31777865 0.7110027 0.17093746 -0.20644015 0.38760376 0.3971272 -0.1791595 0.20489459
-0.71596545 0.06793915 0.046188135 -0.07068812 0.77721804 -0.0786095 0.5128372 -0.06701848
-0.21887064 0.050398912 0.25058508 0.008121208 0.039531518 0.045899037 0.24434395 -0.12704885
0.18792932 -0.5889253 -0.120074354 -0.16731152 -0.29586676 -0.2565903 -0.7293359 -0.3417352
0.04269549 -0.054037984 0.04866122 -0.32432148 0.18735532 -0.34550354 0.07690649 -0.212789
0.7122766 0.11996303 -0.30571955 -0.1617428 -0.012860972 0.3034674 0.14463913 -0.326093
0.63788456 0.15303682 0.10275258 0.058463167 0.13448203 0.1743641 0.116479196 0.14828897
0.015374382 0.027655995 0.16254002 0.61248356 -0.15502575 0.13403867 -0.10863212 -0.17337458
0.006077485 0.027480539 -0.07238102 -0.14974119 0.1100294 0.26717904 0.028446795 -0.7090929
0.08340358 0.57366115 -0.41871434 -0.2502434 0.76049453 0.39546642 0.21478893 -0.2985995
-0.36819094 0.17987652 -0.22288136 0.19145156 0.42260388 0.6690264 -0.06843246 -0.10018219

fc2.bias f4 [64]
00000000: 4e0f 8a3e e328 e73e 8cb3 273e fee9 9e3e
00000010: 53c6 953d 9d90 0d3e af8b 273e 9e34 5cbe
00000020: 05f5 c83e bb9f 473e 0383 18be 66cf 103c
00000030: 38c3 ee3e a7f0 593e 66f3 1c3e 39bf a13e
00000040: a655 4c3e 3c9a dd3e b916 2dbe c2ea d63e
00000050: 5981 cc3e 2749 1d3e ef7a 1d3e b4c6 983e
00000060: 3453 f63e ff80 a63e c1a3 053f 9deb fe3e
00000070: dcb9 f73e 8ab3 cf3e d2c8 d93e bb2d 9b3e
00000080: c163 843e 4d74 443e 58d4 ea3e 6d96 7f3e
00000090: c94e 2e3e 7511 cb3e e3ab 80bd 38ef 8c3e
000000a0: b583 bbbc 4e07 6d3e 7bc5 4f3d 9b23 253e
000000b0: 34ac 84bd 22f4 ef3e b696 ae3e 139a 2e3d
000000c0: df64 033d 8a19 543b 751e f53d d017 84bd
000000d0: 33e0 bb3e bdb8 413e 7395 743e e6fa 033f
000000e0: d155 d23e 579e e73e 5fea 3abe 62dc 1f3f
000000f0: 1b64 943e abee 9e3e d6f1 0e3f 41c6 4c3e
0.26964802 0.45148382 0.16377085 0.31037897 0.07313218 0.13824697 0.16361879 -0.21504447
0.39249435 0.19494526 -0.14893727 0.00883851 0.46633315 0.21283208 0.15327224 0.31591204
0.19954547 0.43281734 -0.169032 0.4197598 0.39942434 0.15359937 0.15378927 0.29839098
0.48110354 0.3252029 0.52202994 0.49789134 0.48383987 0.40566665 0.42536026 0.30308327
0.25857356 0.1918499 0.4586513 0.24959727 0.17022242 0.39661756 -0.06282785 0.2752626
-0.022889951 0.23147318 0.05072544 0.16126864 -0.06478158 0.46865946 0.34099358 0.042627405
0.03207862 0.0032363855 0.119687 -0.064498544 0.36694488 0.18918128 0.23885135 0.51554716
0.41081098 0.4523799 -0.18253468 0.6244565 0.28982624 0.31041464 0.5583776 0.19997503

bn2.weight f4 [64]
00000000: 4524 9240 ba8c 9b40 592c 34c0 6b65 9940
00000010: 6d21 8140 8f35 8240 20cf 9e40 54b1 21bf
00000020: 8c0f 9540 31ce 9140 55b9 e53e 89a9 8340
00000030: 9096 9340 0d85 9540 06c8 8240 3af2 9440
00000040: 69ef 8940 5d57 9740 61e7 19bf 1d35 9040
00000050: b99d 9640 688f 34c0 19f1 9540 ece2 9840
00000060: 8e32 9a40 94a0 9640 15a1 9340 0b26 9640
00000070: 3e72 9a40 482d 9540 24a0 38c0 0827 9840
00000080: a0a6 34c0 3fbf 9340 59b8 8f40 0b6d 8d40
00000090: 4121 44c0 956c 9340 b3f9 6d40 7baa 9440
000000a0: a282 7c40 0578 9640 ddb7 8b40 1e08 8240
000000b0: 67f8 6540 f217 9b40 23ec 9340 83f7 8240
000000c0: 5582 8440 256d 5f40 5c34 33c0 4bf1 5240
000000d0: ad60 9340 992d 36c0 b5fc 9540 a880 9540
000000e0: adb8 9840 8f1b 9a40 241e bb3e 1535 9540
000000f0: 84ec 9440 32e8 9540 63bd 9740 ce5d 9240
4.5669274 4.8609285 -2.8152068 4.79363 4.0353303 4.069038 4.962784 -0.63161206
4.658148 4.55642 0.4486796 4.114445 4.612129 4.6724916 4.086917 4.6545687
4.310475 4.7294145 -0.6011868 4.5064836 4.7067533 -2.8212528 4.685681 4.7777004
4.818671 4.707102 4.6134133 4.692144 4.8264456 4.6617775 -2.8847742 4.7547646
-2.82267 4.6170955 4.4912534 4.419561 -3.0645297 4.6070046 3.7183654 4.6458106
3.9454732 4.702151 4.3661942 4.063491 3.5932863 4.846673 4.6225753 4.092714
4.1409097 3.4910367 -2.8000708 3.2959774 4.6055512 -2.846533 4.687098 4.671955
4.7725434 4.815864 0.36546433 4.6627297 4.6538715 4.684594 4.7418685 4.573951

bn2.bias f4 [64]
00000000: 30d0 0541 ed9f 0441 c632 03c1 a0d1 0441
00000010: 8d63 0541 9e7d 0641 3040 02c1 e95b 0541
00000020: 50ab 00c1 f348 01c1 9a58 ff40 1feb 0141
00000030: 6062 01c1 2d36 01c1 a1f5 0341 65b3 0141
00000040: a7d1 0241 fec4 0141 dc43 0241 2adf 06c1
00000050: b7ff 0141 cb44 03c1 5fa9 0141 f2f6 05c1
00000060: 9ea6 0341 79fc 0041 7d1b 0641 d2ae 0441
00000070: db24 04c1 bbca 01c1 ce93 05c1 2f68 0341
00000080: 5797 05c1 1665 07c1 4f3e 06c1 9595 02c1
00000090: da25 06c1 0b09 02c1 f5d6 0141 30ec 01c1
000000a0: beca 0341 bfcb 0141 0d9e 02c1 0b92 0541
000000b0: b833 0141 039a 04c1 3044 00c1 a7ad 0641
000000c0: 64c4 0641 f799 0441 e5d4 05c1 a564 0141
000000d0: 7483 05c1 c876 05c1 798d 0241 218d 0441
000000e0: 9118 05c1 1e9f 0341 7343 0441 540b 0541
000000f0: f61e 0141 92a6 01c1 99c8 0441 35ca 02c1
8.363327 8.289044 -8.199896 8.301178 8.336804 8.405668 -8.140671 8.334939
-8.041824 -8.08031 7.9795656 8.119903 -8.086517 -8.0757265 8.247468 8.1062975
8.176185 8.110594 8.141567 -8.429483 8.12493 -8.204295 8.10385 -8.372789
8.228178 8.061639 8.381711 8.292681 -8.258998 -8.111995 -8.348585 8.212935
-8.349448 -8.462179 -8.390212 -8.161519 -8.384241 -8.127208 8.11498 -8.120163
8.236998 8.112243 -8.163587 8.348155 8.075127 -8.2876005 -8.016647 8.417396
8.422947 8.287589 -8.364476 8.087071 -8.344593 -8.341499 8.159539 8.284455
-8.318498 8.226347 8.266467 8.315266 8.070059 -8.103167 8.298974 -8.174367

bn2.running_mean f4 [64]
00000000: af84 1f41 f116 3c41 c8ea 0741 a169 3441
00000010: 69b8 d040 6891 dd40 949f ba40 9de8 593d
00000020: 9465 0441 9a95 bf40 0400 0000 c109 9640
00000030: c867 0f41 27f9 ea40 1163 b940 5430 1141
00000040: 23cc d340 6f4f 3b41 eff9 093d 55aa 0241
00000050: 3f68 2f41 202e 1241 5121 1e41 d134 0b41
00000060: 5b77 4541 69a2 2b41 d894 5f41 606a 4841
00000070: 1c40 0a41 912f 0341 0c23 2441 fd1d 2541
00000080: 92cb 1241 860e dd40 bf7f 0041 130e b640
00000090: badd 2841 59e7 fa40 be4b 8540 54f8 fb40
000000a0: 2748 b440 b7ca 3741 c5a8 c140 ead4 b340
000000b0: ba06 6740 e2cb 0a41 6277 ee40 2318 b040
000000c0: 043c ca40 a4c6 9340 0833 0741 4c62 4740
000000d0: a31e f640 eb9e 0741 cebf 0b41 66e2 6141
000000e0: 6e4a 1a41 31e8 4a41 0400 0000 eda3 6c41
000000f0: 26ad 0d41 af2a 0441 633b 6841 659f b540
9.969893 11.755601 8.49482 11.275788 6.522511 6.924 5.8319798 0.053200353
8.274799 5.987012 6e-45 4.6886907 8.962837 7.342914 5.793343 9.074299
6.618669 11.706893 0.03368562 8.166585 10.962951 9.136261 9.883134 8.700395
12.3416395 10.727151 13.973839 12.52597 8.640652 8.199113 10.258556 10.319821
9.1747 6.908023 8.031188 5.689218 10.554132 7.8407407 4.165496 7.8740635
5.6338077 11.486991 6.0518517 5.6197405 3.6097856 8.674776 7.452073 5.5029464
6.319826 4.617998 8.449959 3.1153746 7.69124 8.476298 8.734327 14.117773
9.643171 12.681687 6e-45 14.790021 8.854773 8.260421 14.514499 5.6757073

bn2.running_var f4 [64]
00000000: 8f23 da42 1748 1743 6bc8 9e42 747e 0b43
00000010: 1738 3b42 43d4 5242 2d48 0342 3828 8b3e
00000020: b7d0 8342 1a25 0a42 0400 0000 2e0a c241
00000030: 26c0 0242 0f9f 4f42 d1db 1342 c06a b442
00000040: 9e1e 3b42 6236 1643 1dc4 cf3d 8075 8042
00000050: 0cc2 0343 115c b742 ed35 d642 d3dc 9142
00000060: 4501 2743 a640 fc42 7623 5643 cf0c 2c43
00000070: b13e f841 125f 8142 115d e642 b8bf db42
00000080: 5b1a b942 6aa4 3842 2862 7842 3e25 d441
00000090: f4c2 f442 7ae6 a041 05a8 9a41 e8b0 6e42
000000a0: 5ee9 0b42 e073 1043 7031 0f42 c012 0b42
000000b0: 07a8 6941 6aea f241 0de0 5542 6fc4 0542
000000c0: ad51 3042 d447 be41 5190 9d42 33d4 2e41
000000d0: 5ff5 6342 28de 9d42 7454 a742 c182 5a43
000000e0: 6c47 b342 6a4d 3043 0400 0000 c8d6 6f43
000000f0: a6cd ab42 6264 8342 22f3 6643 0f2d f841
109.06945 151.2816 79.39144 139.49396 46.804775 52.707287 32.820484 0.27179122
65.907646 34.536232 6e-45 24.25497 32.687645 51.90533 36.964664 90.208496
46.7799 150.21243 0.101448275 64.22949 131.758 91.67982 107.10532 72.9313
167.00496 126.12627 214.13852 172.05003 31.030611 64.685684 115.18177 109.87445
92.551476 46.16056 62.095856 26.518185 122.38077 20.112537 19.33204 59.67276
34.977898 144.45264 35.79828 34.76831 14.603522 30.36446 53.4688 33.44183
44.07976 23.785072 78.78187 10.926806 56.98962 78.9339 83.66495 218.51076
89.639496 176.3024 6e-45 239.83899 85.90166 65.69606 230.94974 31.022001

fc3.weight f4 [1, 64]
00000000: 1d66 f240 d142 e540 9f15 f1c0 2bcc e940
00000010: e04a f840 c4a6 f240 60e4 dcc0 2a85 f340
00000020: 6f01 f2c0 c464 f3c0 0430 f740 3e1f f140
00000030: b18c f2c0 9ce7 f1c0 f3e0 f940 e497 f140
00000040: bc5f f240 560e eb40 09fd ee40 b980 f5c0
00000050: 06fb ef40 e80a f1c0 91de f040 e0b1 e7c0
00000060: a7f5 e740 3b98 f040 4028 f340 dc86 ef40
00000070: 838a e4c0 8f62 f0c0 2230 eec0 8778 ea40
00000080: 1f6b efc0 5568 efc0 a71d f7c0 0bc4 f2c0
00000090: 005e e7c0 0679 f1c0 c52d f840 e14a f1c0
000000a0: 00f0 ee40 634a f040 387e edc0 311d ee40
000000b0: 6230 f540 0a16 e5c0 ffc6 f4c0 bea3 f040
000000c0: 22fa f140 5d07 f240 54aa efc0 6247 f240
000000d0: 4cec eec0 c350 efc0 1a63 ee40 6655 ef40
000000e0: bbc3 e9c0 dd2a e840 1f08 e740 0e26 f140
000000f0: d4ee f040 ded2 efc0 81aa ec40 3ffa f1c0
7.574965 7.1644063 -7.5338893 7.306173 7.75914 7.582857 -6.902878 7.6100054
-7.562675 -7.6060505 7.7246113 7.5350637 -7.5796742 -7.5595226 7.8087096 7.5497913
7.5741863 7.3455 7.468388 -7.671963 7.4993925 -7.5325813 7.5271688 -7.2404633
7.248737 7.518583 7.5986633 7.4852123 -7.141908 -7.512031 -7.4433756 7.327213
-7.4818263 -7.481486 -7.7223697 -7.586431 -7.2302246 -7.5460234 7.755587 -7.5403905
7.466797 7.5090804 -7.4216576 7.4410634 7.662156 -7.1589403 -7.6492915 7.519988
7.561784 7.563399 -7.489542 7.5712137 -7.466345 -7.4786086 7.4495974 7.4791746
-7.305143 7.2552323 7.2197413 7.5358953 7.529154 -7.4944906 7.3958135 -7.5617976
