DQN_preTrained/cstr_ode/DQN_cstr_ode_0_10.pth (torch, 44334 bytes, 13 tensors)

fc1.weight f4 [128, 4]
000000 ad 9c 18 bd 77 db a7 3e 5b 29 d1 be 73 d4 a4 be
       -0.037258793 0.32784626 -0.40851864 -0.32193336
000010 4b e2 c6 bd 26 a8 f4 3c 24 f6 81 3b 89 df 9e 3e
       -0.09711131 0.029865336 0.00396611 0.3102992
000020 ee 27 33 bd d2 4f 1d 3e f6 85 ca be 06 2b 99 bd
       -0.04373925 0.1536248 -0.3955533 -0.07478909
000030 41 f1 a2 be 88 26 8d be ea 5b a5 be 6e cd 05 bd
       -0.31824687 -0.2756846 -0.32296687 -0.032666616
000040 f4 fd 61 3e 12 e6 8d 3e 8d 29 93 be 25 ca 63 be
       0.22069532 0.27714592 -0.28742638 -0.22245081
000050 59 77 5f 3e 2b 0c a0 3e c1 4c 1b be 8e 0d 7f 3e
       0.21822871 0.31259283 -0.15165998 0.24907514
000060 89 a2 bd bd 90 80 16 3d cf a1 1c 3f ad ae e1 be
       -0.09259517 0.0367437 0.611844 -0.4407858
000070 ef 19 c7 be 07 60 c7 bd 89 54 03 be 9c e0 e5 3e
       -0.38886973 -0.09735113 -0.12825216 0.44897926
000080 a1 43 3a be 99 66 2a be db e4 b9 be 3e 7a c0 be
       -0.18189861 -0.166407 -0.36307415 -0.37593263
000090 68 f2 84 be 3e b1 b0 3e 10 a5 82 3e a5 75 88 3e
       -0.2596619 0.34510225 0.25516558 0.26652256
0000a0 ea 23 6b bd 34 ee aa bc da 8a 8b 3e 97 39 92 be
       -0.057407297 -0.020865537 0.27254373 -0.28559563
0000b0 11 b3 d7 be a0 81 4a be 1f cc 82 3e 2a c0 6e 3e
       -0.42128804 -0.1977601 0.25546357 0.23315492
0000c0 47 7c 0f be 7b 7c 48 bd 48 ab c8 3e 1a c4 db 3e
       -0.14012252 -0.04894684 0.39193177 0.4292305
0000d0 13 0c df 3d 8a 31 a5 3d 33 9c 18 3f 0a 9f 6b be
       0.10890975 0.080660895 0.5961334 -0.23009887
0000e0 e0 e7 60 3d 37 fa 38 be 29 b0 04 bf ef b4 83 be
       0.054908633 -0.180642 -0.518313 -0.2572398
0000f0 01 b5 85 3e 4f af 2e 3e 85 1e 6f be e5 15 1b 3e
       0.26114658 0.17059062 -0.23351486 0.15145071
000100 4f c6 9a 3e 38 fb 14 be 5e 63 8f bc 0b 1e 4a 3d
       0.30229422 -0.14548957 -0.017503437 0.049345057
000110 7f 4e bb 3e f7 9b db 3e cf d5 94 be 8d b6 57 be
       0.36583325 0.4289243 -0.29069373 -0.21065731
000120 48 b6 39 3e 75 7a 69 3e 7a f8 35 3f a8 51 d0 3e
       0.18135941 0.2280062 0.7108227 0.406873
000130 80 e7 b1 3e 1f c0 b1 be f4 83 24 3d c4 b0 73 be
       0.34746933 -0.3471689 0.040164903 -0.237979
000140 71 25 f5 be 71 70 d9 3e 2b 43 af 3e 68 25 f8 be
       -0.47880128 0.42468598 0.34230933 -0.4846604
000150 08 aa bf 3d c8 80 ac bd b8 82 a8 bd 1c 5f 6a be
       0.09358603 -0.084230006 -0.082280576 -0.22887844
000160 59 3a 84 3e 86 41 83 be 77 29 d2 3e 27 ee 6b 3e
       0.25825766 -0.25635928 0.4104726 0.23040067
000170 97 f1 f2 3e 7e 54 c8 3d 0b 27 cb be 74 fc b3 be
       0.47449943 0.097817406 -0.39678225 -0.35153544
000180 24 3c 8c 3e f3 b7 93 3d d6 f8 c0 be 67 0c 8a be
       0.27389634 0.0721282 -0.37689847 -0.26962587
000190 f2 d4 f0 3e 54 7f ac 3e b0 3e 5f be d4 dc 00 be
       0.47037464 0.33690894 -0.21801257 -0.12584239
0001a0 a7 0c fc be c2 aa a4 3b e0 57 b5 be 87 fb c8 be
       -0.49228403 0.0050252387 -0.35418606 -0.392544
0001b0 4c 8a c4 bc a8 8f 90 3d dd 4f 88 be e8 7b 8a 3e
       -0.023991726 0.0705865 -0.2662343 0.27047658
0001c0 7b 4f b8 be fa 50 c7 3e 6c d5 b3 3e 6d 30 c2 be
       -0.3599814 0.38928968 0.35123765 -0.3792757
0001d0 12 54 1b bc c8 34 bf bb 6d 09 cf 3e 72 1a 8d 3d
       -0.009480493 -0.0058351494 0.4043688 0.0688981
0001e0 8d 63 49 3e 56 7c cf 3c 90 2d 99 be 56 c6 25 3e
       0.19666882 0.025327843 -0.29917574 0.1618894
0001f0 2f 12 e7 be 6b 36 a6 be 07 48 c6 bd bf 5f 5c be
       -0.4513106 -0.32463393 -0.09681707 -0.21520899
000200 39 c2 d7 bd ec 78 12 be 94 bd 81 be 32 1d b0 3d
       -0.10535092 -0.1430394 -0.2533995 0.085993186
000210 e5 3a a5 be 2a 68 fe bc ca f9 cd 3e e7 14 1c bd
       -0.32271495 -0.031055529 0.40229636 -0.03810587
000220 12 4d 73 3c da f5 1a bd 59 5e a4 3d 67 e0 a1 3e
       0.014849918 -0.03783212 0.08025808 0.31616518
000230 17 61 b5 3e b0 e0 c6 3e 76 01 19 3f 1c e7 d2 bc
       0.35425636 0.38843298 0.59767854 -0.025744967
000240 06 4b 04 bf ae b8 24 be db 69 83 3e 18 61 ba 3b
       -0.51676977 -0.16086075 0.256667 0.005687844
000250 53 78 4c be 52 b6 8e be 27 8e 02 bf ea de d6 be
       -0.19967775 -0.27873474 -0.5099816 -0.41966945
000260 59 b8 40 be 3e 07 9d 3e 67 47 28 3e 3d a1 c0 be
       -0.18820323 0.30669588 0.16433488 -0.37623015
000270 20 78 a4 3e cf a4 cb be 0e 5e dd bd 62 99 55 be
       0.32122898 -0.39774176 -0.10808955 -0.20859292
000280 60 26 9a bb b7 d2 24 bd ed 22 0c bf 27 a0 d7 be
       -0.0047042817 -0.040240016 -0.5474079 -0.42114374
000290 a9 5d 84 bc 80 44 60 bd 80 14 28 be 80 5c 00 3e
       -0.016157942 -0.054752827 -0.1641407 0.12535286
0002a0 a4 78 1b bf ad f5 9c be 1e b4 87 3e 2f b9 94 be
       -0.6073096 -0.30656186 0.26504606 -0.29047534
0002b0 50 e8 4b 3f fd a3 79 3c 92 3a 95 be 75 45 99 3e
       0.79651356 0.015236852 -0.29146248 0.29935804
0002c0 70 ed 02 be a2 00 8b bd 44 3f 0e 3f 59 ed e8 be
       -0.12785888 -0.0678723 0.55565286 -0.45493582
0002d0 2c 9f b7 ba 3c 86 8f bc 00 cb 5b 3f 20 7c c6 3d
       -0.0014009229 -0.017520063 0.8585663 0.09691644
0002e0 80 37 22 3e dc eb bc 3d 27 3c ab be c0 4a 90 bd
       0.15841484 0.09224674 -0.3344433 -0.070455074
0002f0 d2 2f 1f bf 4b dc 64 3e f9 77 b2 3e 03 6f ba 3e
       -0.62182343 0.2234966 0.34857157 0.3641282
000300 27 a2 a0 be 7a f3 87 bc 83 7d a0 be 0a e7 71 be
       -0.31373712 -0.01659559 -0.31345758 -0.2362329
000310 ce f1 9d be 99 83 40 3e 46 53 a1 be 12 47 02 3d
       -0.30848545 0.188002 -0.31508845 0.03180606
000320 1c b9 0a 3e 91 d1 51 3e d8 63 84 be 06 62 e6 be
       0.13547176 0.204901 -0.25857425 -0.4499666
000330 80 8f 91 be 4a cd c3 3e 39 d6 1a be cf 52 a3 3e
       -0.28429794 0.3824256 -0.15120782 0.31899115
000340 a0 24 39 3e 40 aa 81 3d 00 ed 73 bb 08 6d ca bd
       0.18080378 0.06331301 -0.003722012 -0.09884077
000350 02 55 06 3f 76 3e 12 bd 13 d4 87 bc cc 3a 2d 3c
       0.5247346 -0.0357041 -0.016580617 0.0105731
000360 8e 08 20 be 6a a3 df bd 89 8b 1d 3f 4e e6 db be
       -0.15628263 -0.10919841 0.6154104 -0.42949146
000370 39 d3 b4 3d 34 7a c4 3e 82 67 ac 3e e6 eb 8c bd
       0.0882935 0.38374484 0.3367272 -0.068809316
000380 e6 a3 c0 be 65 e2 91 3e e1 32 9e be e1 9a b7 bd
       -0.37625045 0.28493038 -0.30898193 -0.08965088
000390 95 2a 15 be ec a6 04 be 05 20 1e 3e 38 8e c5 3e
       -0.14567025 -0.129543 0.15441902 0.38585067
0003a0 b3 49 c9 3d 58 ac 80 3e db b2 29 3f c5 92 9d be
       0.0982851 0.25131488 0.66288537 -0.3077604
0003b0 6f a4 97 3e 8b a6 41 be a8 af 98 be 34 5b 96 3d
       0.2961764 -0.18911187 -0.29821515 0.07341614
0003c0 a8 8c 39 3e 21 d0 b7 3e 70 54 14 be 00 d4 51 3a
       0.18120062 0.35900977 -0.14485335 0.0008004308
0003d0 5a b2 84 3e 7c 5f e0 be 47 0b 0d 3f af aa da be
       0.2591732 -0.4382285 0.5509533 -0.42708346
0003e0 8b 1f 16 3d 4f 17 d5 bd a6 52 c4 bd 94 33 cd 3d
       0.036651175 -0.104048364 -0.095860764 0.10019603
0003f0 1f 08 e8 3e e4 ca c1 3c 4a ce a4 be ff e0 43 be
       0.45318696 0.023656316 -0.32188636 -0.19128798

fc1.bias f4 [128]
000000 a6 31 2a be cf 8a 8b be da 7b 15 3e eb a6 b4 3e
       -0.16620502 -0.2725434 0.14598027 0.35283598
000010 ed a8 9a be f1 4e 46 3e c0 00 68 3e f5 bf 73 3d
       -0.30207005 0.19366051 0.22656536 0.059509236
000020 51 25 ab 3e de b2 3c be 23 51 a7 3e ed 2a d8 be
       0.33426908 -0.18427607 0.3267909 -0.4222025
000030 dd 74 46 be 06 83 b6 bd 8d b7 ec 3e c2 72 4b be
       -0.19380517 -0.089117095 0.46233788 -0.19867995
000040 2f 1c 20 be 74 fe 8b be b9 5a f0 3e d8 68 00 3f
       -0.15635751 -0.2734257 0.46944216 0.5015998
000050 25 76 d4 be 10 88 cf be be 47 8b be 16 9f d6 3d
       -0.41496387 -0.40533495 -0.27203172 0.10479562
000060 7b 52 2d be 4e 90 a7 be 48 08 60 be f5 ab 19 3e
       -0.16925995 -0.32727283 -0.21878159 0.15007003
000070 22 e6 aa be 4b 75 a5 3c 50 d0 0e be d2 8f 8a be
       -0.33378702 0.020197531 -0.13946652 -0.2706285
000080 b5 c8 78 3e 5b 54 eb 3e 81 f9 ad be f4 f1 6b 3c
       0.24295314 0.45962796 -0.3397942 0.014400948
000090 86 4d 89 be 6d d4 12 3f e8 92 14 bf 2a 6b f2 be
       -0.26816958 0.57355386 -0.5803666 -0.47347385
0000a0 fe 82 13 3f 13 39 c2 be ce 64 94 3d 7c 21 18 bc
       0.57621753 -0.3793417 0.072457895 -0.009285327
0000b0 04 cd 09 bd 2c c7 0e bd 33 4b b3 3e 02 33 0c 3d
       -0.033642784 -0.034857914 0.3501831 0.034228332
0000c0 e7 9b 06 bf 50 5c 8e be 3a 7b 88 be 16 fc 99 3e
       -0.5258164 -0.27804804 -0.26656514 0.3007514
0000d0 8e aa a5 be d8 be 9d 3e 72 c8 50 bd 55 e0 aa 3c
       -0.32356685 0.30809665 -0.05097241 0.020858923
0000e0 41 43 ef 3e c7 f6 0f 3e 6c 83 a2 3e f4 88 bd 3d
       0.46730998 0.14058982 0.31740892 0.09254637
0000f0 ec ce 2b be 7d 66 b3 be 35 0d df bd 55 16 a9 3e
       -0.16778153 -0.3503913 -0.10891191 0.3302485
000100 1a f7 5a be b5 ab fd be 27 2d 36 3e 55 3a 03 3f
       -0.21383324 -0.49545065 0.17790662 0.5126088
000110 dc 10 62 be 1e 2c e1 be c8 c1 f3 be 74 e4 7f 3e
       -0.22076744 -0.4397897 -0.4760878 0.24989492
000120 43 77 c2 bd 54 45 8f be 2e a1 d4 bd 67 d2 83 3e
       -0.094954036 -0.2798258 -0.10382305 0.25746462
000130 a0 0b a0 3e 01 36 db 3e 7e 11 09 bd 7e bb e1 be
       0.3125887 0.4281464 -0.033463947 -0.44088358
000140 d8 53 e7 be 74 2c 20 3f a3 98 96 3e be eb fd 3d
       -0.45181155 0.6256783 0.29413328 0.1239848
000150 fd dd 93 be 72 f2 b1 3e db f0 6e 3e f3 26 e8 3e
       -0.288803 0.34755284 0.23334067 0.45342216
000160 30 f5 d7 be 03 20 81 be c4 aa e0 be 02 6e 06 3f
       -0.4217925 -0.25219736 -0.43880284 0.5251161
000170 a6 74 74 be e9 74 65 be 64 f3 4e 3e be ce fa bd
       -0.23872623 -0.22407879 0.20210034 -0.12246464
000180 a7 5c ec bd ef 8f 42 3b 95 5a c2 bc 8e bb e9 be
       -0.115411095 0.0029687842 -0.023724834 -0.45650905
000190 4a ae cc 3e b1 be e7 bd d1 29 6e 3e 8d 4f c0 3e
       0.39976722 -0.113156684 0.23258139 0.37560692
0001a0 61 5e 39 3d 80 bb ca bd 01 97 b6 3e 35 2d 24 3e
       0.045256022 -0.09899044 0.35662082 0.1603287
0001b0 dc e5 a7 be 0c c6 01 3f fb 44 b3 3e 0d 04 05 bf
       -0.32792556 0.5069282 0.35013565 -0.51959306
0001c0 00 8d 15 be 7b 50 e2 be b0 8f cb 3e ae c4 df bd
       -0.14604568 -0.44202027 0.39758062 -0.109261855
0001d0 b2 59 e9 be 2f 7b b6 bb 1c a7 a8 3e 87 71 7e 3e
       -0.45576245 -0.005568884 0.32939994 0.24847995
0001e0 29 63 cc 3e 57 a3 cf 3d 36 f9 30 3e 00 ec 05 be
       0.39919403 0.101385765 0.17282566 -0.13078308
0001f0 d0 8a d6 bd 4c 8c db be a9 74 27 be 1c 63 85 3e
       -0.10475695 -0.42880476 -0.16353096 0.26052177

bn1.weight f4 [128]
000000 0b e1 67 3f c9 58 4d 3f ef 4e 90 3f e4 5e 48 3f
       0.90577763 0.802136 1.1274089 0.7826979
000010 dc 80 7d 3f 99 b2 05 3f ae 86 97 3f 05 26 43 3f
       0.9902475 0.52225643 1.1837976 0.7622989
000020 9c 37 55 3f c0 df 40 3f 88 72 71 3f f5 dd 78 3f
       0.8328798 0.75341415 0.94315386 0.9721368
000030 59 57 6a 3f da 29 88 3f 4e a5 68 3f 60 77 5e 3f
       0.9153953 1.0637772 0.90877235 0.869009
000040 9c bb 87 3f cb 1e 46 3f c1 60 82 3f 08 f7 79 3f
       1.0604129 0.77390736 1.0185777 0.97642565
000050 76 a1 51 3f 00 00 80 3f 43 2f 52 3f 03 9d 7b 3f
       0.81886995 1.0 0.82103366 0.98286456
000060 5d 99 74 3f 00 00 80 3f 68 c5 52 3f 97 16 81 3f
       0.95546514 1.0 0.8233247 1.0085019
000070 2a cd 66 3f e4 1b 81 3f cb e4 64 3f be b9 68 3f
       0.90156806 1.0086637 0.8941161 0.9090842
000080 e8 57 26 3f 1c 8e 8c 3f fb 4c 79 3f 8e 5f 84 3f
       0.64977884 1.0980868 0.9738309 1.0341661
000090 d3 9a 68 3f fc c5 6c 3f 30 bb 68 3f 79 46 7b 3f
       0.90861243 0.924896 0.90910625 0.9815441
0000a0 f8 d4 81 3f fe c9 6f 3f 70 3b 96 3f f6 12 78 3f
       1.0143118 0.9366759 1.1736889 0.9690393
0000b0 bf 5f 8a 3f 8c e8 90 3f 53 b1 6d 3f f8 6a 86 3f
       1.0810469 1.1320968 0.928487 1.0501394
0000c0 b8 53 67 3f d4 61 62 3f 3c 41 61 3f eb 23 86 3f
       0.9036212 0.88430524 0.87990165 1.0479711
0000d0 00 00 80 3f cd 53 83 3f cf 09 8a 3f 7b 92 26 3f
       1.0 1.0259949 1.0784243 0.6506726
0000e0 86 be 98 3f 99 60 7a 3f 13 18 79 3f ef 20 64 3f
       1.1933143 0.97803646 0.9730236 0.8911275
0000f0 71 fd 7c 3f ff 7a 7d 3f b2 71 3f 3f 49 47 83 3f
       0.9882422 0.990158 0.7478286 1.025613
000100 c0 20 7c 3f 41 de 77 3f 12 87 83 3f 93 4b 78 3f
       0.9848747 0.9682351 1.0275595 0.9699032
000110 ef dd 3e 3f d4 66 79 3f 23 92 6a 3f 0d fb 8c 3f
       0.74557394 0.9742253 0.91629237 1.1014115
000120 fb 42 77 3f 17 80 55 3f dd 14 7e 3f 31 09 a5 3f
       0.9658658 0.83398575 0.99250585 1.289343
000130 27 f3 52 3f 51 54 93 3f 6d 63 54 3f 00 00 80 3f
       0.8240227 1.1510106 0.8296421 1.0
000140 00 00 80 3f 30 eb 82 3f f5 6d 84 3f 86 37 83 3f
       1.0 1.0228024 1.0346056 1.025132
000150 58 85 35 3f 08 52 87 3f 19 3e 49 3f 00 a2 89 3f
       0.7090659 1.0571909 0.7861038 1.0752563
000160 00 00 80 3f bd 26 70 3f 16 fb 50 3f a5 42 84 3f
       1.0 0.9380911 0.81633127 1.0332838
000170 06 4c 7f 3f 9f de 5f 3f d8 d0 7d 3f d0 88 8f 3f
       0.9972538 0.8744907 0.99146795 1.1213627
000180 ca c3 63 3f 8a 21 2b 3f dc 14 13 3f bc af 5f 3f
       0.88970625 0.6684805 0.57453704 0.87377524
000190 c3 29 84 3f c9 cd 8e 3f a6 b2 93 3f 60 7b 84 3f
       1.0325245 1.1156551 1.1538894 1.0350151
0001a0 81 70 70 3f ee 9c 8f 3f bf c3 3a 3f cc 10 6d 3f
       0.9392167 1.1219766 0.72954935 0.92603755
0001b0 72 4b 6c 3f 94 e1 89 3f 2e 1c 55 3f f5 de 77 3f
       0.9230262 1.0771966 0.83246124 0.9682458
0001c0 8e e9 83 3f d6 f9 59 3f cf c5 84 3f 06 ae 46 3f
       1.030565 0.85146844 1.0372866 0.7760929
0001d0 00 00 80 3f 67 b2 7a 3f 0d cc 80 3f 44 50 4d 3f
       1.0 0.9792847 1.0062271 0.802006
0001e0 79 94 70 3f ff 5b 86 3f 61 a2 7a 3f ae 8b 7e 3f
       0.9397655 1.0496825 0.9790402 0.99431884
0001f0 e3 d0 82 3f 30 fd 87 3f 77 58 53 3f 83 00 80 3f
       1.0219997 1.0624142 0.8255686 1.0000156

bn1.bias f4 [128]
000000 46 98 24 be 31 44 e5 bd 01 54 b7 3e b5 12 9c 3d
       -0.16073713 -0.11194647 0.35806277 0.076207556
000010 78 b6 8e 3b 80 1c e8 3d 9f 45 4a be f1 d8 20 3c
       0.004355248 0.11333561 -0.19753121 0.009817348
000020 14 41 3c 3e 2d 93 c6 3d 9f 28 70 3d c9 17 da 3e
       0.183842 0.0969604 0.05863249 0.42596272
000030 e2 6a 22 3e bc 70 b3 bc b5 6a 31 be 56 87 f3 bd
       0.15861085 -0.021904342 -0.17325862 -0.11891048
000040 cf e5 4d 3c b5 73 10 3e 8b 21 b3 bd b1 cf c8 bd
       0.012566998 0.14106639 -0.08746632 -0.09805239
000050 9f bf e6 3c 8b 5a 18 3e b6 de 07 be b6 87 4c 3e
       0.028167544 0.1487829 -0.13268551 0.19973645
000060 02 c4 88 3d 8b 3d c6 be 03 fa b9 3e 8b 8c 87 3e
       0.066780105 -0.3871883 0.36323556 0.26474413
000070 93 db 7b be 40 69 03 be cc 48 e5 3d 7f df b6 be
       -0.2459548 -0.12833118 0.111955255 -0.3571739
000080 4c a5 1a be 9c db 1a be ce e6 39 bd fe 61 7c 3c
       -0.15102118 -0.15122837 -0.045386128 0.0154042225
000090 cc 9a 9c bc f8 ce b9 bd 4f 30 35 3e 13 7f d0 3e
       -0.019116782 -0.09072679 0.1769421 0.4072195
0000a0 aa b6 e1 bd 22 36 ea 3e ae b6 d3 3d 4d 9b 07 3e
       -0.110211685 0.45744425 0.10337578 0.13242836
0000b0 59 c2 bd bd 91 f9 ca bd d1 2f d8 3d 40 38 8c 3c
       -0.092655845 -0.09910882 0.10555995 0.017116666
0000c0 3e c1 c6 be 7c 42 08 be b8 76 4e 3d 73 49 27 3e
       -0.38819307 -0.13306612 0.050406188 0.16336612
0000d0 43 65 e6 be cc 7b 9b bd 86 35 59 bd fa 2d ca bc
       -0.44999132 -0.07591972 -0.05302956 -0.024680126
0000e0 39 2e df 3d b3 7c 7c be 1d 95 e2 bd 78 ae f9 3d
       0.10897488 -0.24656944 -0.11063597 0.121914804
0000f0 5a 34 ba 3c 07 82 53 3d 7d 65 bc 3e d5 30 46 3e
       0.022730041 0.051637676 0.3679618 0.19354565
000100 fe 66 8f 3e e5 03 aa be 3d a4 97 3e 99 8d b7 3d
       0.28008264 -0.33206096 0.2961749 0.089625545
000110 71 cf 8b 3d 57 fe 72 be 7b 64 b1 3e 36 91 49 3e
       0.06826676 -0.23729835 0.34646973 0.196843
000120 78 13 a2 bd 59 9d 8c be 26 39 b4 3d 4a 6a ba 3e
       -0.079138696 -0.27463797 0.08799963 0.36409217
000130 3d 77 45 3d f5 f8 14 3e f4 b3 dc 3d 7d 79 8d be
       0.048209418 0.14548095 0.10776511 -0.2763175
000140 28 2c f3 be 42 04 93 3d 15 01 56 3e 0d 21 3a 3e
       -0.47494626 0.071785465 0.2089885 0.1817667
000150 ce 75 27 3d dc 50 b1 bd 44 e7 c1 bd cf 36 5c 3e
       0.04088383 -0.08658001 -0.094679385 0.21505283
000160 9a f9 ef 3e 78 8a 14 bb 81 52 7b 3e b9 af cc bd
       0.46870118 -0.0022665542 0.24543191 -0.09994454
000170 ab 4a 0a bd b2 17 e0 3d 0e 91 36 bd a1 f2 9d 3d
       -0.033762615 0.109420195 -0.04457193 0.077122934
000180 84 ba bf bd 21 e6 31 3e 7d 07 df 3c cf b6 81 3e
       -0.09361747 0.17372943 0.02722525 0.25334784
000190 91 46 68 3e 4c 3f 85 bd a2 ec a8 3e 3e ef 98 3d
       0.22683169 -0.065062135 0.32993037 0.07467507
0001a0 12 00 b4 bd 27 3d 26 bd bc 2e 88 3c db 49 e8 3c
       -0.08789076 -0.040585663 0.016623847 0.02835553
0001b0 25 0e cb bd df 61 ee bd 52 79 5a 3d 30 cc 02 3f
       -0.09914807 -0.11639761 0.053338356 0.51092815
0001c0 9a da 1b be 7a 48 ce 3d 2a 05 22 be f0 0b 9b 3e
       -0.15220109 0.100724176 -0.15822282 0.30282545
0001d0 92 9a fb 3e b0 03 82 3e 70 d0 fb 3b 8d 77 23 be
       0.49141365 0.25393438 0.00768476 -0.15963574
0001e0 02 9a 01 3d 36 83 5d be 15 29 4f 3e 6f d4 25 3e
       0.031641014 -0.21632084 0.20230515 0.16194318
0001f0 be 8f 5b be 97 56 11 3f 05 eb a4 3d ca 1b a2 3d
       -0.21441552 0.5677275 0.08052639 0.079154566

bn1.running_mean f4 [128]
000000 c5 e0 25 3b c8 bd d0 31 a6 0a 97 3d a8 22 2b 3e
       0.0025310975 6.0751724e-09 0.07375078 0.16712439
000010 60 a2 ff 33 de d1 0c 3e f9 80 fe 3e 07 5b 97 3c
       1.1903899e-07 0.13751933 0.49707773 0.018476022
000020 8f 75 26 3e ef d9 5c 3a 48 37 e5 3e 04 00 00 00
       0.16255783 0.00084248086 0.4476874 6e-45
000030 4e e7 95 3d 38 6c 87 3e 45 70 7f 3e 04 00 00 00
       0.073195085 0.26449752 0.24945171 6e-45
000040 eb 22 ef 3b ed 78 4b 1f 7a fe 55 3f ad 71 2a 3f
       0.0072978637 4.308695e-20 0.83591425 0.66579705
000050 1c 69 06 00 00 00 00 00 49 25 23 3e e0 af a7 3d
       5.88719e-40 0.0 0.15932192 0.08187842
000060 cd a0 81 3a 00 00 00 00 6a 0c 19 3b 51 88 9b 3d
       0.0009889841 0.0 0.0023353347 0.0759436
000070 36 0b 3c 39 7a da 5f 3e 2b 55 4b 3a 5b 9d 0c 1f
       0.00017933254 0.21860686 0.00077565265 2.9776315e-20
000080 64 15 f4 3d 7b 2d 12 3f 04 00 00 00 04 37 b9 3e
       0.119181424 0.5710065 6e-45 0.36174786
000090 04 00 00 00 5e 3e 9e 3e 04 00 00 00 04 00 00 00
       6e-45 0.30906957 6e-45 6e-45
0000a0 9a a0 a0 3e 04 00 00 00 b1 f5 b0 3d 72 44 ae 3d
       0.3137253 6e-45 0.08640612 0.08509149
0000b0 ab 7d 76 3e 61 d3 d1 3e 44 1e 5e 3e ef a9 17 3d
       0.24071376 0.40981582 0.21691233 0.037027296
0000c0 df 7d 0a 1f 5b 63 b9 3a 02 d3 e5 1f c6 3e 0e 3e
       2.9326755e-20 0.001414399 9.7334356e-20 0.13891134
0000d0 00 00 00 00 1b 1b e7 3e 64 9c 85 3e f4 e3 29 3e
       0.0 0.45137867 0.2609588 0.16590863
0000e0 9c e0 60 3e 15 b5 41 3e bc 61 22 3f 66 64 8b 3d
       0.21960682 0.18916734 0.6343038 0.06806259
0000f0 04 00 00 00 b8 4f 5b 3e 04 00 00 00 b8 c5 97 3e
       6e-45 0.21417129 6e-45 0.29643035
000100 05 06 a2 3a 7c a6 fc 23 85 58 e9 3d 54 df ce 3e
       0.0012361413 2.7392404e-17 0.11393837 0.4040476
000110 52 4d dd 1f 04 00 00 00 04 00 00 00 91 c5 0b 3e
       9.3725056e-20 6e-45 6e-45 0.13649584
000120 94 8b 0f 3b d7 b1 bb 1e e9 68 58 3e 78 61 fa 3d
       0.0021903263 1.9872948e-20 0.2113377 0.12225622
000130 f8 8f fa 3e 49 cd 77 3e f7 e3 37 3e 00 00 00 00
       0.48937964 0.24199404 0.17958055 0.0
000140 00 00 00 00 94 c5 6d 3f be a0 35 3e 34 a1 cc 3d
       0.0 0.92879605 0.177371 0.099916846
000150 06 dd 48 3e 7a 7d 25 3f ec d9 07 3e 9d 88 79 3e
       0.19615564 0.6464459 0.13266724 0.2436852
000160 00 00 00 00 a8 96 60 3a 1f c2 83 27 03 a6 47 3f
       0.0 0.00085673714 3.657027e-15 0.7798769
000170 03 32 dc 3a b4 44 63 3a c8 92 07 3f 48 44 0f 3e
       0.0016799573 0.00086696004 0.52958345 0.13990891
000180 1c 04 67 3e f6 16 12 3d eb 88 c6 3b 04 00 00 00
       0.22560161 0.03566643 0.0060588024 6e-45
000190 53 4f 9d 3e 70 1e ba 3e 45 99 e5 3d f4 8d 68 3e
       0.30724582 0.36351347 0.112108745 0.22710401
0001a0 60 8e 3b 3e 3f 17 70 3d b9 0e ef 3e 79 ae 9e 3d
       0.1831603 0.05861592 0.4669092 0.07748122
0001b0 04 00 00 00 e7 bd 3e 3f 37 48 47 3e 04 00 00 00
       6e-45 0.7450852 0.19461142 6e-45
0001c0 52 af bd 3e 04 00 00 00 b8 b1 56 3e 9e 06 b5 3a
       0.3704782 6e-45 0.20966232 0.0013811176
0001d0 00 00 00 00 2b ed 45 3e 39 cf 0e 3f 91 69 e3 3d
       0.0 0.19328754 0.55784947 0.111041196
0001e0 da 56 67 3e 89 e9 92 3e 90 d6 ca 3d 81 f2 93 3e
       0.22591725 0.28693798 0.09904206 0.28895953
0001f0 96 43 61 3e e1 74 cd 31 09 d9 73 3e 20 3d 0f 3e
       0.21998438 5.979573e-09 0.23813261 0.13988161

bn1.running_var f4 [128]
000000 3f d9 54 3a f2 44 20 30 dc 70 f3 3b 2e 69 e8 3c
       0.00081195304 5.830564e-10 0.0074292254 0.028370466
000010 a3 58 c2 31 bd f3 d7 3b 4f 98 ac 3d ba d1 b0 3a
       5.65622e-09 0.006590335 0.08427488 0.0013490238
000020 0d 33 e0 3c e5 e9 59 38 25 fb 93 3c 04 00 00 00
       0.027368093 5.1954663e-05 0.018064091 6e-45
000030 89 43 b6 3b e1 64 92 3d d9 dc 64 3d 04 00 00 00
       0.00556225 0.071481474 0.05587468 6e-45
000040 db d5 9f 39 7b 78 18 1e 07 05 08 3e 38 68 ce 3c
       0.00030486178 8.071728e-21 0.13283168 0.02519618
000050 ea c0 02 00 04 00 00 00 4d 89 dc 3c 86 d6 29 3c
       2.52876e-40 6e-45 0.026920939 0.010366088
000060 f6 8e 02 39 04 00 00 00 57 3a 35 3a 36 5d d3 3b
       0.00012451023 6e-45 0.00069132954 0.0064503206
000070 1b 1e ea 36 af 46 27 3d 05 ed 9f 38 a6 a2 91 1d
       6.977248e-06 0.040838894 7.625859e-05 3.8549355e-21
000080 9b 6e 6e 3c 2f c2 db 3c 04 00 00 00 00 f3 c3 3d
       0.014552738 0.026825992 6e-45 0.09567833
000090 04 00 00 00 ad 0f 8d 3d 04 00 00 00 04 00 00 00
       6e-45 0.068877555 6e-45 6e-45
0000a0 dd 54 9e 3d 04 00 00 00 bc 5d b3 3b 02 19 40 3c
       0.0773103 6e-45 0.0054738205 0.011724712
0000b0 e1 95 72 3d 64 9e 2f 3e f1 cf ce 3c 33 21 8e 3b
       0.059224967 0.17150265 0.025245639 0.0043374537
0000c0 67 45 8d 1d 38 ef 84 39 73 85 42 1f d1 34 cc 3c
       3.739415e-21 0.00025355234 4.1191485e-20 0.024927529
0000d0 04 00 00 00 07 92 83 3c d0 90 8e 3d 60 a1 8d 3c
       6e-45 0.016060842 0.069612145 0.017288864
0000e0 ba 3b 5d 3d d8 99 a8 3b 91 85 d3 3d b9 a6 09 3c
       0.054012038 0.0051452927 0.1032821 0.008401566
0000f0 04 00 00 00 98 47 46 3d 04 00 00 00 4a 63 5c 3c
       6e-45 0.04840812 6e-45 0.013451407
000100 49 32 4b 39 9f 48 90 21 da 3a 16 3c 60 79 cb 3c
       0.00019378321 9.777042e-19 0.009169305 0.02483815
000110 da 5c 34 1f 04 00 00 00 04 00 00 00 b3 da 9c 3c
       3.8193288e-20 6e-45 6e-45 0.019147253
000120 70 64 1f 3a ee bd 01 1d 58 c2 15 3d 14 2c 91 3c
       0.0006080335 1.71712e-21 0.036562294 0.017721213
000130 6f 4d f5 3c 24 10 3e 3d a6 82 cd 3c 04 00 00 00
       0.02994415 0.04640211 0.025086712 6e-45
000140 04 00 00 00 27 17 b4 3d b1 bb dd 3c 25 59 63 3c
       6e-45 0.087934785 0.027067037 0.013876234
000150 b7 36 23 3d 45 4b cf 3d 46 b3 53 3c 8e 74 41 3d
       0.039847102 0.101217784 0.01292116 0.047230296
000160 04 00 00 00 7a 4d c3 38 40 d4 7c 22 5e 8b 7f 3d
       6e-45 9.312756e-05 3.4264733e-18 0.06238877
000170 1d 88 bb 39 14 cd c7 38 13 d1 c0 3d d8 a4 91 3c
       0.00035768832 9.527258e-05 0.09414878 0.017778799
000180 08 fe 55 3d 8b 1c cc 3a 35 ec a9 39 04 00 00 00
       0.052244216 0.0015572471 0.0003241018 6e-45
000190 bb da 9c 3c 75 30 0a 3e 1c 93 86 3c cc 28 24 3d
       0.019147268 0.13495047 0.01642757 0.04007797
0001a0 3d 80 b3 3c c1 80 83 3b 3b f5 64 3c 74 df 17 3c
       0.021911735 0.0040131514 0.013974483 0.009269584
0001b0 04 00 00 00 8e e6 80 3d 83 7b 9d 3c 04 00 00 00
       6e-45 0.06293975 0.019223934 6e-45
0001c0 28 9e 0f 3e 04 00 00 00 cc 2c 38 3d ab 15 c8 38
       0.14025176 6e-45 0.044964597 9.540779e-05
0001d0 04 00 00 00 9a b2 18 3d 7f f4 5a 3d bd ed 80 3c
       6e-45 0.037279703 0.053455826 0.015738362
0001e0 e6 48 f0 3c 98 16 1b 3d 27 d7 05 3c 80 15 af 3d
       0.029331636 0.037863344 0.008168972 0.08549023
0001f0 e9 70 4b 3d f4 43 1b 30 8e b6 43 3d 81 e3 88 3c
       0.049668226 5.648524e-10 0.04778152 0.016710045

fc2.weight f4 [64, 128]
000000 d5 f7 05 be ec 13 83 bc d3 cd 82 bd 58 bf 11 be
       -0.13082822 -0.01600071 -0.06386914 -0.14233148
000010 8a 9f f0 bd 77 9d 1b 3b c6 48 8e 3c c3 bf db 3c
       -0.1174918 0.002374498 0.017368685 0.026824838
000020 50 23 55 be f9 56 4d bd 09 88 7f 3e 49 04 85 3d
       -0.20814252 -0.05013177 0.24954237 0.06494958
000030 0d 8c ca 3d a4 ff 9b 3d 7a 9e 13 be 4d 3d 9c bd
       0.09889994 0.07617119 -0.14415923 -0.0762888
000040 a3 be 56 3e 33 b5 94 3d 6e 2f 14 3d 32 f3 0c 3e
       0.2097116 0.072611235 0.036178045 0.13764647
000050 6d c1 07 be df 05 db 3d 3a 7b 11 3e eb 50 14 be
       -0.1325738 0.10694479 0.14207163 -0.14483993
000060 c5 f3 01 3d 49 1b fc bd 67 66 6f 3d 45 cf 14 bd
       0.031726617 -0.12309892 0.058447268 -0.03633048
000070 e3 2c 6a be c7 7f 26 3e 00 20 42 bd bf 7f 68 be
       -0.22868685 0.1625968 -0.0473938 -0.22704981
000080 f9 11 f4 bd fa 53 c2 3d 92 0b 93 3d 08 51 1f 3e
       -0.119174905 0.094886735 0.07179941 0.15558255
000090 5b b9 76 bd 8e 1e bd bd 9b 7e 36 3e d9 26 d7 3d
       -0.060235362 -0.092343435 0.17821734 0.105054565
0000a0 65 ca ac bc c6 43 b5 3d 95 3f 59 3d eb 5c 90 bd
       -0.021092603 0.088508174 0.053039152 -0.07048973
0000b0 86 3a 1b 3e 98 1e 40 3e f1 e0 aa bd 81 c6 5e bd
       0.15159044 0.1876167 -0.083436854 -0.054388527
0000c0 7d 1f a4 bd 8f 74 85 bd 02 24 fc bc 1f a1 d1 bd
       -0.080138184 -0.065163724 -0.030778889 -0.102358095
0000d0 d9 fa b5 bd b3 1f 0b 3e d0 32 a5 3d dd 78 df bd
       -0.08885736 0.13586311 0.08066332 -0.10911725
0000e0 40 ff 8f 3c 97 89 8e bd b9 1a 90 3d 72 df aa bc
       0.017577767 -0.06959837 0.07036347 -0.0208585
0000f0 65 fb e0 3c 5e b0 fc 3d 35 41 25 3c c9 e0 1a bd
       0.027463624 0.12338327 0.010086347 -0.037812028
000100 80 12 06 3d f0 e7 23 be 7c 77 3d bd 0c 60 44 3b
       0.032732487 -0.16006446 -0.046256527 0.0029964475
000110 44 8e c4 bc aa c2 c6 3c 1e f3 1f 3e 77 48 f9 bd
       -0.023993619 0.024262745 0.15620086 -0.12172025
000120 bf ba b7 bd 35 1b 4d be 6e 45 83 3e 39 58 22 be
       -0.08971166 -0.2002991 0.25638908 -0.15853967
000130 02 12 56 3e 72 c9 6d bd ab 6c 63 3e 6d aa 98 bd
       0.20905307 -0.05805344 0.22209422 -0.07454381
000140 88 4e 98 bd 90 0a a7 3c bd e1 8a bd eb 6c bf bd
       -0.07436854 0.020390779 -0.067813374 -0.09346946
000150 32 72 c1 37 69 eb 18 3e 00 26 fe 3d 4a ba 9a be
       2.306057e-05 0.14933552 0.12409592 -0.30220252
000160 96 85 34 3e 8f 89 76 bd 2c 02 18 3d 9d 59 05 3e
       0.17629084 -0.06018978 0.037111446 0.13022466
000170 02 c8 d1 bd 7f d0 97 3d 58 9f a9 3c 35 8f 32 3e
       -0.102432266 0.07412814 0.020705864 0.17437442
000180 fc 84 8f 3c 28 5b 93 bd 9c 5b 51 bd 54 25 22 bc
       0.017519467 -0.07195121 -0.051112756 -0.009896595
000190 76 02 05 be 1d 65 8f 3e 6c 74 3a bd a5 b8 c4 bd
       -0.1298922 0.2800683 -0.045521185 -0.09605531
0001a0 ad 10 00 3e bc 3b 17 3e 0b b5 d1 3c 38 78 47 be
       0.12506361 0.1476888 0.025599023 -0.19479454
0001b0 fa 94 2f be 5e 58 46 3e a8 97 3a be 1e f0 0a 3e
       -0.17146674 0.19369647 -0.18221915 0.1356816
0001c0 dd 48 6f 3e 75 1e 65 3d 0a d8 c4 bd f1 eb 12 3d
       0.23367639 0.05593725 -0.09611519 0.035869543
0001d0 35 31 c5 3d 2a f7 27 3e 68 91 2d 3e df 39 4e be
       0.09628526 0.1640288 0.1695 -0.20139264
0001e0 04 a2 00 be 55 44 b1 3d 98 eb 04 be 8c c8 bd 3e
       -0.12561804 0.086556114 -0.12980497 0.37067068
0001f0 e4 b8 ac 3d 61 9c 8b 3d 98 71 4a 3d c3 a3 8a bd
       0.084337026 0.06816936 0.049424738 -0.06769516
000200 0c 1e eb bd 1b 29 06 bf 6b 2a 1d be 02 4c a0 be
       -0.1148034 -0.5240647 -0.15348212 -0.3130799
000210 6e 02 fa 3c 4c 6f 79 bd 18 ec 91 3e 13 70 14 be
       0.030518737 -0.060897157 0.28500438 -0.14495878
000220 a7 33 99 bd 5d b9 74 be 60 f6 fa 3d c0 e8 fa 3e
       -0.07480555 -0.23898835 0.122540236 0.490057
000230 b2 14 bb 3c 65 92 2e 3e 80 cf 65 be e8 62 03 bd
       0.022837017 0.17048033 -0.22442436 -0.032076746
000240 d2 33 fb bc 4f 91 3c bb c0 59 e1 3d 69 bd 9b bd
       -0.030664358 -0.0028773134 0.110034466 -0.076044865
000250 e3 59 8a 3b a7 90 11 3f 31 2d be bb db 13 27 be
       0.004222141 0.56861347 -0.005803727 -0.16316168
000260 33 b4 dd 3d dc 65 2f bf 65 48 a8 3d 95 51 6d be
       0.10825386 -0.685148 0.08216933 -0.23175652
000270 3b a2 07 be de c8 92 3d e7 59 4a 3d 91 45 34 bf
       -0.1324548 0.071672186 0.049402144 -0.7041865
000280 db b0 2b be 32 8a 29 3d 5b 9f 7a bd d8 ba 80 3d
       -0.16766684 0.04139156 -0.06118713 0.062856376
000290 a8 2c b0 bc 75 9c df bd b8 f5 1f 3e db 40 c9 3d
       -0.021505669 -0.10918514 0.15621078 0.09826823
0002a0 6e ac 42 be c3 35 32 3f ff 8c 28 3d 49 35 96 be
       -0.19011089 0.69613284 0.04115009 -0.29337528
0002b0 ae 44 02 3e a9 2d d7 3d 58 8b 3e bd 30 76 ef 3d
       0.12721512 0.10506756 -0.046519607 0.11692464
0002c0 bc 8c 2e bf 9d e3 94 3c 37 1e d7 bc e0 f7 b4 be
       -0.68183494 0.01817494 -0.026259525 -0.35345364
0002d0 07 01 1a bf 97 49 21 3c e3 23 13 3e 59 35 bc bc
       -0.6015782 0.009844205 0.14369158 -0.022974657
0002e0 79 e3 d7 be 9d 40 20 bd 84 c6 20 3e 6f a4 0f be
       -0.42165735 -0.03912412 0.15700728 -0.1402757
0002f0 a8 e7 87 3c 67 b5 14 3d 5b de 29 3e 28 d8 22 bd
       0.016589954 0.03630581 0.16588728 -0.039756924
000300 ad bd c0 3d 85 cb 31 bf e3 d4 18 be 89 31 75 bc
       0.09411178 -0.6945117 -0.1492496 -0.014965423
000310 2d d7 30 3c c3 c9 3a bf 88 e6 22 3f c9 07 51 be
       0.010793489 -0.72964114 0.6363301 -0.20413126
000320 1b bf 2d bd 4f 9e 74 bd 10 2a 17 3d a5 b3 3e be
       -0.04241858 -0.059721287 0.03690535 -0.18623216
000330 96 9c 87 3d 87 42 aa be f2 63 9a 3d 9c d8 15 bf
       0.06621663 -0.3325388 0.07538594 -0.58533645
000340 2d 54 2d bf 1c 84 0a 3e 7b d1 7f be dd e9 21 be
       -0.6770657 0.13526958 -0.24982254 -0.15811868
000350 8c a4 86 b9 07 2e a5 3d 54 54 91 3d 2e 8e 10 be
       -0.0002568107 0.0806542 0.070961624 -0.14116737
000360 04 7a 22 3f c3 39 1c bd 4b fb 0b 3e fd 40 3b 3d
       0.6346743 -0.038141023 0.1367008 0.045716275
000370 d7 ef 67 3c 85 3f 06 3e c2 46 05 3e fe 5b 5f 3c
       0.014156303 0.13110168 0.13015273 0.0136327725
000380 f2 bb 03 3e 7d f3 2b bd 91 c1 34 3c 24 bd 1f 3f
       0.12864664 -0.041980255 0.011032478 0.6239798
000390 fc ef 9e bd 55 e3 94 3d d9 ce 52 be 5f ac f7 bd
       -0.07760617 0.07269923 -0.20586719 -0.12093424
0003a0 ec 43 5a bd 3d fc a2 3c 85 b3 90 3b 93 1a 4e be
       -0.05328743 0.019895667 0.0044159316 -0.20127325
0003b0 d3 70 75 bc 9a c7 09 3e cf da 61 be 83 db 26 3f
       -0.014980513 0.13455048 -0.22056125 0.651787
0003c0 8b 8f c5 3c 67 f8 d5 3e 5f 1a 9b be 15 cc de 3d
       0.024116298 0.41791078 -0.30293557 0.10878769
0003d0 28 2c 3e 3f 55 db f3 3d da c4 f6 3d 73 3c c4 be
       0.7428613 0.11907069 0.12049265 -0.3832737
0003e0 b2 d4 54 be 62 cb 3b 3e 30 6a 0e be 06 e9 04 3e
       -0.20784262 0.18339303 -0.13907695 0.12979516
0003f0 89 1f 90 3d b0 9a 32 3f bc c0 95 bc be 54 2a bd
       0.07037265 0.69767284 -0.01828038 -0.041584723

fc2.bias f4 [64]
000000 fa e6 de 3d 32 e4 ee 3e ba fe 5c 3e b1 f8 73 3e
       0.10883899 0.46658474 0.21581545 0.23825337
000010 bf 45 03 3e 33 63 78 3e 19 e8 05 be 8e 11 26 3e
       0.12819575 0.24256591 -0.1307682 0.16217634
000020 32 94 8a 3e 98 5b 4b 3e 83 91 b9 3c 70 74 8e bc
       0.2706619 0.19859159 0.022652393 -0.017389506
000030 55 03 a0 3e 71 7e 61 3d 87 c9 58 3e 63 9a ac 3d
       0.31252542 0.055052225 0.21170627 0.084278844
000040 47 87 09 3d 78 0b b5 3a 75 a3 24 bd 73 49 41 3d
       0.033576276 0.0013812622 -0.040194947 0.047189187
000050 2c a1 dc 3e dc 7e f9 3d 39 41 47 3e dd da 7d bd
       0.43091714 0.121824 0.19458474 -0.061976302
000060 f6 80 c3 3e 1e ae 0c 3e 73 78 b6 3d 3d 75 af 3e
       0.38184327 0.13738295 0.089096926 0.34269133
000070 90 55 a0 3e 47 af f0 3e e1 67 0a 3f 73 a4 fd 3d
       0.3131528 0.47008726 0.54064757 0.12384882
000080 4b 82 9c bb a6 ea be 3e 92 d0 0c 3e 1b db 37 3e
       -0.0047762743 0.37288398 0.13751438 0.17954676
000090 80 09 86 3e 79 cc 65 3e 9a 7b 79 3e ce c5 04 be
       0.26179123 0.22441281 0.24363557 -0.12966082
0000a0 0c 34 3e bd d8 30 82 3e 69 1d 9d 3e 49 fc 05 3f
       -0.046436355 0.2542789 0.306865 0.5233808
0000b0 2d df cd 3b f9 71 d4 3e 7c 23 53 3e 67 bc ec 3d
       0.006282708 0.41493204 0.20619005 0.115593724
0000c0 da d2 91 3e d9 f5 78 3e 57 28 8f 3e 7f ef 59 3d
       0.2848118 0.24312533 0.27960464 0.053206917
0000d0 e3 8a 3b bd 66 63 b9 3e 3c 11 5e 3e 37 6f 8a 3e
       -0.04578675 0.36208647 0.21686262 0.27037975
0000e0 9d a9 07 3d bd 9f a8 3e 0b 4b b1 bc 8f 7c c0 3e
       0.03312074 0.3293437 -0.021642229 0.3759503
0000f0 92 5e 53 3e c8 b9 09 3e a0 65 87 3e 39 01 36 3e
       0.20641544 0.13449776 0.2644472 0.17773904

bn2.weight f4 [64]
000000 fc fe 4a 3f b4 33 92 3f 38 63 52 3f 4d 35 4c 3f
       0.79295325 1.1422029 0.82182646 0.7976883
000010 8d 01 86 3f 9c 7f 82 3f b3 0a 3a 3f d5 49 87 3f
       1.0469223 1.0195193 0.72672576 1.0569407
000020 5e 07 8c 3f 54 25 88 3f 0c 64 3e 3f c9 86 59 3f
       1.0939748 1.0636392 0.7437141 0.8497129
000030 4b bf 89 3f 2f 94 86 3f 06 14 82 3f 8c 6a 47 3f
       1.0761503 1.0513972 1.0162361 0.7789695
000040 45 58 56 3f 8f 54 2b 3f 61 8c 39 3f 35 6f 52 3f
       0.8372844 0.669259 0.72479826 0.8220094
000050 93 ce 94 3f 4c 83 4f 3f e8 b0 93 3f 49 dc 53 3f
       1.1625541 0.8105972 1.1538363 0.82758003
000060 ef a4 91 3f ad 0d 90 3f 38 3f 81 3f 36 4c 4d 3f
       1.1378459 1.1254174 1.0097418 0.80194414
000070 63 22 89 3f 10 02 8d 3f 53 b7 8e 3f b8 6f 8f 3f
       1.0713619 1.1016254 1.1149696 1.1205969
000080 53 38 3a 3f e8 51 86 3f 0c 34 44 3f 8d ac 86 3f
       0.72742194 1.0493746 0.7664192 1.0521408
000090 75 01 4c 3f 37 fd 88 3f 01 76 90 3f a7 c8 4c 3f
       0.79689723 1.0702275 1.1286012 0.7999367
0000a0 8a 28 58 3f 1b 4a 93 3f 19 5f 86 3f 42 bc 8a 3f
       0.8443686 1.150699 1.0497772 1.0838702
0000b0 4f c0 3f 3f e5 e7 45 3f 71 93 88 3f a5 7a 72 3f
       0.74902815 0.7730697 1.0669996 0.9471839
0000c0 e0 1e 85 3f f6 dd 86 3f 16 69 91 3f b0 b6 48 3f
       1.0400047 1.0536487 1.1360195 0.7840376
0000d0 e0 3a 54 3f 7b d0 8e 3f eb 7c 90 3f 10 7f 86 3f
       0.82902336 1.1157373 1.1288122 1.0507526
0000e0 56 1c 4b 3f 0d 3f 92 3f f2 68 47 3f 0e 6f 4e 3f
       0.7934011 1.1425492 0.7789451 0.80638206
0000f0 d6 0d 90 3f 0f 18 8a 3f 4b a1 52 3f 87 1d 8c 3f
       1.1254222 1.0788592 0.82277364 1.0946511

bn2.bias f4 [64]
000000 1b a5 2e 3f cc e6 17 bf 18 c4 06 3f a3 8d 13 3f
       0.6822068 -0.59336543 0.52642965 0.57637995
000010 ec da 3d 3f 64 6f 1f 3f 1d 0a 21 bf 60 0f 31 3f
       0.74162173 0.62279344 -0.62906057 0.69164085
000020 14 21 0f 3f 29 62 0e 3f d5 d6 10 bf 90 17 1b bf
       0.5590985 0.5561853 -0.5657781 -0.6058283
000030 e1 0a 06 3f ca bb 0e 3f 9c 05 13 3f 8a 6d 07 bf
       0.5236035 0.55755293 0.57430434 -0.5290152
000040 a3 73 0e bf 01 6d 29 bf 7b cb 1b bf c4 9e 38 bf
       -0.556452 -0.6618195 -0.6085736 -0.7211726
000050 e5 49 06 bf db 99 06 3f 13 39 06 bf 2d c3 17 bf
       -0.52456504 0.52578515 -0.5243084 -0.5928219
000060 2f 1f 1a bf 71 35 11 bf fb 01 31 3f 8a 0a 19 3f
       -0.6020383 -0.5672217 0.69143647 0.59781706
000070 1a 53 22 3f dd f9 07 3f 3c 85 3f bf ec 1d 13 bf
       0.6340805 0.53115636 -0.74812675 -0.5746753
000080 1b 17 24 bf 97 96 4e 3f fd 11 1c bf 5c d3 04 3f
       -0.64097756 0.8069853 -0.6096495 0.5188501
000090 af 32 11 3f a1 09 07 3f a7 7a 04 bf db 01 05 3f
       0.5671796 0.5274907 -0.5174965 0.51955956
0000a0 4b 42 12 bf cb 78 08 bf b3 bb 20 3f 12 b5 26 3f
       -0.57132405 -0.53309315 0.62786406 0.6512004
0000b0 be f4 12 bf cd 6c 0b 3f c0 f3 0b 3f ba 2c 23 3f
       -0.57404697 0.5446289 0.5466881 0.6374012
0000c0 10 ce 35 3f c5 b2 1f 3f 50 c4 2f bf 40 36 1b bf
       0.7101755 0.62382156 -0.68658924 -0.60629654
0000d0 69 1c 12 bf 8a e1 22 bf 13 42 0a bf 91 71 13 3f
       -0.570746 -0.63625395 -0.5400707 0.57595164
0000e0 0a 66 3a bf 73 3f 1a bf 2f 05 26 bf 37 e9 21 3f
       -0.7281195 -0.60253066 -0.6485166 0.6324648
0000f0 59 0b 0d bf f6 ff 10 3f 15 f4 0f 3f 56 58 ff 3e
       -0.5509544 0.56640565 0.56231815 0.49872082

bn2.running_mean f4 [64]
000000 7d a5 83 40 1f c9 cc 40 9b 6c a5 40 e4 de cc 40
       4.113951 6.399551 5.1695075 6.4022083
000010 3d 0c b2 40 ed 60 57 40 b0 de 8b 3f 4f 59 ab 40
       5.563994 3.3652909 1.0927334 5.354652
000020 f4 66 b3 40 ef 2f ab 40 b7 f4 30 40 fa b0 12 40
       5.6063175 5.3496013 2.7649362 2.2920518
000030 31 dd 6d 40 e0 1c 9a 40 bf a8 96 40 e8 4b 24 40
       3.7166255 4.816025 4.708099 2.567133
000040 c2 ad a5 3f 7a 8f 3f 40 1c 87 38 40 5c db 22 40
       1.2943652 2.993132 2.8832464 2.5446386
000050 dd e3 ea 40 2f 2f a3 40 a6 2f b9 40 25 6a 01 40
       7.3403153 5.0995097 5.7870665 2.0221035
000060 ac ed be 40 9e 74 94 40 80 ae a7 40 07 40 d1 40
       5.9665127 4.6392355 5.2400513 6.539066
000070 79 2d 7f 40 72 5d c9 40 7b 95 ee 40 c2 97 94 40
       3.9871504 6.292657 7.455747 4.643525
000080 26 fd 29 40 c9 48 97 40 55 d7 91 40 5a a8 7a 40
       2.656076 4.727635 4.5575356 3.9165254
000090 09 8e bf 40 55 40 56 40 3f 8e 91 40 5d ba 0a 3f
       5.9860883 3.3476765 4.548614 0.5419062
0000a0 a8 f1 39 40 2d 41 b5 40 c0 5f 83 40 7c fa c9 40
       2.9053745 5.664206 4.105438 6.3118267
0000b0 ee a3 46 40 c6 16 a5 40 a2 49 a5 40 20 e1 33 40
       3.1037555 5.15903 5.1652384 2.8106155
0000c0 c3 0c 81 40 47 f1 97 40 9f b9 c2 40 e3 0d 7a 40
       4.032808 4.748203 6.085159 3.9070976
0000d0 41 90 df 3f a6 3d ae 40 b0 46 85 40 4c 89 a1 40
       1.7465898 5.4450254 4.164879 5.04801
0000e0 75 a5 b7 40 1d 18 d6 40 56 6a 32 40 51 04 df 40
       5.7389474 6.6904435 2.7877402 6.969277
0000f0 94 c7 91 40 e5 1b b0 40 68 d1 b7 40 ae 3f 4e 40
       4.5556126 5.503405 5.7443123 3.2226367

bn2.running_var f4 [64]
000000 11 b1 91 41 f2 b8 2b 42 52 52 e0 41 83 24 2d 42
       18.211458 42.93061 28.040195 43.285656
000010 75 23 05 42 f4 e7 4b 41 6b fd 58 40 56 40 f3 41
       33.284626 12.744129 3.3904674 30.406414
000020 74 a5 01 42 2a 7d ef 41 ca f7 4d 41 71 8f e7 40
       32.411575 29.936115 12.872995 7.23626
000030 f4 6e 68 41 ac 7c d2 41 30 9a d6 41 1b 81 1f 41
       14.527088 26.310875 26.825287 9.96902
000040 2e a8 73 3f da 4c 60 41 8f a4 5f 41 f1 cd f0 40
       0.95178497 14.018763 13.977675 7.5251393
000050 26 0c 63 42 60 1e db 41 ce af 0c 42 c6 da 9c 40
       56.761864 27.389832 35.171684 4.9017057
000060 01 64 15 42 e2 81 b6 41 bf dc f4 41 db 66 34 42
       37.34766 22.81342 30.607786 45.100445
000070 2d bd 89 41 fb e4 22 42 30 ed 69 42 c4 70 b5 41
       17.217371 40.723614 58.48163 22.680061
000080 bc a9 52 41 06 76 b7 41 e3 5c b9 41 f3 ed 84 41
       13.166439 22.932629 23.170355 16.616186
000090 15 e9 16 42 b5 80 4a 41 14 7d ae 41 a3 a1 12 40
       37.72762 12.656423 21.811073 2.2911155
0000a0 11 80 3e 41 d6 7b 06 42 73 43 93 41 10 43 25 42
       11.906266 33.620934 18.407934 41.31549
0000b0 49 df 57 41 36 df ba 41 8b f6 de 41 bf c7 3f 41
       13.492013 23.35899 27.870382 11.986266
0000c0 8e ba 89 41 29 66 bf 41 d3 ea 1c 42 bd 92 9a 41
       17.216091 23.924883 39.22932 19.32165
0000d0 e0 a6 e0 40 93 56 f8 41 67 3c 92 41 a1 41 dc 41
       7.0203705 31.042273 18.279493 27.532045
0000e0 d7 a1 0b 42 0e e5 3b 42 26 96 39 41 9f 12 4d 42
       34.908047 46.973686 11.599157 51.268185
0000f0 98 57 ae 41 7c 8a fd 41 1f 08 0b 42 3f 7a 41 41
       21.79277 31.69262 34.75793 12.092345

fc3.weight f4 [1, 64]
000000 3c cf 87 be fe f6 f2 3e 25 db 68 be 1f fd 6c be
       -0.26525295 0.47454065 -0.22739847 -0.23143433
000010 38 ef 14 bf 1e ee c9 be 90 12 be 3e 42 80 06 bf
       -0.5817752 -0.39439481 0.37123537 -0.52539456
000020 69 52 16 bf 81 4f 0f bf 10 16 df 3e c2 2d ab 3e
       -0.587195 -0.5598069 0.4357152 0.33433348
000030 7b b2 03 bf 44 60 11 bf 7f af 03 bf 44 9e 9b 3e
       -0.51444215 -0.56787515 -0.5143966 0.30394185
000040 51 02 84 3e 4e a3 c8 3e 62 e2 be 3e 25 1f 8d 3e
       0.25783017 0.39187092 0.3728209 0.27562824
000050 9b 6c f9 3e 5c d1 65 be c6 be 01 3f d9 9b 6a 3e
       0.48715672 -0.22443146 0.5068172 0.22911014
000060 df 57 00 3f e5 36 0f 3f 3d 31 f0 be a9 e7 67 be
       0.5013408 0.5594314 -0.46912566 -0.22646965
000070 cd e8 fb be f2 84 f5 be 10 c2 12 3f 0f 04 fb 3e
       -0.4920105 -0.47952992 0.57327366 0.49026534
000080 51 e4 83 3e 21 72 fc be 95 12 55 3e 2a 1b e9 be
       0.2576013 -0.49305823 0.2080787 -0.45528537
000090 74 d1 73 be 24 b6 f5 be 54 5a 0c 3f 5b 58 93 be
       -0.23810369 -0.47990525 0.5482533 -0.28778347
0000a0 da b5 75 3e 86 85 01 3f 66 c2 cc be 93 5f e9 be
       0.23995152 0.50594366 -0.39992064 -0.4558073
0000b0 00 e1 b5 3e 28 c5 79 be 03 ea 19 bf 0d c1 bc be
       0.35523224 -0.24391615 -0.601227 -0.36866036
0000c0 a5 0a ea be ae 3b 0b bf 6b 06 f6 3e 7c 8c c6 3e
       -0.45711246 -0.5438794 0.48051772 0.38779056
0000d0 de f9 54 3e c9 d4 ee 3e 6c 34 f3 3e 7d 9c d7 be
       0.20798442 0.46646717 0.47500932 -0.4211158
0000e0 09 7e be 3e 48 04 02 3f bc b5 cd 3e 6d 85 71 be
       0.37205532 0.5078778 0.40177715 -0.23586054
0000f0 4c 09 0e 3f 5d 55 0e bf b7 c2 4e be 14 5c e5 be
       0.55482936 -0.55599004 -0.20191465 -0.44796813
