DQN_preTrained/cstr_ode/DQN_cstr_ode_0_0.pth (torch, 117380 bytes, 19 tensors)

fc1.weight f4 [128, 4]
00000000: e158 0d3d e2b4 6b3e 407c babe bd08 cfbe
00000010: cf8c 3fbe 112c 023e 6731 91bb 9945 cd3e
00000020: 9d1d 87bd d5e1 233e c125 1bbe 5123 eabd
00000030: c141 e2be d248 bcbe fd91 61be a242 90bc
00000040: b669 7f3e 1b36 7e3e 5a0d 93be fcf4 5ebe
00000050: 9de6 4b3e 0cfe bd3e a02f 09be 76cf b83e
00000060: 9270 73bd a022 123d ad92 f43e 2f8f f3be
00000070: 0bd1 b4be 8662 6ebd a4c2 5cbe 8329 ba3e
00000080: 498b 99be ec25 74be a7d5 92be 43ad 00bf
00000090: 3e5e 85be bd10 d03e 0e55 923e c310 8a3e
000000a0: 35b1 7c3c 89e2 77be 8521 ee3d 3619 c9be
000000b0: d114 cebe 9f0b 6bbe 02de 8d3e 0072 823e
000000c0: 0086 91be 375c 8e3d effe 9f3e d533 fb3e
000000d0: c6e6 873e 0de2 f43d 59dc 9a3e 41a2 92be
000000e0: 51d0 713d 2a0e b7be 3f32 bebe 470e 8cbe
000000f0: 56eb 953e debc 093e 8e1b 6bbe c8ad 1a3e
00000100: 1b0e 933e b64c a9bd fa52 153c fc41 b53d
00000110: b043 a93e ef63 eb3e 98cd babe eca1 3bbe
00000120: af4c 5a3e c1f0 d03e 090b de3e 2bb3 de3e
00000130: 4946 e03d e8bb e1be 9108 653d 441c 94be
00000140: bb87 dabe 903b f03e 78fd ca3e dba1 e4be
00000150: 08aa bf3d c880 acbd b882 a8bd 1c5f 6abe
00000160: ddbb 733e ec35 9dbe 080a 563e 7d67 763e
00000170: c5a1 c23e 44fd 1a3e 1ce6 f9be 18f3 93be
00000180: c914 5c3e c7cb 003e a924 c5be fa4b 9dbe
00000190: f2d4 f03e 547f ac3e b03e 5fbe d4dc 00be
000001a0: 27a9 e9be 5875 ecbc 79ce b9be 2902 c8be
000001b0: 5131 79bd 2327 e53d f462 49be ffbd 923e
000001c0: 9f0f b2be bcd9 f73e ba27 8e3e 608e d7be
000001d0: afc3 d0bd 3caa 123d df3b dd3d b19a d23d
000001e0: 181d 3f3e 3cb5 1a3d f401 81be 16de 7e3e
000001f0: 1e42 d7be fed0 72be 47b9 00be b3bf 3cbe
00000200: 86ae 2bbe 1863 cbbe a2f0 f9bd 6be2 013e
00000210: 6abe b4be c016 eb3c a7b6 aa3e e5e7 2fbd
00000220: e91a c7bc a098 89bc 9850 893d 1afa 963e
00000230: c1ff eb3e 6e70 9d3e 846a 013f 7110 87b9
00000240: 7b9f e7be ab07 81be 90fb a93e 2247 003d
00000250: ee76 83be 96db c0be e72e f4be 001c dcbe
00000260: d535 99bd d21f 923e bbc6 8b3e 14c0 ecbe
00000270: 2eb0 9f3e 8a52 c8be f07b d8bd 1c9a 4fbe
00000280: ba6a 9ebd 2e44 1bbe 384a d6be 3402 e2be
00000290: 283c a0bd 80e1 d33b b896 68be b8de 403e
000002a0: 59ae e3be 7aeb 15bd 880e e83e 3f09 38be
000002b0: 0990 e53e 71ed 333e a606 e8be 0866 ab3e
000002c0: d6ad 14bd 65f9 70be 32f8 c23e e02e cdbe
000002d0: 39ea b83d c1fd fabd cbce b33e 9d49 0f3e
000002e0: e6f4 543e 027a 353e 5df1 16be 2acb 0fbe
000002f0: d33a c1be 612d 7c3e d0f2 d93e 297a b53e
00000300: ac93 b4be 60ae b63c 9076 b4be 88ec 8cbe
00000310: a46b 99be 8876 373e 22ce 9cbe 00ba 32bc
00000320: e479 bd3d 784f 823e 2a0c 98be cb60 d2be
00000330: f586 adbe 9eb2 c43e 6187 2bbe 3c9c d13e
00000340: a024 393e 40aa 813d 00ed 73bb 086d cabd
00000350: 1496 963d f7ff ecbd 3d0e 2ebc e1f6 b33d
00000360: 997c c9be 9655 85be d93a d53e 2117 c0be
00000370: 8971 abbd 516a 0b3f 14f0 133e eb0a b5bc
00000380: c7a1 cfbe 005f 643e e5c9 7bbe ad09 08be
00000390: 1baf 3bbe 8c35 65bd 38c4 b63c f1a6 cf3e
000003a0: bc32 5a3d 7b94 e23e c358 9d3e 634b babe
000003b0: 72c0 5a3e c9ca abbe a615 6dbe 7b57 cc3d
000003c0: a4c9 393e a3b1 b73e 6b17 14be 00d4 513a
000003d0: 9a91 903e 176c f1be 0853 b93e adea cdbe
000003e0: 15c1 6dbb f728 84bd 9275 87be a865 cc3c
000003f0: cd20 c13e 24e6 f0bd 27e1 a8be 6a5b 4cbe
0.03450859 0.2301822 -0.3642292 -0.40436354 -0.18706058 0.12712122 -0.004430938 0.4009216
-0.06597445 0.16004117 -0.1515112 -0.11432517 -0.4419079 -0.36774307 -0.22028346 -0.017609898
0.2494267 0.24825327 -0.28721124 -0.21773142 0.1991219 0.37107885 -0.13397074 0.3609578
-0.059433527 0.035677552 0.47768155 -0.47570178 -0.35315737 -0.058199428 -0.21558625 0.36359796
-0.2998908 -0.23842591 -0.2867863 -0.50264376 -0.26048464 0.4063777 0.28580517 0.26965913
0.015423109 -0.2420751 0.11627487 -0.39277047 -0.40250257 -0.22953652 0.2770844 0.254776
-0.28422546 0.06951182 0.31249186 0.49062982 0.26543254 0.11957178 0.30246237 -0.28639415
0.059036557 -0.35752994 -0.3714771 -0.27354643 0.2928111 0.13450953 -0.2295973 0.15105355
0.287217 -0.082665846 0.009114021 0.08850476 0.33059454 0.4597468 -0.3648498 -0.18323487
0.21318315 0.4080868 0.43367794 0.4349607 0.10950906 -0.44088674 0.055916373 -0.28927815
-0.4268168 0.46920443 0.39646506 -0.44654736 0.09358603 -0.084230006 -0.082280576 -0.22887844
0.23802133 -0.30705202 0.20902264 0.24062915 0.38014045 0.15135676 -0.48808372 -0.28896403
0.21492304 0.12577735 -0.38504532 -0.30722028 0.47037464 0.33690894 -0.21801257 -0.12584239
-0.45636865 -0.028864548 -0.3629034 -0.39064148 -0.060838047 0.11189105 -0.19666654 0.2866058
-0.34777543 0.48408306 0.27764684 -0.4210081 -0.10193574 0.03580688 0.10802435 0.10283411
0.18663442 0.037770495 -0.25196803 0.24889407 -0.4204263 -0.23712537 -0.12570678 -0.18432502
-0.16765794 -0.3972404 -0.122041 0.12684028 -0.35301524 0.028697371 0.33342478 -0.04294576
-0.024304824 -0.01679641 0.06704825 0.29487687 0.46093562 0.3074984 0.50553155 -0.00025761456
-0.4523886 -0.25201163 0.3319974 0.031317838 -0.25676674 -0.3766753 -0.47692034 -0.42990112
-0.07480971 0.28539902 0.27300057 -0.46240294 0.31189102 -0.39125472 -0.10570514 -0.20273632
-0.077352 -0.15162727 -0.418535 -0.44142306 -0.07823974 0.0064660907 -0.22713745 0.1883496
-0.44468954 -0.03660152 0.45323586 -0.17972277 0.44836453 0.17571045 -0.45317572 0.3347628
-0.036298595 -0.23532636 0.38079983 -0.40074825 0.090290494 -0.12255431 0.35118708 0.13992925
0.20796546 0.17722324 -0.1474051 -0.14042345 -0.37740192 0.24626686 0.42568064 0.35444763
-0.35268915 0.022299945 -0.35246706 -0.2752421 -0.29964936 0.1791631 -0.30626017 -0.010908604
0.092517644 0.25451255 -0.2969678 -0.41089472 -0.33892027 0.38417524 -0.16750862 0.4093951
0.18080378 0.06331301 -0.003722012 -0.09884077 0.07352844 -0.11572259 -0.010623512 0.08787323
-0.39352873 -0.2604186 0.4164646 -0.37517646 -0.083712645 0.544591 0.14447051 -0.022099933
-0.40553114 0.22301865 -0.24588735 -0.13284941 -0.18328516 -0.05595927 0.022310361 0.40557054
0.05327104 0.44253907 0.30731782 -0.3638564 0.21362475 -0.3355315 -0.2315279 0.09977623
0.18143326 0.35877714 -0.14462058 0.0008004308 0.28236085 -0.47152779 0.3619616 -0.40218106
-0.0036278416 -0.06453126 -0.26456887 0.024950817 0.37720338 -0.11762646 -0.32984278 -0.19956747

fc1.bias f4 [128]
00000000: 0e3e 16be 6949 3abe 4cbc d13d 457f 503e
00000010: 3c93 97be 4c7b 823d 3ade 7d3e 46b6 56bd
00000020: 9aa2 3f3e 18ab cebd 926d 1c3e 0919 cdbe
00000030: cbb1 9dbe cc40 98be e457 e33e 6ef2 4dbe
00000040: 0dae 463c e881 86be af61 0d3f dd51 f13e
00000050: a4da e0be 1088 cfbe 593f b5be bba3 183d
00000060: 6649 e1bd 4e90 a7be fb5c 3dbe 3a4d a33d
00000070: 2a74 92be 33ab bb3d 4da8 0ebe ec5f 9abe
00000080: 67e6 a53d 58d6 cf3e cedf b8be 42d2 62bc
00000090: b677 45be 6365 f63e 1407 fdbe d26a f5be
000000a0: 9557 0b3f f8f7 a1be 05ca c23d 2329 26bd
000000b0: de47 d5bd f084 ecbd 5e1f af3e caab 103d
000000c0: ce3e f9be 7ae1 92be 526e 08be b099 583e
000000d0: 8eaa a5be 03e1 f13e 5e44 d6bd a948 00be
000000e0: 93db e33e ec30 6c3e a13c de3e 8161 943e
000000f0: f10b 2cbe 35fe acbe d8a7 86bd bd4e db3e
00000100: 3503 2abe aa9c eebe 80e8 6a3e d91e fa3e
00000110: 982d 20be 4ba4 dcbe fba2 efbe 1da4 c13d
00000120: 6479 fdbc 8a76 64be ca6c 843d 0d42 513e
00000130: b743 cf3e bb7d bc3e bd3a b5bd 7ebb e1be
00000140: d853 e7be b5c2 ed3e db5e 5f3e e761 733e
00000150: 11ef fbbe 5607 ec3e 9ddb e63e 2682 c73e
00000160: 30f5 d7be 2a98 46be 0570 b6be 8587 f23e
00000170: 8746 74be e33e 81be a111 953e acc7 77be
00000180: f8b2 87be e477 cabc f7bd 7ebd f9d8 cebe
00000190: 61ab d13e 8bfa 49be 722c 2b3e 3ffd e73e
000001a0: f91a 3e3e 56ac a33d bec0 d83e f8f3 e43c
000001b0: 7102 73be 0167 f33e e567 1d3e 38c6 f9be
000001c0: 33c4 29be d812 b2be 4a53 dd3e 0001 cdbd
000001d0: b259 e9be 70d8 afbd a368 8b3e 1d29 443d
000001e0: ac21 c43d 5f90 743d e7ab 3b3e 2a03 03be
000001f0: c797 5abe a189 f8be 7116 a5be bdbf 433e
-0.1467211 -0.18192066 0.10240993 0.2036105 -0.29604518 0.06371173 0.24791804 -0.052419923
0.18714371 -0.10091227 0.15276173 -0.40058163 -0.30799708 -0.29736936 0.44402993 -0.20112011
0.012126458 -0.26270986 0.5522718 0.4713277 -0.4391681 -0.40533495 -0.35399893 0.03726552
-0.11000328 -0.32727283 -0.184925 0.07973714 -0.2860425 0.09163513 -0.13931389 -0.30151308
0.081005864 0.4059322 -0.3610825 -0.013844075 -0.19283947 0.48124227 -0.49419463 -0.4793306
0.54430515 -0.31634498 0.095111884 -0.040566575 -0.10414098 -0.11548793 0.3420362 0.03532008
-0.4868073 -0.2868765 -0.13323334 0.21152377 -0.32356685 0.47241983 -0.10462259 -0.12527718
0.4450346 0.23065537 0.4340563 0.2898064 -0.1680143 -0.33787695 -0.065749824 0.4283351
-0.16602786 -0.466039 0.22940254 0.4885166 -0.15642393 -0.43094096 -0.46804032 0.0945513
-0.030941673 -0.22310844 0.06466062 0.20435353 0.4048135 0.36814675 -0.08849094 -0.44088358
-0.45181155 0.46437612 0.21813528 0.23767816 -0.4920583 0.46099347 0.45089427 0.38966483
-0.4217925 -0.19393983 -0.3563234 0.47369018 -0.23855029 -0.2524329 0.29115012 -0.24197263
-0.2650373 -0.024715371 -0.062192883 -0.40399912 0.40951064 -0.19724481 0.16716173 0.453104
0.18564977 0.07991855 0.4233455 0.027948365 -0.237314 0.47539523 0.15371664 -0.4878404
-0.1657875 -0.34780002 0.43227607 -0.10009956 -0.45576245 -0.08586204 0.2722827 0.04789077
0.09576735 0.059707996 0.18327294 -0.12794176 -0.21346961 -0.48542503 -0.32243684 0.19116111

bn1.weight f4 [128]
00000000: 8480 7e3f d31e 7c3f d94f 803f 3218 7a3f
00000010: 7282 773f 0940 803f ce29 7d3f 0446 803f
00000020: 9800 803f d720 6f3f abb8 843f eb86 7a3f
00000030: cae3 7c3f 7ed3 843f f636 773f 322c 753f
00000040: 46b4 823f 4870 783f c9dc 7b3f 2ffb 793f
00000050: ea35 813f 0000 803f f619 883f b06c 813f
00000060: 1edc 823f 0000 803f f984 763f f3f3 7e3f
00000070: 656e 7f3f 2cb6 7a3f ea4e 783f 117a 783f
00000080: f669 853f 9910 843f 7ffc 743f 05d0 823f
00000090: f095 763f 7f5f 7e3f db58 843f 0000 803f
000000a0: 2bcc 823f 0000 803f 4487 7d3f 77f7 7c3f
000000b0: 0486 843f e0b2 813f ce97 813f 3925 733f
000000c0: 0000 803f 4299 803f ef01 7f3f bea3 803f
000000d0: 0000 803f 428c 7a3f df5d 783f f025 8a3f
000000e0: fe7b 873f 72d8 6a3f ad32 7c3f 1060 7f3f
000000f0: 0ccb 783f 572a 843f 2362 7a3f bdd8 793f
00000100: 4f32 7a3f 321c 823f cc08 823f fc5a 723f
00000110: ceb8 813f a0ab 7b3f 8b49 7c3f 455f 773f
00000120: 049c 7a3f fa9e 7b3f fe3e 823f 00d4 7a3f
00000130: bcfa 773f d694 7c3f 333c 863f 0000 803f
00000140: 0000 803f cb2b 7f3f aa2c 753f 1dd3 723f
00000150: d054 813f 2e02 803f 6728 7f3f 8147 793f
00000160: 0000 803f 20ee 7d3f 15de 783f 5c6e 7d3f
00000170: 435e 7d3f c809 823f 204a 813f f2cd 863f
00000180: b817 813f 0fc5 843f 8766 7a3f 8f49 7c3f
00000190: ef85 753f b35c 803f 5bce 813f 8ff9 843f
000001a0: 0193 7d3f a41e 833f fb95 813f a75e 803f
000001b0: 5921 753f ffdc 833f 25f9 7c3f 0000 803f
000001c0: abe2 7a3f cf5e 7b3f 4c6f 803f 5846 833f
000001d0: 0000 803f 5c5a 813f 05db 793f dfbd 7d3f
000001e0: be01 7e3f 272a 7f3f 9fcf 743f c82a 853f
000001f0: 4983 793f 7992 7e3f d16d 893f 8ebf 803f
0.9941485 0.98484534 1.0024368 0.9769317 0.9668342 1.0019542 0.98891914 1.0021367
1.0000181 0.93409485 1.0368856 0.9786212 0.9878508 1.0377042 0.9656824 0.9577056
1.0211265 0.9704633 0.98383766 0.976489 1.0094578 1.0 1.0632923 1.0111294
1.0223424 1.0 0.9629665 0.99590987 0.99777824 0.9793422 0.96995413 0.9706126
1.0422962 1.0317565 0.9569778 1.0219733 0.96322536 0.99364465 1.0339617 1.0
1.0218557 1.0 0.99034524 0.988151 1.0353398 1.0132713 1.0124452 0.9497867
1.0 1.004677 0.99612325 1.004997 1.0 0.97870266 0.97018236 1.0792828
1.0584714 0.9173652 0.98514825 0.99755955 0.97184825 1.0325421 0.97805995 0.9759634
0.97733015 1.0164855 1.0158935 0.9467008 1.0134523 0.98308754 0.9854972 0.96629745
0.9789431 0.98289454 1.0175474 0.97979736 0.96866965 0.98664606 1.0487121 1.0
1.0 0.996762 0.95771277 0.94853383 1.0104008 1.0000665 0.99671024 0.9737473
1.0 0.99191475 0.9721387 0.9899652 0.98971957 1.0159235 1.0100746 1.05316
1.0085363 1.0372638 0.97812694 0.9854974 0.9590749 1.002829 1.01411 1.0388659
0.99052435 1.0243726 1.0123895 1.0028886 0.9575401 1.0301818 0.98817664 1.0
0.9800212 0.9819154 1.0033965 1.0255842 1.0 1.01057 0.9759982 0.99117845
0.9922141 0.99673694 0.95629305 1.0403681 0.9746595 0.9944225 1.0736638 1.0058458

bn1.bias f4 [128]
00000000: ad51 7b3c e559 903d 28ba 9a3a 4e5f 393d
00000010: d401 8bbd 37f6 75bd 9e6c 20bd fc07 d33c
00000020: 27ee 233d edb9 39bd 1682 da3c 322b 7b3d
00000030: 7ecd 8e3d 3fb3 203d 84d5 623d dc52 2c3d
00000040: f584 733c 8ea6 ab3c 534f 75bc a2f3 023d
00000050: 6d75 90bc b935 763d 1f3a 01bb b389 33bb
00000060: 8b8d bdbc ac4c a9bd 011c 18bd 1b60 a63b
00000070: 0191 9e3b 9795 fe3b a81e 09bc 21d0 a4bd
00000080: 72cc 3cbd e1b1 093d 6632 6dbd f14f c53c
00000090: a986 02bd 7a18 f43c cb20 6a3a b428 b3bd
000000a0: 7db6 98bc f2c0 5e3c 2ea7 de3c cf30 093d
000000b0: 7d0b 4b3d 27d6 34bb 129f 9f3b 5c47 6fbd
000000c0: 170a 943d c120 c0bb ca97 1d3b 3319 523c
000000d0: 874d 9bbd bd76 d03c 2a14 60bd 2b91 c7bd
000000e0: 4f9c bfbc 6c3a 8f3a fe21 f3bc 22be 7dbc
000000f0: 2988 00bd a70e 1cbc 854f 5abd b4e0 293c
00000100: 0fbe 5fbd f429 8a3d 9177 9cbc 9d58 213d
00000110: 0bc9 a4ba 445f 1dbd 04b1 893d 4712 6c3c
00000120: be2f ae3b 54d6 03bd 00ad f93c e6e0 cd3c
00000130: cbc8 dabc 8464 0c3d 0cf3 283c 81f0 393d
00000140: 134d ac3d f906 edbb 6c62 313d 32ce f03c
00000150: 8b9c 33bd 7813 3dbc 1322 5b3c 07c9 013d
00000160: c5fc 42bd 783e 123d f725 27bb bc8e 49bd
00000170: 9d81 533d 64c3 69bd 755c 473d cf90 4a3d
00000180: 192e e6bc a537 09bb b770 54bd 88ce ee3c
00000190: 2e44 0d3d d576 f23c 374f c93b acc5 95bc
000001a0: a035 a8ba f902 5e3d 8fa1 383d 5e3b d83c
000001b0: 0c8c 3fbd 799d 473d b628 0dbd cc17 7b3d
000001c0: 6373 3dbd 61ae d43d 9897 24bd a3c6 21bd
000001d0: 6285 6c3d 0913 a1bd 1eb5 3c3b 13e9 ce3c
000001e0: c64b 263d e82e 4cbd 510a 6f3d 2081 483c
000001f0: b612 4ebd 16dd c03b 0959 3d3c 4b5d 8ebb
0.015339297 0.07048396 0.0011804746 0.045256905 -0.06787458 -0.060049262 -0.039166085 0.025760643
0.04002204 -0.04534333 0.026673358 0.06132049 0.06972788 0.039233442 0.055379406 0.04207121
0.014863242 0.020953443 -0.014972526 0.031970628 -0.017634118 0.060109828 -0.001971848 -0.0027395308
-0.023138782 -0.08266577 -0.03713608 0.0050773746 0.004839063 0.0077692973 -0.008369125 -0.0804751
-0.04609341 0.033616904 -0.05790939 0.02408597 -0.031866703 0.029796828 0.0008931278 -0.08747998
-0.018641705 0.013595806 0.027179327 0.033493813 0.049571503 -0.0027593465 0.0048712576 -0.058417663
0.07228487 -0.0058632796 0.0024046772 0.012823391 -0.075831465 0.025447244 -0.05470673 -0.097444855
-0.023389963 0.0010927445 -0.029679295 -0.015487226 -0.031379852 -0.009524978 -0.053298492 0.010368515
-0.054624613 0.06746283 -0.019099982 0.03939115 -0.0012572123 -0.03842093 0.06723216 0.0144086545
0.00531575 -0.03218682 0.030478 0.025131654 -0.026707074 0.034275547 0.010311853 0.045395378
0.08413138 -0.007233497 0.043306753 0.029395197 -0.043850463 -0.011540286 0.013374823 0.031685855
-0.04760434 0.035704106 -0.0025504807 -0.049208388 0.05163728 -0.057071105 0.04867216 0.049454506
-0.028098153 -0.0020937708 -0.051865306 0.029151216 0.03448885 0.02959768 0.0061434763 -0.018282734
-0.0012833364 0.054202054 0.04507595 0.026395496 -0.04676442 0.048734162 -0.034462653 0.06130199
-0.04625262 0.10384823 -0.040183634 -0.039496075 0.05774439 -0.07864959 0.0028794478 0.025257623
0.040599607 -0.04984942 0.058359448 0.012237817 -0.050310813 0.0058857305 0.011556872 -0.0043446175

bn1.running_mean f4 [128]
00000000: c08c 163b 0400 0000 c826 df3c 940f 7d3d
00000010: 0400 0000 7733 0a3d 45e7 eb3e e1e5 3f3b
00000020: e852 883d a8a4 133d 3362 803e 0400 0000
00000030: 7a16 5137 c157 193d ce35 aa3e 0400 0000
00000040: e96c fe3d 044f 483a df8e 463f 8b5e 193f
00000050: 6e42 bd36 0000 0000 afe5 043c 24ce 973d
00000060: 5385 083b 0000 0000 19ba 413b 2ed5 af3c
00000070: fb23 5039 e920 da3d 2f94 0a3a 0400 0000
00000080: 0986 4a3d 9c18 e73e 0400 0000 0b8b b23e
00000090: c6ac 853c 040a 713e 0400 0000 0000 0000
000000a0: 6286 ab3e 0000 0000 9832 5a3e 6802 413d
000000b0: d581 163e fd29 0f3e 5d3b 9f3e ca29 243e
000000c0: 0000 0000 e04a b93a 8192 db3a c6f7 c13c
000000d0: 0000 0000 430f 023f a1cc e03d 6c7a 363b
000000e0: 02d1 2b3e 31d6 423e 57be 093f 2da9 963e
000000f0: 0400 0000 f1be ac3d 268c df3a cea6 cf3e
00000100: 4394 c23a 0400 0000 a916 813e 54ea fd3e
00000110: 3c63 103b 0400 0000 0400 0000 0f57 8b3c
00000120: 2603 293b 0400 0000 77a8 af3e c242 6c3d
00000130: c7db 083f 7c31 593e fe7f e53d 0000 0000
00000140: 0000 0000 3500 283f 1dca 2d3e cfc6 5a3e
00000150: 3f55 a336 479d 2d3f e85d cd3e 5bb0 323e
00000160: 0000 0000 ff39 173b 09c1 a639 f948 353f
00000170: 73cb ed3a 0e53 623b 236f 083f 05ed 563d
00000180: fba8 173b 6021 843b 387e 4f3b 0400 0000
00000190: 5471 c23e a7a8 673e 1eb9 e33c 6b67 cc3e
000001a0: 93c0 323e 89e5 2b3e 54c7 0d3f cb28 c83b
000001b0: 0400 0000 4101 353f d93e 4a3d 0000 0000
000001c0: 0d64 133e 0400 0000 933b 573e e121 f838
000001d0: 0000 0000 9df1 a53b 959b f03e ea08 0d3c
000001e0: 7e3a 4b3c 2cf2 4b3e e2ef 103e f352 703e
000001f0: c9af 803d 0400 0000 4b1c 353d 5e38 5c3d
0.0022972077 6e-45 0.027240172 0.061782435 6e-45 0.033740487 0.46074882 0.0029281306
0.06656438 0.0360457 0.2507492 6e-45 1.2462604e-05 0.037437204 0.33244175 6e-45
0.12423117 0.0007641169 0.77561754 0.59909886 5.6403724e-06 0.0 0.008111401 0.07412365
0.002083142 0.0 0.0029560386 0.021463957 0.0001984983 0.10650808 0.00052863633 6e-45
0.049444232 0.45135963 6e-45 0.34871706 0.016317736 0.23538977 6e-45 0.0
0.33500963 0.0 0.21308362 0.047121435 0.14697964 0.13980861 0.31099978 0.16031566
0.0 0.0014136694 0.0016752036 0.023677718 0.0 0.5080454 0.1097653 0.0027843965
0.16778949 0.1902702 0.5380606 0.29425946 6e-45 0.08434857 0.0017055317 0.4055695
0.0014845211 6e-45 0.252126 0.4959284 0.0022031805 6e-45 6e-45 0.017009286
0.002578923 6e-45 0.34308216 0.057680853 0.53460354 0.21210283 0.11206053 0.0
0.0 0.65625316 0.16971631 0.21364902 4.8677025e-06 0.6781811 0.40110707 0.17450087
0.0 0.002307534 0.0003180581 0.7081447 0.0018142298 0.0034534368 0.5329458 0.052472133
0.0023141492 0.004032299 0.0031660926 6e-45 0.37977087 0.2262293 0.027798232 0.39922652
0.17456274 0.1678678 0.55382276 0.0061083785 6e-45 0.7070504 0.049376342 0.0
0.14393635 6e-45 0.2101882 0.00011831872 0.0 0.005064203 0.469937 0.008608082
0.012404082 0.199166 0.14154008 0.23469143 0.06283528 6e-45 0.044216435 0.053764693

bn1.running_var f4 [128]
00000000: 613b 173a 0400 0000 10a6 c93a dd29 d63b
00000010: 0400 0000 af3f cf3a 69e7 743d a136 2f3a
00000020: 8ed7 d63b a0fb 503b 7e9a 773b 0400 0000
00000030: d4ca f333 bd1e de3a 482d 2f3d 0400 0000
00000040: 93a2 083b 6cdc 8538 2328 653d 54c1 943b
00000050: 1f98 c632 0400 0000 1882 093a b32a ee3b
00000060: 57b8 f839 0400 0000 b26a 7a3a ab0b aa3a
00000070: aa6d c736 5207 6c3b 4123 0038 0400 0000
00000080: de08 2c3b b7fb 083d 0400 0000 6d92 863d
00000090: 39b2 483a 25d8 6b3d 0400 0000 0400 0000
000000a0: 34b5 473d 0400 0000 58b4 2f3d e4f4 5a3b
000000b0: 2acf b23c aee3 a13c d07a ba3b ab60 e03c
000000c0: 0400 0000 0c16 6539 62d8 a039 d8c9 a73b
000000d0: 0400 0000 2c30 203a a04c 4d3c b5ce e438
000000e0: 15fb 983c 4e62 363a 27dc fc3c 8c94 ab3c
000000f0: 0400 0000 6fa4 3d3c cbb8 a639 85a7 0f3d
00000100: ee9f 7c39 0400 0000 542a f73b cf22 8a3c
00000110: e91a 0b3a 0400 0000 0400 0000 a8e8 c63a
00000120: 4099 3e3a 0400 0000 5afb 8b3c a152 bb3b
00000130: 9004 8e3b 3114 403d f19e 4c3c 0400 0000
00000140: 0400 0000 709c dd3c d605 f93c 13e4 e63c
00000150: cb2b 4432 44f4 383d cf0c d63c 76ee 383c
00000160: 0400 0000 3298 183a cb89 3937 449f 523d
00000170: 88a6 bc39 c7e3 aa3a a5b0 163d 709f ac3b
00000180: d6de 6838 e20e 0a39 fd6c 8e3a 0400 0000
00000190: ab28 963c c54a 593d f562 833b d169 223d
000001a0: f47c b33a d045 063b 0758 2e3c b642 053b
000001b0: 0400 0000 2c2d d13c 8a1f 893b 0400 0000
000001c0: 22d7 b73c 0400 0000 1cb3 263d 122d 0136
000001d0: 0400 0000 e929 2d39 bbdc 643c 8010 573b
000001e0: 6de3 863b 2cbe 183d 0f58 b43b 5237 343d
000001f0: 02ba 933b 0400 0000 57cc bb3b d1cb 833b
0.0005769041 6e-45 0.0015384573 0.006535752 6e-45 0.0015811826 0.059791002 0.00066838606
0.006556458 0.0031888261 0.0037781294 6e-45 1.13524635e-07 0.0016946417 0.042767793 6e-45
0.0020848855 6.382991e-05 0.05594648 0.004539648 2.311941e-08 6e-45 0.0005245521 0.0072682737
0.0004743959 6e-45 0.0009552642 0.0012973448 5.9434287e-06 0.0036015105 3.055041e-05 6e-45
0.0026250402 0.03344318 6e-45 0.06570897 0.0007655952 0.05757918 6e-45 6e-45
0.048756793 6e-45 0.0428966 0.0033410126 0.0218273 0.019761886 0.00569091 0.027389845
6e-45 0.00021847355 0.00030678796 0.005120497 6e-45 0.0006110694 0.012530476 0.000109103894
0.018674413 0.00069573976 0.030866696 0.020944856 6e-45 0.011574849 0.0003179967 0.03507187
0.00024092171 6e-45 0.0075428877 0.016862301 0.0005306439 6e-45 6e-45 0.0015175538
0.0007270761 6e-45 0.017087627 0.0057166372 0.00433404 0.046894256 0.012489066 6e-45
6e-45 0.027052134 0.03039829 0.028184926 1.1418659e-08 0.045154825 0.026129154 0.011287322
6e-45 0.0005821019 1.1058942e-05 0.05142142 0.0003598223 0.0013037854 0.036789555 0.00526803
5.5520642e-05 0.0001316625 0.0010866221 6e-45 0.018329939 0.05304982 0.0040095993 0.039651696
0.0013693855 0.002048839 0.010641105 0.0020333952 6e-45 0.025534235 0.004184668 6e-45
0.02244145 6e-45 0.040698156 1.9248732e-06 6e-45 0.00016514178 0.013968642 0.0032816231
0.0041164667 0.037290737 0.0055036615 0.04399807 0.004508258 6e-45 0.0057311463 0.0040220995

fc2.weight f4 [128, 132]
00000000: 073f b4bc 9704 9ebb 5b9a 623d c1f5 233d
00000010: b511 93bb 5393 f53d 1575 74bd 6695 6c3d
00000020: 4887 96bd 0395 a6bc b073 7a3d 5997 acbc
00000030: ffbd 773d 7a55 5fbc 6278 93bd bf98 38bc
00000040: 92de 5a3d 4899 c53d c4e2 73bd a863 963d
00000050: e95e 6ebc fe95 193d cf30 ac3d dff0 97bd
00000060: 93df 78bd e0e1 043e c4a8 1f3d 3174 673d
00000070: 8f3d b43c 0386 e63c e3ff 17bd d6a4 82bc
00000080: baad cbbd ac26 673d f84a bd3d 5562 c93c
00000090: 92ea 90bc 599f 6b3c 0429 a23d ef18 caba
000000a0: 6fff 913d e7ab 9abd 356c 92bd 95c0 3dbd
000000b0: dddb a93c 79ee c53d 7457 c539 522b aabd
000000c0: 11e5 793d 8925 4f3d b2f0 963c 578c 55bd
000000d0: b0f3 c83d a8ce 0c3e 5575 653d 9fc7 b1bd
000000e0: 07bb a83b c03b 6fbd 8fad ef3c 9920 c53c
000000f0: 315e 3bbd 212c 023d 0b00 8bbd e1e4 833c
00000100: 6b21 94bc 02f7 273b 4aa8 853d edc7 593d
00000110: 6c16 e23b 9f09 073e fdbc 19bc 6850 82bd
00000120: a371 ecbc 08bc f9bd 2a3d 043e 7560 d4bc
00000130: bdcd 933d 2f5b f9bb 4548 943d 2e2a 7f3d
00000140: 3797 9f3d 019e a5bd 34da 363c 58f5 02bb
00000150: 0d90 2ebc 2f4f 1b3d 2e64 813d 206b a5bd
00000160: bae3 a83d c53a d0bc 4408 4fbb 8c09 8b3d
00000170: 7c4d 90bd ab29 8b3d 7ca9 d1ba 91f0 af3d
00000180: b958 643d 9c3d a9bc fbd0 403d 2e79 26bd
00000190: bc60 68bd 159f a8bc 85f9 b53d deef b53c
000001a0: 0cbd 193d 1b61 ca3d b589 533d 877a 8bbd
000001b0: d26d b7bb 0e9e 99bc da48 a3bd c286 9838
000001c0: 3026 313c fa96 a63d 55c2 90bb e108 973d
000001d0: 9c2f 81bc 4010 ce3d dbc4 53bd 2d83 9bbd
000001e0: 54f1 883d f4c6 0a3d 4211 8ebd f9ec 993d
000001f0: 957a eb3c f65e 28bd 4609 eebc 7352 c33d
00000200: 2859 38bd 50d9 42bb 1f0d 183d 49c3 acbd
00000210: f988 c73c 364a 873d dd82 053d 9409 e7bd
00000220: 4abd ea3d b322 8dbd 4c96 cc3d de69 69bd
00000230: 9fec 92bd eddf 5c3d e647 dbba 9fd7 263c
00000240: fe0c 69bc 436c f3bc 8b37 18bd 9fed ccbd
00000250: ffd6 b1bc f135 c2ba dcee 9c3c afc6 193d
00000260: ceac 423d aa4a 033d a529 75bd 21a6 3dbd
00000270: 4eed acbc 09ec 94bd 2120 a4bd 80cd 1a3c
00000280: 18a5 883d 13a5 bfbc c60a c23d 6689 76bd
00000290: f7ba 3b3d 7890 803d 2e9b cb3d 23fe 76bc
000002a0: 308f 203d c419 0ebb 64ec a3bd 58fa 57bd
000002b0: 4e9f 183d 3e6b 03bd a757 693d 3f75 563d
000002c0: e6c4 08bc 87cb 663d 695b 10bc 3280 793d
000002d0: 1728 8a3d a222 56bd b301 843d bbfe bdbc
000002e0: e2c5 dcbc 7a8f e5bb 1c95 e23c 2201 29bd
000002f0: 7ff7 093d 3b7a 0abd c8d1 513d e97f 1ebd
00000300: cac1 fa3c 075c 47bd ef7a a3bd 740d ed3c
00000310: 99ba d33c 971a 88bd fd5e b5bc 4df8 073d
00000320: 41a1 e53b dc1b f63c fa95 1ebc a49c 3f3d
00000330: 1e97 863d a416 23bc 71df bd3c 427a 833d
00000340: 94bc 7e3c 5157 8f3d e518 babc 4317 9a3d
00000350: 1cae 96bd 78f7 dcbc 68b8 843b 2dd2 c9bd
00000360: 012d edbb 48c6 82bd 384e a53d 1515 98bd
00000370: 4606 4e3d d913 773d 0589 463c b9b1 4e3c
00000380: bb16 d23d ca3b f1bc 0ee4 d23b 82ed 52bd
00000390: a438 eaba a6c9 0e3d 7028 97bc 2bd5 7bbd
000003a0: 0e1d bbbd 3d2c d73c f61c ec3c 2e8c f3bb
000003b0: 327e 7d3d 5062 5a3d 3074 47bd 6bc3 1c3c
000003c0: 6967 4bbd b157 fbbd bb88 81bd 3a8f c53d
000003d0: 72c5 963d f40a fa3c 083c 913d 2662 a9bd
000003e0: 70b5 abbc 27ec 993d e131 d8bc 187f f03d
000003f0: 1fd0 563a dbc4 8c3d c85d 51bd 46d6 733d
-0.02200271 -0.0048223245 0.055322986 0.04002929 -0.004488195 0.119909905 -0.05968197 0.057759665
-0.073500216 -0.020334726 0.061145484 -0.021068262 0.06048393 -0.013631219 -0.072006956 -0.011266886
0.053434916 0.09648377 -0.059542432 0.07343227 -0.0145489955 0.03749656 0.08407747 -0.074189894
-0.060760092 0.1297679 0.038979307 0.056507293 0.02200201 0.028140074 -0.037109267 -0.01594774
-0.09945245 0.056433365 0.09242815 0.024583021 -0.017689977 0.014381253 0.07917979 -0.0015418808
0.07128798 -0.07552319 -0.07149545 -0.04632624 0.020734722 0.09664626 0.00037639926 -0.08309044
0.06100947 0.050572906 0.01842532 -0.05213579 0.09812105 0.13750708 0.0560201 -0.08680653
0.0051492485 -0.05840659 0.029257564 0.024063395 -0.045744125 0.031780366 -0.067871176 0.016100349
-0.018082341 0.0025629406 0.06526239 0.05316918 0.0068996456 0.13187264 -0.009383437 -0.063629925
-0.02886278 -0.12194067 0.12913957 -0.0259249 0.07216976 -0.007609747 0.07240347 0.062296085
0.07792514 -0.080867775 0.011160422 -0.0019982662 -0.010654462 0.037917312 0.06317936 -0.08077073
0.082465604 -0.025418648 -0.003159062 0.0678893 -0.07046029 0.06795057 -0.0015995945 0.08590806
0.055748675 -0.02065926 0.0470743 -0.04064291 -0.056732878 -0.020583669 0.08885483 0.022209104
0.037533805 0.09881803 0.051645 -0.068104796 -0.0055978084 -0.018752124 -0.0797288 7.2730254e-05
0.010812327 0.08134265 -0.0044176974 0.073747404 -0.015769772 0.10061693 -0.051701408 -0.07593379
0.06686655 0.033881143 -0.069368854 0.07515902 0.028744975 -0.041106187 -0.029057156 0.0953721
-0.0450069 -0.002973158 0.03712189 -0.08435685 0.024357306 0.066059515 0.032595504 -0.11281124
0.11461885 -0.06891384 0.09989604 -0.05698573 -0.07174038 0.05392449 -0.0016729801 0.010183244
-0.014224289 -0.02971471 -0.037162345 -0.1000626 -0.021708963 -0.0014817101 0.019156866 0.037542995
0.04752808 0.032053627 -0.05985417 -0.04630101 -0.02110925 -0.07271583 -0.080139406 0.009448409
0.06672114 -0.023394143 0.09474711 -0.060189627 0.0458326 0.06277555 0.099417076 -0.015075239
0.039199054 -0.0021682838 -0.08004072 -0.05272898 0.0372613 -0.032084696 0.056968357 0.05235791
-0.0083477255 0.056346443 -0.008810856 0.060913272 0.06745928 -0.052279122 0.064456366 -0.023192754
-0.026949827 -0.007005629 0.027658992 -0.041260846 0.033683296 -0.033807974 0.051225454 -0.038696203
0.030609984 -0.04867175 -0.07982432 0.028937079 0.025845813 -0.066456966 -0.02214002 0.033195782
0.0070077484 0.030042581 -0.009679312 0.046780244 0.06571792 -0.009954128 0.023177834 0.06419803
0.01554789 0.06999076 -0.022716949 0.07523968 -0.073574275 -0.026973471 0.0040503033 -0.09854541
-0.007238031 -0.063854754 0.0807156 -0.07425896 0.05029895 0.060321663 0.012117629 0.012615615
0.10258242 -0.029447455 0.0064358776 -0.051496036 -0.0017869663 0.034860276 -0.0184519 -0.06148259
-0.09136401 0.026266212 0.028822403 -0.007432482 0.061887927 0.053316414 -0.04869479 0.009568076
-0.049659166 -0.12272585 -0.063249074 0.09646459 0.073618785 0.030522801 0.07091528 -0.082706735
-0.02096054 0.075157456 -0.026390972 0.11742991 0.00081944646 0.06873485 -0.051114827 0.05953052

fc2.bias f4 [128]
00000000: ccf8 f2bc 5b75 003d fa9f 5e3d 8d28 9fbd
00000010: 5dfb 22bd a04b 753c 417c 1ebd b815 813d
00000020: fa0f 983d 3e14 0c3d 2caf 04bd 48ed 013e
00000030: 1690 003d 1e3f 0abd 600e d3bd d73c ce3b
00000040: ccbc 793d f5e7 b03c a4f3 163d 6674 a73d
00000050: d24e 7fbd b4a3 29bc f0e0 47bd 0c4e f9ba
00000060: 559d bcbc 6207 f43c eae8 2e3c 7ffc b33d
00000070: 3663 1a3c bc9a 7ebd c1c2 693c 848f bdbd
00000080: 1a2b d7bc 9055 2cbc dd22 10bd d8fb 27bc
00000090: 749a 09bd 8dfa f93d 9121 893d b5c7 56bd
000000a0: 0b43 d6bc b5c8 07bc 19c9 cebd 4b18 d9bc
000000b0: 414c 44bd ac34 cdbd 6bf5 c43d 34fb e83d
000000c0: 46ed 78bc 11ab 5ebc d444 27bd 74b6 fc3c
000000d0: ddcf bc3c cd12 91bd f756 aa3d fa5a 073d
000000e0: cd4c 2bbd e326 4abc 403c e1bd f74e 68bc
000000f0: 0e1c a5bd 96e8 8fbc 6062 cebc 8fa0 18be
00000100: 9063 22bd cde8 dfbb 7416 5bbd 4187 1bbd
00000110: 9eaf f5bb d0a9 193e ec29 4e3d 3045 8c3c
00000120: 5655 0dbc 8165 b5bd 7436 d8bb 016a f93d
00000130: 564b acbd 97f9 833d ebcf cabd bc0e abbd
00000140: 6cc4 40bd c672 003a ff4f f13c 7d55 4a3d
00000150: c659 e7bd 99e4 18bd 3903 793a 1ca7 3a3d
00000160: b1c1 b8bd c098 55bd 2c25 b7bc cb0c 84bd
00000170: 89ae 423b 7665 0cbd 24fa cf3c 2b5c 0dbd
00000180: 25d0 a83d 55e9 2f3c 4bef d13d 91dd 87bd
00000190: 093c 9abd 8c86 cb3d 6e21 e9bd a298 8c3c
000001a0: 48e5 933d e1d3 b03d fb1d a7bc b237 c1bd
000001b0: 74e1 2bbe b6fe 743d a2d7 053c 2d0c 38bb
000001c0: a8b7 c6bc 7a99 20bd 543c 2cbd 1ff7 bc3d
000001d0: d8a5 233d b049 71bd 0a85 79bc 613e 223d
000001e0: aacc ac3d 2afd 143e 1aaf 123d 5f28 153d
000001f0: f71d bf3b 6139 183c 4535 adbd b949 b6bd
-0.029659651 0.03136192 0.054351784 -0.07771406 -0.0397905 0.014971644 -0.038692717 0.06302971
0.07424922 0.034198992 -0.03239362 0.12688172 0.03138741 -0.0337516 -0.10305476 0.006293874
0.060971066 0.02159498 0.036853448 0.08176498 -0.06233103 -0.010353971 -0.0487985 -0.0019020452
-0.02302424 0.029788677 0.010675648 0.08788394 0.009423068 -0.062159285 0.014267624 -0.09255889
-0.02626567 -0.010518447 -0.0351895 -0.010252915 -0.033594564 0.12205992 0.066958554 -0.05243655
-0.026155015 -0.008287598 -0.1009695 -0.026500842 -0.047924284 -0.10019812 0.09617122 0.11376038
-0.015193289 -0.01359059 -0.040837124 0.03084872 0.023048336 -0.07083664 0.083173685 0.033045746
-0.04182129 -0.012338373 -0.1099782 -0.014178983 -0.08061992 -0.01756696 -0.025193393 -0.14904998
-0.03964573 -0.006833172 -0.05348821 -0.037970785 -0.007497742 0.15006185 0.05033295 0.017122835
-0.008626303 -0.08857251 -0.006598288 0.12178422 -0.08412807 0.0644409 -0.099029385 -0.0835242
-0.047062322 0.0004899915 0.02945709 0.049397934 -0.1129642 -0.037327383 0.00094990764 0.045569524
-0.09021319 -0.052147627 -0.022356592 -0.064477526 0.0029706082 -0.03427645 0.025387831 -0.034511726
0.082428254 0.010736783 0.1025072 -0.06634057 -0.07530982 0.09937772 -0.11383329 0.017162625
0.07221466 0.08634163 -0.020400038 -0.09434451 -0.16785222 0.059813224 0.008169087 -0.002808343
-0.024257496 -0.039208867 -0.04204972 0.09226822 0.039953083 -0.058908165 -0.015229473 0.03961027
0.08437474 0.145497 0.03581152 0.036415454 0.0058324295 0.009291024 -0.08457426 -0.0890078

bn2.weight f4 [128]
00000000: 4230 753f e586 813f bb72 743f 86e9 833f
00000010: eac0 7a3f b59b 803f 7d9e 823f 5fad 773f
00000020: 8b2a 823f bc09 7b3f 4e39 813f 228e 7b3f
00000030: bbd6 843f 5513 813f da8e 813f 5e0b 813f
00000040: b509 723f 0eef 833f 42d6 803f 616b 7f3f
00000050: 62a7 6c3f d476 6f3f 599d 6c3f fcff 813f
00000060: 8d34 813f 24fb 833f a5c6 803f c6e7 7e3f
00000070: 67f1 833f 3e31 813f 8400 773f 0bc1 843f
00000080: f0ec 7b3f cf45 773f d56c 7d3f 53b0 753f
00000090: e27d 803f 1209 7e3f bc0a 813f 7404 7e3f
000000a0: 03e6 803f 0f10 853f e230 713f 9dc7 863f
000000b0: 1af9 7a3f ad20 823f 1cd3 783f eb90 713f
000000c0: 31ac 7f3f fde9 803f c96c 823f a829 813f
000000d0: cccc 7b3f 075d 7a3f 00fd 793f eb98 763f
000000e0: 2d65 833f 6662 763f 9952 8f3f f693 723f
000000f0: 578a 843f e8c1 6a3f ced9 773f c926 893f
00000100: d29c 803f 7c33 7f3f 8d0c 833f fef8 7b3f
00000110: ffc7 7a3f d95b 7c3f d018 823f e9aa 7d3f
00000120: 4086 803f 4907 853f 7be3 793f 9d25 793f
00000130: 6a5d 863f deb6 813f 3e7a 7f3f 6303 853f
00000140: ee25 7b3f 3784 833f 7946 813f dee1 743f
00000150: 0f3c 793f 5ad0 833f 59d9 7f3f b68f 7d3f
00000160: 8cda 743f c05f 803f faf8 783f 5742 7a3f
00000170: ccf7 7f3f 9bcf 753f e252 823f b039 763f
00000180: 1d7b 813f 2d20 703f 0d61 883f b6c5 853f
00000190: 18c1 833f 6e2c 723f a7a0 803f 8298 7c3f
000001a0: f42d 733f f3be 803f 152b 833f 7678 813f
000001b0: 6934 833f 0833 743f 17e7 7a3f 5efd 783f
000001c0: db1c 7b3f 3fc3 773f 43d6 853f ab5f 7f3f
000001d0: a626 853f 8b46 7f3f b1e1 823f 8167 823f
000001e0: c352 833f a4c5 833f 9910 803f 1778 813f
000001f0: 368e 7e3f aa95 793f d687 7d3f 6015 753f
0.9577676 1.0119292 0.95487565 1.0305641 0.97950613 1.0047518 1.0204617 0.9674892
1.0169233 0.9806173 1.0095613 0.9826375 1.037803 1.0084025 1.012172 1.0081594
0.9454606 1.0307329 1.0065386 0.9977322 0.92442906 0.9354069 0.92427593 1.0156245
1.0094162 1.0311017 1.0060622 0.9957241 1.0308045 1.0093153 0.9648516 1.0371412
0.9840841 0.96590894 0.9899419 0.95972174 1.0038416 0.9923259 1.0081401 0.99225545
1.0070194 1.0395526 0.94215214 1.0529667 0.9803635 1.0166222 0.9719713 0.9436175
0.9987212 1.0071408 1.0189449 1.0090837 0.9835937 0.977982 0.9765167 0.96327084
1.0265251 0.96243894 1.1197082 0.9475702 1.0354718 0.9170213 0.9681672 1.0714961
1.0047858 0.99687934 1.0238205 0.98426807 0.9796142 0.9857765 1.0163822 0.99088913
1.004097 1.0392848 0.9761273 0.9732302 1.0497258 1.0133932 0.997959 1.0391659
0.9810475 1.0274724 1.0099632 0.95657146 0.9735727 1.0297959 0.9994102 0.9904741
0.95645976 1.002922 0.9725491 0.97757477 0.99987483 0.96019906 1.0181544 0.96181774
1.0115696 0.93799096 1.0654618 1.0450962 1.0293303 0.94599044 1.0049027 0.9867021
0.94991994 1.0058273 1.0247523 1.0114887 1.0250369 0.9539037 0.98008865 0.9726161
0.98090905 0.96782297 1.0456012 0.9975535 1.040242 0.99717015 1.0225126 1.0187837
1.0259632 1.029469 1.0005065 1.0114774 0.99435747 0.97493994 0.99035394 0.9573574

bn2.bias f4 [128]
00000000: 2c2d fdbd 5cd8 873d df2c 81bd 4282 ccbd
00000010: b783 11be 55bc 443d e090 a0bd 6403 8b3d
00000020: 971f 93bd 648e 953d 7f42 88bd d430 07be
00000030: b709 e73b a3ae aa3d 9819 0fbd bd0f c23d
00000040: 481a a8bd 5724 833d 3ef1 8b3d 9052 99bd
00000050: 1c6c 63bd a634 cabd ac03 983d f7ef acbd
00000060: 9263 0dbe 89eb eabd 8217 6a3d a21a 70bc
00000070: 901f 6a3d 03b2 c03c f2dd a8bd 85fb 0bbd
00000080: 1e3f 653d 89ac db3d 71f0 c23d 7481 263d
00000090: ef4b 9cbc 6897 90bd 0984 9fbd 0d39 2abd
000000a0: 6368 52bd 0307 613d dcc9 0d3c 6445 b5bd
000000b0: eb3a 1dbe 5eb5 9a3d ef1e febb e3fd a5bd
000000c0: f347 bf3d 62e3 46bd d111 b8bd 0863 04bd
000000d0: 3e04 db3d a510 2a3d 924b d5bc e9df a1bc
000000e0: 7b3a f5bd 81a6 84bd 2cfd e6bd 3303 353d
000000f0: 28a0 a83d 2dd4 49bd ed1b 2a3d 4a25 b5bd
00000100: 82c6 e43d c035 02be bcd9 5a3d 0692 70bd
00000110: e079 203d a662 ba3c c62f 88bd e7a0 b3bd
00000120: 1f98 d4bd b43b 03be 7374 d7bd 726b d53c
00000130: 5ded 933b ece0 4abd aca9 1e3d 9052 b7bd
00000140: bd09 5cbd 057c 5e3c b845 a3bd 228a acbd
00000150: 64c4 1ebd bb77 8b3d d371 c3bd 1bbe 01be
00000160: 6a92 cabd b895 d4bd a88e a2bd 178c d7bd
00000170: 806f 05be e18a 95bd a98d f63d 8e3e 70bd
00000180: 7700 9b3d 4648 d53d c90b 693d e9dd 043c
00000190: 752b f03b 06c2 ab3d 84a8 663a d529 67bd
000001a0: cf32 48bd d6f1 b03d ceae 11be 1bc3 973c
000001b0: d5bb 7dbd 3f86 89bd fa7f f5bd a529 963c
000001c0: 60c1 5dbd 70e0 34bd db89 933d e921 793c
000001d0: 2efa aabd 95f2 d53c 74f1 85bd 900a a63d
000001e0: 9e85 bf3c 5845 1b3d 72d3 9b3d d3be 07be
000001f0: 2e5d 95bd 52da cdbd 7034 c4bb 77c7 303d
-0.123621315 0.06633064 -0.063073866 -0.09985782 -0.14210401 0.04803117 -0.07840133 0.06787756
-0.0718376 0.073025495 -0.06653308 -0.1320222 0.0070507186 0.083340906 -0.034936517 0.09475658
-0.08208138 0.06403416 0.06833123 -0.07486451 -0.055523023 -0.09873323 0.07422575 -0.08444207
-0.13807514 -0.11470706 0.057151325 -0.014654787 0.057159007 0.023522383 -0.08245458 -0.034175415
0.055968396 0.10726268 0.09518517 0.0406508 -0.019079177 -0.070601285 -0.077888556 -0.041558314
-0.051369082 0.054938328 0.008654084 -0.08851126 -0.15354507 0.07554124 -0.0077551524 -0.08105066
0.09339895 -0.048556693 -0.08987773 -0.032321006 0.106941685 0.04151978 -0.026037011 -0.019760089
-0.11974045 -0.064770706 -0.112787575 0.044192504 0.082336724 -0.049274612 0.04153054 -0.08845003
0.11170675 -0.12715816 0.053430304 -0.05873301 0.03917873 0.022752117 -0.06649737 -0.08770924
-0.10380577 -0.12815744 -0.10520258 0.02605221 0.00451438 -0.04953091 0.03873603 -0.089512944
-0.053720225 0.013579373 -0.07972282 -0.08424784 -0.03876151 0.06809946 -0.095431946 -0.12670176
-0.098912075 -0.10380119 -0.07937366 -0.10524767 -0.13030815 -0.0730188 0.12038738 -0.058653407
0.07568448 0.10414176 0.056896005 0.008109548 0.007329399 0.083866164 0.00087989145 -0.05643638
-0.04887658 0.086398765 -0.14226839 0.01852565 -0.06194671 -0.067150585 -0.119873 0.018330405
-0.054139495 -0.044159353 0.07204028 0.015205839 -0.08348499 0.026116649 -0.06540194 0.081074834
0.023379143 0.03790793 0.07608689 -0.13256387 -0.07293163 -0.10051407 -0.0059876963 0.043158974

bn2.running_mean f4 [128]
00000000: 6620 0f3f e0a0 ee3e 1773 323f 4739 e03e
00000010: 69af 193f 9b38 a23e dcd4 9c3e 096c 0d3f
00000020: 0530 2d3f e6a5 ff3e c6cf 1d3f 5892 003f
00000030: 1421 1a3f 5c15 793f e2d2 8a3e 6c14 973e
00000040: 28b8 693f 828d ba3e 73f6 173f 7db1 343f
00000050: c36d 263f d5de b23e 363c e63e 70cd 153f
00000060: 44c3 5c3f 1050 bc3e aaa7 2d3f 29cf c03f
00000070: 4ab3 1d3f a7df 043f b6ce 663f 93bc e03e
00000080: 48df 163e 8bd4 313f c2a0 f43e f220 343f
00000090: 7939 d73e e9ad 1f3f b6b2 bd3e cb07 553f
000000a0: dae1 303f 4d0c 8d3e 3c27 393e c886 a53e
000000b0: 9206 573f 9f6d e13e f77b 9f3f 1b20 2b3f
000000c0: 39f9 0d3f be59 373f 676e 793e fccf 713f
000000d0: 5d6f 3f3f 0945 1e3f 888a 233f cefa 4f3f
000000e0: 65c8 1c3f de27 993f 2283 1b3f e8f7 ff3e
000000f0: 8d9d 9e3e 7062 7c3e c450 153f 6031 893e
00000100: e699 423f 72ab af3e b91a d23e 727a 683f
00000110: 812b 323f 3248 8a3f e653 273f 135c de3e
00000120: b1d7 6a3f 1b87 d53e 1cc8 133f 980d 823f
00000130: 7161 9d3e e6cc 1c3f fa67 c93e 2fc3 fb3e
00000140: dae6 253f 0da2 a63e f3ba 3a3f e060 643f
00000150: c6a6 673e 3894 393f 3e3e 063f 8ed0 103f
00000160: a65d a03e 9368 d83d e3df d63e a901 073f
00000170: c624 e73e 7e8d 0d3f 58f3 aa3e 5593 953f
00000180: 5413 e03e 1a9e 973f 46e7 8a3f cac2 f13e
00000190: 9ba6 c93e a13b 4c3f 2840 9a3e ae39 1a3f
000001a0: 6ae8 ad3e 684c 163f f26f e63e 3f80 053f
000001b0: a281 783f c4b1 4c3f 04d3 003f 759e c83e
000001c0: ef16 f53e 85fc 943f b612 3d3e 6f7b b63f
000001d0: cbd8 473f 44c8 bf3e 2701 ea3e f04b d93e
000001e0: f18c 103f 6e24 423f e833 fc3e 2bb7 bd3e
000001f0: 5dc6 f23e 9852 b23f 40c7 4a3e f07b 743e
0.5590881 0.46607113 0.69706863 0.437937 0.6003328 0.31683812 0.3063115 0.55242974
0.67651397 0.49931258 0.6164516 0.502233 0.60206723 0.97298217 0.27114016 0.29507768
0.91296625 0.36436087 0.59360427 0.70583326 0.65011233 0.34935632 0.44967812 0.585166
0.8623545 0.36779833 0.6783396 1.506322 0.616017 0.51903766 0.90159166 0.4389387
0.14733613 0.6946494 0.47778898 0.7036277 0.42036036 0.6237474 0.37050408 0.83215016
0.6909462 0.27548447 0.18081373 0.32329392 0.839944 0.44028947 1.2459706 0.66845864
0.5545841 0.7162131 0.24358521 0.94457984 0.747793 0.6182409 0.63883257 0.8124207
0.6124328 1.1965292 0.6074697 0.49993825 0.30979577 0.24646926 0.58326364 0.26795483
0.7601608 0.3431049 0.41036013 0.90811837 0.6959763 1.0803282 0.65362394 0.43429622
0.9173537 0.4170464 0.5772722 1.0160398 0.30738404 0.6125015 0.3933714 0.4917235
0.64805377 0.3254551 0.7294151 0.8921032 0.22622213 0.7249179 0.52438724 0.5656823
0.31321448 0.10566821 0.41967687 0.5273691 0.45145243 0.55294025 0.33388782 1.1685587
0.43764746 1.1845124 1.0851829 0.47218925 0.39384922 0.79778486 0.30127072 0.6024426
0.3396638 0.58710337 0.45007282 0.52148813 0.97072804 0.7995875 0.50321984 0.39183393
0.4786906 1.1639563 0.18464169 1.4256419 0.78065175 0.37457478 0.45704004 0.42440748
0.5646506 0.7583684 0.4925835 0.3705381 0.47416964 1.3931456 0.1980257 0.23875403

bn2.running_var f4 [128]
00000000: 48d4 b23e de59 2a3f aeea 073f 848d 7b3e
00000010: b479 0b3f 66a4 fa3e 0e4f cd3d 0871 b63e
00000020: 18a9 ff3e 7bc1 bc3e 99ce 0f3f ade3 9e3e
00000030: c189 083f 6655 803f 9cb3 153f ab35 c03e
00000040: a1e3 7b3f 6b5e 823e 28ed 663f 2435 0c3f
00000050: 2bb1 983f 8d14 123e 2c57 663e 444e f73e
00000060: da1d 6e3f 7700 f53e 2194 133f c099 1a40
00000070: 636b 063f c172 b33e b40a 5d3f c9d0 903e
00000080: 0198 a73e 8b60 5f3f 0bbb 983e e067 253f
00000090: 10d1 163f 518e 093f 62c7 353e c346 913f
000000a0: 96cf 573f fd52 0b3f 4412 b03e 960b 1a3e
000000b0: 93c8 463f 66ec b13e 526c e53f e155 093f
000000c0: 68df 013f a666 213f 3477 083e 0d5c 753f
000000d0: 3e3d 263f a1d2 873f c6ad 413f 6e89 333f
000000e0: d2fe d13e 53cb c43f 367b e63e 625b 9b3e
000000f0: f15f 7b3e 1bb4 3f3f dbfa c73e 03b3 e83e
00000100: c263 383f 72f5 d83e 9afc 1a3f d99b 903f
00000110: 0ebc 103f ef14 bb3f 2456 053f f9e0 703e
00000120: c227 6b3f bf89 5f3e c134 cd3e a43e 8a3f
00000130: 9b28 883e 7ab5 103f 77d0 ad3e b0bb a33e
00000140: 88c3 0a3f 34f1 dd3e 134d 353f ec94 5d3f
00000150: b859 fe3e 971b 193f 6964 a53f 39a0 7a3f
00000160: 11d1 0d3f 3800 de3c 924c 493e 6e87 b53e
00000170: 1cfc 233f edc9 063f ba5c ad3e 1aad bc3f
00000180: 77ea b13e fcb0 bd3f f865 a33f cb2f 983e
00000190: 4780 883e 09c6 2c3f 4638 e93d 0d43 1e3f
000001a0: 7ae8 7d3e a558 dd3e 762f ed3e 9056 103f
000001b0: 1cb4 933f 43ee 2e3f 43ae 053f 7a8f 253f
000001c0: ce34 963e a99f b63f 1271 113f cfb2 0840
000001d0: 5aa0 a23f 0326 983e f076 943e c12c 443f
000001e0: 3619 e93e 3b2c 373f 00fb ec3e 1473 b03e
000001f0: 19ed 853e a2dd 0440 a03d d73e 3dc7 573e
0.34927583 0.66543376 0.5309247 0.24565703 0.5448258 0.4895355 0.10024844 0.3563311
0.49933696 0.36866364 0.5617462 0.31033078 0.53335196 1.0026062 0.5847719 0.37540945
0.9839421 0.2546266 0.9020562 0.54768586 1.1929067 0.14265652 0.22494191 0.483019
0.930143 0.47851917 0.576479 2.4156342 0.5250761 0.35048488 0.86344457 0.2828429
0.32733157 0.8725669 0.29830202 0.64611626 0.58912754 0.5373278 0.1775184 1.134972
0.84301126 0.54423505 0.34388936 0.15043482 0.776498 0.3475067 1.7923682 0.53646666
0.50731516 0.63047254 0.13326722 0.95843583 0.649372 1.0611154 0.7565578 0.70131576
0.41014725 1.537455 0.45015877 0.30343157 0.24548317 0.74884194 0.39058575 0.45449075
0.7202722 0.4237476 0.6054169 1.1297561 0.5653695 1.4615763 0.52084565 0.2352332
0.9185754 0.2182989 0.4007931 1.0800366 0.2659348 0.5652691 0.3394811 0.31979132
0.54204607 0.43348086 0.7082073 0.8655536 0.49677825 0.59807724 1.2921268 0.9790073
0.55397135 0.027099714 0.19658116 0.35454887 0.64056563 0.52651864 0.33859807 1.4740326
0.34749195 1.4819636 1.2765493 0.29723963 0.26660368 0.6748968 0.113876864 0.6182106
0.24795714 0.43231693 0.46325272 0.56382084 1.153934 0.6833231 0.5221903 0.6467205
0.29337162 1.4267474 0.56813157 2.1359136 1.2705185 0.297165 0.28996992 0.7663079
0.45527047 0.71551865 0.46285248 0.34462798 0.26157454 2.0760274 0.42039204 0.21072097

fc3.weight f4 [64, 132]
00000000: 5755 21bd 621c 183e 501d b3bc d8a2 d63c
00000010: 4ead 98bd 709c 463d 0138 7b3c 4688 953d
00000020: ce4d 6abc 9c8b 7fbd 1bfb 4a3d 4c30 e2bc
00000030: 912f 963d fd09 5bbb ce3b da3c 56b1 c53d
00000040: 70e3 41bd c790 b03c 1401 f33c 371f d9bd
00000050: ff53 803c 4cbb 9cbd fa5b 6a3d e927 ae3d
00000060: bc9d 8a3c 44c4 df3c adbb f03c 6fa1 9e3d
00000070: eda7 a13d f8c1 8e3d 37da eebc c974 91bd
00000080: fbfa 173d d953 ac3b 940d 733c 4d0e 9c3d
00000090: 3c9e efbc c934 843d a8bd a6bd 497c 9bbd
000000a0: 0686 573d e960 c13d 68e7 69bd ed50 f93c
000000b0: 3ab3 5fbb c9fd c03c 7707 b1bc 39e1 98bd
000000c0: 97e1 f53c ab5c e7bd acd1 61bd 26e3 8abd
000000d0: 8b0f 353b c7c7 323d fc80 c7bc fec1 4b3d
000000e0: 9c66 a1bd 6ff4 883d f3f9 cf3c df39 7bbc
000000f0: 17bb e23d d224 953c 76d2 013e 5ef8 c1bd
00000100: 1276 50bd e94f 28bd 7ace 583d 775f e03b
00000110: 01a6 50bd 9f2f 9e3c 5a04 593d 73d8 af3d
00000120: ec3c 4f3b 6cf3 4cbd 0391 0abd 7220 9d3d
00000130: 32f7 153c 69a0 b93d 6e0f 343d 710d 03bd
00000140: 8bdc 483d 2535 27bc 8d49 2cbd 7640 9dbd
00000150: 85c4 a73c a88a b73c 4482 883d a859 b13d
00000160: b2fb 1abd 3c23 3ebd 9b9c 2fbd 257f 8c3d
00000170: 947f b93c c2e2 923d a9db 793d a159 b93d
00000180: a65b 1ebd 5552 8abd ee27 a0bd 74ac 3ebd
00000190: 3ca3 8ebd c5be e03c 7904 92bd 1407 9d3c
000001a0: 8a49 8e3d dd90 653d fa7a 333d 195b 663d
000001b0: 0a90 cf3c 307d 75bd 6a2a d83d f889 8a3d
000001c0: 1068 983d 0d53 6ebd 1bbf 37bc 86fb 4d3d
000001d0: a602 41bc ab5b 62bc 2588 55bd dfc2 063d
000001e0: 28ee 9e3d 59ee 01bd 00aa 303d 0176 f8bc
000001f0: 53fb d73c fbea f6bc 38cf 62bd 98ef 0b3c
00000200: 5b19 10bd fdaf 7f3d 0a1f 04bd 71fb a5bd
00000210: 50b5 0dbd e17f be3d 5636 863d b8c7 3c3d
00000220: 0187 fbbb 6730 aebb a922 af3d 3639 873d
00000230: cb28 c23d 4bea 523d be4e 95bd bee8 193d
00000240: 7176 8fbc 58c7 7e3b eeb7 a53d 78c2 c13c
00000250: affd 9abd 0d25 e5bc 99ba 553d 3ded 103d
00000260: 4b32 193d d029 d0bc 53f2 80bd e268 cdbd
00000270: 4dd5 d73c 2d43 413d e3dd 6ebd 4085 a0bd
00000280: 110b af3c f6fa d9bd 6162 c33c 67be c43d
00000290: 7ed7 62bd ef0e 9ebc 1b2c 403d 996d c2bc
000002a0: fbfb 34bd b09b ad3c 73ef 1cbd 8fd2 583c
000002b0: b0b5 b7bb 22b0 d83c 395a 803d c607 88bd
000002c0: 9178 1f3d 75f6 cbbd cdae 0b3d c249 393d
000002d0: ff01 f2bc 9066 583d 91e3 5c3d 56b0 fbbc
000002e0: e840 3dbc d436 a9bd e551 053d 7a3a 953d
000002f0: 64ea c9bc ddf5 6bbd deda c13d 453f 963d
00000300: 49a3 393d a9ce 64bd 8e66 493d f3c2 a6bb
00000310: c258 dc3d e532 1ebd 9c58 32bd edfa 03bd
00000320: 2d4c 3bbc e1d8 ba3c 4496 8fbd e4c3 903a
00000330: 7a49 cdbd aee6 9dbd 6892 9e3d e857 333c
00000340: 6715 c63d be2b 803d feb2 773d 360b 07bd
00000350: d053 c53d e0fc c13c fcaf 5ebd a815 25bd
00000360: 7241 ccbd a056 b9bd 209f 8fbc cc4c 07bb
00000370: c1f1 7d3d 2f73 f83a 82a6 80bd 1fac fdbc
00000380: 94f1 3f3c ea63 97bc 55c8 69bd 454c a5bd
00000390: bbfc 1b3d 677f bd3d c2aa 74bd c288 423d
000003a0: 9773 a93d cc41 23bd b630 8dbc fae0 e3bd
000003b0: 8659 35bc 3705 d73b 333a 583d 7527 253c
000003c0: b65b dc3c a2a4 81bd e380 a4bd 638e 9dbd
000003d0: 92cf 2cbd 63ce da3c a0f1 313c e04f 8abd
000003e0: 4f2b a3bd 9365 0fbd d02d 73bd f8e1 be3d
000003f0: 581c 59bd d4e6 65bd 79e8 0abd 25d2 bebd
-0.039388027 0.14854577 -0.021864563 0.026200697 -0.0745493 0.048489034 0.015333177 0.07301383
-0.014300777 -0.062389 0.04955588 -0.02761092 0.07333291 -0.0033422702 0.026639845 0.09652965
-0.047336042 0.02155341 0.0296636 -0.10601657 0.015665052 -0.076529115 0.057216622 0.08503706
0.016920917 0.027315266 0.029386366 0.07745635 0.078933574 0.0697059 -0.029156787 -0.07102353
0.037104588 0.005259019 0.01483478 0.07619915 -0.029250257 0.064553805 -0.08141643 -0.07592065
0.05261805 0.09442312 -0.05710545 0.030434096 -0.0034133927 0.023558514 -0.021610005 -0.07464833
0.030014796 -0.11296972 -0.0551316 -0.067816064 0.0027627673 0.043647554 -0.024353497 0.049745552
-0.07880899 0.06687247 0.02538774 -0.015333622 0.11070841 0.018206034 0.1267794 -0.094712004
-0.05089385 -0.041091833 0.052931286 0.006847318 -0.050939564 0.019309817 0.052982666 0.08586206
0.0031622006 -0.050036833 -0.0338297 0.07672204 0.009153174 0.09063799 0.043960027 -0.03199524
0.04903845 -0.010205542 -0.04206233 -0.076783106 0.02047945 0.022404984 0.06665471 0.08659679
-0.03783769 -0.04642032 -0.04287396 0.068601884 0.022643842 0.07172157 0.0610005 0.090502985
-0.03866162 -0.06753985 -0.07820116 -0.046551183 -0.06964728 0.027434716 -0.07129759 0.019168414
0.0694762 0.056046356 0.04381845 0.05623922 0.025337238 -0.05993384 0.10554965 0.06764597
0.07441723 -0.058184672 -0.011214997 0.0502887 -0.011780417 -0.013815801 -0.05213179 0.032900687
0.077602684 -0.031721447 0.043130875 -0.030329706 0.026364958 -0.030141344 -0.0553734 0.00854101
-0.03518043 0.062423695 -0.032256164 -0.08104599 -0.03459674 0.09301735 0.065533325 0.046088904
-0.007676006 -0.0053158286 0.08551533 0.06602709 0.09480437 0.05149297 -0.072904095 0.037575476
-0.017512532 0.0038876142 0.080917224 0.0236523 -0.075679176 -0.027971769 0.052179907 0.035382498
0.03740148 -0.025410563 -0.0629622 -0.100297704 0.026346827 0.047183204 -0.058317076 -0.078379154
0.021367582 -0.1064357 0.023850622 0.09606629 -0.05538129 -0.01929423 0.046917062 -0.0237339
-0.04418562 0.021192402 -0.038314294 0.013233795 -0.0056063756 0.026451174 0.062672086 -0.06642108
0.03893334 -0.09959117 0.03410225 0.045236357 -0.029541967 0.052832186 0.05392796 -0.030723732
-0.011551119 -0.08262411 0.032548804 0.07286544 -0.024647899 -0.05760752 0.09465574 0.073362865
0.045321736 -0.05586115 0.04917007 -0.0050891577 0.10759117 -0.038622756 -0.043541536 -0.032221723
-0.011431736 0.022808494 -0.07011083 0.0011044708 -0.1002378 -0.07710014 0.077427685 0.010946251
0.09672051 0.06258343 0.060473435 -0.032969676 0.096351266 0.02368015 -0.05436705 -0.040303856
-0.0997342 -0.090497255 -0.017531931 -0.002064514 0.061998133 0.0018955226 -0.06281759 -0.030965863
0.011715312 -0.01848026 -0.057075817 -0.08071188 0.03808282 0.09252816 -0.05973316 0.047493704
0.08274 -0.03985767 -0.017235141 -0.11126895 -0.011068707 0.006561901 0.052789878 0.010080208
0.0268992 -0.06330229 -0.08032396 -0.07693174 -0.042190142 0.026709741 0.010860831 -0.06753516
-0.07967245 -0.035008978 -0.059369862 0.09320444 -0.053005546 -0.056128338 -0.03391311 -0.09317426
