PreTrained/cstr_ode/Deep_DQN/0_7/100.pth (torch, 43158 bytes, 13 tensors)

fc1.weight f4 [128, 4]
0	0xbc0b554d	-0.008504224
1	0x3e8bc461	0.27298263
2	0xbed5231c	-0.4162835
3	0xbebc6680	-0.3679695
4	0xbe4532f4	-0.19257718
5	0x3e094bec	0.13407868
6	0xbc224f40	-0.00990659
7	0x3ecaface	0.39644474
8	0xbd406252	-0.046968766
9	0x3e08527f	0.1331272
10	0xbe1802bb	-0.14844792
11	0xbdc94870	-0.098282695
12	0xbef4a444	-0.47781575
13	0xbea97e0a	-0.33103973
14	0xbe56b3f3	-0.20967083
15	0x3c97bb00	0.018521786
16	0x3e4a35ca	0.19747081
17	0x3e99b4dd	0.300208
18	0xbeada752	-0.33916718
19	0xbe5ef4fc	-0.21773142
20	0x3e33a574	0.17543584
21	0x3ed79328	0.4210446
22	0xbddf92e8	-0.10916692
23	0x3ebf915c	0.37415588
24	0xbdbcab03	-0.092123054
25	0x3d848cb3	0.06472149
26	0x3ee58539	0.44828203
27	0xbeed7bce	-0.46383518
28	0xbea384dd	-0.31937304
29	0xbe0309a2	-0.12796643
30	0xbe44d8d4	-0.19223338
31	0x3edd2f28	0.4320004
32	0xbea85aa1	-0.32881644
33	0xbe67a3b3	-0.2262104
34	0xbeac4831	-0.33648828
35	0xbeefc276	-0.4682805
36	0xbe9624cd	-0.29324952
37	0x3edb2377	0.42800495
38	0x3e61057e	0.21974751
39	0x3e782700	0.24233627
40	0x3ce42f79	0.027854668
41	0xbe82ea7b	-0.2556952
42	0x3dae3709	0.08506591
43	0xbeef069e	-0.46684736
44	0xbeb8fa1a	-0.36128312
45	0xbe83f9c6	-0.257765
46	0x3ea18526	0.31546897
47	0x3e961926	0.29316062
48	0xbe6311c8	-0.22174752
49	0xbc93cb20	-0.018041193
50	0x3ea3ba40	0.31978035
51	0x3efe7f82	0.49706656
52	0x3e4d2c42	0.20036414
53	0x3d8106f9	0.06300158
54	0x3eabfa34	0.33589327
55	0xbe96bbc0	-0.29440117
56	0x3db98ade	0.0905969
57	0xbec55f51	-0.38549283
58	0xbeb36e07	-0.35044882
59	0xbe843ed2	-0.25829178
60	0x3e699fa2	0.22814801
61	0x3e4bf2e0	0.19916868
62	0xbe96a9e5	-0.29426494
63	0x3e1aadc8	0.15105355
64	0x3e886a7d	0.26643744
65	0xbd386257	-0.04501566
66	0x3ce81f1e	0.02833515
67	0x3ded4400	0.115852356
68	0x3ea02dae	0.3128485
69	0x3ef4729b	0.47743687
70	0xbec3eae7	-0.38265154
71	0xbe3ba1ec	-0.18323487
72	0x3e4d9d2f	0.20079492
73	0x3ed0d4ab	0.40787253
74	0x3ee28b41	0.44246867
75	0x3ee1e222	0.44117838
76	0x3dd6d72e	0.10490261
77	0xbedcb0fa	-0.43103772
78	0x3d3051c5	0.04304673
79	0xbea027ac	-0.31280267
80	0xbeee948c	-0.46597707
81	0x3ee3743e	0.44424623
82	0x3ec2a6f0	0.38017988
83	0xbeff5dfe	-0.49876398
84	0x3dbfaa08	0.09358603
85	0xbdac80c8	-0.084230006
86	0xbda882b8	-0.082280576
87	0xbe6a5f1c	-0.22887844
88	0x3e480855	0.19534428
89	0xbe9938e5	-0.2992622
90	0x3e3f0373	0.1865366
91	0x3e817616	0.25285405
92	0x3eb40c31	0.3516555
93	0x3e4507f8	0.19241321
94	0xbf00579f	-0.501337
95	0xbea61100	-0.32434845
96	0x3e7be097	0.24597393
97	0x3dddde7d	0.10833452
98	0xbec9966f	-0.39372584
99	0xbe9368e8	-0.28790975
100	0x3ef0d4f2	0.47037464
101	0x3eac7f54	0.33690894
102	0xbe5f3eb0	-0.21801257
103	0xbe00dcd4	-0.12584239
104	0xbef5eb03	-0.48030862
105	0xbba321b6	-0.004978384
106	0xbec2d611	-0.38053945
107	0xbec577a2	-0.38567835
108	0xbd053094	-0.03251703
109	0x3da17561	0.078837164
110	0xbe4d139d	-0.20027013
111	0x3e97e798	0.2966888
112	0xbe9bc938	-0.30426955
113	0x3ee84968	0.45368505
114	0x3eaf6fd0	0.34264994
115	0xbed7e164	-0.42164147
116	0xbdeff56c	-0.117167324
117	0x3c9b3343	0.018945342
118	0x3da3410c	0.07971391
119	0x3df2ddd0	0.118587136
120	0x3e4e9443	0.20173745
121	0x3cc81ad9	0.024426864
122	0xbe7429e5	-0.23844106
123	0x3e7245d4	0.2365945
124	0xbef59156	-0.47962445
125	0xbe97bba0	-0.29635334
126	0xbe002b3c	-0.12516493
127	0xbe7966ec	-0.24355668
128	0xbe3e5abc	-0.185893
129	0xbec975ab	-0.39347586
130	0xbde19b69	-0.1101597
131	0x3ddae2f8	0.10687822
132	0xbeaafa16	-0.33393925
133	0xbc988d30	-0.018622011
134	0x3eb2fa0c	0.34956396
135	0xbd5288f0	-0.051400125
136	0x3c63ac80	0.013896108
137	0xbd30adc0	-0.04313445
138	0x3dcf3d10	0.101190686
139	0x3ea2c660	0.31791973
140	0x3eeea575	0.4661061
141	0x3ea60853	0.32428226
142	0x3ef6d9b6	0.48212975
143	0xbd141d60	-0.036160827
144	0xbee6ae9e	-0.45055097
145	0xbe72a2c0	-0.23694897
146	0x3ead2c91	0.33823064
147	0xbb546b00	-0.003241241
148	0xbe837d8c	-0.25681722
149	0xbebf92e5	-0.3741676
150	0xbef298ee	-0.473823
151	0xbed810ec	-0.4220041
152	0xbdcfb470	-0.101418376
153	0x3e8c6456	0.274203
154	0x3e8a6774	0.27032053
155	0xbef6e502	-0.48221594
156	0x3e9fb02e	0.31189102
157	0xbec8528a	-0.39125472
158	0xbdd87bf0	-0.10570514
159	0xbe4f9a1c	-0.20273632
160	0xbdb1b30c	-0.086767286
161	0xbdcff596	-0.10154264
162	0xbeea2cc0	-0.45737267
163	0xbedd0a44	-0.43171895
164	0xbda03c28	-0.07823974
165	0x3bd3e180	0.0064660907
166	0xbe6896b8	-0.22713745
167	0x3e40deb8	0.1883496
168	0xbeec6055	-0.46167246
169	0xbcea15e8	-0.028574899
170	0x3edc38ec	0.43012178
171	0xbe50d738	-0.203946
172	0x3ee235de	0.44181722
173	0x3e3e159b	0.1856293
174	0xbeece0c8	-0.46265244
175	0x3ea1f874	0.31634867
176	0xbd375a62	-0.04476393
177	0xbe66e92c	-0.22549886
178	0x3ecbfe94	0.39842665
179	0xbecedf54	-0.4040476
180	0x3d4ed637	0.05049726
181	0xbdcfb2ca	-0.10141523
182	0x3eb8780f	0.36029097
183	0x3e0eec08	0.13957226
184	0x3e76a140	0.2408495
185	0x3e365d3e	0.17809007
186	0xbdf0eec8	-0.11764294
187	0xbdd75a50	-0.105152726
188	0xbed6645f	-0.41873452
189	0x3e8d3cce	0.27585453
190	0x3ec7ff38	0.39061904
191	0x3eaf295c	0.34211242
192	0xbeb493ac	-0.35268915
193	0x3cb6ae60	0.022299945
194	0xbeb47690	-0.35246706
195	0xbe8cec88	-0.2752421
196	0xbe92315a	-0.28553277
197	0x3e290365	0.16505201
198	0xbe9592ed	-0.29213658
199	0xbc32ba00	-0.010908604
200	0x3ceb1402	0.028696064
201	0x3ea119b9	0.31464937
202	0xbebd97a1	-0.37029746
203	0xbeafbf44	-0.34325612
204	0xbe9031a7	-0.28162882
205	0x3eaca0ba	0.33716375
206	0xbe2a887f	-0.16653632
207	0x3ed7eee0	0.42174435
208	0x3e3924a0	0.18080378
209	0x3d81aa40	0.06331301
210	0xbb73ed00	-0.003722012
211	0xbdca6d08	-0.09884077
212	0x3d7dce5b	0.061964374
213	0xbde104c0	-0.10987234
214	0xbbccb1dc	-0.0062467884
215	0x3d82a7c0	0.06379652
216	0xbecb1555	-0.39664713
217	0xbe825905	-0.25458542
218	0x3eccf643	0.40031633
219	0xbecfc186	-0.40577334
220	0xbced9579	-0.029001938
221	0x3ef929c8	0.4866469
222	0x3e3e516a	0.18585745
223	0x3c67f0c0	0.01415652
224	0xbedbf286	-0.42958468
225	0x3e79cb05	0.24393852
226	0xbeb43d0b	-0.35202822
227	0xbe1156a8	-0.14193213
228	0xbe322e22	-0.17400411
229	0xbd830bbd	-0.06398723
230	0x3b944b57	0.004525583
231	0x3ed32696	0.41240376
232	0x3d8a207a	0.06744476
233	0x3ee2f367	0.44326326
234	0x3e9ddf7f	0.30834576
235	0xbea1d8c6	-0.31610698
236	0x3e70565d	0.23470445
237	0xbeb9be3e	-0.36277956
238	0xbe4e4937	-0.20145117
239	0x3e169740	0.14706135
240	0x3e2a067a	0.16604033
241	0x3ebf932d	0.37416974
242	0xbe23da9d	-0.16001363
243	0x3a51d400	0.0008004308
244	0x3e867f95	0.26269212
245	0xbefb3bef	-0.49069163
246	0x3eb52a1f	0.35383698
247	0xbed3b130	-0.4134612
248	0x3b9f0d50	0.004853882
249	0xbdaa0a77	-0.08302777
250	0xbe88041b	-0.26565632
251	0x3d8757d8	0.06608552
252	0x3ed826d1	0.42217115
253	0xbe1464f0	-0.1449163
254	0xbe940479	-0.28909662
255	0xbe3d5b84	-0.18491942

fc1.bias f4 [128]
0	0xbe092e74	-0.13396627
1	0xbe3edf14	-0.18639785
2	0x3e0021f8	0.12512958
3	0x3e353315	0.17695267
4	0xbe79f27b	-0.24408905
5	0x3d1ef93b	0.038811903
6	0x3e91e5b9	0.28495577
7	0xbd355eb4	-0.04427977
8	0x3e17ffc9	0.14843668
9	0xbdff4d15	-0.12465874
10	0x3e311b6b	0.17295615
11	0xbeb971e6	-0.3621971
12	0xbe96890e	-0.2940144
13	0xbe819c3a	-0.25314504
14	0x3eeb5871	0.45965913
15	0xbe0bba79	-0.13645352
16	0xbc434c6f	-0.011920079
17	0xbe7ac94d	-0.24490853
18	0x3efec571	0.4976001
19	0x3ef9afd3	0.48766956
20	0xbec11260	-0.37709332
21	0xbecf8810	-0.40533495
22	0xbec0630e	-0.37575573
23	0xbc0525c1	-0.008126677
24	0xbdfd7a26	-0.123768136
25	0xbea7904e	-0.32727283
26	0xbe3388c2	-0.17532638
27	0x3dbdbc6f	0.092644565
28	0xbe85c1f4	-0.26124537
29	0x3de22c2d	0.11043582
30	0xbdf62183	-0.120181106
31	0xbe7818b0	-0.24228168
32	0x3d767d77	0.060178246
33	0x3ed1cfe6	0.40978926
34	0xbead1388	-0.33803964
35	0x3cafeb74	0.021474577
36	0xbe3f156a	-0.18660513
37	0x3ef84f37	0.48497936
38	0xbef2e226	-0.47438163
39	0xbef56ad2	-0.4793306
40	0x3efd64ff	0.49491116
41	0xbea1f7f8	-0.31634498
42	0x3dcfe4a7	0.10151034
43	0xbd184a2a	-0.037180103
44	0xbdda94b8	-0.10672897
45	0xbdde154b	-0.10843905
46	0x3ea242b4	0.31691515
47	0x3ca9a379	0.020707833
48	0xbef93ece	-0.4868073
49	0xbe9a1caf	-0.3010001
50	0xbe36631f	-0.17811249
51	0x3e868bc9	0.26278523
52	0xbea5aa8e	-0.32356685
53	0x3ef18acf	0.47176215
54	0xbdeb1954	-0.1147944
55	0xbdaf8376	-0.08569996
56	0x3eca8415	0.39553896
57	0x3e81559d	0.2526063
58	0x3ed8acb6	0.42319268
59	0x3e946856	0.28985852
60	0xbe1c48bf	-0.15262125
61	0xbeabe6f5	-0.33574644
62	0xbd24cf6e	-0.040236883
63	0x3ed46ef8	0.41490912
64	0xbe260ed4	-0.16216594
65	0xbeed681e	-0.46368498
66	0x3e533698	0.20626295
67	0x3ef9a021	0.4875498
68	0xbe105227	-0.14093839
69	0xbed3f95a	-0.41401178
70	0xbee83510	-0.45352983
71	0x3e02aa03	0.12760167
72	0xbd0daa36	-0.034586154
73	0xbe8146d8	-0.25249362
74	0x3db4d0ad	0.08828864
75	0x3e4627f0	0.19351172
76	0x3ecb7f27	0.39745447
77	0x3ec7c086	0.3901407
78	0xbd8ab620	-0.06773019
79	0xbee1bb7e	-0.44088358
80	0xbee753d8	-0.45181155
81	0x3eeeaa40	0.46614265
82	0x3e66c9ca	0.22537914
83	0x3e61e80d	0.22061177
84	0xbedf380c	-0.43597448
85	0x3eee0343	0.46486863
86	0x3ef241dc	0.47315872
87	0x3ee66981	0.45002368
88	0xbed7f530	-0.4217925
89	0xbe3b7b3d	-0.1830873
90	0xbeaee451	-0.34158567
91	0x3ef2615d	0.47339907
92	0xbe596382	-0.21229365
93	0xbe6d2e40	-0.23162174
94	0x3e835ed6	0.25658292
95	0xbe65de73	-0.22448139
96	0xbe788a5c	-0.2427153
97	0xbd2a480e	-0.041572623
98	0xbd5b2388	-0.053500682
99	0xbec76b22	-0.38948923
100	0x3ed5a387	0.41726324
101	0xbe6f7e84	-0.23388106
102	0x3e3b77f9	0.18307485
103	0x3edf0ee4	0.43566048
104	0x3e80dc0c	0.25167882
105	0x3d898c2e	0.0671619
106	0x3ed901a7	0.42384073
107	0x3d8496a8	0.06474048
108	0xbe6dfeec	-0.23241776
109	0x3ef20d22	0.47275645
110	0x3dffdcab	0.12493261
111	0xbef9c638	-0.4878404
112	0xbe1d0147	-0.15332519
113	0xbeae60fe	-0.34058374
114	0x3ee7d622	0.45280558
115	0xbd9e4f3d	-0.07729957
116	0xbee959b2	-0.45576245
117	0xbced4ae7	-0.02896638
118	0x3ea11993	0.31464824
119	0x3e024729	0.12722458
120	0x3e2633a2	0.16230634
121	0x3d47e642	0.048803575
122	0x3e3e20ac	0.18567151
123	0xbe0546fd	-0.13015361
124	0xbe46560e	-0.19368765
125	0xbeef490e	-0.46735424
126	0xbebe2278	-0.37135673
127	0x3e5d3e91	0.21605898

bn1.weight f4 [128]
0	0x3f809013	1.0043968
1	0x3f800000	1.0
2	0x3f8150e4	1.0102811
3	0x3f7eb3c2	0.9949304
4	0x3f80b975	1.0056597
5	0x3f7de91d	0.9918383
6	0x3f8130a4	1.0092969
7	0x3f806bb7	1.0032872
8	0x3f80c6ac	1.006063
9	0x3f7e2509	0.9927526
10	0x3f7ebf14	0.9951031
11	0x3f800000	1.0
12	0x3f800000	1.0
13	0x3f7e9d9d	0.9945925
14	0x3f7f2dbd	0.99679166
15	0x3f7f7d1a	0.99800265
16	0x3f7e92d7	0.9944281
17	0x3f7f344c	0.99689174
18	0x3f7f51b2	0.9973403
19	0x3f8138da	1.0095475
20	0x3f800000	1.0
21	0x3f800000	1.0
22	0x3f7f9836	0.9984163
23	0x3f7eb2a7	0.9949135
24	0x3f804feb	1.0024389
25	0x3f800000	1.0
26	0x3f8027fd	1.0012203
27	0x3f803928	1.0017443
28	0x3f800000	1.0
29	0x3f7e4e7e	0.9933852
30	0x3f7f7366	0.9978546
31	0x3f800000	1.0
32	0x3f7e8963	0.99428385
33	0x3f80acba	1.0052712
34	0x3f800000	1.0
35	0x3f800307	1.0000924
36	0x3f7cd82a	0.9876734
37	0x3f80e44f	1.0069674
38	0x3f800000	1.0
39	0x3f800000	1.0
40	0x3f7f3e54	0.9970448
41	0x3f800000	1.0
42	0x3f801b94	1.0008416
43	0x3f7dc851	0.99133784
44	0x3f7f7b7f	0.99797815
45	0x3f80039a	1.0001099
46	0x3f7f9c26	0.9984764
47	0x3f8041c9	1.0020076
48	0x3f800000	1.0
49	0x3f7f2288	0.99662066
50	0x3f7de7cc	0.9918182
51	0x3f807644	1.0036092
52	0x3f800000	1.0
53	0x3f80ac60	1.0052605
54	0x3f7efff7	0.9960932
55	0x3f7f7348	0.9978528
56	0x3f80cbc2	1.0062182
57	0x3f7ef4b2	0.99592125
58	0x3f7eed32	0.9958068
59	0x3f80c223	1.0059246
60	0x3f803d62	1.0018733
61	0x3f7ee79b	0.9957215
62	0x3f7fb3a3	0.9988348
63	0x3f80c3bb	1.0059732
64	0x3f803d28	1.0018663
65	0x3f800000	1.0
66	0x3f80aba7	1.0052384
67	0x3f80c651	1.0060521
68	0x3f7fb78a	0.99889433
69	0x3f800000	1.0
70	0x3f800000	1.0
71	0x3f804e00	1.0023804
72	0x3f804dc0	1.0023727
73	0x3f800000	1.0
74	0x3f7fafd6	0.9987768
75	0x3f7f571f	0.9974231
76	0x3f7f692d	0.9976986
77	0x3f8075b1	1.0035917
78	0x3f803659	1.0016586
79	0x3f800000	1.0
80	0x3f800000	1.0
81	0x3f7f88ec	0.998183
82	0x3f801d68	1.0008974
83	0x3f80c248	1.005929
84	0x3f7f1962	0.99648106
85	0x3f806b30	1.0032711
86	0x3f7e6f17	0.9938826
87	0x3f7e74a3	0.99396724
88	0x3f800000	1.0
89	0x3f805a41	1.0027543
90	0x3f802328	1.0010729
91	0x3f7f8e95	0.9982694
92	0x3f808f98	1.0043821
93	0x3f7f3342	0.9968759
94	0x3f8079c6	1.0037162
95	0x3f7f8c74	0.9982369
96	0x3f8000d0	1.0000248
97	0x3f7fc9d0	0.99917316
98	0x3f7da676	0.99082124
99	0x3f800000	1.0
100	0x3f80960b	1.004579
101	0x3f7e82c3	0.99418277
102	0x3f803336	1.0015628
103	0x3f80c6ec	1.0060706
104	0x3f8095e5	1.0045744
105	0x3f807e89	1.0038615
106	0x3f7e2755	0.99278766
107	0x3f805b0e	1.0027788
108	0x3f8057f0	1.0026836
109	0x3f805f3f	1.0029067
110	0x3f807106	1.0034492
111	0x3f800000	1.0
112	0x3f809a51	1.0047094
113	0x3f800000	1.0
114	0x3f80a2b7	1.0049657
115	0x3f80448e	1.0020921
116	0x3f800000	1.0
117	0x3f808295	1.003985
118	0x3f7ec617	0.9952101
119	0x3f7f6ccb	0.9977538
120	0x3f804231	1.00202
121	0x3f80c9fb	1.006164
122	0x3f80a09e	1.0049016
123	0x3f7d9c39	0.990665
124	0x3f7f7f50	0.9980364
125	0x3f800000	1.0
126	0x3f7e14a7	0.9925026
127	0x3f7ea003	0.9946291

bn1.bias f4 [128]
0	0xbba4255e	-0.0050093373
1	0x3a9d98f9	0.0012023739
2	0xbaccddfb	-0.001563012
3	0x3c3dc740	0.011583149
4	0xbb9782bc	-0.004623739
5	0xbbd7cded	-0.0065858276
6	0xbbb2b944	-0.0054542143
7	0xbb21cfe1	-0.0024690556
8	0x3b0c853b	0.0021441716
9	0x3b6330c1	0.003466651
10	0x3c02c067	0.007980443
11	0x3c20efbf	0.009822785
12	0x3c2e8e20	0.010654002
13	0x3b9b97fd	0.004748343
14	0xbb186e64	-0.0023259157
15	0x39e7c35d	0.0004420531
16	0xbb85af02	-0.0040797004
17	0xbab55fde	-0.0013837775
18	0x3a69840b	0.00089079206
19	0x399a6e2f	0.00029455262
20	0x3b0e244d	0.0021689117
21	0xba787715	-0.0009478194
22	0xbb9efbfb	-0.0048518158
23	0xbbb93ca1	-0.0056529795
24	0xbba0fdf7	-0.0049130875
25	0xbba7fe15	-0.0051267245
26	0x3c584915	0.013201018
27	0xbb91b0d8	-0.0044461302
28	0xbbbc040f	-0.0057377885
29	0x3bba0580	0.005676925
30	0x3c077d82	0.0082696695
31	0xbc0420ea	-0.008064488
32	0xbc07bf95	-0.008285423
33	0xba801b1d	-0.0009773705
34	0x3a6ec91f	0.0009108949
35	0x3bdda042	0.006763489
36	0x3c06b1b2	0.008221077
37	0xba8a60e3	-0.0010557439
38	0x3b8ff039	0.0043926504
39	0xbab876e0	-0.0014073513
40	0x3b89f7c2	0.0042104432
41	0x3af8e873	0.0018990174
42	0xbb158d55	-0.0022819836
43	0xbc2d3be2	-0.010573359
44	0xbbcb1858	-0.0061979704
45	0xbba4e267	-0.005031872
46	0xba9ebbab	-0.0012110373
47	0xbbc4da46	-0.0060074655
48	0xbb59a772	-0.0033211377
49	0xbbfb8446	-0.0076756803
50	0xbab75495	-0.0013986999
51	0x3c1ee954	0.009699184
52	0x3a0a322a	0.0005271757
53	0x3b61bdaf	0.0034445336
54	0xbb5a5913	-0.0033317253
55	0xbbc325af	-0.00595542
56	0xba8b261f	-0.0010616219
57	0xbc0b595a	-0.00850519
58	0x3b25d47b	0.002530365
59	0x3b8d58dd	0.004313572
60	0x3bf80592	0.0075690234
61	0x3be794e9	0.007067312
62	0x3c55ca1f	0.013048678
63	0x3b1662a0	0.0022946969
64	0x3a6f648c	0.0009132109
65	0xbbf4076f	-0.007447175
66	0x3bab4b1d	0.00522746
67	0x3b961cb6	0.0045810593
68	0xbc104c02	-0.008807184
69	0xbad798ce	-0.0016448738
70	0xbbaf7399	-0.0053543565
71	0xb88511f9	-6.345282e-05
72	0xbb436cf6	-0.0029819584
73	0xbbd04c1f	-0.0063567306
74	0xbbec79bf	-0.0072166617
75	0x3b8b0648	0.004242692
76	0xbb1bef75	-0.002379385
77	0x3b75f7cf	0.0037531739
78	0x3bd841d2	0.0065996433
79	0xbba020fc	-0.0048867445
80	0x3c31ba3c	0.010847624
81	0x3b993d1d	0.0046764747
82	0x3a4f0d34	0.0007898391
83	0x3bac027a	0.0052493187
84	0x3bc3adba	0.0059716376
85	0x3ba01672	0.004885488
86	0x3c10e9a7	0.00884477
87	0x3b620d4f	0.0034492796
88	0x3c5aa714	0.013345499
89	0xbb57fb96	-0.0032956353
90	0x3c088b87	0.008334047
91	0x3acd6730	0.0015671011
92	0xba26e898	-0.00063670566
93	0x3bb6f765	0.005583691
94	0xbb8aa10a	-0.004230623
95	0x3ba03e01	0.004890204
96	0xbc262fdb	-0.010143246
97	0x3a14b0e8	0.0005672113
98	0x3b6c9714	0.0036100792
99	0x3bfe873d	0.0077675865
100	0x3a24901f	0.0006277579
101	0xb909bf6c	-0.00013136648
102	0x3c2681da	0.010162795
103	0x3b85dea1	0.0040853773
104	0x3c333403	0.0109376935
105	0x3b6e4519	0.0036357103
106	0xbbd77073	-0.0065746843
107	0x3b199853	0.002343674
108	0x3a8cf063	0.0010752793
109	0xbbb40dd6	-0.0054948134
110	0x3b8904c3	0.004181476
111	0xbb004118	-0.001957005
112	0xb845e16d	-4.7178404e-05
113	0x3c28ae71	0.010295496
114	0xbabde951	-0.0014489089
115	0x3bbefc40	0.0058284104
116	0x3b6f7eec	0.0036544157
117	0x3b0a9c36	0.0021150238
118	0x3bd7524c	0.00657109
119	0xbac82f26	-0.001527284
120	0x3a60a3be	0.00085693214
121	0xbabc5bba	-0.0014370598
122	0x3b173859	0.0023074357
123	0x3a98ed1a	0.0011667341
124	0xbbbbf9d8	-0.005736571
125	0x3b91082c	0.004426023
126	0xbc1db866	-0.009626484
127	0x3c06522f	0.008198305

bn1.running_mean f4 [128]
0	0x3b5225d2	0.0032066
1	0x00000000	0.0
2	0x3d2b2f40	0.041793108
3	0x3d1dd2d8	0.038531154
4	0x3a5c9e2a	0.0008415902
5	0x3c44838f	0.011994257
6	0x3ee870ed	0.45398656
7	0x3b2b3554	0.0026124315
8	0x3d29e35e	0.0414766
9	0x38986a72	7.267752e-05
10	0x3e9078c0	0.28217125
11	0x00000000	0.0
12	0x00000000	0.0
13	0x3da11afe	0.078664765
14	0x3ed1a78b	0.40948138
15	0x3a963283	0.0011459145
16	0x3dfb1003	0.12258913
17	0x3a9fa9d2	0.0012181348
18	0x3f34b2b2	0.7058517
19	0x3f2562e2	0.6460401
20	0x00000000	0.0
21	0x00000000	0.0
22	0x3a90b4e2	0.0011040235
23	0x3d3ee087	0.046600845
24	0x3b01930e	0.001977149
25	0x00000000	0.0
26	0x3b61309f	0.0034361256
27	0x3d0c4270	0.034243047
28	0x00000000	0.0
29	0x3dc8a358	0.0979678
30	0x3a0aa1a4	0.00052883686
31	0x00000000	0.0
32	0x3d1d52a4	0.03840889
33	0x3ee66a6d	0.4500307
34	0x00000000	0.0
35	0x3ec36e44	0.38170063
36	0x3bacb147	0.0052701565
37	0x3e773adf	0.24143551
38	0x00000000	0.0
39	0x00000000	0.0
40	0x3e842703	0.25811014
41	0x00000000	0.0
42	0x3e303495	0.17207558
43	0x3d4e251b	0.050328355
44	0x3e25b029	0.16180481
45	0x3e186643	0.1488276
46	0x3ea27d23	0.31736097
47	0x3da78e22	0.081814066
48	0x00000000	0.0
49	0x3a93cca9	0.0011276203
50	0x3b180030	0.002319347
51	0x3d439a00	0.047754288
52	0x00000000	0.0
53	0x3f049bf0	0.5180044
54	0x3dab36c3	0.08360054
55	0x3b1e79db	0.0024181518
56	0x3dc9b94e	0.09849797
57	0x3e4b257a	0.19838515
58	0x3f00ff01	0.50389105
59	0x3ebb6d40	0.3660679
60	0x398556d5	0.00025432432
61	0x3e005c5a	0.1253523
62	0x3b000678	0.0019535106
63	0x3ef3afe6	0.47595137
64	0x3b38e339	0.0028211607
65	0x00000000	0.0
66	0x3e7aabc4	0.24479586
67	0x3f02efed	0.5114735
68	0x3b441c34	0.0029924037
69	0x00000000	0.0
70	0x00000000	0.0
71	0x3d1d4ecf	0.038405236
72	0x3b3e96c6	0.0029081567
73	0x00000000	0.0
74	0x3ed3f2fd	0.41396323
75	0x3d4072c4	0.04698445
76	0x3f0f9af2	0.560958
77	0x3e94c673	0.29057655
78	0x3e126894	0.14297706
79	0x00000000	0.0
80	0x00000000	0.0
81	0x3f25f796	0.6483091
82	0x3e3af623	0.18257956
83	0x3e49d091	0.19708468
84	0x3cc2ca28	0.023778036
85	0x3f277c11	0.65423685
86	0x3ebb4cb8	0.3658197
87	0x3e5361c6	0.20642766
88	0x00000000	0.0
89	0x3b2d0c2e	0.0026404965
90	0x3a3f07da	0.0007287242
91	0x3f2d70d8	0.6775031
92	0x3b03fa13	0.002013807
93	0x3b47f4d5	0.0030510921
94	0x3f02f743	0.5115854
95	0x3df0266b	0.11726078
96	0x3b266b4b	0.0025393541
97	0x398c4dd3	0.00026760864
98	0x3b747032	0.003729832
99	0x00000000	0.0
100	0x3edd3f5b	0.432124
101	0x3e58ad81	0.21159936
102	0x3d0c542e	0.034259968
103	0x3ee07ca3	0.4384509
104	0x3e713ea4	0.23559052
105	0x3e23a74b	0.15981786
106	0x3f15028b	0.58207005
107	0x3c025c59	0.007956588
108	0x2e1c5351	3.5544293e-11
109	0x3f38dae2	0.7220899
110	0x3cec07ea	0.028812367
111	0x00000000	0.0
112	0x3e3e883f	0.18606661
113	0x00000000	0.0
114	0x3e680f74	0.22662145
115	0x3a0f9b15	0.0005478126
116	0x00000000	0.0
117	0x3cfe7a7b	0.031064263
118	0x3f07508f	0.528573
119	0x3c472e31	0.012157009
120	0x3d4594f2	0.04823775
121	0x3e0417e2	0.12899736
122	0x3e3d7878	0.18502986
123	0x3e8791f8	0.26478553
124	0x3d825dd0	0.063655496
125	0x00000000	0.0
126	0x3ccba31b	0.024858048
127	0x3d866dce	0.06563912

bn1.running_var f4 [128]
0	0x3a8db455	0.001081119
1	0x00000004	6e-45
2	0x3b1f9ba5	0.0024354246
3	0x3ba6db15	0.0050920346
4	0x389c2d82	7.447136e-05
5	0x3a1d2942	0.00059952226
6	0x3d4e290f	0.050332125
7	0x3a02eb37	0.0004994156
8	0x3b9d0fb3	0.0047931313
9	0x3615c1be	2.2315503e-06
10	0x3b5806d9	0.0032963066
11	0x00000004	6e-45
12	0x00000004	6e-45
13	0x3bcd56bf	0.0062664445
14	0x3cf99774	0.030467726
15	0x3910c601	0.00013806672
16	0x3ac0975d	0.0014693547
17	0x3923995c	0.00015602022
18	0x3d60e597	0.054906454
19	0x3b7d7ff5	0.0038681005
20	0x00000004	6e-45
21	0x00000004	6e-45
22	0x37ca51b1	2.4118317e-05
23	0x3b79b9b3	0.003810507
24	0x39d77e34	0.00041102024
25	0x00000004	6e-45
26	0x3aa2b793	0.0012414329
27	0x3af2258a	0.0018474322
28	0x00000004	6e-45
29	0x3ac1d5b6	0.0014788422
30	0x37f6ab9e	2.94054e-05
31	0x00000004	6e-45
32	0x3afd5f97	0.0019330856
33	0x3cea7f68	0.028625205
34	0x00000004	6e-45
35	0x3d8857ae	0.066573486
36	0x38f251cb	0.00011554694
37	0x3d740276	0.05957266
38	0x00000004	6e-45
39	0x00000004	6e-45
40	0x3d6cdadb	0.057825904
41	0x00000004	6e-45
42	0x3cda39c4	0.026638873
43	0x3b7cc9d2	0.0038572443
44	0x3cd8fa54	0.026486553
45	0x3cb7123b	0.02234756
46	0x3b57f491	0.003295217
47	0x3be3d1b6	0.0069524897
48	0x00000004	6e-45
49	0x390c3003	0.00013369326
50	0x3a14454a	0.0005656077
51	0x3be790d1	0.007066824
52	0x00000004	6e-45
53	0x39964097	0.00028658353
54	0x3bebe3da	0.007198793
55	0x3897b181	7.233304e-05
56	0x3c99efa4	0.018791027
57	0x39ea82ae	0.00044729322
58	0x3cce2695	0.025164882
59	0x3c2c0909	0.010500201
60	0x36e4367e	6.8012732e-06
61	0x3c8a40f7	0.01687668
62	0x39d25f0e	0.00040125143
63	0x3ca13aa5	0.019681284
64	0x3a53f49b	0.000808546
65	0x00000004	6e-45
66	0x3ba24a66	0.0049527166
67	0x3c4adf72	0.012382375
68	0x3a718a39	0.0009214017
69	0x00000004	6e-45
70	0x00000004	6e-45
71	0x3b318bac	0.0027091308
72	0x3a691c13	0.0008892428
73	0x00000004	6e-45
74	0x3c9f8a69	0.019475179
75	0x3ba74eba	0.0051058205
76	0x3ba3ad90	0.0049950555
77	0x3d22fcd1	0.039791886
78	0x3c2500da	0.010071004
79	0x00000004	6e-45
80	0x00000004	6e-45
81	0x3cd95228	0.026528433
82	0x3d0e7915	0.03478344
83	0x3cd2a10a	0.025711555
84	0x3a822bd4	0.0009931275
85	0x3d2e4ac1	0.04255176
86	0x3c74a943	0.014932933
87	0x3c808564	0.015688606
88	0x00000004	6e-45
89	0x3a402cad	0.0007330876
90	0x386a31fb	5.5836495e-05
91	0x3d426019	0.047454927
92	0x39df8ef8	0.00042640395
93	0x3a804b24	0.0009788019
94	0x3d2a0de7	0.041517165
95	0x3c404a71	0.011736498
96	0x388b5ead	6.645671e-05
97	0x36ffca7c	7.6231645e-06
98	0x3aa8e068	0.0012884261
99	0x00000004	6e-45
100	0x3c41b8fb	0.011823888
101	0x3d3ab110	0.045579016
102	0x3b9fe24f	0.004879273
103	0x3ce20907	0.027592195
104	0x3a042641	0.00050411007
105	0x3aa80e0e	0.0012821571
106	0x3baa9834	0.0052061323
107	0x3b33c82d	0.0027432546
108	0x2805aff8	7.42114e-15
109	0x3cbe9fb7	0.023269517
110	0x3b431071	0.0029764439
111	0x00000004	6e-45
112	0x3d0fa30d	0.035067607
113	0x00000004	6e-45
114	0x3d2ac202	0.041688927
115	0x37a85f6a	2.0071591e-05
116	0x00000004	6e-45
117	0x3a857932	0.0010183214
118	0x3c61355b	0.013745631
119	0x3b906fcc	0.0044078585
120	0x3bcc2d1c	0.0062309634
121	0x3c86e401	0.016466143
122	0x3b1c41a9	0.0023842847
123	0x3d4c7816	0.04991921
124	0x3b8b7fe2	0.004257188
125	0x00000004	6e-45
126	0x3aa06bdf	0.0012239179
127	0x3bc13c3f	0.0058970745

fc2.weight f4 [64, 128]
0	0xbd5a6a4c	-0.05332403
1	0x3c023d02	0.007949116
2	0x3d0108bf	0.03150248
3	0x3c2b138f	0.010441675
4	0xbd6f1127	-0.058365967
5	0x3db2d37a	0.08731742
6	0xbd63efbb	-0.055648547
7	0x3d93813d	0.072023846
8	0xbd87742c	-0.06613955
9	0xbcae5460	-0.021280468
10	0x3d24f7e1	0.04027546
11	0xbd253757	-0.04033598
12	0x3d9887c0	0.07447767
13	0xbd861c2a	-0.065483406
14	0xbd90032b	-0.07031854
15	0xbd27c4d2	-0.040959187
16	0x3ca2c99a	0.019871522
17	0x3da4f498	0.08054465
18	0xbd3d49c3	-0.046212923
19	0x3d11644f	0.035496052
20	0xbcd882f1	-0.026429625
21	0xbc62cee4	-0.013843272
22	0x3d965f65	0.07342414
23	0xbd81f0d2	-0.06344761
24	0x3c0997d4	0.008398015
25	0x3db5b7fe	0.08872984
26	0xbc53f3ff	-0.012936591
27	0x3d93b74a	0.07212694
28	0xbcc24063	-0.023712343
29	0x3d88dae1	0.06682373
30	0xbdb1bb6b	-0.08678325
31	0xbc560131	-0.0130618075
32	0xbc2b4608	-0.0104537085
33	0x3cc7130a	0.02430107
34	0x3cd14df2	0.025549863
35	0x3d825c5c	0.063652724
36	0xbc82582e	-0.015911188
37	0x3a3589b3	0.0006925121
38	0x3d675ba4	0.05648388
39	0xbcf183cb	-0.02948179
40	0x3da7576a	0.0817097
41	0xbd82b802	-0.06382753
42	0xbc5dd079	-0.013538473
43	0x3a49cfee	0.00076985254
44	0x3d0c966b	0.034323137
45	0x3d638431	0.05554599
46	0xbc0d85a2	-0.008637818
47	0xbd9ba768	-0.076002896
48	0x3d43b3cb	0.047778886
49	0x3ccf3b37	0.02529679
50	0x3d0d8474	0.034550145
51	0xbd56a7d0	-0.052406132
52	0x3d45b4e9	0.048268232
53	0x3db50ba5	0.08840112
54	0x3b4715db	0.0030378017
55	0xbdb01205	-0.08597187
56	0x3d85541b	0.065101825
57	0xbd936335	-0.071966566
58	0x3c86f279	0.016473042
59	0x3c8903bd	0.016725415
60	0xbd3145c3	-0.04327942
61	0x3ca1d35e	0.019754108
62	0xbda25397	-0.079261
63	0x3cc7cdf9	0.024390208
64	0xbd67d912	-0.0566035
65	0xbbbb304b	-0.005712544
66	0x3c7c3f32	0.015395926
67	0x3da410cb	0.080110155
68	0xbd2f2ffc	-0.04277037
69	0x3d7bb95c	0.06145607
70	0xbc45ec9a	-0.012080336
71	0xbd2276eb	-0.03966419
72	0xbd9f596c	-0.07780728
73	0xbd9e412f	-0.077272765
74	0x3da45866	0.08024673
75	0xbc9db8b9	-0.019253122
76	0x3bf41a36	0.0074494136
77	0x3ce6dfda	0.028182913
78	0x3d609025	0.054824967
79	0x3da24432	0.079231635
80	0x3d92b86a	0.071640804
81	0xbd8e3063	-0.06942823
82	0xbc1586bf	-0.009126364
83	0xbd42c6c4	-0.04755284
84	0xbd5a7757	-0.053336468
85	0x3c8709e7	0.016484214
86	0x3da1e9a7	0.07905894
87	0xbd873819	-0.06602497
88	0x3d51ab6d	0.051188875
89	0xbd3ef22a	-0.046617664
90	0xbc95f74b	-0.018306395
91	0x3d8787d7	0.06617706
92	0xbcaa49c8	-0.020787135
93	0x3be8169b	0.007082773
94	0xbd86e58f	-0.065867536
95	0x3d8d1944	0.06889585
96	0xbc48e589	-0.012261757
97	0xbd83a51e	-0.06427978
98	0x3cc4fcde	0.024046358
99	0xbd88e6be	-0.066846356
100	0xbd8672ef	-0.065648906
101	0xb9888098	-0.0002603575
102	0x3d94cbee	0.07265459
103	0xbca8fae2	-0.020627443
104	0x3d102521	0.03519166
105	0x3da2e3ea	0.079536274
106	0x3d80becb	0.06286391
107	0xbd3d20ca	-0.04617385
108	0xbc057360	-0.008145183
109	0xbd0786c6	-0.033087514
110	0xbd88b9b0	-0.06676042
111	0xbb7b1adf	-0.0038315577
112	0x3d7958be	0.060875647
113	0x3d958a02	0.073017135
114	0x3c51603f	0.0127792945
115	0x3c9f06f0	0.019412488
116	0xbd28f902	-0.041253097
117	0x3d80a4ec	0.06281456
118	0xbd295413	-0.041339945
119	0xbd7b6d2d	-0.061383415
120	0x3c93f345	0.018060336
121	0x3d4b89df	0.04969203
122	0xbd9b7d88	-0.075923026
123	0x3d994375	0.074835695
124	0x3cde5248	0.027138844
125	0xbd45ecd9	-0.04832158
126	0xbc980527	-0.018557144
127	0x3da41840	0.08012438
128	0xbd91ad98	-0.071131885
129	0xbc924c8d	-0.017858768
130	0x3cd4e02d	0.025985802
131	0xbda52841	-0.080643184
132	0x3d3936b7	0.045218196
133	0x3d314400	0.04327774
134	0x3d6cc950	0.057809174
135	0xbd7479d4	-0.059686497
136	0x3dad8c01	0.08473969
137	0xbd4c9c0d	-0.04995351
138	0x3dbc6166	0.09198265
139	0xbd925255	-0.0714461
140	0xbd8ce668	-0.06879884
141	0x3d6b1686	0.057394527
142	0x3bd681db	0.0065462417
143	0x3af09c90	0.0018357206
144	0xbd379442	-0.044819124
145	0xbd25560b	-0.04036526
146	0xbcbd105e	-0.023079094
147	0xbda730bb	-0.081635915
148	0x3c58f37f	0.013241648
149	0x3c06ec97	0.008235118
150	0x3b84abf3	0.0040488183
151	0x3ccf38ea	0.025295693
152	0x3da4fac4	0.08055642
153	0x3c65f947	0.014036483
154	0xbd121809	-0.035667453
155	0xbd21b932	-0.039483257
156	0xbd88569b	-0.06657144
157	0xbd6e70f1	-0.058213178
158	0xbc8e4506	-0.017366897
159	0xbcc37862	-0.023861114
160	0x3d160136	0.03662225
161	0xbd0e3935	-0.034722526
162	0x3d9b834d	0.07593403
163	0xbd71f56f	-0.059071954
164	0x3b39fdcb	0.0028380032
165	0x3d9cc51c	0.07654783
166	0x3dc7022f	0.09717213
167	0xbd714e59	-0.05891261
168	0x3c5140b5	0.012771775
169	0x3c93c340	0.018037438
170	0xbd1d8773	-0.038459253
171	0xbd0a5b6b	-0.03377859
172	0x3cdf84fa	0.027285088
173	0xbd6e661a	-0.05820284
174	0x3c35fdba	0.011107856
175	0x3d2474cf	0.04015046
176	0xbd2d24d0	-0.042271435
177	0x3d8fa7df	0.07014441
178	0xbc158fc0	-0.009128511
179	0x3d187634	0.037222102
180	0x3dbd9190	0.092562795
181	0xbcb58870	-0.022159785
182	0x3d52876f	0.05139869
183	0xbc9bfe45	-0.019042144
184	0xbc82b6f6	-0.015956383
185	0xbc8b9752	-0.017039929
186	0x3b05031d	0.0020296045
187	0xbd139740	-0.036032915
188	0x3c9214b9	0.017832147
189	0x3bec17c1	0.00720498
190	0x3d57f6bb	0.052725535
191	0xbcab4a12	-0.020909343
192	0x3bb552ca	0.005533551
193	0xbd317029	-0.043319855
194	0xbd9d5b4a	-0.07683428
195	0x3d050186	0.032472156
196	0x3c02b437	0.007977537
197	0xbd31357c	-0.043263897
198	0xbd1cde82	-0.038298137
199	0x3ca5b1e2	0.020226423
200	0xbc9e2431	-0.019304367
201	0x3d44a4e1	0.048008803
202	0x3c0e1456	0.008671841
203	0x3cf814a1	0.030283274
204	0x3d2e5d00	0.04256916
205	0xbcca0a21	-0.024663033
206	0x3d2ae1e8	0.041719347
207	0x3d62a23b	0.055330496
208	0x3c6fc607	0.014634616
209	0x3ca33178	0.01992105
210	0x3888dbca	6.525924e-05
211	0x3d6d4aac	0.05793254
212	0xbd175f1a	-0.03695593
213	0xbd339aab	-0.043848675
214	0x3d2855b5	0.04109736
215	0xbda48630	-0.08033407
216	0x3c5859e1	0.013205023
217	0xbd34175f	-0.0439676
218	0x3d61f31d	0.05516349
219	0xbda2fe14	-0.07958618
220	0x3d4df70e	0.050284438
221	0x3dac4f3f	0.084135525
222	0x3ca91f71	0.020644875
223	0xbb177989	-0.0023113212
224	0x3db0a90d	0.08625994
225	0xbd202ae6	-0.03910341
226	0xbc2ab800	-0.010419846
227	0xbce63ff4	-0.028106667
228	0xbc7bae34	-0.0153613575
229	0x3cb9d982	0.022686724
230	0x3c10948e	0.008824481
231	0xbca21aa7	-0.0197881
232	0xbdad1020	-0.08450341
233	0x3c150ad8	0.009096824
234	0x37187bb0	9.088704e-06
235	0x3c23bf9f	0.0099944165
236	0x3d9053cd	0.07047234
237	0x3db7058a	0.08936603
238	0xbd638571	-0.05554718
239	0xbaddecc3	-0.0016931522
240	0xbd0294d9	-0.031880233
241	0xbd8ee47a	-0.06977172
242	0xbd8a0e34	-0.0674099
243	0x3db40472	0.087899104
244	0x3d76f4b5	0.060291965
245	0x3d503905	0.050835628
246	0x3d5699f3	0.05239291
247	0xbd968390	-0.07349312
248	0x3bc2fc67	0.005950499
249	0x3dad8a8b	0.084736906
250	0xbd54bd1d	-0.051938165
251	0x3da80d66	0.082056805
252	0x3cdaac59	0.02669351
253	0x3d811614	0.06303039
254	0xbd04b141	-0.032395605
255	0x3d1aba4a	0.037775315

fc2.bias f4 [64]
0	0x3c328658	0.010896288
1	0x3d9f2c65	0.077721395
2	0x3d460f0c	0.048354194
3	0xbd4ae722	-0.04953683
4	0xbd14fe33	-0.036375236
5	0x3ca38696	0.019961637
6	0xbd55007d	-0.05200242
7	0xbc0f30d6	-0.008739671
8	0x3cfb7035	0.030693153
9	0xbd098484	-0.033573642
10	0x3ce235f9	0.027613627
11	0x3ae2a087	0.0017290273
12	0x3db04d4d	0.08608494
13	0xbd9e1cac	-0.077203125
14	0x3d903ed2	0.07043232
15	0x3d9474d0	0.07248843
16	0xbd867887	-0.065659575
17	0x3c8c599e	0.017132577
18	0xbc5f2303	-0.013619187
19	0x3d27695e	0.04087197
20	0x3d8a6046	0.06756644
21	0xbd450d1b	-0.0481082
22	0xbd3acdb6	-0.045606337
23	0xbd8bc2c4	-0.06824258
24	0x3d80b909	0.06285293
25	0xbd8715f4	-0.06595984
26	0xbd74819b	-0.059693914
27	0x3d9b6c0d	0.075889684
28	0x3d3fe3e1	0.04684818
29	0x3d8564c3	0.065133594
30	0x3d69b399	0.057056043
31	0xbd99078f	-0.07472145
32	0xbc94abe2	-0.018148366
33	0xbbaebbe3	-0.0053324564
34	0x3dad2fce	0.08456384
35	0xbc8d2f11	-0.017234357
36	0xbc6178a0	-0.013761669
37	0x3d56090f	0.052254733
38	0x3d50df2d	0.050994087
39	0xbd635d1c	-0.055508718
40	0xbd8223ed	-0.063545085
41	0xbce7d9f5	-0.028302172
42	0x3d09125a	0.033464767
43	0x3db47a88	0.088124335
44	0x3d1390ac	0.03602664
45	0x3d46bd73	0.048520517
46	0x3d10775b	0.035270076
47	0xbca92132	-0.020645712
48	0xbc5cd59f	-0.013478666
49	0x3d98ec53	0.0746695
50	0x3cb9a3f9	0.022661196
51	0x3c34ac21	0.011027367
52	0x3d76ad1b	0.06022368
53	0x3d554996	0.05207213
54	0x3c96c1bf	0.018402932
55	0xbc4b92d4	-0.012425143
56	0xbd0c0e38	-0.034193248
57	0xbd4569af	-0.04819649
58	0xbd388ce9	-0.045056257
59	0x3da08dda	0.07839556
60	0x3d87c2af	0.0662893
61	0xbd253c40	-0.040340662
62	0x3d65ffdf	0.05615222
63	0xbcc7b03b	-0.024376025

bn2.weight f4 [64]
0	0x3f7eb6ee	0.9949788
1	0x3f80d8b2	1.006613
2	0x3f80f4c7	1.00747
3	0x3f7e9d10	0.9945841
4	0x3f7dee63	0.99191874
5	0x3f7f5e73	0.99753493
6	0x3f7eefeb	0.99584836
7	0x3f7eca1a	0.9952713
8	0x3f80dc6d	1.0067269
9	0x3f7f6434	0.9976227
10	0x3f7f7a73	0.9979622
11	0x3f80be00	1.0057983
12	0x3f80a811	1.005129
13	0x3f7e0ac2	0.99235165
14	0x3f7ec92e	0.99525726
15	0x3f80d1cb	1.0064024
16	0x3f8099f1	1.0046979
17	0x3f7f714b	0.99782246
18	0x3f7f598f	0.9974603
19	0x3f7f7a5e	0.9979609
20	0x3f80c064	1.0058713
21	0x3f80dbfd	1.0067135
22	0x3f80c6e9	1.0060703
23	0x3f7fa85a	0.9986626
24	0x3f80e0b4	1.0068574
25	0x3f80eca7	1.007222
26	0x3f7e9b0c	0.9945533
27	0x3f7e8fd8	0.9943824
28	0x3f8124c7	1.0089349
29	0x3f80c83d	1.0061108
30	0x3f82b3c9	1.0211116
31	0x3f807417	1.0035428
32	0x3f80c754	1.006083
33	0x3f80f76d	1.0075508
34	0x3f7f2f22	0.99681294
35	0x3f806d70	1.0033398
36	0x3f7e2ca8	0.9928689
37	0x3f812a81	1.0091096
38	0x3f8112c2	1.008385
39	0x3f810ac0	1.0081406
40	0x3f80a83b	1.005134
41	0x3f80bd59	1.0057784
42	0x3f7fd035	0.99927074
43	0x3f80d763	1.0065731
44	0x3f7ebe25	0.9950889
45	0x3f7ea411	0.99469095
46	0x3f7e8930	0.9942808
47	0x3f810c9f	1.0081977
48	0x3f800f78	1.0004721
49	0x3f802f29	1.0014392
50	0x3f80cc81	1.006241
51	0x3f80df18	1.0068083
52	0x3f7e8b55	0.99431354
53	0x3f7f962b	0.99838513
54	0x3f7fa7f8	0.99865675
55	0x3f7e892c	0.9942806
56	0x3f812258	1.0088606
57	0x3f80cfa2	1.0063365
58	0x3f8065d3	1.0031074
59	0x3f7e951a	0.9944626
60	0x3f807d73	1.0038284
61	0x3f7ee194	0.99562955
62	0x3f810997	1.0081052
63	0x3f812506	1.0089424

bn2.bias f4 [64]
0	0x3dd36b83	0.103232406
1	0xbdcf8fb6	-0.101348326
2	0x3dbe723c	0.09299132
3	0x3dc11956	0.094286606
4	0x3e02b69b	0.12764971
5	0x3dd18b8c	0.102316946
6	0xbdc9a4c9	-0.098458834
7	0x3de47752	0.11155571
8	0x3dc8ba85	0.09801201
9	0x3dcb889d	0.09938166
10	0xbdc6fbc8	-0.09715992
11	0xbdce9479	-0.10086913
12	0x3dc36592	0.095408574
13	0x3dc6cdbb	0.09707209
14	0x3dc88637	0.097912244
15	0xbdbf75cf	-0.09348642
16	0xbdc27784	-0.09495452
17	0xbdd60c0e	-0.10451518
18	0xbdca93ac	-0.098914474
19	0xbddfc667	-0.10926514
20	0xbdc1209e	-0.09430049
21	0x3dbe7f80	0.093016624
22	0xbdc1fcd7	-0.094720535
23	0xbdc526f1	-0.09626568
24	0xbdd27e29	-0.102779694
25	0xbdcd83a0	-0.10034871
26	0x3ddbe485	0.10736946
27	0x3dc29505	0.095010795
28	0x3ddb31c4	0.107028514
29	0x3dc3b746	0.09556441
30	0x3e190950	0.14944959
31	0xbdcccc1d	-0.09999869
32	0xbdd66203	-0.10467913
33	0x3e11e2d6	0.14246687
34	0xbdc7f44a	-0.09763391
35	0x3dc1a04b	0.094544016
36	0x3dc05403	0.09391024
37	0x3dc2bb3c	0.095083684
38	0xbdc18acb	-0.09450301
39	0x3dc11942	0.09428646
40	0xbdc44bf5	-0.095848
41	0xbdc395d9	-0.095500655
42	0x3dd39d0a	0.10332687
43	0x3de1c4c4	0.11023858
44	0xbdc378ed	-0.09544549
45	0x3dbf7d6f	0.093500964
46	0x3dc5f503	0.09665873
47	0x3ddf8692	0.10914339
48	0x3df7d03f	0.12100267
49	0x3dd778f9	0.105211206
50	0xbdf0e9fd	-0.1176338
51	0xbdd684d2	-0.10474552
52	0xbdbf37fb	-0.09336849
53	0xbdd155ea	-0.10221465
54	0xbdc38a32	-0.09547843
55	0x3dc68e95	0.09695164
56	0xbe08b3d8	-0.13349855
57	0xbdd27ca0	-0.102776766
58	0xbde5eea0	-0.11227155
59	0x3dc73231	0.0972637
60	0xbdc7ddb6	-0.09759085
61	0x3dc8e919	0.09810085
62	0x3dc336fb	0.09531971
63	0x3dbf04dd	0.093270995

bn2.running_mean f4 [64]
0	0x3e90ca4c	0.2827934
1	0x3e5f7205	0.21820839
2	0x3dcd9fe8	0.10040265
3	0x3e243da8	0.16039145
4	0x3e0d9256	0.13825354
5	0x3e3fd27f	0.18732642
6	0x3db367da	0.087600425
7	0x3e3a3eb2	0.18187979
8	0x3ec34327	0.3813717
9	0x3da0a6f4	0.07844344
10	0x3e4d02d6	0.20020613
11	0x3e10e6d4	0.14150554
12	0x3e3939a9	0.18088402
13	0x3da947e4	0.08265665
14	0x3e122d9f	0.14275216
15	0x3e02835c	0.12745422
16	0x3e560c2a	0.20903078
17	0x3dad4c03	0.08461764
18	0x3e2fdaf6	0.1717337
19	0x3e068ee7	0.1314045
20	0x3ef00b43	0.46883592
21	0x3e014e27	0.12627469
22	0x3e275656	0.16341528
23	0x3d98f6bf	0.07468938
24	0x3e52acd8	0.20573747
25	0x3e13cbae	0.14433166
26	0x3daf6f72	0.085661784
27	0x3ead3001	0.33825687
28	0x3e1bf0e9	0.15228619
29	0x3ebdbbf4	0.3705746
30	0x3e2d318c	0.16913432
31	0x3de7b83d	0.113144375
32	0x3e91de00	0.28489685
33	0x3e0983fd	0.13429256
34	0x3e05bc36	0.13060078
35	0x3d9c3c92	0.0762874
36	0x3d97ad79	0.07406134
37	0x3e2cc424	0.16871697
38	0x3dcd9e57	0.100399666
39	0x3df0ddaa	0.11761029
40	0x3e5ce31d	0.21571012
41	0x3e425b8d	0.18980236
42	0x3e2432db	0.16035025
43	0x3ebc9fb5	0.36840597
44	0x3e199990	0.14999986
45	0x3e012b97	0.12614284
46	0x3e826305	0.2546617
47	0x3e81cc5b	0.25351223
48	0x3de60409	0.112312384
49	0x3df43e31	0.119259246
50	0x3ea75bb2	0.32687145
51	0x3e3a121f	0.18170975
52	0x3edf512c	0.43616617
53	0x3e3029f3	0.17203502
54	0x3e0bfc62	0.13670495
55	0x3e754440	0.23951817
56	0x3e7470ea	0.23871198
57	0x3e995908	0.29950738
58	0x3e85ec5d	0.26156893
59	0x3f415924	0.7552664
60	0x3e20ffe5	0.15722616
61	0x3e8f8da2	0.28037745
62	0x3e35635a	0.17713681
63	0x3df52e5d	0.11971734

bn2.running_var f4 [64]
0	0x3e160afd	0.14652629
1	0x3d5e5348	0.054278642
2	0x3c13dd2f	0.009024902
3	0x3cf3d83f	0.0297662
4	0x3d8b71c5	0.06808809
5	0x3d2309c4	0.039804235
6	0x3d67a3a0	0.05655253
7	0x3da19b46	0.07890944
8	0x3e28b955	0.16476949
9	0x3d41b87c	0.04729508
10	0x3df8c3f5	0.12146751
11	0x3d05bbae	0.03264969
12	0x3d250103	0.040284168
13	0x3e0b4a32	0.13602522
14	0x3e098097	0.1342796
15	0x3c953936	0.018215757
16	0x3d3a6913	0.045510363
17	0x3ca188b6	0.01971851
18	0x3d68912c	0.05677907
19	0x3cd92b7e	0.026509997
20	0x3e6c4ac4	0.23075396
21	0x3d007902	0.031365402
22	0x3cea1c59	0.02857797
23	0x3c069601	0.008214475
24	0x3d40a55a	0.04703269
25	0x3e151645	0.14559276
26	0x3cf50655	0.029910246
27	0x3df10408	0.11768347
28	0x3d0570e3	0.03257836
29	0x3e24cff7	0.16094957
30	0x3cf80439	0.030275451
31	0x3cb8b19f	0.022545634
32	0x3db47e25	0.08813123
33	0x3cb7f306	0.02245475
34	0x3c99894b	0.018742224
35	0x3c3ef760	0.0116556585
36	0x3c687246	0.014187401
37	0x3cd96acc	0.026540183
38	0x3c960cbd	0.018316621
39	0x3c9cb453	0.019128954
40	0x3d5f199c	0.054467782
41	0x3d4c89d2	0.049936123
42	0x3d149a7c	0.03628014
43	0x3e218653	0.15773897
44	0x3dfee2ea	0.12445624
45	0x3e04513e	0.12921616
46	0x3e08ec70	0.13371444
47	0x3dcf2c9e	0.10115932
48	0x3c8b3145	0.016991267
49	0x3c9340db	0.017975261
50	0x3e02ad4a	0.12761417
51	0x3f252acd	0.64518434
52	0x3e556094	0.20837623
53	0x3d16891e	0.03675186
54	0x3d0b6b02	0.034037597
55	0x3de7ff23	0.1132796
56	0x3d9bed4f	0.076136224
57	0x3de92df4	0.11385718
58	0x3e142b88	0.14469731
59	0x3f16afff	0.588623
60	0x3d399b32	0.04531402
61	0x3dd35bcd	0.10320244
62	0x3ca41c36	0.020032983
63	0x3cda3d4b	0.026640555

fc3.weight f4 [1, 64]
0	0xbd6d588d	-0.057945777
1	0x3da310b9	0.07962174
2	0xbe0333a6	-0.12812671
3	0xbdc08b8d	-0.09401617
4	0xbdab4661	-0.08363033
5	0xbd8ffaef	-0.07030284
6	0x3dc80868	0.09767228
7	0xbd9a43ae	-0.0753244
8	0xbe2d36cf	-0.16915439
9	0xbe330932	-0.17483976
10	0x3e35fb6a	0.17771688
11	0x3dddde24	0.108333856
12	0xbe336dd9	-0.17522372
13	0xbe18b1d1	-0.14911582
14	0xbdf1be3b	-0.11803862
15	0x3e16309c	0.1466698
16	0x3dc67736	0.096907064
17	0x3da87dc9	0.082271166
18	0x3de7f30e	0.11325656
19	0x3d49ffd0	0.049316227
20	0x3df770d2	0.12082066
21	0xbe024c93	-0.12724523
22	0x3e0b39ce	0.1359627
23	0x3da0e9da	0.07857104
24	0x3db5c621	0.08875681
25	0x3e13d24b	0.14435689
26	0xbd53885d	-0.051643718
27	0xbd9f402d	-0.077759124
28	0xbdb60932	-0.088884726
29	0xbe0a654f	-0.13515209
30	0xbd991ef0	-0.07476604
31	0x3de7af70	0.11312759
32	0x3d6a43f5	0.057193715
33	0xbd85f773	-0.06541338
34	0x3d8e4916	0.06947534
35	0xbe189448	-0.14900315
36	0xbdd482bf	-0.103765
37	0xbe1a0144	-0.15039545
38	0x3e2cc1e5	0.1687084
39	0xbe1cd7b8	-0.15316665
40	0x3db63e5e	0.08898614
41	0x3e04965d	0.12947984
42	0xbd8a21c6	-0.06744723
43	0xbd82f67a	-0.06394668
44	0x3e0f1c37	0.13975607
45	0xbe00c2cf	-0.12574314
46	0xbe350429	-0.17677368
47	0xbd6dd92b	-0.058068436
48	0xbd857d98	-0.06518096
49	0xbdd99fc2	-0.106261745
50	0x3d4c5dbb	0.049894076
51	0x3e151d5e	0.14561984
52	0x3da59ab0	0.08086145
53	0x3d8850b6	0.066560194
54	0x3df7630e	0.1207944
55	0xbdac1a07	-0.08403402
56	0x3dbcd406	0.09220128
57	0x3db6803c	0.089111775
58	0x3dec12bf	0.11527013
59	0xbd840d48	-0.06447846
60	0x3e1e5ebd	0.15465827
61	0xbe144dbc	-0.14482778
62	0xbdb0b7f3	-0.086288355
63	0xbe1cc896	-0.15310892
