PreTrained/cstr_ode/Deep_DQN/0_7/400.pth (torch, 43158 bytes, 13 tensors)

fc1.weight f4 [128, 4]
00000000: 12a1 3bbb 996b 843e 9633 ccbe 6386 c5be
00000010: f432 45be ec4b 093e 404f 22bc cefa ca3e
00000020: e7e9 27bd e3a0 023e 760b 16be 0c5d b5bd
00000030: b6ce f5be 7ad0 a7be 616e 57be 0bad 703c
00000040: c7c1 463e e26e 9b3e 5b61 afbe 8789 59be
00000050: 9a7c 333e 803a d73e 919e edbd 5c91 bf3e
00000060: 8a24 afbd 8514 883d ce75 e63e 2a73 f1be
00000070: d67e a3be 5df3 05be 8b81 47be 282f dd3e
00000080: ef43 a8be ff0c 6abe 3a32 a9be f911 edbe
00000090: f16b 97be 1147 da3e ef28 5e3e 0027 783e
000000a0: 6222 163d 59f6 83be 7753 ad3d f837 e4be
000000b0: 1afa b8be c6f9 83be 2685 a13e 2619 963e
000000c0: c811 63be 20cb 93bc 40ba a33e 827f fe3e
000000d0: a283 4b3e d8d5 613d 0a47 b03e e016 98be
000000e0: f2c5 b83d dd7e c6be 8859 b3be 0c19 7dbe
000000f0: 6534 6c3e 1c5e 493e 765f 95be c8ad 1a3e
00000100: d119 863e 1327 22bd 1734 083d 0044 ed3d
00000110: 10ba 9d3e 38e6 f63e 865e c6be 919d 3abe
00000120: 41ab 4d3e 9c43 d23e 6daa df3e 0465 e63e
00000130: 778e d03d ed8b debe 20d0 353d e2a2 9bbe
00000140: b3c4 eabe d3d0 e03e a9a5 c23e 70ee fabe
00000150: 08aa bf3d c880 acbd b882 a8bd 1c5f 6abe
00000160: 1029 533e 9a99 9ebe 9107 4b3e 1676 813e
00000170: 255b b33e 8c76 3f3e 3434 01bf 6391 a8be
00000180: 52b7 7c3e 3199 d43d af8b c7be 553e 96be
00000190: f2d4 f03e 547f ac3e b03e 5fbe d4dc 00be
000001a0: d643 f3be 3ead 3dbc a6f9 c1be 49ef c7be
000001b0: ecf9 ebbc bd6a 9b3d bd33 45be 8728 983e
000001c0: 1b7c 9cbe 3494 ea3e ac90 ae3e 6b8f d7be
000001d0: edcf e9bd ed7b 613c 1a36 aa3d 5885 e93d
000001e0: c36c 4c3e 8c56 d93c 6751 76be d445 723e
000001f0: 1e0d f5be 1c41 97be b6bc f6bd afd9 77be
00000200: 99ed 3cbe 89c7 c8be a516 ddbd b869 da3d
00000210: 0d85 aabe 03cb b1bc 8e6f b33e 6d0d 61bd
00000220: 80ac 633c c0ad 30bd 103d cf3d 60c6 a23e
00000230: 967c ef3e a213 a63e 24ee f53e 601d 14bd
00000240: 87a4 e9be 90a8 6cbe ed60 aa3e 006b 54bb
00000250: 79f5 81be e166 c1be 7e87 f0be 205f dfbe
00000260: 5eb1 b3bd 3ee1 823e b3c2 893e 437f f0be
00000270: 2eb0 9f3e 8a52 c8be f07b d8bd 1c9a 4fbe
00000280: 0c90 a1bd 8773 d0bd f5b1 f0be f992 d8be
00000290: 283c a0bd 80e1 d33b b896 68be b8de 403e
000002a0: f34c ecbe ea88 e4bc 7c69 d93e f03a 57be
000002b0: 39d7 e33e ae77 3b3e 3c93 ebbe 777a a33e
000002c0: e259 3ebd c5fd 59be f59c d03e ed3d d4be
000002d0: c4ef 443d 18f2 b9bd 73f4 bc3e 08ec 0e3e
000002e0: c25c 833e 749f 383e 7a3f babd 6647 c7bd
000002f0: 1969 dabe 18f5 8f3e 0862 c43e 5c29 af3e
00000300: 3ebb b3be 2628 a93c 0d9e b3be 0514 8cbe
00000310: 0a4e 8bbe 133d 1b3e 9faf 8ebe 860f c4bb
00000320: 0daa 033d 06f2 9c3e ef20 b8be 84ca b2be
00000330: 80d4 91be eaaf ad3e 9b90 2fbe a71e d93e
00000340: a024 393e 40aa 813d 00ed 73bb 086d cabd
00000350: 6bd2 7d3d c48f e8bd c19f b5bb 3ed7 6b3d
00000360: 3420 cbbe 5ab3 81be 3b9b cd3e 2807 d3be
00000370: a4f3 9dbc f561 f43e 90d3 453e c0f0 673c
00000380: 0df5 d8be adfc 733e 0d99 b3be 0608 1cbe
00000390: c7eb 2dbe 1e08 9abd 9738 163b 9626 d33e
000003a0: 44e9 8b3d d394 e33e dabd 9c3e e6c3 a8be
000003b0: d941 743e ea53 bdbe 2dcd 48be 6615 0e3e
000003c0: 30a1 283e e645 c03e e73f 25be b6a4 12bb
000003d0: 2a59 8a3e cbea 00bf 30b6 ad3e cc18 d6be
000003e0: bdfd 8c3b a8fa a8bd e762 8dbe 1a37 793d
000003f0: 6b41 da3e 927c 1abe ca89 91be c358 49be
-0.002862994 0.2586334 -0.39883107 -0.3857909 -0.19257718 0.13407868 -0.00990659 0.39644474
-0.04099455 0.12756686 -0.1465281 -0.08855638 -0.4800927 -0.32776242 -0.210382 0.014689694
0.19409858 0.30358034 -0.34253964 -0.21243869 0.17528 0.4203682 -0.1160251 0.37415588
-0.08551891 0.06644539 0.45011753 -0.47158176 -0.31932706 -0.13081117 -0.1948301 0.4320004
-0.3286433 -0.2285652 -0.33046132 -0.46302775 -0.2957454 0.42632344 0.21695302 0.24233627
0.036653884 -0.25773886 0.08463185 -0.4457395 -0.36128312 -0.257765 0.31546897 0.29316062
-0.22174752 -0.018041193 0.31978035 0.49706656 0.19874433 0.055135578 0.34429199 -0.29704952
0.0902213 -0.38768664 -0.35029244 -0.24716586 0.23066862 0.19664806 -0.29174393 0.15105355
0.2619157 -0.039588045 0.0332528 0.115852356 0.30806017 0.48222518 -0.3874399 -0.1822417
0.2008486 0.41067207 0.43684712 0.44998944 0.10183423 -0.4346613 0.044387937 -0.30397707
-0.45853195 0.4390932 0.38017014 -0.49010038 0.09358603 -0.084230006 -0.082280576 -0.22887844
0.20621133 -0.30976564 0.19827105 0.25285405 0.35030475 0.18697566 -0.5047028 -0.3292342
0.24679306 0.103807814 -0.38973758 -0.2934443 0.47037464 0.33690894 -0.21801257 -0.12584239
-0.47512692 -0.011576949 -0.3788578 -0.39049748 -0.028805695 0.07588718 -0.19258018 0.2971842
-0.30563435 0.45816195 0.3409475 -0.42101607 -0.11416612 0.013762456 0.083111 0.114023864
0.19963364 0.026530527 -0.2405449 0.2365945 -0.4786157 -0.29541862 -0.120477125 -0.24204133
-0.18450011 -0.39214733 -0.10795335 0.106646955 -0.33304635 -0.021703249 0.35046047 -0.054944444
0.013896108 -0.04313445 0.101190686 0.31791973 0.4677474 0.32436854 0.4803325 -0.036160827
-0.45633337 -0.23111176 0.33277074 -0.003241241 -0.25382593 -0.37773803 -0.46978372 -0.43627262
-0.087740645 0.2556247 0.26906356 -0.46972093 0.31189102 -0.39125472 -0.10570514 -0.20273632
-0.07888803 -0.10178285 -0.4701077 -0.4229963 -0.07823974 0.0064660907 -0.22713745 0.1883496
-0.46152458 -0.027897317 0.4246329 -0.21018577 0.4450014 0.18307373 -0.46010768 0.3192937
-0.046472438 -0.21288212 0.4074475 -0.41453496 0.04808022 -0.09079379 0.3690525 0.13957226
0.25656706 0.18029577 -0.090941384 -0.09730415 -0.42658308 0.2811668 0.38356042 0.34211242
-0.35103792 0.020649027 -0.3508152 -0.27359024 -0.27207977 0.15160017 -0.27868363 -0.005983296
0.032144595 0.306534 -0.35962626 -0.34920132 -0.28482437 0.33923274 -0.17145006 0.42406198
0.18080378 0.06331301 -0.003722012 -0.09884077 0.06196825 -0.11355546 -0.005542726 0.057578318
-0.39673007 -0.25332147 0.40157494 -0.41216397 -0.019281216 0.47730985 0.19318986 0.01415652
-0.4237446 0.23826857 -0.35077706 -0.15237436 -0.16984473 -0.075210795 0.0022921914 0.41240376
0.06831601 0.4444948 0.30613595 -0.3296196 0.23853244 -0.36978084 -0.19609518 0.1387535
0.16467738 0.37553328 -0.16137658 -0.0022376007 0.27021152 -0.50358266 0.3392806 -0.41815794
0.004302709 -0.08250934 -0.2761452 0.060843565 0.42628035 -0.15086582 -0.28425437 -0.19662766

fc1.bias f4 [128]
00000000: 7ebb 06be 14df 3ebe 0782 063e 6e92 333e
00000010: 747e 76be 6f27 213d 9698 923e 5b08 30bd
00000020: 3220 193e 27bc 01be fee2 283e e671 b9be
00000030: 0e89 96be e3b7 79be c279 ea3e 364f 0ebe
00000040: 406f 83bc 3ee2 75be 843e ff3e 5cdd f73e
00000050: ee81 c5be 1088 cfbe 0f61 babe 6de5 29bc
00000060: dbef fbbd 4e90 a7be 50bb 31be d332 ca3d
00000070: cd47 87be 3701 db3d 91d2 f1bd eda5 79be
00000080: 6fd3 8c3d d56b d23e 8813 adbe 1656 443c
00000090: b1ac 44be 49f1 f93e e547 f9be d26a f5be
000000a0: dbbe fe3e f8f7 a1be d079 ed3d 86a1 f9bc
000000b0: 4ba0 c0bd 2224 ccbd 2bb5 a23e 3172 553c
000000c0: 5117 fabe fdff a0be 7668 34be f5df 843e
000000d0: 8eaa a5be 742e f23e e24d e6bd 5199 a5bd
000000e0: d543 cd3e 78ea 763e 81a4 d83e 734b 993e
000000f0: 75e3 1abe d29b a8be 5d9d 25bd 11e3 d23e
00000100: 2d59 2bbe 1e68 edbe 01ab 4c3e 5061 fa3e
00000110: 6acf 16be 5af9 d3be 1035 e8be c2c1 f33d
00000120: b894 0fbd a9ba 85be 1c54 cb3d b063 443e
00000130: 1085 cc3e 5973 c73e f551 aebd 7ebb e1be
00000140: d853 e7be 9ee6 ec3e 3fa5 683e 66e3 663e
00000150: b303 dabe 8a01 ef3e b8c4 f23e c5a7 e43e
00000160: 30f5 d7be ad5c 38be 9b4b abbe 7a11 f23e
00000170: 6c40 57be 219f 7dbe 6df7 853e 1ba7 6bbe
00000180: 1580 73be 2601 2abd 7bb6 85bd 226b c7be
00000190: 819c cf3e 582e 75be 1c38 403e 70c8 e13e
000001a0: 9c31 663e d487 913d eb23 d83e a3b1 7b3d
000001b0: f4ff 6dbe b58e f13e 6f10 003e 38c6 f9be
000001c0: 7c23 1bbe fe60 aebe c92d e53e e485 81bd
000001d0: b259 e9be 2755 fdbc 1734 9e3e 76d3 023e
000001e0: 817c 2a3e 68cf 723d 0f25 3a3e 5800 0fbe
000001f0: 6891 43be 0e49 efbe e029 c3be 9267 5c3e
-0.1315746 -0.18639785 0.13135539 0.17536327 -0.24071676 0.039344247 0.2863204 -0.04297672
0.14953688 -0.1266943 0.1649284 -0.3621971 -0.2940144 -0.24386553 0.4579602 -0.13897404
-0.01604426 -0.24012086 0.49852383 0.4841107 -0.3857569 -0.40533495 -0.36402175 -0.010369641
-0.12301608 -0.32727283 -0.1735661 0.09872975 -0.26421967 0.10693591 -0.118077405 -0.24379702
0.06876265 0.41097894 -0.33803964 0.011983415 -0.19206502 0.48816898 -0.48687664 -0.4793306
0.49754986 -0.31634498 0.115954995 -0.030472528 -0.094055735 -0.09967829 0.31778845 0.013027714
-0.48845914 -0.31445304 -0.17617974 0.25952116 -0.32356685 0.47301066 -0.11245324 -0.080858834
0.40090814 0.2411288 0.42313007 0.29940376 -0.1512583 -0.3293138 -0.040433276 0.41188863
-0.16733237 -0.46368498 0.19987108 0.4890237 -0.1472756 -0.41401178 -0.45352983 0.11902191
-0.03505394 -0.26118973 0.09928152 0.19178653 0.3994527 0.3895519 -0.08511726 -0.44088358
-0.45181155 0.46269697 0.22719286 0.22547683 -0.42580947 0.46680862 0.4741571 0.44659248
-0.4217925 -0.18004103 -0.3345612 0.4727896 -0.21020669 -0.24767734 0.26165333 -0.23012964
-0.23779328 -0.041505 -0.06528946 -0.38948923 0.4054909 -0.2394346 0.18771404 0.44098234
0.22479862 0.07105985 0.42214903 0.061448704 -0.2324217 0.4717919 0.12506269 -0.4878404
-0.15150255 -0.34058374 0.44761494 -0.06324366 -0.45576245 -0.030924393 0.30899116 0.12775978
0.16649057 0.05927983 0.18178199 -0.13964975 -0.19098437 -0.46735424 -0.38117886 0.21523884

bn1.weight f4 [128]
00000000: e9f3 7f3f 0000 803f c6f4 803f 5362 803f
00000010: 4e1f 813f 5be6 7c3f 1805 813f 6d6a 803f
00000020: 6336 813f 7603 7b3f da5c 7c3f 0000 803f
00000030: 0000 803f 9afa 7c3f 9599 7e3f 79b9 7f3f
00000040: a55e 7e3f 46f9 7e3f 4124 803f 1337 823f
00000050: 14a9 7e3f 0000 803f e11c 813f 1480 7f3f
00000060: 6085 803f 0000 803f 94c2 803f 3e74 803f
00000070: fa14 803f 88d4 7d3f f027 803f 5f07 7f3f
00000080: 80c2 7c3f bf01 813f 0000 803f b126 7f3f
00000090: e663 7a3f 41ec 803f 0cf9 7a3f 0000 803f
000000a0: 4b80 7f3f 0000 803f dd2e 813f 4bdf 7d3f
000000b0: 2251 803f 4e10 7f3f 4745 803f 76cf 803f
000000c0: 7c88 7f3f b45f 7d3f 3104 7d3f b65f 803f
000000d0: 0000 803f 123b 813f 62fd 7e3f 1359 813f
000000e0: 3047 803f 1980 7f3f ff20 7f3f 57fd 803f
000000f0: 478c 7f3f 077e 7f3f adc4 7f3f 283b 813f
00000100: c240 7f3f 0000 803f 24eb 803f 6f60 803f
00000110: 5150 803f 0000 803f 0000 803f 69f3 803f
00000120: d8a7 803f 0bce 7d3f 5734 803f 469d 803f
00000130: ff9f 7d3f 97bd 7f3f 5b8c 7f3f 0000 803f
00000140: 0000 803f 557d 803f 9f90 7f3f 6fa6 803f
00000150: 5714 7d3f 704b 803f d3c2 7e3f cad2 7f3f
00000160: 0000 803f cbb0 7f3f 732b 803f 68ce 7d3f
00000170: 9f81 813f deee 7c3f 0a20 7f3f 89cd 7e3f
00000180: c479 823f c82c 7c3f 42d6 7c3f 0000 803f
00000190: c14a 803f 7665 7e3f 0cf8 7e3f 7a28 813f
000001a0: b1e4 7f3f 3d07 803f 26f0 7d3f 6f5f 803f
000001b0: d754 803f e472 7f3f c5aa 803f 0000 803f
000001c0: 705d 813f 0000 803f eb6a 803f 7f53 7b3f
000001d0: 0000 803f 559b 803f b407 7f3f 7965 7f3f
000001e0: a69c 7e3f 928e 803f fc7b 803f f7a2 7d3f
000001f0: 28e9 7f3f 0000 803f cd1a 7e3f a173 7e3f
0.9998155 1.0 1.0074699 1.0030006 1.0087678 0.98788995 1.007968 1.0032479
1.0094723 0.98052156 0.9857918 1.0 1.0 0.9881989 0.994531 0.99892384
0.99363166 0.9959911 1.0011064 1.0173057 0.9947674 1.0 1.0086938 0.99804807
1.0040703 1.0 1.005938 1.0035474 1.0006402 0.9915242 1.0012188 0.9962062
0.98734283 1.0078658 1.0 0.99668413 0.9780868 1.0072099 0.98036265 1.0
0.99805135 1.0 1.0092427 0.99168843 1.002476 0.99634254 1.0021142 1.0063312
0.99817634 0.98974156 0.9883452 1.0029209 1.0 1.0096152 0.9960538 1.0105308
1.0021725 0.99804837 0.99659723 1.0077313 0.9982342 0.9980168 0.9990948 1.0096178
0.9970819 1.0 1.0071759 1.0029429 1.0024511 1.0 1.0 1.0074283
1.0051222 0.9914252 1.0015973 1.0047996 0.9907226 0.99898666 0.9982354 1.0
1.0 1.0038248 0.9983005 1.0050792 0.9885916 1.0023022 0.9951603 0.99931014
1.0 0.9987914 1.001326 0.99143076 1.0117682 0.9880198 0.9965826 0.9953237
1.019341 0.9850583 0.9876443 1.0 1.0022813 0.9937357 0.9959724 1.0090477
0.9995833 1.0002209 0.9919456 1.0029124 1.0025891 0.99784684 1.0052115 1.0
1.010664 1.0 1.0032629 0.9817428 1.0 1.0047404 0.9962113 0.9976421
0.99457777 1.0043509 1.0037837 0.9907679 0.99965143 1.0 0.99259645 0.99395186

bn1.bias f4 [128]
00000000: 8dd3 a2bc 0bf5 10bc 4729 22ba 410a 3f3c
00000010: 7696 ccbc f7c7 f5bb 5b34 5bbc 1c87 eeba
00000020: 476f ccbb f0cd c5ba 4146 703c 4089 0f3c
00000030: 0300 f83c 09b4 64ba fd69 f139 595e bfbb
00000040: 32ad f7ba da47 ad3b 1c3c 95ba 53fc cabb
00000050: 53ec dabb 324d eb3c 53a7 9b3b 0dc4 4dbb
00000060: 383f c5bb aa81 3cbc c710 873c 7262 afbb
00000070: a177 7ebc 6aca 9a3c fcc6 743c cb4b 8ebc
00000080: 0b9b 2cbb c4ba c73b 2eff a13b c72a 873c
00000090: a3ee 993c edf1 b93b 656a 183c 9636 d13c
000000a0: 65e3 6c3c 7c6e 273c b1a5 03ba 5bd2 2fbc
000000b0: 12b8 b4bc c04f 6ebc 5332 4c3c 02f1 28bc
000000c0: 0a57 89bc 478c cfbc a729 0bbb 7de2 f03a
000000d0: cdeb e73b bce7 a43c 77e9 00bb 0f2c 74bc
000000e0: 956b 8a3b 6af4 e0bc 2985 1f3c b232 823b
000000f0: e26f feba 5f8e bf3b 192b 7f3c 551f 063c
00000100: 4490 953c 7e5c 9dbc 5644 d43c 6660 a33b
00000110: a24e 83ba bde8 f73b 55db ffbc 9135 cc3c
00000120: da92 3abc f74a b8bc 52fc 103b 249d e23b
00000130: 5e97 f3ba bd06 453c a852 a93b 58f8 1abb
00000140: 9ca3 8a3c 71ae 713c 9e96 593c f625 5a3b
00000150: b4bb 2a3c 8e67 853c 731c 953c cd20 03bc
00000160: 9e63 ef3c c7fa 8e3b 88fc 5e3c a13b 2bbc
00000170: e464 e7bb b1df e23b a9ae 47bb 6a24 ed3a
00000180: 1b64 f8bc 1eb0 ffbb 6ab9 13bb 8a88 b83c
00000190: e70f f4bb 2559 083c 2c91 fe3c e922 c4b9
000001a0: 4e58 5f3b 2b61 5dba 6a8d e939 442a 1bbc
000001b0: 37ce 4abb 0cd8 3fbc 048c 003c b292 82ba
000001c0: a943 993b cd18 ae3c 3ca7 eebb 573c 753c
000001d0: 2d7b 863b 8b28 573c 79f3 713c 3c30 69bc
000001e0: ca29 92b9 facd 83bc 6cd3 0b3c 838f 4b3c
000001f0: 9b30 fcbb 11f0 933c a6ba df38 e91b 043c
-0.019876266 -0.008847485 -0.00061859604 0.01166016 -0.02497409 -0.0075006443 -0.013379182 -0.0018198225
-0.006238851 -0.0015091281 0.014665187 0.00876075 0.030273443 -0.0008724337 0.0004604607 -0.0058401045
-0.0018896221 0.0052881064 -0.0011385712 -0.00619463 -0.006681004 0.028723333 0.004750171 -0.0031397373
-0.006019499 -0.011505524 0.016487492 -0.005352312 -0.015531451 0.018895347 0.01494002 -0.017370125
-0.002633753 0.0060952622 0.00494375 0.01649989 0.018790549 0.0056745918 0.00930271 0.025538724
0.014458512 0.010219213 -0.00050219434 -0.010731305 -0.022060428 -0.014545381 0.01246317 -0.010311367
-0.016765136 -0.025335444 -0.0021234544 0.0018378046 0.00707767 0.02013003 -0.0019670406 -0.0149030825
0.0042242506 -0.027460296 0.009736338 0.0039733285 -0.0019412006 0.0058458294 0.01557424 0.008186181
0.018257268 -0.019209143 0.025911491 0.004985857 -0.0010017941 0.0075655864 -0.031232515 0.024927886
-0.011387551 -0.022496684 0.002212305 0.0069157053 -0.001858454 0.012025532 0.005167324 -0.002364656
0.016923718 0.014751063 0.013280539 0.0033286787 0.0104207285 0.01628473 0.018202042 -0.008003426
0.029222306 0.004363391 0.013610013 -0.010451228 -0.0070615876 0.0069236387 -0.0030469096 0.0018092517
-0.030321172 -0.007802977 -0.0022540935 0.022526044 -0.007448185 0.008322035 0.031075083 -0.00037410043
0.0034079733 -0.000844496 0.00044546585 -0.009470526 -0.0030945668 -0.011709224 0.007845882 -0.0009961932
0.004677255 0.02125206 -0.0072831195 0.014967999 0.004104039 0.013132225 0.014767521 -0.014232691
-0.00027878425 -0.016089428 0.008534294 0.012424353 -0.007696224 0.018058809 0.000106682346 0.008063295

bn1.running_mean f4 [128]
00000000: 26a2 633b 0000 0000 ea45 453d 687e 1f3d
00000010: ed67 8a3a eb0f 683c cd91 ed3e fe68 3b3b
00000020: 4b58 323d 6977 e137 ac1d 8d3e 0000 0000
00000030: 0000 0000 49cb b73d 5904 cd3e 1099 a23a
00000040: 05ef ea3d 17ff c63a 3d63 353f 4a20 233f
00000050: 9e29 ed37 0000 0000 391d bd3b ecfe 303d
00000060: 3b96 113b 0000 0000 d29f 803b 91b5 203d
00000070: 345c f837 27f2 cd3d 43cb 2d3a d005 2d37
00000080: cf4d 233d 17da ea3e 0000 0000 0cde bf3e
00000090: 7640 b73a b975 753e 5b7b 7e36 0000 0000
000000a0: 433d 823e 0000 0000 2eac 373e 8f47 4c3d
000000b0: fe56 323e 9f82 223e 39d8 ab3e 77e5 923d
000000c0: 0400 0000 5537 713a 0766 263b 8a54 593d
000000d0: 0000 0000 5fb2 043f 206f b13d 31ae 813b
000000e0: 1573 e23d 4d14 443e 1358 023f ef10 bf3e
000000f0: 8a02 ac39 34f9 023e bb9d 193b a788 f03e
00000100: d269 583b 0000 0000 ed11 6c3e bfa9 003f
00000110: f0dd 513b 0000 0000 0000 0000 46e3 153d
00000120: 3e8d 5e3b 0400 0000 e370 d63e 9199 4a3d
00000130: fb8b 0f3f c988 933e a48b f83d 0000 0000
00000140: 0000 0000 8c11 253f 288b 343e b866 463e
00000150: b4c0 133d d8a1 283f 2e83 c03e 194f 543e
00000160: 0000 0000 3c2c 4b3b 766a 863a 8f07 313f
00000170: 59c1 1a3b e2ae 583b e249 053f 6990 e23d
00000180: 62a2 583b 14d5 8d39 40e5 813b 0000 0000
00000190: f02e ce3e 04d9 563e 7ce2 303d cd4f e13e
000001a0: ce6c 563e cff0 213e a483 133f 0bf1 073c
000001b0: 0400 0000 b4e4 373f b7a8 e73c 0000 0000
000001c0: 6b97 423e 0000 0000 ab9a 5d3e 325f 3b3a
000001d0: 0000 0000 cc5b f73c 3585 053f 4700 4f3c
000001e0: 34fd 533d 30eb 0b3e a0b7 353e 9fa0 803e
000001f0: c780 8b3d 0000 0000 5862 6f3c f941 8c3d
0.00347341 0.0 0.04816238 0.03893891 0.0010559537 0.014163951 0.464003 0.0028596516
0.043541234 2.6877695e-05 0.275617 0.0 0.0 0.089743204 0.4004238 0.0012405235
0.114713706 0.0015182224 0.7085455 0.63721144 2.8271981e-05 0.0 0.005771306 0.043211862
0.0022214788 0.0 0.003925302 0.039235655 2.960684e-05 0.100559525 0.00066297146 1.0312957e-05
0.039869126 0.45869514 0.0 0.37474096 0.0013981003 0.23970689 3.7920752e-06 0.0
0.25437364 0.0 0.17936775 0.04987293 0.17415997 0.1587014 0.33563402 0.07172673
6e-45 0.00092016655 0.0025390403 0.05305914 0.0 0.5183467 0.086637735 0.003957533
0.110571064 0.19148369 0.5091564 0.37317607 0.00032808288 0.12790376 0.0023439962 0.46979257
0.0033022058 0.0 0.23053713 0.5025901 0.0032023154 0.0 0.0 0.036593698
0.0033958699 6e-45 0.41883 0.04946286 0.5607297 0.28815296 0.12136009 0.0
0.0 0.644799 0.17631209 0.19375122 0.036072448 0.65871954 0.37600082 0.20733298
0.0 0.0031001708 0.0010255117 0.6915216 0.002361378 0.0033063223 0.5206586 0.110627
0.0033055772 0.0002705237 0.0039640963 0.0 0.40270185 0.20981222 0.043184742 0.44006196
0.20939943 0.15814517 0.5762274 0.008297215 6e-45 0.7183335 0.028278692 0.0
0.19003074 0.0 0.21641032 0.0007147669 0.0 0.03019514 0.5215638 0.0126343435
0.051755145 0.13663936 0.17745829 0.25122544 0.06811672 0.0 0.014610849 0.06848521

bn1.running_var f4 [128]
00000000: dc74 903a 0400 0000 d3ed 463b 29cb a83b
00000010: 1e9e d738 c853 363a 7b3f 4c3d 1104 193a
00000020: 620a a83b c058 0b35 421b 753b 0400 0000
00000030: 0400 0000 b830 003c d6c2 e23c 53ca 1439
00000040: 6bc8 d03a a8dc 5e39 5a7d 553d 4c23 863b
00000050: af22 0437 0400 0000 5f78 2339 65ae 703b
00000060: 64c1 ec39 0400 0000 2a78 b83a 8279 133b
00000070: 30e8 1037 985c ba3a 88fc 2938 5ea8 8c35
00000080: f351 023b 2f47 dd3c 0400 0000 4880 883d
00000090: 026c c537 c41c 753d 1924 1834 0400 0000
000000a0: dcb7 793d 0400 0000 8e9b e03c e5b2 803b
000000b0: 1c20 f13c 1bf8 c73c b90a fc3a b4f4 aa3b
000000c0: 0400 0000 a9ba a338 0d65 1a3a 26cc f43b
000000d0: 0400 0000 1127 8b39 6424 f23b ed56 0139
000000e0: 82e1 ad3c bc74 cd39 6e33 bb3c 687c 023c
000000f0: 8a85 2637 d0cc 883c 52ce 043a ce51 853c
00000100: 59f8 813a 0400 0000 09d6 8c3b f7e4 413c
00000110: 76d8 753a 0400 0000 0400 0000 5a3f 2a3b
00000120: 3e5f 8b3a 0400 0000 f7ae ad3c 7cd8 b03b
00000130: 594e c93b 0583 183d cb72 373c 0400 0000
00000140: 0400 0000 ccdd d23c 5f29 073d 8322 cc3c
00000150: b039 d13a 9ae7 2d3d c1c5 3c3c b3b4 873c
00000160: 0400 0000 4c50 683a 8c5d cb38 e3cc 453d
00000170: 76c8 063a 1f7d 833a e402 283d 6326 403c
00000180: e0de b938 8b97 0a37 5259 bc3a 0400 0000
00000190: 5e37 453c 4c6d 303d 647a b33b 472a ca3c
000001a0: afb5 f439 b4a2 a03a e562 803b f83d 443b
000001b0: 0400 0000 9141 d03c 3548 373b 0400 0000
000001c0: 9e7a 103d 0400 0000 ebae 333d e800 5738
000001d0: 0400 0000 f3e7 703a 977a 783c c6bd 993b
000001e0: df24 e23b 9d10 8e3c ee77 093b 007c 543d
000001f0: 568a 973b 0400 0000 b5db 0b3a 1b44 d13b
0.0011021155 6e-45 0.0030354157 0.0051511717 0.000102814505 0.00069552334 0.049865227 0.0005837093
0.005128191 5.1910683e-07 0.003740028 6e-45 6e-45 0.007824115 0.027680796 0.00014189752
0.001592887 0.0002125377 0.052121498 0.004093563 7.8758885e-06 6e-45 0.00015589733 0.003672504
0.00045157515 6e-45 0.0014073898 0.0022502844 8.637129e-06 0.0014218269 4.0527928e-05 1.0479814e-06
0.0019885271 0.027011482 6e-45 0.06665093 2.3534525e-05 0.059841886 1.4169235e-07 6e-45
0.060966358 6e-45 0.027417924 0.003927576 0.029434256 0.024410298 0.001922927 0.005217159
6e-45 7.807214e-05 0.00058896915 0.0074706255 6e-45 0.00026541253 0.007389592 0.00012334781
0.021225695 0.0003918762 0.022851672 0.007964231 9.925463e-06 0.016699225 0.00050661445 0.01627436
0.0009915932 6e-45 0.004297976 0.011834375 0.00093782635 6e-45 6e-45 0.0025977702
0.0010633243 6e-45 0.021201594 0.0053969007 0.006143373 0.037234325 0.011196802 6e-45
6e-45 0.025740527 0.03299844 0.0249188 0.0015962627 0.0424572 0.011521758 0.016565656
6e-45 0.0008862063 9.697219e-05 0.0482911 0.00051415653 0.0010031796 0.04101838 0.011727902
8.863001e-05 8.260725e-06 0.0014369881 6e-45 0.012037126 0.043072984 0.0054772366 0.024678363
0.00046674671 0.001225552 0.003918039 0.0029944163 6e-45 0.02542189 0.0027966623 6e-45
0.035273187 6e-45 0.043867987 5.126084e-05 6e-45 0.00091898366 0.015165946 0.004691812
0.006901368 0.017341906 0.0020976025 0.051876068 0.004624645 6e-45 0.0005335168 0.0063862926

fc2.weight f4 [64, 128]
00000000: d54b 31bd 37fb 733b c9dd c33c bffe 123b
00000010: 5f5d 51bd 7727 9f3d 5f8b 4fbd 0d1f 8c3d
00000020: 903b 9cbd 9630 ddbc 0028 663d 37f1 07bd
00000030: 1b37 aa3d 9ea7 74bd ed34 9bbd ed09 05bd
00000040: d891 013d 8b68 b73d e0cc 25bd 76ad 203d
00000050: d361 1ebc 1bc2 cabb 01a9 923d 15a8 8cbd
00000060: 3b9f 9a3c 6c66 a43d 3be9 c63a e69b 823d
00000070: d3a8 38bc 6182 903d 9ba7 9cbd 9e96 50ba
00000080: 4aaa 87bc e108 e93c c2df c73c beca 8d3d
00000090: 2866 4cbc b9e8 8abb 995e a33d fba3 b6bc
000000a0: 4341 9c3d f54a 63bd 524e 1dbc a039 3fbb
000000b0: a0c9 1e3d 03e4 763d 8ac3 15bc 1328 92bd
000000c0: 7f3d 2e3d ba18 053d f039 3c3d 72de 83bd
000000d0: 90f7 593d 5c53 af3d 0636 c13b b72c b1bd
000000e0: 281d 653d 20b0 a5bd 7a6d b73c 9539 323c
000000f0: a635 09bd da17 d03c 1017 8bbd 1d64 a63c
00000100: 37e0 3ebd 22bb 61bc 2242 273c 89d7 9e3d
00000110: 5c42 07bd c24e 823d e065 adbc afb0 48bd
00000120: b54f 8ebd 1d6f a4bd 9c12 bb3d 134c f1bc
00000130: 1985 ca3c 6b4e c03c 3698 7b3d f06c 983d
00000140: 8571 a03d e6c1 81bd 9f67 5ebc 01b3 4fbd
00000150: 7d25 39bd 0ffb ae3c b63e ad3d dd6c 98bd
00000160: cab1 733d 6353 1bbd 7fc6 02bc 8092 933d
00000170: e2b6 49bc fe7e a13c 1ffb 75bd a337 9c3d
00000180: 43c3 b1bb a2b1 80bd 98f3 d73c 994e 6fbd
00000190: fa78 8ebd e844 973b a2f0 6f3d 8cdf c7bc
000001a0: e75e 0d3d 0174 a43d 21df 6d3d db08 6bbd
000001b0: 883e efbb 9ea4 d3bc 7068 9abd b07c ff3a
000001c0: e7f6 853d 2983 a43d 0c1d fb3b d893 303c
000001d0: dc5f 0abd 6232 813d 5d62 0abd 8660 95bd
000001e0: a2b3 0c3c ba15 623d f4d5 a7bd 36c2 a43d
000001f0: 1f8d ea3c 6ae5 26bd db57 d4bc 7ef9 943d
00000200: b895 8fbd 99d7 acbc cab4 083d e778 97bd
00000210: 15a3 493d 44e0 653d 06b8 533d d9c1 63bd
00000220: 2688 b73d 44a0 edbc cfcb a53d ede4 8fbd
00000230: f4df 85bd 71a1 4e3d 549c 213c cedb a73b
00000240: 9fa1 73bd 197b 15bd 32c1 e1bc 0027 c7bd
00000250: d242 f9bb 0281 383c 1f00 cdbb 6d16 f23c
00000260: fdf2 a73d 370f 363c ea77 0ebd 5e1e 02bd
00000270: c1f2 a8bd c86b 79bd dbc0 6cbc b1ad 3dbd
00000280: 0ab5 163d d4f4 22bd 52d6 8f3d a437 86bd
00000290: cd55 843b 661f a63d 11dd a43d ea12 64bd
000002a0: 9c9a 933c ab35 933c 16f7 33bd a36e ecbc
000002b0: 0093 a83c fe0c 84bd a402 863c a952 1b3d
000002c0: d777 3dbd 95a1 963d c7c4 03bc 25d2 513d
000002d0: 253e c03d fb3a 2fbd b655 3a3d cdd4 a4bb
000002e0: 8740 e1bb a1b3 573b f6a8 23bb 2b7b 12bd
000002f0: 36a7 a13c 3072 edb7 b1fe 653d bc51 96bc
00000300: 89aa f03b 58af 3fbd bbaf 97bd dc3f 163d
00000310: 70b2 173c 59a1 27bd afc8 2dbd 9e75 ff3c
00000320: 2c7b 82bc bffb 123d 0313 c5ba 92c6 243d
00000330: 9fb1 033d 2392 a1bc 4747 093d 23f2 4f3d
00000340: 0801 923c 1f10 763c 1c77 8d3b 4cdb 823d
00000350: 0717 34bd e7f8 4abd f361 323d eb14 91bd
00000360: 86b5 873c 1417 26bd 2408 6f3d 1279 aebd
00000370: 2bb0 5b3d b413 b03d 8e4b 793c 9478 23bc
00000380: 8f6b b93d dd92 a7bc 45f7 28bc c8cc cabc
00000390: a330 20bc 2f99 833c b09e ab3c 9c57 7ebc
000003a0: 43b8 afbd 7b69 d9bb 6df6 dabc 843a aa3c
000003b0: 6995 913d f265 a53d 58a5 4cbd b4d7 42bb
000003c0: b3ba 1cbd 2dbd 87bd c964 7abd 021a bd3d
000003d0: 9856 803d 9efc 453d 716e 313d 8382 80bd
000003e0: ffb7 523c 80a1 a43d 014b 48bd 76c6 983d
000003f0: b5cd b93c eaff 873d c741 22bd db41 403d
-0.04328521 0.0037228593 0.023909466 0.0022429673 -0.051114436 0.07771199 -0.050670024 0.0684186
-0.07628548 -0.027000707 0.05619049 -0.033189025 0.08311292 -0.059730165 -0.07578454 -0.03248017
0.031633228 0.08955487 -0.040478587 0.039227925 -0.009666878 -0.00618769 0.07161141 -0.068679966
0.018874755 0.08027348 0.0015175709 0.063773915 -0.01127072 0.07056118 -0.07649156 -0.0007957014
-0.016560692 0.028446617 0.024398688 0.06923436 -0.012475528 -0.0042391685 0.079770274 -0.022294989
0.07629635 -0.055491406 -0.009601193 -0.0029178634 0.038766503 0.060276043 -0.009140858 -0.0713655
0.042539116 0.032494284 0.04595369 -0.064389125 0.05321461 0.085608214 0.0058963327 -0.08651107
0.05593601 -0.08090234 0.02239107 0.010877986 -0.03349843 0.025401998 -0.06791508 0.02031141
-0.046600547 -0.013777526 0.010208638 0.07755954 -0.03302227 0.06362678 -0.021166742 -0.048996624
-0.06948797 -0.08029006 0.09134409 -0.02945522 0.024721669 0.023474893 0.061424457 0.07442653
0.07834152 -0.06335811 -0.01357451 -0.05070782 -0.045201767 0.021359948 0.08459227 -0.07442639
0.059495725 -0.03792132 -0.0079818955 0.07205677 -0.012311669 0.019713875 -0.06005394 0.07627799
-0.0054248883 -0.06283881 0.026361272 -0.058424566 -0.06956668 0.0046163686 0.058579095 -0.024398588
0.034514334 0.080299385 0.05807412 -0.057381492 -0.0073011555 -0.025835332 -0.07539451 0.0019492116
0.065412335 0.08032829 0.0076633748 0.010777436 -0.033782825 0.06308438 -0.033785213 -0.07293801
0.00858775 0.0551965 -0.08195105 0.08044855 0.028631745 -0.04074613 -0.025920799 0.07274149
-0.070109785 -0.021098899 0.03337554 -0.07396107 0.049227793 0.05612208 0.05168917 -0.05560479
0.08961515 -0.029007085 0.08095514 -0.07026086 -0.06536856 0.05044693 0.009863932 0.0051226383
-0.059480306 -0.03649435 -0.027557943 -0.097242355 -0.0076068426 0.011261227 -0.006256118 0.02955171
0.08200643 0.011112026 -0.034782328 -0.03176724 -0.08249427 -0.060893804 -0.014450277 -0.046308223
0.036793746 -0.039784268 0.070233 -0.06553581 0.0040385486 0.081114575 0.080499776 -0.0556821
0.01801806 0.017969927 -0.04393681 -0.02886135 0.020577908 -0.064477906 0.016358681 0.037920628
-0.046256866 0.07355038 -0.008042521 0.0512258 0.09386853 -0.042780858 0.045491897 -0.0050302506
-0.0068741473 0.0032913464 -0.0024972535 -0.035761993 0.019733053 -2.8305774e-05 0.056151096 -0.01834952
0.007344548 -0.04679808 -0.07406565 0.036681995 0.009258851 -0.040925357 -0.042427715 0.031184014
-0.015927874 0.035884615 -0.0015035573 0.040228434 0.032151815 -0.019723004 0.03351524 0.05076803
0.017822757 0.015018492 0.0043171775 0.06389484 -0.043967273 -0.049553778 0.043550443 -0.07084068
0.01656605 -0.040549353 0.058357373 -0.08519186 0.053634804 0.08597508 0.015215768 -0.0099774785
0.09053718 -0.020455772 -0.01031286 -0.02475585 -0.009777221 0.016064255 0.020949692 -0.015523817
-0.08580067 -0.0066348887 -0.026728833 0.020779856 0.07108576 0.08076085 -0.04996237 -0.002973062
-0.038263988 -0.06627879 -0.061131272 0.09233476 0.062665164 0.048336618 0.043318216 -0.06274893
0.012861251 0.08038616 -0.048899654 0.074597284 0.022681097 0.066406086 -0.03961351 0.046937805

fc2.bias f4 [64]
00000000: 0174 8d3c d31e a23d c18d 2c3d c509 2ebd
00000010: af8e 9fbc 421b e63c 925a 71bd 65f7 73bc
00000020: 61f1 ef3c a052 08bd a313 003d 144a fa39
00000030: 65aa a73d f5d3 8cbd aec2 8b3d f6e4 b33d
00000040: abba 8cbd 69d7 a53c 4e14 2ebc 3495 563d
00000050: c1bb 7f3d bef8 3fbd 35d0 34bd c169 83bd
00000060: f900 853d 21fd 90bd 50db 66bd 21e0 a13d
00000070: d21c 503d ebcb 873d d38b 653d 0a19 98bd
00000080: c5cd 4dbc bcb9 823b e1ec b63d 31c8 a43b
00000090: eb50 c2bb 8078 863d 5b93 813d 074f 58bd
000000a0: 10f4 9bbd da82 b7bc 6a90 383d ca1a c33d
000000b0: a4e0 283d 452b 753d 6896 fc3c 7e27 2ebc
000000c0: 5c18 f6bb 3be3 a53d eb55 103c 5fbf 1d3b
000000d0: 8ebd 893d d536 563d cf28 8a3c 75da b1ba
000000e0: dee0 17bd 534b 4cbd cdb8 18bd 1f65 a93d
000000f0: 5ce0 6d3d c565 25bd 1dfd 813d ce80 98bc
0.017267229 0.079160355 0.042127375 -0.042489786 -0.019477217 0.02808917 -0.058924265 -0.014890526
0.029289903 -0.033281922 0.031268727 0.00047738908 0.08186797 -0.06876365 0.068242416 0.08783905
-0.068715416 0.020244317 -0.010624958 0.052388385 0.062434915 -0.04686808 -0.044143874 -0.06416655
0.06494326 -0.070795305 -0.056361496 0.07904077 0.050808735 0.06630691 0.05604155 -0.07426651
-0.012561266 0.0039894264 0.089319 0.0050287475 -0.0059300563 0.06565952 0.06326934 -0.05280974
-0.076149106 -0.022401262 0.0450596 0.09526594 0.04122986 0.05985572 0.030833438 -0.010629533
-0.007510228 0.080999814 0.008809547 0.0024070365 0.06725608 0.052298386 0.016865162 -0.0013569134
-0.037079684 -0.049876522 -0.037285615 0.082712404 0.058075294 -0.040380258 0.06347106 -0.018616106

bn2.weight f4 [64]
00000000: 51a5 803f 3902 7e3f 5e87 813f 744e 803f
00000010: 0acb 783f 0b00 7b3f be14 803f a64e 7a3f
00000020: 8b8e 7e3f 767b 7c3f f810 813f 5d67 7d3f
00000030: 7965 7e3f 508c 7f3f e9af 7c3f 1277 813f
00000040: 12e2 7e3f db89 7a3f 5bfe 803f 11fd 803f
00000050: 8c5f 7f3f 2dfc 7e3f f9ef 7e3f d8b3 803f
00000060: bac8 7d3f 667f 803f 8324 7c3f de5e 803f
00000070: 937e 7e3f f7e6 7e3f 4dc8 843f bdff 7d3f
00000080: 2d14 7e3f 94b1 823f 5980 803f 3793 7e3f
00000090: eaae 7f3f 91f1 7d3f e57c 7d3f 3b49 7f3f
000000a0: d091 7f3f 346e 7e3f 1f43 7b3f 004f 7d3f
000000b0: 2183 803f 327d 7c3f 0143 7b3f 3341 7d3f
000000c0: b91a 793f 5946 7b3f 8e03 7e3f db20 823f
000000d0: 2c1d 803f e706 7c3f d7ab 7d3f f326 803f
000000e0: 7c32 833f ad79 7d3f 553b 813f bc91 803f
000000f0: 62fd 7d3f 56e5 7a3f b6ac 813f 9757 7f3f
1.005045 0.9922214 1.0119436 1.0023942 0.97184813 0.9804694 1.000633 0.9777626
0.99436253 0.98625886 1.0083303 0.98985845 0.99373585 0.99823475 0.9870592 1.0114462
0.99563706 0.978666 1.0077623 1.007723 0.9975517 0.9960354 0.9958492 1.0054884
0.9913441 1.0038879 0.9849321 1.0028951 0.99411887 0.99571174 1.0373627 0.9921835
0.99249536 1.0210443 1.0039169 0.9944338 0.9987627 0.99196726 0.990187 0.99721116
0.9983187 0.99386907 0.98149294 0.9894867 1.0040017 0.9862853 0.98149115 0.9892761
0.973064 0.98154217 0.99224174 1.0166277 1.0008903 0.9844803 0.9909033 1.0011886
1.0249782 0.9901379 1.0096232 1.0044475 0.99214756 0.9800619 1.0130832 0.99743026

bn2.bias f4 [64]
00000000: b42d e93e 947b dbbe 81af bd3e d5bc cd3e
00000010: b6b7 f33e 97a9 e03e ab7f d5be eca7 ea3e
00000020: ebeb c53e ebfd c73e dfe7 c4be 4989 d4be
00000030: 4a9b c03e eac1 c93e ee4e d03e 255b bfbe
00000040: c532 cbbe 9d89 e0be 511c d2be 5c9e f1be
00000050: a6b7 c4be 16de bd3e fef5 c3be 2633 d3be
00000060: 4024 dbbe e647 cdbe 56bb f03e 2cea d33e
00000070: 5c69 df3e 1b1c c63e 476c 003f 6685 d2be
00000080: 821d e7be ff8c 003f 0558 dabe b3e4 c03e
00000090: 0dba cb3e b24f c13e ce49 bfbe 1bab bf3e
000000a0: b91d cfbe 9502 c7be 4f4f e23e f5d8 ea3e
000000b0: 7d08 c8be d14b c53e 6990 c43e 8aec ea3e
000000c0: 82b1 f33e 2bd4 d93e ac53 f7be c88f d2be
000000d0: 92e5 cdbe 6229 e2be 7aa0 c9be 98de d63e
000000e0: b651 f3be 9932 dbbe 93c2 debe 3956 dd3e
000000f0: 345f c7be 511a cb3e 37c2 cb3e 1798 bb3e
0.4554268 -0.4286772 0.3704796 0.4018313 0.47601098 0.43879387 -0.41698965 0.4583124
0.38656554 0.39060912 -0.38458154 -0.4151099 0.37618476 0.39405757 0.4068522 -0.37374225
-0.39687172 -0.4385499 -0.4103723 -0.4719113 -0.38421363 0.370835 -0.38273615 -0.4124996
-0.42801094 -0.40093917 0.47017926 0.41389596 0.4363507 0.38693318 0.5016522 -0.411174
-0.451397 0.5021514 -0.4264528 0.37674484 0.39790383 0.37756115 -0.37360996 0.3743523
-0.40452364 -0.38869157 0.44201133 0.4586865 -0.39068976 0.38534406 0.38391426 0.4588359
0.47596365 0.42544684 -0.48306024 -0.4112532 -0.4021421 -0.44172198 -0.39380246 0.419667
-0.47523278 -0.4281204 -0.43507823 0.43229845 -0.38939822 0.39668515 0.39796612 0.36639473

bn2.running_mean f4 [64]
00000000: 0ef2 f93e 3f45 133e 73bc 0d3e e903 be3e
00000010: b57a 0b3e ed55 a03e 73b1 9d3d 2040 0c3e
00000020: 6772 ce3e a16b ac3d d0a3 b53e 0050 2f3e
00000030: 6413 4a3e 206f 833e 4161 0c3e a4c1 443e
00000040: ca5c 573e b908 103e 6f73 a13e 4758 9f3e
00000050: cc60 c73e b75f 393e 47f5 553e 1bec 293e
00000060: 0653 9b3e fd0a 113e d398 c13d 9ed4 e13e
00000070: da3a 3b3e a108 d13e 972b 8c3e ce5a 153e
00000080: a274 b73e 490e af3e ba48 9a3e 525e 473e
00000090: 2c8c 653e dc09 633e e7bc 0f3e 5b20 413e
000000a0: 1973 b63d 5da5 923e 47eb 8a3e e63c cc3e
000000b0: 1d1e 873e 3c5d 133e f293 553e 664a c23e
000000c0: 4b39 a13d 880a 593e d9e7 583e 6c29 803e
000000d0: 15e5 0f3f e168 463e 256e 1a3e 0364 e03e
000000e0: ca6e 643e 1bc8 8f3e a9b3 b93e 3dbe 623f
000000f0: 2787 c53d 829d 983e ff26 903e 77d8 1c3e
0.48817486 0.14381884 0.13841419 0.37112358 0.13621028 0.31315556 0.076998614 0.13696337
0.40321657 0.08418966 0.35476542 0.17120361 0.1973396 0.2567072 0.13708974 0.19214493
0.2103149 0.14065827 0.3153338 0.31122038 0.38941038 0.18102919 0.20894347 0.16593973
0.3033678 0.14164348 0.09452977 0.44107527 0.18284169 0.40826896 0.27377006 0.1458542
0.3583117 0.34190586 0.3013361 0.19469574 0.22416753 0.2217173 0.14036904 0.18859999
0.08908672 0.28641787 0.27132627 0.39890212 0.26390162 0.14391035 0.20857218 0.37947387
0.07872256 0.21195424 0.21182193 0.25031602 0.56208926 0.19375946 0.1508108 0.43826303
0.22307888 0.28082356 0.36269882 0.8857153 0.09644919 0.2980767 0.28154752 0.1531695

bn2.running_var f4 [64]
00000000: e8da a03e b236 023e 842e c33c dd0f 0f3e
00000010: 3945 1e3e b2a6 1b3e 6ec5 8f3d 23ad 653e
00000020: 8d37 4b3e b46f ce3d f74e 4e3e a38f 2d3d
00000030: 1568 4c3d 5075 163e 7a87 d23d a2b9 1f3d
00000040: 46d7 383d d3c9 323d f091 0e3e 828a f03d
00000050: 62a4 243e 644d 723d 8fe2 393d 3671 153d
00000060: fcaa d03d 9fce d63e ccf2 8f3d 53ef 483e
00000070: b573 2a3d 3b85 453e 6947 9c3d 0e85 283d
00000080: 6103 0a3e 9ea0 f13d 014b da3d b104 2e3d
00000090: bdf5 763d c4a8 113d 3d52 a63c 7b47 323d
000000a0: ac2c c33d 5489 df3d 01f9 c13d 0363 453e
000000b0: fe58 5c3e 0f07 413e fd3c 883e b43d 833e
000000c0: 1a6c d63c 0889 7c3d 4ef2 893d dc21 813f
000000d0: 9691 bb3e ee06 4c3d b864 4a3d f329 593e
000000e0: d908 743d 6823 ec3d 8883 3d3e 8f11 4a3f
000000f0: da80 143d 4453 4b3e 47fe a33d 9484 263d
0.31417012 0.12716177 0.023825891 0.13970895 0.15456094 0.15200308 0.070200786 0.22429328
0.1984541 0.100798994 0.2014731 0.04237331 0.049903948 0.14693189 0.10279746 0.038995393
0.045127176 0.043649506 0.13922858 0.11745168 0.16078332 0.059155837 0.04538208 0.03648492
0.10188863 0.41954514 0.07028732 0.19622545 0.041614253 0.19289105 0.07630808 0.041142516
0.13477851 0.117982134 0.10658837 0.042484943 0.060292948 0.035561338 0.020302886 0.0435252
0.09530005 0.10914865 0.09471322 0.19276051 0.21518323 0.18850349 0.2660903 0.25633013
0.026174594 0.06165412 0.06735669 1.0088458 0.3663451 0.049811296 0.04941246 0.21207409
0.05957875 0.11530191 0.18507206 0.7893304 0.036255695 0.19855982 0.08007484 0.04065378

fc3.weight f4 [1, 64]
00000000: d533 b4be 4564 bc3e bcbb bbbe 1b56 babe
00000010: d134 cfbe afd0 b7be abd9 cb3e 5fe7 c7be
00000020: 5197 f3be ed50 fbbe c849 fb3e d218 d33e
00000030: cf72 f0be 867d ecbe a88f d9be 382f d43e
00000040: 5853 b73e 3d75 c63e 4a73 d63e c36e ad3e
00000050: 2af0 c43e 83b7 babe d18d d33e 1a20 ae3e
00000060: 05b0 c53e 732d ea3e 19b2 b3be 80f3 b0be
00000070: 543b c8be b4d9 d6be e5b0 c2be 514f d53e
00000080: 483f ac3e 5f64 bebe 4b8b af3e b918 d9be
00000090: ae32 c4be c459 dabe b1ef e83e 294a dabe
000000a0: 9967 b53e 4631 d33e bcfd b4be 3753 b8be
000000b0: 649a e13e efd9 cebe 89e3 fabe b8b2 afbe
000000c0: bbf9 bdbe 74db d4be 796e af3e edcc ee3e
000000d0: 4832 a93e 9347 b53e 1575 d03e 3ab7 bebe
000000e0: ad9c d03e 5d81 c63e c0b2 dd3e 5ae8 adbe
000000f0: 2976 ea3e e6f4 e8be 80a3 a8be 6aa0 cfbe
-0.35195795 0.3679525 -0.36666667 -0.36393818 -0.40469983 -0.359014 0.39814505 -0.3904371
-0.47576383 -0.4908518 0.49079728 0.41229874 -0.46962592 -0.46189517 -0.42492414 0.41442275
0.35805774 0.3876132 0.41884834 0.33873567 0.3846448 -0.36468133 0.41319135 0.34008867
0.38610855 0.457378 -0.35096815 -0.34560776 -0.39107764 -0.4196297 -0.38025585 0.41662076
0.3364203 -0.37185952 0.3428596 -0.42401674 -0.38319916 -0.4264661 0.4549537 -0.42634705
0.354306 0.4124853 -0.35349834 -0.36000988 0.44063103 -0.40400645 -0.4900172 -0.3431604
-0.37104592 -0.4157368 0.3426397 0.4664072 0.33046174 0.3540617 0.40714327 -0.37249166
0.40744534 0.3877057 0.43300438 -0.33966333 0.45793274 -0.45499343 -0.3293724 -0.40552074
