PreTrained/cstr_ode/Deep_DQN/0_7/800.pth (torch, 43158 bytes, 13 tensors)

fc1.weight f4 [128, 4]
0	0xbc16464e	-0.009172035
1	0x3e84878b	0.2588466
2	0xbecb3409	-0.39688137
3	0xbec6ae58	-0.3880489
4	0xbe4532f4	-0.19257718
5	0x3e094bec	0.13407868
6	0xbc224f40	-0.00990659
7	0x3ecaface	0.39644474
8	0xbd1e02fe	-0.038577072
9	0x3e02d8dd	0.1277804
10	0xbe1ea345	-0.1549197
11	0xbda9a3bd	-0.08283184
12	0xbef9ba66	-0.48775023
13	0xbea4341e	-0.32071012
14	0xbe53eb28	-0.20695174
15	0x3cb75e6a	0.022383887
16	0x3e480aa7	0.19535314
17	0x3e9aca58	0.302325
18	0xbeaebcd0	-0.34128428
19	0xbe57ed96	-0.21086726
20	0x3e3216cb	0.17391507
21	0x3ed7bb82	0.42135245
22	0xbdfff91a	-0.12498684
23	0x3ebf915c	0.37415588
24	0xbdb16a53	-0.08662858
25	0x3d8dca8d	0.06923399
26	0x3ee48c68	0.4463837
27	0xbef426ca	-0.47685844
28	0xbea471ff	-0.32118222
29	0xbe0a02ef	-0.13477682
30	0xbe4a37f7	-0.19747911
31	0x3edd2f28	0.4320004
32	0xbea7d617	-0.32780525
33	0xbe6b15af	-0.2295749
34	0xbea65031	-0.32483056
35	0xbeeb52af	-0.4596152
36	0xbe950f95	-0.2911345
37	0x3ed73f9f	0.42040727
38	0x3e5e28ef	0.21695302
39	0x3e782700	0.24233627
40	0x3d03802b	0.032104652
41	0xbe8263a1	-0.25466636
42	0x3db8d587	0.09025102
43	0xbee19b14	-0.44063628
44	0xbeb8fa1a	-0.36128312
45	0xbe83f9c6	-0.257765
46	0x3ea18526	0.31546897
47	0x3e961926	0.29316062
48	0xbe6311c8	-0.22174752
49	0xbc93cb20	-0.018041193
50	0x3ea3ba40	0.31978035
51	0x3efe7f82	0.49706656
52	0x3e518d67	0.20464097
53	0x3d64aa17	0.055826273
54	0x3ead6055	0.33862558
55	0xbe959101	-0.29212192
56	0x3dc77e96	0.09740941
57	0xbec750f8	-0.38928962
58	0xbeb20449	-0.34768894
59	0xbe79af91	-0.2438338
60	0x3e6af029	0.22943176
61	0x3e4aa259	0.19788493
62	0xbe9601c1	-0.29298213
63	0x3e1aadc8	0.15105355
64	0x3e832cad	0.25620022
65	0xbd1eefbe	-0.038802855
66	0x3d1e83ea	0.03870002
67	0x3ded4400	0.115852356
68	0x3ea2e255	0.31813303
69	0x3ef1bdf3	0.47215232
70	0xbec13641	-0.37736705
71	0xbe4899fc	-0.1958999
72	0x3e5361ae	0.2064273
73	0x3ed233b6	0.41055077
74	0x3edda5f4	0.43290675
75	0x3ee72f8b	0.4515346
76	0x3dd781ad	0.105227806
77	0xbed868b8	-0.42267394
78	0x3d4b6949	0.049660955
79	0xbe9f49c8	-0.31110978
80	0xbee53a2e	-0.4477095
81	0x3ee20315	0.44142976
82	0x3ec2a2ff	0.3801498
83	0xbef5e280	-0.48024368
84	0x3dbfaa08	0.09358603
85	0xbdac80c8	-0.084230006
86	0xbda882b8	-0.082280576
87	0xbe6a5f1c	-0.22887844
88	0x3e54747e	0.20747563
89	0xbea03b9c	-0.31295478
90	0x3e4d21d6	0.20032439
91	0x3e817616	0.25285405
92	0x3eb3f650	0.3514886
93	0x3e3a8354	0.1821416
94	0xbf0149b8	-0.5050311
95	0xbea8df84	-0.3298303
96	0x3e7e8907	0.2485696
97	0x3dc9f187	0.09860521
98	0xbec3f440	-0.38272285
99	0xbe98b02a	-0.29821903
100	0x3ef0d4f2	0.47037464
101	0x3eac7f54	0.33690894
102	0xbe5f3eb0	-0.21801257
103	0xbe00dcd4	-0.12584239
104	0xbef864a9	-0.48514298
105	0xb96bea94	-0.00022498734
106	0xbec3f950	-0.38276148
107	0xbec5f271	-0.3866153
108	0xbd005080	-0.03132677
109	0x3d9fceb8	0.078031
110	0xbe3f2be4	-0.18669087
111	0x3e97846f	0.29593226
112	0xbe9b0f1e	-0.3028497
113	0x3ee921e2	0.45533663
114	0x3eaffe62	0.34373766
115	0xbed62324	-0.41823685
116	0xbded009f	-0.11572384
117	0x3bfcf819	0.0077200052
118	0x3da70f48	0.081572115
119	0x3de9f7a6	0.11424188
120	0x3e4c88d8	0.19974077
121	0x3cd875a3	0.026423281
122	0xbe763550	-0.24043775
123	0x3e7245d4	0.2365945
124	0xbef5b269	-0.4798768
125	0xbe96c543	-0.29447374
126	0xbdf768ea	-0.12080558
127	0xbe796964	-0.2435661
128	0xbe3d64a0	-0.18495417
129	0xbec839f1	-0.39106706
130	0xbddb99ab	-0.10722669
131	0x3ddd8875	0.10817043
132	0xbeac8b7e	-0.33700174
133	0xbc9d347d	-0.019190067
134	0x3eb164d7	0.34647247
135	0xbd7c3bd2	-0.061580487
136	0x3c63ac80	0.013896108
137	0xbd30adc0	-0.04313445
138	0x3dcf3d10	0.101190686
139	0x3ea2c660	0.31791973
140	0x3eecb6ce	0.4623322
141	0x3ea97766	0.33098906
142	0x3ef65266	0.4810974
143	0xbd141d60	-0.036160827
144	0xbeeec0a4	-0.46631348
145	0xbe63f8a2	-0.22262815
146	0x3ea52ca3	0.32260618
147	0xbb546b00	-0.003241241
148	0xbe7f4289	-0.24927725
149	0xbec3da01	-0.3825226
150	0xbeec232b	-0.4612058
151	0xbedf19b7	-0.43574306
152	0xbda4b5c6	-0.08042483
153	0x3e7f208f	0.24914764
154	0x3e883bcd	0.26608124
155	0xbeeca6c3	-0.4622098
156	0x3e9fb02e	0.31189102
157	0xbec8528a	-0.39125472
158	0xbdd87bf0	-0.10570514
159	0xbe4f9a1c	-0.20273632
160	0xbdaa0b21	-0.08302904
161	0xbdc70009	-0.097168036
162	0xbef216ec	-0.47283113
163	0xbed6d18c	-0.41956747
164	0xbda03c28	-0.07823974
165	0x3bd3e180	0.0064660907
166	0xbe6896b8	-0.22713745
167	0x3e40deb8	0.1883496
168	0xbeec085a	-0.46100122
169	0xbcf559ab	-0.029949984
170	0x3ed83001	0.42224124
171	0xbe588a48	-0.211465
172	0x3ee5d03c	0.44885433
173	0x3e39067e	0.18068883
174	0xbee998fe	-0.45624536
175	0x3ea37a77	0.3192937
176	0xbd32f9a3	-0.043695103
177	0xbe5ba07d	-0.2144794
178	0x3ecfeaab	0.40608725
179	0xbed505d2	-0.41606003
180	0x3d4ded13	0.05027492
181	0xbdaf1b2e	-0.08550106
182	0x3ebf1877	0.37323353
183	0x3e0eec08	0.13957226
184	0x3e82aca4	0.2552234
185	0x3e39c262	0.18140557
186	0xbdbebee4	-0.09313753
187	0xbdc53166	-0.09628563
188	0xbedaf675	-0.42766157
189	0x3e908f22	0.28234202
190	0x3ec3df17	0.38256142
191	0x3eaf295c	0.34211242
192	0xbeb3fa20	-0.35151768
193	0x3cad1527	0.02112825
194	0xbeb3dd18	-0.3512962
195	0xbe8c5310	-0.27407122
196	0xbe8d93c0	-0.27651787
197	0x3e1fc883	0.15603833
198	0xbe90f554	-0.2831217
199	0xbacc29b5	-0.0015576395
200	0x3d15b3e5	0.036548514
201	0x3e989097	0.29797813
202	0xbeb719d7	-0.35761902
203	0xbeb3d09d	-0.35120097
204	0xbe9028b8	-0.28156066
205	0x3eac81ef	0.3369288
206	0xbe307440	-0.17231846
207	0x3ed9809a	0.42480928
208	0x3e3924a0	0.18080378
209	0x3d81aa40	0.06331301
210	0xbb73ed00	-0.003722012
211	0xbdca6d08	-0.09884077
212	0x3d6abee3	0.05731095
213	0xbdfdd2e7	-0.12393742
214	0xbb6164ae	-0.0034392285
215	0x3d5b8347	0.053591993
216	0xbec8f68e	-0.39250606
217	0xbe83f9a9	-0.25776413
218	0x3ecf1f26	0.40453452
219	0xbed340a1	-0.41260245
220	0xbc941d18	-0.01808028
221	0x3ef4424b	0.47706828
222	0x3e46d719	0.1941799
223	0x3c67f0c0	0.01415652
224	0xbece5559	-0.4029949
225	0x3e5f6c83	0.21818738
226	0xbeaf6036	-0.3425309
227	0xbe148ba5	-0.14506395
228	0xbe2fd116	-0.17169604
229	0xbd9ad972	-0.07561006
230	0xbc05fc89	-0.008177885
231	0x3ed32696	0.41240376
232	0x3d897e73	0.067135714
233	0x3ee0d57c	0.43912876
234	0x3e9f0b7b	0.31063446
235	0xbeaa9fe0	-0.333251
236	0x3e771875	0.24130423
237	0xbebdfba5	-0.37106052
238	0xbe46e676	-0.19423851
239	0x3e04444c	0.12916678
240	0x3e2417e0	0.16024733
241	0x3ec28aa2	0.37996393
242	0xbe29c938	-0.16580665
243	0xbc04649c	-0.008080628
244	0x3e8908ba	0.2676447
245	0xbeff8d14	-0.49912322
246	0x3ead0595	0.3379332
247	0xbed6fb63	-0.41988668
248	0x3b84dcbb	0.0040546334
249	0xbda89a7e	-0.08232592
250	0xbe8f8c77	-0.28036854
251	0x3d6e9a5a	0.05825267
252	0x3edc0b40	0.42977333
253	0xbe1f939d	-0.15583654
254	0xbe8f864c	-0.28032148
255	0xbe4a3f24	-0.19750649

fc1.bias f4 [128]
0	0xbdf83093	-0.1211864
1	0xbe3edf14	-0.18639785
2	0x3e0566c5	0.13027485
3	0x3e2c614f	0.16833995
4	0xbe77c759	-0.24197139
5	0x3d173162	0.03691233
6	0x3e934e07	0.28770468
7	0xbd1a4b1e	-0.037669294
8	0x3e1c2b1e	0.15250823
9	0xbe05bf33	-0.13061218
10	0x3e299f04	0.16564566
11	0xbeb971e6	-0.3621971
12	0xbe96890e	-0.2940144
13	0xbe80de1b	-0.25169453
14	0x3eea492a	0.45758945
15	0xbe0d0aff	-0.13773726
16	0xbc89c8f1	-0.01681945
17	0xbe801982	-0.2501946
18	0x3f00422d	0.50100976
19	0x3efb6886	0.49103183
20	0xbeca8dde	-0.3956136
21	0xbecf8810	-0.40533495
22	0xbeb95409	-0.36196926
23	0xbbe228f0	-0.006901853
24	0xbdfc422e	-0.1231731
25	0xbea7904e	-0.32727283
26	0xbe2c067a	-0.16799346
27	0x3dce165c	0.100628585
28	0xbe88b017	-0.26696846
29	0x3de13af6	0.10997574
30	0xbdf20ab8	-0.11818451
31	0xbe781638	-0.24227226
32	0x3d92948f	0.071572416
33	0x3ed3598a	0.4127925
34	0xbead1388	-0.33803964
35	0xbbec46d7	-0.007210593
36	0xbe4f1557	-0.20222984
37	0x3efe4041	0.49658397
38	0xbefd2065	-0.49438778
39	0xbef56ad2	-0.4793306
40	0x3f00d6a6	0.5032753
41	0xbea1f7f8	-0.31634498
42	0x3dfd9857	0.12382572
43	0xbcd9fe47	-0.026610507
44	0xbdc23814	-0.09483352
45	0xbdc39435	-0.095497526
46	0x3ea7ad97	0.32749626
47	0x3c2c9621	0.01053384
48	0xbef9d846	-0.48797816
49	0xbe9eba48	-0.31001496
50	0xbe347675	-0.17623313
51	0x3e8662c2	0.2624722
52	0xbea5aa8e	-0.32356685
53	0x3ef48a34	0.4776169
54	0xbddff3fa	-0.10935207
55	0xbda4ee2c	-0.0805324
56	0x3ed70cf1	0.4200206
57	0x3e6b9f80	0.23010063
58	0x3eda67a0	0.42657185
59	0x3e99aa91	0.30012944
60	0xbe165a24	-0.14682823
61	0xbeaae42d	-0.3337721
62	0xbd240bb7	-0.040050235
63	0x3ed24562	0.4106856
64	0xbe327642	-0.17427924
65	0xbeed681e	-0.46368498
66	0x3e4b7c36	0.19871601
67	0x3efac459	0.48977926
68	0xbe1ce9a3	-0.153235
69	0xbed3f95a	-0.41401178
70	0xbee83510	-0.45352983
71	0x3df24eb7	0.1183142
72	0xbd10c2c3	-0.03534199
73	0xbe859fad	-0.26098385
74	0x3dc53f7f	0.096312515
75	0x3e4321e3	0.19055896
76	0x3ecdbb48	0.40181947
77	0x3ec8b681	0.3920174
78	0xbda96c70	-0.08272636
79	0xbee1bb7e	-0.44088358
80	0xbee753d8	-0.45181155
81	0x3eedaeef	0.46422526
82	0x3e687d58	0.22704065
83	0x3e4306fc	0.19045633
84	0xbeda3912	-0.42621666
85	0x3ef1ad9b	0.47202763
86	0x3ef94b50	0.4869027
87	0x3ee73c29	0.45163086
88	0xbed7f530	-0.4217925
89	0xbe348cec	-0.17631882
90	0xbeaa3acb	-0.3324798
91	0x3ef013f5	0.46890226
92	0xbe55685a	-0.20840588
93	0xbe7ef112	-0.24896649
94	0x3e881218	0.26576304
95	0xbe6665e1	-0.22499801
96	0xbe6e9ad4	-0.2330125
97	0xbd4153ee	-0.047199182
98	0xbd9b2aa9	-0.07576496
99	0xbec76b22	-0.38948923
100	0x3ece9d29	0.4035428
101	0xbe769a27	-0.24082242
102	0x3e434e30	0.19072795
103	0x3ee3dc88	0.4450419
104	0x3e593d45	0.21214779
105	0x3d886ea8	0.06661731
106	0x3edbf426	0.42959708
107	0x3d6bd2b9	0.057574008
108	0xbe6f3b9d	-0.23362584
109	0x3ef242c6	0.4731657
110	0x3df101f1	0.117679484
111	0xbef9c638	-0.4878404
112	0xbe1d4c49	-0.15361132
113	0xbeae60fe	-0.34058374
114	0x3ee6f2e0	0.45107174
115	0xbd500105	-0.050782222
116	0xbee959b2	-0.45576245
117	0xbc73adde	-0.014872996
118	0x3e9d5234	0.30726779
119	0x3e029ce8	0.12755167
120	0x3e2d3201	0.16913606
121	0x3d846632	0.06464805
122	0x3e3a709f	0.18207024
123	0xbe0edcf9	-0.13951482
124	0xbe417ba0	-0.18894815
125	0xbeef490e	-0.46735424
126	0xbec37a76	-0.38179368
127	0x3e5171ef	0.20453618

bn1.weight f4 [128]
0	0x3f7f8f03	0.99827594
1	0x3f800000	1.0
2	0x3f80a2ad	1.0049645
3	0x3f80caf4	1.0061936
4	0x3f814264	1.0098386
5	0x3f7c70a7	0.98609394
6	0x3f810f52	1.00828
7	0x3f7f4522	0.99714863
8	0x3f81618e	1.0107896
9	0x3f792a7e	0.9733046
10	0x3f7bd281	0.9836808
11	0x3f800000	1.0
12	0x3f800000	1.0
13	0x3f7bb60b	0.9832465
14	0x3f7f1e3d	0.99655515
15	0x3f801747	1.0007104
16	0x3f7f9a32	0.9984466
17	0x3f7ea33c	0.99467826
18	0x3f80a6c1	1.0050889
19	0x3f832afe	1.0247495
20	0x3f7bdee5	0.98386985
21	0x3f800000	1.0
22	0x3f812222	1.0088542
23	0x3f7fc7b4	0.999141
24	0x3f809e44	1.0048299
25	0x3f800000	1.0
26	0x3f803c21	1.001835
27	0x3f80439c	1.0020633
28	0x3f7ff122	0.99977314
29	0x3f7be73e	0.9839972
30	0x3f807063	1.0034298
31	0x3f7e9742	0.9944955
32	0x3f7a4fc2	0.9777795
33	0x3f82c224	1.0215497
34	0x3f800000	1.0
35	0x3f7ff660	0.99985313
36	0x3f79f8ba	0.9764515
37	0x3f80dcdf	1.0067405
38	0x3f7916db	0.973005
39	0x3f800000	1.0
40	0x3f7fab09	0.99870354
41	0x3f800000	1.0
42	0x3f8284af	1.0196742
43	0x3f7edb75	0.99553615
44	0x3f809eb4	1.0048432
45	0x3f7de83c	0.99182487
46	0x3f7fa5dc	0.99862456
47	0x3f813080	1.0092926
48	0x3f7f8938	0.99818754
49	0x3f7e14db	0.9925057
50	0x3f7c889d	0.98645955
51	0x3f80b4fc	1.0055232
52	0x3f800000	1.0
53	0x3f812293	1.0088676
54	0x3f7eb4af	0.9949445
55	0x3f827703	1.019257
56	0x3f806650	1.0031223
57	0x3f7f186c	0.9964664
58	0x3f7c67e4	0.98596025
59	0x3f8212c3	1.0161976
60	0x3f80217e	1.0010221
61	0x3f80ed3c	1.0072398
62	0x3f7f943a	0.9983555
63	0x3f8237d6	1.017329
64	0x3f7e7199	0.99392086
65	0x3f800000	1.0
66	0x3f81f114	1.0151696
67	0x3f80411c	1.001987
68	0x3f7f6eeb	0.9977862
69	0x3f800000	1.0
70	0x3f800000	1.0
71	0x3f813b12	1.0096152
72	0x3f80a385	1.0049902
73	0x3f7d7242	0.9900247
74	0x3f8055d5	1.0026194
75	0x3f81200c	1.0087905
76	0x3f7db250	0.9910021
77	0x3f7fc159	0.999044
78	0x3f7d9952	0.99062073
79	0x3f800000	1.0
80	0x3f800000	1.0
81	0x3f814e36	1.0101993
82	0x3f7ebbde	0.9950541
83	0x3f813035	1.0092837
84	0x3f7bdda1	0.98385054
85	0x3f805938	1.0027227
86	0x3f7ea7cf	0.99474806
87	0x3f7fcdb4	0.99923253
88	0x3f800000	1.0
89	0x3f7dfe9c	0.9921663
90	0x3f802b72	1.0013258
91	0x3f7c668f	0.9859399
92	0x3f81db4d	1.014505
93	0x3f7ba7a5	0.9830268
94	0x3f7e30d8	0.9929328
95	0x3f7d12c3	0.98856753
96	0x3f831c06	1.0242927
97	0x3f78f21b	0.97244424
98	0x3f7d79af	0.990138
99	0x3f800000	1.0
100	0x3f808953	1.0041908
101	0x3f7ef99d	0.9959963
102	0x3f7eb8ba	0.9950062
103	0x3f817f27	1.0116929
104	0x3f807505	1.0035712
105	0x3f7dc70c	0.99131846
106	0x3f7dfdbc	0.9921529
107	0x3f7f8b0b	0.9982154
108	0x3f7fe3e7	0.99957126
109	0x3f7df3a1	0.99199873
110	0x3f809f46	1.0048606
111	0x3f800000	1.0
112	0x3f8067b9	1.0031654
113	0x3f800000	1.0
114	0x3f804bb6	1.0023105
115	0x3f7abb7c	0.9794233
116	0x3f800000	1.0
117	0x3f80ff81	1.0077974
118	0x3f7ed811	0.9954844
119	0x3f7e437d	0.9932173
120	0x3f7e5377	0.9934611
121	0x3f8024d2	1.0011237
122	0x3f804f52	1.0024207
123	0x3f7d7d4d	0.9901932
124	0x3f7f3cf6	0.99702394
125	0x3f800000	1.0
126	0x3f7dc253	0.9912464
127	0x3f7e7715	0.99400455

bn1.bias f4 [128]
0	0xbccdac57	-0.025106592
1	0xbbd126e6	-0.006382811
2	0x3afb65dc	0.0019180137
3	0x3c0c6091	0.008567945
4	0xbce1c4b1	-0.02755961
5	0x3ac9aaf3	0.001538603
6	0xbc8f02a9	-0.017457323
7	0x3c0ac43d	0.008469638
8	0xbbfd9392	-0.007738539
9	0xbba1cadb	-0.0049375123
10	0x3c8fb621	0.0175429
11	0x3baa2905	0.005192878
12	0x3d0a29c7	0.03373125
13	0xbbd6c504	-0.006554248
14	0xbb7fe434	-0.0039045932
15	0xbc4954c6	-0.012288278
16	0xbb900863	-0.004395531
17	0x3c1cd071	0.009571181
18	0xbad69eef	-0.001637427
19	0xbabd562b	-0.0014445236
20	0xbc654201	-0.013992787
21	0x3d0709da	0.03296838
22	0x3c11bb03	0.008894685
23	0xbc132296	-0.008980414
24	0xbc81ae6c	-0.015830241
25	0xbc5a1e1a	-0.013312841
26	0x3c7e48a3	0.015520248
27	0x3b04660e	0.002020243
28	0xbc90a545	-0.017656932
29	0x3c69e86b	0.014276604
30	0x3cc38f05	0.023871908
31	0xbc840699	-0.016116427
32	0xbb3b557a	-0.0028584884
33	0x3c360828	0.011110343
34	0x3ba439b3	0.005011761
35	0x3c9a932c	0.018869005
36	0x3c5beddc	0.013423409
37	0x3c3078f3	0.010771024
38	0x3c9a2f5f	0.018821416
39	0x3d019bcb	0.031642716
40	0x3c817adc	0.015805654
41	0x3c6dd2f7	0.01451563
42	0x3c37ee7f	0.0112262955
43	0xbcb4ab2e	-0.022054281
44	0xbc78fd1c	-0.015197065
45	0xbcaba2cc	-0.020951651
46	0x3c8b59a6	0.017010521
47	0xbc4f2a07	-0.012644297
48	0xbcd8a15e	-0.026444133
49	0xbce5645a	-0.028001953
50	0x3a8ff646	0.0010983429
51	0xbbcd94de	-0.00627385
52	0x3c407326	0.0117462035
53	0x3c8b458b	0.017000934
54	0xbb888bd8	-0.0041670613
55	0xbc6b3308	-0.0143554285
56	0xbc0a9efd	-0.008460757
57	0xbd11b801	-0.03557587
58	0x3be58b0e	0.007005102
59	0xbb8cfe64	-0.0043027867
60	0xbbe9b8dd	-0.007132633
61	0x3be600c6	0.007019135
62	0x3c23b6e8	0.009992339
63	0x3bd3449e	0.006447389
64	0x3cd4097b	0.025883427
65	0xbc1ce95a	-0.00957712
66	0x3cdcc67b	0.026950112
67	0xbae13913	-0.0017183147
68	0xbb839c17	-0.00401641
69	0x3c79c7d7	0.015245399
70	0xbd3c65cb	-0.045995515
71	0x3cd0597c	0.025433294
72	0xbca2b525	-0.019861767
73	0xbcefec29	-0.029287415
74	0x3ba29987	0.0049621495
75	0x3c5f69f5	0.013636102
76	0x3bae63db	0.0053219623
77	0x3c85ce18	0.016333625
78	0x3bab3b31	0.005225562
79	0x3bd4f8c8	0.0064993836
80	0x3cbc139d	0.022958571
81	0x3cac31a1	0.021019759
82	0x3c325984	0.0108856
83	0xbbb12de7	-0.0054070833
84	0x3bc0ebf6	0.0058875037
85	0x3c9791de	0.018502172
86	0x3ca79fae	0.020461883
87	0xbc8e4697	-0.017367644
88	0x3d02c460	0.03192556
89	0x3c557586	0.013028508
90	0x3c153646	0.009107178
91	0xbc891503	-0.016733652
92	0xbbd08bf0	-0.006364338
93	0x3bbbe723	0.0057343408
94	0xbbd881b7	-0.00660726
95	0xb9adba3e	-0.00033135893
96	0xbd00c7ad	-0.031440426
97	0xbc90956d	-0.017649377
98	0xbbf42a22	-0.0074513117
99	0x3ccfd26a	0.025368888
100	0xbc1cf764	-0.009580467
101	0x3915ee8a	0.0001429861
102	0x3d310534	0.043217853
103	0x3ac796b5	0.0015227409
104	0x3c01fee7	0.007934309
105	0xbc1921cf	-0.0093464395
106	0xbb100129	-0.0021973348
107	0xbc81a0b9	-0.015823709
108	0xbbd9b09a	-0.006643367
109	0xbc971271	-0.01844141
110	0x3c259158	0.010105453
111	0xbba1def1	-0.0049399068
112	0xbb71360a	-0.0036805891
113	0x3c96bf4c	0.018401764
114	0xbc474cac	-0.012164276
115	0x3ca8b8d1	0.02059594
116	0x3b54d134	0.0032473328
117	0x3ca6c868	0.020359233
118	0x3cbf346f	0.023340432
119	0xbc58d8c1	-0.013235272
120	0xbc22f235	-0.009945442
121	0xbc68c74b	-0.014207671
122	0x3c869a9e	0.01643115
123	0x3c755705	0.01497436
124	0xbc57e920	-0.01317814
125	0x3c9d0adc	0.019170217
126	0x3c6aa2a3	0.014321002
127	0x3c249b59	0.010046803

bn1.running_mean f4 [128]
0	0x3b966ba6	0.0045904694
1	0x00000000	0.0
2	0x3d379848	0.04482296
3	0x3cfce3fc	0.03087043
4	0x3a9e7cdf	0.0012091658
5	0x3bdc06fd	0.0067147003
6	0x3ee4897a	0.44636136
7	0x3b7509ef	0.0037389954
8	0x3d3aa16a	0.045564093
9	0x373bae4b	1.1186649e-05
10	0x3e91e3f5	0.2849423
11	0x00000000	0.0
12	0x00000000	0.0
13	0x3da6e2ad	0.08148704
14	0x3edcb354	0.43105567
15	0x3ac61924	0.0015113694
16	0x3dffebb7	0.12496131
17	0x3ac0ff1e	0.0014724468
18	0x3f31576c	0.6927402
19	0x3f29df94	0.6635678
20	0x39a526e2	0.00031500222
21	0x00000000	0.0
22	0x3bbb69e2	0.0057194093
23	0x3d5eb75d	0.054374088
24	0x3b2dea8b	0.0026537504
25	0x00000000	0.0
26	0x3babd729	0.005244155
27	0x3d1a7d38	0.037717074
28	0x39b84f1a	0.0003515415
29	0x3dc62772	0.09675492
30	0x3a4cee0b	0.00078174536
31	0x3906857c	0.00012828963
32	0x3d4f3ebc	0.050596938
33	0x3edf6bbf	0.4363689
34	0x00000000	0.0
35	0x3eb22097	0.3479049
36	0x26978e7d	1.0516351e-15
37	0x3e88874c	0.26665723
38	0x3795b085	1.7844382e-05
39	0x00000000	0.0
40	0x3e89a0c5	0.2688047
41	0x00000000	0.0
42	0x3e3258df	0.17416714
43	0x3d854d8e	0.06508933
44	0x3e2a620c	0.16638964
45	0x3e1f7f5b	0.15575926
46	0x3eb27839	0.34857348
47	0x3d84b373	0.0647954
48	0x00000004	6e-45
49	0x3aa15eb4	0.0012311549
50	0x3b4f697f	0.0031648574
51	0x3d13015e	0.035889976
52	0x00000000	0.0
53	0x3f07e42a	0.53082526
54	0x3daf90c6	0.08572535
55	0x3ae1f43e	0.0017238928
56	0x3de1aff0	0.110198855
57	0x3e2ee7e2	0.17080644
58	0x3efd4a48	0.49470735
59	0x3ece4884	0.402897
60	0x3a09886d	0.0005246464
61	0x3df5d086	0.12002663
62	0x3b39df00	0.0028361678
63	0x3f0055e5	0.50131065
64	0x3b85a4b5	0.0040784725
65	0x00000000	0.0
66	0x3e74cc83	0.2390614
67	0x3f03c749	0.5147596
68	0x3b8a95e2	0.004229293
69	0x00000000	0.0
70	0x00000000	0.0
71	0x3ccb1e38	0.024794683
72	0x3b848317	0.0040439474
73	0x00000004	6e-45
74	0x3ee03693	0.43791637
75	0x3d2143a7	0.03937116
76	0x3f137ad3	0.5760929
77	0x3ea1d6c2	0.3160916
78	0x3e0797ae	0.13241455
79	0x00000000	0.0
80	0x00000000	0.0
81	0x3f224450	0.63385487
82	0x3e4d0d19	0.20024528
83	0x3e23d3ce	0.15998766
84	0x3d0db14b	0.034592908
85	0x3f27f77d	0.6561201
86	0x3eb31986	0.3498041
87	0x3e4beceb	0.19914596
88	0x00000000	0.0
89	0x3b78a167	0.0037938
90	0x3aa7de4c	0.0012807338
91	0x3f2c5fa1	0.6733342
92	0x3b3b2ab7	0.0028559396
93	0x3b82de21	0.003993765
94	0x3f03a6c1	0.5142632
95	0x3e014deb	0.1262738
96	0x3b678438	0.0035326611
97	0x39d841f5	0.00041247872
98	0x3b934b43	0.004495056
99	0x00000000	0.0
100	0x3ed53f42	0.41649824
101	0x3e4ce45a	0.20008984
102	0x3d03ccdb	0.032177787
103	0x3eee32bc	0.46523082
104	0x3e43519b	0.19074099
105	0x3e2db814	0.16964751
106	0x3f1c2a68	0.61002207
107	0x3c1f857d	0.009736416
108	0x00000004	6e-45
109	0x3f3b7e83	0.73239917
110	0x3cd27b20	0.025693476
111	0x00000000	0.0
112	0x3e385d4b	0.18004338
113	0x00000000	0.0
114	0x3e67df5a	0.22643796
115	0x3afe0afd	0.0019381937
116	0x00000000	0.0
117	0x3d3e5543	0.04646803
118	0x3f072bd9	0.5280128
119	0x3c6f27d2	0.014596896
120	0x3d5b43b6	0.05353137
121	0x3e0682a0	0.13135767
122	0x3e3dd45e	0.18538043
123	0x3e8647d1	0.26226667
124	0x3d876e7c	0.0661287
125	0x00000000	0.0
126	0x3c6e6349	0.014550039
127	0x3d53307e	0.051559918

bn1.running_var f4 [128]
0	0x3ac2e4c0	0.0014869198
1	0x00000004	6e-45
2	0x3b378df0	0.0028008185
3	0x3bb8b708	0.0056370534
4	0x38edcdc4	0.000113393675
5	0x3a096371	0.0005240953
6	0x3d536642	0.051611193
7	0x3a435a1d	0.00074520876
8	0x3bcab088	0.006185595
9	0x33e30509	1.0571427e-07
10	0x3b584f7a	0.0033006356
11	0x00000004	6e-45
12	0x00000004	6e-45
13	0x3be8064e	0.0070808297
14	0x3d066e73	0.032820176
15	0x3939c2fc	0.00017715612
16	0x3abc7327	0.001437758
17	0x3930526d	0.00016815374
18	0x3d64ede2	0.055890925
19	0x3b6a6d32	0.0035770652
20	0x38a49ef0	7.849734e-05
21	0x00000004	6e-45
22	0x38d07cd4	9.941464e-05
23	0x3b9fca95	0.0048764446
24	0x3a0400e9	0.0005035536
25	0x00000004	6e-45
26	0x3afe3602	0.0019394758
27	0x3b0e1c10	0.0021684207
28	0x38cd06df	9.7764416e-05
29	0x3ae01249	0.0017095293
30	0x3846cc07	4.7396894e-05
31	0x375a7105	1.3020127e-05
32	0x3b324679	0.002720265
33	0x3cf4cb2f	0.029882042
34	0x00000004	6e-45
35	0x3d8509c2	0.06496002
36	0x22f91130	6.7509783e-18
37	0x3d830d36	0.06399004
38	0x348742fd	2.519445e-07
39	0x00000004	6e-45
40	0x3d828f40	0.06374979
41	0x00000004	6e-45
42	0x3ce35339	0.027749645
43	0x3bbbaf25	0.005727666
44	0x3cf08a3c	0.02936279
45	0x3cd3b1b5	0.025841573
46	0x3b1006e6	0.0021976768
47	0x3b8ceb68	0.0043005235
48	0x00000004	6e-45
49	0x38f687d6	0.000117554955
50	0x3a3971fc	0.0007074175
51	0x3bfdd8af	0.007746778
52	0x00000004	6e-45
53	0x39ba0d5e	0.00035486644
54	0x3c013f7a	0.007888669
55	0x38385d1a	4.3955726e-05
56	0x3cb98714	0.022647418
57	0x3a25c9e5	0.0006324335
58	0x3ce2be7a	0.027678717
59	0x3c44db31	0.01201515
60	0x37b3142f	2.1347862e-05
61	0x3c7fe42e	0.015618367
62	0x3a2389d6	0.00062384957
63	0x3cafdabd	0.021466607
64	0x3a99b286	0.0011726178
65	0x00000004	6e-45
66	0x3bd0aa9c	0.0063679945
67	0x3c6ba555	0.01438268
68	0x3aa8353a	0.0012833246
69	0x00000004	6e-45
70	0x00000004	6e-45
71	0x3b066443	0.0020506538
72	0x3aa63d76	0.0012683112
73	0x00000004	6e-45
74	0x3c92a6b0	0.017901748
75	0x3bb29a73	0.0054505407
76	0x3bb42c68	0.0054984577
77	0x3d2426d7	0.040076103
78	0x3c1d4d29	0.009600916
79	0x00000004	6e-45
80	0x00000004	6e-45
81	0x3ceba91c	0.028767161
82	0x3d229894	0.03969629
83	0x3cdc37da	0.0268821
84	0x3ab88e04	0.001408041
85	0x3d2b4669	0.041815195
86	0x3c8c3aea	0.017117936
87	0x3c7b65a8	0.015344061
88	0x00000004	6e-45
89	0x3a924f35	0.0011162522
90	0x39056530	0.00012721564
91	0x3d547605	0.051870365
92	0x3a25d36b	0.0006325754
93	0x3a9a5ce7	0.0011776955
94	0x3d2a7775	0.04161783
95	0x3c2e6cc2	0.010646047
96	0x38a3bc85	7.80756e-05
97	0x37b8d9aa	2.2035867e-05
98	0x3acd3090	0.0015654732
99	0x00000004	6e-45
100	0x3c6ef85d	0.014585582
101	0x3d2f38f8	0.04277894
102	0x3bbaf595	0.005705545
103	0x3cf75899	0.030193614
104	0x3a1af943	0.00059117767
105	0x3a8e24a7	0.0010844663
106	0x3bce2ff6	0.0062923385
107	0x3b68caa3	0.0035521172
108	0x00000004	6e-45
109	0x3cb78770	0.022403449
110	0x3b46e0e0	0.0030346438
111	0x00000004	6e-45
112	0x3d0cb69c	0.034353837
113	0x00000004	6e-45
114	0x3d2924ba	0.04129479
115	0x39b16ec3	0.00033842595
116	0x00000004	6e-45
117	0x3b0acb42	0.002117828
118	0x3c761e1f	0.01502183
119	0x3bb4d1e2	0.005518184
120	0x3bfe89a5	0.0077678734
121	0x3c8f2ad6	0.01747648
122	0x3b36cea2	0.002789416
123	0x3d38d10a	0.04512123
124	0x3b9a4f16	0.004709135
125	0x00000004	6e-45
126	0x39c27a18	0.0003709353
127	0x3ba2dd82	0.0049702534

fc2.weight f4 [64, 128]
0	0xbd36de23	-0.04464544
1	0x39a57054	0.00031554943
2	0x3c9d76ec	0.019221745
3	0xbb4bc494	-0.0031092511
4	0xbd5e26e9	-0.054236326
5	0x3d94b3ed	0.072608806
6	0xbd4041fc	-0.046937928
7	0x3d8417b3	0.06449833
8	0xbda865cd	-0.08222542
9	0xbc8c3170	-0.017113417
10	0x3da1610a	0.07879837
11	0xbcdd55e8	-0.027018502
12	0x3db69b5e	0.08916353
13	0xbd6077c0	-0.054801702
14	0xbda19849	-0.07890374
15	0xbd1012de	-0.035174243
16	0x3d1b4cda	0.03791509
17	0x3db3a594	0.08771816
18	0xbd164a1c	-0.03669177
19	0x3d29e1a9	0.041474972
20	0xba8681be	-0.0010262055
21	0x3985dcc3	0.00025532217
22	0x3d8f2fc8	0.069915354
23	0xbd9610cd	-0.07327423
24	0x3c919839	0.01777278
25	0x3d9735cf	0.0738331
26	0x3af029db	0.0018323021
27	0x3d727947	0.05919769
28	0xbbd33fc6	-0.0064468114
29	0x3d959a73	0.073048495
30	0xbd9f8e4a	-0.07790811
31	0x3bd36c7f	0.0064521427
32	0xbcbf29b3	-0.023335313
33	0x3d011c1e	0.031520955
34	0x3ced9fbb	0.02900683
35	0x3d96cc9d	0.07363246
36	0xbc915c04	-0.017744072
37	0xbc0bbdef	-0.00852917
38	0x3db96930	0.09053266
39	0xbc83c296	-0.016083997
40	0x3d93be87	0.072140746
41	0xbd474c10	-0.048656523
42	0xbbe2c2d4	-0.006920198
43	0xbbef3dd1	-0.0073010703
44	0x3d3217d2	0.043479748
45	0x3d84b452	0.06479706
46	0xbc320065	-0.010864352
47	0xbd8fbe0c	-0.070186704
48	0x3d2399b6	0.039941512
49	0x3cf02899	0.029316233
50	0x3d3a2c2d	0.045452286
51	0xbd8fbf30	-0.07018888
52	0x3d72ac8e	0.059246592
53	0x3dab51cd	0.08365212
54	0x3c06917c	0.008213397
55	0xbda6278f	-0.08113014
56	0x3d4fe2a1	0.05075324
57	0xbdabd335	-0.08389894
58	0x3cd29114	0.025703944
59	0x3c068fc4	0.008212987
60	0xbd132f09	-0.035933528
61	0x3d2a34dd	0.04155432
62	0xbd8e1b8b	-0.06938847
63	0x3c92d327	0.01792295
64	0xbd3c97f6	-0.04604336
65	0xbc95ab0f	-0.018270044
66	0x3bf5743b	0.0074906624
67	0x3d99d1a6	0.075106904
68	0xbd0b7c1e	-0.034053914
69	0x3d8aa7db	0.06770297
70	0xbcdf5b4e	-0.027265217
71	0xbd5f3193	-0.054490637
72	0xbd93c1bc	-0.07214686
73	0xbdab19a9	-0.08354504
74	0x3dd388bf	0.103288166
75	0xbd108e3e	-0.035291903
76	0x3d2c9d54	0.042142227
77	0x3ca58a09	0.020207422
78	0x3d8cffe8	0.06884748
79	0x3d94dfa2	0.07269217
80	0x3daceb41	0.084433086
81	0xbd73c619	-0.059515093
82	0xbc8dfd49	-0.01733269
83	0xbd5df1cd	-0.054185677
84	0xbd2ba680	-0.041906834
85	0x3cd2ad1d	0.025717312
86	0x3db226b6	0.0869879
87	0xbda92067	-0.082581334
88	0x3d86d327	0.06583243
89	0xbd227a17	-0.039667215
90	0xbc192ea3	-0.009349498
91	0x3d9b7031	0.07589758
92	0xbc72b892	-0.014814513
93	0x3c9eb35e	0.019372638
94	0xbd652eba	-0.055952765
95	0x3dadb2c9	0.08481366
96	0xbba3aa4a	-0.0049946653
97	0xbd6d72cb	-0.057970803
98	0x3cc13915	0.02358679
99	0xbd555821	-0.052086
100	0xbd94b00b	-0.0726014
101	0x3c3608ce	0.011110498
102	0x3d56ca82	0.05243922
103	0xbcdd976d	-0.027049745
104	0x3d174ae5	0.03693666
105	0x3da2b601	0.07944871
106	0x3d64d225	0.055864472
107	0xbd7c1e01	-0.06155205
108	0xbaa6c176	-0.0012722451
109	0xbc8da764	-0.017291732
110	0xbda29133	-0.07937851
111	0x3b754a77	0.0037428418
112	0x3d930fc7	0.07180744
113	0x3db182d7	0.08667534
114	0x3b30fcbc	0.002700611
115	0x3c0ec058	0.0087128505
116	0xbd0f520d	-0.03499036
117	0x3d820fdf	0.063506834
118	0xbcdcd931	-0.026959034
119	0xbd9f7769	-0.077864476
120	0x3b561ff9	0.0032672866
121	0x3d6e6134	0.05819817
122	0xbdadbe67	-0.08483582
123	0x3db1bfe2	0.08679177
124	0x3cf443c1	0.029817464
125	0xbd0fdd2f	-0.035123046
126	0xbcc26581	-0.023730041
127	0x3d8b26a7	0.06794482
128	0xbd911335	-0.070837416
129	0xbc798ed3	-0.015231806
130	0x3d21dbbe	0.039516203
131	0xbd8435bd	-0.06455562
132	0x3d5b0503	0.053471576
133	0x3d8215d9	0.06351823
134	0x3d3fae37	0.046797004
135	0xbd2dd6f3	-0.04244132
136	0x3dc74489	0.09729869
137	0xbcfe068b	-0.03100898
138	0x3d91e451	0.07123626
139	0xbd981bbc	-0.07427165
140	0xbd927aac	-0.07152304
141	0x3d397b01	0.04528332
142	0x3c5bafa2	0.013408573
143	0x3c1044e2	0.008805485
144	0xbd91129e	-0.07083629
145	0xbd04da5e	-0.032434814
146	0xbd03ad1e	-0.03214752
147	0xbde54079	-0.11193938
148	0xbc9cff3b	-0.019164672
149	0x3b9eb3d0	0.0048432127
150	0xba870e2b	-0.0010303905
151	0x3d04deb0	0.032438934
152	0x3da5be17	0.080928974
153	0x3c896405	0.016771326
154	0xbd128116	-0.035767637
155	0xbccc831c	-0.024964862
156	0xbdc04a66	-0.093891904
157	0xbd81e337	-0.06342166
158	0xbc3b4e6c	-0.011432271
159	0xbd6e5e59	-0.058195446
160	0x3d2d452f	0.042302307
161	0xbd3286a5	-0.04358544
162	0x3d8076b8	0.06272644
163	0xbd91d8b4	-0.07121411
164	0x3b71f302	0.0036918526
165	0x3daff19f	0.085910074
166	0x3d8f6aab	0.07002767
167	0xbd7d8085	-0.061890144
168	0x3cba9073	0.022773957
169	0x3c34d94a	0.011038134
170	0xbd44cf09	-0.048049007
171	0xbcd40645	-0.025881896
172	0x3c785e30	0.015159175
173	0xbd8e7cc1	-0.06957389
174	0x3c98a8ac	0.018635117
175	0x3d0e6fe8	0.03477469
176	0xbd323d3b	-0.043515425
177	0x3d9e9f64	0.07745245
178	0xbc13c8dc	-0.009020057
179	0x3d7df2bf	0.06199908
180	0x3db3493a	0.08754201
181	0xbd4e9fbf	-0.050445314
182	0x3d23a82e	0.03995531
183	0xbbe83bca	-0.0070872055
184	0x3aa8d8a3	0.0012881946
185	0x3c7dc06f	0.015487774
186	0xbbe46cb1	-0.006970965
187	0xbd081604	-0.03322412
188	0x3cb58d0f	0.022161989
189	0xbbc9287a	-0.0061388584
190	0x3d7583d0	0.05994016
191	0xbc827cc7	-0.01592864
192	0x3bccb538	0.006247189
193	0xbd29e633	-0.0414793
194	0xbd918399	-0.071051784
195	0x3d21d306	0.03950789
196	0x3c148325	0.00906447
197	0xbd418678	-0.04724738
198	0xbd125dd8	-0.035734028
199	0x3d22aafd	0.03971385
200	0xbc449986	-0.011999493
201	0x3d1ee367	0.038791087
202	0xbc2dd849	-0.010610648
203	0x3d4c0f06	0.049819015
204	0x3cbcbaf9	0.023038374
205	0xbc81087e	-0.01575112
206	0x3cde8bf1	0.027166339
207	0x3d3bb4db	0.045826774
208	0x3c410319	0.011780524
209	0x3c1f1987	0.009710676
210	0x3c0003c9	0.007813402
211	0x3d8a4252	0.06750931
212	0xbd468715	-0.048468668
213	0xbd5eae6a	-0.054365553
214	0x3d2b2c40	0.041790247
215	0xbd7f0612	-0.06226165
216	0x3c310c79	0.010806196
217	0xbd167818	-0.036735624
218	0x3d7cd360	0.06172502
219	0xbdb9582d	-0.09050021
220	0x3d6b5e2f	0.057462867
221	0x3dac2432	0.08405341
222	0x3c1ebac7	0.009688086
223	0xbc86202c	-0.016372763
224	0x3db1b25e	0.08676599
225	0xbcaf5e71	-0.021407338
226	0xbb8e2df6	-0.004338975
227	0xbcf8dc77	-0.030378563
228	0xbbc32320	-0.005955115
229	0x3c2d8e40	0.010592997
230	0x3cf97183	0.030449634
231	0xbc4ac353	-0.0123756705
232	0xbdb11d01	-0.0864811
233	0xbc8c5320	-0.01712948
234	0xbcee35fa	-0.029078472
235	0x3d055a88	0.03255704
236	0x3d8f8725	0.07008199
237	0x3d96454e	0.073374376
238	0xbd20b049	-0.03923062
239	0x3bdcb416	0.006735335
240	0xbd32e807	-0.04367831
241	0xbd935dcb	-0.07195624
242	0xbd648e9e	-0.055800073
243	0x3dc5c929	0.09657509
244	0x3d6c484e	0.057686143
245	0x3d39587c	0.0452504
246	0x3d108395	0.035281736
247	0xbd579da2	-0.052640565
248	0x3cb4598e	0.02201536
249	0x3d9c3632	0.076275244
250	0xbd398211	-0.045290057
251	0x3d8c5fe9	0.06854231
252	0x3c92c48c	0.017915986
253	0x3d766210	0.060152113
254	0xbd195bbc	-0.037441
255	0x3d624122	0.055237897

fc2.bias f4 [64]
0	0x3cbb927b	0.022896996
1	0x3d968dfc	0.073513
2	0x3d4bd2fd	0.04976176
3	0xbd0da7d4	-0.03458388
4	0xbc23b0a1	-0.009990842
5	0x3ce65d0c	0.02812054
6	0xbd7b76f3	-0.061392736
7	0xbc90424b	-0.017609736
8	0x3ce2277f	0.027606724
9	0xbd1394df	-0.036030646
10	0x3d1e5c3e	0.038662188
11	0x3a76da22	0.00094166596
12	0x3db098d3	0.08622899
13	0xbd722be3	-0.059123885
14	0x3da22a22	0.079181924
15	0x3dc0739b	0.0939705
16	0xbd813d47	-0.06310516
17	0x3ca49445	0.020090232
18	0xba822b1a	-0.0009931058
19	0x3d7366fa	0.059424378
20	0x3d89193e	0.06694268
21	0xbd236d36	-0.039899074
22	0xbd163819	-0.036674593
23	0xbd8291c8	-0.06375462
24	0x3d8c4539	0.06849141
25	0xbd917a7a	-0.07103439
26	0xbd4bbc42	-0.049740084
27	0x3d9d6cf2	0.07686795
28	0x3d549a22	0.051904805
29	0x3d8ac93b	0.06776663
30	0x3d86bdb0	0.06579149
31	0xbd971895	-0.073777355
32	0xbb9b9c2c	-0.0047488417
33	0x3bf420f1	0.007450216
34	0x3dc90c18	0.0981676
35	0x3af35c3b	0.0018566916
36	0x3ab57ad2	0.0013845807
37	0x3d8af7f5	0.06785575
38	0x3d94c302	0.07263757
39	0xbd417122	-0.047227032
40	0xbd9bc686	-0.07606225
41	0xbc8d23f7	-0.017229063
42	0x3d2deb52	0.042460747
43	0x3dccc3a7	0.09998255
44	0x3d3d035e	0.04614579
45	0x3d7cce52	0.0617202
46	0x3cd59fdf	0.026077209
47	0xbc1dc05f	-0.009628384
48	0xb92d7d74	-0.000165453
49	0x3db25d4e	0.08709203
50	0x3c929426	0.017892908
51	0xb988b0d1	-0.0002607168
52	0x3da0aa72	0.0784501
53	0x3d703182	0.058640964
54	0x3cbb159f	0.022837458
55	0x3b240cb8	0.0025031995
56	0xbd05eed1	-0.032698456
57	0xbd3ee3e7	-0.046604063
58	0xbce46ffd	-0.027885431
59	0x3da76baa	0.08174832
60	0x3d66c93b	0.056344252
61	0xbd30dd86	-0.04318001
62	0x3d932007	0.07183843
63	0xbc398da9	-0.011325278

bn2.weight f4 [64]
0	0x3f814be1	1.0101281
1	0x3f7dc8a4	0.9913428
2	0x3f821dfb	1.0165399
3	0x3f81182e	1.0085504
4	0x3f756813	0.9586193
5	0x3f78a737	0.9713015
6	0x3f809116	1.0044277
7	0x3f76e1f6	0.9643854
8	0x3f7c925a	0.98660815
9	0x3f79397b	0.97353333
10	0x3f81cc88	1.0140543
11	0x3f7b40e5	0.98145896
12	0x3f7c42b5	0.98539287
13	0x3f8029eb	1.0012792
14	0x3f7a3ed8	0.9775214
15	0x3f821890	1.0163746
16	0x3f7c98d4	0.986707
17	0x3f77f55d	0.9685877
18	0x3f81be02	1.0136111
19	0x3f81d8e0	1.014431
20	0x3f7d3da7	0.989222
21	0x3f7c6ece	0.98606575
22	0x3f7cb4ed	0.9871357
23	0x3f81a122	1.0127299
24	0x3f7b99d1	0.9828158
25	0x3f80f3ff	1.0074462
26	0x3f78621a	0.9702469
27	0x3f815afa	1.0105889
28	0x3f7c6e27	0.9860558
29	0x3f7cd92b	0.9876887
30	0x3f857786	1.0427101
31	0x3f7bba5f	0.98331255
32	0x3f7bb896	0.9832853
33	0x3f8399eb	1.0281347
34	0x3f81507b	1.0102686
35	0x3f7f21d2	0.9966098
36	0x3f8073b8	1.0035315
37	0x3f7affe8	0.9804673
38	0x3f78c6df	0.97178453
39	0x3f7d2d50	0.98897266
40	0x3f7ff282	0.9997941
41	0x3f7c492b	0.98549145
42	0x3f7919fa	0.9730526
43	0x3f7b0a1e	0.9806231
44	0x3f8158dc	1.0105243
45	0x3f782d08	0.9694371
46	0x3f78c9c0	0.97182846
47	0x3f7abc99	0.9794403
48	0x3f7955d9	0.9739662
49	0x3f78b905	0.9715732
50	0x3f7b9c16	0.98285043
51	0x3f8348ea	1.0256627
52	0x3f80ee8b	1.0072798
53	0x3f796df3	0.97433394
54	0x3f7b8b2f	0.9825925
55	0x3f80f851	1.007578
56	0x3f84032e	1.031347
57	0x3f7b2224	0.9809897
58	0x3f81fa95	1.0154597
59	0x3f818b8f	1.0120715
60	0x3f7bb968	0.9832978
61	0x3f785521	0.97004896
62	0x3f82631b	1.0186495
63	0x3f7cdecf	0.9877748

bn2.bias f4 [64]
0	0x3f515888	0.8177571
1	0xbf4a01ff	-0.78909296
2	0x3f39545d	0.72394353
3	0x3f42814f	0.7597856
4	0x3f548af4	0.83024526
5	0x3f4d3ec8	0.8017392
6	0xbf45a926	-0.77211225
7	0x3f50e3ef	0.815978
8	0x3f3aba39	0.72940403
9	0x3f3b5b66	0.7318634
10	0xbf3952f3	-0.72392195
11	0xbf4492bc	-0.767864
12	0x3f3800ce	0.7187623
13	0x3f3cdf23	0.7377798
14	0x3f42113e	0.7580756
15	0xbf389d1e	-0.7211474
16	0xbf41e434	-0.75738835
17	0xbf4bcaf0	-0.79606533
18	0xbf42b4b0	-0.7605696
19	0xbf564227	-0.8369469
20	0xbf3d4993	-0.7394039
21	0x3f3a21f1	0.7270804
22	0xbf3bd046	-0.73364675
23	0xbf468598	-0.775476
24	0xbf492218	-0.7856765
25	0xbf3f1c40	-0.7465248
26	0x3f55ce5e	0.83518016
27	0x3f46a52b	0.77595776
28	0x3f4b0fbf	0.793209
29	0x3f3cc73d	0.73741513
30	0x3f5b63b2	0.85699
31	0xbf435818	-0.76306295
32	0xbf51965e	-0.8187007
33	0x3f5c04f9	0.8594509
34	0xbf4a3205	-0.78982574
35	0x3f392263	0.72318095
36	0x3f40a6dd	0.75254613
37	0x3f39ba47	0.7254986
38	0xbf37a1f7	-0.71731514
39	0x3f38ead1	0.722333
40	0xbf44203d	-0.7661169
41	0xbf3d6a02	-0.7398988
42	0x3f4e47b5	0.80578166
43	0x3f525031	0.8215361
44	0xbf3cc808	-0.73742723
45	0x3f3d12de	0.73856914
46	0x3f39bdc1	0.72555166
47	0x3f532381	0.8247605
48	0x3f55bd04	0.8349154
49	0x3f474746	0.7784313
50	0xbf5945e7	-0.8487229
51	0xbf41730a	-0.7556616
52	0xbf4419d8	-0.76601934
53	0xbf4e38c2	-0.80555356
54	0xbf3f085b	-0.74622124
55	0x3f47080c	0.77746654
56	0xbf539c15	-0.8266004
57	0xbf49168e	-0.7855004
58	0xbf487b4a	-0.78313124
59	0x3f4be0a3	0.79639643
60	0xbf3bd682	-0.7337419
61	0x3f3e4e93	0.74338645
62	0x3f42d436	0.7610506
63	0x3f3747bc	0.7159383

bn2.running_mean f4 [64]
0	0x3f1b7a91	0.60733896
1	0x3e487fdc	0.19580024
2	0x3ea7023a	0.32618886
3	0x3f11cea8	0.5695596
4	0x3e0e29b9	0.13883103
5	0x3ed17c68	0.40915227
6	0x3d8799ad	0.06621108
7	0x3e1b1f3c	0.15148634
8	0x3edcb464	0.43106377
9	0x3d8150dd	0.063142516
10	0x3ef282eb	0.47365507
11	0x3e673d48	0.2258197
12	0x3e87daaf	0.2653403
13	0x3ee195f3	0.44059715
14	0x3e937c37	0.28805706
15	0x3e9b3dee	0.30320686
16	0x3eaac6f0	0.33354902
17	0x3e4985af	0.19679902
18	0x3ecfd763	0.40594015
19	0x3ed0318c	0.406628
20	0x3ef85417	0.48501655
21	0x3e8fe7f9	0.2810667
22	0x3ec2a025	0.38012806
23	0x3e801b74	0.25020945
24	0x3edb072e	0.42778915
25	0x3e32c5ed	0.17458315
26	0x3ddece84	0.108792335
27	0x3ed75002	0.4205323
28	0x3e5fc21a	0.21851388
29	0x3efbccb7	0.49179623
30	0x3ef1b5a7	0.47208902
31	0x3e38dd53	0.18053178
32	0x3ee65f4e	0.44994587
33	0x3ec4b19f	0.38416764
34	0x3eb70ae1	0.35750487
35	0x3e9020da	0.28150064
36	0x3ec101c9	0.37696674
37	0x3e6d07e4	0.23147541
38	0x3e6a0315	0.22852738
39	0x3ea02472	0.31277806
40	0x3e0c98e3	0.13730197
41	0x3eb3e5ae	0.3513617
42	0x3ead1bcc	0.3381027
43	0x3ee6abf6	0.4505307
44	0x3eb92c13	0.36166438
45	0x3e417f91	0.18896319
46	0x3e30fe50	0.17284513
47	0x3eeb3a58	0.4594295
48	0x3e5e8ccb	0.21733396
49	0x3eb3d1f2	0.35121113
50	0x3ee8334d	0.4535164
51	0x3e5b5326	0.21418437
52	0x3f2b7760	0.66979027
53	0x3e942ae6	0.2893898
54	0x3eae07e3	0.33990392
55	0x3f00a7fa	0.5025631
56	0x3eae063c	0.3398913
57	0x3ecaba47	0.39595243
58	0x3edcf899	0.43158415
59	0x3f604da0	0.87618446
60	0x3ddb4afc	0.107076615
61	0x3eab4a89	0.33455303
62	0x3effd2c4	0.4996549
63	0x3e7ef617	0.24898563

bn2.running_var f4 [64]
0	0x3ee3a02d	0.44458142
1	0x3ecff98c	0.40620077
2	0x3decb1ec	0.115573734
3	0x3eb3ed76	0.35142106
4	0x3e8a78c1	0.27045253
5	0x3e78aec4	0.24285418
6	0x3e287e2e	0.16454384
7	0x3ef5baac	0.47993982
8	0x3e85f28c	0.2616161
9	0x3e19dd39	0.15025796
10	0x3e8d3089	0.27576092
11	0x3d7997e2	0.060935862
12	0x3da571b3	0.08078327
13	0x3e5db052	0.21649292
14	0x3e1447b1	0.14480473
15	0x3dc6bcf1	0.097040065
16	0x3de207e1	0.11036659
17	0x3db53b42	0.08849193
18	0x3e3a9f12	0.18224743
19	0x3e3928b5	0.18081935
20	0x3e8755d3	0.26432666
21	0x3ddac2f0	0.106817126
22	0x3e20cd9b	0.15703432
23	0x3d9c99ca	0.076465204
24	0x3e4ff9ba	0.20310107
25	0x3f28ccfb	0.65937775
26	0x3e13c7d0	0.14431691
27	0x3e4590c2	0.19293502
28	0x3d5d8fd1	0.054092232
29	0x3e81699a	0.2527588
30	0x3e79526f	0.24347852
31	0x3d5ff439	0.05467627
32	0x3e6220f7	0.22082888
33	0x3e23c01a	0.1599125
34	0x3e06efbb	0.13177387
35	0x3de16df5	0.11007301
36	0x3e242531	0.16029812
37	0x3d664089	0.05621389
38	0x3d79b0a2	0.060959466
39	0x3dd4b1e6	0.10385494
40	0x3e4703b6	0.1943501
41	0x3e1a7882	0.15085033
42	0x3e103226	0.1408163
43	0x3e5eefde	0.2177119
44	0x3ea869ca	0.3289321
45	0x3ea93436	0.33047646
46	0x3ed2a177	0.41138813
47	0x3eaf126f	0.3419375
48	0x3d9ab7b9	0.075545736
49	0x3e09af66	0.13445815
50	0x3e73866d	0.23781748
51	0x3f997eec	1.1991858
52	0x3ef0f5d5	0.47062555
53	0x3dcd1b1c	0.10014936
54	0x3e1aa17f	0.15100668
55	0x3e943978	0.28950095
56	0x3e017ac4	0.12644488
57	0x3e43bb22	0.19114354
58	0x3e54b780	0.20773125
59	0x3f558cc7	0.83417934
60	0x3d62fc14	0.05541618
61	0x3ebfb30c	0.3744129
62	0x3e8ba7b6	0.2727639
63	0x3db71a07	0.08940511

fc3.weight f4 [1, 64]
0	0xbf2e3eeb	-0.68064755
1	0x3f36e2d7	0.7143988
2	0xbf31e148	-0.69484377
3	0xbf31920f	-0.6936349
4	0xbf3fc67f	-0.74912256
5	0xbf36b165	-0.7136443
6	0x3f3e9ff3	0.74462813
7	0xbf3dba4a	-0.7411238
8	0xbf550cd5	-0.83222705
9	0xbf58488d	-0.84485704
10	0x3f52d4e9	0.82356125
11	0x3f434c89	0.7628866
12	0xbf533add	-0.82511693
13	0xbf4b60fd	-0.7944487
14	0xbf46a88a	-0.7760092
15	0x3f3e7c99	0.7440887
16	0x3f361057	0.7111868
17	0x3f3cd5ee	0.7376393
18	0x3f402ae6	0.7506546
19	0x3f2b1b5c	0.6683862
20	0x3f3da8fa	0.7408596
21	0xbf388cab	-0.7208964
22	0x3f4520d3	0.7700321
23	0x3f2c3412	0.67266953
24	0x3f3d975e	0.74059093
25	0x3f4dfcb6	0.8046373
26	0xbf338985	-0.70131713
27	0xbf2cfc43	-0.6757242
28	0xbf3eb2c9	-0.74491554
29	0xbf46e70d	-0.77696306
30	0xbf3411cf	-0.70339674
31	0x3f441d20	0.7660694
32	0x3f30bdeb	0.6903979
33	0xbf32248e	-0.6958703
34	0x3f2c8f59	0.6740623
35	0xbf40ccb4	-0.7531235
36	0xbf3632d4	-0.7117131
37	0xbf47a43e	-0.7798499
38	0x3f4dc12a	0.8037287
39	0xbf48621f	-0.7827472
40	0x3f337466	0.70099485
41	0x3f43dea3	0.7651159
42	0xbf34fc76	-0.70697725
43	0xbf368ca3	-0.71308345
44	0x3f47747c	0.77912116
45	0xbf42be0d	-0.76071244
46	0xbf58f62c	-0.8475063
47	0xbf322935	-0.69594127
48	0xbf338e7a	-0.70139277
49	0xbf456374	-0.7710488
50	0x3f309ac6	0.68986166
51	0x3f4faa34	0.81119084
52	0x3f295097	0.66138595
53	0x3f354311	0.7080546
54	0x3f421564	0.7581389
55	0xbf33e23a	-0.7026707
56	0x3f3bb5f8	0.7332454
57	0x3f3dd67d	0.7415541
58	0x3f434c33	0.76288146
59	0xbf2b6980	-0.66957855
60	0x3f4d5c86	0.80219305
61	0xbf5009dd	-0.8126505
62	0xbf287939	-0.6580997
63	0xbf42f7fd	-0.7615965
