PreTrained/cstr_ode/Deep_DQN/0_5/100.pth (torch, 43158 bytes, 13 tensors)

fc1.weight f4 [128, 4]
0	0xbc39e7da	-0.011346782
1	0x3e8df9f1	0.27729753
2	0xbed77448	-0.42080903
3	0xbeb94f71	-0.3619342
4	0xbe4532f4	-0.19257718
5	0x3e094bec	0.13407868
6	0xbc224f40	-0.00990659
7	0x3ecaface	0.39644474
8	0xbd496c64	-0.049175635
9	0x3e06e6eb	0.13174026
10	0xbe250c2b	-0.16117923
11	0xbdae32f6	-0.08505814
12	0xbef7988c	-0.48358572
13	0xbea7a04b	-0.3273948
14	0xbe5866d3	-0.21132974
15	0x3c54982c	0.012975734
16	0x3e441c3c	0.19151396
17	0x3e9cc191	0.3061643
18	0xbeb0b407	-0.3451235
19	0xbe54cfbd	-0.20782371
20	0x3e33aac1	0.17545606
21	0x3ed7a49b	0.42117772
22	0xbddebce0	-0.10875869
23	0x3ebf915c	0.37415588
24	0xbdb9aa8e	-0.09065734
25	0x3d89abb9	0.067222066
26	0x3ee24dd8	0.44200015
27	0xbeefc231	-0.46827844
28	0xbea41c98	-0.32053065
29	0xbdf67361	-0.120337255
30	0xbe4756cc	-0.19466704
31	0x3edd2f28	0.4320004
32	0xbea71bcc	-0.32638395
33	0xbe698ff7	-0.22808824
34	0xbeae7196	-0.34071034
35	0xbeeb4e3c	-0.45958126
36	0xbe95c471	-0.29251435
37	0x3edbdd6b	0.42942366
38	0x3e57e445	0.21083172
39	0x3e782700	0.24233627
40	0x3d1126e5	0.035437483
41	0xbe84dcce	-0.2594971
42	0x3dab4863	0.08363416
43	0xbee47258	-0.44618487
44	0xbeb8fa1a	-0.36128312
45	0xbe83f9c6	-0.257765
46	0x3ea18526	0.31546897
47	0x3e961926	0.29316062
48	0xbe6311c8	-0.22174752
49	0xbc93cb20	-0.018041193
50	0x3ea3ba40	0.31978035
51	0x3efe7f82	0.49706656
52	0x3e504052	0.20337036
53	0x3d527ddb	0.051389556
54	0x3eafe7cb	0.34356532
55	0xbe9021b4	-0.28150713
56	0x3db06eb6	0.086148664
57	0xbec64973	-0.38727912
58	0xbeb38dce	-0.35069126
59	0xbe7365f7	-0.23769365
60	0x3e6c312a	0.2306563
61	0x3e496157	0.19666038
62	0xbe95611b	-0.29175648
63	0x3e1aadc8	0.15105355
64	0x3e877e3d	0.264635
65	0xbd4a95ec	-0.049459383
66	0x3ceac939	0.028660404
67	0x3e01a20f	0.12659477
68	0x3ea0e46f	0.3142428
69	0x3ef3bbd9	0.47604254
70	0xbec3342b	-0.38125739
71	0xbe458bd1	-0.19291617
72	0x3e4de214	0.20105773
73	0x3ed05f86	0.4069788
74	0x3ee0ef21	0.4393244
75	0x3eec560f	0.46159407
76	0x3dd70bc7	0.10500293
77	0xbedffa73	-0.43745765
78	0x3d2bee60	0.04197538
79	0xbe988e8f	-0.29796264
80	0xbeecee3c	-0.46275508
81	0x3ee09eb1	0.43871072
82	0x3ec238cf	0.37933967
83	0xbefc7d1f	-0.4931421
84	0x3dbfaa08	0.09358603
85	0xbdac80c8	-0.084230006
86	0xbda882b8	-0.082280576
87	0xbe6a5f1c	-0.22887844
88	0x3e49e6d5	0.19716962
89	0xbe9a0ae5	-0.30086437
90	0x3e41599a	0.18881837
91	0x3e817616	0.25285405
92	0x3eb51b0d	0.353722
93	0x3e42e779	0.19033612
94	0xbeffa59c	-0.49931037
95	0xbea75e51	-0.32689145
96	0x3e83d9e5	0.25752178
97	0x3dc78731	0.097425826
98	0xbecc55dd	-0.39909258
99	0xbe8d9135	-0.27649847
100	0x3ef0d4f2	0.47037464
101	0x3eac7f54	0.33690894
102	0xbe5f3eb0	-0.21801257
103	0xbe00dcd4	-0.12584239
104	0xbef1b186	-0.47205752
105	0xbc5f2868	-0.013620473
106	0xbebd08b6	-0.36920708
107	0xbec823b6	-0.39089745
108	0xbcf55c01	-0.029951097
109	0x3d9d2e12	0.07674803
110	0xbe491f97	-0.19640957
111	0x3e980f6f	0.29699275
112	0xbe9c1f2a	-0.30492526
113	0x3ee9c950	0.45661402
114	0x3eafa300	0.34304047
115	0xbedc2c7b	-0.43002686
116	0xbdf26540	-0.11835718
117	0x3c8bc293	0.017060554
118	0x3da223c4	0.07916978
119	0x3ddf2c55	0.108971275
120	0x3e4bb789	0.19894232
121	0x3cdeffb6	0.027221542
122	0xbe7706a0	-0.24123621
123	0x3e7245d4	0.2365945
124	0xbef39a9c	-0.47578895
125	0xbe99ba3f	-0.30024907
126	0xbdf81f78	-0.12115377
127	0xbe75ce1a	-0.24004403
128	0xbe3fae61	-0.18718864
129	0xbecbb812	-0.39788872
130	0xbdd75337	-0.10513919
131	0x3dcc659b	0.09980317
132	0xbeab4e5c	-0.3345822
133	0xbca24d8f	-0.019812373
134	0x3eb299e9	0.3488305
135	0xbd4dab8d	-0.05021243
136	0x3c63ac80	0.013896108
137	0xbd30adc0	-0.04313445
138	0x3dcf3d10	0.101190686
139	0x3ea2c660	0.31791973
140	0x3eeeb57f	0.46622846
141	0x3ea5df29	0.3239682
142	0x3ef6f028	0.482301
143	0xbcf07a10	-0.029355079
144	0xbee45723	-0.4459773
145	0xbe735a31	-0.23764874
146	0x3eb07d98	0.3447082
147	0x3c34a765	0.011026238
148	0xbe82829a	-0.25490266
149	0xbec01aa5	-0.37520328
150	0xbef22e11	-0.4730077
151	0xbedc5845	-0.43036094
152	0xbddb05ae	-0.10694443
153	0x3e8e9b9f	0.27853104
154	0x3e824361	0.2544203
155	0xbef28dbe	-0.47373766
156	0x3e9fb02e	0.31189102
157	0xbec8528a	-0.39125472
158	0xbdd87bf0	-0.10570514
159	0xbe4f9a1c	-0.20273632
160	0xbdb15c8d	-0.08660231
161	0xbdd5b813	-0.104355
162	0xbeebc55b	-0.46049008
163	0xbeda4f99	-0.42638853
164	0xbda03c28	-0.07823974
165	0x3bd3e180	0.0064660907
166	0xbe6896b8	-0.22713745
167	0x3e40deb8	0.1883496
168	0xbeea4b76	-0.45760697
169	0xbd23dae2	-0.040003665
170	0x3edb31a3	0.42811307
171	0xbe601247	-0.21881972
172	0x3ee4d4ba	0.44693547
173	0x3e3601be	0.17774102
174	0xbeeb810b	-0.4599689
175	0x3ea1f874	0.31634867
176	0xbd4d18b4	-0.050072387
177	0xbe600fd5	-0.2188104
178	0x3ecb57be	0.3971538
179	0xbed68f13	-0.41906032
180	0x3d4f3700	0.05058956
181	0xbdc8c987	-0.09804063
182	0x3ebad3bf	0.36489674
183	0x3e0017a8	0.12509024
184	0x3e76bbca	0.24095073
185	0x3e39b00b	0.18133561
186	0xbde915da	-0.11381121
187	0xbdb212fc	-0.08695027
188	0xbed6932a	-0.41909152
189	0x3e8e9981	0.2785149
190	0x3ec7763a	0.38957387
191	0x3eaf295c	0.34211242
192	0xbeb386f5	-0.35063902
193	0x3ca5e434	0.020250417
194	0xbeb369b6	-0.3504159
195	0xbe8bdfae	-0.27319092
196	0xbe91ca99	-0.28474882
197	0x3e283631	0.16426922
198	0xbe952c2d	-0.29135266
199	0xbbfbe609	-0.0076873344
200	0x3cf2d8b6	0.029644351
201	0x3e9f8ff8	0.31164527
202	0xbeba80f2	-0.36426502
203	0xbeb38181	-0.3505974
204	0xbe942aea	-0.2893899
205	0x3eb0f2ad	0.34560147
206	0xbe2f7f04	-0.17138296
207	0x3ed76c95	0.4207503
208	0x3e3924a0	0.18080378
209	0x3d81aa40	0.06331301
210	0xbb73ed00	-0.003722012
211	0xbdca6d08	-0.09884077
212	0x3d7f620a	0.062349357
213	0xbdf0ea6f	-0.11763465
214	0xbb3d9c4e	-0.0028932276
215	0x3d58fb8a	0.05297426
216	0xbec92696	-0.3928725
217	0xbe81f558	-0.25382495
218	0x3ed0e9b6	0.40803307
219	0xbed2bb70	-0.41158628
220	0xbcb86bfb	-0.022512427
221	0x3ef5fe3b	0.48045525
222	0x3e429542	0.1900225
223	0x3cc24933	0.023716545
224	0xbedb4c28	-0.4283154
225	0x3e7859d1	0.24253012
226	0xbeb47c1f	-0.35250947
227	0xbe13948a	-0.14412132
228	0xbe37b247	-0.17939101
229	0xbd8db953	-0.069201134
230	0x398c5559	0.0002676647
231	0x3ed32696	0.41240376
232	0x3d8844c5	0.06653742
233	0x3ee33943	0.44379625
234	0x3e9dd7d0	0.30828714
235	0xbea956e6	-0.3307411
236	0x3e7276a8	0.23678076
237	0xbeba38b7	-0.36371395
238	0xbe4c9b45	-0.19981106
239	0x3e04f9bd	0.12985893
240	0x3e28e183	0.16492276
241	0x3ec025af	0.3752875
242	0xbe24ff95	-0.16113122
243	0x3ae6c3f2	0.0017606004
244	0x3e8f952f	0.28043506
245	0xbf003bd0	-0.50091267
246	0x3eb84153	0.35987338
247	0xbed57639	-0.4169176
248	0x3b78cadd	0.0037962713
249	0xbda7aa49	-0.08186776
250	0xbe86ef4a	-0.26354438
251	0x3d6b6b9f	0.057475682
252	0x3edb8b02	0.42879492
253	0xbe1a3a86	-0.15061387
254	0xbe9047ea	-0.28179866
255	0xbe46bd24	-0.19408089

fc1.bias f4 [128]
0	0xbe07e6b4	-0.132716
1	0xbe3edf14	-0.18639785
2	0x3dfa2957	0.12214916
3	0x3e2e193d	0.17001815
4	0xbe73d8eb	-0.23813216
5	0x3d1c85f5	0.03821369
6	0x3e94fb36	0.2909791
7	0xbd348f30	-0.044081867
8	0x3e1ae69b	0.15127032
9	0xbdf8d472	-0.12149896
10	0x3e33b51c	0.17549556
11	0xbeb971e6	-0.3621971
12	0xbe96890e	-0.2940144
13	0xbe7b9e75	-0.24572165
14	0x3eec6a70	0.46174955
15	0xbe0e4c05	-0.13896187
16	0xbc7b6f4d	-0.01534636
17	0xbe7c3695	-0.24630196
18	0x3efd1b00	0.49434662
19	0x3ef6f9af	0.48237368
20	0xbec3f33f	-0.3827152
21	0xbecf8810	-0.40533495
22	0xbebf3806	-0.3734743
23	0xbc682595	-0.0141691165
24	0xbe0c4d5e	-0.13701388
25	0xbea7904e	-0.32727283
26	0xbe349de3	-0.17638354
27	0x3dc0aa13	0.09407439
28	0xbe83b25e	-0.2572202
29	0x3ddf6fb2	0.10909976
30	0xbdf06863	-0.1173866
31	0xbe7bb182	-0.24579433
32	0x3d6ec1e8	0.058290392
33	0x3ed44025	0.41455188
34	0xbead1388	-0.33803964
35	0x3c9e97cd	0.019359494
36	0xbe387378	-0.18012798
37	0x3ef91674	0.48649943
38	0xbef7396a	-0.4828599
39	0xbef56ad2	-0.4793306
40	0x3efb5d16	0.49094456
41	0xbea1f7f8	-0.31634498
42	0x3dd80910	0.105486035
43	0xbd0d3462	-0.034473784
44	0xbdd828dc	-0.10554668
45	0xbdd4a6ad	-0.103833534
46	0x3ea33692	0.3187757
47	0x3c9521e9	0.018204646
48	0xbefa4ba8	-0.48885846
49	0xbe9a836f	-0.301784
50	0xbe2f10c8	-0.17096245
51	0x3e82a0c4	0.2551328
52	0xbea5aa8e	-0.32356685
53	0x3ef07d16	0.46970433
54	0xbdd890fc	-0.105745286
55	0xbdaa7dce	-0.083247766
56	0x3ecb2016	0.39672917
57	0x3e680602	0.22658542
58	0x3ed6f4e1	0.41983703
59	0x3e941849	0.28924778
60	0xbe1b23c7	-0.15150367
61	0xbea29603	-0.31755075
62	0xbd25de22	-0.040495045
63	0x3ed44f50	0.4146676
64	0xbe29a8a6	-0.1656824
65	0xbeed681e	-0.46368498
66	0x3e4a5ef8	0.1976279
67	0x3ef8dc29	0.4860547
68	0xbe113313	-0.1417964
69	0xbed3f95a	-0.41401178
70	0xbee83510	-0.45352983
71	0x3e072b68	0.13200152
72	0xbce309d1	-0.027714642
73	0xbe811e0b	-0.25218233
74	0x3dd4d1ea	0.103916004
75	0x3e436b47	0.19083892
76	0x3ec9451c	0.3931054
77	0x3ec6a6cc	0.3879913
78	0xbd936b7d	-0.07198236
79	0xbee1bb7e	-0.44088358
80	0xbee753d8	-0.45181155
81	0x3eeba19f	0.46021745
82	0x3e66c46c	0.22535866
83	0x3e673231	0.2257774
84	0xbedac102	-0.42725378
85	0x3eea22d9	0.45729712
86	0x3ef2819b	0.47364506
87	0x3eec68c5	0.46173683
88	0xbed7f530	-0.4217925
89	0xbe39ad75	-0.18132575
90	0xbeaf68a4	-0.34259522
91	0x3ef25982	0.47333914
92	0xbe5a5dff	-0.21324919
93	0xbe71a795	-0.23599084
94	0x3e83d891	0.25751165
95	0xbe66a021	-0.22522022
96	0xbe785b26	-0.2425352
97	0xbd1e8b89	-0.03870729
98	0xbd5a2384	-0.053256527
99	0xbec76b22	-0.38948923
100	0x3ecd590e	0.40107006
101	0xbe69ceff	-0.22832869
102	0x3e3e4f52	0.18584946
103	0x3edf6269	0.43629768
104	0x3e6d0ff5	0.23150618
105	0x3d7f0bb4	0.06226702
106	0x3ed83693	0.42229137
107	0x3d6c2bde	0.057659023
108	0xbe61bcf1	-0.22044732
109	0x3ef190f4	0.47180903
110	0x3dfe5c0d	0.12419901
111	0xbef9c638	-0.4878404
112	0xbe0f528a	-0.1399633
113	0xbeae60fe	-0.34058374
114	0x3ee6b9b7	0.45063564
115	0xbd83e7b1	-0.06440676
116	0xbeeac16f	-0.45850703
117	0xbd0b458d	-0.034001876
118	0x3e9ebd89	0.3100398
119	0x3e053fcf	0.13012622
120	0x3e26a1d0	0.16272664
121	0x3d73ef5a	0.059554435
122	0x3e3f7f68	0.18700945
123	0xbe084cb7	-0.13310514
124	0xbe41a9ee	-0.1891248
125	0xbeef490e	-0.46735424
126	0xbebf99ea	-0.37422115
127	0x3e5c0ae4	0.2148853

bn1.weight f4 [128]
0	0x3f80222c	1.0010428
1	0x3f800000	1.0
2	0x3f803ddc	1.0018878
3	0x3f7eb657	0.9949698
4	0x3f80d6f8	1.0065603
5	0x3f7de8d8	0.99183416
6	0x3f80b621	1.0055581
7	0x3f802652	1.0011694
8	0x3f809ec6	1.0048454
9	0x3f7dc15d	0.99123174
10	0x3f7e91bf	0.9944114
11	0x3f800000	1.0
12	0x3f800000	1.0
13	0x3f7e9c34	0.994571
14	0x3f7ea76f	0.99474233
15	0x3f7eec97	0.9957976
16	0x3f7e27fb	0.99279755
17	0x3f7f34b3	0.9968979
18	0x3f8005ad	1.0001732
19	0x3f815f53	1.0107216
20	0x3f7da8f8	0.9908595
21	0x3f800000	1.0
22	0x3f7e6064	0.9936583
23	0x3f7f5cfc	0.9975126
24	0x3f800602	1.0001833
25	0x3f800000	1.0
26	0x3f7f68c6	0.99769247
27	0x3f802233	1.0010437
28	0x3f813682	1.009476
29	0x3f7e42e4	0.99320817
30	0x3f7fc8a7	0.99915546
31	0x3f7eceaf	0.99534124
32	0x3f7e58b1	0.9935408
33	0x3f814549	1.0099269
34	0x3f800000	1.0
35	0x3f802438	1.0011053
36	0x3f7e842f	0.99420446
37	0x3f80f498	1.0074644
38	0x3f7c49ea	0.98550284
39	0x3f800000	1.0
40	0x3f7f1da2	0.9965459
41	0x3f800000	1.0
42	0x3f808629	1.0040942
43	0x3f7e1c0e	0.9926156
44	0x3f7f9103	0.99830645
45	0x3f803875	1.0017229
46	0x3f7fa92e	0.9986752
47	0x3f804f76	1.002425
48	0x3f7f7012	0.9978038
49	0x3f7eecd8	0.99580145
50	0x3f7e621b	0.9936845
51	0x3f80cc52	1.0062354
52	0x3f800000	1.0
53	0x3f8119aa	1.0085957
54	0x3f7ece6a	0.9953371
55	0x3f7f552d	0.9973934
56	0x3f80dad2	1.0066779
57	0x3f7fd325	0.99931556
58	0x3f7f3d41	0.9970284
59	0x3f809118	1.0044279
60	0x3f7fe67b	0.9996106
61	0x3f7f98b2	0.9984237
62	0x3f7eb545	0.99495345
63	0x3f810e96	1.0082576
64	0x3f801bd0	1.0008488
65	0x3f800000	1.0
66	0x3f804456	1.0020854
67	0x3f80d7e9	1.006589
68	0x3f7fb88d	0.9989098
69	0x3f800000	1.0
70	0x3f800000	1.0
71	0x3f800a5e	1.0003164
72	0x3f7fe050	0.9995165
73	0x3f7f25bd	0.9966696
74	0x3f7fde43	0.9994852
75	0x3f7f254b	0.9966628
76	0x3f7ef14f	0.9958696
77	0x3f7fecfd	0.9997099
78	0x3f80211b	1.0010103
79	0x3f800000	1.0
80	0x3f800000	1.0
81	0x3f7f994d	0.99843293
82	0x3f801e21	1.0009195
83	0x3f80b390	1.0054798
84	0x3f7f9dd3	0.99850196
85	0x3f80b5ac	1.0055442
86	0x3f7eddfe	0.99557483
87	0x3f7e940e	0.99444664
88	0x3f800000	1.0
89	0x3f7ff4bf	0.9998283
90	0x3f7fa36b	0.9985873
91	0x3f7f10cd	0.9963501
92	0x3f80c9f3	1.006163
93	0x3f7e830a	0.994187
94	0x3f80a612	1.0050681
95	0x3f7ef709	0.99595696
96	0x3f80835c	1.0040088
97	0x3f803c65	1.0018431
98	0x3f7d852f	0.9903135
99	0x3f800000	1.0
100	0x3f80dcd7	1.0067395
101	0x3f800a5d	1.0003163
102	0x3f8017f1	1.0007306
103	0x3f80e421	1.006962
104	0x3f804ce5	1.0023466
105	0x3f8018ec	1.0007606
106	0x3f7df7a9	0.99206024
107	0x3f8051cf	1.0024966
108	0x3f7a191d	0.9769457
109	0x3f8019af	1.0007838
110	0x3f806b30	1.0032711
111	0x3f800000	1.0
112	0x3f8107f8	1.0080557
113	0x3f800000	1.0
114	0x3f80d1ef	1.0064067
115	0x3f7fa971	0.9986792
116	0x3f7f4c23	0.9972555
117	0x3f80d6a0	1.0065498
118	0x3f7eedd6	0.9958166
119	0x3f801fde	1.0009725
120	0x3f8026b2	1.0011809
121	0x3f808c4e	1.0042818
122	0x3f80b1d6	1.0054271
123	0x3f7e63f9	0.99371296
124	0x3f7f2534	0.9966614
125	0x3f800000	1.0
126	0x3f7d65d3	0.98983496
127	0x3f7f1f7d	0.9965742

bn1.bias f4 [128]
0	0xbba661d0	-0.005077578
1	0xbbbf7d06	-0.0058437614
2	0xbb635369	-0.0034687167
3	0x3c1cf541	0.009579957
4	0xbbfee2d2	-0.007778504
5	0xbbcc5038	-0.0062351488
6	0xbb32564d	-0.0027212084
7	0xbbf96902	-0.007611395
8	0x3b9d229b	0.004795385
9	0x3b8ed3eb	0.0043587587
10	0x3b8cec07	0.0043005976
11	0x3c17086c	0.0092183165
12	0x3c655387	0.013996965
13	0x3bc2c86c	0.0059443023
14	0x3c0eb0c3	0.008709135
15	0x3b5a2b20	0.0033289865
16	0xbb01fb96	-0.0019833795
17	0xbb7761e6	-0.003774756
18	0x3bad1178	0.0052816235
19	0xbb01b0da	-0.001978925
20	0x39cd06af	0.00039105627
21	0xbb400b42	-0.0029303585
22	0xbbaa20f5	-0.005191917
23	0x3936f596	0.0001744836
24	0x3ba7d455	0.0051217475
25	0xbc74ab5b	-0.014933432
26	0x3c582cd8	0.013194285
27	0xbbaa1b87	-0.00519127
28	0xbb826244	-0.0039789993
29	0x3bb60a0a	0.005555396
30	0x3ba273a9	0.0049576354
31	0xbbe0c9db	-0.0068600005
32	0xbb2f2dc8	-0.0026730169
33	0xbb990f19	-0.0046709892
34	0xbad64c95	-0.0016349728
35	0xba480a5c	-0.0007630938
36	0x3c225553	0.009908038
37	0x3b1a9f33	0.0023593425
38	0x3aa96634	0.0012924136
39	0x3bf1fdaf	0.007384978
40	0x3b58b8fe	0.0033069248
41	0x3c06ceb2	0.008227991
42	0xbb4a3fb7	-0.003086073
43	0xbbf471df	-0.0074598636
44	0xbb823c83	-0.0039744987
45	0xbbf32c73	-0.0074210702
46	0xbbd378ad	-0.0064535947
47	0xbb3d9080	-0.002892524
48	0xbb901bd5	-0.004397849
49	0xbc015eaa	-0.007896105
50	0x3b014a9d	0.001972831
51	0x3bb6588a	0.005564754
52	0x3bb36698	0.0054748766
53	0x3bfe69d7	0.007764082
54	0x3b8dacc8	0.0043235756
55	0xbbebf5c9	-0.0072009307
56	0x3bf5ae0d	0.007497555
57	0xbc16f49a	-0.009213591
58	0x3b7bef08	0.0038442034
59	0x3bb2cdb6	0.0054566516
60	0x3b8f8544	0.0043799
61	0x3bde0fea	0.0067767994
62	0x3c50c499	0.012742185
63	0x3c12a55d	0.0089505585
64	0x3b53fb4b	0.0032345827
65	0xbc1d5554	-0.009602863
66	0x3bc6c7b6	0.006066288
67	0x3b1bb0c1	0.0023756477
68	0xbbd1f581	-0.00640744
69	0xbb08e894	-0.002089058
70	0xbae0a346	-0.0017138503
71	0x3bb27ca6	0.005446988
72	0x3b5061c8	0.0031796563
73	0xbc27cc48	-0.010241576
74	0xbbe2f47c	-0.0069261175
75	0xbad68d8f	-0.0016369092
76	0xbaddcf57	-0.0016922754
77	0x3b39536b	0.002827848
78	0x3ba6a870	0.0050859973
79	0xbbd87fd1	-0.006607034
80	0xbab51b5a	-0.0013817356
81	0x3bd2b66e	0.0064304387
82	0x3b8e313e	0.004339366
83	0x3c1ebc49	0.009688445
84	0x3c007d68	0.007842399
85	0x3bb3458a	0.005470936
86	0x3c2264e3	0.009911749
87	0x3b71042f	0.0036776175
88	0x3c763409	0.015027055
89	0xbbdf341c	-0.006811632
90	0x3be1b6f6	0.0068882657
91	0x3b6346a8	0.0034679566
92	0xbc23ac6d	-0.00998984
93	0x3c8f2e14	0.017478026
94	0x3b16aed7	0.0022992396
95	0x3b41a3de	0.0029547135
96	0xbbacdacb	-0.0052751056
97	0x3b35aca3	0.0027721308
98	0x3b04eaa0	0.002028145
99	0x3c0fcd19	0.008776926
100	0x39a6f03b	0.00031840973
101	0xbb7ead8d	-0.0038860769
102	0x3c122a9e	0.008921294
103	0x3a15e8e9	0.0005718605
104	0x3aeb70ff	0.0017962753
105	0x3b91cc66	0.004449415
106	0xba8199c3	-0.0009887744
107	0x3b374031	0.0027961845
108	0x3b82d849	0.0039930684
109	0xbb51e82f	-0.0032029261
110	0xbaa2027f	-0.0012360363
111	0xba170de3	-0.0005762262
112	0x3b2709aa	0.0025487938
113	0x3c00be21	0.00785783
114	0x3b178202	0.0023118262
115	0x3c285b26	0.010275638
116	0x3bac8249	0.0052645546
117	0x3ae46423	0.0017424863
118	0x3af7bb16	0.001890036
119	0xbace4cee	-0.001573948
120	0x3bea1bad	0.0071444125
121	0x3a771a7f	0.00094262505
122	0x3b491e58	0.0030688252
123	0xbb0cbe1a	-0.0021475614
124	0xb976f727	-0.0002355246
125	0x3b574783	0.003284902
126	0xbc19e7c3	-0.009393635
127	0xbb2f8985	-0.002678485

bn1.running_mean f4 [128]
0	0x3b3022b8	0.0026876163
1	0x00000000	0.0
2	0x3d267d78	0.040647
3	0x3d07c1d7	0.033143844
4	0x3a3c982e	0.00071943074
5	0x3c3e0124	0.011596952
6	0x3ee64cbe	0.44980425
7	0x3b03ef32	0.0020131585
8	0x3d337984	0.04381706
9	0x388e94a8	6.798777e-05
10	0x3e93d467	0.28872988
11	0x00000000	0.0
12	0x00000000	0.0
13	0x3daf504c	0.08560237
14	0x3ed61351	0.41811612
15	0x3a4fcd36	0.0007927002
16	0x3df6376f	0.12022292
17	0x3a61a62a	0.0008607829
18	0x3f315a78	0.6927867
19	0x3f24cfd5	0.64379627
20	0x39ed8dae	0.00045309722
21	0x00000000	0.0
22	0x3ad790cc	0.0016446351
23	0x3d3b097a	0.045663334
24	0x3abc54e2	0.0014368559
25	0x00000000	0.0
26	0x3b34fe25	0.0027617302
27	0x3d131d4d	0.035916615
28	0x3a08855f	0.0005207862
29	0x3dc0ee1a	0.09420414
30	0x39e3a3ce	0.00043418858
31	0x38b4a183	8.613153e-05
32	0x3d20517f	0.03914022
33	0x3ee4f512	0.44718224
34	0x00000000	0.0
35	0x3ebe96c2	0.37224394
36	0x3c261eba	0.010139162
37	0x3e805fe2	0.25073153
38	0x3920832c	0.00015307654
39	0x00000000	0.0
40	0x3e85c6f6	0.26128358
41	0x00000000	0.0
42	0x3e2c8958	0.16849267
43	0x3d60ee26	0.054914616
44	0x3e1ef7dd	0.1552424
45	0x3e175b10	0.14780831
46	0x3ea553c5	0.32290474
47	0x3d999cf7	0.07500642
48	0x32e0c956	2.6168589e-08
49	0x3a53d041	0.00080800435
50	0x3afcf3bb	0.0019298712
51	0x3d25b85a	0.040459014
52	0x00000000	0.0
53	0x3f0531f3	0.5202934
54	0x3db7e0c1	0.08978415
55	0x3b7d62c2	0.00386636
56	0x3dcc0a67	0.099629216
57	0x3e2cdae0	0.16880369
58	0x3efceb50	0.4939828
59	0x3ebef5ed	0.37297
60	0x3955c185	0.00020385355
61	0x3e0f0808	0.13967907
62	0x3ab93670	0.0014130604
63	0x3efb5d74	0.49094737
64	0x3b1e4239	0.0024148358
65	0x00000000	0.0
66	0x3e739096	0.23785624
67	0x3f03a8ea	0.5142962
68	0x3b2d3b62	0.00264331
69	0x00000000	0.0
70	0x00000000	0.0
71	0x3d2a0ebc	0.041517958
72	0x3b142758	0.0022606459
73	0x379ac635	1.8450528e-05
74	0x3edab88e	0.4271893
75	0x3d350147	0.04419067
76	0x3f0ef900	0.55848694
77	0x3e96330a	0.29335815
78	0x3e0b2fe7	0.13592492
79	0x00000000	0.0
80	0x00000000	0.0
81	0x3f23d1f5	0.63992244
82	0x3e43ed49	0.19133486
83	0x3e5469b5	0.20743449
84	0x3d06bb70	0.032893598
85	0x3f22ad4f	0.635457
86	0x3eb5e4c1	0.35526088
87	0x3e613dee	0.2199628
88	0x00000000	0.0
89	0x3b0071da	0.001959911
90	0x3a068b57	0.00051324576
91	0x3f2cca34	0.6749604
92	0x3abed91d	0.0014560554
93	0x3b15171e	0.0022749375
94	0x3f021df6	0.50826967
95	0x3de9fbd9	0.11424989
96	0x3b2b2826	0.002611646
97	0x3a099af4	0.0005249225
98	0x3b33690f	0.0027375852
99	0x00000000	0.0
100	0x3ed7a389	0.42116955
101	0x3e56a7d0	0.20962453
102	0x3d11349f	0.035450574
103	0x3ee2c829	0.44293335
104	0x3e5fc946	0.21854123
105	0x3e1f3a78	0.15549648
106	0x3f168b47	0.5880627
107	0x3bc252df	0.005930289
108	0x3913ed13	0.0001410733
109	0x3f386cb4	0.7204087
110	0x3ce8b54f	0.028406767
111	0x00000000	0.0
112	0x3e440a3a	0.19144526
113	0x00000000	0.0
114	0x3e69c533	0.22829132
115	0x3aa9bc65	0.0012949823
116	0x07b23220	2.6811924e-34
117	0x3cdb5944	0.026775964
118	0x3f065868	0.5247865
119	0x3c2379ea	0.009977797
120	0x3d42d32b	0.047564667
121	0x3e047c1a	0.12937966
122	0x3e40fd4e	0.18846628
123	0x3e826958	0.25470996
124	0x3d884a4a	0.066547945
125	0x00000000	0.0
126	0x3cb6c5b8	0.022311077
127	0x3d859dfd	0.065242745

bn1.running_var f4 [128]
0	0x3a6c4b74	0.0009013929
1	0x00000004	6e-45
2	0x3b0d8596	0.0021594516
3	0x3b8ae561	0.00423877
4	0x389c8379	7.463148e-05
5	0x3a06884c	0.0005132004
6	0x3d47e8b4	0.048805907
7	0x39c8b7ae	0.00038283825
8	0x3b9765ff	0.004620313
9	0x35f38bcc	1.8145597e-06
10	0x3b5bbabb	0.0033528048
11	0x00000004	6e-45
12	0x00000004	6e-45
13	0x3c031a6d	0.008001906
14	0x3cf75e71	0.0301964
15	0x38be0290	9.060383e-05
16	0x3ab4e1a6	0.0013800159
17	0x38e00d41	0.00010683621
18	0x3d59fcad	0.053219486
19	0x3b6eece2	0.003645711
20	0x390af248	0.00013250962
21	0x00000004	6e-45
22	0x381bb42e	3.7122685e-05
23	0x3b556995	0.0032564152
24	0x398cc895	0.00026852326
25	0x00000004	6e-45
26	0x3a780b4d	0.0009462133
27	0x3add8af1	0.001690237
28	0x393531e6	0.00017280094
29	0x3abe96cd	0.0014540792
30	0x37e40558	2.7182206e-05
31	0x36e811eb	6.9162247e-06
32	0x3af38f25	0.0018582089
33	0x3ce79c6c	0.02827283
34	0x00000004	6e-45
35	0x3d8765d6	0.066112205
36	0x3981d66f	0.00024764563
37	0x3d70cb46	0.058787607
38	0x379b4dba	1.8513634e-05
39	0x00000004	6e-45
40	0x3d6bb931	0.05754966
41	0x00000004	6e-45
42	0x3ce16212	0.027512584
43	0x3b8428d5	0.004033188
44	0x3cd641cb	0.02615442
45	0x3cc1f282	0.023675207
46	0x3b49b6a5	0.003077903
47	0x3bd0d25b	0.0063727326
48	0x31e3ae91	6.6264154e-09
49	0x38c56a05	9.41344e-05
50	0x39f2a1c4	0.00046278362
51	0x3bbad879	0.005702075
52	0x00000004	6e-45
53	0x39a6be98	0.0003180399
54	0x3c12b021	0.008953125
55	0x391763c5	0.00014437649
56	0x3c8b00c7	0.016968144
57	0x3a017f9c	0.0004939975
58	0x3ccc6856	0.024952095
59	0x3c2ab2ae	0.010418577
60	0x36c91297	5.992431e-06
61	0x3cb47818	0.022029921
62	0x3996f0e2	0.000287897
63	0x3c989eb4	0.018630363
64	0x3a3a1c2e	0.0007099536
65	0x00000004	6e-45
66	0x3ba79245	0.0051138722
67	0x3c4c44f3	0.012467611
68	0x3a650686	0.0008736629
69	0x00000004	6e-45
70	0x00000004	6e-45
71	0x3b2c5431	0.00262953
72	0x3a3adc80	0.0007128194
73	0x34c1bda0	3.6087022e-07
74	0x3c9f2e91	0.019431384
75	0x3b8a4011	0.004219063
76	0x3baa745c	0.0052018594
77	0x3d234e17	0.039869394
78	0x3c273653	0.010205823
79	0x00000004	6e-45
80	0x00000004	6e-45
81	0x3cd6e2b4	0.026231147
82	0x3d0fe08e	0.03512626
83	0x3cd3194b	0.025768897
84	0x3ad5aca7	0.0016302065
85	0x3d20be4c	0.03924398
86	0x3c6d0b65	0.014468049
87	0x3c6d9e80	0.014503121
88	0x00000004	6e-45
89	0x3a113007	0.00055384677
90	0x381f4f9d	3.79827e-05
91	0x3d40d71e	0.04708015
92	0x39a044d6	0.00030568865
93	0x3a32c243	0.00068191084
94	0x3d2936e6	0.04131212
95	0x3c45d766	0.012075281
96	0x38a3b906	7.806909e-05
97	0x3822f87b	3.8855225e-05
98	0x3a70d131	0.00091864454
99	0x00000004	6e-45
100	0x3c42d3e8	0.011891343
101	0x3d441b35	0.04787751
102	0x3b8a99a6	0.004229742
103	0x3ce4861b	0.027895978
104	0x3a26950b	0.00063546066
105	0x3aa1cec3	0.0012344945
106	0x3ba314b3	0.004976833
107	0x3afcc336	0.0019284252
108	0x35c22fa3	1.446799e-06
109	0x3cb6bcfc	0.022306912
110	0x3b31d3c4	0.0027134279
111	0x00000004	6e-45
112	0x3d1cf2e0	0.03831756
113	0x00000004	6e-45
114	0x3d28c6a2	0.041205056
115	0x397f18f0	0.00024327985
116	0x0405b2b9	1.571614e-36
117	0x3a5b1cb9	0.0008358467
118	0x3c5c61f1	0.013451085
119	0x3b5f8676	0.0034107245
120	0x3babbff9	0.005241391
121	0x3c90905f	0.017646967
122	0x3b1db6ce	0.002406526
123	0x3d4c72cd	0.04991417
124	0x3ba2b7d8	0.0049657635
125	0x00000004	6e-45
126	0x3a8b7ff2	0.0010642989
127	0x3badd663	0.005305098

fc2.weight f4 [64, 128]
0	0xbd79955d	-0.06093346
1	0x3c65af87	0.0140189
2	0x3cce624c	0.025193356
3	0x3b2d57d5	0.0026450057
4	0xbd8a2d1a	-0.06746884
5	0x3db3927e	0.087681755
6	0xbd5799ff	-0.052637096
7	0x3d8684a3	0.06568267
8	0xbd9a3f15	-0.07531563
9	0xbd01836a	-0.031619467
10	0x3d478c6b	0.048717897
11	0xbd017de2	-0.03161419
12	0x3d9e3d33	0.077265166
13	0xbd815924	-0.0631583
14	0xbd968ecc	-0.07351455
15	0xbd4c8253	-0.049928974
16	0x3cabab59	0.020955728
17	0x3d924868	0.07142717
18	0xbd2dc825	-0.0424272
19	0x3d0d40cc	0.034485623
20	0xbc1665ea	-0.009179572
21	0xbca3150d	-0.019907499
22	0x3d8f1e51	0.06988204
23	0xbd8af435	-0.0678486
24	0x3a4e58e7	0.0007871524
25	0x3da69433	0.081337355
26	0xbca73567	-0.020411206
27	0x3d84836f	0.064703815
28	0xbca38180	-0.019959211
29	0x3d8d3adb	0.068959914
30	0xbdc3e1c5	-0.095645465
31	0xbb9519a9	-0.004550178
32	0xbc690875	-0.014223208
33	0x3cd9bb09	0.026578443
34	0x3cae49a4	0.021275349
35	0x3d893d84	0.06701186
36	0xbc323750	-0.010877445
37	0xbb3a4eab	-0.0028428237
38	0x3d96ae90	0.07357514
39	0xbd092248	-0.03347996
40	0x3d9fd9c1	0.07805205
41	0xbd6e4b1f	-0.05817711
42	0xbc379ce5	-0.01120684
43	0xbad67508	-0.0016361782
44	0x3d1537cf	0.036430176
45	0x3d6bf2c3	0.057604562
46	0xbc19eea9	-0.00939528
47	0xbd94c971	-0.072649844
48	0x3d553e22	0.052061208
49	0x3c860e37	0.0163642
50	0x3cdd134c	0.02698674
51	0xbd658012	-0.05603034
52	0x3d4aa1c5	0.04947068
53	0x3da988ea	0.082780674
54	0x3bbbdf67	0.0057334187
55	0xbda8b233	-0.08237114
56	0x3d6b7b8a	0.057490863
57	0xbd94020a	-0.072269514
58	0x3ca60db0	0.020270199
59	0x3c582707	0.013192899
60	0xbd53c929	-0.051705513
61	0x3c9c33c2	0.019067649
62	0xbdb4dbe9	-0.08831007
63	0x3cb4c473	0.02206633
64	0xbd853649	-0.06504495
65	0xbc41e62b	-0.0118346615
66	0x3c499d33	0.012305546
67	0x3da15dbf	0.07879209
68	0xbd527169	-0.051377688
69	0x3d6587bf	0.05603766
70	0xbbb1440f	-0.0054097245
71	0xbd38c1db	-0.04510675
72	0xbdb21995	-0.08696286
73	0xbd9dd095	-0.077057995
74	0x3db2dba1	0.08733297
75	0xbcdc8a5e	-0.026921447
76	0x3c6e6649	0.014550754
77	0x3cd0bac2	0.025479678
78	0x3d6b8cc4	0.05750729
79	0x3d94a093	0.072571896
80	0x3d951e5a	0.0728118
81	0xbd8529d0	-0.06502116
82	0xbc36d751	-0.011159734
83	0xbd489a9d	-0.048975576
84	0xbd487b01	-0.04894543
85	0x3ca0071b	0.019534638
86	0x3da8e3ac	0.0824655
87	0xbd945b1f	-0.072439425
88	0x3d698cda	0.057019092
89	0xbd645b6b	-0.055751245
90	0xbcdf1db3	-0.027235841
91	0x3d8feae8	0.07027227
92	0xbcf56729	-0.029956417
93	0xb9b0954b	-0.00033680568
94	0xbd7d6388	-0.0618625
95	0x3d8e857a	0.069590524
96	0xbbdabcd7	-0.0066753435
97	0xbd9a332b	-0.07529291
98	0x3c97579a	0.018474389
99	0xbd779598	-0.060445398
100	0xbd8ae6dc	-0.06782314
101	0x3a778f2d	0.0009443637
102	0x3d8e915b	0.06961318
103	0xbcb94140	-0.022614121
104	0x3d14d50b	0.036335986
105	0x3d9e625d	0.07733605
106	0x3d6b4b44	0.057444826
107	0xbd539e5f	-0.051664706
108	0xbc3452fc	-0.011006113
109	0xbce50ff5	-0.02796171
110	0xbd932483	-0.071846984
111	0xbaad93e2	-0.0013242925
112	0x3d7e7c36	0.062130176
113	0x3dbbe856	0.09175174
114	0x3c183840	0.009290755
115	0x3c3a1c32	0.011359261
116	0xbd150afc	-0.03638743
117	0x3d8469cb	0.06465491
118	0xbd0ffd17	-0.035153475
119	0xbd8a0e09	-0.06740958
120	0x3c17fcc4	0.009276573
121	0x3d58319f	0.052781697
122	0xbda276e1	-0.079328306
123	0x3d9d79ee	0.07689272
124	0x3ceecbbc	0.029149882
125	0xbd427dd8	-0.047483295
126	0xbc9244f7	-0.01785515
127	0x3d965525	0.07340459
128	0xbd8e3723	-0.0694411
129	0xbcf3b3fc	-0.02974891
130	0x3cf8d0b4	0.030372955
131	0xbd9c900c	-0.07644662
132	0x3d4521c7	0.048127916
133	0x3d449dff	0.04800224
134	0x3d59a342	0.05313421
135	0xbd6841b7	-0.056703296
136	0x3db43c79	0.08800597
137	0xbd8f63aa	-0.07001431
138	0x3dafd695	0.0858585
139	0xbd871a7e	-0.0659685
140	0xbd6e7cf8	-0.05822465
141	0x3d5621f8	0.05227849
142	0x3c1b32ac	0.00947253
143	0x3b8e71dc	0.004347069
144	0xbd4e5c06	-0.05038073
145	0xbd197db3	-0.03747339
146	0xbcd8ea1d	-0.026478821
147	0xbdb5aa6d	-0.08870397
148	0xbc5f9ad9	-0.013647758
149	0xbb13d694	-0.0022558318
150	0x3b8f92d9	0.0043815193
151	0x3ce5dd51	0.028059633
152	0x3da9133d	0.082556225
153	0x3b0cd020	0.0021486357
154	0xbd0b02cf	-0.033938225
155	0xbd0eb158	-0.034837097
156	0xbdc0bc3c	-0.09410903
157	0xbd743f54	-0.059630707
158	0xbc75830b	-0.014984856
159	0xbd1a390c	-0.03765206
160	0x3d201b75	0.039088685
161	0xbd1cd946	-0.038293146
162	0x3d826205	0.06366352
163	0xbd828122	-0.063722864
164	0xbb56cfcd	-0.0032777668
165	0x3da3f2eb	0.08005317
166	0x3d8f5678	0.069989145
167	0xbd319496	-0.043354593
168	0x3c866b4f	0.01640859
169	0x3cf588f2	0.029972527
170	0xbd2f939c	-0.04286538
171	0xbcff6d2e	-0.03117999
172	0x3cb6b788	0.022304311
173	0xbd7f71c3	-0.06236435
174	0x3c633f53	0.013870078
175	0x3d1bb2f3	0.038012456
176	0xbd4ced24	-0.050030842
177	0x3d950412	0.07276167
178	0xbbf2926e	-0.0074027097
179	0x3d32f687	0.043692138
180	0x3dd12221	0.10211588
181	0xbcf1e842	-0.029529694
182	0x3d3cdb3b	0.046107512
183	0xbc14cc04	-0.009081844
184	0xbc34ccf4	-0.011035193
185	0xbc0b59ff	-0.008505343
186	0xbb139f89	-0.002252551
187	0xbd0fc2c6	-0.03509786
188	0x3ca42e5f	0.020041643
189	0x3b2f6578	0.002676336
190	0x3d631618	0.055440992
191	0xbc9f42a5	-0.019440958
192	0x3bdce2ff	0.006740927
193	0xbd57ef97	-0.052718725
194	0xbd98569e	-0.07438396
195	0x3d0dc984	0.03461601
196	0x3c151f0a	0.009101639
197	0xbd536f42	-0.051619776
198	0xbd3ad408	-0.045612365
199	0x3ccdbec7	0.025115384
200	0xbc88a86b	-0.01668187
201	0x3cb7d0db	0.022438457
202	0x3b56ffa3	0.003280618
203	0x3d111e3b	0.03542922
204	0x3d1d93f4	0.038471177
205	0xbcac1672	-0.021006797
206	0x3d188ecb	0.037245553
207	0x3d3c5632	0.04598064
208	0x39f7a695	0.00047235625
209	0x3c82ea60	0.0159809
210	0x3b471b1b	0.0030381146
211	0x3d7c1553	0.061543774
212	0xbd2711ee	-0.040788583
213	0xbd42b6bb	-0.047537547
214	0x3d2ee017	0.042694177
215	0xbd99c702	-0.07508661
216	0x3cb00bc1	0.02148998
217	0xbd2975d8	-0.04137215
218	0x3d6bfc9e	0.05761396
219	0xbdac99e9	-0.084277935
220	0x3d581b0e	0.052760176
221	0x3db0b889	0.08628947
222	0x3c89c9db	0.016819885
223	0xbbca92e5	-0.006182062
224	0x3db60771	0.08888138
225	0xbd1e21b8	-0.038606375
226	0xbc076ead	-0.008266133
227	0xbc9bc88b	-0.019016525
228	0xbc3d3fde	-0.011550872
229	0x3c99f47a	0.018793333
230	0x3c6806af	0.01416175
231	0xbc8b56f2	-0.017009232
232	0xbdad9eed	-0.08477578
233	0x3b76d8da	0.0037665875
234	0xbc7a03e4	-0.015259717
235	0x3c7097b6	0.014684608
236	0x3d9f6117	0.0778219
237	0x3dac464c	0.084118456
238	0xbd5e1120	-0.05421555
239	0xbbfa157e	-0.0076319566
240	0xbd124fe6	-0.03572073
241	0xbd90914e	-0.07058965
242	0xbd81a511	-0.06330312
243	0x3db0f0ae	0.08639656
244	0x3d848ed5	0.064725555
245	0x3d4609c3	0.048349153
246	0x3d3f34ad	0.046681095
247	0xbd8d4ad1	-0.06899036
248	0x3c2eeb77	0.010676256
249	0x3da7353b	0.0816445
250	0xbd484562	-0.048894294
251	0x3d9edf13	0.07757392
252	0x3cbf000d	0.023315454
253	0x3d8e4e5e	0.06948541
254	0xbd1602d6	-0.0366238
255	0x3d2fb8ca	0.042900838

fc2.bias f4 [64]
0	0x3c6a7b56	0.014311632
1	0x3dae11d7	0.084994964
2	0x3d53f940	0.051751375
3	0xbd475f93	-0.04867513
4	0xbd2cb214	-0.042162016
5	0x3c85d3ff	0.01633644
6	0xbd526855	-0.05136903
7	0xbc1fcdfa	-0.0097536985
8	0x3cf51c39	0.029920684
9	0xbd0e9e94	-0.0348192
10	0x3cefda20	0.029278815
11	0x3b93060c	0.004486805
12	0x3db2a8cb	0.08723601
13	0xbd96c4a8	-0.07361728
14	0x3d884b6a	0.06655009
15	0x3d87fa6e	0.066395625
16	0xbd8ecd46	-0.069727466
17	0x3c95850e	0.018251922
18	0xbc43aad1	-0.011942581
19	0x3d40e6d5	0.04709514
20	0x3d85fc64	0.0654228
21	0xbd3f7737	-0.04674455
22	0xbd3c809a	-0.04602108
23	0xbd91ddd2	-0.07122387
24	0x3d6e00d5	0.058106262
25	0xbd884ce0	-0.06655288
26	0xbd5913d7	-0.052997436
27	0x3d9d87a1	0.07691885
28	0x3d352299	0.044222448
29	0x3d898dcf	0.06716501
30	0x3dadc2ca	0.08484419
31	0xbd9e8d23	-0.077417634
32	0xbc8594d5	-0.01630632
33	0xbb58311e	-0.003298826
34	0x3daad0d0	0.08340609
35	0xbc510a82	-0.012758853
36	0xbc4fab64	-0.01267514
37	0x3d683ac9	0.056696687
38	0x3d317fc4	0.043334737
39	0xbd587b53	-0.052851986
40	0xbd85217a	-0.06500526
41	0xbccf58dc	-0.025310926
42	0x3d3db018	0.046310514
43	0x3dc16ee8	0.09444982
44	0x3d1e9f8a	0.038726367
45	0x3d6a7440	0.05723977
46	0x3d0b7902	0.03405095
47	0xbccbfd24	-0.02490098
48	0xbc61f8fa	-0.013792271
49	0x3d9c9e72	0.076474085
50	0x3caae956	0.020863216
51	0x3c16279a	0.009164715
52	0x3d77cfde	0.060500972
53	0x3d516b95	0.05112799
54	0x3c8c6993	0.017140185
55	0xbbd494dc	-0.006487472
56	0xbd014a02	-0.03156472
57	0xbd46e6b6	-0.048559867
58	0xbd1f6421	-0.03891385
59	0x3d9d279c	0.076735705
60	0x3d827d31	0.063715346
61	0xbd2340da	-0.03985677
62	0x3d881c85	0.06646065
63	0xbc9772a6	-0.018487286

bn2.weight f4 [64]
0	0x3f7f58af	0.99744695
1	0x3f800a00	1.0003052
2	0x3f8111a9	1.0083514
3	0x3f7f49db	0.9972207
4	0x3f7b52e0	0.9817333
5	0x3f7e7a0e	0.9940499
6	0x3f7f09a9	0.99624115
7	0x3f7cf660	0.9881344
8	0x3f807556	1.0035808
9	0x3f7e6fc5	0.99389297
10	0x3f7fecc5	0.99970657
11	0x3f7f72a2	0.9978429
12	0x3f801ed1	1.0009404
13	0x3f7d106e	0.98853195
14	0x3f7eb350	0.9949236
15	0x3f80797a	1.0037072
16	0x3f805001	1.0024415
17	0x3f7dc15b	0.9912316
18	0x3f7f9287	0.9983296
19	0x3f7fd409	0.99932915
20	0x3f808ebc	1.0043559
21	0x3f808908	1.0041819
22	0x3f807993	1.0037102
23	0x3f7fea30	0.99966717
24	0x3f8038aa	1.0017292
25	0x3f802377	1.0010823
26	0x3f7e7d2e	0.9940976
27	0x3f7efe17	0.9960646
28	0x3f80f318	1.0074186
29	0x3f80506e	1.0024545
30	0x3f81f92c	1.0154166
31	0x3f7f9b75	0.99846584
32	0x3f804d60	1.0023613
33	0x3f81ae80	1.0131378
34	0x3f7f0f85	0.99633056
35	0x3f801714	1.0007043
36	0x3f7eecf6	0.99580324
37	0x3f80e5eb	1.0070165
38	0x3f80a1af	1.0049342
39	0x3f809558	1.0045576
40	0x3f8056a5	1.0026442
41	0x3f80569d	1.0026432
42	0x3f7df5d6	0.9920324
43	0x3f7fd420	0.9993305
44	0x3f7ea774	0.99474263
45	0x3f7e9dd7	0.99459594
46	0x3f7d5f7b	0.98973817
47	0x3f8060e6	1.0029571
48	0x3f7caa67	0.98697513
49	0x3f7e85c5	0.99422866
50	0x3f80368c	1.0016646
51	0x3f81110c	1.0083327
52	0x3f7ee606	0.9956974
53	0x3f7e938b	0.9944388
54	0x3f7f2a96	0.99674356
55	0x3f7ebfd9	0.99511486
56	0x3f813373	1.0093826
57	0x3f802d8d	1.0013901
58	0x3f80f83d	1.0075756
59	0x3f7f2b8b	0.99675816
60	0x3f7fdc8e	0.99945915
61	0x3f7dda1f	0.9916095
62	0x3f812cfe	1.0091856
63	0x3f80b40c	1.0054946

bn2.bias f4 [64]
0	0x3e5a6992	0.21329334
1	0xbe498778	-0.19680583
2	0x3e2c273e	0.16811845
3	0x3e38941f	0.18025254
4	0x3e7d29a6	0.24722919
5	0x3e50017b	0.20313065
6	0xbe4791fe	-0.19489285
7	0x3e6709ac	0.22562283
8	0x3e3ba201	0.18323518
9	0x3e3cc56d	0.18434687
10	0xbe3b3f1d	-0.18285795
11	0xbe471606	-0.19441995
12	0x3e33a4b0	0.17543292
13	0x3e3d6dea	0.1849896
14	0x3e420f20	0.18951082
15	0xbe2e5e1b	-0.17028086
16	0xbe35c754	-0.17751819
17	0xbe57caba	-0.21073428
18	0xbe46c702	-0.19411853
19	0xbe662067	-0.22473298
20	0xbe322c70	-0.17399764
21	0x3e2bc805	0.1677552
22	0xbe32ae86	-0.17449388
23	0xbe3ce373	-0.1844614
24	0xbe4d0010	-0.20019555
25	0xbe413d8b	-0.18871133
26	0x3e6717de	0.22567698
27	0x3e3d57e4	0.18490559
28	0x3e578aaf	0.21048997
29	0x3e36bf25	0.17846353
30	0xbe8e6dfd	-0.2781829
31	0xbe42474f	-0.18972515
32	0xbe55427f	-0.20826147
33	0x3e8bd98f	0.27314422
34	0xbe4339b8	-0.19064987
35	0x3e32b2b3	0.17450981
36	0x3e36a985	0.17838104
37	0x3e32b7ef	0.17452978
38	0xbe30be02	-0.17259982
39	0x3e30321d	0.17206617
40	0xbe396360	-0.18104315
41	0xbe35bfc4	-0.17748934
42	0x3e520b9c	0.20512241
43	0x3e61f76c	0.2206704
44	0xbe390550	-0.18068433
45	0x3e323cd3	0.17406015
46	0x3e38dcb2	0.18052939
47	0x3e5d56b4	0.21615106
48	0x3e72df1f	0.23717926
49	0x3e50ac30	0.20378184
50	0xbe7373cf	-0.23774646
51	0xbe4c834a	-0.19971958
52	0xbe355827	-0.17709409
53	0xbe518950	-0.20462537
54	0xbe35450b	-0.17702119
55	0x3e42980a	0.19003311
56	0xbe81fc88	-0.2538798
57	0xbe4cb79c	-0.19991916
58	0xbe5c5d3a	-0.21519938
59	0x3e479468	0.19490206
60	0xbe3a76a0	-0.18209314
61	0x3e3edb1b	0.1863827
62	0x3e358cbe	0.1772947
63	0x3e2be6ee	0.16787311

bn2.running_mean f4 [64]
0	0x3ec3f920	0.38276005
1	0x3e0b496a	0.13602224
2	0x3df92d0e	0.121667966
3	0x3e439cfb	0.19102852
4	0x3e0240be	0.1272001
5	0x3e70c4a9	0.2351252
6	0x3de27d2a	0.110590294
7	0x3e44e82f	0.19229196
8	0x3ebaa02a	0.3645032
9	0x3d9e897d	0.077410676
10	0x3e895fa2	0.26830775
11	0x3e17b57c	0.14815325
12	0x3e574e81	0.2102604
13	0x3e2c7d19	0.16844596
14	0x3de856e7	0.113447
15	0x3e14dbb4	0.14536935
16	0x3e570e4f	0.21001552
17	0x3dd4f8d9	0.103990264
18	0x3e80a2e4	0.25124276
19	0x3e4f3ca9	0.20237984
20	0x3e928cf2	0.28623158
21	0x3e523766	0.20528945
22	0x3e3c14e7	0.18367349
23	0x3d85d5ab	0.065348946
24	0x3e895b66	0.26827544
25	0x3e57614b	0.21033208
26	0x3e39f601	0.1816025
27	0x3ebb6c2c	0.36605966
28	0x3e26782a	0.16256776
29	0x3ed825db	0.4221638
30	0x3e685c3f	0.22691439
31	0x3de9eafe	0.11421774
32	0x3e8bc116	0.2729575
33	0x3e6d7b9f	0.23191689
34	0x3e3f4ecc	0.18682402
35	0x3e01462e	0.12624428
36	0x3e461528	0.19344008
37	0x3e2b01b1	0.16699864
38	0x3db29723	0.08720233
39	0x3e2faa94	0.17154914
40	0x3e3eb086	0.18622026
41	0x3e8296e5	0.25505748
42	0x3e2d8ae8	0.1694752
43	0x3ef5f661	0.48039535
44	0x3e51ff3b	0.20507519
45	0x3e7b4151	0.24536635
46	0x3e607171	0.21918274
47	0x3e03d62e	0.12874672
48	0x3dc451cb	0.09585913
49	0x3e4a7d19	0.19774283
50	0x3e969b93	0.2941557
51	0x3e468d7f	0.19389914
52	0x3ede10e4	0.43372262
53	0x3e3d7fe2	0.18505815
54	0x3e0c7527	0.13716565
55	0x3eb182d7	0.34670135
56	0x3ea28c78	0.31747794
57	0x3e9996dc	0.2999791
58	0x3ed67143	0.41883287
59	0x3f49201e	0.7856463
60	0x3e183f3f	0.14867876
61	0x3e917289	0.28407696
62	0x3e844974	0.2583729
63	0x3e216976	0.15762886

bn2.running_var f4 [64]
0	0x3e724bce	0.2366173
1	0x3d59a22e	0.053133182
2	0x3caa0fa2	0.020759407
3	0x3d59111d	0.052994836
4	0x3db18cfb	0.08669468
5	0x3d874610	0.0660516
6	0x3d561fac	0.0522763
7	0x3de0338d	0.109473325
8	0x3e1a9f50	0.15099835
9	0x3d1f3aa6	0.03887429
10	0x3e125c13	0.14292936
11	0x3d540bc7	0.051769044
12	0x3d52641c	0.051365003
13	0x3dc7bc2f	0.0975269
14	0x3ded5f8e	0.11590491
15	0x3ceaf618	0.0286818
16	0x3d5f69ee	0.05454438
17	0x3cd51d0a	0.026014823
18	0x3daf291e	0.08552764
19	0x3d58a067	0.052887347
20	0x3dcfe639	0.10151333
21	0x3d8d8a61	0.06911159
22	0x3d1f311b	0.03886519
23	0x3bebfb16	0.0072015626
24	0x3dae67f4	0.08515921
25	0x3dc6f5fa	0.09714885
26	0x3d7b74b6	0.0613906
27	0x3e198391	0.14991595
28	0x3d005d2b	0.031338852
29	0x3e400981	0.18753625
30	0x3db8c862	0.09022595
31	0x3cd6e7fa	0.026233662
32	0x3db96770	0.09052932
33	0x3d82523a	0.0636334
34	0x3d1e387b	0.038628083
35	0x3ca88d59	0.020575212
36	0x3d48504e	0.04890471
37	0x3cad2655	0.021136442
38	0x3c78816b	0.015167574
39	0x3d098b50	0.033580124
40	0x3d68d9aa	0.056848206
41	0x3dabaecc	0.08382949
42	0x3d17f1bc	0.03709577
43	0x3e74dc57	0.23912178
44	0x3dd88823	0.10572841
45	0x3da3eb8d	0.08003912
46	0x3e2f9f36	0.17150578
47	0x3d18f5d9	0.037343834
48	0x3ca5abb2	0.020223472
49	0x3d7fd1f4	0.062456086
50	0x3de7c8fd	0.11317632
51	0x3f0fa698	0.56113577
52	0x3e3ec437	0.18629538
53	0x3d3a9cdc	0.04555975
54	0x3d1de4af	0.038548168
55	0x3e2281ee	0.15869877
56	0x3de749a3	0.11293342
57	0x3e07ba1c	0.13254589
58	0x3e78828d	0.24268551
59	0x3f32ceca	0.69846785
60	0x3d4f49e0	0.050607562
61	0x3de41a35	0.11137811
62	0x3d94c5ca	0.07264288
63	0x3d1938de	0.03740775

fc3.weight f4 [1, 64]
0	0xbe064780	-0.13113213
1	0x3e1605c4	0.14650637
2	0xbe33c20b	-0.1755449
3	0xbe1e3aab	-0.15452068
4	0xbe38478f	-0.17996047
5	0xbe0f0d88	-0.13970006
6	0x3e39f403	0.1815949
7	0xbe2889af	-0.16458772
8	0xbe824da0	-0.25449848
9	0xbe82222e	-0.25416702
10	0x3e8bb77e	0.2728843
11	0x3e4234fa	0.18965521
12	0xbe7ff6c8	-0.24996483
13	0xbe71e554	-0.23622638
14	0xbe4d42e6	-0.20045051
15	0x3e501d7e	0.2032375
16	0x3e1af1b8	0.15131271
17	0x3e34e36d	0.17664881
18	0x3e541191	0.20709826
19	0x3df456b3	0.11930599
20	0x3e3627c5	0.17788608
21	0xbe2ff2f0	-0.17182517
22	0x3e49ed4b	0.19719426
23	0x3e086a5f	0.13321827
24	0x3e27ed20	0.1639905
25	0x3e66b6ae	0.22530624
26	0xbe047688	-0.12935841
27	0xbe0c61e3	-0.13709216
28	0xbe352cb0	-0.17692828
29	0xbe5313df	-0.20613049
30	0x3e2e732a	0.17036119
31	0x3e370bc6	0.17875585
32	0x3df5d311	0.12003148
33	0xbe1f467c	-0.15554231
34	0x3e01e56c	0.12685174
35	0xbe62c8f8	-0.22146976
36	0xbe28e09b	-0.1649193
37	0xbe5db9d4	-0.21652919
38	0x3e710e19	0.23540534
39	0xbe5c441f	-0.21510361
40	0x3e1507db	0.14553778
41	0x3e473b28	0.1945616
42	0xbe0b9336	-0.13630375
43	0xbe10a731	-0.14126278
44	0x3e5f804d	0.21826287
45	0xbe3ede35	-0.18639453
46	0xbe85327c	-0.2601508
47	0xbdff798b	-0.12474354
48	0xbe164029	-0.14672913
49	0xbe4639d7	-0.19358002
50	0x3e01029e	0.12598655
51	0x3e7499d3	0.23886804
52	0x3e04f3d0	0.12983632
53	0x3e0cccbe	0.13749978
54	0x3e3636ed	0.1779439
55	0xbe1a080e	-0.15042135
56	0x3e4263db	0.18983404
57	0x3e281d43	0.16417412
58	0x3e59e52a	0.21278825
59	0xbe023088	-0.12713826
60	0x3e6d2ae2	0.2316089
61	0xbe69fdc7	-0.22850715
62	0xbe093c36	-0.13401875
63	0xbe50974c	-0.20370215
