PreTrained/cstr_ode/Deep_DQN/0_5/200.pth (torch, 43158 bytes, 13 tensors)

fc1.weight f4 [128, 4]
000000 09 5c 83 bc b5 58 90 3e 96 6f d9 be 29 da b6 be
       -0.016035097 0.28192678 -0.42467946 -0.35713318
000010 f4 32 45 be ec 4b 09 3e 40 4f 22 bc ce fa ca 3e
       -0.19257718 0.13407868 -0.00990659 0.39644474
000020 5c fa 41 bd 3b af 05 3e ff 0e 24 be 68 07 a7 bd
       -0.047357902 0.13055126 -0.16021346 -0.081557095
000030 f0 8c f7 be 15 dd a7 be ef 47 61 be f9 b3 0d 3c
       -0.48349714 -0.3278586 -0.22000097 0.008648866
000040 87 04 42 3e 6f cd 9d 3e e3 bf b1 be 28 9e 50 be
       0.1894704 0.30820796 -0.3471671 -0.20372832
000050 5c 61 33 3e 33 0e d8 3e a5 28 e1 bd 5c 91 bf 3e
       0.17517608 0.42198333 -0.109940805 0.37415588
000060 47 05 b0 bd b2 12 8b 3d 06 76 e3 3e 0e f6 ed be
       -0.085947566 0.06790675 0.44425982 -0.46476787
000070 58 b5 a4 be 07 11 f9 bd 82 7b 4b be 28 2f dd 3e
       -0.32169604 -0.12161451 -0.19871333 0.4320004
000080 90 6d a6 be af 53 6a be 91 ec b0 be 5d 36 e3 be
       -0.32505465 -0.22883485 -0.34555486 -0.44377413
000090 63 40 9a be 20 08 df 3e 39 18 50 3e 00 27 78 3e
       -0.30127248 0.43560886 0.2032174 0.24233627
0000a0 ac ac 30 3d f8 dc 84 be 8c 0e be 3d b0 80 d7 be
       0.043133423 -0.25949836 0.09280118 -0.42090368
0000b0 1a fa b8 be c6 f9 83 be 26 85 a1 3e 26 19 96 3e
       -0.36128312 -0.257765 0.31546897 0.29316062
0000c0 c8 11 63 be 20 cb 93 bc 40 ba a3 3e 82 7f fe 3e
       -0.22174752 -0.018041193 0.31978035 0.49706656
0000d0 6a ee 4d 3e 69 56 58 3d ee e3 b0 3e 68 ce 90 be
       0.20110479 0.052816782 0.34548897 -0.28282475
0000e0 c8 b6 a6 3d 3b 86 c4 be 73 bb b6 be b7 a8 69 be
       0.081403315 -0.3838366 -0.35689887 -0.22818266
0000f0 dd f6 74 3e 9f 9b 40 3e 55 fe 90 be c8 ad 1a 3e
       0.23922296 0.18809365 -0.2831904 0.15105355
000100 75 bb 85 3e 2e 7c 47 bd 6a e9 fc 3c 54 c0 01 3e
       0.2611958 -0.04870241 0.03087302 0.12671024
000110 3e 5b a4 3e b9 d3 f0 3e 08 67 c2 be 1d ab 4e be
       0.32100862 0.47036532 -0.37969232 -0.20182462
000120 71 0e 4d 3e 3d 14 d0 3e 35 d4 df 3e 97 5e f0 3e
       0.2002504 0.4064044 0.4371659 0.46947166
000130 7a 3a dd 3d 81 45 df be 82 66 23 3d c6 c9 9a be
       0.10802169 -0.43607715 0.03989268 -0.30232066
000140 29 85 e8 be 6e 9f dc 3e 23 cb c6 3e 92 e4 00 bf
       -0.45414093 0.43090385 0.38826856 -0.5034877
000150 08 aa bf 3d c8 80 ac bd b8 82 a8 bd 1c 5f 6a be
       0.09358603 -0.084230006 -0.082280576 -0.22887844
000160 fe c1 50 3e 86 d8 9c be f4 0c 48 3e 16 76 81 3e
       0.20386502 -0.30633944 0.19536191 0.25285405
000170 74 07 b5 3e 87 a8 40 3e 2b 72 00 bf 0e e6 a4 be
       0.3535725 0.18814288 -0.50174206 -0.32206768
000180 61 94 7d 3e ef 8a dc 3d 11 7f ce be fa 7b 8c be
       0.24763633 0.10768687 -0.4033132 -0.27438337
000190 f2 d4 f0 3e 54 7f ac 3e b0 3e 5f be d4 dc 00 be
       0.47037464 0.33690894 -0.21801257 -0.12584239
0001a0 4c ae f8 be 8c b2 42 36 5b 50 be be f3 f4 c1 be
       -0.48570478 2.901218e-06 -0.3717068 -0.37882194
0001b0 32 26 f3 bc 01 d7 99 3d e4 e4 46 be 9a 71 99 3e
       -0.029681299 0.07511712 -0.19423252 0.29969484
0001c0 c4 76 9b be bc 37 e8 3e 8c 3a b0 3e 98 96 da be
       -0.30364048 0.45355022 0.34419668 -0.4269302
0001d0 87 20 f5 bd 69 19 75 3c 2c 14 a1 3d c8 68 d8 3d
       -0.11969095 0.014959672 0.078651756 0.105668604
0001e0 bc 8b 4c 3e d1 5d d8 3c 6c 32 76 be d4 45 72 3e
       0.1997518 0.026411923 -0.24042672 0.2365945
0001f0 83 2b f4 be 9e 2c 99 be ee 3a f2 bd 2a 4a 77 be
       -0.47689447 -0.29916853 -0.11827646 -0.24149385
000200 16 45 40 be 6e fc cb be 82 d1 d6 bd 18 a2 ce 3d
       -0.18776354 -0.39841026 -0.10489179 0.10089511
000210 89 c5 aa be 34 ab 9d bc 4e 29 b3 3e 80 30 54 bd
       -0.33353832 -0.019246675 0.3499245 -0.051804066
000220 80 ac 63 3c c0 ad 30 bd 10 3d cf 3d 60 c6 a2 3e
       0.013896108 -0.04313445 0.101190686 0.31791973
000230 79 5a ee 3e 11 d6 a5 3e 14 84 f7 3e f7 e7 01 bd
       0.465534 0.32389882 0.48342955 -0.03171536
000240 18 d9 e2 be 7b e7 74 be 59 2c b2 3e d5 04 47 3c
       -0.44306254 -0.23916428 0.3479946 0.012147148
000250 84 d2 82 be 60 32 be be 35 b7 f5 be dd f3 d8 be
       -0.25551236 -0.37147808 -0.47991338 -0.42373553
000260 5c 1c e0 bd 26 2b 8f 3e c4 86 73 3e 8c d0 f1 be
       -0.10942909 0.27962607 0.23781878 -0.4722942
000270 88 f2 a0 3e e4 94 c9 be 1e f4 d5 bd b3 1e 52 be
       0.31435037 -0.39371407 -0.10446952 -0.20519523
000280 88 4b ac bd 1d f1 d8 bd af 01 ec be e7 16 da be
       -0.08412844 -0.10592864 -0.46095034 -0.42595598
000290 28 3c a0 bd 80 e1 d3 3b b8 96 68 be b8 de 40 3e
       -0.07823974 0.0064660907 -0.22713745 0.1883496
0002a0 e1 7a ed be e8 f1 11 bd b2 be d9 3e d3 89 54 be
       -0.46382812 -0.03563109 0.425283 -0.20755701
0002b0 a3 b3 e9 3e 13 d1 2d 3e 3f 8e e6 be 74 f8 a1 3e
       0.45644864 0.16974287 -0.450304 0.31634867
0002c0 3a be 46 bd 32 dd 52 be 9f 3a d1 3e 1b 60 d5 be
       -0.048521258 -0.20592192 0.40865037 -0.41674885
0002d0 3c 8b 50 3d dd 0d cf bd 63 c4 ba 3e a6 d4 f3 3d
       0.050914034 -0.10110066 0.36477956 0.11905794
0002e0 20 4d 80 3e 93 7c 3d 3e 7e bf c2 bd fb be b5 bd
       0.25058842 0.18504553 -0.095091805 -0.08874317
0002f0 b0 b4 d8 be d9 c5 92 3e 63 ab c4 3e 5c 29 af 3e
       -0.42325354 0.2866657 0.38412008 0.34211242
000300 d4 ea b1 be d7 22 8c 3c 7e cd b1 be 76 43 8a be
       -0.34749472 0.017106457 -0.3472709 -0.27004594
000310 7d 6f 90 be 23 80 25 3e 14 d1 93 be dd 23 e8 bb
       -0.2821006 0.16162162 -0.2887045 -0.0070843534
000320 e3 e2 3c 3d ce 06 97 3e e1 9f b5 be 39 b1 ba be
       0.046114814 0.2949738 -0.3547354 -0.36463335
000330 98 88 93 be 4f d8 af 3e 49 bd 31 be db 0a d6 3e
       -0.2881515 0.34344718 -0.17357363 0.41805157
000340 a0 24 39 3e 40 aa 81 3d 00 ed 73 bb 08 6d ca bd
       0.18080378 0.06331301 -0.003722012 -0.09884077
000350 22 26 76 3d 7d 41 fe bd 03 ea f4 ba 6e 84 4b 3d
       0.06009496 -0.12414835 -0.0018685464 0.04968684
000360 83 76 c7 be b5 2e 81 be 0b 47 d3 3e 6f 0d d4 be
       -0.38957605 -0.25230947 0.4126514 -0.414165
000370 1c 91 af bc 70 77 f6 3e be f4 41 3e aa a0 d6 3c
       -0.021431498 0.48138 0.18941018 0.026199657
000380 36 e9 d9 be da 6e 75 3e da 0c b1 be 88 24 17 be
       -0.42560738 0.23968068 -0.34580117 -0.1476003
000390 c4 1b 3c be 1d 6e 93 bd 5a 55 e2 ba 96 26 d3 3e
       -0.18369967 -0.07198737 -0.0017267868 0.41240376
0003a0 b3 d6 86 3d 43 8a e2 3e 7c a6 9e 3e 7b a7 a9 be
       0.065839194 0.4424611 0.30986392 -0.3313559
0003b0 c9 ac 73 3e 0d a5 ba be 99 20 4c be ce 12 f4 3d
       0.23796381 -0.3645405 -0.1993431 0.11917649
0003c0 4f 8c 24 3e 21 50 c2 3e c8 54 29 be 75 24 17 3b
       0.16069148 0.37951759 -0.16536248 0.0023062502
0003d0 40 00 8f 3e 97 2c 00 bf 3f 9d b4 3e 81 ba d6 be
       0.27929878 -0.5006804 0.3527622 -0.41939166
0003e0 03 6b 73 3b d7 8a a7 bd c5 bc 88 be a9 14 5a 3d
       0.0037142641 -0.081807785 -0.2670652 0.05324236
0003f0 c8 01 de 3e d4 6a 1d be 5a 55 8e be dd 36 36 be
       0.43360734 -0.15372783 -0.27799493 -0.17794366

fc1.bias f4 [128]
000000 52 d9 08 be 14 df 3e be 1f c1 fe 3d a1 33 2d 3e
       -0.13364151 -0.18639785 0.12439179 0.16914226
000010 36 c1 71 be 19 03 11 3d d1 91 95 3e 9e 6c 26 bd
       -0.2360886 0.035403345 0.29212812 -0.04063093
000020 41 f5 1d 3e 97 c9 ee bd 2a b7 32 3e e6 71 b9 be
       0.15425588 -0.11659544 0.17452684 -0.3621971
000030 0e 89 96 be 48 57 78 be 15 9a eb 3e b6 11 17 be
       -0.2940144 -0.24252045 0.46015993 -0.1475285
000040 6d ae 04 bd f6 7d 7a be 02 1a ff 3e fc 89 f3 3e
       -0.032392908 -0.24462113 0.4982453 0.4756621
000050 3d a7 be be 10 88 cf be 4f de bb be ad 95 89 bc
       -0.37236968 -0.40533495 -0.36693045 -0.016795004
000060 1c 18 0b be 4e 90 a7 be d0 33 3e be a1 40 c2 3d
       -0.13583416 -0.32727283 -0.18574452 0.09484983
000070 1c 05 86 be 85 f9 e5 3d e8 10 f2 bd 72 35 7a be
       -0.26175773 0.11229233 -0.11819631 -0.2443445
000080 6d d5 67 3d d1 3e d2 3e 88 13 ad be d0 89 90 3c
       0.056600023 0.4106355 -0.33803964 0.01764384
000090 bf 15 35 be 30 32 f8 3e 9c f6 f7 be 78 28 f4 be
       -0.17684077 0.4847579 -0.48430336 -0.47687125
0000a0 62 4a fc 3e f8 f7 a1 be 6b 25 db 3d 33 b9 0d bd
       0.492755 -0.31634498 0.10700496 -0.034600448
0000b0 fd 09 bb bd 29 e4 d4 bd ae 73 a0 3e db 7e 24 3c
       -0.091327645 -0.103950806 0.31338257 0.01004001
0000c0 e0 e7 fb be 88 de 9b be 23 f7 1e be 5c 8f 83 3e
       -0.49200344 -0.30443215 -0.15523963 0.25695312
0000d0 8e aa a5 be d0 13 f1 3e 95 6a c7 bd 6e 6e ad bd
       -0.32356685 0.47085428 -0.09737126 -0.084683284
0000e0 01 b7 cc 3e 7f b7 58 3e 18 28 d6 3e cd fe 90 3e
       0.3998337 0.21163748 0.41827464 0.28319398
0000f0 94 ce 16 be 51 72 a3 be 1a 55 25 bd 70 bc d5 3e
       -0.14727241 -0.31923154 -0.040364362 0.4174533
000100 81 62 27 be 1e 68 ed be 1a bc 40 3e 1f 9e fa 3e
       -0.1634617 -0.46368498 0.18821755 0.48948762
000110 ad 90 13 be 5a f9 d3 be 10 35 e8 be 3a c1 0a 3e
       -0.14410658 -0.41401178 -0.45352983 0.13550273
000120 d0 7f b8 bc 87 36 81 be 96 ac df 3d 22 9d 3e 3e
       -0.022521883 -0.25236914 0.1092159 0.18614629
000130 71 5a c7 3e 58 a5 c6 3e 4d bb 9b bd 7e bb e1 be
       0.3893619 0.38798022 -0.07604084 -0.44088358
000140 d8 53 e7 be 21 56 ec 3e de 75 63 3e 16 f5 6b 3e
       -0.45181155 0.4615946 0.22212932 0.23042712
000150 5b b5 d9 be f6 d5 ea 3e 32 f3 e6 3e b0 1b ec 3e
       -0.42521176 0.45866364 0.45107418 0.46114874
000160 30 f5 d7 be 32 e8 34 be c6 c9 ad be 90 eb f2 3e
       -0.4217925 -0.176667 -0.33943003 0.47445345
000170 17 a7 5c be df 2d 71 be 04 4c 85 3e 68 35 6b be
       -0.21548115 -0.23552655 0.26034558 -0.22969592
000180 dc e1 73 be a5 b5 1f bd d3 b2 76 bd 22 6b c7 be
       -0.23816627 -0.03899159 -0.060229134 -0.38948923
000190 d4 2b d0 3e 2e 76 6a be ec 70 3b 3e 28 0a df 3e
       0.40658438 -0.22896644 0.18304795 0.43562436
0001a0 59 9a 54 3e 55 02 86 3d 69 84 da 3e 9e c7 59 3d
       0.20762004 0.065434135 0.42679146 0.053168885
0001b0 dd 6d 5f be 29 64 f3 3e 69 e4 fe 3d 38 c6 f9 be
       -0.21819253 0.47537354 0.124459095 -0.4878404
0001c0 fe e5 05 be fe 60 ae be 6f 52 e5 3e 61 88 7f bd
       -0.13076016 -0.34058374 0.44789454 -0.06238592
0001d0 6f c1 ea be 36 0a 1e bd 8c 4b 9e 3e 4b 28 03 3e
       -0.45850703 -0.038583957 0.30917013 0.1280834
0001e0 78 fe 28 3e 36 fe 81 3d aa f2 3a 3e 2b fc 0e be
       0.16503322 0.06347315 0.18256631 -0.13963382
0001f0 5f 7c 3c be 0e 49 ef be a0 82 c2 be 58 74 5a 3e
       -0.18406819 -0.46735424 -0.37990284 0.21333444

bn1.weight f4 [128]
000000 c4 31 7f 3f 00 00 80 3f a8 09 80 3f d6 dd 7f 3f
       0.9968531 1.0 1.0002947 0.9994787
000010 31 e7 80 3f 47 96 7d 3f c0 b8 80 3f 18 24 80 3f
       1.0070554 0.9905743 1.0056381 1.0011015
000020 8f 7b 80 3f 0b 41 7d 3f 6e e6 7d 3f 00 00 80 3f
       1.0037707 0.9892737 0.9917973 1.0
000030 00 00 80 3f 7d 32 7e 3f 85 e0 7d 3f 69 37 7d 3f
       1.0 0.9929579 0.99170715 0.98912674
000040 1d 18 7e 3f 84 d5 7e 3f a0 47 80 3f 5d d7 81 3f
       0.99255544 0.9954455 1.0021858 1.0143849
000050 1f 92 7e 3f 00 00 80 3f b2 1f 80 3f 28 a7 7f 3f
       0.99441713 1.0 1.0009673 0.99864435
000060 dc 68 7f 3f 00 00 80 3f 21 60 7f 3f 98 30 80 3f
       0.9976938 1.0 0.99756056 1.001483
000070 2f dd 80 3f f9 df 7d 3f a3 b9 7f 3f 54 16 7e 3f
       1.00675 0.9916988 0.99892634 0.9925282
000080 5a 03 7e 3f 00 cb 81 3f 00 00 80 3f 27 01 80 3f
       0.99223864 1.0140076 1.0 1.0000352
000090 c4 32 7e 3f f4 65 80 3f 43 60 79 3f 8b 80 80 3f
       0.9929621 1.0031114 0.9741251 1.0039228
0000a0 27 0b 7f 3f 00 00 80 3f e5 29 81 3f 6e 7c 7e 3f
       0.9962639 1.0 1.009091 0.99408615
0000b0 1b 8d 7f 3f 88 f9 7f 3f 6f e1 7f 3f d0 98 80 3f
       0.99824685 0.9999013 0.9995336 1.0046635
0000c0 76 a1 7e 3f 53 39 7e 3f 8e 98 7e 3f d0 43 81 3f
       0.9946512 0.9930622 0.9945153 1.009882
0000d0 00 00 80 3f 29 ed 81 3f 0c a0 7e 3f 35 01 80 3f
       1.0 1.01505 0.9946296 1.0000368
0000e0 56 d8 80 3f 22 21 80 3f 11 9c 7e 3f 71 91 80 3f
       1.006602 1.0010111 0.9945689 1.0044385
0000f0 70 19 80 3f 65 04 80 3f d5 3d 7e 3f 1a 39 81 3f
       1.0007763 1.0001341 0.993131 1.0095551
000100 07 b0 7f 3f 00 00 80 3f b5 64 80 3f a3 e0 80 3f
       0.9987797 1.0 1.0030733 1.0068554
000110 4c 93 7f 3f 00 00 80 3f 00 00 80 3f 8f 25 80 3f
       0.9983413 1.0 1.0 1.0011462
000120 e9 c2 7f 3f 95 9e 7e 3f db 9c 7f 3f 86 2a 80 3f
       0.99906784 0.99460727 0.9984872 1.0012977
000130 c6 0d 7e 3f f2 d3 7f 3f 8b 78 7f 3f 00 00 80 3f
       0.99239767 0.9993278 0.9979331 1.0
000140 00 00 80 3f c8 59 80 3f 04 8e 7f 3f 92 8f 80 3f
       1.0 1.0027399 0.99826074 1.0043814
000150 47 e7 7e 3f 16 0c 81 3f 49 0c 7f 3f 9a cf 7e 3f
       0.9957165 1.0081813 0.9962812 0.99535525
000160 00 00 80 3f 7f 53 7f 3f 27 94 7f 3f 30 82 7e 3f
       1.0 0.9973678 0.9983544 0.994174
000170 ee 52 80 3f a1 cf 7d 3f ec 74 80 3f fd 6d 7e 3f
       1.0025308 0.9914494 1.0035682 0.9938658
000180 17 7d 81 3f 0a 3d 80 3f 5d 73 7c 3f 00 00 80 3f
       1.0116299 1.0018628 0.9861353 1.0
000190 8b f0 80 3f 58 75 80 3f e1 cf 80 3f 22 d4 80 3f
       1.0073408 1.003581 1.006344 1.0064738
0001a0 74 0f 80 3f 85 f4 7e 3f af 31 7e 3f f1 a7 7e 3f
       1.0004716 0.9959186 0.9929456 0.9947501
0001b0 6c bc 78 3f b9 01 80 3f 81 d8 80 3f 00 00 80 3f
       0.9716251 1.0000526 1.0066072 1.0
0001c0 d7 d0 80 3f 00 00 80 3f 0a c5 80 3f 3d 8b 7d 3f
       1.0063733 1.0 1.0060132 0.99040586
0001d0 23 4c 7f 3f 21 2a 81 3f a2 7c 7f 3f 84 0d 80 3f
       0.9972555 1.0090982 0.9979955 1.0004125
0001e0 4a 2b 7f 3f d9 83 80 3f b2 c5 80 3f e8 6c 7e 3f
       0.9967543 1.0040237 1.0060332 0.9938493
0001f0 7b dc 7e 3f 00 00 80 3f 49 24 7d 3f c6 0a 80 3f
       0.99555176 1.0 0.9888349 1.0003288

bn1.bias f4 [128]
000000 b9 06 0a bc 62 13 07 bc 02 4f 26 bb 8b 25 1c 3c
       -0.008424454 -0.008244367 -0.0025376682 0.009530435
000010 3a 6c ce bb a5 84 a9 bb 2b 3b 52 bb d4 f8 5a bb
       -0.0062995227 -0.005173283 -0.0032078724 -0.0033412473
000020 e6 13 02 3c 84 9a 09 3b d8 3e ea 3b eb 10 1c 3c
       0.0079393145 0.002099664 0.007148605 0.009525518
000030 83 db 28 3c 31 5f 57 3b 2f 9e 9b 3a 09 0a de 37
       0.010306242 0.0032863135 0.0011872704 2.6469135e-05
000040 1b af b7 bb e8 80 d3 b9 13 45 0f 3b b6 7d 8d ba
       -0.005605591 -0.000403411 0.002186124 -0.0010794911
000050 2e 6a 05 3b f5 9b e1 3b 61 ea 99 3a 98 ce 60 ba
       0.0020357477 0.0068850466 0.0011742824 -0.0008575707
000060 2c 53 b5 3b af 77 72 bc f5 00 02 3c da d0 9c bb
       0.0055335965 -0.014799043 0.0079347985 -0.0047856392
000070 18 5b fb bb db 08 02 3c 75 d1 16 3c 9c b6 ef bb
       -0.0076707713 0.007936682 0.009205212 -0.00731547
000080 62 29 a4 ba ad 26 93 3a 7b 2f 07 3c f3 82 07 b9
       -0.001252454 0.0011226736 0.008251066 -0.00012923386
000090 41 c8 25 3c 8d 27 b5 3b 6b 13 f8 3a 8e f4 b7 3b
       0.010118545 0.0055283965 0.0018926685 0.00561387
0000a0 41 9b ef 3b 61 e4 fb 3b 68 c4 57 ba 5e 70 2f bc
       0.007312209 0.007687137 -0.0008230866 -0.010707943
0000b0 bc 5e 7c bc f2 d4 22 bc 9f 17 8e bb bd 5f 02 bb
       -0.015403446 -0.009938465 -0.004336312 -0.001989349
0000c0 c4 cf ca bb 82 5d 1a bc 48 55 1c bb 36 54 ef 3a
       -0.0061893184 -0.009421708 -0.0023854543 0.001825935
0000d0 bd 51 17 3c d7 45 03 3c 03 92 16 3b 2d 68 2e bc
       0.0092357965 0.008012257 0.0022975213 -0.010644955
0000e0 09 24 c4 3b 9b f9 8b bc be 32 56 3c 1c 24 8a 3b
       0.005985741 -0.017086795 0.013073621 0.0042157304
0000f0 ac d1 e8 3b d9 01 95 3b ea 8e 80 3c 19 bd 42 3c
       0.007105073 0.0045473394 0.015693147 0.011885905
000100 a8 78 02 3c cc 47 aa bb 23 cf ac 3c 44 40 e4 b9
       0.007963337 -0.005196547 0.021094864 -0.0004353543
000110 69 5b 2c bb 9c 33 9b 3a 9d 5a 14 b9 8a b2 33 3c
       -0.0026299602 0.0011840942 -0.00014148136 0.01096786
000120 63 b6 18 3a 74 bf 5e bc 79 b2 b3 ba ee 2b 4e 3b
       0.00058255176 -0.013595451 -0.0013709805 0.003145929
000130 c1 40 43 3a 4d ef 2d 3b cd 5f 93 3b b2 21 98 ba
       0.0007448309 0.002654034 0.0044975043 -0.0011606722
000140 b5 56 fb ba 05 a7 7f 3c c8 d7 2f ba 6b 75 fa 3b
       -0.0019175621 0.015603785 -0.0006707874 0.007643392
000150 51 b6 f1 3b 57 30 de 3b 98 db 37 3c f4 b2 69 ba
       0.00737647 0.006780665 0.011221789 -0.0008914911
000160 ff 4e a1 3c 1d d1 8c bb c9 01 e8 3a 53 5a 0c bb
       0.019690989 -0.004297389 0.0017700727 -0.0021416142
000170 b1 da 3d bc 7e c9 9a 3c f0 5a 75 3b b9 a4 72 3b
       -0.011587785 0.018894907 0.0037438236 0.0037024452
000180 bd 2b fb bb 42 2e 79 3b 30 e3 e8 3a a4 4e 0b 3c
       -0.007665126 0.0038021957 0.0017767902 0.008502636
000190 3f 71 4b 3b 18 b4 86 bb b3 37 27 3c c0 1d bc 3a
       0.0031042842 -0.0041108243 0.010206151 0.0014352128
0001a0 70 79 8b 3a b2 63 b2 3a a9 27 bd ba a0 7d 16 bb
       0.001064105 0.0013610034 -0.0014431375 -0.0022963062
0001b0 38 58 13 3a 4c 0b 32 3a 49 e0 86 bb 71 b5 5d ba
       0.00056207506 0.00067918445 -0.0041160923 -0.0008457518
0001c0 51 09 62 bb c0 05 3f 3c 4b 64 0e bc ac 33 bc 3b
       -0.0034490416 0.011659086 -0.008690904 0.0057434645
0001d0 34 53 bf 3b ce f8 7d 3a 95 57 61 3b 10 32 b7 bb
       0.005838776 0.0009688259 0.0034384478 -0.0055906847
0001e0 b7 db 5a 3c 00 46 f9 ba 83 1f e8 3b 5b bf 68 3b
       0.013358048 -0.0019018054 0.0070838346 0.0035514447
0001f0 ec cf 7e bb 0f bd 11 3c 19 a6 5c bb a9 60 8e 39
       -0.0038881255 0.008895173 -0.0033668338 0.00027156368

bn1.running_mean f4 [128]
000000 5b a1 b5 3b 00 00 00 00 d8 2b 3a 3d ef 80 22 3d
       0.0055429167 0.0 0.04545197 0.039673742
000010 54 93 e4 3a 5a 84 3b 3c 4a 6f e9 3e 67 72 7f 3b
       0.0017438927 0.011445129 0.4559272 0.0038978101
000020 4a 91 59 3d e2 7a fc 38 31 21 96 3e 00 00 00 00
       0.053117074 0.00012039185 0.29322198 0.0
000030 00 00 00 00 0c 72 b6 3d 0e 82 d1 3e 0f 46 a4 3a
       0.0 0.089084715 0.40919536 0.0012533086
000040 b6 1a cb 3d 28 fc fb 3a 76 f5 30 3f 30 d8 21 3f
       0.09917204 0.0019224929 0.69124544 0.632205
000050 b4 b8 83 3a 00 00 00 00 8e c0 81 3b 59 93 39 3d
       0.0010049553 0.0 0.003959722 0.045306537
000060 9d 42 68 3b 00 00 00 00 3e ac ad 3b 1b 57 1f 3d
       0.0035440095 0.0 0.005300074 0.03890143
000070 9d 7e a0 3a 03 e6 c9 3d be ac 56 3a b1 95 43 39
       0.0012244765 0.098583244 0.0008189193 0.00018652414
000080 49 21 1d 3d da 3f e5 3e 00 00 00 00 75 f9 bb 3e
       0.03836182 0.44775277 0.0 0.36713758
000090 38 87 5f 3c 02 7c 82 3e 6e 4d 09 3a 61 ac 5b 37
       0.0136430785 0.25485235 0.0005237673 1.3093552e-05
0000a0 be 37 8a 3e 00 00 00 00 49 da 2c 3e 07 99 61 3d
       0.26995653 0.0 0.16880144 0.05507758
0000b0 58 ba 2b 3e 68 20 17 3e 37 d2 a7 3e 39 bd 8a 3d
       0.16770303 0.14758456 0.3277757 0.067743726
0000c0 09 71 5e 39 72 9e d0 3a da 51 83 3b 8d 48 4e 3d
       0.00021213679 0.0015916361 0.00400756 0.05036216
0000d0 00 00 00 00 22 24 05 3f 01 1e c8 3d 70 8b 57 3b
       0.0 0.5200826 0.09771348 0.0032889508
0000e0 a4 5f e9 3d 71 1b 1d 3e 5c f5 fd 3e 2c cc b8 3e
       0.11395195 0.153425 0.49601257 0.3609327
0000f0 68 6c 17 3a bd 1a 0b 3e 40 f7 40 3b 1d bc fb 3e
       0.00057763467 0.13584419 0.0029444247 0.49166957
000100 30 34 96 3b 00 00 00 00 ce 09 63 3e 46 e8 02 3f
       0.004583858 0.0 0.22171709 0.5113567
000110 14 35 9d 3b 00 00 00 00 00 00 00 00 c3 19 42 3d
       0.004797587 0.0 0.0 0.04738785
000120 52 d5 97 3b 49 35 cf 39 cf 2b d9 3e 27 77 40 3d
       0.004633584 0.00039521817 0.42416236 0.046988633
000130 49 9f 0c 3f 72 a0 93 3e c7 f5 01 3e 00 00 00 00
       0.5493055 0.28833348 0.12691413 0.0
000140 00 00 00 00 f3 2e 22 3f 5f cc 41 3e 78 8b 55 3e
       0.0 0.6335289 0.18925618 0.20853984
000150 03 53 11 3d cd 9b 21 3f 6c b7 ac 3e c0 21 68 3e
       0.035479557 0.6312836 0.3373369 0.22669125
000160 00 00 00 00 bb cc 87 3b d3 23 92 3a db 15 2e 3f
       0.0 0.004144279 0.0011149592 0.680021
000170 1e 52 35 3b 47 be 9a 3b 23 5e 01 3f a3 78 d8 3d
       0.0027667354 0.00472239 0.50534266 0.10569885
000180 49 d8 79 3b 27 a0 37 3a 90 47 a4 3b 00 00 00 00
       0.00381233 0.00070047606 0.0050134137 0.0
000190 d0 76 d6 3e 89 bb 53 3e dc 00 26 3d 6b ea de 3e
       0.41887522 0.20677008 0.040528163 0.43538222
0001a0 68 8b 49 3e 28 5c 1d 3e a5 d7 15 3f 26 28 25 3c
       0.19682086 0.15367186 0.5853217 0.010080373
0001b0 31 fe e0 39 f4 04 38 3f 13 68 07 3d 00 00 00 00
       0.00042913997 0.7188256 0.033058237 0.0
0001c0 36 09 4b 3e 00 00 00 00 db 41 6a 3e 5f 2f 14 3b
       0.19827732 0.0 0.22876684 0.0022611243
0001d0 04 00 00 00 d5 85 d0 3c 8f c6 04 3f 55 7c 81 3c
       6e-45 0.025454441 0.51865476 0.015806356
0001e0 5d 72 62 3d fd 71 06 3e df a1 3d 3e 35 ea 78 3e
       0.055284847 0.1312942 0.1851878 0.24308093
0001f0 42 31 91 3d 00 00 00 00 9e 41 74 3c fd 16 8d 3d
       0.07089473 0.0 0.0149082225 0.0688915

bn1.running_var f4 [128]
000000 5b 28 0a 3b 04 00 00 00 33 e7 41 3b fa a7 cd 3b
       0.0021081183 6e-45 0.0029587268 0.006276128
000010 92 46 80 39 f8 53 25 3a 4d d9 50 3d 97 c4 4e 3a
       0.00024466641 0.0006306763 0.050988484 0.00078875705
000020 1d 4b f9 3b b1 2c 61 36 34 f2 b3 3b 04 00 00 00
       0.007607831 3.3553627e-06 0.0054915193 6e-45
000030 04 00 00 00 3e 6c 10 3c 58 0c fd 3c 65 8c f3 38
       6e-45 0.008814869 0.030889675 0.000116132935
000040 a2 82 c0 3a dd cb 97 39 1c 10 62 3d 44 ca a1 3b
       0.0014687369 0.00028952854 0.055191144 0.004937442
000050 2c 54 85 39 04 00 00 00 bf 77 e2 38 91 7b 8f 3b
       0.0002543045 6e-45 0.00010798824 0.004378744
000060 6f ed 5c 3a 04 00 00 00 0f 55 07 3b 8f 7c 14 3b
       0.00084277143 6e-45 0.0020650064 0.002265725
000070 5e b2 bf 39 86 a6 b3 3a 99 f5 4f 38 72 f0 27 38
       0.00036563253 0.0013706244 4.9581377e-05 4.0039835e-05
000080 5c b4 f1 3a b7 21 e2 3c 04 00 00 00 2c 44 8b 3d
       0.0018440592 0.027603967 6e-45 0.06800112
000090 e2 6b b3 39 66 13 81 3d 2a 74 90 38 04 65 ea 33
       0.0003422192 0.06302528 6.888092e-05 1.0914849e-07
0000a0 d9 41 7a 3d 04 00 00 00 cf d8 d8 3c 56 e3 8d 3b
       0.061097953 6e-45 0.02647057 0.004330079
0000b0 48 e6 fb 3c 42 a0 bf 3c 15 34 0d 3b 8f 54 a9 3b
       0.030749455 0.023391847 0.0021545936 0.005167551
0000c0 29 3a 59 38 84 4d 38 39 9b 6b 94 3a c2 50 0b 3c
       5.1790998e-05 0.00017576484 0.0011323573 0.008503141
0000d0 04 00 00 00 b0 73 d6 39 b9 3a 34 3c b1 d6 e5 38
       6e-45 0.00040903455 0.011000329 0.0001095956
0000e0 85 03 c3 3c 67 7c 51 3a 8c 36 d4 3c d7 d3 1e 3c
       0.02380539 0.00079912547 0.025904916 0.009694061
0000f0 45 35 c2 37 ad 78 ae 3c b9 44 1e 3a 01 62 8c 3c
       2.3151408e-05 0.021297777 0.0006037462 0.017136576
000100 70 90 c7 3a 04 00 00 00 a5 2f a5 3b b5 c0 4b 3c
       0.0015225541 6e-45 0.00504108 0.012436082
000110 43 e3 df 3a 04 00 00 00 04 00 00 00 02 6f 66 3b
       0.0017081279 6e-45 6e-45 0.003516138
000120 c6 79 bc 3a bb f6 2f 38 9f 4f b8 3c 04 9d c6 3b
       0.0014379553 4.1953037e-05 0.022498904 0.006061198
000130 45 5a de 3b 0b 13 26 3d 70 82 25 3c 04 00 00 00
       0.0067856633 0.040545505 0.0101018995 6e-45
000140 04 00 00 00 d2 6e e4 3c 0d 78 0d 3d 30 52 c7 3c
       6e-45 0.027884874 0.034538317 0.024331182
000150 b7 bf e6 3a 7f f8 24 3d 6f 99 5b 3c 5c 3d 91 3c
       0.0017604743 0.040276047 0.013403281 0.017729454
000160 04 00 00 00 6c 45 9d 3a cd be c0 38 41 7b 56 3d
       6e-45 0.0011998839 9.190813e-05 0.052363638
000170 75 5b 14 3a df 40 d3 3a 6d 9a 33 3d 38 b5 3a 3c
       0.000565938 0.0016117356 0.043848444 0.011395745
000180 f2 86 f2 38 77 5b 00 38 44 ce e6 3a 04 00 00 00
       0.00011564595 3.060276e-05 0.0017609079 6e-45
000190 f1 f1 47 3c 43 f8 3f 3d 57 bf db 3b df 23 de 3c
       0.012203679 0.04686762 0.006706159 0.027116714
0001a0 e2 ba 62 3a 5e 2c c7 3a 99 fc bf 3b 53 cb 62 3b
       0.00086490635 0.0015195718 0.0058589694 0.0034606054
0001b0 2c a7 66 38 72 27 d8 3c 39 46 66 3b 04 00 00 00
       5.4991964e-05 0.026385996 0.003513707 6e-45
0001c0 59 d4 24 3d 04 00 00 00 a8 65 35 3d 8a 1f 91 39
       0.040241573 6e-45 0.0442864 0.00027680054
0001d0 04 00 00 00 97 7d 41 3a f7 f3 8c 3c 65 e0 be 3b
       6e-45 0.000738108 0.017206175 0.0058250898
0001e0 0c df 03 3c e0 c7 90 3c 43 83 11 3b 0e 57 4b 3d
       0.008048784 0.017673433 0.0022203482 0.04964357
0001f0 b7 f5 b7 3b 04 00 00 00 89 65 23 3a 40 7d d4 3b
       0.0056140083 6e-45 0.00062330865 0.0064846575

fc2.weight f4 [64, 128]
000000 05 a3 80 bd 36 61 6d 3c 5b ee c8 3c a0 da 6f 39
       -0.062810935 0.014488509 0.02452772 0.0002287426
000010 dc 0e 93 bd cb 11 af 3d 31 6a 57 bd bc 65 86 3d
       -0.071805686 0.085483156 -0.052591506 0.06562373
000020 68 d1 9e bd 05 92 32 bd 7f 8e 2e 3d 76 49 f9 bc
       -0.07754785 -0.043596286 0.042616364 -0.030430537
000030 48 28 9f 3d 56 1b 82 bd 9c 9c 9b bd 4d ac 59 bd
       0.07771355 -0.0635287 -0.0759823 -0.053142834
000040 28 fe b9 3c 49 50 89 3d 2b 46 23 bd 02 8d 08 3d
       0.022704199 0.06704766 -0.03986184 0.0333376
000050 4d 7a a3 bc 24 c1 80 bc 2f 7b 91 3d 9d aa 89 bd
       -0.019955778 -0.015717097 0.071035735 -0.06721995
000060 10 24 a4 ba 28 21 a6 3d 62 b7 c8 bc 3f 76 83 3d
       -0.0012522954 0.08111793 -0.024501506 0.06419038
000070 bd 35 fe bc 4a 52 91 3d 23 ee c9 bd 7a 27 17 bc
       -0.031031484 0.070957735 -0.09859874 -0.009225721
000080 99 be 81 bc a1 11 de 3c e9 a3 c3 3c 09 09 8c 3d
       -0.015837954 0.027108015 0.02388187 0.06837661
000090 b6 76 ee bb d9 78 9d bb 6b 41 80 3d de 51 ee bc
       -0.007277335 -0.004805666 0.062624775 -0.029091772
0000a0 9d ca 9b 3d ef d4 6b bd 09 ec 3a bc 31 0c cc ba
       0.07607005 -0.057576116 -0.011408814 -0.0015567598
0000b0 49 dc 10 3d 1a 68 71 3d 59 f9 0c bc b8 6c 90 bd
       0.03536633 0.05893717 -0.008604371 -0.070519865
0000c0 02 07 37 3d 2b 48 46 3c a3 3c cc 3c 0f bb 73 bd
       0.044684418 0.012102167 0.024931258 -0.059504565
0000d0 a9 a0 4c 3d 32 3a ad 3d 86 8b 5d 3b 9b 96 af bd
       0.049957905 0.084583655 0.0033805086 -0.085736476
0000e0 04 14 67 3d 49 3c 79 bd 49 97 b0 3c 9c d1 3a 3c
       0.056415573 -0.060848508 0.021556513 0.011402514
0000f0 d8 0c 65 bd 3f d2 80 3c 84 d4 be bd d4 cb a6 3c
       -0.055920452 0.015725253 -0.09317878 0.020360865
000100 a1 8c 90 bd 37 d6 48 bc f6 e9 39 3c 4e 8b 9f 3d
       -0.07058073 -0.012258104 0.011347285 0.07790242
000110 71 20 5e bd 0e 15 68 3d 0f f1 9a bb 43 08 3c bd
       -0.054230157 0.056660704 -0.0047284435 -0.045906316
000120 bc 90 bb bd c5 bd ab bd 16 f6 b0 3d b2 0b e9 bc
       -0.09158465 -0.08385805 0.08640687 -0.02844796
000130 45 35 cc 3c 88 e9 c6 3c da 3f 76 3d f0 ea 94 3d
       0.024927745 0.024281278 0.060119487 0.07271373
000140 42 81 8e 3d ff 1c 81 bd 3c 0a 52 bc 2d 0a 45 bd
       0.06958248 -0.06304359 -0.012819823 -0.048105408
000150 74 92 35 bd ce ac ab 3c fb 34 af 3d d4 2a 93 bd
       -0.04432912 0.020956423 0.08555027 -0.07185903
000160 a8 88 6c 3d e8 85 76 bd 05 0f fa bc c8 80 91 3d
       0.057747513 -0.060186297 -0.03052474 0.07104641
000170 15 f9 06 bd ac 65 9e bb cb 2e 73 bd 4f 43 93 3d
       -0.032952387 -0.0048338976 -0.059370797 0.071905725
000180 49 27 00 bc d2 ed b3 bd 6c c3 aa 3c d6 60 73 bd
       -0.007821866 -0.08785595 0.020845138 -0.05941852
000190 3f 16 89 bd e3 b2 36 3b 05 87 89 3d 3d 45 c2 bc
       -0.06693696 0.002787762 0.06715206 -0.023714656
0001a0 01 75 21 3d ed 33 a7 3d 4c 86 5c 3d 7e c5 5c bd
       0.039418224 0.08164201 0.053839013 -0.05389928
0001b0 33 f8 15 bc b1 3e f6 bc 7b 05 94 bd c1 7d 4c 39
       -0.009153414 -0.03005919 -0.07227608 0.00019501803
0001c0 c4 b6 81 3d 8f e2 bc 3d 92 41 07 3c 2c 6c 1a 3b
       0.06333688 0.092229 0.008255379 0.002356301
0001d0 2b d8 11 bd 9f 00 83 3d 14 ec 19 bd bb 0e 91 bd
       -0.035606544 0.06396603 -0.037578657 -0.07082888
0001e0 d9 d4 0c 3c 85 1f 63 3d fc a6 a6 bd 19 8d 9e 3d
       0.008595669 0.05544998 -0.081373185 0.07741756
0001f0 1f 15 ef 3c be 64 40 bd c0 7a d6 bc 08 84 94 3d
       0.029184876 -0.046971075 -0.026181579 0.072517455
000200 73 bb 92 bd 01 da ef bc 55 aa f5 3c c5 7e a7 bd
       -0.07164659 -0.029278757 0.029988447 -0.08178476
000210 48 7e 40 3d b8 41 5a 3d 9d 2d 55 3d a7 e1 7b bd
       0.04699543 0.05328533 0.052045453 -0.061494496
000220 dd 86 a6 3d 9b 61 93 bd 4b b4 a8 3d 9b 9b 88 bd
       0.08131192 -0.07196351 0.08237513 -0.066703044
000230 83 e6 71 bd b6 04 50 3d b4 1a 08 3c 6c fc 3b 3b
       -0.059057724 0.050785743 0.008307148 0.002868439
000240 ee 05 4d bd d1 1f 1e bd 8e c8 c9 bc e5 67 c4 bd
       -0.050054483 -0.03860456 -0.024631765 -0.09590129
000250 41 b6 1b bd b0 d1 9a ba e7 b1 7c 3a da 8c ef 3c
       -0.038015608 -0.0011811759 0.00096395466 0.029241968
000260 d9 ad a1 3d 38 6b 47 3b 72 3a 0f bd 5f 16 0f bd
       0.07894487 0.0030428898 -0.034967847 -0.034933444
000270 c0 6e f1 bd cf d1 72 bd c4 53 87 bc 65 ed 1c bd
       -0.11788702 -0.05928212 -0.016519435 -0.038312335
000280 37 bd f9 3c a7 07 21 bd 0d eb 7a 3d 47 86 81 bd
       0.030485732 -0.03931394 0.06125932 -0.063244395
000290 b0 55 cc bb a2 9b a0 3d e7 61 38 3d 12 78 5f bd
       -0.0062358007 0.078421846 0.045015242 -0.054557867
0002a0 15 ec 7b 3c 28 b2 f2 3c a9 d0 35 bd fe e1 f2 bc
       0.015376111 0.029625967 -0.044388447 -0.029648777
0002b0 75 ff aa 3c 61 10 80 bd 87 2f 82 3c 21 0c 1c 3d
       0.020873765 -0.06253124 0.015891803 0.038097505
0002c0 fd 24 52 bd 4f 3e 92 3d a5 b9 22 bc 00 8d 32 3d
       -0.051304806 0.07140791 -0.009931956 0.0435915
0002d0 ff cd cc 3d 7e 70 19 bd ba 8b 35 3d 46 6d ad 3b
       0.10000228 -0.037460797 0.044322707 0.0052925674
0002e0 19 80 47 bc ea 3f 15 bc 19 d1 fc ba 2c 44 14 bd
       -0.012176537 -0.009109477 -0.001928839 -0.036197826
0002f0 19 22 97 3c e9 9e 53 3a 95 64 5d 3d 4a 05 a0 bc
       0.018448876 0.00080726907 0.054051 -0.019533772
000300 fe db ab 3b 6c b9 53 bd 3a 9f 97 bd 88 10 11 3d
       0.005244731 -0.051690504 -0.07403417 0.035416156
000310 50 e6 e7 3b f7 d1 56 bd e1 87 30 bd 05 33 db 3c
       0.007077016 -0.05244633 -0.043098334 0.026757726
000320 ef 3c a3 bc aa 24 7e bb 41 3f 17 3b f5 54 0c 3d
       -0.019926516 -0.0038779178 0.0023078474 0.03426071
000330 4e ad 1e 3d 3c 01 aa bc 67 ab 16 3d fa 7c 3d 3d
       0.038739495 -0.020752542 0.036784556 0.046261765
000340 a1 07 14 3b 89 62 95 3c 9d 61 19 3b ae 36 82 3d
       0.0022587555 0.018235462 0.002340413 0.063580856
000350 e7 d3 20 bd ef 86 42 bd 35 72 3b 3d ea 62 99 bd
       -0.039264586 -0.047491964 0.045763213 -0.074895695
000360 60 18 a8 3c 16 d2 2e bd 0d a1 65 3d 93 f0 ab bd
       0.020519435 -0.042680822 0.056061793 -0.08395495
000370 e5 27 52 3d 75 74 ae 3d 20 ef 9c 3c af d9 c3 bb
       0.051307578 0.08518306 0.019156992 -0.0059768776
000380 04 12 cd 3d d2 5f 41 bd 8b 97 33 bc d4 df 9f bc
       0.10013202 -0.047210522 -0.010961424 -0.01951591
000390 52 72 17 bc 33 df 9a 3c e9 99 61 3c 49 91 86 bc
       -0.009243565 0.018905258 0.013769605 -0.0164267
0003a0 54 73 ac bd 25 f5 ad b9 8a 44 ef bc 23 02 6d 3c
       -0.084204346 -0.00033179778 -0.029207487 0.014465841
0003b0 67 02 95 3d de c8 a8 3d e1 3f 7b bd 47 4b bc bb
       0.07275849 0.082414374 -0.061340217 -0.0057462784
0003c0 56 86 12 bd 3a 2c 90 bd 98 6b 81 bd 0b 1f 9f 3d
       -0.035772644 -0.070396855 -0.0631935 0.07769593
0003d0 53 d4 83 3d 21 6b 41 3d 1e 02 3b 3d f3 72 90 bd
       0.06436982 0.047221307 0.045656316 -0.07053175
0003e0 cd e6 d8 3b 9a ce a8 3d d7 bc 4b bd 6c c8 9c 3d
       0.0066193105 0.08242531 -0.04974064 0.07655415
0003f0 38 80 c1 3c 43 3b 8d 3d 42 8e 0f bd 80 86 2e 3d
       0.02362071 0.06896069 -0.035047777 0.042608738

fc2.bias f4 [64]
000000 92 6a 76 3c 23 07 ad 3d 63 fd 68 3d 8e cd 31 bd
       0.015040057 0.08448627 0.056882273 -0.043408923
000010 08 cc 2b bd 41 d6 a2 3c ef 23 59 bd 70 ac f4 bb
       -0.041942626 0.019877555 -0.053012785 -0.007466845
000020 08 73 e8 3c be d4 03 bd 4e 0a f9 3c 02 72 37 3a
       0.028375164 -0.03218531 0.030400421 0.00069978845
000030 14 22 ad 3d 0c ac 8e bd a8 84 80 3d bc f1 8c 3d
       0.084537655 -0.06966409 0.06275302 0.06882045
000040 c8 f4 8a bd 46 ad 90 3c 29 a5 1c bc cc 6e 61 3d
       -0.067849696 0.017660748 -0.009560862 0.055037305
000050 d5 fd 86 3d d3 9d 21 bd ad 41 39 bd 3d 85 88 bd
       0.06591383 -0.039457154 -0.04522865 -0.06666038
000060 29 bf 81 3d 54 8f 85 bd fd fc 45 bd 55 63 99 3d
       0.06335289 -0.06521478 -0.04833697 0.07489649
000070 be 24 3e 3d 2d 73 88 3d ab 17 af 3d c2 a1 94 bd
       0.04642176 0.06662593 0.08549436 -0.07257415
000080 be 66 86 bc 28 34 ce 3b 16 6f c0 3d 8b 8b 4e bc
       -0.016406413 0.0062928386 0.09396188 -0.012606512
000090 76 e9 f7 bb a7 62 7c 3d b1 b4 48 3d f7 fd 4a bd
       -0.0075656725 0.06161752 0.049000446 -0.049558606
0000a0 b4 6c 82 bd 1e c9 ab bc ca 22 57 3d 5d d1 d1 3d
       -0.0636839 -0.020969924 0.05252341 0.10245011
0000b0 bc b3 2d 3d 43 aa 74 3d 24 9d 14 3d 1c 70 a3 bc
       0.042407736 0.059732687 0.036282673 -0.019950919
0000c0 38 10 9a bc 90 0b a2 3d 36 b9 ae 3c 1b b3 7e 3c
       -0.018806562 0.079123616 0.02132855 0.015545632
0000d0 35 a9 74 3d 5e c6 7a 3d 97 d0 ab 3c 24 8d 38 39
       0.05973168 0.061224334 0.020973487 0.00017600186
0000e0 3b 27 e8 bc 95 ba 37 bd af 50 0d bd 6d 09 a6 3d
       -0.028339019 -0.044855673 -0.034500774 0.081072666
0000f0 a0 13 81 3d 00 f3 1b bd 63 ba 8a 3d d6 c2 63 bc
       0.06302571 -0.03807354 0.06773832 -0.013901433

bn2.weight f4 [64]
000000 42 02 80 3f 93 64 7d 3f 8b 10 81 3f e5 bd 7f 3f
       1.0000689 0.9898159 1.0083174 0.9989913
000010 6f da 79 3f c1 2f 7d 3f 9a 11 7f 3f 99 75 7b 3f
       0.9759893 0.9890099 0.9963623 0.98226315
000020 e1 0c 80 3f d7 21 7d 3f fb 37 80 3f 6a f2 7d 3f
       1.000393 0.9887976 1.0017084 0.9919802
000030 95 49 7f 3f 9f 0c 7d 3f 98 8b 7d 3f 1a 0b 80 3f
       0.9972165 0.98847383 0.9904113 1.0003388
000040 51 d5 7f 3f 2d 30 7c 3f 5d e6 7f 3f 6a 19 80 3f
       0.9993487 0.9851101 0.9996088 1.0007756
000050 5c 57 80 3f 06 b8 7f 3f b5 19 80 3f 58 7c 7f 3f
       1.002666 0.9989017 1.0007845 0.9979911
000060 0e 52 7f 3f a5 93 7e 3f 11 49 7e 3f b8 bd 7f 3f
       0.9973458 0.9944404 0.9933024 0.9989886
000070 05 61 80 3f 6b b8 7f 3f 54 31 82 3f 0f 5f 7e 3f
       1.0029608 0.99890774 1.0171304 0.993638
000080 5e b1 7f 3f 22 ea 81 3f 18 0b 7f 3f b6 d9 7f 3f
       0.99880016 1.0149577 0.996263 0.99941576
000090 a9 33 7f 3f 57 10 80 3f a5 06 7e 3f f2 f3 7f 3f
       0.996882 1.0004987 0.9922889 0.99981606
0000a0 1e 4e 7f 3f f7 9d 7f 3f 01 46 7c 3f 50 5e 7e 3f
       0.9972857 0.9985041 0.9854432 0.9936266
0000b0 28 e2 7e 3f ae b0 7e 3f 3b dc 7b 3f 70 fc 7e 3f
       0.9956384 0.9948834 0.9838292 0.9960394
0000c0 d8 0a 79 3f 68 78 7c 3f 19 9f 7f 3f e8 31 81 3f
       0.9728217 0.98621225 0.9985214 1.0093355
0000d0 8e 79 7f 3f c0 e7 7c 3f 68 5e 7e 3f 93 2a 7f 3f
       0.9979485 0.9879112 0.993628 0.9967434
0000e0 98 85 81 3f 48 0b 7f 3f 1e f9 80 3f 31 da 7f 3f
       1.0118895 0.9962659 1.0076025 0.9994231
0000f0 87 09 7f 3f bf 4f 7c 3f eb 43 81 3f 6f 1e 80 3f
       0.9962391 0.9855918 1.0098852 1.0009288

bn2.bias f4 [64]
000000 28 94 b3 3e a7 20 a4 be e5 21 88 3e 55 c8 96 3e
       0.35073972 -0.32056162 0.2658836 0.29449716
000010 35 3a c2 3e 12 7b a9 3e 68 59 a1 be 27 b4 b7 3e
       0.37935033 0.33101708 -0.31513524 0.35879633
000020 fc 46 93 3e 25 87 94 3e b3 3b 93 be e9 b8 9f be
       0.28765094 0.29009357 -0.28756484 -0.31195763
000030 1f 00 8d 3e 93 39 97 3e 6c 49 9c 3e 33 fa 89 be
       0.27539155 0.29536113 0.30524766 -0.269487
000040 3d 31 93 be 63 7b ac be c0 08 9f be 26 83 bb be
       -0.28748503 -0.33687887 -0.31061363 -0.36623496
000050 c0 74 8e be e6 67 87 3e d9 30 8e be 7a d0 9a be
       -0.27823448 0.26446456 -0.27771643 -0.3023718
000060 3c 33 a5 be fc ef 98 be 1b 59 bc 3e f3 38 9c 3e
       -0.3226565 -0.29870594 0.36786732 0.305122
000070 13 d4 aa 3e fd 7f 91 3e 58 a4 d2 be 81 d0 9c be
       0.33364925 0.2841796 -0.4114101 -0.30627826
000080 8f de ae be 7c 0c d2 3e b5 ad a1 be 5a 85 8d 3e
       -0.34154174 0.4102515 -0.3157784 0.27640802
000090 04 8d 94 3e f9 d0 8c 3e 6a 38 8b be b4 e7 8a 3e
       0.29013836 0.27503183 -0.27191478 0.271299
0000a0 9e e7 96 be a1 36 91 be 33 8b ab 3e 81 52 b5 3e
       -0.29473585 -0.2836199 0.33504638 0.35414508
0000b0 50 42 94 be fd 66 8f 3e 09 33 92 3e 78 1c b3 3e
       -0.28956842 0.2800826 0.28554562 0.34982657
0000c0 68 e5 be 3e f1 e7 a5 3e ee ee c1 be ab 8a a0 be
       0.37284398 0.3240352 -0.378776 -0.31355795
0000d0 a1 dd 94 be de 11 ab be 4c 0e 92 be 2f 10 a0 3e
       -0.2907534 -0.3341207 -0.28526533 0.31262347
0000e0 88 36 c4 be b5 0d a5 be d0 d5 ab be e3 b0 a5 3e
       -0.38322854 -0.3223702 -0.33561563 0.32361516
0000f0 ea cb 93 be d3 a9 97 3e 42 2f 93 3e 2a 9d 86 3e
       -0.28866512 0.29621753 0.28746992 0.26291782

bn2.running_mean f4 [64]
000000 b9 5e e1 3e 50 3b 20 3e 85 cc 0d 3e b7 92 7f 3e
       0.4401758 0.15647626 0.1384755 0.24958311
000010 6d 74 27 3e 21 2a 8a 3e 02 81 f2 3d 4e 10 88 3e
       0.16353007 0.26985267 0.118410125 0.2657494
000020 09 42 b3 3e a2 bf be 3d 66 f2 9e 3e 8c 15 ec 3d
       0.35011318 0.09313895 0.3104431 0.11527547
000030 99 5d 4d 3e b3 04 80 3e ff 39 0c 3e 2a e0 5b 3e
       0.20055236 0.25003585 0.13693999 0.2147223
000040 16 c8 7f 3e e0 f2 0b 3e 37 67 9a 3e 12 bb 99 3e
       0.2497867 0.13666868 0.30156872 0.30025536
000050 e2 e9 6b 3e d3 07 95 3e 1c d0 55 3e ad 50 b8 3d
       0.23038438 0.29107532 0.20880169 0.08999763
000060 90 cd 98 3e 10 dd 80 3e 39 92 5f 3e 50 57 a4 3e
       0.29844332 0.25168657 0.21833123 0.32097864
000070 10 84 4c 3e 51 51 d1 3e 62 07 a8 3e 6a d3 20 3e
       0.19972253 0.40882352 0.32818133 0.15705648
000080 3a 72 9d 3e 0c d0 9c 3e c2 ac 7a 3e a4 7f 28 3e
       0.3075121 0.30627477 0.24479964 0.16454941
000090 d3 cb a4 3e 67 ac 45 3e 1d dc d5 3d 3a 7d 7a 3e
       0.32186756 0.19304048 0.10442374 0.24461833
0000a0 fd 69 82 3e 46 f1 99 3e 7c 9d 7c 3e 4c f4 11 3f
       0.25471488 0.3006689 0.2466945 0.5701339
0000b0 7d d3 89 3e 51 c8 9f 3e bf ad 94 3e 96 73 17 3e
       0.26919165 0.31207517 0.29038808 0.14790186
0000c0 ef e0 bb 3d b2 fd 87 3e 1e 0b af 3e a3 49 8b 3e
       0.09173762 0.26560742 0.3418817 0.27204618
0000d0 3d 52 ee 3e b9 72 8a 3e 69 05 2a 3e ec e6 d5 3e
       0.46547118 0.2704065 0.16603626 0.41777742
0000e0 55 de c9 3e b8 e6 cb 3e aa ea f6 3e 6a f1 63 3f
       0.39427438 0.39824462 0.4822591 0.89040244
0000f0 99 71 11 3e 30 b5 99 3e 66 77 a5 3e c7 67 2e 3e
       0.1420349 0.30021048 0.32317656 0.17031775

bn2.running_var f4 [64]
000000 0f 27 92 3e d2 89 bb 3d 3e f5 dd 3c 6d 1f b7 3d
       0.28545424 0.091571465 0.02709448 0.08941541
000010 71 60 4e 3e 0d 49 e9 3d a7 4e d7 3d ae c4 3f 3e
       0.20153977 0.113908865 0.105130486 0.18727371
000020 e0 6d 1e 3e 57 f2 b5 3d 11 2f 4f 3e a4 c9 06 3e
       0.15471601 0.08884113 0.20232798 0.13162857
000030 1d c7 4a 3d c6 96 30 3e 6f 3c 5d 3e 94 bc 73 3d
       0.049506295 0.17245016 0.21605085 0.059506014
000040 b6 6d ae 3d 22 fc 1f 3d 79 8f 12 3e 07 de de 3d
       0.085170195 0.039058812 0.14312543 0.10882192
000050 5b 29 95 3d 85 fe 01 3e 71 19 4f 3d cf c2 6f 3c
       0.072832786 0.12694748 0.050561372 0.014633848
000060 12 c2 d5 3d a7 29 13 3e 5a a3 99 3d 99 97 ee 3d
       0.104374066 0.14371358 0.0750186 0.11650009
000070 c5 d7 62 3d 2f de 3d 3e eb c9 24 3e 02 4b 3a 3d
       0.055381555 0.18541788 0.1609265 0.04548169
000080 83 f2 00 3e be 17 de 3d 51 d5 8b 3d 18 4c 25 3d
       0.12592511 0.10844372 0.06827796 0.04035577
000090 72 35 00 3e 14 c9 e9 3c 7d db a6 3c 13 c8 8b 3d
       0.12520388 0.028538264 0.020368332 0.068252705
0000a0 bf bd a8 3d f1 0d ef 3d 29 1f 6a 3d 23 3f ab 3e
       0.08239316 0.11672581 0.057158623 0.33446607
0000b0 30 38 5c 3e 0d 82 00 3e 2b b6 ab 3e 2c 60 39 3d
       0.21505809 0.1254961 0.3353742 0.045257732
0000c0 9e 2d 2b 3d 44 40 03 3e f9 ec 13 3e 1f b5 6b 3f
       0.04179155 0.12817484 0.14445867 0.92073244
0000d0 b8 8c 69 3e 33 da b4 3d e6 11 7e 3d 4d cc 5c 3e
       0.22807586 0.08830681 0.062028788 0.2156231
0000e0 7b b8 28 3e 26 49 50 3e d3 b7 9e 3e a0 b3 6a 3f
       0.16476624 0.20340404 0.30999622 0.91680336
0000f0 a6 1c 60 3d da cf 28 3e 79 4f 07 3e 64 83 3d 3d
       0.05471482 0.16485539 0.1321391 0.046267882

fc3.weight f4 [1, 64]
000000 8f ad 76 be 46 78 7c 3e 3b 2a 83 be d2 1f 80 be
       -0.24089645 0.24655256 -0.25618157 -0.25024277
000010 7f be 97 be 13 c4 74 be 52 9c 94 3e 54 3c 8f be
       -0.29637524 -0.23902921 0.29025513 -0.27975714
000020 c9 0e b7 be 24 58 b8 be d6 6f c5 3e 00 27 98 3e
       -0.35753468 -0.36004746 0.38561887 0.29717255
000030 87 62 b0 be 2e b9 b3 be f7 f3 9f be cb fb 94 3e
       -0.3445017 -0.35102218 -0.31240818 0.29098353
000040 62 db 73 3e 11 09 93 3e 04 df a3 3e be 0c 68 3e
       0.23814157 0.28717855 0.32006085 0.22661111
000050 11 44 88 3e 9c f0 7a be c1 82 93 3e 36 27 66 3e
       0.2661443 -0.24505848 0.28810695 0.22475895
000060 9c 20 88 3e 47 93 a8 3e b1 52 78 be 66 d1 6e be
       0.2658738 0.32924864 -0.24250294 -0.23322067
000070 fd 91 90 be 4d b0 9a be 25 34 90 3e f8 6a 90 3e
       -0.2823638 -0.30212632 0.28164783 0.2820661
000080 b8 6c 5e 3e d3 21 89 be ab c7 65 3e be 3c a5 be
       0.2172116 -0.26783618 0.22439449 -0.32272905
000090 62 fe 85 be ce 11 9d be 7b c6 a9 3e 16 0f 9b be
       -0.2617064 -0.30677646 0.3315924 -0.30284947
0000a0 a0 65 70 3e e2 d9 93 3e fa 4c 76 be 1c 9a 7b be
       0.23476267 0.2887717 -0.24052802 -0.24570507
0000b0 57 cf a6 3e f2 af 90 be ee 4f be be 0c 8a 62 be
       0.32580063 -0.28259236 -0.37170357 -0.22122973
0000c0 e4 87 83 be 04 fc 9b be db a6 6c 3e 3c 20 b4 3e
       -0.25689614 -0.3046571 0.23110525 0.35180843
0000d0 ad 5f 5c 3e 57 1a 73 3e 99 b7 8b 3e fa 05 82 be
       0.21520872 0.23740517 0.2728851 -0.25395185
0000e0 92 45 9c 3e 97 41 88 3e 18 b5 a7 3e c4 b6 68 be
       0.30521828 0.2661254 0.3275535 -0.2272597
0000f0 c2 d9 ab 3e f1 31 ac be fe 12 5e be a3 87 90 be
       0.33564574 -0.33631852 -0.21686932 -0.28228483
