PreTrained/cstr_ode/Deep_DQN/0_8/700.pth (torch, 43158 bytes, 13 tensors)

fc1.weight f4 [128, 4]
00000000: c9bc 09bc 622e 873e 8ac0 cfbe eaf8 c1be
00000010: f432 45be ec4b 093e 404f 22bc cefa ca3e
00000020: 4fee 35bd 9748 023e 9716 1ebe 5499 aabd
00000030: 027e f7be 1ba4 a5be ab3d 59be c405 103c
00000040: 3000 493e bf4f 9a3e 3442 aebe 0f49 46be
00000050: 2a6d 303e 01df d83e 723f f3bd 5c91 bf3e
00000060: 295b afbd f220 833d fe72 e33e 41a6 f3be
00000070: 08cb a3be 1291 05be 9b44 58be 282f dd3e
00000080: 43a2 a4be f9b1 6ebe 744e b2be e1d5 e3be
00000090: 9ec1 95be 01f0 da3e 8940 4e3e 0027 783e
000000a0: b688 343d bf11 84be c846 bd3d 9398 dabe
000000b0: 1afa b8be c6f9 83be 2685 a13e 2619 963e
000000c0: c811 63be 20cb 93bc 40ba a33e 827f fe3e
000000d0: 4637 523e ce7a 613d 24a3 ad3e 0b3e 96be
000000e0: d9ce af3d c773 c5be e4e6 b5be 545a 78be
000000f0: e1c7 683e a2ca 4c3e ce15 97be c8ad 1a3e
00000100: 47c7 803e cf0f 40bd eee5 163d 0044 ed3d
00000110: 6b04 a13e 66ae f33e fb44 c3be 51a8 49be
00000120: b4c2 493e 765d d13e 8765 e13e 9753 ee3e
00000130: 3b41 eb3d a7c2 e1be 541b 123d 0a77 98be
00000140: 4e20 edbe 91b6 e03e 6ec3 c13e ff11 fabe
00000150: 08aa bf3d c880 acbd b882 a8bd 1c5f 6abe
00000160: 03ed 583e 50a4 a2be 2084 513e 1676 813e
00000170: cdfb b63e 1d61 3c3e f4bc febe 7954 a3be
00000180: 3d7c 813e cb8f e33d 31d9 cdbe 546c 92be
00000190: f2d4 f03e 547f ac3e b03e 5fbe d4dc 00be
000001a0: c905 f7be 1d65 68bb 63f6 c1be eb9d c7be
000001b0: 11ed 0dbd a983 a63d 140d 4abe 1aab 953e
000001c0: f6c7 99be 4132 e43e 32a5 b13e 1208 d6be
000001d0: e654 f5bd 0bb1 813c 6712 a23d 9ec6 e63d
000001e0: eb81 533e 0daf a03c 3e3c 6fbe d445 723e
000001f0: 673f f8be 8bc5 96be e44f f4bd 96b8 7fbe
00000200: b20e 43be a121 c8be f6df debd a531 f03d
00000210: 0ab2 acbe 2f52 95bc 0e4f b13e d843 43bd
00000220: 80ac 633c c0ad 30bd 103d cf3d 60c6 a23e
00000230: b621 ec3e a79d a93e 10c3 f73e 9997 d1bc
00000240: f2c9 dfbe f275 77be 6471 b53e 3290 0f3c
00000250: 71e0 80be 23f8 c0be 5674 efbe 5453 d9be
00000260: 2a56 bebd ac5f 883e e458 873e af7e f2be
00000270: 2eb0 9f3e 8a52 c8be f07b d8bd 1c9a 4fbe
00000280: 61ac a8bd 2283 cbbd 8db4 eabe aab0 e1be
00000290: 283c a0bd 80e1 d33b b896 68be b8de 403e
000002a0: 1a35 eabe 4b68 23bd 7f88 da3e a028 4dbe
000002b0: f6ed e23e 12b4 3b3e 6747 ebbe 74f8 a13e
000002c0: 8fc4 86bd 1550 4abe 8db3 cf3e 9ade d9be
000002d0: 6a67 333d 2e39 b2bd 2a8a bf3e 8ee8 053e
000002e0: 3fda 843e 48c9 3b3e c87c babd fa1e adbd
000002f0: 69e2 dabe fa2c 913e 5493 c33e 5c29 af3e
00000300: 1850 abbe e1f0 893b 9632 abbe 8ea8 83be
00000310: 386d 8cbe 4d7b 1d3e c3ce 8fbe 8685 baba
00000320: 01df 1d3d 8300 993e 1691 b5be 31e6 b8be
00000330: 569f 92be dce4 ad3e de63 32be 0bcf d53e
00000340: a024 393e 40aa 813d 00ed 73bb 086d cabd
00000350: 3ff2 543d c50e 03be b914 e43a 6d7d 643d
00000360: 8f6d c7be 55ec 85be 16a8 cf3e e279 d5be
00000370: c57c 77bc 4b73 f13e dfbf 4b3e 0aa2 d83c
00000380: 5d3b d5be a7ab 6d3e d332 b0be 85fc 14be
00000390: c712 37be 6f9d 94bd 2c35 8bbb 9626 d33e
000003a0: 6e01 853d 9e55 e43e 6504 9c3e b626 aabe
000003b0: 98da 6f3e 5883 bdbe a462 4bbe 833e 0a3e
000003c0: a7f9 233e 9799 c23e 72e7 29be a8c5 8fbb
000003d0: 4d24 903e d670 03bf 8081 ae3e 9415 cdbe
000003e0: 21fd 013b 37d4 a4bd d241 8dbe a8fa 863d
000003f0: 61d7 dd3e ef7c 22be abb3 8dbe 072f 47be
-0.008406826 0.26402575 -0.40576583 -0.3788522 -0.19257718 0.13407868 -0.00990659 0.39644474
-0.044416722 0.12723003 -0.15438305 -0.08330026 -0.48338324 -0.32351765 -0.2121493 0.008790437
0.19628978 0.30138966 -0.34034884 -0.19363807 0.17229143 0.42357638 -0.118773356 0.37415588
-0.08562309 0.06402768 0.4442367 -0.4758778 -0.31990838 -0.13043621 -0.21119921 0.4320004
-0.32155046 -0.23310079 -0.3482548 -0.44499114 -0.2924928 0.42761233 0.20141806 0.24233627
0.04407569 -0.2579479 0.09242016 -0.4269453 -0.36128312 -0.257765 0.31546897 0.29316062
-0.22174752 -0.018041193 0.31978035 0.49706656 0.20528898 0.055048756 0.3391353 -0.2934421
0.08584375 -0.38564894 -0.35527718 -0.24253207 0.22732498 0.19999173 -0.29508823 0.15105355
0.25152037 -0.046890076 0.03684037 0.115852356 0.31448683 0.47593993 -0.38138565 -0.19693114
0.1970318 0.40891618 0.44022772 0.4654815 0.11487051 -0.4409382 0.035670593 -0.2977832
-0.4631371 0.43889287 0.37844414 -0.48841855 0.09358603 -0.084230006 -0.082280576 -0.22887844
0.21184163 -0.31765985 0.20460558 0.25285405 0.35738984 0.18396421 -0.49753535 -0.31900385
0.252901 0.11111411 -0.40204766 -0.28598273 0.47037464 0.33690894 -0.21801257 -0.12584239
-0.482466 -0.003546066 -0.3788329 -0.3898767 -0.034649912 0.08130581 -0.19731551 0.29232103
-0.3003537 0.4456959 0.34696347 -0.41803032 -0.11979084 0.015831491 0.07913666 0.11268352
0.20655029 0.01961472 -0.23362824 0.2365945 -0.48485872 -0.29447588 -0.119293004 -0.24972758
-0.19048575 -0.39088157 -0.10882561 0.11728219 -0.33729583 -0.018227665 0.34630626 -0.047672123
0.013896108 -0.04313445 0.101190686 0.31791973 0.4611947 0.33128092 0.48391008 -0.025584983
-0.4370876 -0.24166086 0.35438073 0.008762406 -0.25171235 -0.37689313 -0.46768445 -0.42446387
-0.09293778 0.26635492 0.26435006 -0.47362277 0.31189102 -0.39125472 -0.10570514 -0.20273632
-0.08236004 -0.09937121 -0.45840874 -0.44080096 -0.07823974 0.0064660907 -0.22713745 0.1883496
-0.45743638 -0.039894383 0.42682263 -0.20035028 0.44322175 0.1833041 -0.45952913 0.31634867
-0.06580459 -0.19757111 0.40566674 -0.42552644 0.043799795 -0.087023124 0.37410098 0.13076994
0.2594776 0.18338501 -0.091058314 -0.08453174 -0.42750862 0.28354627 0.3819834 0.34211242
-0.33459544 0.004209623 -0.33437032 -0.25714535 -0.27427077 0.15379067 -0.28087434 -0.0014230467
0.03854275 0.29883203 -0.35462254 -0.36113122 -0.2863719 0.33963668 -0.17420909 0.41759524
0.18080378 0.06331301 -0.003722012 -0.09884077 0.051988836 -0.12798603 0.0017401195 0.055783678
-0.38950774 -0.2615687 0.40557927 -0.41694552 -0.015105431 0.47158274 0.19897412 0.026444454
-0.41646853 0.23210011 -0.34413776 -0.14549454 -0.17878257 -0.072565906 -0.004248282 0.41240376
0.06494413 0.4459657 0.30472103 -0.3323266 0.2342323 -0.3701427 -0.19861847 0.13500409
0.16013204 0.38007805 -0.16592196 -0.004387576 0.28152695 -0.5134405 0.34083176 -0.40055525
0.0019834714 -0.08048289 -0.2758928 0.06590778 0.43328384 -0.15867971 -0.27676138 -0.19451533

fc1.bias f4 [128]
00000000: 68ab e3bd 14df 3ebe 1e9c 043e 988c 303e
00000010: debc 78be e602 093d afc6 953e 5ad2 23bd
00000020: 98ff 203e bb17 fabd c444 443e e671 b9be
00000030: 0e89 96be 267c 7dbe e1a4 eb3e ace2 0abe
00000040: 3436 1dbd 37f9 7bbe c9f3 003f 3de9 fb3e
00000050: 5f5e c6be 1088 cfbe d122 b7be 1bb9 eebb
00000060: d9a1 0abe 4e90 a7be 2ec7 28be e0e2 c33d
00000070: e988 86be 935d d33d a5fc ffbd 06c7 71be
00000080: 912a 803d d9e4 d13e 8813 adbe 6196 803c
00000090: 1d8c 2ebe 8577 fc3e 7948 f7be d26a f5be
000000a0: c02d fb3e f8f7 a1be d5da fb3d e863 40bd
000000b0: 24d8 b8bd ebcc c1bd 0fe8 a63e f974 813c
000000c0: 7041 01bf d8e0 9fbe 4ec2 33be 457d 843e
000000d0: 8eaa a5be c3c6 ec3e 383a dabd e7d4 97bd
000000e0: c5d7 d03e fef6 693e 77c0 db3e 9931 943e
000000f0: e93b 16be a957 a3be a949 29bd b03e d23e
00000100: 08d8 29be 1e68 edbe 9d1f 3e3e c6e6 f53e
00000110: 074b 20be 5af9 d3be 1035 e8be 99cb f63d
00000120: a335 8bbc d40b 84be 8861 c43d 4cf7 413e
00000130: 9b34 ca3e 1f72 c83e 3fef 85bd 7ebb e1be
00000140: d853 e7be 5139 f23e e0de 693e c509 753e
00000150: 16a4 d9be b640 f23e 56f9 e73e 2ae0 ef3e
00000160: 30f5 d7be 823e 38be efc9 aabe 11f9 f03e
00000170: cc39 60be 786c 79be dcad 853e 37dc 74be
00000180: 9970 68be 67bb 2bbd fe08 7abd 226b c7be
00000190: 9d57 cd3e b917 78be f3db 3a3e 915d df3e
000001a0: 6214 593e 181f a53d 89c5 d73e e46d 9e3d
000001b0: 191a 6abe d9fe f13e 9256 073e 38c6 f9be
000001c0: 8707 1abe fe60 aebe a5f7 e53e 74f2 80bd
000001d0: bdf8 e9be 776a 20bd 22cd 9d3e 4497 093e
000001e0: 9e73 2a3e 94af 5d3d 6e1d 393e 4e04 1bbe
000001f0: 072c 42be 0e49 efbe cfa3 c6be 0152 5b3e
-0.111166775 -0.18639785 0.12950179 0.17241132 -0.24290797 0.03345003 0.29253146 -0.03999553
0.15722501 -0.122115575 0.19166857 -0.3621971 -0.2940144 -0.2475439 0.4602423 -0.13563031
-0.03838177 -0.24606787 0.50371987 0.49201384 -0.38743874 -0.40533495 -0.3576875 -0.00728525
-0.13538302 -0.32727283 -0.16482231 0.09564757 -0.2627633 0.10320582 -0.1249936 -0.23611078
0.06258119 0.4099491 -0.33803964 0.015696706 -0.17045636 0.49309936 -0.4829748 -0.4793306
0.49058342 -0.31634498 0.12297598 -0.046970278 -0.090256006 -0.09462913 0.32598922 0.015802847
-0.50490475 -0.3122623 -0.1755459 0.25876823 -0.32356685 0.46245393 -0.106556356 -0.07413655
0.4078962 0.22848126 0.42920277 0.2894409 -0.14671291 -0.31902817 -0.041330013 0.41063452
-0.16586316 -0.46368498 0.18566747 0.4802763 -0.1565362 -0.41401178 -0.45352983 0.12050552
-0.01699335 -0.25790274 0.09588915 0.18941993 0.3949326 0.39149567 -0.06539773 -0.44088358
-0.45181155 0.47309354 0.22838926 0.23929508 -0.42508 0.47314996 0.45307416 0.4685071
-0.4217925 -0.17992595 -0.33357188 0.47065023 -0.21897048 -0.24357784 0.26109207 -0.2391213
-0.22699203 -0.041926768 -0.061043732 -0.38948923 0.40105906 -0.242278 0.18247966 0.43626073
0.21199182 0.08062571 0.42142895 0.07735804 -0.22861518 0.47264746 0.13216618 -0.4878404
-0.15041934 -0.34058374 0.449155 -0.06296244 -0.45697585 -0.039164033 0.30820566 0.1343661
0.16645667 0.054122522 0.18077633 -0.15138361 -0.18962108 -0.46735424 -0.3879685 0.21418001

bn1.weight f4 [128]
00000000: 5e79 7d3f 0000 803f b752 803f 0a75 803f
00000010: 5a34 813f 0577 7b3f 6441 813f d030 803f
00000020: 50a3 803f ab8a 7c3f f4b2 7c3f 0000 803f
00000030: 0000 803f 1afe 7c3f 9b7b 7e3f 11a2 7e3f
00000040: c117 7d3f bb70 7e3f d95f 803f d8b2 833f
00000050: 4aea 7b3f 0000 803f a75c 823f 8cef 7f3f
00000060: fef8 803f 0000 803f 9ed8 7f3f f7c8 803f
00000070: c454 7d3f b86e 7d3f ecf5 7f3f 5f1f 803f
00000080: 278b 7b3f 3711 823f 0000 803f f121 7f3f
00000090: c729 7b3f a44e 803f d5e7 7c3f 0000 803f
000000a0: 7209 7f3f 0000 803f b721 813f 32b7 7c3f
000000b0: f329 803f d4c6 7c3f 7a42 803f 7b38 813f
000000c0: 9b77 7b3f 00c6 7e3f 503c 7f3f 908c 803f
000000d0: 0000 803f fd22 823f b2dc 7e3f b7e8 7f3f
000000e0: 4812 803f 0740 7e3f d327 803f 25d5 803f
000000f0: 3e22 813f 6a4c 7f3f 9616 803f bf25 823f
00000100: 1e4d 7f3f 0000 803f 88c8 7f3f 378e 803f
00000110: bc88 803f 0000 803f 0000 803f 6126 803f
00000120: 53a0 803f e754 7e3f 3488 7f3f ad86 813f
00000130: 296c 7e3f 5233 7e3f 8508 803f 0000 803f
00000140: 0000 803f ae28 803f 7670 803f d949 803f
00000150: b0c9 7e3f fac4 803f a5f4 7d3f 48cf 7f3f
00000160: 0000 803f 7360 7e3f 72d0 7f3f 4596 7d3f
00000170: 6f31 813f a87b 7a3f 8942 7f3f 48d5 7f3f
00000180: 1832 823f 3d77 7c3f 5afc 7e3f 0000 803f
00000190: b4b7 803f b987 7f3f fb88 803f 4252 813f
000001a0: 4e95 7e3f e03f 7d3f 8eb4 7d3f 0068 7f3f
000001b0: dd52 7b3f fd36 7f3f a325 813f 0000 803f
000001c0: f9c0 813f 0000 803f 8b0a 813f a6a8 7d3f
000001d0: 23bc 7f3f 1a18 803f ab0b 803f 3788 803f
000001e0: 1953 7c3f f851 803f bf3c 803f 34b9 7d3f
000001f0: 3ee4 7f3f 0000 803f 933f 803f 7bd6 7e3f
0.99013317 1.0 1.0025243 1.0035717 1.0094101 0.98228484 1.0098081 1.0014896
1.0049839 0.9864909 0.9871056 1.0 1.0 0.9882523 0.99407357 0.99466044
0.9886437 0.99390763 1.002925 1.0288954 0.9840437 1.0 1.0184525 0.99974895
1.0075986 1.0 0.99939907 1.006133 0.9895747 0.9899707 0.9998462 1.0009574
0.98259205 1.0161504 1.0 0.99661165 0.9811062 1.0023999 0.9879125 1.0
0.9962379 1.0 1.0088414 0.98717034 1.0012802 0.9874089 1.0020287 1.0095361
0.9822938 0.99520874 0.99701405 1.0042896 1.0 1.0166928 0.99555504 0.9996447
1.0005579 0.9931645 1.0012153 1.0065047 1.0088575 0.99725974 1.0006893 1.0167769
0.99727046 1.0 0.9991536 1.00434 1.0041728 1.0 1.0 1.0011712
1.0048927 0.993483 0.99817204 1.0119225 0.9938379 0.9929706 1.00026 1.0
1.0 1.0012414 1.003432 1.0022537 0.995265 1.0060112 0.9920142 0.9992566
1.0 0.9936592 0.9992744 0.9905742 1.0093211 0.97844934 0.997109 0.99934816
1.0171537 0.98619443 0.9960381 1.0 1.0056062 0.9981647 1.0041803 1.0103228
0.9944657 0.9892559 0.9910363 0.99768066 0.98173314 0.9969328 1.0089611 1.0
1.0137016 1.0 1.0081342 0.9908546 0.9989645 1.0007355 1.0003561 1.004157
0.98564297 1.0025015 1.0018538 0.9911072 0.99957645 1.0 1.0019401 0.9954602

bn1.bias f4 [128]
00000000: 122e 8abc dbff 68bb 44d1 00bb 3056 d13b
00000010: 875d 4dbc 9f6b 2b3b e13e 3bbc 7cf2 1c3c
00000020: b97d 1c3b 0fb0 5fbb a5c1 d13c 815e 523c
00000030: d344 a23c a648 0a3c 0a5d 96bc 6e97 3bbc
00000040: d6d9 9bbc d801 50bb 1fe8 38bc b3c0 ecbb
00000050: a362 87bb 861e a43c 6a91 05bc f4e4 4c3b
00000060: 63fe bc3a 2ebc ebba 2c12 8f3c 79a7 3e3a
00000070: 5dfe e9bc e943 f43b b060 a53c 0de8 31bb
00000080: c1a1 8cbc 3c50 9f3a bea7 dcbb 5dc5 663c
00000090: 71ea 413c 8f16 f53b 2117 373c 58b2 a6bb
000000a0: 4887 4c3b 3ee8 b23c fe95 9d3b 1d72 d6bc
000000b0: 710c f4bb 22f4 24bc 5f10 263c 460e 9bbc
000000c0: 63aa 94bc 9d2d 8fbb 8f85 91bb f4a0 a4b9
000000d0: b180 423a 7589 713c 29e6 cc3b 0484 72bc
000000e0: 25ad dc3b 54f8 c1bc 930b 6d3c be00 82bb
000000f0: 0782 433c 4a46 013c 35ab 953b 9864 223c
00000100: f943 8d3c 304f 33b6 0c8b dd3c 4975 d3bb
00000110: edad 7ebc e97f 9b3b c683 97bc 736f f23c
00000120: 2c04 79bc 2d91 93bc beee 51bc 46ae 9a3c
00000130: 2f90 84ba 83b8 b93b f0c3 ac3c d6e4 c4ba
00000140: 2bc0 903c cb5d cd3b c89f b73b aeff 9b3a
00000150: 7db7 633b 8412 003c 5413 033c d0f8 dbbb
00000160: 08ba 013d 4cf9 9e3b 7125 873c 3745 0cbc
00000170: e70f 18bc dcf4 5c3c 9793 b0bb 73c2 b838
00000180: 8522 70bc 606a 81bb 173f 7dba 9f19 f83c
00000190: 39ed de3b b42c a9bb 3b64 a43c 6373 113c
000001a0: 2f36 1b3d 95d0 673b 0363 0cbc 6b16 93ba
000001b0: c982 9cbc 2bdc 13bc 1e38 94ba 1864 b63b
000001c0: 8407 71bc 7fb9 133d da62 11bc 141e e03b
000001d0: 15f8 ed3b fd94 203c 3795 0b3a c434 61bc
000001e0: 0816 15bc 4654 2fbc 0ae7 6b3c 2e0f 0a3c
000001f0: efd6 3ebc 39de de3c 716f c43c ee54 233c
-0.016867671 -0.0035552892 -0.0019655982 0.006388448 -0.012534506 0.0026156676 -0.011428566 0.009579297
0.0023878647 -0.0034132039 0.025605032 0.012839914 0.019808209 0.008440172 -0.018354911 -0.011449678
-0.01902477 -0.003173938 -0.011285811 -0.00722512 -0.0041316315 0.020034086 -0.008152345 0.0031264396
0.0014419075 -0.0017985159 0.01746472 0.000727288 -0.028563673 0.0074543846 0.020187706 -0.002714637
-0.017166974 0.0012154649 -0.0067338636 0.014085141 0.01183568 0.007479496 0.011174948 -0.005087178
0.0031208564 0.021839257 0.00480914 -0.02617746 -0.007447772 -0.010067971 0.010135739 -0.018927705
-0.018147653 -0.004369451 -0.0044409703 -0.00031400437 0.0007419689 0.014742245 0.006253023 -0.014801983
0.0067345076 -0.023677982 0.014468092 -0.0039673736 0.011932856 0.007890293 0.0045675286 0.009911679
0.017244326 -2.6719172e-06 0.027043842 -0.0064531905 -0.015544397 0.0047454727 -0.018495452 0.029594159
-0.015198749 -0.018013561 -0.012813268 0.018881928 -0.0010113771 0.0056677475 0.021089524 -0.0015021812
0.017669758 0.0062672845 0.005603764 0.001190176 0.0034746819 0.0078169145 0.008000214 -0.0067130104
0.031671554 0.004851496 0.016497346 -0.008561424 -0.009281135 0.013486113 -0.005388688 8.810023e-05
-0.014656668 -0.0039494485 -0.0009660585 0.030285655 0.0068031815 -0.0051627997 0.020067325 0.008877608
0.03789347 0.0035372127 -0.008568528 -0.0011221891 -0.019105332 -0.00902466 -0.0011308228 0.0055661313
-0.0147112645 0.036065575 -0.008873666 0.006839523 0.0072622397 0.009801147 0.0005324664 -0.01374549
-0.009099491 -0.010701245 0.014398346 0.008426471 -0.011647924 0.027205573 0.02397892 0.009968979

bn1.running_mean f4 [128]
00000000: 42f9 903b 0000 0000 203a 393d 7248 163d
00000010: 83b6 993a 8d89 f33b c2e2 e83e 4bbb 783b
00000020: a560 4f3d 7938 2d38 31d7 a13e 0000 0000
00000030: 0000 0000 f4ab b03d 4d64 d63e 7a3b cc3a
00000040: 2d03 d03d c2dc cf3a a50f 333f 73b0 293f
00000050: 0400 0000 0000 0000 4883 7e3c 85ae 513d
00000060: 175c 293b 0000 0000 e4d9 9a3b b1e4 113d
00000070: 0400 0000 fd8b b13d c9e1 0f3a 0400 0000
00000080: c42e 2a3d 6f1e e03e 0000 0000 ea37 be3e
00000090: 3717 953c 0218 833e 0400 0000 0000 0000
000000a0: 3c57 853e 0000 0000 21fa 343e cda2 483d
000000b0: 3857 283e ca43 223e dd37 b23e af35 7c3d
000000c0: 0400 0000 e83a 963a 550a 3b3b 5dd6 2e3d
000000d0: 0000 0000 d009 043f c4fb b43d 59a4 753b
000000e0: 0e35 de3d 7070 2c3e 02d2 fd3e b554 c33e
000000f0: bbfc 0b3a ba89 113e a254 343b e12f ff3e
00000100: d68d 7b3b 0000 0000 ea6f 6a3e 0c7a 013f
00000110: cf4a 773b 0000 0000 0000 0000 7cee 003d
00000120: 4699 943b 0400 0000 7bc2 dc3e 3e33 323d
00000130: 62af 113f bef5 993e 9c39 1c3e 0000 0000
00000140: 0000 0000 ef48 263f 64b5 473e 3e9b 603e
00000150: f3b4 143d 6f2d 283f ba7f a73e f366 623e
00000160: 0000 0000 ac3d 6e3b 0951 a13a 1ff3 2d3f
00000170: c3ca 233b 9699 843b 1694 033f ef7a d73d
00000180: c9b7 f93b ed3b 5c39 c2f4 993b 0000 0000
00000190: a9f1 d43e 931a 523e 46d6 053d 5d2a ea3e
000001a0: 9070 483e b57c 353e 462c 193f 63fe 2e3c
000001b0: 0400 0000 f2b2 3a3f decb 0d3d 0000 0000
000001c0: 65a0 433e 0000 0000 01a2 643e 1521 7f3a
000001d0: 0400 0000 44bb c43c e52b 073f 7c1b 7b3c
000001e0: 4d73 5d3d 289c f43d 5be6 3a3e f273 7a3e
000001f0: 9f7b 863d 0000 0000 8d38 553c eb31 843d
0.004424245 0.0 0.045221448 0.036690183 0.0011727366 0.007432169 0.45485502 0.0037953432
0.050629277 4.129901e-05 0.3160949 0.0 0.0 0.086265475 0.41873398 0.001558169
0.10156856 0.0015858638 0.69945747 0.66284865 6e-45 0.0 0.01553423 0.051191825
0.0025842243 0.0 0.0047256816 0.035618488 6e-45 0.08669279 0.00054886617 6e-45
0.041548505 0.4377322 0.0 0.37152034 0.018199546 0.25604254 6e-45 0.0
0.26043117 0.0 0.17673542 0.048983384 0.16439521 0.15846172 0.34808245 0.061574634
6e-45 0.0011461647 0.0028540094 0.0426849 0.0 0.5157747 0.08837083 0.0037481992
0.10849963 0.16839767 0.49574286 0.38150564 0.0005340089 0.14212695 0.0027516265 0.49841216
0.0038384101 0.0 0.22894254 0.50576854 0.0037733798 0.0 0.0 0.031477436
0.004534873 6e-45 0.43117127 0.0435059 0.5690824 0.300703 0.15256351 0.0
0.0 0.6495504 0.19502789 0.2193422 0.03630538 0.65694326 0.32714635 0.22109585
0.0 0.0036352677 0.0012307476 0.679491 0.0024992682 0.004046629 0.51397836 0.105214946
0.007620786 0.00021003159 0.004698367 0.0 0.41590622 0.2051795 0.03267505 0.45735446
0.19574189 0.17723353 0.5983318 0.010680768 6e-45 0.729293 0.03461825 0.0
0.19104154 0.0 0.22327425 0.00097324076 6e-45 0.024015076 0.5280135 0.015326377
0.054065038 0.11943847 0.18251936 0.24458292 0.065665476 0.0 0.013013971 0.064548336

bn1.running_var f4 [128]
00000000: 9b07 c93a 0400 0000 802e 3a3b 086f bd3b
00000010: 7300 e238 ce00 033a ecb5 4a3d e5b0 533a
00000020: d522 ce3b 0208 b035 c7eb 883b 0400 0000
00000030: 0400 0000 83c5 fd3b 528d f73c d57b 4739
00000040: e286 bf3a a9a2 4e39 2f81 603d ff31 833b
00000050: 0400 0000 0400 0000 cad8 e239 fa32 953b
00000060: 942c 093a 0400 0000 405b e53a df8b 0a3b
00000070: 0400 0000 f9e9 b43a 4007 c637 0400 0000
00000080: a356 033b 02d4 de3c 0400 0000 4bf0 8b3d
00000090: 192e db39 ea0f 813d 0400 0000 0400 0000
000000a0: 0217 733d 0400 0000 7cc6 e13c 3caf 773b
000000b0: 0c4b e63c fec6 d53c dc2c 003b 74ff 803b
000000c0: 0400 0000 87df d738 7c4f 273a a822 013c
000000d0: 0400 0000 e65d b639 240c 063c 7b19 e538
000000e0: 1326 b53c d355 263a c7c3 c23c 1cb8 193c
000000f0: 6f74 bb37 de08 b03c 8a85 1b3a 74eb 8c3c
00000100: ebda 953a 0400 0000 8f15 9d3b 902e 493c
00000110: 733b 923a 0400 0000 0400 0000 8b45 1c3b
00000120: 1990 b93a 0400 0000 3a00 b53c 0f8a b83b
00000130: 6716 cb3b 79f6 213d 9356 383c 0400 0000
00000140: 0400 0000 97e3 df3c 9b9f 173d 1659 d03c
00000150: fe3a cc3a a3c7 273d b77b 5b3c 3ce9 8d3c
00000160: 0400 0000 54b9 873a 62ea f838 ceb1 573d
00000170: ce4d 003a 812d a83a f600 313d bb72 353c
00000180: 23ff 5139 2d9a a936 fcc1 dd3a 0400 0000
00000190: a3d2 493c 813f 343d c206 be3b 4a36 d13c
000001a0: 84ee 153a 3daf a03a aa87 a13b c899 5d3b
000001b0: 0400 0000 b8c6 d23c 5e16 623b 0400 0000
000001c0: cb7b 1b3d 0400 0000 c75c 313d d045 4a38
000001d0: 0400 0000 000a 1e3a 8451 813c cb5a af3b
000001e0: aa65 fb3b 0515 683c 5a16 173b 4013 4b3d
000001f0: 8b3f 953b 0400 0000 ba0c c339 0c3d c63b
0.001533735 6e-45 0.0028409064 0.005781058 0.000107766034 0.00049973733 0.0494899 0.00080753706
0.0062907734 1.3115352e-06 0.0041784975 6e-45 6e-45 0.0077444925 0.030218754 0.0001902425
0.0014612342 0.00019706287 0.0548107 0.0040037627 6e-45 6e-45 0.000432676 0.004553196
0.0005232778 6e-45 0.0017498508 0.0021140499 6e-45 0.001380264 2.3606815e-05 6e-45
0.0020040653 0.027200703 6e-45 0.068329416 0.0004180528 0.063018635 6e-45 6e-45
0.059348114 6e-45 0.027560465 0.0037793657 0.028111957 0.026095863 0.0019557988 0.0039367024
6e-45 0.00010293634 0.00063823885 0.007881798 6e-45 0.00034783705 0.0081816055 0.00010924317
0.022112882 0.0006345186 0.023774995 0.009382274 2.2346356e-05 0.021488603 0.00059326796 0.017202117
0.001143304 6e-45 0.0047938298 0.012279168 0.0011156633 6e-45 6e-45 0.0023845162
0.0014157324 6e-45 0.022094835 0.0056316922 0.006197739 0.039541695 0.01125111 6e-45
6e-45 0.027330203 0.037017446 0.025433104 0.0015581546 0.040961873 0.013396195 0.017323129
6e-45 0.0010354915 0.00011869219 0.052659802 0.00048944063 0.0012830944 0.043213807 0.011074717
0.00020026839 5.054541e-06 0.0016918774 6e-45 0.012318286 0.044005875 0.0057991454 0.025538582
0.00057194405 0.0012259256 0.0049295025 0.0033813585 6e-45 0.025729522 0.0034498195 6e-45
0.037959855 6e-45 0.04330137 4.822557e-05 6e-45 0.0006028712 0.01578594 0.0053513995
0.0076720314 0.014165168 0.0023054094 0.049578905 0.004554694 6e-45 0.0003720278 0.006049758

fc2.weight f4 [64, 128]
00000000: 327b 24bd bba1 743c b009 b13c f0a2 44b7
00000010: 9526 4cbd 8bd6 923d daa0 56bd a3d9 9c3d
00000020: 82a7 a3bd 07ed b2bc e073 8a3d f93b d4bc
00000030: a32d ac3d 96ae 72bd 22d5 97bd 4ac8 ebbc
00000040: 910d 3f3d 8475 b93d 6e56 26bd c9e2 3a3d
00000050: 084c 8cbb 36dc 1bbc e7f8 8b3d cca2 8fbd
00000060: 3d8a b93c b388 a23d 68c6 ba3b b82b 7c3d
00000070: c501 9fbc 8e83 893d 0825 90bd 70b6 cc3a
00000080: 8535 9dbc af60 d03c f8a7 b53c 6f26 8e3d
00000090: b407 e1bc 5a67 9dbb b3ea 963d b5f6 22bd
000000a0: c7e5 9b3d 4ece 40bd e176 5ebc f7ea 75bb
000000b0: bf22 193d 86fe 753d f935 b8bb 3ed4 9bbd
000000c0: 779e 383d c8fb 143d 9276 4b3d f948 8ebd
000000d0: b4f7 3b3d 6e7c b73d e00f 673a 7624 acbd
000000e0: fd36 5a3d bfba a7bd 5519 ab3c b77f 633c
000000f0: 467f d7bc 4a49 113d 9f3b 88bd f931 c43c
00000100: 4f29 2cbd e513 a1bc a611 5f3c f9b3 a63d
00000110: 695d f7bc 44bc 513d cad9 d4bc 2115 57bd
00000120: b0f3 8dbd 5ac0 a3bd 48a8 d13d e4d4 06bd
00000130: f694 8a3d 11b6 cf3c 9c53 883d a006 893d
00000140: aa43 c13d 7e0e 81bd ebbd 48bc cb42 40bd
00000150: e4e9 33bd b0ae ac3c 1699 a73d 6529 a3bd
00000160: 13e7 853d 22b6 12bd df73 02bb 4460 923d
00000170: ac14 13bc 7cd3 c83c 8481 73bd b1dc ad3d
00000180: 6488 54b9 bb9c 8dbd 3ab5 f23c 5dab 5abd
00000190: 4e46 86bd d62b d93b 2ffb 593d 45e7 abbc
000001a0: 6430 0b3d f2ec b43d dc3f 703d e809 64bd
000001b0: de82 48ba 031f b5bc 9a55 9ebd 50d7 cd3a
000001c0: f0cf 883d 4b87 b93d 1c2d e83b 14f9 ab3a
000001d0: ae47 f4bc b2a7 613d b278 fbbc 92e1 96bd
000001e0: 944b b93b 25c0 5a3d ba50 a3bd 6877 a83d
000001f0: 43dd be3c 9669 06bd 53ab cdbc a4a0 913d
00000200: 7c40 8ebd ca06 e1bc 85cc eb3c e14d a8bd
00000210: 642d 5d3d 88f6 653d 65ac 563d 378b 32bd
00000220: ebd6 a43d 05bb 16bd 872c a83d e9b0 89bd
00000230: 22d1 70bd 66cd 503d fbc4 033c 5087 293c
00000240: a110 5abd 24b8 01bd 50bb c9bc 66eb c2bd
00000250: daf0 abbc eb66 8b3c 1778 21bc 30c7 003d
00000260: e1d8 a63d 7606 343c 17a6 05bd 42f5 0dbd
00000270: 6406 c0bd c2fe 74bd b9da 23bc aed5 82bd
00000280: 4a40 0d3d f957 20bd 9a33 893d 412e 80bd
00000290: b7f0 853c a118 a03d 2f35 7a3d 3207 80bd
000002a0: a1e3 773c 7443 e23c 2f12 2dbd b943 cabc
000002b0: 7792 b13c cf3e 80bd b07c 873c 84f0 303d
000002c0: c1ec 64bd ddb6 a03d e9a6 fdbb 98b3 353d
000002d0: 435e ca3d 2fdb 0dbd ac34 423d 499f 1f3b
000002e0: edde 5ebc 803f b2bb 3c3f e6ba c9e6 0ebd
000002f0: df66 c23c f0aa 88b9 4bd4 7c3d 28e8 9bbc
00000300: 9810 153c df7b 51bd 231f 96bd 2a49 133d
00000310: fdde 1e3c 110a 22bd 7ad7 39bd 6804 e43c
00000320: 7499 a0bb bf54 583c 9635 163b 6203 0b3d
00000330: adf1 193d 02ea acbc d249 123d d8fe 303d
00000340: 8206 823c 7edb 943c 5f1f 3d3b 6ed3 823d
00000350: 5bf0 2cbd c3d6 41bd ac6e 353d ec60 97bd
00000360: 367a 9f3c 3cec 0ebd 43f7 813d 4e87 abbd
00000370: e0bb 713d 9b43 b63d 27a6 9a3c c0ec 11bc
00000380: 4f6a c03d 7d2d 2bbd 4207 85ba 12ed a8bc
00000390: 0cc0 0ebc 8810 8f3c e537 583c 48c5 86bc
000003a0: f5af aebd d94b 99ba a7ce e0bc 78fc a03c
000003b0: 3756 8f3d fafd a83d 56a1 72bd 2220 373b
000003c0: b715 16bd 03af 80bd 0dde 81bd 3962 963d
000003d0: c92a 4a3d b50e 653d 5666 3a3d 0b0a 8abd
000003e0: dea5 003c c602 a83d 5082 4bbd 94af 9c3d
000003f0: 5c9b d93c 1748 953d 6709 32bd 7396 2e3d
-0.04015655 0.014931138 0.021611065 -1.1720447e-05 -0.049841482 0.07169827 -0.052399494 0.076586984
-0.07990934 -0.02184154 0.06760383 -0.025907503 0.08407142 -0.05924853 -0.07413699 -0.028782029
0.046643797 0.090556175 -0.04060977 0.045626435 -0.0042815246 -0.009512952 0.06834584 -0.07013473
0.022648925 0.079362296 0.0056999214 0.06156513 -0.019410023 0.06714545 -0.07038313 0.0015618335
-0.01919056 0.025436727 0.02217482 0.069409244 -0.027469493 -0.00480358 0.07368984 -0.03978606
0.07612186 -0.047071747 -0.013578148 -0.0037524083 0.037386652 0.060057186 -0.0056216684 -0.07608841
0.045073 0.03637293 0.049673624 -0.06947512 0.045890525 0.0895928 0.0008814316 -0.08405392
0.053275097 -0.08189916 0.020886103 0.01388543 -0.026305806 0.035470285 -0.06651997 0.02394961
-0.042031582 -0.019662807 0.013615048 0.08139796 -0.030195909 0.051204935 -0.025982756 -0.052510384
-0.06931245 -0.079956725 0.10237175 -0.032917872 0.06766693 0.02535537 0.06656572 0.06690717
0.09436734 -0.06301592 -0.012252311 -0.0469387 -0.043924227 0.021079391 0.08183496 -0.0796688
0.065382145 -0.035818227 -0.001990549 0.071472675 -0.0089770965 0.024514906 -0.059449688 0.08489359
-0.00020268705 -0.069146596 0.029627431 -0.05338608 -0.06556378 0.00662754 0.053218063 -0.020984301
0.033981696 0.08834256 0.05865465 -0.05567351 -0.0007648895 -0.022109514 -0.07731171 0.0015704427
0.06680286 0.09059008 0.0070854556 0.0013120496 -0.029819336 0.055091567 -0.0306972 -0.07367243
0.0056547616 0.0534059 -0.07974382 0.082259 0.023298865 -0.03281554 -0.025106108 0.07110718
-0.06945893 -0.027469058 0.028784046 -0.08217979 0.053998366 0.056143314 0.052410502 -0.043589797
0.08048805 -0.03679945 0.08211618 -0.06723196 -0.058793195 0.050977133 0.008042569 0.010347202
-0.053238515 -0.03166975 -0.02462545 -0.09517555 -0.02098887 0.017016849 -0.009855292 0.03143996
0.08146835 0.0109878685 -0.0326291 -0.034657724 -0.09376219 -0.05981327 -0.010000878 -0.063884124
0.03448514 -0.039146397 0.06699295 -0.06258822 0.016350133 0.078171976 0.061085876 -0.062513724
0.015129955 0.027620055 -0.04225367 -0.024690496 0.021676285 -0.0626198 0.016538948 0.043198124
-0.05588985 0.078473784 -0.0077408445 0.044360727 0.0988126 -0.034632858 0.047413513 0.0024356416
-0.013602954 -0.0054396987 -0.0017566453 -0.034888063 0.023730693 -0.000260673 0.061725896 -0.0190316
0.009098195 -0.051143523 -0.073301576 0.035958447 0.009696719 -0.03956038 -0.04537151 0.027834132
-0.0049011055 0.013203799 0.0022920123 0.033938773 0.037583996 -0.021107677 0.03571493 0.043211788
0.015872244 0.018171068 0.002885781 0.06387983 -0.04222141 -0.047323953 0.044294998 -0.07391533
0.019467454 -0.03489326 0.063459896 -0.08375417 0.059017062 0.088996135 0.018878056 -0.008906543
0.09395277 -0.041791428 -0.0010149258 -0.020620856 -0.00871278 0.017463937 0.01319692 -0.016451493
-0.08529655 -0.0011695578 -0.02744229 0.019651636 0.06998866 0.08251567 -0.059235893 0.0027942737
-0.036641803 -0.06283381 -0.06341181 0.07342953 0.04935721 0.05592223 0.04550775 -0.06740197
0.007852046 0.08203654 -0.049684823 0.07650676 0.026563339 0.07289141 -0.043465998 0.04262395

fc2.bias f4 [64]
00000000: bcb6 9f3c a61b aa3d dfe8 233d db81 21bd
00000010: 7462 51bc fdfc 483d c8cf 51bd 8c35 31bc
00000020: 5196 dd3c 6ae1 ecbc 4741 093d 14c7 683b
00000030: 86db b33d 3ec4 7abd c392 993d 702c a03d
00000040: 2421 8cbd 6fbb 893c 784e f8bb 53b5 683d
00000050: b1fd 873d b998 15bd 627a 1abd 368d 81bd
00000060: de13 963d 9f3e 62bd 5c4a 0abd 1a7c 943d
00000070: e042 5e3d 7347 823d e99b 7f3d 18eb 90bd
00000080: cd00 ccbc 7510 1d3c a7a5 a43d e140 c0bc
00000090: 0e90 9ebb 9ecb 823d 63a2 7c3d 1136 4abd
000000a0: df80 4bbd e4dc adbc 97ae 603d d8a7 c93d
000000b0: 5e44 363d ecde 973d 6445 073d 8d92 35bc
000000c0: 94e6 4d3b dbc2 973d db1c 903c 2b8f 723b
000000d0: e090 863d 989b 823d a7c4 7c3c 0468 e63b
000000e0: 1fb3 02bd 38aa 46bd 4183 c9bc 13d7 b33d
000000f0: e275 6f3d e04f 2ebd 0788 933d 33e1 30bc
0.019496314 0.08306055 0.040017005 -0.03943048 -0.012779821 0.049069393 -0.051223546 -0.010815989
0.027049216 -0.02891608 0.03350952 0.003551905 0.08782105 -0.061222307 0.07498696 0.07820976
-0.068422586 0.016813008 -0.0075777136 0.05681355 0.06640185 -0.0365226 -0.03771437 -0.06325762
0.07328008 -0.0552355 -0.03376232 0.07250233 0.054262996 0.06361284 0.062404547 -0.070760906
-0.024902726 0.009586443 0.08039408 -0.023468437 -0.00483895 0.06386493 0.0616783 -0.049367968
-0.049683448 -0.021223493 0.054854 0.09846467 0.044498794 0.07415566 0.03302516 -0.011082304
0.0031417953 0.074102126 0.017591884 0.0037011604 0.065706015 0.063773334 0.015427745 0.0070314426
-0.031909104 -0.048502177 -0.02459872 0.087812565 0.05846203 -0.042556643 0.072036795 -0.010795879

bn2.weight f4 [64]
00000000: 0bc6 803f 82f6 7b3f abeb 813f 8379 803f
00000010: 7e34 7a3f 8551 7a3f 5820 803f 3745 783f
00000020: 55db 7d3f 69a1 7a3f 291d 813f 084e 7d3f
00000030: 9f50 7d3f 8a4b 7e3f 58ea 7a3f 2d18 813f
00000040: 9d18 7e3f b574 783f cff4 803f 3125 813f
00000050: d4d2 7e3f b447 7e3f 7a1b 7e3f 3ee7 803f
00000060: 6747 7d3f 7f42 7f3f 5f8c 7f3f 10bf 803f
00000070: 530c 7e3f 8807 7e3f 6486 853f d9f8 7c3f
00000080: c6e0 7d3f d10e 7b3f 0fac 803f ebf0 7f3f
00000090: aa50 803f 926a 7d3f f0ca 7b3f e154 7e3f
000000a0: 60b0 7c3f 9a7f 7d3f 7764 7b3f 8261 7c3f
000000b0: 64a3 803f c27c 7a3f c468 793f 4d5c 7c3f
000000c0: 285d 783f b4bd 793f e707 7d3f 755c 823f
000000d0: 5553 803f b31d 7b3f 3d67 7c3f 2e34 803f
000000e0: fd34 833f d73b 7d3f a662 813f 04cd 803f
000000f0: 44db 7c3f 4987 793f c5e9 813f f4b8 7e3f
1.0060438 0.98423016 1.0150045 1.0037082 0.97736347 0.9778064 1.000987 0.96980613
0.991628 0.9790254 1.0087024 0.9894719 0.98951143 0.99334013 0.9801383 1.0085503
0.99256307 0.9705308 1.007471 1.0089475 0.9954045 0.9932816 0.99260676 1.007057
0.98937076 0.9971084 0.99823564 1.0058308 0.99237555 0.9923024 1.0431638 0.9881721
0.991711 0.98069483 1.0052508 0.99976987 1.0024617 0.9899074 0.98356533 0.99348265
0.98706627 0.9902283 0.9820017 0.98586285 1.0049863 0.97846615 0.97425485 0.9857834
0.97017145 0.9755509 0.98840183 1.0184466 1.0025431 0.9809219 0.9859503 1.0015924
1.0250546 0.98919433 1.010823 1.0062566 0.9877207 0.97472054 1.0149466 0.99500966

bn2.bias f4 [64]
00000000: c289 fe3e 685f ecbe 37c5 c73e 67c4 db3e
00000010: 2109 053f 9ef8 f13e a327 e7be 34a7 003f
00000020: b576 d23e 22dc d53e fec8 d2be 9971 e4be
00000030: a97f ca3e cfbc d83e c627 e13e 5bef cabe
00000040: 5730 d7be 3f34 f3be 15ac e2be 453c 04bf
00000050: 8278 cfbe 0443 c63e 54f1 cebe 5843 e2be
00000060: 89e0 ebbe bbe6 dbbe 6df8 033f ff4e e33e
00000070: 53ab f03e 92ae d13e 5ab0 0b3f ccdd e1be
00000080: 9022 fabe f294 0b3f d71c ebbe 0883 cc3e
00000090: c82e d93e b541 cc3e c03b cabe 182e c93e
000000a0: eafd dbbe eb5e d2be dcd0 f43e af29 ff3e
000000b0: 0b12 d6be 6fc9 d13e ebd8 d23e a6fd fe3e
000000c0: ccaf 043f 5045 ec3e 5134 07bf 5ce4 e2be
000000d0: 176b dbbe 2f8c f4be 1263 d6be 8e75 e73e
000000e0: 02d7 03bf a40e ecbe 1c4a f2be a966 ef3e
000000f0: 5122 d4be f268 da3e d588 d83e d938 c43e
0.49714476 -0.4616654 0.3901765 0.4292328 0.51967055 0.47259992 -0.45147428 0.5025513
0.4110619 0.4176951 -0.4116897 -0.44617918 0.39550522 0.4233155 0.43975657 -0.3963574
-0.42029068 -0.47500798 -0.44271913 -0.51654464 -0.40521628 0.38723004 -0.40418494 -0.44192004
-0.46069744 -0.4294947 0.5155094 0.44396207 0.4700571 0.409535 0.54565966 -0.4411453
-0.48854494 0.5452415 -0.4592044 0.3994372 0.42418504 0.3989388 -0.3949871 0.3929298
-0.4296716 -0.41088042 0.47815597 0.4983649 -0.4181064 0.40973994 0.4118112 0.49802893
0.51830745 0.4614663 -0.52814204 -0.4431485 -0.4285514 -0.47763202 -0.4187246 0.45206875
-0.5149995 -0.4610492 -0.47322166 0.4675801 -0.4143243 0.42658192 0.42291895 0.3832462

bn2.running_mean f4 [64]
00000000: dcd0 083f 5fce 273e c122 8a3e a579 e03e
00000010: cea0 ff3d c867 903e 30f8 0e3e a7f5 093e
00000020: e959 ec3e 3663 eb3d 1177 b93e 5df9 b03e
00000030: b660 953e b56b b43e bc43 493e 2219 253e
00000040: 4c8c ae3e 4329 1e3e 79d9 ac3e cb40 d53e
00000050: 9070 993e 3be6 743e 6e16 8f3e ccd9 7d3e
00000060: 9280 cb3e d9c4 413e 73f2 bf3e 4e01 8e3e
00000070: da8d a43e b4dc c23e b978 a33e 7627 4e3e
00000080: 9845 aa3e 4564 a73e cf3c ae3e 673e 593e
00000090: c729 c63e 5579 563e a854 263e 7edc 803e
000000a0: 20cb 683e 8707 9e3e 35fa 8c3e 524d df3e
000000b0: 1f9a 923e 1026 273e d828 a03e 14b8 cf3e
000000c0: a190 7d3e 81da 653e 56b4 b23e 2e7f a33e
000000d0: 18a0 103f b475 a23e e4bd 5f3e 6acb e93e
000000e0: 51a4 cd3e d9d9 cb3e fbb7 0e3f 3889 743f
000000f0: 08a4 ec3d d8a0 a53e 6c7f cb3e 1dd3 343e
0.53443694 0.16387318 0.2697964 0.43842807 0.12481843 0.2820418 0.13961864 0.13472615
0.46162346 0.11493532 0.36223653 0.3456525 0.29175347 0.35238424 0.19654745 0.16122869
0.34091413 0.15445428 0.33759668 0.41650996 0.2996869 0.23915951 0.279468 0.24790114
0.3974653 0.18922748 0.37489662 0.2773537 0.32139474 0.38059008 0.31928042 0.2013224
0.3325622 0.32693687 0.34030768 0.21215211 0.3870375 0.20944722 0.16243231 0.25168222
0.22733736 0.30865118 0.27534643 0.43613678 0.2863321 0.16323113 0.3128116 0.40570128
0.24762203 0.22446634 0.3490321 0.31932968 0.56494284 0.31730425 0.21849781 0.45663005
0.40164426 0.39814642 0.5574948 0.9552188 0.11554724 0.32349277 0.39745653 0.17658658

bn2.running_var f4 [64]
00000000: 2ab2 bb3e 9692 153e 76ea a13d 87aa 513e
00000010: 309f f33d e8e0 c03d c9d9 173e 0ef9 973e
00000020: eb02 7f3e f837 103e 0b63 8a3e bf73 153e
00000030: d5f0 be3d 275f 353e 86e7 a33e 4e8c 853d
00000040: 2e8f 043e 49d3 bc3d f879 593e ffcb 493e
00000050: 8c20 d53d aec1 b33d 3b25 ac3d 53c5 993d
00000060: 8116 303e 4b1f 1b3f da80 1b3e 6716 aa3d
00000070: 4790 e63d 0682 293e 08fb df3d c566 893d
00000080: 4ee5 003e 4cf0 053e 9b7e 033e cb51 943d
00000090: 3226 263e 1dac 3a3d b2cc 153d 3dc4 993d
000000a0: 3386 983d 7bc6 f33d f491 5c3d 7968 603e
000000b0: 04fc 803e 7967 9b3e d921 ce3e 1e94 923e
000000c0: be98 a03d daa9 533e a3e7 113e 55e6 a53f
000000d0: 8943 b23e c483 ea3d 2515 a73d 4cf6 723e
000000e0: 351c 2f3e 2f58 3a3e 2826 af3e 9a9f 773f
000000f0: 255f 4d3d 90ee 7d3e 7310 2d3e a945 4c3d
0.36659366 0.146067 0.07906048 0.20475207 0.11895597 0.094178975 0.14829172 0.296822
0.24903457 0.1408385 0.2702869 0.14594935 0.09323279 0.17712079 0.32012576 0.065209016
0.12945244 0.09219987 0.21237934 0.19706725 0.104065984 0.08777176 0.08405539 0.0750834
0.17196085 0.60594624 0.15185872 0.08305054 0.112579875 0.16553506 0.10936552 0.06709055
0.12587473 0.13079947 0.12841265 0.07242163 0.16225508 0.045574296 0.036572166 0.075081326
0.074474715 0.119030915 0.05385013 0.21914853 0.25192273 0.3035238 0.402602 0.2862863
0.07841633 0.20670262 0.14248519 1.2960917 0.3481715 0.114509135 0.0815833 0.23726767
0.17100604 0.18197702 0.34208798 0.9672791 0.050139565 0.24798036 0.16900806 0.04987112

fc3.weight f4 [1, 64]
00000000: fb6a b7be 02a0 ba3e d0bb b6be 7eea b7be
00000010: e799 ddbe b4cf b2be fe20 d33e a262 d9be
00000020: e5c8 f0be e5fe febe f6c7 ff3e a8bc d33e
00000030: 47cf e3be db16 f2be 562f e6be a54c d43e
00000040: e90c b03e 041a c63e f67e da3e 4873 b43e
00000050: 870a bd3e 2b3a afbe fddb cb3e 5a3a ad3e
00000060: 1bcd c23e 01ca eb3e 5221 b9be b336 afbe
00000070: 4064 c7be 14b9 cfbe f63e cbbe e5d8 d03e
00000080: 910e aa3e 457f bfbe 1abb ae3e 6a9a d5be
00000090: 83e2 c0be f064 d2be dc4b e33e 6a97 cebe
000000a0: 4df7 ad3e 258a c93e b50d b3be 6374 b9be
000000b0: 9bcd e33e b241 d1be 20ae 03bf 85ad b1be
000000c0: 3190 bebe 1709 e3be b46c b23e 2119 f63e
000000d0: 0706 a63e ec39 b53e 3677 ca3e 9594 bdbe
000000e0: 1a56 da3e 2ad3 c33e 08ed e33e 9187 aebe
000000f0: 1966 e53e c289 f3be 3b36 a5be 2704 c5be
-0.35823807 0.364502 -0.35690165 -0.3592109 -0.4328148 -0.3492409 0.4123611 -0.42458063
-0.4702827 -0.49803844 0.49957246 0.4135487 -0.44494078 -0.47283062 -0.4495799 0.41464725
0.3438485 0.38691723 0.42674989 0.35244203 0.36922094 -0.34224066 0.39816275 0.3383358
0.38047108 0.46052554 -0.36158234 -0.3422142 -0.38943672 -0.4057089 -0.39696473 0.40790477
0.33214238 -0.37401786 0.34127122 -0.4171937 -0.37672815 -0.41092634 0.44393814 -0.40349895
0.33977738 0.39363208 -0.34971395 -0.3622161 0.44492802 -0.40870434 -0.5143757 -0.34702697
-0.37219384 -0.44342873 0.3484856 0.48066047 0.32426473 0.35395753 0.39544076 -0.37027422
0.42643815 0.38247043 0.44516778 -0.34087804 0.44804457 -0.47566038 -0.32267937 -0.3847973
