PreTrained/cstr_ode/Deep_DQN/0_12/100.pth (torch, 43158 bytes, 13 tensors)

fc1.weight f4 [128, 4]
0	0x3b1ad9cd	0.0023628355
1	0x3e8620b8	0.26196837
2	0xbed44b3a	-0.41463643
3	0xbebeb38c	-0.37246358
4	0xbe43207e	-0.19055364
5	0x3e0726cd	0.13198395
6	0xbbf7e498	-0.0075650923
7	0x3ecc2781	0.3987389
8	0xbd376015	-0.044769365
9	0x3e0945f1	0.13405587
10	0xbe1d7d6f	-0.1537988
11	0xbdc5b9e0	-0.096545935
12	0xbef5edb3	-0.48032913
13	0xbea82f0b	-0.3284839
14	0xbe4d62aa	-0.20057169
15	0x3cb5009a	0.022095013
16	0x3e472b50	0.19450116
17	0x3e9baac8	0.30403733
18	0xbeaf91ea	-0.3429101
19	0xbe5e63bf	-0.21717738
20	0x3e33427d	0.17505832
21	0x3ed7c162	0.42139727
22	0xbdcdc12e	-0.10046612
23	0x3ec05da1	0.37571433
24	0xbd98d3b9	-0.07462258
25	0x3d49dbf5	0.049282033
26	0x3ee70f4c	0.45128858
27	0xbeee57db	-0.46551403
28	0xbea3f67a	-0.32023984
29	0xbdf82ae9	-0.121175595
30	0xbe4453f6	-0.19172654
31	0x3edad9cc	0.4274429
32	0xbea8296c	-0.32844102
33	0xbe696f8e	-0.22796461
34	0xbeb1b096	-0.34705037
35	0xbeee8e20	-0.46592808
36	0xbe926405	-0.28591934
37	0x3ed92377	0.4240987
38	0x3e68c6a5	0.22732027
39	0x3e7af377	0.24506937
40	0x3ca14f49	0.019691126
41	0xbe80550e	-0.25064892
42	0x3dae27e8	0.08503705
43	0xbef070e2	-0.46961123
44	0xbeb7af85	-0.35876098
45	0xbe838a7a	-0.25691587
46	0x3ea303c9	0.31838825
47	0x3e97bd46	0.29636592
48	0xbe6105e6	-0.21974906
49	0xbcac25e2	-0.021014158
50	0x3ea2fc18	0.31832957
51	0x3efed2ff	0.49770352
52	0x3e475f8c	0.19470042
53	0x3d91e794	0.07124248
54	0x3eab98c7	0.33514997
55	0xbe9476e6	-0.28996962
56	0x3db44385	0.08801941
57	0xbec3e8d9	-0.38263586
58	0xbeb01623	-0.3439189
59	0xbe864551	-0.2622476
60	0x3e674ca6	0.22587833
61	0x3e4f3e6b	0.20238654
62	0xbe96c3a7	-0.29446146
63	0x3e19abc6	0.15006933
64	0x3e88fc58	0.26755023
65	0xbd6841c0	-0.05670333
66	0x3c8b7a0a	0.017025966
67	0x3dfa66de	0.122266516
68	0x3e9fd5bf	0.31217763
69	0x3ef4e97f	0.47834393
70	0xbec47cae	-0.38376373
71	0xbe3e6c43	-0.18595986
72	0x3e51cad7	0.20487534
73	0x3ed163da	0.40896493
74	0x3edf3e30	0.43602133
75	0x3ee0bace	0.4389252
76	0x3dda8152	0.10669197
77	0xbee1969b	-0.44060215
78	0x3d2f7338	0.04283449
79	0xbe9cebb0	-0.30648565
80	0xbeebcebe	-0.4605617
81	0x3ee0ab48	0.43880677
82	0x3ec5c7d4	0.3862902
83	0xbf0169e0	-0.5055218
84	0x3dbfaa08	0.09358603
85	0xbdac80c8	-0.084230006
86	0xbda882b8	-0.082280576
87	0xbe6a5f1c	-0.22887844
88	0x3e47eb4d	0.19523354
89	0xbe977d1c	-0.29587638
90	0x3e4280ee	0.18994495
91	0x3e823bd7	0.2543628
92	0x3eb5ed61	0.35532668
93	0x3e41edde	0.18938395
94	0xbefe5e89	-0.496815
95	0xbea7b239	-0.3275316
96	0x3e82d3ab	0.25552115
97	0x3dceb061	0.10092235
98	0xbec68d0f	-0.38779494
99	0xbe92c0d5	-0.28662744
100	0x3ef0d4f2	0.47037464
101	0x3eac7f54	0.33690894
102	0xbe5f3eb0	-0.21801257
103	0xbe00dcd4	-0.12584239
104	0xbef57ff5	-0.47949186
105	0xbbe9e6b7	-0.007138099
106	0xbec1380e	-0.3773808
107	0xbec469e6	-0.38362044
108	0xbcfea55f	-0.031084714
109	0x3d9dc510	0.07703602
110	0xbe557fe9	-0.20849575
111	0x3e9592c0	0.29213524
112	0xbe9d4657	-0.30717728
113	0x3ee9b126	0.45642966
114	0x3ead93e4	0.33901894
115	0xbed8ff28	-0.4238217
116	0xbdf38c62	-0.1189201
117	0x3c909c39	0.017652618
118	0x3d8d8716	0.06910531
119	0x3dfac286	0.12244134
120	0x3e4db91c	0.20090145
121	0x3cd3c863	0.025852388
122	0xbe77791d	-0.24167295
123	0x3e74fd52	0.23924759
124	0xbef711fb	-0.48255906
125	0xbe969529	-0.29410675
126	0xbe0196a7	-0.12655126
127	0xbe79bc20	-0.2438817
128	0xbe39a9ce	-0.18131182
129	0xbece3509	-0.40274838
130	0xbdd7f98a	-0.10545643
131	0x3de0fb57	0.10985439
132	0xbeab2503	-0.33426675
133	0xbc92e7ba	-0.017932761
134	0x3eb26a9a	0.34846956
135	0xbd521fa3	-0.051299702
136	0x3c78c9bb	0.015184815
137	0xbd32061e	-0.043462865
138	0x3dd269fa	0.1027412
139	0x3ea3b276	0.31972092
140	0x3eeec57c	0.46635044
141	0x3ea6c2ba	0.3257044
142	0x3ef6163c	0.48063838
143	0xbd16af9b	-0.036788564
144	0xbee48208	-0.44630456
145	0xbe74a7e5	-0.23892172
146	0x3eaff4cd	0.34366456
147	0xbbd07aea	-0.0063623087
148	0xbe81a838	-0.25323653
149	0xbec1cea7	-0.37852976
150	0xbef1490b	-0.4712604
151	0xbed7dcf9	-0.42160776
152	0xbdc3d987	-0.095629744
153	0x3e88ead5	0.26741663
154	0x3e8d4f1e	0.27599424
155	0xbefa4cdb	-0.4888676
156	0x3ea2cc3e	0.3179645
157	0xbecb28f9	-0.39679697
158	0xbdd90213	-0.10596099
159	0xbe55c52f	-0.20876001
160	0xbdcb907f	-0.0993967
161	0xbdbcd583	-0.09220412
162	0xbee4bcb8	-0.4467523
163	0xbede3a14	-0.43403685
164	0xbdaf853e	-0.08570336
165	0x3c643962	0.013929697
166	0xbe703b4d	-0.23460121
167	0x3e47da9b	0.19516985
168	0xbee61f36	-0.44945687
169	0xbd03f8b5	-0.032219607
170	0x3edfa9be	0.4368419
171	0xbe557c7c	-0.20848268
172	0x3ee322f3	0.44362602
173	0x3e41a8c2	0.18912032
174	0xbee77cdd	-0.4521245
175	0x3ea4f31b	0.32216725
176	0xbd577611	-0.05260283
177	0xbe69d6bd	-0.22835822
178	0x3ecb9658	0.3976314
179	0xbecff829	-0.4061902
180	0x3d4d4b1a	0.05012045
181	0xbdd2c950	-0.102923036
182	0x3eb4ff40	0.3535099
183	0x3e10a14f	0.14124034
184	0x3e6d1a99	0.23154677
185	0x3e3afaa3	0.18259673
186	0xbdf8c99d	-0.1214783
187	0xbddd477e	-0.10804652
188	0xbed1ce67	-0.40977785
189	0x3e8a987b	0.27069458
190	0x3ecb0258	0.39650226
191	0x3eb009b7	0.34382412
192	0xbeb7a6bb	-0.35869393
193	0x3ce7de6e	0.028304305
194	0xbeb789bd	-0.35847273
195	0xbe8f1e8d	-0.27952996
196	0xbe9402df	-0.2890844
197	0x3e2ca696	0.16860422
198	0xbe97646f	-0.29568812
199	0xbc16fc75	-0.009215464
200	0x3cd74441	0.026277663
201	0x3ea125bf	0.3147411
202	0xbec2e24c	-0.38063276
203	0xbeb2a219	-0.34889296
204	0xbe995524	-0.2994777
205	0x3eb63ced	0.35593358
206	0xbe35751b	-0.17720453
207	0x3ed54255	0.4165217
208	0x3e3924a0	0.18080378
209	0x3d81aa40	0.06331301
210	0xbb73ed00	-0.003722012
211	0xbdca6d08	-0.09884077
212	0x3d845689	0.06461818
213	0xbdeabbd0	-0.11461604
214	0xb99017d9	-0.00027483588
215	0x3d80fd8b	0.062983595
216	0xbec82235	-0.39088598
217	0xbe876951	-0.26447538
218	0x3ecdc36d	0.4018816
219	0xbed07803	-0.40716562
220	0xbd2a3e0f	-0.04156309
221	0x3eff5b9d	0.49874583
222	0x3e332958	0.1749624
223	0x3cb61a53	0.02222935
224	0xbedd68ca	-0.4324401
225	0x3e7b76e4	0.24557072
226	0xbeb2a4b1	-0.34891275
227	0xbe14033b	-0.14454357
228	0xbe238710	-0.15969491
229	0xbdb356cc	-0.087567896
230	0x3baa6b5f	0.005200788
231	0x3ed02d40	0.40659523
232	0x3d9070b7	0.07052749
233	0x3edfedb3	0.43736038
234	0x3e9b8709	0.3037646
235	0xbea41cef	-0.32053325
236	0x3e6c684e	0.23086664
237	0xbeb767e2	-0.35821444
238	0xbe52be84	-0.20580488
239	0x3e1300a6	0.14355716
240	0x3e2b08ee	0.16702625
241	0x3ebf1202	0.37318426
242	0xbe22d829	-0.15902771
243	0x3aae331b	0.0013290377
244	0x3e877544	0.26456654
245	0xbefa8995	-0.48933092
246	0x3eb86336	0.36013192
247	0xbed3c5dc	-0.41361892
248	0x3b986294	0.0046504233
249	0xbda96c8b	-0.08272656
250	0xbe8613b2	-0.261869
251	0x3d846bcb	0.064658724
252	0x3ed24b0b	0.41072878
253	0xbe1e5e3a	-0.15465632
254	0xbe9964ec	-0.2995981
255	0xbe3a0f4c	-0.18169898

fc1.bias f4 [128]
0	0xbe08a26f	-0.13343213
1	0xbe3c265f	-0.18374012
2	0x3dfd6f6b	0.12374767
3	0x3e338602	0.17531589
4	0xbe7669f5	-0.24063857
5	0x3d3bd5ec	0.04585831
6	0x3e94e055	0.29077402
7	0xbd53d01f	-0.05171215
8	0x3e1a75ce	0.15084001
9	0xbdf6ae66	-0.120449826
10	0x3e338afd	0.17533489
11	0xbeb7f6c4	-0.35930455
12	0xbe976ac8	-0.29573655
13	0xbe841dce	-0.2580399
14	0x3eeba134	0.46021426
15	0xbe0b543a	-0.13606349
16	0xbbd972a1	-0.0066359793
17	0xbe7942ef	-0.2434194
18	0x3efe68f5	0.4968945
19	0x3efa1618	0.4884498
20	0xbebd550f	-0.36978957
21	0xbecf8810	-0.40533495
22	0xbebf1aa9	-0.37325028
23	0xbbc06181	-0.0058709984
24	0xbe00e017	-0.12585483
25	0xbea7904e	-0.32727283
26	0xbe388c68	-0.1802231
27	0x3dbfcae6	0.09364872
28	0xbe861224	-0.26185715
29	0x3ded8d96	0.11599271
30	0xbde26751	-0.11054862
31	0xbe755145	-0.23956783
32	0x3d886135	0.06659166
33	0x3ed25f26	0.41088217
34	0xbeac318a	-0.33631545
35	0x3c80053d	0.015627498
36	0xbe398528	-0.18117201
37	0x3ef994ec	0.4874643
38	0xbeefb464	-0.46817315
39	0xbef23575	-0.4730641
40	0x3efb1f3f	0.49047276
41	0xbe9e25ae	-0.30888122
42	0x3dbf59c8	0.09343296
43	0xbd4d64a3	-0.050144803
44	0xbdd044be	-0.101693615
45	0xbded369d	-0.11582682
46	0x3ea2c9f9	0.31794718
47	0x3cacc29c	0.02108889
48	0xbef62ba1	-0.4808016
49	0xbe984b2d	-0.29744855
50	0xbe23ef04	-0.16009146
51	0x3e825175	0.25452772
52	0xbea5aa8e	-0.32356685
53	0x3ef1492a	0.47126132
54	0xbded9473	-0.1160058
55	0xbdc32398	-0.09528273
56	0x3ec971dc	0.3934468
57	0x3e840b65	0.25789943
58	0x3ed9e507	0.42557546
59	0x3e92a4a9	0.2864125
60	0xbe1d4b33	-0.15360717
61	0xbea79774	-0.32732737
62	0xbd23b58f	-0.03996807
63	0x3ed3e512	0.41385704
64	0xbe28d927	-0.16489087
65	0xbef2a09c	-0.4738816
66	0x3e40e059	0.18835582
67	0x3ef9560a	0.48698455
68	0xbe17212c	-0.14758748
69	0xbed75df5	-0.4206387
70	0xbee719d8	-0.45136905
71	0x3dfa671b	0.12226697
72	0xbd155b21	-0.03646386
73	0xbe80be81	-0.25145343
74	0x3dce7c47	0.10082298
75	0x3e3e974e	0.18612406
76	0x3ecb5aa6	0.39717597
77	0x3ec7b6e6	0.39006728
78	0xbd9bfd2f	-0.0761665
79	0xbee1bb7e	-0.44088358
80	0xbee753d8	-0.45181155
81	0x3eeefa79	0.4667547
82	0x3e6069c4	0.21915346
83	0x3e5a196b	0.21298759
84	0xbeda2571	-0.4260669
85	0x3eedd4ec	0.4645151
86	0x3ef13761	0.47112563
87	0x3ee9b0d3	0.4564272
88	0xbed7f530	-0.4217925
89	0xbe3d1c29	-0.18467773
90	0xbead6e45	-0.3387319
91	0x3ef53a89	0.4789622
92	0xbe607f1c	-0.21923488
93	0xbe6a5c84	-0.22886854
94	0x3e8426c7	0.25810835
95	0xbe6780de	-0.22607753
96	0xbe7a17a8	-0.24423087
97	0xbd3556f1	-0.044272367
98	0xbd2f20b1	-0.042755786
99	0xbec4a73f	-0.3840885
100	0x3ed587e8	0.4170525
101	0xbe67f656	-0.22652563
102	0x3e33c7d8	0.17556703
103	0x3edea42a	0.43484622
104	0x3e7d973d	0.24764724
105	0x3d8f576f	0.069990985
106	0x3edc51db	0.430312
107	0x3d887982	0.06663801
108	0xbe668a55	-0.22513707
109	0x3ef3ae6a	0.47594005
110	0x3deda95c	0.11604568
111	0xbef5a04c	-0.4797386
112	0xbe0ee038	-0.1395272
113	0xbeab1c65	-0.334201
114	0x3edeae3e	0.4349231
115	0xbdaf3673	-0.08555307
116	0xbee959b2	-0.45576245
117	0xbcf814a9	-0.030283289
118	0x3e9f64c3	0.31131563
119	0x3e0212f0	0.12702537
120	0x3e244b89	0.1604444
121	0x3d487cb7	0.048947062
122	0x3e3f36d9	0.18673266
123	0xbe044b99	-0.12919463
124	0xbe493719	-0.19649924
125	0xbeef490e	-0.46735424
126	0xbec17456	-0.3778407
127	0x3e5a2482	0.21302989

bn1.weight f4 [128]
0	0x3f7fc9c9	0.99917275
1	0x3f7f4510	0.99714756
2	0x3f80094d	1.0002838
3	0x3f803bb7	1.0018224
4	0x3f808561	1.0040704
5	0x3f7ececf	0.99534315
6	0x3f7f9b04	0.9984591
7	0x3f809929	1.0046741
8	0x3f7f93e6	0.9983505
9	0x3f7f3737	0.99693626
10	0x3f8079bb	1.0037149
11	0x3f801ace	1.000818
12	0x3f7f7648	0.9978986
13	0x3f805830	1.0026913
14	0x3f7f205b	0.99658746
15	0x3f7f4721	0.9971791
16	0x3f7e2e55	0.9928945
17	0x3f801b4b	1.0008329
18	0x3f807942	1.0037005
19	0x3f809754	1.0046182
20	0x3f7f505e	0.99732006
21	0x3f800000	1.0
22	0x3f802a89	1.0012981
23	0x3f7f9e75	0.9985116
24	0x3f806bf5	1.0032946
25	0x3f800000	1.0
26	0x3f7fdd1a	0.9994675
27	0x3f7f65a8	0.9976449
28	0x3f7f915d	0.9983118
29	0x3f7f4077	0.9970774
30	0x3f7f8aae	0.99820983
31	0x3f7f4f81	0.9973069
32	0x3f7f01bd	0.9961203
33	0x3f808e0f	1.0043353
34	0x3f7fdc96	0.9994596
35	0x3f80309f	1.0014838
36	0x3f804e96	1.0023983
37	0x3f807bcb	1.0037779
38	0x3f806ed7	1.0033826
39	0x3f806b56	1.0032756
40	0x3f7fa2b8	0.99857664
41	0x3f807e88	1.0038614
42	0x3f7f0e4d	0.99631196
43	0x3f7f0f9d	0.996332
44	0x3f7f723c	0.9978368
45	0x3f7fc3d2	0.99908173
46	0x3f7f02f4	0.9961388
47	0x3f7fb61f	0.9988727
48	0x3f8089a6	1.0042007
49	0x3f7f2ad2	0.99674714
50	0x3f7f2589	0.9966665
51	0x3f809437	1.0045232
52	0x3f800000	1.0
53	0x3f808c99	1.0042907
54	0x3f7f549e	0.9973849
55	0x3f7dbf6b	0.99120206
56	0x3f8064f9	1.0030814
57	0x3f8053aa	1.0025532
58	0x3f7f3e6e	0.99704635
59	0x3f810228	1.0078783
60	0x3f7f7b3d	0.9979742
61	0x3f7f76b8	0.99790525
62	0x3f7f7195	0.9978269
63	0x3f804606	1.002137
64	0x3f8065fb	1.0031122
65	0x3f7e0fbf	0.99242777
66	0x3f803164	1.0015073
67	0x3f8060fc	1.0029597
68	0x3f8101c2	1.0078661
69	0x3f804c4f	1.0023288
70	0x3f7fe5cf	0.99960035
71	0x3f802d19	1.0013763
72	0x3f804f87	1.002427
73	0x3f7e7fc1	0.99413687
74	0x3f80966e	1.0045907
75	0x3f7ffefa	0.9999844
76	0x3f7fb468	0.99884653
77	0x3f80aae4	1.0052152
78	0x3f8030fb	1.0014948
79	0x3f800000	1.0
80	0x3f800000	1.0
81	0x3f7f1690	0.996438
82	0x3f7f679b	0.99767464
83	0x3f809389	1.0045024
84	0x3f80a500	1.0050354
85	0x3f804c21	1.0023233
86	0x3f7fb83b	0.9989049
87	0x3f8014c8	1.0006342
88	0x3f800000	1.0
89	0x3f80292f	1.0012568
90	0x3f7f4b1c	0.9972398
91	0x3f800474	1.0001359
92	0x3f80a94b	1.0051664
93	0x3f7eeb41	0.9957772
94	0x3f8033bc	1.0015788
95	0x3f7ed9ca	0.9955107
96	0x3f7f610c	0.99757457
97	0x3f7eff73	0.99608535
98	0x3f7e261e	0.9927691
99	0x3f7f5aed	0.99748117
100	0x3f806a3c	1.003242
101	0x3f8012cc	1.0005736
102	0x3f807f85	1.0038916
103	0x3f801118	1.0005217
104	0x3f7f8b12	0.9982158
105	0x3f805976	1.0027301
106	0x3f7f88df	0.99818224
107	0x3f80cc03	1.006226
108	0x3f80739d	1.0035282
109	0x3f7ee549	0.9956861
110	0x3f80f4ea	1.0074742
111	0x3f8046bf	1.002159
112	0x3f804397	1.0020627
113	0x3f80515f	1.0024832
114	0x3f803249	1.0015346
115	0x3f7f49e3	0.9972212
116	0x3f800000	1.0
117	0x3f80a97f	1.0051726
118	0x3f7f12d2	0.9963809
119	0x3f7ea132	0.99464715
120	0x3f7f9151	0.9983111
121	0x3f804ae4	1.0022855
122	0x3f8095e8	1.0045748
123	0x3f80059d	1.0001713
124	0x3f801734	1.0007081
125	0x3f800000	1.0
126	0x3f802cc9	1.0013667
127	0x3f8061bb	1.0029825

bn1.bias f4 [128]
0	0xbae4a691	-0.001744466
1	0x3b3b8576	0.0028613484
2	0xbb58580a	-0.003301146
3	0x3b54ff07	0.003250064
4	0x3b805689	0.003916566
5	0xbba59cf8	-0.0050541125
6	0xbb84872a	-0.004044433
7	0x3b7a724f	0.0038215106
8	0x3b3a1da5	0.0028399017
9	0x3afd8c8b	0.0019344253
10	0x3affbd0b	0.0019511295
11	0xba5cf033	-0.00084281265
12	0x3bc8a4ea	0.006123175
13	0x3aed2893	0.0018093757
14	0xbb7c1835	-0.0038466577
15	0x3b603689	0.0034212193
16	0xbb247d3d	-0.0025099062
17	0xbb4bf436	-0.0031120903
18	0xb9e30996	-0.00043303956
19	0x3b592d8d	0.0033138723
20	0x3b1bbc99	0.0023763536
21	0xbaf1ce58	-0.0018448336
22	0xbb7dac9d	-0.0038707622
23	0xbb40ceb5	-0.0029420082
24	0xbb80e1c2	-0.0039331624
25	0x3c168b3f	0.009188472
26	0xbb870235	-0.004120136
27	0x3b091a83	0.0020920343
28	0xbb03177f	-0.0020003018
29	0x3babdc47	0.005244765
30	0x3b44a543	0.003000573
31	0x3acd0b44	0.0015643616
32	0x3b4f905c	0.0031671738
33	0xba37e528	-0.0007015043
34	0x39bf321b	0.0003646769
35	0xbb094564	-0.00209459
36	0xbb259ebe	-0.002527162
37	0x39760be7	0.00023464822
38	0x3adcad70	0.0016836356
39	0x3ada1023	0.0016636889
40	0x3931f404	0.00016970938
41	0xbb511d67	-0.0031908394
42	0x3b73aa58	0.003718039
43	0xbb0d7b00	-0.0021588206
44	0xbaf4d17e	-0.0018678156
45	0x3a4a5d19	0.0007719561
46	0x3b588df8	0.0033043604
47	0x3a92bfff	0.0011196135
48	0x3b16d789	0.0023016653
49	0x3a956003	0.0011396412
50	0x3a155a15	0.0005697322
51	0x3a803dd7	0.0009784055
52	0x3af65591	0.0018793811
53	0x3b1c651a	0.0023863972
54	0x3b1e3c1a	0.002414471
55	0xbbebc819	-0.0071954844
56	0xba24820f	-0.0006275484
57	0x3b8f56b2	0.0043743486
58	0x3bc3d87c	0.0059767347
59	0x3b2273b7	0.002478821
60	0x3b816f41	0.00395003
61	0x3b624489	0.0034525713
62	0xbb6175a4	-0.0034402395
63	0x3b91af03	0.004445912
64	0xbb9d82a0	-0.0048068315
65	0xb9085aa1	-0.00013003733
66	0x3bfa81c5	0.0076448643
67	0x3b47b17d	0.0030470781
68	0xbb247587	-0.0025094466
69	0xbb6f841c	-0.003654725
70	0x3b999829	0.0046873284
71	0xbb6065a8	-0.003424028
72	0x3b11ca3c	0.0022245785
73	0xbb553cef	-0.003253754
74	0x3baf13f0	0.005342953
75	0xbb035cd2	-0.002004434
76	0x392d1fe6	0.00016510449
77	0xbb48015c	-0.0030518388
78	0xbb48a730	-0.003061723
79	0x3b835941	0.0040084426
80	0xbbb298eb	-0.005450358
81	0x3b0853da	0.0020801933
82	0x3b0d7aa2	0.0021587987
83	0x3b0cc97c	0.0021482399
84	0x3ae2cf45	0.0017304203
85	0xbb7484d6	-0.0037310622
86	0xbb865a05	-0.0041000866
87	0x3ab52121	0.0013819077
88	0x3ba5a299	0.0050547835
89	0xbb4872e7	-0.0030586065
90	0x3b0ace77	0.0021180192
91	0x3b1a4019	0.002353674
92	0xbb21c89f	-0.002468623
93	0xbb0da782	-0.0021614735
94	0xbb6d34da	-0.0036194832
95	0x3b0ddbb6	0.002164585
96	0x3ad2c5ed	0.0016080715
97	0xb9a0e9c7	-0.00030691756
98	0x3ba2af8a	0.0049647735
99	0x3b6eaa20	0.003641732
100	0x3b1d49db	0.002400032
101	0x3a96519f	0.0011468417
102	0xba922a88	-0.0011151591
103	0x3b1afb80	0.002364844
104	0x3b2865d9	0.0025695472
105	0x3b4b6e9a	0.0031041265
106	0xbaf273d8	-0.0018497659
107	0xbb2622b3	-0.0025350272
108	0xbc0d76ee	-0.008634312
109	0xbb3f7fa2	-0.0029220362
110	0xbb4a465c	-0.0030864691
111	0xba6bd24e	-0.00089958764
112	0xba814881	-0.0009863527
113	0x3b18b764	0.0023302669
114	0x3b69c2a4	0.0035668993
115	0xbba671f9	-0.0050795046
116	0x3a91d0a5	0.0011124803
117	0xb8a9cb3c	-8.096403e-05
118	0x3b800292	0.0039065564
119	0x3b6a3aff	0.003574073
120	0xb8f1b89a	-0.0001152616
121	0xbad23401	-0.0016037227
122	0x3b40e6a0	0.0029434338
123	0x3a612d03	0.0008589776
124	0xbb2be010	-0.002622608
125	0xbb5f21f0	-0.0034047328
126	0xbb518d5e	-0.003197513
127	0x386c0a1c	5.62762e-05

bn1.running_mean f4 [128]
0	0x3c9b1581	0.018931152
1	0x3c02266e	0.007943733
2	0x3d5a9e0c	0.05337338
3	0x3d2eeb88	0.04270509
4	0x3aa28ff9	0.0012402526
5	0x3dbcc29d	0.09216807
6	0x3ed44028	0.41455197
7	0x3d04ad0b	0.03239159
8	0x3de95d79	0.113947816
9	0x3c09cdeb	0.008410911
10	0x3e939e56	0.28831738
11	0x3c1002a3	0.008789691
12	0x3d290cd1	0.04127199
13	0x3d747fbc	0.05969213
14	0x3eee79d1	0.46577314
15	0x3bb29afe	0.0054506054
16	0x3e02825f	0.12745045
17	0x3ac8c8c4	0.0015318622
18	0x3f23d0ea	0.6399065
19	0x3f25172b	0.64488477
20	0x3c07c827	0.008287466
21	0x00000000	0.0
22	0x3cb5dce5	0.022200057
23	0x3dc0b03f	0.09408616
24	0x3d142f48	0.036177903
25	0x00000000	0.0
26	0x3bd774c0	0.006575197
27	0x3da2cfdc	0.07949802
28	0x3c5e4367	0.013565875
29	0x3dbdf5d9	0.09275407
30	0x3ceb8463	0.02874965
31	0x3a7b358b	0.00095828687
32	0x3d873ddc	0.066035956
33	0x3eca36b6	0.39494866
34	0x3b7dd061	0.003872894
35	0x3e9b54db	0.30338177
36	0x3bdc1604	0.0067164917
37	0x3eb32fa5	0.34997287
38	0x3bbe0252	0.0057986164
39	0x39799f4b	0.00023805832
40	0x3eb5759a	0.35441285
41	0x39482d81	0.00019090438
42	0x3e056917	0.1302837
43	0x3daf8b98	0.08571547
44	0x3e1eed52	0.15520218
45	0x3ddcb4b5	0.10776655
46	0x3ea884e5	0.3291389
47	0x3dac27cd	0.08406029
48	0x3a3777e9	0.0006998764
49	0x3ab8a126	0.0014086112
50	0x3c3b8627	0.011445559
51	0x3de0d022	0.10977198
52	0x00000000	0.0
53	0x3f064f13	0.5246441
54	0x3dad6508	0.08466536
55	0x3a4fcf9a	0.00079273584
56	0x3ded09f7	0.11574166
57	0x3e769bc4	0.24082857
58	0x3ee87544	0.45401967
59	0x3eca623b	0.3952807
60	0x398b52e6	0.0002657391
61	0x3e079e8e	0.13244078
62	0x3bf5ea13	0.0075047105
63	0x3f03e189	0.51516014
64	0x3ba9eeca	0.0051859366
65	0x385e750c	5.3037933e-05
66	0x3e8094e0	0.25113583
67	0x3f0bb44e	0.54572
68	0x3c0fd3d3	0.00877853
69	0x3a1b802d	0.00059318804
70	0x3a82be5b	0.0009974943
71	0x3d50548a	0.050861873
72	0x3c340ce6	0.010989403
73	0x3c16c3f5	0.009201993
74	0x3ecd9627	0.4015362
75	0x3d532927	0.051552918
76	0x3f0e4f7d	0.5559004
77	0x3eb3473f	0.35015294
78	0x3e1e07f3	0.1543272
79	0x00000000	0.0
80	0x00000000	0.0
81	0x3f1ba48f	0.6079797
82	0x3e8cea5f	0.2752256
83	0x3e7d6bcf	0.24748157
84	0x3d59246a	0.053013243
85	0x3f18a272	0.5962287
86	0x3ea5aaf4	0.3235699
87	0x3e872f0b	0.26403078
88	0x00000000	0.0
89	0x3b4462e7	0.0029966177
90	0x3b337951	0.0027385543
91	0x3f1d368b	0.6141135
92	0x3b58b214	0.0033065127
93	0x3b9005a2	0.0043952027
94	0x3eec6a79	0.46174982
95	0x3e26aab8	0.16276062
96	0x3ceb1e92	0.0287011
97	0x3aac133f	0.0013128294
98	0x3d0aa85e	0.033851974
99	0x3c4e4f28	0.0125921145
100	0x3ef09265	0.4698669
101	0x3e4f04f2	0.2021673
102	0x3d124517	0.03571042
103	0x3ef93b60	0.48678112
104	0x3e86562c	0.2623762
105	0x3e30607c	0.17224306
106	0x3f1b04d7	0.6055426
107	0x3ca9ea3f	0.02074158
108	0x3c8d4f20	0.017249644
109	0x3f2f6667	0.6851563
110	0x3dac55a1	0.0841477
111	0x3944c382	0.00018764849
112	0x3e378803	0.17922978
113	0x3cb65cc0	0.022261024
114	0x3e8b99a3	0.27265653
115	0x3cc1a573	0.023638463
116	0x00000000	0.0
117	0x3dc5689d	0.09639094
118	0x3efb968c	0.49138296
119	0x3cb83fd2	0.02249137
120	0x3d9fb43a	0.07798047
121	0x3df5ae53	0.1199614
122	0x3e480f93	0.19537191
123	0x3e53ac7d	0.20671268
124	0x3da301d0	0.0795933
125	0x00000000	0.0
126	0x3d067fd6	0.032836758
127	0x3df7593e	0.120775685

bn1.running_var f4 [128]
0	0x3b53939a	0.0032284022
1	0x3a259732	0.00063167803
2	0x3b891a0a	0.0041840123
3	0x3ba1c9ce	0.004937387
4	0x397683d5	0.000235095
5	0x3c70cb9b	0.014696981
6	0x3dcb38f6	0.09922974
7	0x3bb2e76e	0.0054597175
8	0x3cf4e4fa	0.02989434
9	0x3a63297f	0.0008665546
10	0x3d782dd6	0.060590588
11	0x3a685fa8	0.00088643515
12	0x3c1e48f8	0.009660952
13	0x3c4b4706	0.01240707
14	0x3d5bf57d	0.053700913
15	0x39c72c88	0.00037989416
16	0x3bc4d45e	0.0060067615
17	0x3999e2a3	0.00029351292
18	0x3df51cb1	0.11968363
19	0x3d114897	0.035469618
20	0x3aa7202f	0.001275068
21	0x1a625c09	4.681005e-23
22	0x3b45d1a6	0.0030184775
23	0x3c9c7750	0.019099861
24	0x3ba4e77d	0.0050324784
25	0x1a625c09	4.681005e-23
26	0x3b173b70	0.00230762
27	0x3c43e0a3	0.011955413
28	0x3b1404f5	0.0022585962
29	0x3badf3c3	0.0053085997
30	0x3b5200c3	0.003204391
31	0x38e7724d	0.000110362285
32	0x3b8cd415	0.004297743
33	0x3ce25a5c	0.027630977
34	0x398ac52c	0.00026468316
35	0x3d6fa536	0.058507167
36	0x39467be2	0.00018928901
37	0x3daad833	0.08342018
38	0x3a3c6b44	0.00071876147
39	0x37210fef	9.600058e-06
40	0x3daa7652	0.08323349
41	0x3773f1b2	1.4540203e-05
42	0x3ce48814	0.027896918
43	0x3c896556	0.016771954
44	0x3d1ff911	0.039055888
45	0x3cab4475	0.020906666
46	0x3bfac235	0.007652546
47	0x3cac6cf9	0.021048056
48	0x39050390	0.00012685196
49	0x393c5d1e	0.00017963766
50	0x3af39998	0.0018585203
51	0x3cc293e2	0.023752157
52	0x1a625c09	4.681005e-23
53	0x3ae4a16c	0.0017443127
54	0x3cae6bfa	0.021291722
55	0x37fbbd08	3.0009556e-05
56	0x3cb6be41	0.022307517
57	0x3d301972	0.042993017
58	0x3d6204f6	0.055180512
59	0x3c91af48	0.017783776
60	0x36d667a0	6.3897605e-06
61	0x3d087f24	0.033324376
62	0x3a16bbd5	0.0005750035
63	0x3d0afe09	0.033933673
64	0x3ad08288	0.0015908042
65	0x359cfa15	1.1695689e-06
66	0x3c4db2d2	0.012554841
67	0x3d05b7f0	0.03264612
68	0x3b2f10af	0.0026712825
69	0x37a3b541	1.9515517e-05
70	0x389b8d82	7.417334e-05
71	0x3bae8187	0.0053254995
72	0x3abb6a83	0.0014298711
73	0x3a3cd035	0.0007202656
74	0x3cc9780f	0.024593381
75	0x3bdde97d	0.0067722187
76	0x3caaba08	0.02084066
77	0x3d278e62	0.04090727
78	0x3ce1e4cb	0.027574917
79	0x1a625c09	4.681005e-23
80	0x1a625c09	4.681005e-23
81	0x3cdb5054	0.026771702
82	0x3d870773	0.06593218
83	0x3cf67a2e	0.030087557
84	0x3c68343e	0.014172612
85	0x3d8f3c00	0.06993866
86	0x3d24dec0	0.040251493
87	0x3d4a02f5	0.049319226
88	0x1a625c09	4.681005e-23
89	0x3a5d0f45	0.00084327563
90	0x39e4a62d	0.0004361136
91	0x3dd52b4b	0.10408648
92	0x3a586dc4	0.00082561024
93	0x3ac4b0b8	0.001500628
94	0x3db3295a	0.087481216
95	0x3d1e6124	0.03866686
96	0x3ba810a7	0.0051289382
97	0x38dc4b55	0.00010504449
98	0x3bbeee93	0.00582678
99	0x3ab83e7a	0.0014056705
100	0x3d9f12fc	0.07767293
101	0x3d6e4716	0.05817326
102	0x3bb882a7	0.0056308093
103	0x3d1de1f4	0.038545564
104	0x3d5ccc90	0.053906024
105	0x3c90b700	0.017665386
106	0x3d5bc63f	0.05365586
107	0x3b8fe038	0.0043907426
108	0x3aba3d6f	0.0014208982
109	0x3db15810	0.08659375
110	0x3c574c5a	0.013140762
111	0x373d22a8	1.1273347e-05
112	0x3d2b0b1f	0.041758653
113	0x3b571358	0.0032817926
114	0x3d22e04f	0.0397647
115	0x3b53559e	0.0032247077
116	0x1a625c09	4.681005e-23
117	0x3cb31b2f	0.021863548
118	0x3db857b5	0.09001104
119	0x3bd2d02f	0.006433509
120	0x3c7caf73	0.01542269
121	0x3cc03b95	0.02346591
122	0x3b87fa65	0.0041497224
123	0x3d305296	0.04304751
124	0x3cbf7d21	0.023375096
125	0x1a625c09	4.681005e-23
126	0x3b849d0a	0.004047041
127	0x3c996b85	0.018728027

fc2.weight f4 [64, 128]
0	0xbd4ece48	-0.050489694
1	0x3c4e4880	0.012590528
2	0x3cf88043	0.030334597
3	0x3c0cabf3	0.008585918
4	0xbd62990f	-0.05532175
5	0x3da9e904	0.08296397
6	0xbd59181f	-0.05300152
7	0x3d98ef84	0.07467559
8	0xbd8a866d	-0.06763921
9	0xbcd34c36	-0.025793176
10	0x3d446d98	0.04795608
11	0xbd161f2a	-0.036650814
12	0x3d8fecea	0.0702761
13	0xbd7f7b5f	-0.062373515
14	0xbd91a52c	-0.07111582
15	0xbd21a1dd	-0.039461005
16	0x3c7c4fbd	0.01539987
17	0x3daab111	0.08334554
18	0xbd3b78cf	-0.04576951
19	0x3d09dc6b	0.033657473
20	0xbca796f6	-0.020457726
21	0xbc64bf4b	-0.013961623
22	0x3d865a9e	0.065602526
23	0xbd888ddf	-0.06667685
24	0x3c360cba	0.011111433
25	0x3da34bf3	0.079734705
26	0xbc2fd324	-0.010731492
27	0x3d8eee6a	0.069790676
28	0xbcf2c3ce	-0.029634383
29	0x3d89081c	0.06691
30	0xbdabc0f8	-0.08386415
31	0xbc36ddce	-0.011161281
32	0xbc5cc673	-0.013475048
33	0x3cd9d7c8	0.02659215
34	0x3d198ee4	0.037489787
35	0x3d86cf42	0.065825
36	0xbc706dfc	-0.01467466
37	0xba9ca56d	-0.0011951156
38	0x3d7f7fba	0.06237767
39	0xbcc5d3b1	-0.024148794
40	0x3da3ed2a	0.0800422
41	0xbd6c64bc	-0.057713255
42	0xbc3c18d3	-0.011480528
43	0xbb3ca0fe	-0.0028782482
44	0x3d1bec43	0.038067114
45	0x3d6b863d	0.057501066
46	0xbc2a299d	-0.010385898
47	0xbd9f0c38	-0.077660024
48	0x3d3dc6f3	0.04633231
49	0x3ce7ef71	0.028312417
50	0x3d18322b	0.03715722
51	0xbd6a2b33	-0.057170104
52	0x3d5471e8	0.051866442
53	0x3dae6a66	0.08516388
54	0x3bc3c509	0.005974416
55	0xbdae37d2	-0.08506741
56	0x3d82f9be	0.06395291
57	0xbd870673	-0.06593027
58	0x3c987bf3	0.018613791
59	0x3c72e603	0.014825347
60	0xbd219084	-0.03944446
61	0x3cf1bc97	0.029508872
62	0xbd9d76d2	-0.07688679
63	0x3cbcde91	0.023055347
64	0xbd605a3b	-0.05477355
65	0x3ab0f1cc	0.0013499795
66	0x3c571fe9	0.013130167
67	0x3da1af3e	0.07894753
68	0xbd25d3fa	-0.04048536
69	0x3d6c2b3a	0.05765841
70	0xbc3aaa00	-0.01139307
71	0xbd282d2e	-0.04105871
72	0xbd9a7505	-0.07541851
73	0xbda15187	-0.07876878
74	0x3dafdd22	0.085870996
75	0xbca37bf2	-0.019956563
76	0x3bac9dc5	0.005267831
77	0x3cd78ae2	0.026311342
78	0x3d7634b0	0.06010884
79	0x3d90fae3	0.07079103
80	0x3d9a5128	0.075350106
81	0xbd8b02c9	-0.067876406
82	0xbc48b66f	-0.012250527
83	0xbd4f47d1	-0.0506056
84	0xbd6370f5	-0.055527646
85	0x3c91e5e8	0.017809823
86	0x3da2ea9e	0.07954906
87	0xbd92698b	-0.07149037
88	0x3d4a2db9	0.04936001
89	0xbd3426b1	-0.04398221
90	0xbc7643a1	-0.015030772
91	0x3d8c67ac	0.06855711
92	0xbc9878bf	-0.018612264
93	0x3c1d8ea0	0.009616524
94	0xbd864de4	-0.06557825
95	0x3d99c1b1	0.07507647
96	0xbc817e3b	-0.015807262
97	0xbd5aeafb	-0.05344675
98	0x3ce3bea8	0.027800873
99	0xbd7db76b	-0.0619425
100	0xbd8c8d1a	-0.068628505
101	0x3ab1ce90	0.0013565589
102	0x3d936770	0.071974635
103	0xbcb69434	-0.022287466
104	0x3d2953b3	0.041339587
105	0x3d9e0f84	0.07717803
106	0x3d807db7	0.06273978
107	0xbd373cea	-0.044735827
108	0xbc03815b	-0.008026446
109	0xbcea17dd	-0.028575832
110	0xbd8ef13e	-0.06979607
111	0x3a701f20	0.00091599114
112	0x3d80147a	0.062539056
113	0x3d9a78c0	0.075425625
114	0x3c25fbf0	0.010130867
115	0x3c935dd0	0.01798907
116	0xbd3217d0	-0.04347974
117	0x3d7cddc6	0.061734937
118	0xbd196f12	-0.03745944
119	0xbd73d570	-0.05952972
120	0x3c80c7f8	0.015720353
121	0x3d491207	0.049089458
122	0xbd9f3679	-0.07774062
123	0x3da041d4	0.07825056
124	0x3cd6bf5c	0.026214294
125	0xbd6a96fc	-0.057272896
126	0xbc970dca	-0.018439192
127	0x3d9c7972	0.07640351
128	0xbd8ce3a5	-0.06879357
129	0xbce8a3a9	-0.028398352
130	0x3cde525e	0.027138885
131	0xbda01b23	-0.07817676
132	0x3d40839e	0.04700052
133	0x3d382368	0.04495564
134	0x3d6b43e3	0.05743779
135	0xbd72a2da	-0.05923734
136	0x3db10e4f	0.08645307
137	0xbd44e83a	-0.04807303
138	0x3dbc1b18	0.09184855
139	0xbdac994c	-0.084276766
140	0xbda3cec9	-0.079984255
141	0x3d67eede	0.056624286
142	0x3be7205d	0.0070534186
143	0x3984ed59	0.0002535384
144	0xbd5e2f9d	-0.054244626
145	0xbd24954c	-0.040181443
146	0xbcc55526	-0.024088454
147	0xbdb2345c	-0.08701393
148	0x3b86a49a	0.0041089775
149	0x3c83ef58	0.016105339
150	0x3835d926	4.3355998e-05
151	0x3cd90c28	0.026495054
152	0x3da897e6	0.08232097
153	0x3cb2c911	0.021824392
154	0xbceb6d12	-0.028738532
155	0xbd1a7c1f	-0.037716027
156	0xbd5c0b8d	-0.053721953
157	0xbd7293c4	-0.05922295
158	0xbc814453	-0.01577965
159	0xbc970039	-0.018432723
160	0x3d19843e	0.03747963
161	0xbd10a06c	-0.03530924
162	0x3d914ee9	0.07095129
163	0xbd75d328	-0.060015827
164	0x3a8e5f5f	0.0010862163
165	0x3d9f133c	0.077673405
166	0x3db3809a	0.08764763
167	0xbd7e5f18	-0.062102407
168	0x3c669c42	0.014075341
169	0x3b358ec2	0.0027703498
170	0xbd1f4381	-0.038882736
171	0xbd06dcc3	-0.03292538
172	0x3cd8ea88	0.02647902
173	0xbd74e30c	-0.05978684
174	0x3c50f0a9	0.01275269
175	0x3d28e28b	0.041231673
176	0xbd1f5998	-0.038903803
177	0x3d8a582b	0.06755098
178	0xbbc9b969	-0.006156136
179	0x3d1e345c	0.038624153
180	0x3db16f6e	0.08663832
181	0xbd076ded	-0.033063818
182	0x3d4ee44d	0.050510693
183	0xbc62a8d2	-0.013834195
184	0xbc6d0da1	-0.014468581
185	0xbc92ea2e	-0.017933931
186	0x3b1ac077	0.0023613253
187	0xbd15e7e0	-0.036598086
188	0x3c800457	0.01562707
189	0x3bb125f2	0.0054061348
190	0x3d4fc2a9	0.05072275
191	0xbca67f3c	-0.020324342
192	0x3c3bacb7	0.011454753
193	0xbd033fbe	-0.03204321
194	0xbd9e220b	-0.07721337
195	0x3d0a1f5d	0.033721317
196	0x3c7b2de0	0.015330762
197	0xbd10e8b9	-0.03537819
198	0xbd10984a	-0.035301484
199	0x3ca4af0e	0.020103004
200	0xbcafd432	-0.021463487
201	0x3d61b281	0.055101875
202	0x3bc791f0	0.006090395
203	0x3cfdf021	0.030998291
204	0x3d16c96e	0.036813192
205	0xbcc3dafd	-0.023908133
206	0x3d1c01e8	0.038087755
207	0x3d833afb	0.06407734
208	0x3b965f65	0.0045890086
209	0x3c9f3719	0.019435452
210	0x3aabdc67	0.001311195
211	0x3d6fa980	0.058511257
212	0xbd0ce435	-0.034397323
213	0xbd397f75	-0.045287568
214	0x3d28125f	0.041033145
215	0xbda1c338	-0.07898563
216	0xb9cd02e5	-0.00039102804
217	0xbd43215b	-0.047639232
218	0x3d522573	0.051305246
219	0xbda2eed4	-0.07955709
220	0x3d3fbdff	0.046812054
221	0x3db031fb	0.08603283
222	0x3c9f5f83	0.019454723
223	0xbbdae17e	-0.006679713
224	0x3db73af8	0.08946794
225	0xbd1b5e76	-0.03793188
226	0xbc2ba245	-0.0104757
227	0xbd1aadfa	-0.037763573
228	0xbc81e93c	-0.015858285
229	0x3ca6e18d	0.020371223
230	0x3c2ba08c	0.010475289
231	0xbc9b3706	-0.018947136
232	0xbdb7963f	-0.08964204
233	0xbba3817c	-0.004989801
234	0xbbaafd9e	-0.005218222
235	0x3bfedecd	0.0077780248
236	0x3d86c4f8	0.065805376
237	0x3db4a8a3	0.088212274
238	0xbd548efe	-0.05189418
239	0xbc5cbca4	-0.01347271
240	0xbd0bd607	-0.03413966
241	0xbda7134e	-0.08157979
242	0xbd874b31	-0.066061385
243	0x3dae76de	0.08518766
244	0x3d4fb303	0.05070783
245	0x3d573422	0.052539952
246	0x3d54145b	0.051777225
247	0xbd9b358a	-0.07578571
248	0x3becc598	0.0072257034
249	0x3dad4fdd	0.08462498
250	0xbd55e085	-0.05221607
251	0x3da44ed4	0.08022848
252	0x3cd3b825	0.025844643
253	0x3d81e824	0.063431054
254	0xbd2498e9	-0.04018489
255	0x3d214aca	0.039377965

fc2.bias f4 [64]
0	0x3c4af23a	0.012386853
1	0x3d931c1f	0.07183098
2	0x3d72c376	0.059268437
3	0xbd1d18fc	-0.038353905
4	0xbd2669ee	-0.040628366
5	0x3d02704b	0.031845372
6	0xbd4d685d	-0.050148357
7	0xbbac2d19	-0.0052543995
8	0x3ce02cbb	0.02736508
9	0xbd0a246f	-0.033726152
10	0x3ce6c60c	0.028170608
11	0xbc584454	-0.013199884
12	0x3daa0977	0.083025865
13	0xbd9b77f3	-0.07591238
14	0x3d9fe52a	0.078073815
15	0x3d6f8601	0.058477405
16	0xbd9bec99	-0.07613487
17	0x3c62decb	0.013847063
18	0xbc706f9a	-0.014675045
19	0x3d194c10	0.037426054
20	0x3d6670d2	0.056259938
21	0xbd38ca1a	-0.045114614
22	0xbd621988	-0.05520013
23	0xbd7be7aa	-0.06150023
24	0x3d793021	0.060836915
25	0xbd8a931a	-0.06766339
26	0xbd5d4dd0	-0.054029286
27	0x3dac7a3d	0.084217526
28	0x3d435791	0.04769093
29	0x3d81a7ee	0.06330858
30	0x3d98fc44	0.07469991
31	0xbd9e9e5d	-0.07745049
32	0xbcb6e41f	-0.022325573
33	0xbc22a95b	-0.009928073
34	0x3da3fca0	0.08007169
35	0xbcd763ba	-0.02629267
36	0xbbbd6b41	-0.005780608
37	0x3d7187df	0.058967467
38	0x3d3ac00a	0.0455933
39	0xbd673320	-0.05644524
40	0xbd9c9350	-0.07645285
41	0xbcf93205	-0.030419359
42	0x3cf41084	0.029793032
43	0x3db26abf	0.087117665
44	0x3d180c6a	0.037121214
45	0x3d5386a4	0.051642075
46	0x3ceff88f	0.029293327
47	0xbca34cfd	-0.019934172
48	0xbcb50fcb	-0.022102257
49	0x3d95f89b	0.07322808
50	0x3ced30ca	0.028953929
51	0x3ca6a3f7	0.020341856
52	0x3d4b274d	0.049598027
53	0x3d6b3584	0.057424083
54	0x3cd91a99	0.02650194
55	0xbc2cc00c	-0.010543834
56	0xbd217e94	-0.039427355
57	0xbd4c30ff	-0.049851414
58	0xbd445638	-0.047933787
59	0x3d8c5d0e	0.06853686
60	0x3d74f5ea	0.059804834
61	0xbd2df974	-0.042474225
62	0x3da433a7	0.080176644
63	0xbc9361ea	-0.017991025

bn2.weight f4 [64]
0	0x3f7fd1b7	0.99929374
1	0x3f7f5c0d	0.99749833
2	0x3f80636a	1.0030339
3	0x3f7f5285	0.9973529
4	0x3f7f2c59	0.99677044
5	0x3f808439	1.0040351
6	0x3f7f58c7	0.9974484
7	0x3f7f0c25	0.99627906
8	0x3f7f13d6	0.9963964
9	0x3f7fe794	0.99962735
10	0x3f7fb65e	0.99887645
11	0x3f80b21d	1.0054356
12	0x3f80486f	1.0022105
13	0x3f7efd45	0.9960521
14	0x3f7ef139	0.99586827
15	0x3f7f8c77	0.9982371
16	0x3f8054f4	1.0025926
17	0x3f7eff44	0.99608254
18	0x3f7f90a2	0.9983007
19	0x3f7fc1e5	0.99905235
20	0x3f8063e0	1.003048
21	0x3f805b9a	1.0027955
22	0x3f805cf4	1.0028367
23	0x3f7e8c8c	0.9943321
24	0x3f80b172	1.0054152
25	0x3f804f2f	1.0024165
26	0x3f7f4fe4	0.9973128
27	0x3f7f4511	0.9971476
28	0x3f802651	1.0011693
29	0x3f801df0	1.0009136
30	0x3f80f197	1.0073727
31	0x3f7e799d	0.9940432
32	0x3f80906c	1.0044074
33	0x3f7ef76f	0.99596304
34	0x3f7f36ae	0.9969281
35	0x3f7f8858	0.9981742
36	0x3f7f55b7	0.99740165
37	0x3f80c854	1.0061135
38	0x3f7f363f	0.9969215
39	0x3f805bf1	1.0028058
40	0x3f8059eb	1.0027441
41	0x3f80303d	1.0014721
42	0x3f7f75ba	0.9978901
43	0x3f800e9f	1.0004462
44	0x3f7f942f	0.99835485
45	0x3f7f62d6	0.99760187
46	0x3f7f5b8c	0.99749064
47	0x3f804636	1.0021427
48	0x3f7e6fad	0.99389154
49	0x3f7fd09d	0.99927694
50	0x3f7e912b	0.9944026
51	0x3f809e25	1.0048262
52	0x3f7f7d63	0.998007
53	0x3f7fc730	0.9991331
54	0x3f7e5fd2	0.9936496
55	0x3f8056b3	1.0026459
56	0x3f80011e	1.0000341
57	0x3f807c6e	1.0037973
58	0x3f802e93	1.0014213
59	0x3f7f6718	0.99766684
60	0x3f805d98	1.0028563
61	0x3f7f1749	0.99644905
62	0x3f80a167	1.0049256
63	0x3f7feafb	0.99967927

bn2.bias f4 [64]
0	0x3d644551	0.055730168
1	0xbd71a78f	-0.058997687
2	0x3d52980e	0.051414542
3	0x3d56350a	0.052296676
4	0x3d730836	0.059334002
5	0x3d7187fe	0.058967583
6	0xbd587d93	-0.052854132
7	0x3d69a847	0.057045247
8	0x3d5a2ebf	0.053267237
9	0x3d58a4f4	0.052891687
10	0xbd531973	-0.051537942
11	0xbd662133	-0.056184005
12	0x3d53c8e1	0.051705245
13	0x3d507bdf	0.050899383
14	0x3d5313bd	0.051532496
15	0xbd59c375	-0.053164918
16	0xbd5d0dc4	-0.053968206
17	0xbd6d077f	-0.057868477
18	0xbd563924	-0.052300587
19	0xbd7ad88e	-0.06124168
20	0xbd51bc8c	-0.051205203
21	0x3d531555	0.051534016
22	0xbd52dcc0	-0.051480055
23	0xbd5cbed2	-0.053892918
24	0xbd65a964	-0.056069747
25	0xbd610a45	-0.054941434
26	0x3d80484b	0.06263789
27	0x3d5457ab	0.05184142
28	0x3d6cb45a	0.057789184
29	0x3d56ba1b	0.052423578
30	0xbda2e7d3	-0.07954373
31	0xbd62824d	-0.055300046
32	0xbd69bf82	-0.0570674
33	0x3d9fcb20	0.07802415
34	0xbd5a864a	-0.053350724
35	0x3d530851	0.051521603
36	0x3d513548	0.051076204
37	0x3d5d27d7	0.053993072
38	0xbd5652f4	-0.052325204
39	0x3d522a56	0.051309906
40	0xbd5e250b	-0.054234546
41	0xbd54d21f	-0.0519582
42	0x3d65fb02	0.056147583
43	0x3d78485a	0.060615875
44	0xbd5434b9	-0.051808093
45	0x3d518b01	0.051157955
46	0x3d5910ec	0.052994654
47	0x3d78f334	0.06077881
48	0x3d87c7c9	0.06629903
49	0x3d6c91bd	0.057756174
50	0xbd919741	-0.071089275
51	0xbd63ab63	-0.05558337
52	0xbd548475	-0.051884133
53	0xbd6f4a96	-0.05842074
54	0xbd5c87fc	-0.053840622
55	0x3d6a69a0	0.057229638
56	0xbd949429	-0.07254822
57	0xbd630d68	-0.055432707
58	0xbd689314	-0.05678089
59	0x3d580b79	0.052745316
60	0xbd51ec03	-0.05125047
61	0x3d542ede	0.05180251
62	0x3d6125a9	0.054967556
63	0x3d590a9d	0.052988637

bn2.running_mean f4 [64]
0	0x3e75c169	0.23999561
1	0x3ec8f8a5	0.392522
2	0x3e5457e6	0.20736656
3	0x3e836ae0	0.25667477
4	0x3dfbd079	0.122956224
5	0x3e86dd6f	0.26340815
6	0x3e0ee956	0.13956198
7	0x3e44953a	0.1919755
8	0x3e8af1e7	0.27137682
9	0x3e0d8b26	0.13822612
10	0x3e2d6532	0.16933134
11	0x3d7f9401	0.062397007
12	0x3e5a55e0	0.21321821
13	0x3e2545de	0.16139933
14	0x3e84c08a	0.25928146
15	0x3e08a6d4	0.1334489
16	0x3e9b2a40	0.30305672
17	0x3e63ac00	0.22233582
18	0x3df9da06	0.12199788
19	0x3e913020	0.2835703
20	0x3e20ba8e	0.15696165
21	0x3e1c85fb	0.15285484
22	0x3dfbf098	0.12301749
23	0x3e1f4b78	0.15556133
24	0x3e0b27fe	0.13589475
25	0x3e2cbbd2	0.16868523
26	0x3e0e0da8	0.13872397
27	0x3e23b6e3	0.15987734
28	0x3e3cb037	0.18426596
29	0x3ecbf15a	0.39832574
30	0x3e219b75	0.15781958
31	0x3da567a1	0.08076406
32	0x3e0c68e1	0.13711883
33	0x3e50b786	0.20382509
34	0x3e43d375	0.19123633
35	0x3e123993	0.14279775
36	0x3e26affe	0.16278073
37	0x3eaa20e2	0.33228213
38	0x3e3dc927	0.18533765
39	0x3e2d38ad	0.16916151
40	0x3ed1dc9e	0.4098863
41	0x3e54d64a	0.2078487
42	0x3e8d6c03	0.2762147
43	0x3e9d8d0c	0.30771673
44	0x3e51d3c0	0.20490932
45	0x3e4f0b4e	0.20219156
46	0x3e96f95b	0.29487118
47	0x3e8e7aa1	0.27827933
48	0x3e63d7c1	0.22250272
49	0x3e8a4542	0.27005965
50	0x3e52fb6f	0.20603727
51	0x3ea46f2a	0.3211606
52	0x3e85bdc8	0.26121354
53	0x3dfe4892	0.124161854
54	0x3e43f5d7	0.19136749
55	0x3e548320	0.20753145
56	0x3df635f2	0.12022008
57	0x3e55799c	0.20847172
58	0x3e2d43b8	0.16920364
59	0x3ea7a3b9	0.32742098
60	0x3e3fc70d	0.18728276
61	0x3eb2386f	0.3480868
62	0x3e5a956c	0.21346062
63	0x3e41af15	0.18914445

bn2.running_var f4 [64]
0	0x3e08dc12	0.133652
1	0x3e982819	0.29718092
2	0x3d1d6cc8	0.03843382
3	0x3dea3ed5	0.114377655
4	0x3d57b71d	0.052664865
5	0x3df90903	0.12159922
6	0x3d827c61	0.0637138
7	0x3d55bf35	0.052184302
8	0x3e5af2be	0.21381661
9	0x3d93384b	0.071884714
10	0x3da3bcc7	0.07994991
11	0x3c9023b7	0.017595155
12	0x3d1cad81	0.038251404
13	0x3e1c53fc	0.15266412
14	0x3e3fb3e9	0.18720974
15	0x3cd19d0a	0.025587577
16	0x3e49b26e	0.19696972
17	0x3dd1f7d8	0.102523506
18	0x3d1d4533	0.03839607
19	0x3e0cfb06	0.13767633
20	0x3d3024fd	0.043004025
21	0x3cd8f265	0.02648277
22	0x3d25226a	0.040316023
23	0x3d13de8f	0.03610092
24	0x3d211a4e	0.039331727
25	0x3e044ac6	0.12919149
26	0x3da81380	0.08206844
27	0x3cd3c69d	0.025851542
28	0x3d7264eb	0.059178274
29	0x3e614873	0.22000293
30	0x3d35d6b6	0.044394217
31	0x3c8ab606	0.016932499
32	0x3d09d024	0.033645764
33	0x3d98b97c	0.07457253
34	0x3d6f6369	0.058444414
35	0x3dcfbb05	0.10143093
36	0x3d8c5a91	0.06853212
37	0x3e3c4ed4	0.18389446
38	0x3da03e6a	0.078244045
39	0x3cfd7437	0.030939205
40	0x3eaaa8ca	0.333319
41	0x3e065afe	0.13120648
42	0x3df6df4b	0.120543085
43	0x3e11a6e4	0.1422382
44	0x3e2dc009	0.16967787
45	0x3db99275	0.090611376
46	0x3e8025b7	0.25028774
47	0x3e16834f	0.14698528
48	0x3df4d450	0.11954558
49	0x3e659941	0.22421743
50	0x3d644c4d	0.05573683
51	0x3ec701d1	0.38868573
52	0x3db40416	0.08789842
53	0x3ce903b2	0.028444145
54	0x3d1e508b	0.03865103
55	0x3debb106	0.11508374
56	0x3d9f8c9b	0.0779049
57	0x3e3f2e57	0.18670021
58	0x3d8cf453	0.06882539
59	0x3e9887e8	0.29791188
60	0x3db34f2e	0.08755337
61	0x3eab28ce	0.3342957
62	0x3d4abe55	0.04949792
63	0x3d39b2d1	0.04533655

fc3.weight f4 [1, 64]
0	0xbd69514c	-0.056962296
1	0x3db98997	0.09059446
2	0xbe03cb2d	-0.12870474
3	0xbdcbc8d7	-0.099504165
4	0xbd3420a1	-0.04397643
5	0xbdbcfc51	-0.09227813
6	0x3db6b7ce	0.08921777
7	0xbd71ed9b	-0.05906449
8	0xbe1cbc84	-0.15306288
9	0xbe1e7b85	-0.15476806
10	0x3e1aa24f	0.15100978
11	0x3dd75d6e	0.10515867
12	0xbe244d54	-0.16045123
13	0xbdf853eb	-0.12125381
14	0xbdcafdd5	-0.09911696
15	0x3e265532	0.16243437
16	0x3ddf6fac	0.109099716
17	0x3dacbd3c	0.08434531
18	0x3dc38844	0.09547475
19	0x3d7153e9	0.058917914
20	0x3de32ece	0.11092912
21	0xbe03ffe6	-0.12890586
22	0x3e0051e9	0.12531246
23	0x3db5beed	0.08874307
24	0x3da79e82	0.0818453
25	0x3e0be64b	0.13662069
26	0xbda3e458	-0.080025375
27	0xbd9d2dda	-0.07674761
28	0xbd9b666f	-0.07587897
29	0xbe04d76a	-0.12972799
30	0x3d30b4d2	0.043141194
31	0x3ddf7cda	0.109124854
32	0x3d570d43	0.05250288
33	0xbd368edc	-0.044569835
34	0x3d8f8514	0.070078045
35	0xbe11c99f	-0.14237069
36	0xbdca692d	-0.09883342
37	0xbe2be0e3	-0.16785006
38	0x3e293fb7	0.16528212
39	0xbe115693	-0.14193182
40	0x3dc87682	0.097882286
41	0x3df6652b	0.12031015
42	0xbd86d1bb	-0.06582972
43	0xbd6db178	-0.058030576
44	0x3e070ef8	0.13189304
45	0xbdfd3b92	-0.12364878
46	0xbe346862	-0.17617944
47	0xbd6320f4	-0.05545135
48	0xbd7ff5fc	-0.06249045
49	0xbddef61d	-0.10886786
50	0x3d87fb8b	0.06639775
51	0x3df325d7	0.11872452
52	0x3db20c11	0.08693708
53	0x3daf9164	0.08572653
54	0x3e088db6	0.13335308
55	0xbdf0ca46	-0.117573306
56	0x3d72c51c	0.05927001
57	0x3da121f8	0.07867807
58	0x3da272c3	0.07932045
59	0xbd81084b	-0.0630041
60	0x3e019f75	0.12658484
61	0xbdfb3170	-0.12265289
62	0xbdd2d42e	-0.10294376
63	0xbe2bb847	-0.16769515
