PreTrained/cstr_ode/Deep_DQN/0_12/1000.pth (torch, 43242 bytes, 13 tensors)

fc1.weight f4 [128, 4]
0	0x3ccf9170	0.025337905
1	0x3e743da2	0.23851636
2	0xbecf4bf3	-0.40487632
3	0xbec85218	-0.39125133
4	0xbe3d2303	-0.18470387
5	0x3df6e0cc	0.12054595
6	0xbbc43db6	-0.005988802
7	0x3ed06cff	0.40708157
8	0xbd376f3a	-0.04478381
9	0x3de9d6ff	0.114179604
10	0xbe166de4	-0.14690357
11	0xbdd5d019	-0.10440082
12	0xbef13e1e	-0.47117704
13	0xbea7fe97	-0.32811424
14	0xbe567e7f	-0.20946692
15	0x3cb5755a	0.022150684
16	0x3e353b1c	0.1769833
17	0x3ea2800a	0.3173831
18	0xbeb4962c	-0.35270822
19	0xbe48501d	-0.19561811
20	0x3e2fffec	0.1718747
21	0x3ed61f14	0.41820586
22	0xbdcb7b26	-0.09935598
23	0x3ec6a432	0.38797146
24	0xbd94ee21	-0.07271982
25	0x3d5da0ec	0.054108545
26	0x3ee60ea4	0.44933045
27	0xbef050c0	-0.46936607
28	0xbe9decc3	-0.30844697
29	0xbe072d8d	-0.1320097
30	0xbe3748a1	-0.178988
31	0x3ee09e21	0.43870643
32	0xbe9e204f	-0.30884025
33	0xbe78c14f	-0.24292491
34	0xbeb41f44	-0.35180104
35	0xbeef4dda	-0.46739084
36	0xbe90904f	-0.282351
37	0x3ecbda9e	0.3981523
38	0x3e774fa7	0.24151479
39	0x3e8924b3	0.26785812
40	0x3cadd82c	0.021221243
41	0xbe7d1bf4	-0.24717695
42	0x3db27d96	0.0871536
43	0xbeef9b65	-0.46798244
44	0xbeb054c6	-0.34439677
45	0xbe848089	-0.25879315
46	0x3ea7a6cf	0.32744452
47	0x3ea092a6	0.31361884
48	0xbe7883ff	-0.24269103
49	0x3ab9a544	0.0014163633
50	0x3e9b7607	0.30363485
51	0x3ef65dcd	0.4811844
52	0x3e3f21ca	0.18665233
53	0x3d69ce26	0.057081364
54	0x3ea0c329	0.31398895
55	0xbe8f7756	-0.28020734
56	0x3db57608	0.08860403
57	0xbec0798c	-0.37592733
58	0xbeb2e948	-0.34943604
59	0xbe8331d4	-0.25623953
60	0x3e7263e3	0.23670916
61	0x3e369b04	0.17832571
62	0xbe921659	-0.28532675
63	0x3e3015de	0.17195842
64	0x3e8e68b3	0.27814254
65	0xbd46e61a	-0.048559286
66	0x3c830e09	0.015997903
67	0x3de866d3	0.11347737
68	0x3e9dbb5d	0.3080701
69	0x3ef1a234	0.47194064
70	0xbebd3ba7	-0.36959574
71	0xbe328905	-0.17435081
72	0x3e5c7fd9	0.21533145
73	0x3ed25df3	0.41087303
74	0x3edd00d5	0.43164697
75	0x3edfef0c	0.43737066
76	0x3dd34adf	0.10317015
77	0xbeec3e93	-0.4614149
78	0x3d3fe537	0.046849456
79	0xbe959c6b	-0.292209
80	0xbeedd2b6	-0.46449822
81	0x3ee0b635	0.43889013
82	0x3ec9b648	0.39396882
83	0xbf03c5fa	-0.51473963
84	0x3dbfaa08	0.09358603
85	0xbdac80c8	-0.084230006
86	0xbda882b8	-0.082280576
87	0xbe6a5f1c	-0.22887844
88	0x3e3592d4	0.17731792
89	0xbe8e4295	-0.27785173
90	0x3e409d5f	0.18810032
91	0x3e710f37	0.2354096
92	0x3eafd476	0.34341782
93	0x3e4134c5	0.18867786
94	0xbefc2849	-0.49249485
95	0xbeb1cee7	-0.34728166
96	0x3e8f12a2	0.27943903
97	0x3db82350	0.0899111
98	0xbeb8d3b1	-0.36099008
99	0xbe9dd5a2	-0.3082705
100	0x3ef0d4f2	0.47037464
101	0x3eac7f54	0.33690894
102	0xbe5f3eb0	-0.21801257
103	0xbe00dcd4	-0.12584239
104	0xbef5902b	-0.47961554
105	0x3bff822c	0.0077975
106	0xbec04915	-0.37555757
107	0xbec0a352	-0.37624604
108	0xbce71103	-0.028206354
109	0x3da55648	0.080730975
110	0xbe61442a	-0.21998659
111	0x3e90e526	0.28299826
112	0xbe9f8851	-0.3115869
113	0x3eea18a9	0.4572194
114	0x3eac1855	0.33612314
115	0xbed8e8fa	-0.42365247
116	0xbe031f58	-0.12804925
117	0x3d14851d	0.03625976
118	0x3d7a5622	0.0611173
119	0x3e00bfbf	0.12573145
120	0x3e4f7213	0.2025836
121	0x3cbaef3b	0.022819152
122	0xbe808db1	-0.25108102
123	0x3e59f52c	0.21284932
124	0xbefc7196	-0.4930541
125	0xbe855319	-0.2603996
126	0xbe0f4fe6	-0.13995323
127	0xbe67fb18	-0.22654378
128	0xbe3bbad9	-0.18332995
129	0xbec71bea	-0.38888484
130	0xbdccf8d6	-0.10008399
131	0x3e04b150	0.12958264
132	0xbebc91ff	-0.36830136
133	0xb985328a	-0.0002540539
134	0x3ea6cdbe	0.32578844
135	0xbd452413	-0.048130106
136	0x3c17b08b	0.0092584
137	0xbcc4299c	-0.023945622
138	0x3de5f9b0	0.11229265
139	0x3ea3873d	0.31939116
140	0x3ee5030c	0.44728887
141	0x3eaa4ecf	0.3326325
142	0x3efdef6a	0.4959672
143	0xbd228a80	-0.039682865
144	0xbede91ba	-0.43470556
145	0xbe7ce59b	-0.24696963
146	0x3eb512f5	0.35366026
147	0xbce29459	-0.027658628
148	0xbe76d6d4	-0.24105388
149	0xbec67297	-0.387593
150	0xbef00741	-0.46880534
151	0xbed934f9	-0.42423227
152	0xbdb3f6a6	-0.08787279
153	0x3e8652a7	0.26234934
154	0x3e931e6e	0.28734154
155	0xbf002c9d	-0.50068074
156	0x3ea6578d	0.3248867
157	0xbecc4313	-0.39894924
158	0xbded8cac	-0.11599097
159	0xbe5487f4	-0.20754987
160	0xbda01f84	-0.07818511
161	0xbddf53a6	-0.109046265
162	0xbee33f1d	-0.4438409
163	0xbed8d0ec	-0.42346895
164	0xbdb6a40c	-0.08918008
165	0x3c8e9845	0.017406592
166	0xbe73cadb	-0.23807852
167	0x3e42bc51	0.1901715
168	0xbeed3b17	-0.46334144
169	0xbcdd166c	-0.02698823
170	0x3ed8cf84	0.42345822
171	0xbe5ae629	-0.21376862
172	0x3edee181	0.4353142
173	0x3e45951e	0.19295165
174	0xbee2f901	-0.443306
175	0x3eae27ba	0.34014684
176	0xbd1829de	-0.037149303
177	0xbe7b5d06	-0.24547204
178	0x3ecba495	0.39774004
179	0xbed00e45	-0.40635887
180	0x3d4e4d0d	0.05036645
181	0xbdbc88bf	-0.0920577
182	0x3eb7f7ca	0.35931236
183	0x3e101a3a	0.14072505
184	0x3e7aa31c	0.24476284
185	0x3e2a1203	0.16608433
186	0xbdee8c07	-0.11647802
187	0xbde94e14	-0.11391845
188	0xbed7fdcd	-0.42185822
189	0x3e917864	0.28412163
190	0x3ec28a2c	0.37996042
191	0x3eb2c227	0.3491375
192	0xbebad128	-0.364877
193	0x3d0d42ab	0.034487408
194	0xbebab437	-0.36465618
195	0xbe7bd800	-0.24594116
196	0xbe85ce7e	-0.26134104
197	0x3e103dd2	0.14086083
198	0xbe892ffb	-0.2679442
199	0xbc19127b	-0.009342785
200	0x3d2dc227	0.042421486
201	0x3e981d8e	0.29710048
202	0xbeb9a62d	-0.36259595
203	0xbec46b0b	-0.38362917
204	0xbe8f7a0f	-0.2802281
205	0x3eac601c	0.33667076
206	0xbe2dfb51	-0.16990401
207	0x3ed8ce2d	0.423448
208	0x3e3924a0	0.18080378
209	0x3d81aa40	0.06331301
210	0xbb73ed00	-0.003722012
211	0xbdca6d08	-0.09884077
212	0x3d96b504	0.07358745
213	0xbdc44150	-0.0958277
214	0x3bb4dd0b	0.0055195144
215	0x3d8f8491	0.07007707
216	0xbeca9d79	-0.39573267
217	0xbe8068c1	-0.2507992
218	0x3ed28313	0.41115627
219	0xbecafcba	-0.3964594
220	0xbd46df45	-0.04855277
221	0x3efdc8b2	0.4956718
222	0x3e360dc5	0.1777869
223	0x3ca75a6b	0.020428857
224	0xbeda1e3f	-0.426012
225	0x3e6f228a	0.2335302
226	0xbeaaea38	-0.3338182
227	0xbe13b2d4	-0.14423686
228	0xbe1fb585	-0.15596588
229	0xbda8cb77	-0.08241933
230	0xbc0cb7dd	-0.008588758
231	0x3ecebee0	0.4038
232	0x3dad2936	0.08455126
233	0x3ee3be4b	0.4448112
234	0x3e9ac6ea	0.30229884
235	0xbea20926	-0.31647605
236	0x3e75787f	0.23971747
237	0xbeb18d40	-0.34678078
238	0xbe564e01	-0.20928194
239	0x3e0f6640	0.14003849
240	0x3e28bbbd	0.16477866
241	0x3ec0387b	0.3754309
242	0xbe25255a	-0.1612753
243	0xbb97a07b	-0.004627285
244	0x3e8f44a9	0.2798207
245	0xbefd2d4d	-0.49448624
246	0x3eb92a52	0.361651
247	0xbed17474	-0.4090916
248	0xbbc91382	-0.0061363587
249	0xbd8663b5	-0.06561986
250	0xbe68151f	-0.22664307
251	0x3db89c1d	0.09014151
252	0x3ee3f270	0.44520903
253	0xbe2846a3	-0.16433196
254	0xbe96784f	-0.29388663
255	0xbe26ad38	-0.16277015

fc1.bias f4 [128]
0	0xbdeac4e0	-0.11463332
1	0xbe330514	-0.17482406
2	0x3e038ebc	0.12847418
3	0x3e4045cb	0.18776624
4	0xbe74558a	-0.23860756
5	0x3d005e07	0.03133967
6	0x3e93e175	0.28882948
7	0xbd4fe619	-0.050756548
8	0x3e2498aa	0.16073862
9	0xbdbda00b	-0.092590414
10	0x3e39e14a	0.18152347
11	0xbeb31eaa	-0.34984332
12	0xbea34dd4	-0.31895316
13	0xbe9204f0	-0.28519392
14	0x3ef2e348	0.47439027
15	0xbdf3dc7a	-0.11907287
16	0xbca94164	-0.020661063
17	0xbe846242	-0.25856215
18	0x3f03862c	0.51376605
19	0x3efaa8eb	0.48957
20	0xbeb3a06c	-0.3508333
21	0xbecf8810	-0.40533495
22	0xbec783d1	-0.38967755
23	0xbbeee999	-0.0072910306
24	0xbddc3204	-0.10751727
25	0xbea7904e	-0.32727283
26	0xbe48190f	-0.19540809
27	0x3dab9a91	0.083790906
28	0xbe86a6f0	-0.26299238
29	0x3de3652d	0.11103282
30	0xbdee596c	-0.116381496
31	0xbe784dba	-0.242484
32	0x3d8cd804	0.06877139
33	0x3ed2f7f4	0.41204798
34	0xbeab7c2f	-0.33493182
35	0x3cac0800	0.020999908
36	0xbe2f48be	-0.17117593
37	0x3efae3c0	0.49001884
38	0xbee8e0c8	-0.45483994
39	0xbeeff75e	-0.46868414
40	0x3f011887	0.5042805
41	0xbe9c5dda	-0.30540353
42	0x3dbe3aef	0.092885844
43	0xbd82de8b	-0.06390103
44	0xbdbe4095	-0.09289662
45	0xbdd9ce84	-0.10635093
46	0x3ea2dcf1	0.3180919
47	0x3cc8509b	0.024452498
48	0xbef30127	-0.47461817
49	0xbea67fa2	-0.3251925
50	0xbdec5aca	-0.11540754
51	0x3e8b0989	0.27155712
52	0xbea5aa8e	-0.32356685
53	0x3eeeffac	0.46679437
54	0xbdf223c6	-0.118232295
55	0xbdb8a680	-0.09016132
56	0x3ecf3844	0.40472615
57	0x3e85eea5	0.26158634
58	0x3ede6920	0.4343958
59	0x3e9d46e2	0.30718142
60	0xbe1afe02	-0.15135959
61	0xbea57f06	-0.32323474
62	0xbd3b417d	-0.04571675
63	0x3ed31ea7	0.41234323
64	0xbe1edab7	-0.1551312
65	0xbef4fd5c	-0.47849548
66	0x3e2e9252	0.17048004
67	0x3efa3a5f	0.4887266
68	0xbe30f3fc	-0.17280573
69	0xbee4dc5b	-0.44699368
70	0xbeeb66d4	-0.4597689
71	0x3e0615b4	0.13094217
72	0xbd0d3797	-0.034476843
73	0xbe7272b1	-0.23676564
74	0x3d52aab2	0.05143232
75	0x3e356bac	0.17716855
76	0x3ec53315	0.38515535
77	0x3ebb1e42	0.36546522
78	0xbdc12aab	-0.094319664
79	0xbee1bb7e	-0.44088358
80	0xbee753d8	-0.45181155
81	0x3eeeb5ff	0.46623227
82	0x3e50f384	0.20405394
83	0x3e53179d	0.20614477
84	0xbed7f27a	-0.42177182
85	0x3ef7adf7	0.48374912
86	0x3ef4ed48	0.4783728
87	0x3ee79b8a	0.45235854
88	0xbed7f530	-0.4217925
89	0xbe3d5b23	-0.18491797
90	0xbea9678d	-0.33086815
91	0x3eff55ab	0.49870047
92	0xbe7a1d4b	-0.24425237
93	0xbe721d97	-0.236441
94	0x3e94f2ed	0.29091588
95	0xbe5bd96f	-0.21469663
96	0xbe849e47	-0.25902006
97	0xbd1a7cb1	-0.03771657
98	0xbd4ba488	-0.049717456
99	0xbebfbb3a	-0.3744753
100	0x3ed8293d	0.42218962
101	0xbe66303c	-0.22479337
102	0x3e4ba216	0.1988605
103	0x3ee2f55c	0.4432782
104	0x3e6d2eb7	0.23162352
105	0x3d574e82	0.052565105
106	0x3edb7213	0.4286047
107	0x3d9c9eae	0.07647453
108	0xbe5427ce	-0.2071831
109	0x3ef94c58	0.48691058
110	0x3dd9eadd	0.106405
111	0xbeed67fd	-0.463684
112	0xbe1a4d42	-0.15068534
113	0xbea02178	-0.31275535
114	0x3ee49b25	0.44649616
115	0xbd4ddcf4	-0.050259545
116	0xbee959b2	-0.45576245
117	0xbcf567a0	-0.029956639
118	0x3ea36198	0.31910396
119	0x3e0b77cc	0.13619918
120	0x3e2a8c91	0.16655184
121	0x3d6c0640	0.057623148
122	0x3e3c5fc0	0.183959
123	0xbe0aadc9	-0.13542856
124	0xbe4b81dd	-0.19873758
125	0xbef2047f	-0.47269055
126	0xbeb5bfb1	-0.3549781
127	0x3e5fb4e1	0.21846344

bn1.weight f4 [128]
0	0x3f7f342f	0.99689
1	0x3f809edb	1.0048479
2	0x3f805945	1.0027243
3	0x3f822527	1.0167588
4	0x3f7dbc06	0.99115026
5	0x3f80059b	1.0001711
6	0x3f7ec3e5	0.9951766
7	0x3f81bb55	1.0135294
8	0x3f7e535d	0.9934595
9	0x3f812a28	1.009099
10	0x3f81e393	1.0147575
11	0x3f819ee6	1.0126617
12	0x3f8052f0	1.002531
13	0x3f807d51	1.0038244
14	0x3f7eff22	0.9960805
15	0x3f7cbf3a	0.9872929
16	0x3f810b85	1.008164
17	0x3f7dda5e	0.99161327
18	0x3f810eef	1.0082682
19	0x3f81c9c9	1.0139705
20	0x3f8060e6	1.0029571
21	0x3f800000	1.0
22	0x3f80f966	1.007611
23	0x3f8037a4	1.001698
24	0x3f834755	1.0256144
25	0x3f800000	1.0
26	0x3f7fbfcd	0.9990204
27	0x3f80a5cc	1.0050597
28	0x3f7e476a	0.9932772
29	0x3f7deeb3	0.9919235
30	0x3f80577f	1.0026702
31	0x3f7cf548	0.9881177
32	0x3f7dc8f4	0.99134755
33	0x3f81cea6	1.0141189
34	0x3f7f4b26	0.9972404
35	0x3f802d2b	1.0013784
36	0x3f802567	1.0011414
37	0x3f80dbdd	1.0067097
38	0x3f814634	1.0099549
39	0x3f7b7076	0.98218477
40	0x3f7ecc58	0.99530554
41	0x3f7b21da	0.9809853
42	0x3f80564c	1.0026336
43	0x3f7e54b6	0.9934801
44	0x3f7fed0c	0.9997108
45	0x3f7e8f99	0.9943786
46	0x3f7e9e61	0.9946042
47	0x3f810830	1.0080624
48	0x3f7bae8b	0.98313206
49	0x3f7d32c3	0.9890558
50	0x3f7e0677	0.99228615
51	0x3f809dfc	1.0048213
52	0x3f800000	1.0
53	0x3f80c2fa	1.0059502
54	0x3f7dc423	0.99127406
55	0x3f7b535d	0.9817408
56	0x3f80f0f8	1.0073538
57	0x3f80ccdf	1.0062522
58	0x3f805ae0	1.0027733
59	0x3f808ec0	1.0043564
60	0x3f804518	1.0021086
61	0x3f801a19	1.0007964
62	0x3f80c0c6	1.005883
63	0x3f82f7f2	1.0231917
64	0x3f802c7a	1.0013573
65	0x3f775804	0.96618676
66	0x3f81663d	1.0109326
67	0x3f7eaed7	0.99485534
68	0x3f8191ca	1.0122616
69	0x3f801233	1.0005554
70	0x3f7d60fa	0.989761
71	0x3f804053	1.001963
72	0x3f803ea9	1.0019122
73	0x3f77d699	0.96811825
74	0x3f802473	1.0011123
75	0x3f82df3c	1.0224376
76	0x3f7fce67	0.9992432
77	0x3f80df98	1.0068235
78	0x3f81cb26	1.0140121
79	0x3f800000	1.0
80	0x3f800000	1.0
81	0x3f803500	1.0016174
82	0x3f7fcd5f	0.99922746
83	0x3f81fb68	1.0154848
84	0x3f8203ef	1.015745
85	0x3f802363	1.0010799
86	0x3f7ebe47	0.9950909
87	0x3f8103b1	1.0079252
88	0x3f800000	1.0
89	0x3f7fe02b	0.9995143
90	0x3f75fda0	0.96090126
91	0x3f817a6b	1.0115484
92	0x3f791a0f	0.9730539
93	0x3f7d757f	0.9900741
94	0x3f7e4e59	0.993383
95	0x3f7e9ccf	0.9945802
96	0x3f7e24a8	0.99274683
97	0x3f76ca27	0.9640221
98	0x3f81ca70	1.0139904
99	0x3f7b8d19	0.9826217
100	0x3f7fda62	0.999426
101	0x3f7f60a7	0.99756855
102	0x3f7c21b0	0.98488903
103	0x3f817d52	1.011637
104	0x3f79a113	0.97511405
105	0x3f7e6af1	0.9938193
106	0x3f7f4d81	0.99727637
107	0x3f810498	1.0079527
108	0x3f7b1e85	0.98093444
109	0x3f8065ed	1.0031105
110	0x3f80ff78	1.0077963
111	0x3f7dc1ba	0.9912373
112	0x3f80fdd0	1.0077457
113	0x3f80bb1e	1.0057104
114	0x3f802cd5	1.0013682
115	0x3f7ea094	0.9946377
116	0x3f800000	1.0
117	0x3f80d753	1.0065712
118	0x3f809b7f	1.0047454
119	0x3f7f39b3	0.9969742
120	0x3f80cee4	1.0063138
121	0x3f7f9c4d	0.9984787
122	0x3f80eb72	1.0071852
123	0x3f7e7167	0.9939179
124	0x3f80d924	1.0066266
125	0x3f7ef76b	0.9959628
126	0x3f7f26c9	0.99668556
127	0x3f80ac46	1.0052574

bn1.bias f4 [128]
0	0xbbb4e2ac	-0.0055201855
1	0xbb0f53e6	-0.0021870076
2	0xbc99951c	-0.018747859
3	0x3cbd9e07	0.023146642
4	0xba0bf87a	-0.0005339455
5	0xbcb1fb72	-0.021726344
6	0xbbec086f	-0.007203154
7	0xbbc04967	-0.0058681252
8	0x3bd3e7e9	0.006466855
9	0x3d1bff50	0.03808528
10	0x3ca76881	0.020435574
11	0xbbf104e5	-0.00735532
12	0x3c78d494	0.015187401
13	0x3c91326c	0.017724238
14	0xbd041d61	-0.03225458
15	0x3c617a96	0.013762137
16	0xbc390d7e	-0.011294721
17	0x3c0bef8f	0.008541002
18	0xbbda1384	-0.0066551585
19	0xbb1d0214	-0.0023957537
20	0xbca76874	-0.02043555
21	0xbc0990d2	-0.008396344
22	0x3cda9219	0.026680993
23	0xbc7ad86f	-0.015310391
24	0xbca234e6	-0.019800615
25	0x3cb32203	0.021866804
26	0x3c85eac5	0.016347298
27	0xbc8b5d19	-0.017012166
28	0x3bede1b6	0.007259573
29	0x3c822477	0.015886528
30	0x3bb496e5	0.005511152
31	0x3c875f82	0.016525034
32	0x3acf8445	0.0015832266
33	0x3c9d0ec7	0.019172085
34	0xbb2549ae	-0.0025220918
35	0x3bdcb8cd	0.006735897
36	0xbc335280	-0.0109449625
37	0xbcdc47a6	-0.026889633
38	0xbbb5024a	-0.0055239545
39	0x3cb88fe2	0.022529546
40	0xbc4583a2	-0.0120553095
41	0xbc590987	-0.0132469
42	0xbb825a6c	-0.0039780643
43	0xbc633452	-0.013867455
44	0xbc1a9657	-0.009435258
45	0xbc262ab5	-0.010142018
46	0xb9897e34	-0.00026224705
47	0x3a544d69	0.0008098693
48	0xbc52502a	-0.012836495
49	0x3b8708e9	0.004120935
50	0x3a38fab6	0.0007056402
51	0x3c9469d6	0.018116873
52	0xbc0a4f57	-0.008441768
53	0x3c5e78b0	0.013578579
54	0x3bb708ed	0.005585781
55	0xbc8e1db7	-0.017348154
56	0xbb4d7ee9	-0.0031356162
57	0x3c17280d	0.009225857
58	0xbb8db50a	-0.00432456
59	0xbcf3a002	-0.029739384
60	0x3bf55f34	0.0074881557
61	0xbb8f6153	-0.0043756156
62	0xbb0ce63a	-0.002149953
63	0xbcc91b4b	-0.024549147
64	0xbc5404e0	-0.012940615
65	0x3aa131f3	0.0012298211
66	0xbc6ab666	-0.014325714
67	0x3b50d256	0.0031863651
68	0x3c1b3d74	0.009475101
69	0xbbdd99de	-0.006762727
70	0x3a66916e	0.00087954744
71	0x3c0d8a05	0.008638863
72	0xba4f81e0	-0.0007915776
73	0xbcd51058	-0.02600877
74	0xbb5eaec9	-0.0033978692
75	0xbc182de6	-0.009288287
76	0xbc1da8d4	-0.009622771
77	0xbb6a23cd	-0.0035726905
78	0x3ba88118	0.0051423423
79	0x3ccaaba8	0.024740055
80	0x3c8f6e92	0.017508779
81	0xb9841449	-0.00025192116
82	0xbc550755	-0.013002236
83	0x3abc7667	0.0014378548
84	0xbc2c3aa6	-0.01051203
85	0xbb7ebb77	-0.0038869062
86	0xbb9f5db8	-0.004863467
87	0x39a1a8bd	0.00030834033
88	0x3b5bfb3c	0.0033566495
89	0xbb8228a2	-0.003972129
90	0x3b80c8dd	0.003930195
91	0xbc003da2	-0.007827194
92	0xbca0faa8	-0.019650772
93	0x3cf52d8f	0.02992895
94	0xba5e0e83	-0.00084707903
95	0x3bfc3df5	0.0076978155
96	0xbc29bd64	-0.010360096
97	0x3ca27864	0.019832797
98	0xbb3626d7	-0.0027794146
99	0xbc5589f5	-0.01303338
100	0xbc1ed677	-0.009694687
101	0xbc99a297	-0.018754287
102	0xbae67ba7	-0.0017584459
103	0xbb965512	-0.004587778
104	0x3ce59992	0.02802733
105	0xba0e6948	-0.0005432558
106	0xbc976720	-0.018481791
107	0xbc0507e7	-0.00811956
108	0xbca481b4	-0.020081379
109	0xbcb0b70b	-0.021571657
110	0xbc6ce7ba	-0.014459545
111	0x3c40fad7	0.011778555
112	0xbc674230	-0.014114901
113	0x3b4beb98	0.0031115767
114	0xbb3f4ae1	-0.0029188918
115	0xbc37594e	-0.0111907255
116	0xbc95344f	-0.01821342
117	0x398f2e13	0.00027309413
118	0xbbeed540	-0.007288605
119	0xbbc46f35	-0.005994702
120	0xbc18d055	-0.009327014
121	0x3c1dbf27	0.009628094
122	0xbb8de95d	-0.0043307976
123	0xbb526fde	-0.0032110135
124	0xbc533c9d	-0.012892869
125	0x3c1a6365	0.009423112
126	0x3c821fe1	0.015884342
127	0x3c80e385	0.01573349

bn1.running_mean f4 [128]
0	0x3c1110bf	0.00885409
1	0x3d238b71	0.039927904
2	0x3cd67cce	0.026182558
3	0x3d4dde5d	0.05026089
4	0x3b020858	0.00198414
5	0x3e249b4c	0.16074866
6	0x3ed3e5fc	0.41386402
7	0x3d8def61	0.069304235
8	0x3d04094d	0.032235432
9	0x3d996b35	0.07491151
10	0x3e317b23	0.17332129
11	0x3d21fe8d	0.0395494
12	0x3db672d6	0.08908622
13	0x3d515f25	0.051116128
14	0x3e7d1ba4	0.24717575
15	0x3c669020	0.014072448
16	0x3df66d52	0.1203257
17	0x3ae3c6cd	0.0017377973
18	0x3f712004	0.94189477
19	0x3f02d919	0.51112515
20	0x3c8d58b6	0.017254215
21	0x00000000	0.0
22	0x3cb5dd20	0.022200167
23	0x3c68c3cc	0.014206838
24	0x3bcf9e27	0.006335992
25	0x00000000	0.0
26	0x3be259e9	0.006907691
27	0x3dc91ad9	0.09819574
28	0x3ca3172d	0.019908512
29	0x3e17f74d	0.14840432
30	0x3cb89319	0.02253108
31	0x3ab3dc04	0.0013722186
32	0x3d859556	0.06522624
33	0x3efbc4bd	0.49173537
34	0x3c06a1fe	0.008217333
35	0x3ed5a57c	0.41727817
36	0x3d1a0271	0.037599985
37	0x3e0c6657	0.13710915
38	0x3c244bf4	0.010027874
39	0x33a42ffe	7.645575e-08
40	0x3e24b4b0	0.16084552
41	0x389df624	7.532191e-05
42	0x3e4e5a15	0.20151551
43	0x3d9e5aa3	0.07732131
44	0x3e240563	0.1601768
45	0x3e55bcfb	0.20872872
46	0x3e84c37b	0.2593039
47	0x3e74ae95	0.23894723
48	0x3aa7313f	0.0012755765
49	0x3a2843d3	0.0006418798
50	0x3c05a46a	0.008156875
51	0x3e758f01	0.23980333
52	0x00000000	0.0
53	0x3f06f397	0.5271544
54	0x3dbcc262	0.09216763
55	0x3c2e5bf0	0.010642037
56	0x3dc04cc1	0.0938964
57	0x3eb8d6f7	0.36101505
58	0x3efa93a4	0.48940766
59	0x3eabcd34	0.33554995
60	0x39aee21d	0.00033356334
61	0x3de50a90	0.11183655
62	0x3c03ebea	0.008051852
63	0x3ea6a109	0.32544735
64	0x3bcfc76a	0.0063409107
65	0x38bb7f44	8.94056e-05
66	0x3e585f9b	0.2113022
67	0x3eb6c6d3	0.35698566
68	0x3bfd55ab	0.0077311597
69	0x2998579f	6.765356e-14
70	0x38b1376c	8.450341e-05
71	0x3dc8d6d3	0.098065995
72	0x3caa973b	0.020824065
73	0x3a57116c	0.0008204195
74	0x3e92d0d2	0.28674942
75	0x3d8f156b	0.06986507
76	0x3f15ff59	0.58592755
77	0x3e1ced3f	0.15324877
78	0x3e649f56	0.22326407
79	0x00000000	0.0
80	0x00000000	0.0
81	0x3f385929	0.7201105
82	0x3d8a5d89	0.06756122
83	0x3e3ff91e	0.18747374
84	0x3e028c93	0.12748937
85	0x3f5459d5	0.8294957
86	0x3f0d3480	0.55158234
87	0x3ec97c8c	0.39352834
88	0x00000000	0.0
89	0x3b228dfe	0.0024803872
90	0x3acd35f6	0.001565634
91	0x3f233f4c	0.6376846
92	0x3a9577b1	0.0011403469
93	0x3ba0b295	0.004904101
94	0x3f377b79	0.7167278
95	0x3e8435ef	0.25822398
96	0x3d8c4139	0.06848378
97	0x3afb6b34	0.0019181729
98	0x3d3eb3f3	0.04655833
99	0x3c04eb3d	0.008112726
100	0x3f02ef67	0.5114655
101	0x3eafbce8	0.34323812
102	0x3d3ee57c	0.046605572
103	0x3e9d5453	0.30728397
104	0x3ec92c03	0.3929139
105	0x3e4d8e56	0.20073828
106	0x3ecbc811	0.39801076
107	0x3d56934b	0.052386563
108	0x3a999057	0.001171599
109	0x3f12493a	0.57142985
110	0x3df88dd1	0.12136424
111	0x391922c6	0.00014604171
112	0x3e8ffc47	0.2812216
113	0x3d0b8e7a	0.034071423
114	0x3e23b9aa	0.15988794
115	0x3cfef839	0.031124221
116	0x00000000	0.0
117	0x3e6c86fe	0.2309837
118	0x3ebeff92	0.3730436
119	0x3d86f5af	0.06589829
120	0x3dc902de	0.09815
121	0x3e9a365b	0.30119595
122	0x3e28cc42	0.16484168
123	0x3e89b2da	0.26894265
124	0x3e4a372a	0.19747606
125	0x369c8cf0	4.6655696e-06
126	0x3d7f3b74	0.06231256
127	0x3e53b117	0.20673023

bn1.running_var f4 [128]
0	0x3b4f183f	0.0031600145
1	0x3b4f505d	0.0031633594
2	0x3b363d6a	0.0027807602
3	0x3bd87c1e	0.006606593
4	0x39ee4f02	0.00045453763
5	0x3ca7af6f	0.020469395
6	0x3de1c31e	0.11023544
7	0x3c30e30f	0.0107963225
8	0x3c5f3a4b	0.013624738
9	0x3c0612a3	0.008183154
10	0x3d51ffcb	0.051269334
11	0x3b7dd327	0.0038730593
12	0x3c546770	0.012964115
13	0x3c16a561	0.009194703
14	0x3d09b16e	0.033616476
15	0x3a605c89	0.00085587107
16	0x3b632073	0.0034656792
17	0x39b7fc47	0.0003509244
18	0x3da8a94d	0.082354166
19	0x3d16a364	0.036776915
20	0x3b59c2cc	0.003322768
21	0x00000004	6e-45
22	0x3ad4a185	0.0016222453
23	0x3ba2207d	0.0049477206
24	0x3ac2a61e	0.0014850532
25	0x00000004	6e-45
26	0x3b408753	0.0029377535
27	0x3c7a736b	0.015286307
28	0x3b7334e0	0.0037110373
29	0x3b9a6f55	0.004712979
30	0x3aeb87fa	0.0017969601
31	0x394bc15a	0.00019431618
32	0x3b7dac61	0.0038707482
33	0x3ca49e6e	0.020095076
34	0x39c400f5	0.00037384746
35	0x3d903192	0.07040705
36	0x3a9f9111	0.001217397
37	0x3d2bdec3	0.04196049
38	0x3aa8a398	0.0012866138
39	0x3182d4ba	3.807682e-09
40	0x3d304bf0	0.04304117
41	0x364aa897	3.0198478e-06
42	0x3ce60ddb	0.028082779
43	0x3c7dad28	0.015483178
44	0x3d359497	0.04433116
45	0x3cce9e8c	0.025222085
46	0x3ba3bcd5	0.0049968758
47	0x3d0dd1ac	0.034623787
48	0x397b4df9	0.00023966272
49	0x3823d27d	3.905826e-05
50	0x3b325551	0.0027211497
51	0x3d33c64b	0.04389028
52	0x00000004	6e-45
53	0x3ad6c769	0.0016386333
54	0x3cc5a0b9	0.02412449
55	0x3a090bbf	0.00052278856
56	0x3cc4fab3	0.024045324
57	0x3d308f6a	0.04310552
58	0x3d698543	0.057011854
59	0x3c629c2b	0.013831179
60	0x3730f065	1.0546389e-05
61	0x3d06a851	0.032875363
62	0x39c11277	0.00036825586
63	0x3c8e622a	0.017380793
64	0x3b1bd4ac	0.0023777885
65	0x36b597c7	5.4118896e-06
66	0x3c13899c	0.009004977
67	0x3cac84e5	0.021059463
68	0x3b53bbde	0.0032308022
69	0x26bed2a1	1.324099e-15
70	0x36872229	4.0272903e-06
71	0x3c3d2d8d	0.011546505
72	0x3aea744d	0.0017887444
73	0x384c9a5d	4.8781152e-05
74	0x3d22d71f	0.039755937
75	0x3c2fadfc	0.010722633
76	0x3c825230	0.01590833
77	0x3cfb5077	0.030678017
78	0x3cc57ed8	0.024108335
79	0x00000004	6e-45
80	0x00000004	6e-45
81	0x3cc76401	0.024339678
82	0x3c996d3b	0.018728843
83	0x3cfdfcf0	0.031004399
84	0x3ccd92b6	0.025094371
85	0x3d576886	0.052589916
86	0x3cdfd063	0.027321046
87	0x3d81ab48	0.063314974
88	0x00000004	6e-45
89	0x3a1ed8ee	0.0006059547
90	0x39337715	0.00017115132
91	0x3df0296b	0.1172665
92	0x3966edf0	0.00022023148
93	0x3b04e2ef	0.0020276865
94	0x3d7ad79a	0.06124077
95	0x3d1a168b	0.037619155
96	0x3c046f81	0.008083225
97	0x3916eb08	0.0001439267
98	0x3be37bc4	0.0069422442
99	0x39ec7b64	0.0004510536
100	0x3d9c52f2	0.07633008
101	0x3d8696a4	0.06571701
102	0x3be8a4f6	0.007099743
103	0x3cb83d4b	0.022490164
104	0x3d5d52b4	0.05403395
105	0x3c5c14cf	0.0134326955
106	0x3d3ce1f3	0.04611392
107	0x3c00fe88	0.007873185
108	0x390fb15d	0.00013703616
109	0x3dd7814d	0.10522709
110	0x3c590f26	0.013248241
111	0x371d7160	9.384326e-06
112	0x3d31643f	0.043308493
113	0x3b9d9e26	0.0048101125
114	0x3d0f614d	0.035004903
115	0x3bb49f79	0.0055121747
116	0x00000004	6e-45
117	0x3d0ad521	0.03389466
118	0x3dbe10de	0.09280561
119	0x3c460584	0.012086276
120	0x3cb43a10	0.022000343
121	0x3ceaba93	0.028653419
122	0x3b833ee7	0.0040053013
123	0x3d341693	0.04396684
124	0x3d1f70ea	0.038926043
125	0x336c3016	5.4991766e-08
126	0x3bd5fa4d	0.0065300823
127	0x3cdc9cc2	0.026930217

fc2.weight f4 [64, 128]
0	0xbd7a0e19	-0.0610486
1	0x3c8f8c49	0.017522948
2	0x3c9625a0	0.018328488
3	0xbb9e85fc	-0.0048377495
4	0xbd67f211	-0.056627337
5	0x3db11aff	0.08647727
6	0xbd4db6ac	-0.050223038
7	0x3d81d5ab	0.06339582
8	0xbda3b865	-0.07994155
9	0xbc9697de	-0.018382963
10	0x3d3dd9f8	0.04635045
11	0xbd051ce8	-0.03249827
12	0x3d961aa8	0.07329303
13	0xbd85290b	-0.06501969
14	0xbdaaa717	-0.08332651
15	0xbd671648	-0.056417733
16	0x3c1c42e7	0.009537435
17	0x3da61b30	0.08110654
18	0xbd184c5b	-0.037182193
19	0x3cee6d06	0.02910472
20	0xbc5d761c	-0.013516929
21	0xbd02af88	-0.03190568
22	0x3d8391bf	0.06424283
23	0xbd95fee7	-0.073240094
24	0x3b8f8973	0.004380399
25	0x3dccce8e	0.10000335
26	0xbd04e5bd	-0.032445658
27	0x3d7ffda4	0.06249775
28	0xbcf00460	-0.029298961
29	0x3d938fb3	0.07205143
30	0xbdcb366d	-0.0992249
31	0xbcb76388	-0.022386327
32	0xbca2eed7	-0.019889278
33	0x3d1fb696	0.038992487
34	0x3d2a2904	0.04154302
35	0x3d9af388	0.07565981
36	0xbb6c7896	-0.0036082617
37	0xbbf3d8fb	-0.0074416376
38	0x3d6fc1d8	0.058534473
39	0xbd24a322	-0.040194638
40	0x3d9ddb8f	0.07707893
41	0xbd5a8529	-0.053349648
42	0xbbc97539	-0.006148007
43	0xbc96f749	-0.018428462
44	0x3d157a63	0.03649367
45	0x3d8cc833	0.068741225
46	0xbc7b5de4	-0.0153422095
47	0xbd923956	-0.07139842
48	0x3d68da16	0.056848608
49	0x3ce513cb	0.02796354
50	0x3ccf236f	0.02528545
51	0xbd5871c8	-0.052842885
52	0x3d508736	0.050910197
53	0x3da15a84	0.078785926
54	0x3b4f10ed	0.0031595782
55	0xbdb14c6a	-0.08657153
56	0x3d4944f9	0.049138043
57	0xbd8bbb48	-0.068228304
58	0x3cc6ee1e	0.024283465
59	0x3b896b08	0.0041936673
60	0xbd0b8776	-0.034064732
61	0x3cccd502	0.025003914
62	0xbdbe3b17	-0.09288614
63	0x3bfc37ea	0.007697095
64	0xbd9f0094	-0.07763782
65	0x3c4be682	0.012445094
66	0x3ba80bee	0.0051283753
67	0x3d9305cf	0.07178842
68	0xbd74c6c6	-0.059759878
69	0x3d5824d7	0.05276951
70	0xbc6dff68	-0.014526226
71	0xbd41676b	-0.047217768
72	0xbdc33c24	-0.09532955
73	0xbd9c827a	-0.07642074
74	0x3da5d17f	0.08096599
75	0xbd19079c	-0.037360772
76	0x39062700	0.00012793764
77	0x3c187091	0.009304182
78	0x3d6e100d	0.058120776
79	0x3dbaac6b	0.09114917
80	0x3d9507af	0.07276856
81	0xbd4c1b98	-0.049831003
82	0xbc698ecf	-0.01425524
83	0xbd6d0333	-0.05786438
84	0xbd4fd18e	-0.050736956
85	0x3cdb58b3	0.026775694
86	0x3dba28ac	0.09089789
87	0xbd8f3df7	-0.06994241
88	0x3d81f99b	0.063464366
89	0xbd41b64e	-0.047293
90	0xbd0378f8	-0.032097787
91	0x3d952c89	0.07283885
92	0xbd1bf284	-0.038073078
93	0xbb8b6d40	-0.004254967
94	0xbd6aa420	-0.057285428
95	0x3d959058	0.07302922
96	0xbc2ac060	-0.010421842
97	0xbd95a9ac	-0.07307753
98	0x3c30babc	0.010786708
99	0xbd99c349	-0.07507951
100	0xbd960118	-0.07324427
101	0x3b7b0f3c	0.003830864
102	0x3d6a4682	0.057196148
103	0xbd1caa40	-0.0382483
104	0x3d2310dc	0.039811
105	0x3d9284e5	0.07154254
106	0x3d66c008	0.05633548
107	0xbd875974	-0.06608859
108	0xbc5782b9	-0.013153725
109	0xbcf098aa	-0.02936967
110	0xbd90bb36	-0.07066958
111	0x3c08a363	0.008339736
112	0x3d87cb4e	0.06630574
113	0x3d78b5e9	0.060720358
114	0xbb590081	-0.0033111873
115	0x3c7d0b4b	0.015444587
116	0xbd4dbe7d	-0.050230492
117	0x3d84db90	0.06487191
118	0xbd19079f	-0.037360784
119	0xbda319d0	-0.07963908
120	0xbaa4f2fc	-0.0012584622
121	0x3d6fcea6	0.058546685
122	0xbdb220ed	-0.08697686
123	0x3da6b05a	0.08139105
124	0x3ce40413	0.027833974
125	0xbd4eb036	-0.050461017
126	0xbce3b457	-0.027795954
127	0x3da20871	0.07911766
128	0xbd62e1e9	-0.055391226
129	0xbc891667	-0.016734315
130	0x3cfa91cf	0.030587105
131	0xbd9f5edd	-0.077817656
132	0x3d6bb268	0.05754319
133	0x3d436b10	0.047709525
134	0x3d6d99b9	0.05800793
135	0xbd4f3d0a	-0.05059532
136	0x3db61586	0.08890824
137	0xbd37598b	-0.04476313
138	0x3dc4a987	0.09602647
139	0xbda3f5b2	-0.08005847
140	0xbdb35dbd	-0.087581135
141	0x3d698626	0.0570127
142	0x3c459953	0.012060481
143	0x3c0be503	0.008538487
144	0xbd8674ad	-0.06565223
145	0xbd05c156	-0.032655083
146	0xbce512c6	-0.027963053
147	0xbdaa9a82	-0.08330251
148	0xbbea31fd	-0.0071470723
149	0x3cdc73df	0.02691072
150	0xbae48ad1	-0.001743639
151	0x3d0759c6	0.0330446
152	0x3dbf0f10	0.09329045
153	0x3bcd4e2b	0.006265422
154	0xbcb4d34c	-0.02207341
155	0xbcfd2ef1	-0.030906172
156	0xbd6fcd99	-0.058545683
157	0xbd84f1a5	-0.064914025
158	0xbb76d203	-0.0037661798
159	0xbd04891f	-0.03235733
160	0x3cf8207e	0.030288931
161	0xbd1c6f8a	-0.03819231
162	0x3d933bc8	0.07189137
163	0xbd841383	-0.06449034
164	0xbbea4fab	-0.0071506104
165	0x3da0d97a	0.0785398
166	0x3db8d3c8	0.09024769
167	0xbd3a7bfb	-0.045528393
168	0x3c6d21e5	0.014473413
169	0x3c3049b8	0.010759763
170	0xbd282dc5	-0.041059274
171	0xbccbe9a0	-0.024891675
172	0x3cee4d50	0.0290896
173	0xbd818224	-0.063236505
174	0x3c8c9223	0.017159527
175	0x3d0156a0	0.031576753
176	0xbd1c17ca	-0.038108625
177	0x3d8db8ad	0.0691999
178	0x3c2c0d62	0.010501238
179	0x3d1b8fbf	0.037978884
180	0x3dbf157c	0.0933027
181	0xbd0503d3	-0.03247435
182	0x3d5a1033	0.053238105
183	0xbc21bfe3	-0.0098724095
184	0xbc308b2f	-0.010775371
185	0xbc378ef3	-0.011203515
186	0x3ab8de66	0.0014104366
187	0xbd10d3d7	-0.035358276
188	0x3c4cdfea	0.012504557
189	0x3c12d6bd	0.00896233
190	0x3d56bb4d	0.052424718
191	0xbc55d87c	-0.013052102
192	0x3c732cf8	0.014842264
193	0xbcfcbf47	-0.030852927
194	0xbd9dc77d	-0.07704065
195	0x3d1d36af	0.03838223
196	0x3ca4f839	0.020137893
197	0xbd0f3804	-0.03496553
198	0xbc9aa370	-0.018876761
199	0x3cbb56f3	0.022868609
200	0xbc9cbb08	-0.019132152
201	0x3d69f0b4	0.057114318
202	0x3bab8892	0.0052347863
203	0x3cef1faa	0.029189903
204	0x3d1e43d9	0.038638923
205	0xbc9e5526	-0.019327711
206	0x3d3d0b2e	0.04615324
207	0x3d4203c0	0.047366858
208	0x38b617c2	8.6828615e-05
209	0x3c82e296	0.015977185
210	0x3b67533e	0.003529742
211	0x3d665878	0.056236714
212	0xbd311caf	-0.043240245
213	0xbd49f016	-0.04930123
214	0x3d061bb0	0.03274125
215	0xbdabec04	-0.08394626
216	0xbc50314b	-0.012707065
217	0xbd3e8b46	-0.04651954
218	0x3d6e660e	0.058202796
219	0xbda4c5cf	-0.080455415
220	0x3d63c654	0.055609062
221	0x3dbaec90	0.09127152
222	0x3c657a01	0.014006139
223	0x3ac10b29	0.0014728057
224	0x3da280c6	0.07934718
225	0xbd23725a	-0.039903976
226	0xbb8f982b	-0.0043821535
227	0xbca293c9	-0.01984586
228	0xbc72a9cf	-0.014810993
229	0x3caea0b9	0.021316873
230	0x3c7c4242	0.0153966565
231	0xbc5228b3	-0.012827086
232	0xbda5c87a	-0.080948785
233	0x3aecde2c	0.0018071583
234	0xbb25e238	-0.0025311839
235	0x3c2185dd	0.009858576
236	0x3da1e933	0.07905807
237	0x3db6cfbf	0.08926343
238	0xbd3f6992	-0.04673154
239	0xbc41991b	-0.011816288
240	0xbd0df219	-0.03465471
241	0xbd84eb2a	-0.064901665
242	0xbd80f415	-0.06296555
243	0x3db6da73	0.08928385
244	0x3d56429b	0.052309614
245	0x3d56a7b5	0.05240603
246	0x3d53789d	0.051628698
247	0xbd9abeb0	-0.07555902
248	0x3c21c6b7	0.0098740375
249	0x3d9a18c7	0.07524257
250	0xbd4dd341	-0.050250296
251	0x3d9b62bd	0.07587192
252	0x3cd975e9	0.026545482
253	0x3d70e3dc	0.058811054
254	0xbc5ec6f3	-0.013597238
255	0x3d2287e4	0.039680377

fc2.bias f4 [64]
0	0x3ccfa8c6	0.025349032
1	0x3d7396b5	0.059469897
2	0x3d50678d	0.050880004
3	0xbd11fdc8	-0.035642415
4	0xbd252ba5	-0.040324826
5	0x3cdec63c	0.027194135
6	0xbd8b9e36	-0.06817286
7	0x3badb024	0.0053005386
8	0x3cdcfa6c	0.02697488
9	0xbd3fe399	-0.046847913
10	0x3d192e3c	0.03739761
11	0x3c3b957c	0.011449214
12	0x3dc44433	0.095833205
13	0xbd68ea1a	-0.05686388
14	0x3dac34b4	0.0840849
15	0x3d392fcb	0.045211595
16	0xbdad4906	-0.08461194
17	0x3c75fd6d	0.015014035
18	0xbcc307a2	-0.02380735
19	0x3cd23cfd	0.025663847
20	0x3d856874	0.065140635
21	0xbd2e615f	-0.04257333
22	0xbd48384a	-0.048881806
23	0xbd4b9686	-0.049704097
24	0x3d997584	0.074931175
25	0xbd73558f	-0.059407767
26	0xbd55b6cb	-0.052176278
27	0x3dbb98fb	0.09160038
28	0x3d3321dc	0.043733463
29	0x3d7d7679	0.061880562
30	0x3da8a915	0.08235375
31	0xbd7c2c50	-0.061565697
32	0xbc96ea02	-0.01842213
33	0xbb9fe8da	-0.004880053
34	0x3dbad83b	0.09123274
35	0xbca3284c	-0.019916676
36	0x3b00aebe	0.0019635404
37	0x3d94ace8	0.07259542
38	0x3d8749d4	0.066058785
39	0xbd741090	-0.059586108
40	0xbd775b17	-0.060389604
41	0xbcd23a7d	-0.025662655
42	0x3cf9a819	0.030475663
43	0x3daf2cd9	0.08553476
44	0x3ccdd463	0.025125688
45	0x3d923ece	0.07140885
46	0x3d15c06a	0.036560453
47	0xbcaa2a26	-0.020772051
48	0xbc957de1	-0.0182485
49	0x3d963620	0.07334542
50	0x3d11518d	0.035478164
51	0x3ce8735d	0.028375322
52	0x3d68d5ca	0.05684451
53	0x3d065bfe	0.032802574
54	0x3d042212	0.032259054
55	0x3b9e339c	0.0048279297
56	0xbd0e5dab	-0.034757297
57	0xbd0499fd	-0.032373417
58	0xbd0f6544	-0.035008684
59	0x3d95e294	0.07318607
60	0x3d9151d9	0.07095689
61	0xbd1a2704	-0.037634864
62	0x3d4baa25	0.04972281
63	0xbcc9ae03	-0.024619108

bn2.weight f4 [64]
0	0x3f7f572f	0.99742407
1	0x3f7f3912	0.9969646
2	0x3f7e8db4	0.9943497
3	0x3f7dcec1	0.99143606
4	0x3f7c0bed	0.984557
5	0x3f7d6eac	0.98996997
6	0x3f7fa700	0.99864197
7	0x3f7c08ae	0.98450744
8	0x3f7c8de4	0.9865401
9	0x3f7d05b6	0.9883684
10	0x3f7cf94a	0.98817885
11	0x3f7bfb42	0.98430264
12	0x3f7da666	0.9908203
13	0x3f7e84bc	0.99421287
14	0x3f7dfd8c	0.99215007
15	0x3f7cc3f6	0.9873651
16	0x3f7fa653	0.99863166
17	0x3f7da693	0.990823
18	0x3f7d1324	0.9885733
19	0x3f7e99e0	0.99453545
20	0x3f7ec9f7	0.99526924
21	0x3f7ac71c	0.97960067
22	0x3f7ef90d	0.9959877
23	0x3f79b963	0.975485
24	0x3f7dc799	0.99132687
25	0x3f7bfe8c	0.9843528
26	0x3f7ca705	0.9869235
27	0x3f7e685f	0.9937801
28	0x3f7f251a	0.9966599
29	0x3f7f2e30	0.9967985
30	0x3f80992e	1.0046747
31	0x3f7aa701	0.9791108
32	0x3f7f80f8	0.99806166
33	0x3f7bf7d6	0.9842504
34	0x3f7dcee0	0.9914379
35	0x3f7ec598	0.99520254
36	0x3f7e6252	0.99368775
37	0x3f7e74f0	0.9939718
38	0x3f7db99b	0.99111336
39	0x3f7bceec	0.9836261
40	0x3f805869	1.0026981
41	0x3f7d7d64	0.99019456
42	0x3f7e22af	0.9927167
43	0x3f7e6fd7	0.99389404
44	0x3f7e840e	0.9942025
45	0x3f7e917f	0.9944076
46	0x3f7d58bb	0.98963517
47	0x3f7d174b	0.9886367
48	0x3f7bbbd1	0.9833346
49	0x3f7ddab5	0.99161845
50	0x3f7cb285	0.987099
51	0x3f7fb988	0.99892473
52	0x3f800fb8	1.0004797
53	0x3f7ca3c9	0.98687416
54	0x3f7ac083	0.9795
55	0x3f789db5	0.9711564
56	0x3f801ff3	1.000975
57	0x3f7a9151	0.97877985
58	0x3f7e2add	0.99284154
59	0x3f7f3edf	0.9970531
60	0x3f7e00b5	0.9921983
61	0x3f7cb8c6	0.9871944
62	0x3f7e89a4	0.9942877
63	0x3f7e1466	0.99249876

bn2.bias f4 [64]
0	0x3eb3e087	0.35132238
1	0xbeac13f9	-0.33608988
2	0x3e998fd9	0.2999256
3	0x3ea2d037	0.3179948
4	0x3ebdb32e	0.37050766
5	0x3eab3342	0.33437544
6	0xbea61ec4	-0.32445347
7	0x3eb4ced2	0.3531404
8	0x3e9a84a2	0.30179316
9	0x3e98f929	0.29877594
10	0xbe97f826	-0.2968151
11	0xbea5a280	-0.3235054
12	0x3e960a20	0.293046
13	0x3e9bbf30	0.30419302
14	0x3ea1d261	0.3160582
15	0xbe98b313	-0.29824123
16	0xbea27e26	-0.3173687
17	0xbeacf3fb	-0.33779892
18	0xbea3a35b	-0.31960568
19	0xbeb83a0d	-0.3598179
20	0xbe9c2128	-0.30494046
21	0x3e99c308	0.3003161
22	0xbe9adba7	-0.30245706
23	0xbea7eadb	-0.32796368
24	0xbeab4218	-0.33448863
25	0xbe9ebccf	-0.31003425
26	0x3eb1cf11	0.34728292
27	0x3ea7ecbf	0.3279781
28	0x3eaf1c6a	0.34201366
29	0x3e9c14b4	0.30484545
30	0xbec9ef5c	-0.3944043
31	0xbea4575b	-0.32097897
32	0xbeb60a24	-0.35554612
33	0x3ec8cd91	0.39219335
34	0xbeac8182	-0.33692557
35	0x3e994afa	0.29940015
36	0x3ea027de	0.31280416
37	0x3e985861	0.29754928
38	0xbe97472c	-0.29546487
39	0x3e973640	0.29533577
40	0xbea585a6	-0.32328528
41	0xbe9d10be	-0.30676836
42	0x3eb16c9e	0.3465318
43	0x3eb789f8	0.3584745
44	0xbe9b740d	-0.30361977
45	0x3e9b77e7	0.30364916
46	0x3e968b05	0.29402938
47	0x3eb8e6ee	0.36113685
48	0x3eba23cd	0.3635544
49	0x3ea5e702	0.32402807
50	0xbebb2534	-0.3655182
51	0xbea26b1d	-0.31722346
52	0xbea50b9d	-0.32235423
53	0xbeac7c11	-0.33688405
54	0xbe9e011a	-0.30860215
55	0x3ea3967c	0.31950748
56	0xbebf3adc	-0.37349594
57	0xbeabb614	-0.33537352
58	0xbead505b	-0.3385037
59	0x3eadde04	0.33958447
60	0xbe99c461	-0.30032638
61	0x3e9d2aa8	0.30696607
62	0x3ea4e122	0.32203013
63	0x3e97a696	0.29619282

bn2.running_mean f4 [64]
0	0x3efa2175	0.4885365
1	0x3eafbcb7	0.34323665
2	0x3e8e4832	0.27789456
3	0x3ee4a7cd	0.44659272
4	0x3dd8700f	0.105682485
5	0x3e73f4a3	0.2382379
6	0x3dc324b2	0.095284835
7	0x3eb33fba	0.35009557
8	0x3ebc80aa	0.36816913
9	0x3dd846ba	0.10560365
10	0x3ea62905	0.3245317
11	0x3e77b154	0.24188739
12	0x3e9e8f59	0.3096874
13	0x3e9c6a93	0.3055006
14	0x3ea447e7	0.32086107
15	0x3e898b34	0.26864016
16	0x3ee4e2d2	0.447043
17	0x3ead88a3	0.33893308
18	0x3e1d13ab	0.15339534
19	0x3eb00a8b	0.34383044
20	0x3ed35a48	0.41279817
21	0x3e300bd0	0.17192006
22	0x3e9bd4b3	0.30435714
23	0x3ebe8fe2	0.3721915
24	0x3e811260	0.25209332
25	0x3e937801	0.28802493
26	0x3deb3a87	0.114857726
27	0x3eb5bb51	0.35494474
28	0x3e65d90a	0.22446075
29	0x3ef30a79	0.47468928
30	0x3e8bf1c1	0.2733288
31	0x3e971a21	0.29512122
32	0x3e62467f	0.22097205
33	0x3ed2782f	0.41107318
34	0x3e9de259	0.30836752
35	0x3eb6d096	0.35706013
36	0x3ea0996a	0.31367046
37	0x3edcca8e	0.43123287
38	0x3ebd7aae	0.3700766
39	0x3e30dcc6	0.17271718
40	0x3ef198b3	0.47186813
41	0x3e996e78	0.29967093
42	0x3ea648b8	0.32477355
43	0x3ece5b15	0.40303865
44	0x3e678fc7	0.2261344
45	0x3eb564f9	0.354286
46	0x3ef44971	0.4771228
47	0x3eb56a4d	0.35432664
48	0x3ecffed2	0.406241
49	0x3ed5ede8	0.4178307
50	0x3eaa53e1	0.3326712
51	0x3eecd31b	0.4625481
52	0x3e977466	0.29580992
53	0x3e629657	0.22127663
54	0x3e9893e3	0.2980033
55	0x3e723617	0.23653446
56	0x3e963676	0.29338425
57	0x3e69dd8a	0.22838417
58	0x3eddf5d2	0.4335161
59	0x3f12a3cb	0.5728118
60	0x3ec86908	0.39142632
61	0x3edd3c24	0.43209946
62	0x3e50e7d3	0.20400934
63	0x3e5991ad	0.21246977

bn2.running_var f4 [64]
0	0x3e435c35	0.19078143
1	0x3ee31bc8	0.44357133
2	0x3e296ac5	0.16544636
3	0x3eea09f4	0.4571072
4	0x3dffcf1d	0.124906756
5	0x3e039218	0.12848699
6	0x3dfc770e	0.123273954
7	0x3e81c19f	0.25343034
8	0x3ecfdea4	0.4059955
9	0x3e30dd19	0.17271842
10	0x3e79f62d	0.24410315
11	0x3dbc9358	0.09207791
12	0x3e44dc54	0.19224674
13	0x3e500212	0.2031329
14	0x3e8f7d61	0.28025344
15	0x3e2890e9	0.16461529
16	0x3f049284	0.51786065
17	0x3e1d2494	0.15345985
18	0x3eb4eb0b	0.35335574
19	0x3eebfeb0	0.4609275
20	0x3de53107	0.11190992
21	0x3dbc12ac	0.09183249
22	0x3e0a1d35	0.13487704
23	0x3e8273a0	0.2547884
24	0x3de003eb	0.10938247
25	0x3e970774	0.29497874
26	0x3e6b1613	0.2295764
27	0x3dd5cdc5	0.10439638
28	0x3dfbad85	0.122889556
29	0x3f095698	0.53647757
30	0x3e0a72b2	0.13520315
31	0x3d9c4dfc	0.07632062
32	0x3de0470d	0.10951052
33	0x3e4429f3	0.19156627
34	0x3e2a8157	0.16650902
35	0x3e89fbc1	0.26949885
36	0x3e15ef55	0.14642079
37	0x3e55efc8	0.2089225
38	0x3e963475	0.29336897
39	0x3d8e7c60	0.069573164
40	0x3e7bd1a6	0.24591693
41	0x3e52cee6	0.20586738
42	0x3e8ba838	0.27276778
43	0x3eb7c540	0.35892677
44	0x3edcd940	0.431345
45	0x3e3c1017	0.18365513
46	0x3f117a9c	0.5682771
47	0x3ed2c4c0	0.41165733
48	0x3ef744b5	0.48294607
49	0x3ef9520c	0.4869541
50	0x3db45185	0.08804611
51	0x3f0b6d15	0.5446332
52	0x3e31bfb1	0.1735828
53	0x3e1a150b	0.1504709
54	0x3db8d76c	0.090254635
55	0x3e17e3f2	0.14833048
56	0x3e4e7fc2	0.20165923
57	0x3e13bb19	0.14426841
58	0x3ec4fbe2	0.3847342
59	0x3ec7ca8e	0.39021724
60	0x3e137cf9	0.14403142
61	0x3e8a31f3	0.26991233
62	0x3dad0a3b	0.08449217
63	0x3df3f96e	0.11912809

fc3.weight f4 [1, 64]
0	0xbeaa5362	-0.3326674
1	0x3ebd8334	0.37014163
2	0xbec0e117	-0.3767173
3	0xbebf429d	-0.3735551
4	0xbea5ec4f	-0.32406852
5	0xbebd0785	-0.369198
6	0x3eb90f67	0.36144564
7	0xbeade189	-0.33961132
8	0xbedbe7ec	-0.4295038
9	0xbed7e22c	-0.42164743
10	0x3ed9518f	0.42445037
11	0x3ec24ea1	0.37950614
12	0xbed52768	-0.41631627
13	0xbec76e4e	-0.38951343
14	0xbebde85f	-0.37091348
15	0x3edefea9	0.43553665
16	0x3ec425e9	0.38310173
17	0x3ebab4f6	0.36466187
18	0x3ebcc76e	0.36870903
19	0x3eaed303	0.34145364
20	0x3eb52f88	0.35387826
21	0xbec09304	-0.37612164
22	0x3ec3a958	0.38215137
23	0x3ebb1ca1	0.3654528
24	0x3eb63b41	0.35592082
25	0x3ed648a2	0.4185229
26	0xbeb89ec1	-0.3605862
27	0xbeb003ce	-0.34377903
28	0xbeb4a24c	-0.35280073
29	0xbec8e9b6	-0.39240807
30	0x3ea34b07	0.3189318
31	0x3ec49844	0.3839742
32	0x3ea3e108	0.32007623
33	0xbea42be9	-0.3206475
34	0x3eb0af8b	0.3450893
35	0xbed453be	-0.4147014
36	0xbeb83718	-0.35979533
37	0xbedf9009	-0.43664578
38	0x3ee0a032	0.4387222
39	0xbec5919e	-0.3858766
40	0x3ebfd6cd	0.37468567
41	0x3ec4cf21	0.38439277
42	0xbeb2651e	-0.3484277
43	0xbeaa5f49	-0.33275822
44	0x3eced583	0.40397272
45	0xbec78d4a	-0.38974983
46	0xbee3ed43	-0.44516954
47	0xbeaaecaf	-0.333837
48	0xbeae6435	-0.34060827
49	0xbec248a8	-0.37946057
50	0x3eace1be	0.33765978
51	0x3ecbf8c4	0.3983823
52	0x3eb644bf	0.35599324
53	0x3eb8c113	0.36084804
54	0x3ece9f9e	0.40356153
55	0xbec66ea1	-0.38756278
56	0x3eaed272	0.34144932
57	0x3eb4c65c	0.35307586
58	0x3eb92641	0.36161998
59	0xbea9537d	-0.3307151
60	0x3ec077d3	0.3759142
61	0xbec92dac	-0.39292657
62	0xbec27b97	-0.37984917
63	0xbee188ee	-0.44049782
