PreTrained/cstr_ode/Deep_DQN/0_12/600.pth (torch, 43158 bytes, 13 tensors)

fc1.weight f4 [128, 4]
0.02243402 0.2452535 -0.40505278 -0.3904023 -0.17839539 0.11924556 -0.0063293297 0.4113226
-0.0463363 0.12624751 -0.14526469 -0.10311061 -0.4718919 -0.33118147 -0.20865148 0.024968823
0.18053582 0.314641 -0.35001752 -0.19952211 0.16981485 0.41880262 -0.10173266 0.3867542
-0.070945576 0.052418187 0.44923288 -0.4688578 -0.31798416 -0.11870252 -0.19777809 0.4248977
-0.30817616 -0.25031224 -0.34677544 -0.4707447 -0.28715992 0.40317196 0.2315307 0.2680248
0.01662055 -0.23936668 0.08692569 -0.47519717 -0.341897 -0.26542622 0.3294784 0.31424072
-0.24068457 0.0025012342 0.304008 0.4856052 0.19238341 0.05604614 0.322726 -0.28623942
0.08474565 -0.38273132 -0.3463321 -0.2573653 0.23135719 0.18833178 -0.2869464 0.16278005
0.2742926 -0.046606656 0.018854002 0.115483016 0.3099127 0.47006762 -0.36752746 -0.17704198
0.21580088 0.40059975 0.43659624 0.43437955 0.103096455 -0.4554306 0.046789005 -0.29580614
-0.45729432 0.43392235 0.39766005 -0.51484716 0.09358603 -0.084230006 -0.082280576 -0.22887844
0.18285017 -0.2830763 0.19241728 0.23593682 0.35062447 0.18648167 -0.49582642 -0.33634213
0.2662832 0.09872519 -0.3774919 -0.29492325 0.47037464 0.33690894 -0.21801257 -0.12584239
-0.4817032 0.0068538357 -0.37594995 -0.3753103 -0.024749802 0.07524495 -0.20979884 0.292163
-0.30378053 0.4458716 0.34013465 -0.43029428 -0.12668012 0.031105055 0.06257944 0.12607677
0.20124924 0.021243181 -0.24624917 0.21666078 -0.49135825 -0.26544765 -0.13982055 -0.22707503
-0.18505287 -0.39041805 -0.09848603 0.12808505 -0.3603034 -0.0018677751 0.33059528 -0.04959222
0.019737901 -0.037743296 0.11221714 0.31810424 0.4487384 0.33108106 0.49545595 -0.04047348
-0.4354793 -0.24674769 0.3534872 -0.023324346 -0.24166897 -0.39128765 -0.4642082 -0.42738822
-0.096770085 0.2594913 0.27464247 -0.4951396 0.31415796 -0.39153913 -0.107180595 -0.20225047
-0.08630716 -0.1041278 -0.44843853 -0.4263307 -0.09327261 0.021498956 -0.24217062 0.19787575
-0.45496908 -0.02554954 0.4246742 -0.21581829 0.4324873 0.19823521 -0.44766387 0.33508092
-0.0385587 -0.2384566 0.39755931 -0.40701914 0.051490843 -0.09117352 0.3580949 0.14081673
0.24027063 0.17295368 -0.119088545 -0.110989936 -0.41897807 0.2764918 0.38450617 0.34884155
-0.3633426 0.032953262 -0.3631218 -0.25753084 -0.26497984 0.1444999 -0.27158305 -0.0044672983
0.036781438 0.30206504 -0.37018815 -0.37164214 -0.28456244 0.3383311 -0.17067796 0.42165542
0.18080378 0.06331301 -0.003722012 -0.09884077 0.07562146 -0.10420174 0.0034608587 0.06457553
-0.39241076 -0.2519459 0.40819305 -0.4024786 -0.03681213 0.4893231 0.18571994 0.013437169
-0.43004444 0.23852423 -0.34813014 -0.14012766 -0.15028569 -0.09279718 -0.00094401697 0.3965653
0.088018194 0.4385087 0.30450907 -0.3172812 0.24009351 -0.35303235 -0.20594692 0.14060745
0.16652323 0.3736868 -0.1595307 0.0023705245 0.284237 -0.50558347 0.36227247 -0.41129255
0.0028196126 -0.07378008 -0.24114956 0.08352806 0.43956882 -0.17160247 -0.29236946 -0.16817099
00000000: 8dc7 b73c bc23 7b3e 1463 cfbe cfe2 c7be
00000010: 48ad 36be 0437 f43d 4466 cfbb e098 d23e
00000020: 22cb 3dbd 0747 013e 44c0 14be a82b d3bd
00000030: d19b f1be 9e90 a9be bca8 55be 6b8b cc3c
00000040: 62de 383e a018 a13e 7f35 b3be 864f 4cbe
00000050: f2e3 2d3e 4c6d d63e 3659 d0bd a604 c63e
00000060: ea4b 91bd 74b4 563d da01 e63e 210e f0be
00000070: d2ce a2be 4f1a f3bd 5786 4abe 318c d93e
00000080: 44c9 9dbe ed28 80be 8d8c b1be 7305 f1be
00000090: a006 93be 8e6c ce3e 6216 6d3e 8c3a 893e
000000a0: d227 883c 8a1c 75be 1906 b23d 0b4d f3be
000000b0: 200d afbe f2e5 87be 65b1 a83e 29e4 a03e
000000c0: 0476 76be bfeb 233b f0a6 9b3e 3fa1 f83e
000000d0: 2800 453e a390 653d 583c a53e f98d 92be
000000e0: 218f ad3d 5cf5 c3be 7152 b1be 62c5 83be
000000f0: e6e8 6c3e 0cda 403e a3ea 92be d0af 263e
00000100: 1470 8c3e 9fe6 3ebd b573 9a3c 5c82 ec3d
00000110: e1ac 9e3e b4ac f03e 8f2c bcbe 7e4a 35be
00000120: e8fa 5c3e 691b cd3e 8b89 df3e ff66 de3e
00000130: 3c24 d33d 332e e9be d4a5 3f3d e773 97be
00000140: 7b22 eabe 122b de3e 199a cb3e 06cd 03bf
00000150: 08aa bf3d c880 acbd b882 a8bd 1c5f 6abe
00000160: 133d 3b3e 60ef 90be 0909 453e 6c99 713e
00000170: 0d85 b33e 0df5 3e3e f6dc fdbe 0935 acbe
00000180: 4656 883e 6f30 ca3d 9e46 c1be 2e00 97be
00000190: f2d4 f03e 547f ac3e b03e 5fbe d4dc 00be
000001a0: cda1 f6be 2496 e03b 837c c0be ac28 c0be
000001b0: 19c0 cabc 061a 9a3d 82d5 56be 6496 953e
000001c0: 1f89 9bbe 4849 e43e 2126 ae3e 884f dcbe
000001d0: 6fb8 01be 07d0 fe3c a629 803d 451a 013e
000001e0: 4814 4e3e 2e06 ae3c be28 7cbe 53dc 5d3e
000001f0: 4f93 fbbe c1e8 87be 1e2d 0fbe 5b86 68be
00000200: 807e 3dbe e0e4 c7be 0bb3 c9bd ba28 033e
00000210: b079 b8be 22d0 f4ba c943 a93e 3621 4bbd
00000220: 61b1 a13c b798 1abd 1ad2 e53d 8fde a23e
00000230: 0ac1 e53e 7583 a93e 67ac fd3e 85c7 25bd
00000240: 25f7 debe 6dab 7cbe 46fc b43e b312 bfbc
00000250: 1278 77be db56 c8be b2ac edbe a1d2 dabe
00000260: 652f c6bd 0bdc 843e f09d 8c3e f082 fdbe
00000270: 50d9 a03e d177 c8be 8081 dbbd bf1a 4fbe
00000280: cfc1 b0bd f540 d5bd bc99 e5be 0448 dabe
00000290: b605 bfbd 941e b03c 93fb 77be f19f 4a3e
000002a0: b5f1 e8be 454d d1bc e66e d93e 78ff 5cbe
000002b0: fa6e dd3e 2cfe 4a3e 3334 e5be ba8f ab3e
000002c0: baef 1dbd f82d 74be e58c cb3e d064 d0be
000002d0: 10e8 523d 2fb9 babd 3758 b73e 4332 103e
000002e0: 8109 763e c51a 313e b2e4 f3bd b14e e3bd
000002f0: 4b84 d6be 5590 8d3e fedd c43e 5c9b b23e
00000300: 0b08 babe 00fa 063d 1aeb b9be 15db 83be
00000310: 70ab 87be c8f7 133e ef0c 8bbe 6a62 92bb
00000320: 22a8 163d 45a8 9a3e 4d89 bdbe e147 bebe
00000330: 2bb2 91be bc39 ad3e 34c6 2ebe 38e3 d73e
00000340: a024 393e 40aa 813d 00ed 73bb 086d cabd
00000350: 6ddf 9a3d b967 d5bd 93cf 623b 2d40 843d
00000360: 10ea c8be 0eff 80be aefe d03e ad11 cebe
00000370: 51c8 16bd 8f88 fa3e 5e2d 3e3e 9227 5c3c
00000380: c92e dcbe b23f 743e 1d3e b2be a07d 0fbe
00000390: 7ee4 19be 730c bebd e877 77ba 9b0a cb3e
000003a0: e242 b43d 3684 e03e 9de8 9b3e ae72 a2be
000003b0: 13db 753e a8c0 b4be c0e3 52be 66fb 0f3e
000003c0: 1185 2a3e e053 bf3e 045c 23be cd5a 1b3b
000003d0: 8387 913e eb6d 01bf c77b b93e f094 d2be
000003e0: 40c9 383b 031a 97bd e9ef 76be c210 ab3d
000003f0: 2a0f e13e 8fb8 2fbe 73b1 95be 0435 2cbe

fc1.bias f4 [128]
-0.11097846 -0.1709131 0.12662794 0.18508 -0.2402097 0.031899504 0.2908453 -0.059226107
0.16146718 -0.10617341 0.17325401 -0.34755674 -0.3138304 -0.27160782 0.4760639 -0.12891428
-0.019104175 -0.2603629 0.5097328 0.4888293 -0.35353345 -0.40533495 -0.38545346 -0.011776956
-0.116165034 -0.32727283 -0.19610763 0.09283975 -0.25956485 0.11075854 -0.12003734 -0.2427894
0.0683792 0.41020837 -0.33506796 0.016416445 -0.17134929 0.4916707 -0.46583694 -0.47818178
0.49788377 -0.30131146 0.09992736 -0.06391935 -0.093399316 -0.10964495 0.31954178 0.014589759
-0.47615254 -0.32155362 -0.1316182 0.27010134 -0.32356685 0.47172046 -0.11670332 -0.082916185
0.3975431 0.26841027 0.42823645 0.2901658 -0.15310417 -0.31461442 -0.039222226 0.4138048
-0.1517683 -0.47893068 0.17302093 0.48809084 -0.16788529 -0.44165072 -0.46354982 0.12164
-0.038186792 -0.24256918 0.05264949 0.18409634 0.3861848 0.36928454 -0.08976244 -0.44088358
-0.45181155 0.46620053 0.21182546 0.21181108 -0.41876364 0.48005548 0.47756124 0.45794293
-0.4217925 -0.17688325 -0.33146822 0.49134365 -0.22950733 -0.23264264 0.27904415 -0.22705925
-0.26054025 -0.02313994 -0.051604472 -0.38584188 0.42210817 -0.22648114 0.19418769 0.43483156
0.24827968 0.06683404 0.4312867 0.08039385 -0.21443832 0.48011225 0.114655256 -0.46257266
-0.14430378 -0.31888694 0.44408756 -0.062397167 -0.45576245 -0.023210138 0.31430757 0.1400899
0.1693198 0.054248977 0.18370193 -0.14177588 -0.20482905 -0.47012305 -0.36700562 0.2113766
00000000: ad48 e3bd d803 2fbe c1aa 013e 9d85 3d3e
00000010: 88f9 75be 0ea9 023d ade9 943e 1397 72bd
00000020: a757 253e 7271 d9bd 8069 313e f5f2 b1be
00000030: 61ae a0be 2e10 8bbe a6be f33e 1b02 04be
00000040: 5c80 9cbc 494e 85be d97d 023f d647 fa3e
00000050: 5602 b5be 1088 cfbe 285a c5be 22f4 40bc
00000060: efe7 edbd 4e90 a7be 70d0 48be c422 be3d
00000070: afe5 84be 60d5 e23d 23d6 f5bd c99d 78be
00000080: 650a 8c3d d506 d23e 078e abbe c87b 863c
00000090: 3076 2fbe 43bc fb3e 2e82 eebe 3ed4 f4be
000000a0: 9fea fe3e 7f45 9abe b7a6 cc3d 26e8 82bd
000000b0: 2448 bfbd 888d e0bd fb9a a33e e209 6f3c
000000c0: 44ca f3be ada2 a4be ecc6 06be b94a 8a3e
000000d0: 8eaa a5be 5885 f13e 2602 efbd f6cf a9bd
000000e0: c58a cb3e 126d 893e cf41 db3e 9d90 943e
000000f0: 57c7 1cbe 2415 a1be 7ca7 20bd 39de d33e
00000100: 2669 1bbe 6736 f5be 662c 313e 0be7 f93e
00000110: 1fea 2bbe 0b20 e2be 6756 edbe 641e f93d
00000120: c169 1cbd 0e64 78be fea6 573d c083 3c3e
00000130: 04ba c53e dd12 bd3e 5fd5 b7bd 7ebb e1be
00000140: d853 e7be d6b1 ee3e c6e8 583e 01e5 583e
00000150: 3068 d6be d5c9 f53e e882 f43e 7f77 ea3e
00000160: 30f5 d7be e220 35be 34b6 a9be 6591 fb3e
00000170: f803 6bbe df39 6ebe e0de 8e3e 3882 68be
00000180: 8865 85be f98f bdbc 365f 53bd 118d c5be
00000190: 901e d83e acea 67be 23d9 463e 3ea2 de3e
000001a0: 073d 7e3e 49e0 883d 9cd1 dc3e 88a5 a43d
000001b0: b895 5bbe 46d1 f53e 60d0 ea3d 53d6 ecbe
000001c0: 5fc4 13be 2645 a3be 725f e33e 2c94 7fbd
000001d0: b259 e9be 3023 bebc ecec a03e ba73 0f3e
000001e0: 2b62 2d3e 2d34 5e3d 5c1c 3c3e b22d 11be
000001f0: b5be 51be f8b3 f0be 29e8 bbbe 1c73 583e

bn1.weight f4 [128]
0.99993116 1.0016248 1.0021735 1.0101548 0.9938317 0.99936396 0.99731594 1.0128952
0.9957397 1.006536 1.0128365 1.0086361 1.0026383 1.000536 0.9966388 0.9831109
1.0013641 0.9943168 1.0089947 1.01036 1.0023568 1.0 1.0068234 0.99853307
1.0157428 1.0 0.9990661 1.0023239 0.99182945 0.9934155 1.0034366 0.9898869
0.99567825 1.0106481 0.99358064 0.9994018 0.9972527 1.0099751 1.0081981 0.9970043
0.9956519 0.9870998 0.99995124 0.9934708 0.9975359 0.99439967 0.9961515 1.0042034
0.986013 0.9887953 0.99669474 1.0034747 1.0 1.0083233 0.9920265 0.98273015
1.0058527 1.0074904 1.0026354 1.0046073 1.001242 0.9998101 1.0064483 1.0225266
1.0005188 0.97748023 1.0089575 1.0000807 1.0155325 1.0030521 0.98910147 0.9987971
1.0037661 0.98006505 1.0022298 1.020425 0.9997372 1.0064569 1.0130727 1.0
1.0 1.0024462 0.99841225 1.0114689 1.0140718 1.002389 0.9978892 1.005709
1.0 0.99980885 0.96753526 1.0070751 0.9882869 0.99487525 0.99711746 0.99765956
0.99367803 0.9763945 1.0056839 0.9866851 1.0007781 0.99543726 0.99031746 1.010735
0.98437375 0.99667436 0.9961051 1.0076233 0.9905032 1.0046405 1.0092839 0.994833
1.0063493 1.0037401 1.0021288 0.99660474 1.0 1.0055873 0.9987186 0.9968244
1.0023261 0.9999147 1.0067583 0.99399096 1.0060418 0.99729 0.9957029 1.0055295
00000000: 7dfb 7f3f 3e35 803f 3947 803f c14c 813f
00000010: c16b 7e3f 51d6 7f3f 1950 7f3f 8da6 813f
00000020: cce8 7e3f 2cd6 803f a0a4 813f fd1a 813f
00000030: 7456 803f 9011 803f b823 7f3f 28ad 7b3f
00000040: b32c 803f 8c8b 7e3f bd26 813f 7a53 813f
00000050: 3a4d 803f 0000 803f 97df 803f dd9f 7f3f
00000060: dc03 823f 0000 803f ccc2 7f3f 264c 803f
00000070: 89e8 7d3f 7a50 7e3f 9c70 803f 3a69 7d3f
00000080: c5e4 7e3f eb5c 813f 4d5b 7e3f ccd8 7f3f
00000090: f44b 7f3f dd46 813f a30c 813f ac3b 7f3f
000000a0: 0be3 7e3f 93b2 7c3f cefc 7f3f 1a54 7e3f
000000b0: 835e 7f3f fa90 7e3f c903 7f3f bd89 803f
000000c0: 596b 7c3f b021 7d3f 6327 7f3f dc71 803f
000000d0: 0000 803f bd10 813f 73f5 7d3f 3494 7b3f
000000e0: c8bf 803f 72f5 803f 5b56 803f f996 803f
000000f0: b328 803f 8ef3 7f3f 4cd3 803f 27e2 823f
00000100: 0011 803f 253c 7a3f 8525 813f a502 803f
00000110: f8fc 813f 0364 803f c135 7d3f 2bb1 7f3f
00000120: 687b 803f 8be5 7a3f 1149 803f 499d 823f
00000130: c7ee 7f3f 94d3 803f 5eac 813f 0000 803f
00000140: 0000 803f 2850 803f f297 7f3f d077 813f
00000150: 1bcd 813f 484e 803f ab75 7f3f 13bb 803f
00000160: 0000 803f 79f3 7f3f 64b0 773f d6e7 803f
00000170: 5f00 7d3f 25b0 7e3f 1743 7f3f 9e66 7f3f
00000180: af61 7e3f fdf4 793f 40ba 803f 6597 7c3f
00000190: 7f19 803f fad4 7e3f 7285 7d3f c45f 813f
000001a0: ebff 7b3f 0d26 7f3f be00 7f3f cdf9 803f
000001b0: 9e91 7d3f 0f98 803f 3730 813f 60ad 7e3f
000001c0: 0ed0 803f 8e7a 803f c245 803f 7d21 7f3f
000001d0: 0000 803f 16b7 803f 06ac 7f3f e22f 7f3f
000001e0: 394c 803f 69fa 7f3f 75dd 803f 3176 7e3f
000001f0: fac5 803f 664e 7f3f 63e6 7e3f 31b5 803f

bn1.bias f4 [128]
-0.0047931126 -0.0049784365 -0.01248209 0.022715451 0.0010253248 -0.025009451 -0.007409908 -0.0034148223
0.01143233 0.02077674 0.01964371 -0.0010919063 0.015908716 0.017688688 -0.01864812 0.02187058
-0.010505009 0.005548639 -0.009447955 -0.002647962 -0.015656726 -0.009322005 0.017453857 -0.008461339
-0.013304293 0.015968041 0.011905911 -0.02039231 0.0047554746 0.014468725 0.0018809554 0.012254601
-0.0025622484 0.01706526 -0.000114738556 0.012411188 -0.010159743 -0.013679644 -0.009316081 0.01389751
-0.009169082 -0.018383147 -0.0003224549 -0.01928544 -0.011949428 -0.0070559056 -0.0011024866 -0.008394259
-0.009215865 -0.0032389828 -0.005473974 0.024448253 -0.006954776 0.0035494624 0.0040402836 -0.013976108
0.004511574 0.0064206924 -0.0060549914 -0.01769241 0.010469996 -0.0053382674 0.0022156045 -0.018580101
-0.009995835 -0.009078855 -0.013029287 0.005408221 0.002534351 -0.0012885933 0.00799404 0.0066462713
0.009878695 -0.02244427 -0.00082589657 -0.0025909126 -0.006716695 -0.0009280818 0.0015591384 0.011782672
0.016428296 -8.840654e-05 -0.0109141655 -0.0045028194 -0.01213437 -0.006450539 0.0014456633 -0.009292584
0.008366943 -0.005520947 0.005186218 -0.0059158886 -0.019657625 0.025477642 0.00059187773 0.01065603
-0.010842508 0.013397161 0.009438402 -0.010933151 -0.0028450014 -0.0124872755 0.0029074834 -0.0052906596
0.024541711 0.0034713617 -0.018942825 -0.0044882786 -0.024906872 -0.016874574 -0.008447406 0.009647178
-0.009369032 0.0018652253 -0.004265726 -0.009666475 -0.018075442 -0.0032651864 -0.007786887 -0.00792842
-0.0058804112 0.0054139686 -0.00675547 0.007853193 -0.011199936 0.0066476646 -0.00064116507 0.012314528
00000000: 8b0f 9dbb 2722 a3bb ae81 4cbc c115 ba3c
00000010: 3164 863a 9fe0 ccbc d0ce f2bb 36cb 5fbb
00000020: ab4e 3b3c fb33 aa3c d9eb a03c 4c1e 8fba
00000030: ff52 823c dee7 903c f1c3 98bc ee29 b33c
00000040: 341d 2cbc 5cd1 b53b 98cb 1abc 6e89 2dbb
00000050: 8942 80bc 53bb 18bc 64fb 8e3c 6ea1 0abc
00000060: 40fa 59bc 69cf 823c 0311 433c c60d a7bc
00000070: d0d3 9b3b 3b0e 6d3c 648a f63a 86c7 483c
00000080: 65eb 27bb 72cc 8b3c cb9f f0b8 4c58 4b3c
00000090: 0d75 26bc 9620 60bc 7aa2 18bc 62b2 633c
000000a0: eb39 16bc 4198 96bc 2a0f a9b9 80fc 9dbc
000000b0: 89c7 43bc 3a35 e7bb 5081 90ba 1388 09bc
000000c0: 24fe 16bc 1d45 54bb 065f b3bb b447 c83c
000000d0: e4e4 e3bb 199e 683b 5b64 843b 0cfc 64bc
000000e0: d3d5 933b ac64 d23b f368 c6bb acef 90bc
000000f0: 598a 2b3c a2ec aebb ad33 113b 4c35 98bc
00000100: 92c5 23bc 7abf 14bc ca78 55bc 7237 b13b
00000110: 5b17 263b 04e6 a8ba 6ff9 023c f7c8 d93b
00000120: 40da 213c 0cdd b7bc fb80 58ba 4dcc 29bb
00000130: b917 dcbb 844a 73ba 015c cc3a 1c0c 413c
00000140: a294 863c e666 b9b8 54d1 32bc 638c 93bb
00000150: 3dcf 46bc 0b5f d3bb 697c bd3a ec3f 18bc
00000160: 8115 093c 0fe9 b4bb 26f1 a93b 12da c1bb
00000170: 0709 a1bc 7db6 d03c 3e28 1b3a a196 2e3c
00000180: c6a4 31bc c47f 5b3c 87a3 1a3c f520 33bc
00000190: 3473 3abb 6e97 4cbc 7a8b 3e3b 455d adbb
000001a0: b30b c93c c97f 633b fc2d 9bbc 6912 93bb
000001b0: 7f09 ccbc 8c3c 8abc fd66 0abc 330f 1e3c
000001c0: 9280 19bc 937a f43a 81c7 8bbb 2260 1ebc
000001d0: f312 94bc bdfc 55bb 2529 ffbb 34e6 01bc
000001e0: 77b0 c0bb a967 b13b fd5c ddbb aeaa 003c
000001f0: f07f 37bc a7d4 d93b dc13 28ba e0c2 493c

bn1.running_mean f4 [128]
0.015356756 0.032759454 0.032972608 0.049807966 0.0013312368 0.13441782 0.43369538 0.055811044
0.066067584 0.030473528 0.21913382 0.02428855 0.057816762 0.062886 0.3275689 0.013439959
0.12108807 0.0011683895 0.84530187 0.56101626 0.021356303 0.0 0.020677844 0.036104146
0.015608469 0.0 0.0057492335 0.10279734 0.026664611 0.1247935 0.029802145 0.0010664206
0.0666831 0.45542258 0.0058881594 0.37948588 0.029992575 0.204108 0.010177208 1.6612939e-06
0.21611512 0.0001917474 0.19221288 0.087654 0.17812216 0.17413482 0.28587016 0.16588806
0.0009109777 0.0005706885 0.011638554 0.19122621 0.0 0.52996933 0.1038706 0.008926158
0.09519004 0.3271751 0.48404628 0.34801155 0.00020803115 0.13539334 0.011575896 0.39857206
0.0054401397 1.3944741e-05 0.22436535 0.42224702 0.007248113 4.29281e-08 0.00019574066 0.075210065
0.019077362 0.0037292857 0.31186163 0.06543425 0.576945 0.20999709 0.20345005 0.0
0.0 0.69050056 0.1241155 0.2163037 0.09617836 0.75574166 0.46289653 0.35292432
0.0 0.0022401027 0.0032574628 0.6418077 0.0015079101 0.0037853555 0.6320151 0.22420618
0.041369542 0.0025028368 0.049516138 0.014436144 0.49674982 0.29869035 0.042792648 0.36873353
0.3536982 0.20012642 0.4768395 0.0440808 0.0035976258 0.6187458 0.11437319 0.0002469274
0.2535196 0.044853956 0.19628838 0.03410227 0.0 0.18775779 0.41160408 0.050785895
0.09963312 0.23240623 0.17288652 0.2422819 0.13970996 6e-45 0.047640964 0.16648792
00000000: e79a 7b3c c72e 063d 490e 073d 7003 4c3d
00000010: e57c ae3a d3a4 093e 520d de3e 1f9a 643d
00000020: 714e 873d 9fa3 f93c 9e64 603e c8f8 c63c
00000030: 45d1 6c3d 60ca 803d 1cb7 a73e 4633 5c3c
00000040: 06fd f73d a524 993a b465 583f c39e 0f3f
00000050: 6af3 ae3c 0000 0000 9564 a93c f1e1 133d
00000060: aaba 7f3c 0000 0000 1164 bc3b 6987 d23d
00000070: be6f da3c bc93 ff3d a123 f43c 23c7 8b3a
00000080: 2691 883d 262d e93e 76f1 c03b f94b c23e
00000090: fdb2 f53c b001 513e 4ebe 263c a0f9 de35
000000a0: 484d 5d3e cd0f 4939 74d3 443e f183 b33d
000000b0: a865 363e 6650 323e 935d 923e 8fde 293e
000000c0: aece 6e3a 429a 153a a2af 3e3c ced0 433e
000000d0: 0000 0000 12ac 073f 1cba d43d 053f 123c
000000e0: fff2 c23d 7f83 a73e ead4 f73e 922e b23e
000000f0: f022 5a39 8da4 0a3e d4a8 3d3c a311 cc3e
00000100: 3343 b23b 35f4 6937 08c0 653e c330 d83e
00000110: 9481 ed3b f25f 3833 bc3f 4d39 bc07 9a3d
00000120: 2148 9c3c 0867 743b 54ac 9f3e 6402 863d
00000130: abb2 133f 7a09 573e 3655 503e 0000 0000
00000140: 0000 0000 a5c4 303f 4430 fe3d b87e 5d3e
00000150: 29f9 c43d 4978 413f c600 ed3e 7fb2 b43e
00000160: 0000 0000 b0ce 123b 287b 553b 824d 243f
00000170: 11a5 c53a ba13 783b becb 213f 4e96 653e
00000180: 1c73 293d a206 243b 6fd1 4a3d 9485 6c3c
00000190: fe55 fe3e f1ed 983e 5847 2f3d a4ca bc3e
000001a0: ee17 b53e f1ed 4c3e 4f24 f43e 128e 343d
000001b0: 25c6 6b3b 2066 1e3f 7e3c ea3d 0976 8139
000001c0: 52cd 813e c8b8 373d d2ff 483e d2ae 0b3d
000001d0: 0000 0000 9443 403e c5bd d23e df04 503d
000001e0: 730c cc3d e6fb 6d3e 2a09 313e bf18 783e
000001f0: 2110 0f3e 0400 0000 2c23 433d cf7b 2a3e

bn1.running_var f4 [128]
0.0036200054 0.0025498008 0.0036531375 0.0055097505 0.00030828585 0.021617536 0.11889483 0.009112657
0.021790909 0.0033547105 0.058745146 0.0026734937 0.009389869 0.012345871 0.042065352 0.00074224407
0.005023314 0.00023867388 0.10122708 0.037918754 0.0036462403 6e-45 0.0018960638 0.00949481
0.0027119957 6e-45 0.0022306358 0.017747052 0.004711263 0.005130921 0.0027839094 0.000143141
0.005214439 0.025421325 0.000328606 0.071823396 0.0011217424 0.06437416 0.0011817042 1.0768686e-08
0.0643042 1.67085e-05 0.03211314 0.019527862 0.046584267 0.023616204 0.0061281584 0.02658322
0.00017845088 3.9085295e-05 0.0025559252 0.040893912 6e-45 0.0018805467 0.026843859 0.00040396856
0.022175655 0.04799278 0.06817248 0.018770114 5.1983093e-06 0.03728559 0.00055068 0.02193895
0.0019151289 2.39672e-07 0.012508379 0.02548023 0.0026088217 2.8341443e-10 2.1672146e-05 0.009512967
0.0015082028 0.00029262895 0.0349328 0.008544419 0.019663285 0.037437316 0.02584565 6e-45
6e-45 0.026687663 0.039763603 0.03634612 0.021034755 0.060607977 0.02997071 0.0649782
6e-45 0.00062874553 0.00031854663 0.1314343 0.00039213643 0.0014685965 0.07616876 0.037115198
0.0053952867 0.00020562294 0.0075184167 0.0009994778 0.092227004 0.06059413 0.006056717 0.027810257
0.059639983 0.017630497 0.048631657 0.006200697 0.00026809153 0.108873785 0.016809484 2.2595543e-05
0.041014254 0.006971491 0.038157802 0.005401326 6e-45 0.030068845 0.10411912 0.008516186
0.022069395 0.028126607 0.004885914 0.047596224 0.027986854 6e-45 0.005106824 0.026216453
00000000: 9d3d 6d3b 8f1a 273b 7a69 6f3b 238b b43b
00000010: 6da1 a139 4217 b13c 227f f33d 414d 153c
00000020: d982 b23c b4da 5b3b c09e 703d c835 2f3b
00000030: f7d7 193c 5646 4a3c b84c 2c3d 2893 423a
00000040: 9d9a a43b 8844 7a39 2550 cf3d b250 1b3d
00000050: c3f5 6e3b 0400 0000 5885 f83a 1f90 1b3c
00000060: bdbb 313b 0400 0000 dc2f 123b 4462 913c
00000070: f060 9a3b 4921 a83b 4072 363b 1f18 1639
00000080: e2dd aa3b 6240 d03c c048 ac39 2518 933d
00000090: 6e07 933a 99d6 833d 6ae3 9a3a 2f01 3932
000000a0: ecb1 833d 3b29 8c37 1189 033d e5f8 9f3c
000000b0: 25cf 3e3d c576 c13c b8ce c83b 0ec5 d93c
000000c0: 8b1e 3b39 84ef 2338 4f81 273b 6080 273d
000000d0: 0400 0000 ad7c f63a a7e7 db3c becb d339
000000e0: b8a9 b53c 1494 443d 039e 8b3d c8c3 993c
000000f0: 236d ae36 c6b8 183d 825b 103a 50b9 b33c
00000100: 1005 fb3a 45ac 8034 f2ef 4c3c eabb d03c
00000110: c4f8 2a3b 09cf 9b2f 94cc b537 47dc 1b3c
00000120: e3ae c53a fe6b 9939 b215 0f3d e4fd 0b3c
00000130: e614 a13c df57 193d 42ba d33c 0400 0000
00000140: 0400 0000 16a0 da3c 29df 223d abdf 143d
00000150: 1451 ac3c 1240 783d 2285 f53c 4a13 853d
00000160: 0400 0000 66d2 243a 9b02 a739 b796 063e
00000170: a997 cd39 ec7d c03a 5efe 9b3d 1b06 183d
00000180: f2ca b03b 7d9c 5739 0d5d f63b e900 833a
00000190: 83e1 bc3d 8d31 783d 6d77 c63b 56d2 e33c
000001a0: 0e49 743d d56d 903c fd31 473d 372f cb3b
000001b0: a38e 8c39 38f9 de3d 0bb4 893c 8f8b bd37
000001c0: 90fe 273d 1b71 e43b 5b4b 1c3d 9bfd b03b
000001d0: 0400 0000 f052 f63c 683c d53d 7987 0b3c
000001e0: e0ca b43c c569 e63c 041a a03b 42f4 423d
000001f0: b044 e53c 0400 0000 2557 a73b e3c3 d63c

fc2.weight f4 [64, 128]
-0.058620714 0.015799057 0.019943792 -0.002408657 -0.059809268 0.085210994 -0.05032548 0.06482431
-0.0787921 -0.020865437 0.04684876 -0.032106508 0.073623195 -0.06382403 -0.0814437 -0.054185376
0.010295045 0.07712499 -0.038670197 0.029866315 -0.013161827 -0.029928312 0.066141285 -0.07268321
0.0050720866 0.09707893 -0.028851919 0.06294985 -0.026951727 0.07054805 -0.09729259 -0.022059333
-0.01955397 0.036870867 0.04189641 0.0756896 -0.006520284 -0.007357402 0.060339015 -0.034095287
0.07794942 -0.053358458 -0.007036513 -0.016479662 0.036851723 0.06744445 -0.013293486 -0.0723066
0.05300425 0.025039835 0.027907832 -0.05490678 0.052680563 0.07878102 0.0035874005 -0.08516796
0.053149816 -0.06849171 0.024122598 0.005413793 -0.03993065 0.025917806 -0.09051256 0.010431003
-0.07431292 0.011019286 0.006159244 0.07372012 -0.055633247 0.052538253 -0.015617863 -0.04657994
-0.09224654 -0.075297296 0.0818569 -0.034913607 -0.00022030309 0.012126586 0.058151145 0.08806429
0.07076297 -0.050565943 -0.012811458 -0.056808792 -0.050503477 0.02483862 0.08914558 -0.07100185
0.06253302 -0.048722874 -0.030392718 0.07284717 -0.03634304 -0.004165521 -0.058684792 0.0733249
-0.010934377 -0.06265289 0.013140341 -0.07304965 -0.0725375 0.0030459615 0.060749955 -0.03533212
0.03936197 0.07136716 0.05751657 -0.06294429 -0.01331079 -0.029033909 -0.07098155 0.0034871295
0.06508483 0.06295027 0.00034946034 0.016782545 -0.04806158 0.06471586 -0.036886897 -0.07656315
0.0009767005 0.057359975 -0.08629379 0.08175774 0.027931562 -0.058597475 -0.025365436 0.077522315
-0.059762068 -0.019339457 0.030726027 -0.077783786 0.055744424 0.047802955 0.057417948 -0.05168358
0.09050504 -0.036368333 0.09365185 -0.08238087 -0.08720426 0.056141928 0.010846325 0.0076459595
-0.065563716 -0.034031097 -0.028250089 -0.0848859 -0.0049109035 0.022896923 -0.002755229 0.030890273
0.09091447 0.012235797 -0.023504764 -0.030559007 -0.058687594 -0.05916231 -0.007276303 -0.031888
0.032914083 -0.036512587 0.07128588 -0.06369219 -0.00077946635 0.07978132 0.08969169 -0.048947565
0.015180401 0.009183393 -0.039564498 -0.024908384 0.028701441 -0.062470715 0.013967367 0.03649567
-0.037759114 0.0679273 0.00522111 0.041048877 0.0883231 -0.033483252 0.05252955 -0.002335594
-0.011228792 -0.011088271 0.0007731545 -0.035942864 0.013498869 0.008297626 0.05243173 -0.016957566
0.014838334 -0.028621545 -0.0770671 0.035523094 0.017487373 -0.035720665 -0.020730486 0.024368955
-0.019069532 0.057119403 0.0054263496 0.030283311 0.037932817 -0.020906163 0.044457175 0.053935256
0.005201676 0.015407876 0.0027057475 0.05639821 -0.04591547 -0.048527822 0.037136357 -0.08151696
-0.009702143 -0.048136394 0.05741225 -0.08127353 0.056412708 0.090425745 0.013746928 -0.0014253589
0.07937232 -0.038224835 -0.0044078305 -0.026081927 -0.015199297 0.020609418 0.014390106 -0.015892573
-0.081297934 0.0009312755 -0.0053402903 0.009689547 0.074258 0.088250645 -0.04458675 -0.013052576
-0.034376904 -0.070411526 -0.063785836 0.086645976 0.047563776 0.052006695 0.04991236 -0.075708896
0.0111701675 0.07777834 -0.050468937 0.077322565 0.027022697 0.06492056 -0.020561727 0.04237061
00000000: 461c 70bd 066d 813c 2a61 a33c 8fda 1dbb
00000010: 90fa 74bd 1a83 ae3d 1722 4ebd 9cc2 843d
00000020: c15d a1bd feed aabc 7ce4 3f3d 1d82 03bd
00000030: c2c7 963d 2cb6 82bd f4cb a6bd 7cf1 5dbd
00000040: 8cac 283c b5f3 9d3d a464 1ebd 34aa f43c
00000050: b4a4 57bc 382c f5bc 1575 873d efda 94bd
00000060: bf33 a63b 51d1 c63d dc5a ecbc daeb 803d
00000070: dec9 dcbc 7f7b 903d 5641 c7bd c6b5 b4bc
00000080: a62f a0bc e805 173d 929b 2b3d 2603 9b3d
00000090: 1ba8 d5bb 5c16 f1bb 0b26 773d 80a7 0bbd
000000a0: f2a3 9f3d 668e 5abd 8d92 e6bb 5b00 87bc
000000b0: d5f1 163d 5120 8a3d eccc 59bc 7c15 94bd
000000c0: fc1a 593d 5720 cd3c f79e e43c efe5 60bd
000000d0: 93c7 573d f257 a13d 981a 6b3b 8a6c aebd
000000e0: 9fb3 593d 6245 8cbd c19c c53c 3066 b13b
000000f0: 528e 23bd 9451 d43c a65e b9bd cce6 2a3c
00000100: 5f31 98bd 3c8a 343c 7cd3 c93b 93fa 963d
00000110: b0df 63bd 5a32 573d 11e2 7fbc 9bca 3ebd
00000120: c1eb bcbd 7835 9abd 97a4 a73d 9201 0fbd
00000130: 2901 67b9 97ae 463c e52f 6e3d 0d5b b43d
00000140: 2dec 903d 3c1e 4fbd 26e7 51bc 56b0 68bd
00000150: bcdc 4ebd 5d7a cb3c f591 b63d 6b69 91bd
00000160: 5011 803d a391 47bd 26fa f8bc e630 953d
00000170: 71dc 14bd ec7e 88bb 775f 70bd 5d2b 963d
00000180: 1a26 33bc 2950 80bd 964a 573c 0e9b 95bd
00000190: 8a8e 94bd c19e 473b f2d4 783d 6ab8 10bd
000001a0: 043a 213d f228 923d 7f96 6b3d f0e8 80bd
000001b0: 8015 5abc 85d8 edbc c65e 91bd 5388 643b
000001c0: 324b 853d 12ec 803d c637 b739 8c7b 893c
000001d0: 38dc 44bd c089 843d b716 17bd 24cd 9cbd
000001e0: a104 803a 4bf2 6a3d ccba b0bd 9a70 a73d
000001f0: bbd0 e43c e803 70bd 2dcb cfbc 05c4 9e3d
00000200: 12c9 74bd c86d 9ebc 26b5 fb3c 1b4d 9fbd
00000210: 4454 643d 08cd 433d 152f 6b3d 29b2 53bd
00000220: b55a b93d f6f6 14bd 8bcc bf3d 4db7 a8bd
00000230: 2698 b2bd 14f5 653d c9b4 313c f58a fa3b
00000240: 4546 86bd 3164 0bbd bb6c e7bc a9d8 adbd
00000250: a5eb a0bb 5492 bb3c 1291 34bb 990d fd3c
00000260: 5e31 ba3d a778 483c 108d c0bc e256 fabc
00000270: 6762 70bd 2e54 72bd 0e6e eebb fe9c 02bd
00000280: ebd0 063d 398e 15bd 55fe 913d 0d71 82bd
00000290: 1a55 4cba 6464 a33d 47b0 b73d 3e7d 48bd
000002a0: 37b7 783c f175 163c 620e 22bd ab0c ccbc
000002b0: 491f eb3c 4be1 7fbd 62d7 643c 7c7c 153d
000002c0: 4da9 1abd 781d 8b3d d815 ab3b de22 283d
000002d0: bee2 b43d bc25 09bd 3a29 573d c410 19bb
000002e0: f8f8 37bc 94ab 35bc 85ad 4a3a d338 13bd
000002f0: 5c2a 5d3c c4f2 073c a7c2 563d 98ea 8abc
00000300: 7c1c 733c bb77 eabc 5bd5 9dbd aa80 113d
00000310: ae41 8f3c d54f 12bd fbd2 a9bc 67a1 c73c
00000320: b537 9cbc 09f6 693d 85cf b13b b514 f83c
00000330: 715f 1b3d 6743 abbc ba18 363d 37eb 5c3d
00000340: d272 aa3b 5171 7c3c e952 313b cf01 673d
00000350: dc11 3cbd 1cc5 46bd 4b1c 183d 5df2 a6bd
00000360: bdf5 1ebc ab2a 45bd 1c29 6b3d bd72 a6bd
00000370: 0311 673d 2231 b93d cc3a 613c 1cd3 baba
00000380: f48d a23d a591 1cbd 906f 90bb c4a9 d5bc
00000390: 7906 79bc 15d5 a83c 7bc4 6b3c 2431 82bc
000003a0: 887f a6bd d720 743a 9afd aebb e8c0 1e3c
000003b0: 9414 983d c1bc b43d 99a0 36bd 79da 55bc
000003c0: ccce 0cbd eb33 90bd 26a2 82bd 7273 b13d
000003d0: 3cd2 423d f904 553d e770 4c3d 440d 9bbd
000003e0: 1403 373c 404a 9f3d 84b8 4ebd 4b5b 9e3d
000003f0: b45e dd3c 12f5 843d 1171 a8bc ce8c 2d3d

fc2.bias f4 [64]
0.022833124 0.06439204 0.058591545 -0.03989047 -0.04494345 0.030285008 -0.063535094 -0.001221426
0.028554091 -0.037935574 0.032144938 0.0078803 0.09245253 -0.06551602 0.08168592 0.05181188
-0.08044448 0.013679933 -0.013660606 0.031170866 0.05898288 -0.049787864 -0.046798803 -0.050380293
0.07081696 -0.061848674 -0.056207236 0.08587976 0.042280965 0.061825465 0.078738846 -0.063980274
-0.018112792 -0.010678102 0.08885589 -0.019912524 0.0002380642 0.063780926 0.05911773 -0.06396969
-0.062524445 -0.024600318 0.028053394 0.088619776 0.031476833 0.061144177 0.035335958 -0.023953263
-0.018302243 0.06911909 0.031581037 0.026054466 0.052384067 0.034273546 0.025922624 -0.003471788
-0.036461174 -0.045457955 -0.03710071 0.07221923 0.06956317 -0.03590367 0.040776853 -0.018850716
00000000: 880c bb3c f9df 833d b0fd 6f3d 3164 23bd
00000010: 9f16 38bd 4418 f83c b01e 82bd 4118 a0ba
00000020: 45ea e93c 5562 1bbd 69aa 033d 601c 013c
00000030: c157 bd3d 432d 86bd f34a a73d b238 543d
00000040: 13c0 a4bd cc21 603c bcd0 5fbc 0b5a ff3c
00000050: 0898 713d 5cee 4bbd 1ab0 3fbd 915b 4ebd
00000060: 7b08 913d 0955 7dbd 8f39 66bd bae1 af3d
00000070: ce2e 2d3d b33c 7d3d d541 a13d 1708 83bd
00000080: 4761 94bc 35f3 2ebc 14fa b53d 971f a3bc
00000090: dfa0 7939 939f 823d 6f25 723d 8a02 83bd
000000a0: d10c 80bd 9b86 c9bc 3bd0 e53c 497e b53d
000000b0: daed 003d 5172 7a3d 70bc 103d a239 c4bc
000000c0: 96ee 95bc 4f8e 8d3d 1e5b 013d 2d70 d53c
000000d0: ad90 563d 6b62 0c3d af5b d43c f086 63bb
000000e0: 5058 15bd 1f32 3abd eaf6 17bd ade7 933d
000000f0: 2377 8e3d ba0f 13bd a105 273d d16c 9abc

bn2.weight f4 [64]
0.9970818 0.9976922 0.9970289 0.99311763 0.98903245 0.9957102 1.0004483 0.9851958
0.9899392 0.989806 0.9886276 0.98695254 0.9939421 0.99429005 0.99358636 0.9897026
0.9991886 0.99121004 0.9898302 0.9954725 0.99898416 0.98837173 0.998032 0.97979295
0.99460304 0.98448116 0.98894095 0.9939718 0.9992005 0.99940956 1.0068454 0.98205656
0.99919367 0.9890155 0.9908538 0.9958993 0.9955958 0.9985434 0.9895149 0.99303395
1.001167 0.9924525 0.99329424 0.9960619 0.9956239 0.995358 0.9922518 0.99160063
0.98494214 0.9944731 0.9905421 0.99855566 0.9993725 0.98966104 0.9835383 0.9796947
0.99967504 0.98694336 0.9917007 0.99706626 0.9961064 0.99190825 0.99698853 0.99286175
00000000: c140 7f3f c268 7f3f 493d 7f3f f53c 7e3f
00000010: 3b31 7d3f dde6 7e3f b10e 803f cb35 7c3f
00000020: a86c 7d3f ed63 7d3f b316 7d3f eca8 7c3f
00000030: fd72 7e3f cb89 7e3f ad5b 7e3f 265d 7d3f
00000040: d3ca 7f3f f1bf 7d3f 8365 7d3f 49d7 7e3f
00000050: 6dbd 7f3f ee05 7d3f 067f 7f3f b6d3 7a3f
00000060: 4e9e 7e3f f506 7c3f 3c2b 7d3f f074 7e3f
00000070: 9bcb 7f3f 4ed9 7f3f 4fe0 803f 0f68 7b3f
00000080: 28cb 7f3f 1f30 7d3f 98a8 7d3f 42f3 7e3f
00000090: 5edf 7e3f 8aa0 7f3f d950 7d3f 7937 7e3f
000000a0: 3e26 803f 5e11 7e3f 8848 7e3f eafd 7e3f
000000b0: 35e1 7e3f c8cf 7e3f 3704 7e3f 8ad9 7d3f
000000c0: 2b25 7c3f ca95 7e3f 2b94 7d3f 58a1 7f3f
000000d0: e0d6 7f3f 6d5a 7d3f 2bc9 7b3f 46cd 7a3f
000000e0: b4ea 7f3f 52a8 7c3f 19e0 7d3f bc3f 7f3f
000000f0: d400 7f3f b3ed 7d3f a43a 7f3f 302c 7e3f

bn2.bias f4 [64]
0.29207754 -0.2810077 0.2489905 0.26320454 0.31007445 0.27947095 -0.26892236 0.2945752
0.25136116 0.24908336 -0.24611183 -0.2698292 0.24408014 0.2511015 0.2610757 -0.24858291
-0.26397365 -0.28209186 -0.2644144 -0.3013522 -0.25232515 0.24951974 -0.25063613 -0.27272415
-0.27861583 -0.25829005 0.29122555 0.27047563 0.28566468 0.25364414 -0.33416387 -0.26780266
-0.29646298 0.33266628 -0.27914566 0.24810351 0.25773266 0.24839337 -0.24594249 0.24568439
-0.2686696 -0.2545242 0.28839925 0.30047816 -0.25172147 0.25096002 0.24535687 0.302412
0.30602923 0.2710693 -0.3088354 -0.26431224 -0.26602966 -0.2817886 -0.25736752 0.26717472
-0.31508842 -0.2791521 -0.2818891 0.28063247 -0.2489381 0.25447857 0.26797798 0.24680403
00000000: 308b 953e 3ee0 8fbe 5ef7 7e3e bfc2 863e
00000010: 14c2 9e3e d116 8f3e 31b0 89be 90d2 963e
00000020: 69b2 803e b50f 7f3e bd04 7cbe 0e27 8abe
00000030: 25f0 793e 6090 803e b7ab 853e 858c 7ebe
00000040: 8e27 87be 586e 90be 5361 87be d64a 9abe
00000050: c330 81be 1a82 7f3e 6153 80be 80a2 8bbe
00000060: bca6 8ebe 983e 84be 841b 953e c87b 8a3e
00000070: a442 923e a5dd 813e 8717 abbe 6e1d 89be
00000080: ffc9 97be 3c53 aa3e 2eec 8ebe d90e 7e3e
00000090: 89f5 833e d55a 7e3e 59d8 7bbe b094 7b3e
000000a0: 108f 89be ff50 82be 11a9 933e 46d8 993e
000000b0: a3e1 80be d57d 803e d53e 7b3e bfd5 9a3e
000000c0: ddaf 9c3e 98c9 8a3e ac1f 9ebe ef53 87be
000000d0: 0a35 88be 9846 90be adc5 83be 20cb 883e
000000e0: 4553 a1be 06ed 8ebe c553 90be 0faf 8f3e
000000f0: a1e9 7ebe 044b 823e 6934 893e 32ba 7c3e

bn2.running_mean f4 [64]
0.44571564 0.36593577 0.24009804 0.3946838 0.11330858 0.26297325 0.12623945 0.35500392
0.37210295 0.14334734 0.24657427 0.18504472 0.29106265 0.28003874 0.33702722 0.2556755
0.46559593 0.3417965 0.19853508 0.3570337 0.3295883 0.1252738 0.27923456 0.34965786
0.2240815 0.26714924 0.14343862 0.30305934 0.2213618 0.47206992 0.23025607 0.24286464
0.19535953 0.37924233 0.2919035 0.28703976 0.31518185 0.43688086 0.34767562 0.1252113
0.47498828 0.28701553 0.29398608 0.37085912 0.2987595 0.2852632 0.46315804 0.30596533
0.41449645 0.3896381 0.2676907 0.4363971 0.31515366 0.21109034 0.22161682 0.20210733
0.25203866 0.1855106 0.3888204 0.5406404 0.37006417 0.43216494 0.146198 0.22309399
00000000: d734 e43e ef5b bb3e 43dc 753e ff13 ca3e
00000010: 540e e83d 6ea4 863e ea44 013e 13c3 b53e
00000020: 4784 be3e a5c9 123e f77d 7c3e 5d7c 3d3e
00000030: 2a06 953e 3d61 8f3e d58e ac3e e6e7 823e
00000040: 9762 ee3e f3ff ae3e c84c 4b3e 1fcd b63e
00000050: ccbf a83e c647 003e d5f7 8e3e 5b06 b33e
00000060: 9f75 653e c9c7 883e 93e1 123e 982a 9b3e
00000070: abac 623e 26b3 f13e 3fc8 6b3e 82b1 783e
00000080: 540c 483e 0d2c c23e 6074 953e e0f6 923e
00000090: 845f a13e d9ae df3e 8a02 b23e 6437 003e
000000a0: aa31 f33e b3f3 923e 5885 963e 3fe1 bd3e
000000b0: 01f7 983e 050e 923e 0d23 ed3e 7da7 9c3e
000000c0: e138 d43e a57e c73e c10e 893e 716f df3e
000000d0: d25b a13e 1128 583e 85ef 623e 39f5 4e3e
000000e0: 360b 813e 7ef6 3d3e 7813 c73e 6967 0a3f
000000f0: 0d79 bd3e b944 dd3e eeb4 153e c072 643e

bn2.running_var f4 [64]
0.21448112 0.37553266 0.09042209 0.29646346 0.091266215 0.09938414 0.12608774 0.21356586
0.3296523 0.15394652 0.16497238 0.07555175 0.12614983 0.20729849 0.2887659 0.110021435
0.43437415 0.18121548 0.26022255 0.39646545 0.101116404 0.060102243 0.115844846 0.18461609
0.09366118 0.26730892 0.19477692 0.10358785 0.108858824 0.47100618 0.093442656 0.06612183
0.07440709 0.17659885 0.14702205 0.2434545 0.12705036 0.24201372 0.2716198 0.036436204
0.2533029 0.19587396 0.22457951 0.2446463 0.41149232 0.14442818 0.5319623 0.3024319
0.4226482 0.43340963 0.067272596 0.46161687 0.1490725 0.111670144 0.060717244 0.12600406
0.13807315 0.12915221 0.2448875 0.42123565 0.16268626 0.2973503 0.063437976 0.10211527
00000000: f0a0 5b3e d145 c03e 372f b93d 0fca 973e
00000010: c8e9 ba3d e989 cb3d 251d 013e 02b1 5a3e
00000020: 30c8 a83e 28a4 1d3e 85ee 283e e0ba 9a3d
00000030: 6c2d 013e 0e46 543e 20d9 933e eb52 e13d
00000040: 4a66 de3e 8d90 393e e43b 853e 85fd ca3e
00000050: 1e16 cf3d c52d 763d 1040 ed3d 000c 3d3e
00000060: 6fd1 bf3d b7dc 883e 9a73 473e de25 d43d
00000070: 60f1 de3d b927 f13e dd5e bf3d e26a 873d
00000080: bf62 983d 54d6 343e f38c 163e 234c 793e
00000090: 7d19 023e 72d2 773e c011 8b3e 213e 153d
000000a0: ebb0 813e 2f93 483e 2cf8 653e 8f84 7a3e
000000b0: 1faf d23e fbe4 133e ae2e 083f 5bd8 9a3e
000000c0: 5865 d83e dee7 dd3e 37c6 893d 0c59 ec3e
000000d0: 76a6 183e 51b3 e43d a5b2 783d 3507 013e
000000e0: 0c63 0d3e 7a40 043e cac3 7a3e 33ac d73e
000000f0: 3a97 263e 4c3e 983e c5eb 813d d021 d13d

fc3.weight f4 [1, 64]
-0.28289533 0.3226187 -0.33875942 -0.32499412 -0.2752072 -0.32223776 0.31503004 -0.28995982
-0.38359916 -0.37823743 0.37529123 0.3349683 -0.37796566 -0.34027958 -0.32173726 0.3904115
0.33676183 0.31641358 0.3197597 0.29158026 0.31590453 -0.34007832 0.34029543 0.31888205
0.31050715 0.3688991 -0.31234434 -0.29465282 -0.30642423 -0.35118437 0.2706251 0.33946887
0.27439642 -0.2732014 0.29502052 -0.36650845 -0.31214267 -0.3930561 0.39155862 -0.35203502
0.32654807 0.34055614 -0.29715446 -0.2880904 0.35659927 -0.34213996 -0.40198106 -0.28591463
-0.2932821 -0.33602324 0.2942936 0.3494634 0.30699456 0.31615964 0.3617082 -0.34480104
0.29035503 0.3072282 0.3111162 -0.2817289 0.33718702 -0.34687084 -0.33081105 -0.39485276
00000000: a8d7 90be 472e a53e e071 adbe a165 a6be
00000010: f5e7 8cbe 59fc a4be 9e4b a13e 9d75 94be
00000020: 1c67 c4be 56a8 c1be 2c26 c03e f780 ab3e
00000030: b784 c1be 2039 aebe bfba a4be 04e4 c73e
00000040: 0c6c ac3e f600 a23e 8bb7 a33e 024a 953e
00000050: 3dbe a13e bf1e aebe 343b ae3e 8244 a33e
00000060: cbfa 9e3e 58e0 bc3e 99eb 9fbe bcdc 96be
00000070: a3e3 9cbe 70ce b3be 608f 8a3e ddce ad3e
00000080: b07d 8c3e 0ee1 8bbe ee0c 973e ffa6 bbbe
00000090: 2ad1 9fbe a63e c9be 5f7a c83e ef3d b4be
000000a0: 4f31 a73e 605d ae3e a124 98be 9680 93be
000000b0: 2e94 b63e f82c afbe 76d0 cdbe 6763 92be
000000c0: 1229 96be 3d0b acbe a7ad 963e deec b23e
000000d0: 642e 9d3e addf a13e d131 b93e c389 b0be
000000e0: 6aa9 943e 044d 9d3e 9f4a 9f3e c53e 90be
000000f0: c7a3 ac3e 0e99 b1be 1160 a9be 242a cabe
