PreTrained/cstr_ode/Deep_DQN/0_10/1200.pth (torch, 43242 bytes, 13 tensors)

fc1.weight f4 [128, 4]
000000 08 47 a5 bb 87 8d 89 3e bb a4 d0 be 1c ba b9 be
       -0.005043868 0.2686579 -0.4075068 -0.36274803
000010 73 cc 40 be a4 b6 0d 3e 25 d7 22 bc 60 c5 c8 3e
       -0.18827991 0.13839203 -0.00993899 0.39213085
000020 79 65 40 bd c7 76 03 3e 79 00 23 be 4b ef b1 bd
       -0.046971772 0.12838279 -0.15918149 -0.0868822
000030 6f 8f fb be 7c 28 a6 be f0 f2 4d be 47 76 40 3c
       -0.4913287 -0.32452762 -0.20112205 0.0117469495
000040 24 47 4b 3e 35 a5 98 3e c2 ad ab be 50 21 5c be
       0.19851357 0.29813543 -0.33531004 -0.21497083
000050 dc 3c 37 3e e3 1c d7 3e 12 9a d0 bd 1d 0a c2 3e
       0.1789431 0.42014226 -0.101856366 0.3789834
000060 21 12 9f bd 78 eb 87 3d 03 78 e3 3e a2 e7 f5 be
       -0.0776713 0.06636709 0.444275 -0.48028284
000070 af fc a3 be 9c 29 d1 bd 82 bb 67 be 8d fa dc 3e
       -0.3202872 -0.102130145 -0.22630122 0.43159905
000080 d6 b5 a7 be 2b 67 6a be 80 a5 b4 be 62 20 ee be
       -0.32755917 -0.22890918 -0.35282516 -0.4650908
000090 08 8e 98 be eb 51 d8 3e 00 8b 5b 3e 16 aa 75 3e
       -0.2979586 0.42249998 0.21439743 0.23990664
0000a0 14 98 02 3d c5 fd 82 be 9c 09 af 3d 89 ec eb be
       0.031883314 -0.25584236 0.08546755 -0.460789
0000b0 1a fa b8 be c6 f9 83 be 26 85 a1 3e 26 19 96 3e
       -0.36128312 -0.257765 0.31546897 0.29316062
0000c0 be a0 5d be 81 08 4e bc 9f b9 a3 3e b0 b2 fb 3e
       -0.2164335 -0.01257527 0.31977555 0.49159765
0000d0 f1 64 35 3e 25 ac 9a 3d 55 72 b6 3e 9d a7 94 be
       0.17714287 0.07552365 0.35634103 -0.2903413
0000e0 bb d7 ae 3d 91 b7 c7 be f2 01 b3 be 04 f0 80 be
       0.08537241 -0.39007238 -0.34962422 -0.25183117
0000f0 9b 67 79 3e f6 2a 3c 3e c5 c5 8e be c8 ad 1a 3e
       0.24355929 0.18375763 -0.2788526 0.15105355
000100 35 6e 8e 3e e0 eb 66 bd 8f 63 83 3c 68 7c dc 3d
       0.27818456 -0.05637729 0.016038684 0.10765916
000110 5c 92 9c 3e 67 0c f8 3e 1f 82 c7 be 5a 2b 39 be
       0.30580413 0.48446962 -0.38966462 -0.18082944
000120 62 2a 48 3e cd a7 d2 3e 6c d5 de 3e 83 6e e5 3e
       0.19547418 0.41143647 0.43522203 0.44810876
000130 2c 9f d3 3d 59 07 dd be 8f 73 3d 3d 60 b5 9e be
       0.10333094 -0.43169668 0.046252783 -0.30997753
000140 f8 84 ee be a2 ea e2 3e 21 5c c2 3e 43 b7 fe be
       -0.46585822 0.44319636 0.37960914 -0.49749193
000150 08 aa bf 3d c8 80 ac bd b8 82 a8 bd 1c 5f 6a be
       0.09358603 -0.084230006 -0.082280576 -0.22887844
000160 6d 0d 4b 3e f4 19 9a be 0f f4 41 3e 16 76 81 3e
       0.1982934 -0.30097926 0.18940757 0.25285405
000170 86 ac b1 3e 88 2e 3f 3e c5 86 02 bf ae 12 a3 be
       0.34701937 0.18670094 -0.5098689 -0.3185019
000180 33 b0 80 3e e5 dd d1 3d cd cb c5 be 3b 75 93 be
       0.2513443 0.10247401 -0.3863205 -0.28800377
000190 f2 d4 f0 3e 54 7f ac 3e b0 3e 5f be d4 dc 00 be
       0.47037464 0.33690894 -0.21801257 -0.12584239
0001a0 c6 6f f1 be 2e 82 55 bc 14 12 bc be 10 f1 c6 be
       -0.4715559 -0.013031526 -0.36732543 -0.3885579
0001b0 9d a5 c4 bc 80 b8 91 3d 2f cd 44 be 35 4f 94 3e
       -0.024004752 0.07115269 -0.19218896 0.2896668
0001c0 3f ca a1 be 6e 37 ee 3e bb 76 a9 3e 6b a2 d2 be
       -0.31599614 0.46526664 0.33098397 -0.4113954
0001d0 08 02 08 be 7e 3a c0 3c 08 c6 85 3d b4 3d e4 3d
       -0.13282025 0.023465391 0.06531912 0.111445814
0001e0 11 62 4a 3e 2d 5f eb 3c 0b 5d 78 be 59 3a 70 3e
       0.19763972 0.028731907 -0.24254243 0.23459758
0001f0 95 a7 f5 be 7f a5 97 be aa 2c 00 be 90 93 79 be
       -0.47979417 -0.2961845 -0.12517038 -0.24372697
000200 74 5c 3a be 00 44 c9 be d7 6e e9 bd 02 fd ca 3d
       -0.1819933 -0.39309692 -0.11398094 0.09911539
000210 8f af a5 be 4c df c6 bc 3c 5c b8 3e 3c 8e 73 bd
       -0.32360503 -0.024276398 0.3600787 -0.059461817
000220 80 ac 63 3c c0 ad 30 bd 10 3d cf 3d 60 c6 a2 3e
       0.013896108 -0.04313445 0.101190686 0.31791973
000230 9f e7 ef 3e c6 be a6 3e 8f d6 f4 3e 0b 20 d2 bc
       0.468564 0.32567424 0.47819945 -0.025650045
000240 15 e1 e2 be 16 e7 75 be 23 cc b1 3e 60 8e 30 3b
       -0.4431235 -0.24013934 0.34726056 0.002694033
000250 e1 c2 7e be e2 ce c1 be 3d 2e f5 be 2d 23 d6 be
       -0.24879028 -0.37853152 -0.4788684 -0.41823712
000260 3e b5 d8 bd 71 84 8e 3e 56 56 87 3e 57 fc f2 be
       -0.10581444 0.2783542 0.26433057 -0.47458145
000270 2e b0 9f 3e 8a 52 c8 be f0 7b d8 bd 1c 9a 4f be
       0.31189102 -0.39125472 -0.10570514 -0.20273632
000280 64 57 be bd 8a e2 d3 bd 47 6e e5 be 4f 8c dc be
       -0.09294012 -0.10345943 -0.44810697 -0.43075797
000290 28 3c a0 bd 80 e1 d3 3b b8 96 68 be b8 de 40 3e
       -0.07823974 0.0064660907 -0.22713745 0.1883496
0002a0 98 0d e3 be 5f 11 0a bd ed d8 e4 3e 61 ad 58 be
       -0.4434631 -0.033707973 0.4469675 -0.21159889
0002b0 a2 20 e3 3e 52 09 48 3e 07 8a e3 be a9 16 a2 3e
       0.44360834 0.19534805 -0.44441244 0.31657913
0002c0 5d dc 7b bd bc f9 5c be 05 cd d0 3e 39 6b ce be
       -0.06148945 -0.21579641 0.40781417 -0.4031618
0002d0 4c 11 7a 3d b2 3d d4 bd 4d 78 b6 3e 00 24 12 3e
       0.06105165 -0.1036333 0.35638657 0.14271545
0002e0 59 f6 7a 3e e9 37 31 3e 6e 9e ea bd 14 13 df bd
       0.24508037 0.17306484 -0.11455999 -0.10892311
0002f0 65 84 d9 be 38 55 93 3e 41 9a c3 3e eb 48 b2 3e
       -0.42483822 0.28775954 0.38203624 0.34821257
000300 ac 93 b4 be 60 ae b6 3c 90 76 b4 be 88 ec 8c be
       -0.35268915 0.022299945 -0.35246706 -0.2752421
000310 d1 58 91 be 99 52 27 3e 54 ba 94 be 00 ba 32 bc
       -0.28388074 0.16340102 -0.29048407 -0.010908604
000320 65 01 2c 3d 70 55 9a 3e bf fd ad be 6a c8 b0 be
       0.041993517 0.3014331 -0.33982655 -0.34527904
000330 4f 4d 95 be 0d b3 b0 3e 4f 4f 31 be c3 75 d7 3e
       -0.29160544 0.34511605 -0.1731541 0.42082033
000340 a0 24 39 3e 40 aa 81 3d 00 ed 73 bb 08 6d ca bd
       0.18080378 0.06331301 -0.003722012 -0.09884077
000350 0b ae 73 3d c1 35 fa bd 6a 41 38 39 24 cd 5d 3d
       0.059492152 -0.12217284 0.00017571976 0.054150715
000360 79 14 c4 be 9f b5 82 be 62 58 d4 3e 5e fe d4 be
       -0.3829687 -0.2552919 0.4147368 -0.41600317
000370 83 49 3c bc f3 75 ed 3e 82 87 50 3e 2c 3c 67 3c
       -0.011492136 0.4637905 0.20364192 0.014113467
000380 42 85 cd be 9a a7 69 3e f1 a1 aa be f2 6e 10 be
       -0.4014073 0.22817841 -0.33326676 -0.14104822
000390 4f 27 35 be d6 70 89 bd 40 87 54 ba af fa d3 3e
       -0.17690776 -0.06710975 -0.0008107312 0.41402194
0003a0 83 b5 74 3d d2 29 e2 3e 51 01 9f 3e f0 f6 9f be
       0.059743416 0.4417253 0.31055692 -0.31243086
0003b0 d0 21 5a 3e f9 d5 ae be f5 cb 65 be 09 45 0e 3e
       0.21301961 -0.34147623 -0.22441085 0.13893522
0003c0 d6 b9 26 3e 7b 39 c1 3e 3d 27 27 be 00 d4 51 3a
       0.16281828 0.37739167 -0.16323562 0.0008004308
0003d0 c5 bb 7e 3e 4f 97 f4 be 0c 92 b6 3e dd ae d1 be
       0.24876316 -0.4777169 0.356583 -0.40953723
0003e0 8c f0 9f 3b 18 16 a9 bd 67 fe 88 be 8a 8e 8a 3d
       0.0048809703 -0.08256167 -0.26756594 0.067654684
0003f0 62 97 d8 3e b8 d6 15 be be d2 93 be a3 86 3f be
       0.42302996 -0.1463269 -0.2887172 -0.18703704

fc1.bias f4 [128]
000000 e3 35 1c be de 49 43 be ca 07 00 3e dc 4f 27 3e
       -0.15254931 -0.19071147 0.12502971 0.16339058
000010 5d 23 7e be 0a 5c 22 3d 5d a9 96 3e 96 d9 45 bd
       -0.24818178 0.039638557 0.2942609 -0.04830321
000020 6f 36 17 3e 4a 4c 03 be f6 6a 39 3e e6 71 b9 be
       0.14766859 -0.1282207 0.18107209 -0.3621971
000030 e0 55 99 be 7b 03 6f be 97 5a e9 3e 8c 82 1b be
       -0.2994833 -0.23341171 0.45576927 -0.15186518
000040 c2 73 09 bd dd a0 73 be 37 1d 00 3f 6f 0b fb 3e
       -0.03355766 -0.23791833 0.5004458 0.4903216
000050 1b b9 c1 be 10 88 cf be d3 ea be be b8 8f d8 bb
       -0.37836537 -0.40533495 -0.37288532 -0.0066089295
000060 85 20 0a be 4e 90 a7 be 73 df 36 be e7 d9 db 3d
       -0.13488968 -0.32727283 -0.17858677 0.10734921
000070 ed 00 8b be c6 d9 e4 3d 80 4f ee bd 0c ec 77 be
       -0.27149144 0.111743495 -0.11636257 -0.24211138
000080 28 63 96 3d 1f e6 d3 3e 88 13 ad be 1a 9c bc 3c
       0.07343131 0.41386506 -0.33803964 0.023023654
000090 35 d6 35 be 85 ef f7 3e d1 ca f6 be d2 6a f5 be
       -0.17757495 0.48424926 -0.48201612 -0.4793306
0000a0 e0 18 fd 3e f8 f7 a1 be a6 e4 b9 3d fa a1 88 bd
       0.4943304 -0.31634498 0.09076814 -0.066715196
0000b0 41 2c c9 bd 71 14 e4 bd 35 77 a3 3e eb b2 56 3c
       -0.09822894 -0.111367114 0.31926885 0.013104181
0000c0 ce 3e f9 be 48 f5 9a be e0 fb 4b be 8e b0 81 3e
       -0.4868073 -0.3026526 -0.19920301 0.25330013
0000d0 8e aa a5 be 9f 98 f1 3e 23 42 c9 bd 76 a0 9b bd
       -0.32356685 0.47186753 -0.09827068 -0.07598965
0000e0 57 0d d8 3e aa fd 79 3e 81 45 db 3e bc 2e 92 3e
       0.42197677 0.24413171 0.42826465 0.2855128
0000f0 1e fc 18 be d8 54 ae be 71 c5 1b bd 10 d0 d3 3e
       -0.14939925 -0.34049106 -0.03803009 0.41369677
000100 de 63 26 be 1e 68 ed be 23 be 47 3e 6a 59 fa 3e
       -0.16249034 -0.46368498 0.19506125 0.48896343
000110 40 b8 1e be 5a f9 d3 be c3 8a e9 be 42 5d f9 3d
       -0.15499973 -0.41401178 -0.4561368 0.12175991
000120 b0 27 01 bd fc f2 82 be ad 68 d4 3d 36 0e 2f 3e
       -0.03153199 -0.25576007 0.10371528 0.17095265
000130 66 c4 ca 3e eb ee c6 3e 11 80 b7 bd 7e bb e1 be
       0.39602965 0.38854155 -0.089599736 -0.44088358
000140 d8 53 e7 be de 9d ee 3e 63 9f 60 3e c8 5f 6c 3e
       -0.45181155 0.46604818 0.21935801 0.23083413
000150 13 25 d9 be db 53 ee 3e 17 b2 ec 3e e4 9c ec 3e
       -0.42411098 0.46548352 0.46229622 0.46213448
000160 30 f5 d7 be 5e 23 36 be af 05 aa be 64 b1 ef 3e
       -0.4217925 -0.17786929 -0.3320746 0.46815026
000170 f2 9e 55 be e8 93 76 be 26 dd 89 3e 26 b9 5e be
       -0.20861414 -0.2407986 0.26926535 -0.21750316
000180 f8 87 6c be fa 85 2b bd e0 26 8b bd b2 b6 c6 be
       -0.23098743 -0.041875817 -0.06794524 -0.3881126
000190 18 a4 d3 3e f1 c9 61 be 43 47 33 3e 11 7b dd 3e
       0.4133613 -0.22049691 0.17507653 0.43257955
0001a0 4b 82 78 3e 29 0e 89 3d 4a 5a df 3e c3 47 75 3d
       0.24268453 0.06692154 0.43623573 0.05988289
0001b0 97 0e 66 be e0 39 f4 3e ee 61 be 3d 38 c6 f9 be
       -0.22466503 0.47700405 0.09296022 -0.4878404
0001c0 0c 24 06 be 37 c4 b0 be 0b d8 e0 3e 83 58 8c bd
       -0.13099688 -0.345247 0.43914828 -0.0685282
0001d0 b2 59 e9 be 75 f5 a7 bc 35 a5 a1 3e 7d fa e7 3d
       -0.45576245 -0.020502785 0.31571355 0.11327074
0001e0 0d 4e 39 3e 59 d0 03 3d eb f8 38 3e 78 15 dd bd
       0.1809618 0.032181118 0.18063705 -0.107951105
0001f0 c9 2a 3f be 0e 49 ef be 55 74 c1 be 89 aa 58 3e
       -0.18668665 -0.46735424 -0.37784067 0.21158804

bn1.weight f4 [128]
000000 35 51 7e 3f f2 f0 7e 3f dc bf 80 3f 1a 55 80 3f
       0.9934266 0.99586403 1.0058551 1.0025971
000010 36 c2 80 3f ec 0c 7f 3f a6 63 7f 3f 4e e7 80 3f
       1.0059268 0.9962909 0.99761426 1.0070589
000020 f8 b8 80 3f ef 54 7b 3f 27 4f 80 3f 00 00 80 3f
       1.0056448 0.98176473 1.0024155 1.0
000030 72 a8 7e 3f 72 76 7d 3f 54 34 7f 3f 97 60 7e 3f
       0.9947578 0.9900886 0.9968922 0.99366134
000040 c8 ee 80 3f 66 13 80 3f 7d 0d 80 3f 45 db 7f 3f
       1.007287 1.000592 1.0004116 0.99943954
000050 8c 14 7f 3f 00 00 80 3f 02 5c 7f 3f ca 2e 80 3f
       0.9964073 1.0 0.9974977 1.0014279
000060 00 c1 80 3f 00 00 80 3f 7b 67 7f 3f b1 33 80 3f
       1.0058899 1.0 0.99767274 1.0015775
000070 83 63 7d 3f 0d 0b 7f 3f 2b c8 7f 3f 52 0c 80 3f
       0.9897997 0.9962624 0.9991481 1.000376
000080 a4 89 7b 3f 23 db 80 3f 00 00 80 3f ff 1b 80 3f
       0.982569 1.0066875 1.0 1.0008544
000090 2e ac 7f 3f 93 2a 80 3f 00 33 7e 3f 00 00 80 3f
       0.998721 1.0012993 0.9929657 1.0
0000a0 eb b6 7e 3f 00 00 80 3f 68 1d 82 3f 25 ed 7e 3f
       0.9949786 1.0 1.0165224 0.99580604
0000b0 12 ba 7e 3f a9 62 7f 3f 23 21 7d 3f 57 bd 80 3f
       0.9950267 0.9975992 0.9887869 1.0057782
0000c0 00 00 80 3f b6 5f 7e 3f 3a 4a 7f 3f 8c 98 7f 3f
       1.0 0.99364793 0.99722636 0.99842143
0000d0 00 00 80 3f 51 09 82 3f 2d ca 7e 3f cb e5 7f 3f
       1.0 1.0159093 0.99527246 0.9996001
0000e0 af 75 80 3f 4c 64 80 3f 8a 4d 7f 3f 3f 88 80 3f
       1.0035914 1.0030608 0.9972769 1.0041579
0000f0 bd b9 80 3f f0 62 80 3f 82 fb 7f 3f ed 38 80 3f
       1.0056683 1.0030193 0.99993145 1.0017372
000100 46 ad 80 3f 00 00 80 3f 64 b2 80 3f 6e d4 80 3f
       1.0052879 1.0 1.005444 1.0064828
000110 bb ae 7f 3f 00 00 80 3f a4 82 7f 3f d7 4a 7f 3f
       0.9987599 1.0 0.99808717 0.9972357
000120 65 60 80 3f 32 34 7f 3f 51 76 80 3f 14 7e 81 3f
       1.0029417 0.9968902 1.0036107 1.0116601
000130 f6 40 7f 3f 85 e2 7e 3f b2 62 7c 3f 00 00 80 3f
       0.997085 0.9956439 0.985881 1.0
000140 00 00 80 3f 00 bd 82 3f fe b7 7f 3f 3c 22 81 3f
       1.0 1.0213928 0.99890125 1.0088573
000150 27 23 7c 3f 6a 14 81 3f b1 7a 7e 3f 66 7a 80 3f
       0.9849114 1.0084355 0.9940596 1.0037353
000160 00 00 80 3f 08 55 7e 3f a4 4f 7f 3f 6a c3 7d 3f
       1.0 0.993485 0.99730897 0.99126303
000170 9d ba 80 3f cb 39 7e 3f 8d fc 7e 3f 53 70 80 3f
       1.005695 0.99306935 0.9960411 1.0034279
000180 92 b5 7c 3f 0a ac 7a 3f 49 ed 7f 3f 41 2c 80 3f
       0.98714554 0.9791876 0.99971443 1.0013505
000190 d5 80 80 3f b4 18 80 3f 61 2f 80 3f 34 c2 80 3f
       1.0039316 1.0007539 1.0014459 1.0059266
0001a0 24 ba 80 3f 07 b5 7f 3f 6d 4e 80 3f ec 8e 7f 3f
       1.0056806 0.998856 1.0023934 0.99827456
0001b0 2d af 7e 3f ed 0b 80 3f 74 96 81 3f 00 00 80 3f
       0.9948605 1.000364 1.012404 1.0
0001c0 2e 53 7c 3f d5 f9 7e 3f c4 22 81 3f 7a 27 7c 3f
       0.9856442 0.99599963 1.0088735 0.98497736
0001d0 00 00 80 3f b6 dd 7f 3f e2 59 80 3f 6e 0d 7e 3f
       1.0 0.9994768 1.002743 0.9923924
0001e0 ac 1a 7e 3f 49 98 7f 3f 85 b1 80 3f df 59 80 3f
       0.9925945 0.99841744 1.0054175 1.0027426
0001f0 d2 af 7d 3f 00 00 80 3f 7b d3 7d 3f 5c 1c 80 3f
       0.99096406 1.0 0.9915082 1.0008655

bn1.bias f4 [128]
000000 09 d7 4e 3b c4 17 e1 3a e3 29 d5 bb 64 e9 83 bc
       0.0031561276 0.001717322 -0.0065052374 -0.0161025
000010 67 58 b2 bc ef 56 fc 3b e6 26 3e bb d5 1b 86 b9
       -0.02177067 0.007700793 -0.0029014884 -0.00025579208
000020 65 af 95 3b 79 99 23 3c 7c f7 24 3b 28 77 99 3c
       0.004568028 0.009985321 0.0025171926 0.018733576
000030 24 45 07 3c 32 72 84 3c b0 28 4d bc 34 08 81 bb
       0.0082562305 0.016167734 -0.012521908 -0.0039377455
000040 0b b6 87 bc c8 5b cc 37 f2 16 8c 3b 4c 91 92 bc
       -0.016566297 2.4361434e-05 0.004275196 -0.017891549
000050 d4 7a 84 bb 1f bf 5b 3c 92 da fc bb 7c 3b f0 3a
       -0.0040429626 0.013412266 -0.0077164853 0.0018328275
000060 7d e8 73 bb 4d de 0a bc 39 bc 18 3a 0d bd 96 3b
       -0.0037217431 -0.008475852 0.0005826387 0.0046001733
000070 15 86 0e bc e5 36 5c 3b a6 6d 25 3b dc 0d 95 3a
       -0.00869896 0.0033602056 0.0025242358 0.0011371928
000080 16 67 9c bc 28 33 90 3b b3 0d 3a bb 65 2a e4 3b
       -0.019092124 0.0044006296 -0.0028389513 0.0069630616
000090 02 5a aa 3c 28 19 41 bb e1 99 c0 3a c7 d5 d0 3b
       0.020794872 -0.0029464457 0.0014694297 0.0063731405
0000a0 5d 97 dc bb 7f ab 3c 3c b6 80 74 bc 03 07 19 bc
       -0.006731911 0.011515497 -0.014923265 -0.009340051
0000b0 79 73 f7 3b b9 29 37 bb 6d b4 a4 bb 9d 29 8f bc
       0.007551607 -0.0027948453 -0.0050263912 -0.017475897
0000c0 e4 79 a3 bc 31 5b be bb 2f 2f 1d 3c 26 63 34 bb
       -0.019955583 -0.0058092107 0.009593769 -0.0027524917
0000d0 57 ac ab bb 35 e2 de 3b 1d 32 2d bb d6 be 47 bc
       -0.0052390504 0.0068018683 -0.0026427575 -0.012191495
0000e0 ba c2 c7 3b a1 e2 d0 bc 88 d5 4e 3c 1f 12 de 3b
       0.0060962113 -0.02549869 0.012624152 0.0067770625
0000f0 f2 04 74 bb d4 87 cd bb 21 f6 cf 3a db 28 16 ba
       -0.0037234393 -0.0062722955 0.0015866199 -0.0005728134
000100 91 01 91 bb 35 83 24 bc 7f 2e 97 3b ce a1 95 bb
       -0.0044252356 -0.010041048 0.004613697 -0.0045664078
000110 fa bc 54 3b 59 a9 ba bb 80 0a 5d bb 93 51 29 3c
       0.0032461272 -0.0056964573 -0.0033728182 0.01033439
000120 49 8b ea bb ca 0c 85 bc f4 eb 57 3c b9 db 2a 3b
       -0.0071577174 -0.01624145 0.013178814 0.0026070906
000130 00 6f 2d bc 23 16 69 39 f7 c4 60 3c aa c1 62 3b
       -0.0105855465 0.00022228858 0.013718835 0.0034600296
000140 38 9a 9e 3a da cb 06 bc 09 22 33 bc f5 c9 a2 3b
       0.0012100404 -0.008227313 -0.010933408 0.004967923
000150 5c 81 20 3c c3 63 20 3c 69 f2 9f bb db 3e 3d bb
       0.009796467 0.00978941 -0.0048811925 -0.0028876576
000160 6a 1c c9 3c 45 31 ac 3b 5d b2 11 3a 7d fb a7 3a
       0.024549682 0.005254897 0.0005557889 0.0012816038
000170 14 65 f7 bb 5d f1 4c 39 b3 5d 3d bb 22 e7 9a bb
       -0.0075498912 0.00019544871 -0.002889496 -0.00472726
000180 1e dd 16 bc e0 61 e9 3b d3 d5 18 3c b7 8e 9e 3c
       -0.009207992 0.0071222633 0.009328323 0.019355161
000190 ea 61 03 3b 96 13 15 ba 66 b0 8d 3c 88 1c 0f bc
       0.0020047375 -0.00056868175 0.017296027 -0.00873483
0001a0 7a d5 0c 3c 08 e7 08 bb e4 59 11 bb 5f 99 34 ba
       0.008595819 -0.0020889658 -0.0022178823 -0.0006889309
0001b0 92 d4 b6 bc ab 33 83 bc 7b 7e 02 3c 10 28 cb 3c
       -0.022318158 -0.016015848 0.007964726 0.024799377
0001c0 c1 fb d6 3b 3c 5c ca 3c e9 5e 14 bc 87 1b 4a bc
       0.006560773 0.024702184 -0.0090558315 -0.012335665
0001d0 38 1b 43 3c 7d 31 ca bb 10 ab 5d bc 7b 19 e5 ba
       0.011908345 -0.0061704502 -0.013529554 -0.0017478907
0001e0 a3 51 a7 3c b2 2f 0d bc 08 31 ed 3b 0d 13 ac ba
       0.02042467 -0.0086173285 0.007238511 -0.0013128236
0001f0 98 dc d7 bb b1 a8 e2 3c fd 5d 47 3c a0 dd 0c bb
       -0.006587576 0.027668329 0.012168405 -0.0021494403

bn1.running_mean f4 [128]
000000 e1 7b 36 3b 04 00 00 00 39 56 5c 3d 91 8a 31 3d
       0.0027844834 6e-45 0.053793166 0.043345038
000010 95 50 3d 3a e3 40 bf 3c 81 6b f1 3e a7 80 38 3b
       0.00072217855 0.02334637 0.4715233 0.0028152855
000020 85 37 50 3d c6 0b 2b 35 0e af 91 3e 00 00 00 00
       0.050834198 6.3719597e-07 0.2845387 0.0
000030 04 00 00 00 9b a2 c1 3d 95 b7 c8 3e da 03 42 3a
       6e-45 0.09454843 0.39202562 0.00074010866
000040 94 b0 ba 3d bf 97 ac 3a 8c 37 34 3f e2 88 22 3f
       0.09115711 0.0013167782 0.7039726 0.63490117
000050 04 00 00 00 00 00 00 00 6f 54 20 3c b1 b4 0a 3d
       6e-45 0.0 0.009785756 0.033863727
000060 ef 16 dd 3a 00 00 00 00 d4 e5 49 3b ce ff 4c 3d
       0.0016867797 0.0 0.0030807154 0.05004864
000070 04 00 00 00 45 22 ba 3d 0d 76 1b 3a 04 00 00 00
       6e-45 0.09088568 0.00059303717 6e-45
000080 b2 d1 0c 3d 90 68 f4 3e 00 00 00 00 8d 89 bd 3e
       0.03437967 0.47736025 0.0 0.37019005
000090 2e 6e 1a 3c 4c 5b 72 3e 04 00 00 00 00 00 00 00
       0.009425683 0.2366764 6e-45 0.0
0000a0 88 dc 85 3e 00 00 00 00 77 5d 2d 3e 11 a2 93 3c
       0.26144814 0.0 0.16930185 0.018021615
0000b0 bb 27 30 3e 86 5e 1d 3e 7f eb a2 3e f0 58 44 3d
       0.17202656 0.15368089 0.31820294 0.04793638
0000c0 00 00 00 00 de 68 87 3a 3e 69 dc 3a 02 b5 a9 3d
       0.0 0.0010330935 0.0016816033 0.082864776
0000d0 00 00 00 00 70 75 04 3f f1 ab cc 3d fb a1 1d 3b
       0.0 0.51741695 0.09993733 0.0024052847
0000e0 0d 8c 25 3e 1d 46 45 3e e7 fb 03 3f f9 c2 a3 3e
       0.16166706 0.19265027 0.5155625 0.3198469
0000f0 64 d1 a4 39 cf dd 14 3e 96 af f8 3a 8a cd e8 3e
       0.00031436526 0.14537738 0.0018973227 0.45469314
000100 34 3c 34 3b 00 00 00 00 f8 18 68 3e c5 c6 fb 3e
       0.0027501704 0.0 0.22665775 0.49175087
000110 cd 6a 30 3b 00 00 00 00 04 00 00 00 e7 9a 61 3d
       0.0026919127 0.0 6e-45 0.055079367
000120 58 e4 38 3b 04 00 00 00 e1 35 d2 3e 84 23 63 3d
       0.0028212275 6e-45 0.4105673 0.055453792
000130 bd 98 0c 3f 0b bc 8b 3e 45 81 f1 3d 00 00 00 00
       0.5492056 0.27291903 0.11792234 0.0
000140 00 00 00 00 e6 9a 25 3f 33 f9 1c 3e 53 48 3c 3e
       0.0 0.6468948 0.15329437 0.18386964
000150 57 f0 ee 3c 7f 8d 27 3f 54 d9 ba 3e 9e 95 72 3e
       0.029167337 0.6545028 0.36493933 0.23689887
000160 00 00 00 00 c7 60 2c 3b b9 c3 6c 3a d7 f9 2a 3f
       0.0 0.00263028 0.00090318505 0.66787475
000170 ef 30 fb 3a dc 21 37 3b 7e 4c 03 3f e5 b2 06 3e
       0.0019164364 0.0027943766 0.5128859 0.1315418
000180 40 20 85 3a 66 70 9e 39 61 4c 50 3b 04 00 00 00
       0.0010156706 0.00030219852 0.0031783807 6e-45
000190 45 85 ce 3e d5 8b 77 3e 26 9b 6e 3d b2 41 d6 3e
       0.40336052 0.24174435 0.05825343 0.41846997
0001a0 12 51 74 3e 15 36 1a 3e 04 6a 10 3f ec db 1d 3c
       0.23859051 0.15059693 0.56411767 0.009634953
0001b0 04 00 00 00 cd a5 36 3f cd 64 6c 3c 00 00 00 00
       6e-45 0.7134674 0.01442833 0.0
0001c0 25 61 6b 3e 04 00 00 00 60 8d 5f 3e 58 55 64 3a
       0.22986276 6e-45 0.21831274 0.0008710227
0001d0 00 00 00 00 de 46 30 3d 8c 98 04 3f 15 a1 78 3c
       0.0 0.043036334 0.5179527 0.015175124
0001e0 5a f8 8b 3d f3 1e be 3d ac 80 24 3e 98 2c 90 3e
       0.06834479 0.09283247 0.1606471 0.28159022
0001f0 74 2e 91 3d 00 00 00 00 1a 4c 27 3d 84 2e ad 3d
       0.07088938 0.0 0.04084406 0.08456138

bn1.running_var f4 [128]
000000 65 8c 60 3a 04 00 00 00 88 33 5d 3b d2 f2 97 3b
       0.0008565842 6e-45 0.003375264 0.0046371007
000010 d4 ac 71 38 71 ec 4c 3a 2f 47 31 3d c7 52 25 3a
       5.7619836e-05 0.0007817215 0.043280777 0.0006306585
000020 69 2e a9 3b 1b d5 f9 30 1e d8 d6 3b 04 00 00 00
       0.005163003 1.8177703e-09 0.006556525 6e-45
000030 04 00 00 00 73 67 14 3c e9 8c 7f 3c bf d2 7d 38
       6e-45 0.009057867 0.01559756 6.0516173e-05
000040 8b ea 47 3b cf dd 48 39 f8 e5 2f 3d cc b0 17 3c
       0.0030504789 0.00019156116 0.042943925 0.00925846
000050 04 00 00 00 04 00 00 00 a7 ac 37 39 bf 44 2d 3b
       6e-45 6e-45 0.00017516558 0.002643868
000060 b5 cd a4 39 04 00 00 00 19 6f 89 3a 36 d7 41 3b
       0.0003143378 6e-45 0.001048538 0.0029577739
000070 04 00 00 00 af 3d ba 39 e8 f8 22 38 04 00 00 00
       6e-45 0.00035522642 3.8855622e-05 6e-45
000080 9f 9c af 3a f2 a7 a9 3c 04 00 00 00 91 38 95 3d
       0.0013398117 0.020709965 6e-45 0.0728618
000090 2c b8 b3 39 54 a7 69 3d 04 00 00 00 04 00 00 00
       0.0003427876 0.057044342 6e-45 6e-45
0000a0 d8 9e 60 3d 04 00 00 00 de 71 cb 3c 0d ba 81 3a
       0.054838985 6e-45 0.02483457 0.0009897366
0000b0 1f 93 f4 3c dc 5d c3 3c 30 f9 11 3b a7 0a 50 3b
       0.029855309 0.023848467 0.0022273771 0.003174463
0000c0 04 00 00 00 07 48 f7 38 c8 cb a3 39 0b af 20 3c
       6e-45 0.00011791294 0.00031241612 0.0098073585
0000d0 04 00 00 00 9a 22 38 3a f5 a0 27 3c 27 3e fe 38
       6e-45 0.0007024199 0.010231246 0.000121232406
0000e0 27 15 00 3d bf 49 31 3a 39 89 68 3c e5 82 5a 3b
       0.031270172 0.0006763003 0.014192873 0.003334218
0000f0 2f 2e 37 37 4c 72 b6 3c 6d 83 d0 39 2e 1e ee 3b
       1.0918403e-05 0.022271298 0.0003977077 0.0072667813
000100 06 09 5b 3a 04 00 00 00 54 02 ac 3a 3d 78 fd 3b
       0.00083555316 6e-45 0.0013123252 0.007735281
000110 d1 dd 51 3a 04 00 00 00 04 00 00 00 fd cc 6f 3b
       0.00080057705 6e-45 6e-45 0.0036590688
000120 82 83 66 3a 04 00 00 00 fb 72 2b 3d 06 6b b3 3b
       0.00087934 6e-45 0.0418577 0.0054754047
000130 bc 63 41 3c dd a7 fc 3c 73 58 69 3c 04 00 00 00
       0.011803564 0.030841762 0.014242279 6e-45
000140 04 00 00 00 f5 5e c1 3c bb a7 b6 3c b0 1b ac 3c
       6e-45 0.02360485 0.022296777 0.021009296
000150 19 57 80 3a 7c 9a 34 3d 25 49 51 3b 5d 85 ca 3c
       0.0009791582 0.04409264 0.0031934467 0.024721796
000160 04 00 00 00 a9 5d 48 3a 3f 00 bd 38 1f c4 18 3d
       6e-45 0.0007643351 9.012268e-05 0.03729641
000170 2b bc d4 39 89 25 62 3a 67 57 1e 3d 05 1d 96 3c
       0.00040575987 0.0008626809 0.038657572 0.018324384
000180 2a f1 05 38 a5 f8 fc 36 68 22 92 3a 04 00 00 00
       3.1934273e-05 7.5391313e-06 0.001114917 6e-45
000190 a0 99 f6 3b 8a c5 73 3d c0 96 bd 3b cd 94 79 3c
       0.0075256377 0.05951456 0.005785793 0.015233231
0001a0 b0 69 f1 39 f8 58 51 3b ff 2b 73 3b 25 ed 38 3b
       0.00046045845 0.0031943899 0.003710508 0.002821752
0001b0 04 00 00 00 40 a0 1d 3d 1d 40 ef 3a 04 00 00 00
       6e-45 0.038482904 0.001825336 6e-45
0001c0 05 98 5b 3d 04 00 00 00 59 c0 47 3d 31 ee 24 38
       0.053611774 6e-45 0.04876742 3.932248e-05
0001d0 04 00 00 00 cc 59 f9 3a b8 fd af 3c d8 85 99 3b
       6e-45 0.0019023954 0.021483287 0.004685145
0001e0 5a 36 fb 3b d4 50 09 3c cd 82 d2 3a fa 6f a0 3d
       0.0076663913 0.008381087 0.001606071 0.07833858
0001f0 c6 50 ac 3b 04 00 00 00 c2 b1 15 3b 93 11 06 3c
       0.0052586524 6e-45 0.0022841548 0.008182901

fc2.weight f4 [64, 128]
000000 34 25 2d bd 7c 93 16 3c 96 3c da 3c 64 cd d1 38
       -0.042271808 0.009190436 0.026640218 0.000100041536
000010 31 11 56 bd 2c d6 9b 3d b5 83 4e bd 64 6c 94 3d
       -0.05226249 0.076092094 -0.050418574 0.07247236
000020 36 75 99 bd 44 88 c9 bc 81 4d 85 3d a4 79 05 bd
       -0.07493059 -0.02460111 0.06508923 -0.03258671
000030 fc 74 8f 3d 92 c5 63 bd ff 84 99 bd c5 fc 05 bd
       0.07004735 -0.05560834 -0.0749607 -0.032711763
000040 43 32 f5 3c ad 3e b6 3d 82 e6 23 bd 3c 78 2b 3d
       0.029931193 0.08898673 -0.04001475 0.04186271
000050 7e 86 ae bc 69 8a 3a bc 26 02 8a 3d 29 19 95 bd
       -0.021304365 -0.011385539 0.06738691 -0.072801895
000060 8f 83 a0 3c ed c2 a9 3d de 00 43 bb 84 4a 83 3d
       0.019593982 0.08289132 -0.0029755156 0.06410697
000070 73 18 fc bc 0a 4c 8f 3d 57 c9 a5 bd e3 23 5a bb
       -0.030773377 0.06996925 -0.08095043 -0.003328555
000080 00 68 bf bc 9f 8e e0 3c bb 8a 0a 3d c8 9e 94 3d
       -0.02336502 0.027411757 0.03382371 0.072568476
000090 f3 34 b0 bb 4d d5 bb bb 44 ef 7c 3d ca a8 da bc
       -0.005377406 -0.0057322145 0.06175162 -0.026691813
0000a0 95 a5 9b 3d ed 5c 60 bd 85 54 3f bc 83 63 2a bc
       0.07599942 -0.05477612 -0.011677866 -0.010399702
0000b0 8a 7c 23 3d a8 8d 80 3d ad ee 12 bc 9c 7e 98 bd
       0.03991369 0.06277019 -0.008968038 -0.07446024
0000c0 45 97 21 3d 88 6f 0a 3d 96 80 3e 3d 10 50 83 bd
       0.039450902 0.03379777 0.046509348 -0.06411755
0000d0 a4 16 79 3d 51 ef b3 3d a5 a8 46 3b 23 b1 ab bd
       0.060812607 0.0878588 0.0030312922 -0.083833955
0000e0 dd 1a 70 3d 68 df 9a bd 8b 49 bc 3c de 9e 31 3c
       0.05861937 -0.075621426 0.022984287 0.0108411
0000f0 59 83 1b bd df e3 53 3d ed 15 94 bd 2f 81 ac 3c
       -0.03796706 0.051730987 -0.072307445 0.021057693
000100 34 fd 48 bd 9e e7 5b bc 47 53 1d 3c 76 93 a1 3d
       -0.0490696 -0.013421921 0.009602374 0.07889454
000110 08 5e 06 bd 80 f5 52 3d 8f f3 4c bc d4 c5 40 bd
       -0.03280452 0.05150366 -0.012509241 -0.047063664
000120 50 64 95 bd 22 4e 9b bd e2 78 d9 3d 8c d0 f0 bc
       -0.07294524 -0.07583262 0.1061876 -0.029396318
000130 d1 7f bd 3c d8 17 c6 3c 2c 3e 8a 3d 0e b5 ae 3d
       0.023132237 0.024181291 0.067501396 0.08530627
000140 11 92 9d 3d 6b e6 79 bd 0c 7e 7b bc 60 61 4f bd
       0.076938756 -0.06101076 -0.015349876 -0.050629973
000150 b3 98 2e bd 7b dd ac 3c 18 80 b0 3d 03 9e ab bd
       -0.042626094 0.021101704 0.08618182 -0.08379748
000160 9a 97 73 3d 41 6e 19 bd 61 35 4a bc 35 2f 97 3d
       0.05947075 -0.037458662 -0.012341828 0.07382051
000170 6b 63 7e bc 90 c2 89 3c 45 8c 6b bd 9f 73 bd 3d
       -0.015526633 0.016816407 -0.05750682 0.092505686
000180 ca d3 33 bb 3a ce 6f bd 6d 95 fc 3c a5 6c 85 bd
       -0.0027439469 -0.058546282 0.03083297 -0.06514863
000190 37 c8 8d bd 05 24 26 3c 70 3d 80 3d 78 9e bb bc
       -0.069229536 0.010140424 0.06261718 -0.022902712
0001a0 90 5b 0d 3d ca d3 a2 3d 95 c7 64 3d 84 cc 4a bd
       0.03451115 0.07950552 0.0558544 -0.049511448
0001b0 07 7c 8d ba 2b ac a7 bc 7f da 99 bd e2 63 73 3b
       -0.0010794409 -0.020467838 -0.07512378 0.0037138392
0001c0 27 58 8d 3d 79 0a 93 3d 73 96 ca 3b ae 45 d2 3c
       0.06901579 0.07179732 0.0061824857 0.025667991
0001d0 9b 17 08 bd 6f f1 6f 3d 80 0b de bc 5f 0e 80 bd
       -0.033225637 0.05857986 -0.027105093 -0.06252741
0001e0 fc e5 e0 3b 65 4a 5b 3d 76 b4 a6 bd 15 3d af 3d
       0.006863354 0.053537745 -0.08139889 0.08556572
0001f0 2c ff c8 3c 7c 02 59 bd 58 71 a6 bc a0 eb 93 3d
       0.024535738 -0.052980885 -0.020317718 0.07222676
000200 22 86 7e bd fe 0c 5a bd 72 4d db 3c fe d6 93 bd
       -0.062139638 -0.053235047 0.026770327 -0.07218741
000210 51 3a 5e 3d 7d 34 24 3d 59 cb 6c 3d ee 38 53 bd
       0.054254834 0.04008912 0.057811115 -0.051567964
000220 02 9f b8 3d a4 6e cc bc 27 33 bb 3d 21 4b cf bd
       0.09014703 -0.024955101 0.09140616 -0.101217516
000230 87 e3 cf bd 93 d3 69 3d 32 d9 e6 3b 08 12 32 3c
       -0.10150819 0.05708654 0.0070449347 0.010868557
000240 2b 8e 47 bd ce 81 fe bc 19 77 c5 bc 0c c6 a9 bd
       -0.048719566 -0.031067755 -0.024104642 -0.082897276
000250 75 5b 9b bb a5 e1 01 bc f0 4d 79 bb ce e6 e5 3c
       -0.004741127 -0.007927333 -0.003804084 0.028064158
000260 a9 cc b7 3d 75 a8 eb 3c 92 26 d8 bc e5 a7 1b bd
       0.08974583 0.02876685 -0.02638558 -0.038001914
000270 c7 22 7f bd 5b 04 6b bd 52 de 15 bc 9e b3 a6 bc
       -0.062289026 -0.0573772 -0.009147244 -0.02034932
000280 84 5d 2f 3d 05 e6 0b bd 97 b3 8b 3d fc 1d 75 bd
       0.042813793 -0.03415491 0.068213634 -0.05984305
000290 17 a3 71 3a 91 1a 9f 3d e0 2d 90 3d 68 5f 88 bd
       0.00092177227 0.07768739 0.0704 -0.06658822
0002a0 fc f1 57 3c 90 d8 ae 3b 9d 20 17 bd f7 1f 00 bd
       0.013180252 0.005335875 -0.036896337 -0.031280484
0002b0 ae 0c e3 3c 9b 07 6c bd ed 45 1c 3c 9b e6 36 3d
       0.027716007 -0.05762444 0.009538156 0.044653516
0002c0 7e e7 f0 bc 06 48 a2 3d fc a0 4f b9 99 2c 27 3d
       -0.02940726 0.07923894 -0.0001980103 0.040814016
0002d0 4a 90 c7 3d d9 5d cc bc ae fd 57 3d 89 84 3a bb
       0.09744318 -0.024947094 0.052732162 -0.0028460345
0002e0 41 87 5e bc 87 a5 0d 3b ed 86 08 3a 4a 58 16 bd
       -0.013582052 0.0021613555 0.0005208094 -0.036705293
0002f0 20 a4 cf 3c 38 c1 d6 3b d0 6f 7e 3d ec ef b0 bc
       0.025346816 0.006553795 0.06211835 -0.021598779
000300 82 80 74 3c 97 8b e7 bc 42 0c 9f bd a8 6c fe 3c
       0.014923217 -0.028264804 -0.0776601 0.03105767
000310 04 99 8a 3c 00 49 c2 bc 2f 47 05 bd f2 91 9e 3c
       0.016918667 -0.02371645 -0.03253859 0.019356702
000320 d5 e0 1f bc a3 7a 82 3d b9 e8 fc 3b af e9 0c 3d
       -0.009758194 0.06371047 0.0077181724 0.034402546
000330 33 e3 2c 3d f8 39 cb bc 28 9f 2b 3d 4a f3 3b 3d
       0.04220886 -0.024807915 0.04189983 0.045886315
000340 96 62 c9 3b d5 d2 90 3c 44 1e 86 3a 82 f3 68 3d
       0.0061457856 0.017678658 0.0010232409 0.056872852
000350 e8 8e 21 bd ad 7e 32 bd 74 ca 3a 3d 28 71 a0 bd
       -0.039442927 -0.04357784 0.04560323 -0.07834083
000360 c2 29 fd bb e5 2e 0d bd 95 e0 82 3d 79 83 a6 bd
       -0.007725925 -0.03446855 0.06390492 -0.08130545
000370 97 9a 74 3d 4f 85 bf 3d 3b 60 9c 3c e8 22 4c bb
       0.05971774 0.093515985 0.019088855 -0.0031148735
000380 74 5f d2 3d bd 3d 59 bd 49 b6 bd ba f6 ae 77 bd
       0.102721125 -0.053037394 -0.0014473881 -0.06046959
000390 93 24 83 bc f3 07 bc 3c 92 17 45 3c 9d ab a8 bc
       -0.01600865 0.02295301 0.012029545 -0.020589644
0003a0 5c 6d aa bd 42 1b 14 3c 6d 69 68 bc 88 a5 90 3c
       -0.0832164 0.009039702 -0.014185292 0.017657056
0003b0 05 dc 9b 3d cb 32 b6 3d b8 11 3f bd 46 cd 5b bc
       0.07610325 0.08896407 -0.046647757 -0.01341564
0003c0 4b bc 00 bd 9a c2 cd bd fc 9b 89 bd f6 5b 81 3d
       -0.03142957 -0.10046883 -0.06719205 0.06316368
0003d0 07 4c 2f 3d a0 e0 59 3d e9 05 4e 3d 26 09 86 bd
       0.042797115 0.053192735 0.050298605 -0.06544714
0003e0 45 48 3a 3c 77 1d b0 3d a8 30 51 bd 66 0a a9 3d
       0.011369769 0.0859937 -0.051071793 0.082539365
0003f0 de 87 ec 3c 73 97 4c 3d 1f c9 f8 bc 12 c4 20 3d
       0.02887338 0.04994912 -0.03036934 0.039249487

fc2.bias f4 [64]
000000 7c 00 89 3c 1e f4 87 3d e6 ce 82 3d cf 4e e7 bc
       0.016723864 0.066383585 0.06387119 -0.028235821
000010 b1 7c 17 bd 64 f5 c1 3c fe 5b 56 bd 7f f5 0a bc
       -0.03698415 0.023676582 -0.052333824 -0.008481382
000020 49 30 cd 3c 47 88 0b bd ea 00 0e 3d 43 7c 26 bc
       0.025047438 -0.03406551 0.03466884 -0.010161462
000030 84 9c 9e 3d 6b 44 80 bd 38 6a 7a 3d 1d c1 a5 3d
       0.07744697 -0.0626305 0.061136454 0.08093474
000040 2b 2b 87 bd 79 0a cf 3c da ee 08 bc 46 2f 55 3d
       -0.066000305 0.025273548 -0.008357728 0.052047037
000050 69 ad 76 3d 94 bf 60 bd b4 84 1f bd c3 2d 75 bd
       0.06022397 -0.054870203 -0.038944915 -0.059858095
000060 1b a0 98 3d f8 69 89 bd 07 3a 65 bd 04 47 91 3d
       0.07452413 -0.06709665 -0.055963542 0.07093623
000070 fd d9 4a 3d 6d ec 81 3d 35 64 89 3d 60 e3 92 bd
       0.049524296 0.06343923 0.06708566 -0.071722746
000080 65 b3 0c bd 05 a0 67 3b dd f1 d2 3d 89 96 fb bc
       -0.03435077 0.0035343182 0.10300038 -0.03071143
000090 8a 06 d7 3b cd 3c ab 3d 4e 07 3f 3d b1 6f 61 bd
       0.006562059 0.08361206 0.046637826 -0.055038158
0000a0 64 28 85 bd 80 aa 02 bd 59 d0 e8 3c 65 64 ca 3d
       -0.065018445 -0.031900883 0.02841966 0.0988243
0000b0 e9 0b 32 3d c3 8d aa 3d ab 9e d5 3c 34 12 b4 bc
       0.04346839 0.0832782 0.026076635 -0.021981336
0000c0 f4 df f7 bb fc b2 98 3d f2 06 cd 3c b1 8f 23 3b
       -0.007564539 0.074560136 0.025027726 0.0024957473
0000d0 fa b1 57 3c c1 78 67 3d 0e 7b 99 3c 78 ab 87 3c
       0.0131649915 0.056511644 0.018735435 0.016561255
0000e0 b8 6f 1f bd 80 5b 58 bd 9b f3 e7 bc 44 97 ac 3d
       -0.038924903 -0.052821636 -0.028314402 0.08427289
0000f0 cc a1 80 3d 42 f7 2d bd f4 15 9e 3d 90 5f d2 bc
       0.0628086 -0.04247213 0.07719031 -0.025680333

bn2.weight f4 [64]
000000 3f a4 80 3f 0f 9a 7d 3f 76 31 7e 3f 8e 88 80 3f
       1.0050124 0.990632 0.9929422 1.0041673
000010 14 3a 7b 3f 19 9e 80 3f 3e ac 80 3f c9 e9 7b 3f
       0.98135495 1.0048248 1.0052564 0.984036
000020 b9 4f 7e 3f d5 bc 7b 3f ba 75 80 3f 44 4c 81 3f
       0.993404 0.9833501 1.0035927 1.01014
000030 79 9b 7d 3f 20 e7 7e 3f 28 76 7c 3f 35 81 7d 3f
       0.9906536 0.9957142 0.9861779 0.9902528
000040 f3 1a 81 3f 8a 48 7f 3f 5a 31 80 3f a1 68 80 3f
       1.0086349 0.9972006 1.0015061 1.003193
000050 e7 cf 7e 3f 7a 4b 7b 3f f4 ef 7d 3f 33 bc 7f 3f
       0.99535984 0.98162043 0.99194264 0.99896544
000060 6e b8 7d 3f c7 d3 7f 3f 7d 61 80 3f 10 a3 80 3f
       0.9910954 0.9993252 1.0029751 1.0049763
000070 6c bf 7e 3f cb 24 7e 3f 1b 43 81 3f 51 37 7d 3f
       0.99510837 0.9927489 1.0098604 0.9891253
000080 4a 78 7f 3f fd ce 7b 3f b1 5d 80 3f dd b0 80 3f
       0.9979292 0.98362714 1.0028592 1.0053974
000090 5c 79 80 3f 44 03 7a 3f b9 cb 7b 3f 9e 2d 7e 3f
       1.0037036 0.9766123 0.9835773 0.99288356
0000a0 8b 3b 7c 3f f9 1d 7d 3f 1d 7c 80 3f e1 e0 7d 3f
       0.98528355 0.9887386 1.0037876 0.9917126
0000b0 44 46 80 3f dd 41 80 3f a0 d8 7b 3f 62 a3 7d 3f
       1.0021443 1.00201 0.9837742 0.9907743
0000c0 63 2f 7f 3f 5e 71 7b 3f cd 9a 7e 3f ec 88 80 3f
       0.9968168 0.9821986 0.9945496 1.0041785
0000d0 11 22 81 3f f1 c7 7b 3f 7b 16 7d 3f 56 d2 7f 3f
       1.0088521 0.9835196 0.9886243 0.9993032
0000e0 a0 62 80 3f fb d3 7f 3f 5d 5c 80 3f 14 a1 80 3f
       1.0030098 0.9993283 1.0028187 1.0049157
0000f0 db b6 7c 3f 17 8a 7b 3f 6e 6c 7d 3f 64 a2 7b 3f
       0.98716515 0.98257583 0.98993576 0.98294663

bn2.bias f4 [64]
000000 9e 71 c1 3e 63 54 b7 be e6 b7 9d 3e 7e b2 aa 3e
       0.37781996 -0.3580657 0.30804366 0.33339304
000010 ac 3e ca 3e f3 4d bb 3e 93 2e b1 be 03 c9 c3 3e
       0.3950094 0.36582908 -0.34605846 0.38239297
000020 5e 34 a1 3e e0 4e a1 3e b2 62 9f be 30 25 b1 be
       0.31485265 0.3150549 -0.31129986 -0.34598684
000030 d6 4b 9c 3e 89 8b a4 3e 2e 60 ab 3e b6 2c 9d be
       0.30526608 0.32137707 0.33471817 -0.30698174
000040 d7 2f ac be 13 44 bc be ca 80 ad be 87 73 cb be
       -0.3363025 -0.36770687 -0.3388732 -0.39736578
000050 3c dc a2 be 2a b0 9e 3e aa 94 a1 be 11 5f b2 be
       -0.3180865 0.30993778 -0.31558734 -0.34838155
000060 e6 c8 b5 be 0a ee a7 be 8d ef c8 3e 15 b5 b0 3e
       -0.35504836 -0.32798797 0.39245263 0.34513155
000070 9b c8 ba 3e db 24 a3 3e cc 75 dc 3e b1 66 ac be
       0.36481175 0.31864056 0.43058622 -0.33672097
000080 4c ea c2 be d0 30 de 3e b9 91 b7 be ca f1 9f 3e
       -0.3806938 0.43396616 -0.35853365 0.31239158
000090 1d b1 a7 3e 13 4d 9f 3e 3c 8f 9c be 1d 85 9d 3e
       0.32752314 0.3111349 -0.3057803 0.3076562
0000a0 ba e6 ad be bc 3a a4 be 90 23 bf 3e 6a c2 c5 3e
       -0.33965093 -0.3207606 0.3733182 0.3862489
0000b0 cc 8f a3 be d9 db a1 3e 35 96 9f 3e 88 62 c7 3e
       -0.31945646 0.31613043 0.31169286 0.3894236
0000c0 a4 c2 ce 3e b6 03 b6 3e 19 27 d0 be e6 c2 ac be
       0.40382874 0.35549706 -0.4065483 -0.33742446
0000d0 b0 f2 ac be ac 98 bc be 31 c1 a5 be f7 a6 b1 3e
       -0.33778906 -0.3683523 -0.32373956 0.34697697
0000e0 35 02 ce be 85 00 b6 be 46 66 b9 be ae a6 b8 3e
       -0.4023606 -0.3554727 -0.3621084 0.36064667
0000f0 de dc a2 be ea 05 a6 3e ba 3f ac 3e c2 df 9c 3e
       -0.31809133 0.32426387 0.3364237 0.30639464

bn2.running_mean f4 [64]
000000 87 5d 19 3f 8d 64 02 3e 99 ae 58 3e 46 6d 11 3f
       0.59908336 0.1273367 0.21160354 0.56807363
000010 59 53 83 3e 58 df d3 3e e2 be fd 3d b6 01 af 3d
       0.25649527 0.41381335 0.12389924 0.08545248
000020 e4 e1 f6 3e a9 7e cc 3d 03 7e be 3e 6f aa ac 3e
       0.48219216 0.09985096 0.37205514 0.3372378
000030 61 51 9c 3e c9 24 91 3e af 7b 0d 3e 60 90 70 3e
       0.30530837 0.28348377 0.13816713 0.23492575
000040 d9 9c a9 3e 72 20 8a 3e 86 60 c0 3e ea 44 b1 3e
       0.33127478 0.2697788 0.37573642 0.3462289
000050 6a fe 97 3e ac 37 cd 3d b1 f1 94 3e 63 89 79 3e
       0.2968629 0.10020384 0.29090646 0.24368815
000060 3c f7 ca 3e 1a 67 13 3e 10 9d ce 3e a1 6a 98 3e
       0.3964175 0.14394799 0.40354204 0.2976885
000070 dc 3e a5 3e f8 6e fd 3e a8 e9 8c 3e ce e1 7a 3e
       0.3227452 0.49498725 0.27522016 0.245002
000080 25 01 9e 3e 64 a1 be 3e d8 ab 95 3e 03 0f 49 3e
       0.30860248 0.37232506 0.2923267 0.19634633
000090 62 99 e8 3e cf 4a 91 3e f5 d3 40 3e 12 45 55 3e
       0.45429522 0.28377387 0.18830855 0.2082713
0000a0 a9 da 0d 3e 56 38 9b 3e 34 13 f2 3e 6b 0b 34 3f
       0.13852943 0.30316418 0.47280276 0.7032992
0000b0 d9 86 72 3e 8e 24 cb 3e 7c 29 0d 3e 6a 16 7c 3e
       0.23684253 0.39676327 0.13785356 0.24617925
0000c0 29 f5 c4 3e aa cd f2 3d 2e 72 fa 3e 71 65 9f 3e
       0.38468292 0.118556336 0.48915237 0.3113208
0000d0 c7 fb 4c 3e af e2 8a 3e f4 1b 8d 3e 79 21 03 3f
       0.2001792 0.2712607 0.2756039 0.5122295
0000e0 31 d2 a5 3e 39 b7 e7 3d 9e 82 12 3f 0f b5 48 3f
       0.32386926 0.11314244 0.57230556 0.78401273
0000f0 37 6c 0f 3e b4 39 af 3e da 4b 90 3e a9 23 0b 3e
       0.14006124 0.34223711 0.2818287 0.13587822

bn2.running_var f4 [64]
000000 b6 7d d1 3e e5 aa 0a 3e a8 a6 64 3d 70 5b a8 3e
       0.40916222 0.13541754 0.055823 0.3288226
000010 ca ff 65 3e 40 7d 70 3e 6f fd b1 3d 8b 56 1a 3e
       0.22460857 0.23485279 0.08690917 0.15072076
000020 15 77 9b 3e 3f ae ec 3d 30 84 39 3e 2e 23 28 3e
       0.3036429 0.11556672 0.18116832 0.1641967
000030 8c 5e c7 3d 97 66 59 3e 93 ad 17 3e 52 1c 68 3d
       0.0973483 0.21230541 0.14812307 0.056667633
000040 c2 34 f4 3d eb b4 3a 3e c1 3c 5e 3e 73 14 12 3e
       0.11924125 0.18233077 0.21702863 0.14265613
000050 e5 1c d2 3d b1 21 9b 3c 92 30 b0 3d 59 cd 96 3d
       0.102594174 0.018936964 0.08603014 0.07363386
000060 39 f6 2a 3e ae fe 67 3e f6 12 49 3e 0c ed b8 3d
       0.16695489 0.22655746 0.1963614 0.09029588
000070 7c ab 0a 3e 82 d6 90 3e c5 06 b1 3d d8 2f 93 3d
       0.13541979 0.28288656 0.08643869 0.0718686
000080 18 d5 dd 3d de 60 1d 3e de 01 be 3d db f0 41 3d
       0.1083166 0.15368983 0.092777 0.04734884
000090 1d 82 5d 3e 81 b0 46 3d df f6 34 3d fe 42 49 3d
       0.21631666 0.04850817 0.044180747 0.049136154
0000a0 3d 31 49 3d 0d c3 cb 3d 78 dc 6e 3e 14 72 0a 3f
       0.049119223 0.09949312 0.2332629 0.5408032
0000b0 64 52 ee 3d a0 97 25 3e 29 00 8d 3e f6 0b 9e 3e
       0.116368085 0.16171122 0.27539185 0.308685
0000c0 39 53 2f 3e 60 ae 34 3e b3 e4 84 3e 72 f6 73 3f
       0.1712159 0.17644644 0.25955734 0.9529792
0000d0 62 c6 7a 3d 87 5c ce 3d d9 1b ce 3d 8b cf 90 3e
       0.06122435 0.10076242 0.10063905 0.28283343
0000e0 44 e9 69 3e 5d 4f a7 3e 0d f9 b0 3e 2b f2 20 3f
       0.2284289 0.32677737 0.3456501 0.6286952
0000f0 34 dd 82 3d 5f a2 7f 3e 1f 38 fd 3d 90 e7 00 3d
       0.063898474 0.24964283 0.1236422 0.031470835

fc3.weight f4 [1, 64]
000000 1a 37 a9 be c0 25 b3 3e 2b 5e ae be 67 b8 b3 be
       -0.33049852 0.34989738 -0.3405622 -0.35101625
000010 e1 6a b5 be 77 9c b3 be a1 ec bc 3e c5 47 b6 be
       -0.35433105 -0.3508031 0.36899284 -0.3560163
000020 20 c5 d4 be d8 e6 e3 be 5d be db 3e 92 f2 c3 3e
       -0.41556644 -0.44512057 0.42918673 0.38271004
000030 c2 5d d5 be 26 35 d9 be d1 20 c8 be ac 7f c0 3e
       -0.41673094 -0.42423362 -0.39087537 0.37597406
000040 9f 54 b6 3e 0d b4 af 3e c3 5a be 3e 6b c0 a4 3e
       0.35611436 0.34317055 0.3717862 0.32178053
000050 e9 23 b3 3e fe 11 b2 be f9 88 c4 3e 2d 70 aa 3e
       0.34988335 -0.34779352 0.38385752 0.33288708
000060 d5 28 af 3e 6b 88 d2 3e d3 89 a3 be a7 8f a9 be
       0.3421084 0.41119704 -0.3194109 -0.3311741
000070 6c 2f b1 be f0 c8 c0 be 01 38 aa be 29 6a c1 3e
       -0.34606493 -0.37653303 -0.33245853 0.37776306
000080 dd e9 9e 3e 93 8c 9f be 54 3d a6 3e 6d 4b ce be
       0.310378 -0.31161937 0.32468665 -0.4029192
000090 43 4e b5 be 6c 08 ca be ad 11 d7 3e f8 19 c8 be
       -0.3541127 -0.3945955 0.42005673 -0.39082313
0000a0 b5 89 a8 3e aa cc c5 3e 8f 85 a9 be 54 94 a4 be
       0.32917562 0.3863271 -0.3310971 -0.32144415
0000b0 fc 56 cd 3e ca d8 c0 be 91 7f e1 be d0 0b a8 be
       0.40105426 -0.37665397 -0.44042638 -0.32821512
0000c0 59 43 ae be 8d 59 bf be 99 7e 9e 3e bc e6 ce 3e
       -0.34035757 -0.3737301 0.3095596 0.4041041
0000d0 93 33 a9 3e 4e f9 a5 3e 98 2e b7 3e 7c 19 b2 be
       0.3304716 0.32416767 0.35777736 -0.34785068
0000e0 55 06 b7 3e bc a2 c3 3e e8 48 bc 3e 96 0d a7 be
       0.35747018 0.38210094 0.36774373 -0.32627553
0000f0 b2 33 d5 3e 28 40 ce be c8 e9 9e be dd 0a d2 be
       0.41641003 -0.40283322 -0.31037736 -0.41023913
