PreTrained/cstr_ode/Deep_DQN/0_10/300.pth (torch, 43158 bytes, 13 tensors)

fc1.weight f4 [128, 4]
0	0xbc220d24	-0.009890828
1	0x3e8c0c51	0.27353147
2	0xbed44b83	-0.4146386
3	0xbeb9ba1c	-0.36274803
4	0xbe40cc73	-0.18827991
5	0x3e0db6a4	0.13839203
6	0xbc22d725	-0.00993899
7	0x3ec8c560	0.39213085
8	0xbd33e55a	-0.0439199
9	0x3e049d29	0.12950577
10	0xbe205bc7	-0.1566001
11	0xbdb1ef4b	-0.0868822
12	0xbef6391a	-0.4809044
13	0xbea8277d	-0.32842627
14	0xbe565e44	-0.20934397
15	0x3c407647	0.0117469495
16	0x3e49a8d2	0.19693306
17	0x3e9973cc	0.29971159
18	0xbeac7be9	-0.33688286
19	0xbe5c2150	-0.21497083
20	0x3e38b880	0.18039131
21	0x3ed4ad81	0.41538623
22	0xbddacb66	-0.106833264
23	0x3ec20a1d	0.3789834
24	0xbdabc4d9	-0.08387155
25	0x3d802c5c	0.06258461
26	0x3ee59313	0.4483877
27	0xbef5e7a2	-0.48028284
28	0xbea08297	-0.31349632
29	0xbe03d705	-0.12874992
30	0xbe48a20c	-0.19593066
31	0x3edcfa8d	0.43159905
32	0xbea5bfb8	-0.32372832
33	0xbe6ddc5f	-0.23228596
34	0xbeb22910	-0.34796953
35	0xbeee2062	-0.4650908
36	0xbe993cc9	-0.29929188
37	0x3edb391b	0.42817006
38	0x3e5e9e62	0.21740106
39	0x3e75aa16	0.23990664
40	0x3ce01239	0.02735244
41	0xbe813213	-0.25233516
42	0x3db82eb2	0.089932814
43	0xbeebec89	-0.460789
44	0xbeb8fa1a	-0.36128312
45	0xbe83f9c6	-0.257765
46	0x3ea18526	0.31546897
47	0x3e961926	0.29316062
48	0xbe5da0be	-0.2164335
49	0xbc4e0881	-0.01257527
50	0x3ea3b99f	0.31977555
51	0x3efbb2b0	0.49159765
52	0x3e43b3a9	0.19111504
53	0x3d875499	0.066079326
54	0x3eb0d0fa	0.34534436
55	0xbe94a79d	-0.2903413
56	0x3db2058c	0.08692464
57	0xbec8d108	-0.39221978
58	0xbeb1c3ab	-0.34719595
59	0xbe80f004	-0.25183117
60	0x3e6e907d	0.23297305
61	0x3e47020b	0.19434373
62	0xbe943169	-0.28943947
63	0x3e1aadc8	0.15105355
64	0x3e91cbb6	0.28475732
65	0xbd582b2a	-0.05277554
66	0x3c897034	0.016777135
67	0x3ddc7c68	0.10765916
68	0x3e9d2b7c	0.30697238
69	0x3ef7734e	0.48330158
70	0xbec6e8fc	-0.38849628
71	0xbe392b5a	-0.18082944
72	0x3e4c1a6e	0.19931957
73	0x3ed1b7f7	0.40960667
74	0x3ede3940	0.43403053
75	0x3ee56e83	0.44810876
76	0x3dd3c136	0.103395864
77	0xbed88b2f	-0.4229369
78	0x3d569250	0.05238563
79	0xbe9eb560	-0.30997753
80	0xbeee84f8	-0.46585822
81	0x3ee2eaa2	0.44319636
82	0x3ec25c21	0.37960914
83	0xbefeb743	-0.49749193
84	0x3dbfaa08	0.09358603
85	0xbdac80c8	-0.084230006
86	0xbda882b8	-0.082280576
87	0xbe6a5f1c	-0.22887844
88	0x3e4b35c5	0.1984473
89	0xbe9acd9c	-0.30234993
90	0x3e428482	0.1899586
91	0x3e817616	0.25285405
92	0x3eb3f852	0.3515039
93	0x3e41c716	0.18923602
94	0xbf00b9c4	-0.50283456
95	0xbea312ae	-0.3185019
96	0x3e7f17cd	0.24911423
97	0x3dd699b3	0.104785345
98	0xbec7453b	-0.38920006
99	0xbe93753b	-0.28800377
100	0x3ef0d4f2	0.47037464
101	0x3eac7f54	0.33690894
102	0xbe5f3eb0	-0.21801257
103	0xbe00dcd4	-0.12584239
104	0xbef22b80	-0.47298813
105	0xbc3d5c1e	-0.011557607
106	0xbebf9bdb	-0.37423596
107	0xbec6f110	-0.3885579
108	0xbce5c068	-0.028045848
109	0x3d9862af	0.074406974
110	0xbe4e1057	-0.2012342
111	0x3e944f35	0.2896668
112	0xbea1ca3f	-0.31599614
113	0x3eee376e	0.46526664
114	0x3ea976bb	0.33098397
115	0xbed2a26b	-0.4113954
116	0xbdf6e59a	-0.12055512
117	0x3ca795af	0.020457117
118	0x3d9dbc71	0.07701958
119	0x3de43db4	0.111445814
120	0x3e475cfe	0.19469067
121	0x3d01c189	0.03167871
122	0xbe7b6220	-0.2454915
123	0x3e703a59	0.23459758
124	0xbef5a795	-0.47979417
125	0xbe97a57f	-0.2961845
126	0xbe002caa	-0.12517038
127	0xbe799390	-0.24372697
128	0xbe375f5c	-0.1790747
129	0xbece3335	-0.40273443
130	0xbde3e624	-0.1112788
131	0x3dcafd02	0.09911539
132	0xbea95c0a	-0.33078033
133	0xbc9e4a98	-0.019322678
134	0x3eb4ac13	0.35287532
135	0xbd738e3c	-0.059461817
136	0x3c63ac80	0.013896108
137	0xbd30adc0	-0.04313445
138	0x3dcf3d10	0.101190686
139	0x3ea2c660	0.31791973
140	0x3eee6eb2	0.4656883
141	0x3ea7fdab	0.3281072
142	0x3ef6064f	0.48051688
143	0xbcd2200b	-0.025650045
144	0xbee27528	-0.44230008
145	0xbe79d222	-0.24396566
146	0x3eb1748f	0.3465924
147	0x3b308e60	0.002694033
148	0xbe815cdb	-0.25266156
149	0xbec173cf	-0.37783667
150	0xbef7e0f5	-0.48413816
151	0xbed6232d	-0.41823712
152	0xbdd8b53e	-0.10581444
153	0x3e8e8471	0.2783542
154	0x3e875656	0.26433057
155	0xbef2fc57	-0.47458145
156	0x3e9fb02e	0.31189102
157	0xbec8528a	-0.39125472
158	0xbdd87bf0	-0.10570514
159	0xbe4f9a1c	-0.20273632
160	0xbdba06e5	-0.09083346
161	0xbdd39bce	-0.10332452
162	0xbee66493	-0.44998607
163	0xbedc8c4f	-0.43075797
164	0xbda03c28	-0.07823974
165	0x3bd3e180	0.0064660907
166	0xbe6896b8	-0.22713745
167	0x3e40deb8	0.1883496
168	0xbee81c6b	-0.4533418
169	0xbcf34e1a	-0.029700328
170	0x3edf631f	0.4363031
171	0xbe58ad61	-0.21159889
172	0x3ee15b35	0.44014898
173	0x3e46c39a	0.19410554
174	0xbee75bbb	-0.45187172
175	0x3ea216a9	0.31657913
176	0xbd671c6c	-0.05642359
177	0xbe61b3af	-0.220412
178	0x3eced592	0.40397316
179	0xbece6b39	-0.4031618
180	0x3d564d3e	0.052319758
181	0xbdd1ce51	-0.1024443
182	0x3eb7f3c7	0.35928175
183	0x3e122400	0.14271545
184	0x3e73f6a5	0.23824556
185	0x3e39af3b	0.18133251
186	0xbdf5c2f0	-0.12000072
187	0xbddf1314	-0.10892311
188	0xbed91002	-0.42395025
189	0x3e908318	0.28225017
190	0x3ec4b4ab	0.3841909
191	0x3eb248eb	0.34821257
192	0xbeb493ac	-0.35268915
193	0x3cb6ae60	0.022299945
194	0xbeb47690	-0.35246706
195	0xbe8cec88	-0.2752421
196	0xbe90c6fa	-0.28276807
197	0x3e262ee3	0.16228823
198	0xbe942880	-0.2893715
199	0xbc32ba00	-0.010908604
200	0x3cbed940	0.023296952
201	0x3ea3c5fb	0.31986985
202	0xbebd9d51	-0.37034085
203	0xbeb0c86a	-0.34527904
204	0xbe952cf6	-0.29135865
205	0x3eb1b1ec	0.34706056
206	0xbe30b5e5	-0.17256887
207	0x3ed775c3	0.42082033
208	0x3e3924a0	0.18080378
209	0x3d81aa40	0.06331301
210	0xbb73ed00	-0.003722012
211	0xbdca6d08	-0.09884077
212	0x3d84ff0a	0.06493957
213	0xbdecd942	-0.11564876
214	0x3ac02a82	0.0014661106
215	0x3d5dcd24	0.054150715
216	0xbec628f6	-0.38703126
217	0xbe8338fa	-0.25629407
218	0x3ed13b01	0.4086533
219	0xbed4fe5e	-0.41600317
220	0xbcfa252e	-0.030535307
221	0x3ef9bd0c	0.48777044
222	0x3e3e96ff	0.18612288
223	0x3c673c2c	0.014113467
224	0xbedaf569	-0.42765358
225	0x3e77d777	0.24203287
226	0xbeb3955d	-0.35074893
227	0xbe106ef2	-0.14104822
228	0xbe2fab6e	-0.17155239
229	0xbd92b9f5	-0.07164375
230	0x3a951db5	0.0011376651
231	0x3ed3faaf	0.41402194
232	0x3d8cdf43	0.06878521
233	0x3ee1af8b	0.4407924
234	0x3e9ecd1c	0.3101586
235	0xbe9ff6f0	-0.31243086
236	0x3e65cbce	0.22441027
237	0xbeb452be	-0.35219377
238	0xbe5a03f1	-0.21290566
239	0x3e0e4509	0.13893522
240	0x3e28cca5	0.16484316
241	0x3ec0302d	0.37536755
242	0xbe251473	-0.16121082
243	0x3a51d400	0.0008004308
244	0x3e7cbd77	0.2468165
245	0xbef545a8	-0.47904706
246	0x3eb5fe12	0.35545403
247	0xbed1aedd	-0.40953723
248	0x3bc27c69	0.005935241
249	0xbdaafa8b	-0.083485685
250	0xbe84dbed	-0.2594904
251	0x3d8a8e8a	0.067654684
252	0x3ed65dad	0.41868344
253	0xbe17756b	-0.14790885
254	0xbe958d70	-0.2920947
255	0xbe3f86a3	-0.18703704

fc1.bias f4 [128]
0	0xbe14f3e4	-0.14546162
1	0xbe4349de	-0.19071147
2	0x3e021894	0.12704688
3	0x3e31dd6a	0.17369619
4	0xbe7c8556	-0.24660239
5	0x3d39bee6	0.04534807
6	0x3e93c79e	0.28863233
7	0xbd4d7aee	-0.050166063
8	0x3e1bb74f	0.15206645
9	0xbdfeaef1	-0.12435711
10	0x3e396ad9	0.18107165
11	0xbeb971e6	-0.3621971
12	0xbe9955e0	-0.2994833
13	0xbe7a58d7	-0.24447952
14	0x3eebcb91	0.46053746
15	0xbe10ab60	-0.14127874
16	0xbc667501	-0.014065982
17	0xbe74d31a	-0.23908654
18	0x3eff20f9	0.49829844
19	0x3efa65db	0.48905835
20	0xbec1b91b	-0.37836537
21	0xbecf8810	-0.40533495
22	0xbebea286	-0.3723337
23	0xbc3a2020	-0.011360198
24	0xbe06b9dc	-0.13156837
25	0xbea7904e	-0.32727283
26	0xbe35089b	-0.17679064
27	0x3dcb37f3	0.09922781
28	0xbe8b00ed	-0.27149144
29	0x3de4dd4a	0.1117502
30	0xbde844ea	-0.11341269
31	0xbe77ec0c	-0.24211138
32	0x3d876772	0.066115275
33	0x3ed21d4b	0.41037974
34	0xbead1388	-0.33803964
35	0x3c8b0804	0.016971596
36	0xbe36857a	-0.17824355
37	0x3ef401fa	0.47657758
38	0xbef6cad1	-0.48201612
39	0xbef56ad2	-0.4793306
40	0x3efcc964	0.493724
41	0xbea1f7f8	-0.31634498
42	0x3dc964bb	0.09833666
43	0xbd84fc6e	-0.0649346
44	0xbdd1084d	-0.102066614
45	0xbdde27bf	-0.10847425
46	0x3ea3b3ac	0.31973016
47	0x3c84ce92	0.016211782
48	0xbef93ece	-0.4868073
49	0xbe9b871c	-0.30376518
50	0xbe2fea12	-0.17179134
51	0x3e815887	0.25262854
52	0xbea5aa8e	-0.32356685
53	0x3ef224fe	0.47293848
54	0xbdd79fb6	-0.10528509
55	0xbdae3244	-0.08505681
56	0x3ecb7413	0.39736995
57	0x3e79fdc2	0.24413207
58	0x3eda596c	0.42646348
59	0x3e935b11	0.28780416
60	0xbe1b0ee9	-0.15142407
61	0xbeaee4e1	-0.34158996
62	0xbd1f64d5	-0.03891452
63	0x3ed3ea36	0.41389626
64	0xbe291159	-0.16510524
65	0xbeed681e	-0.46368498
66	0x3e47bf86	0.19506654
67	0x3ef8c6a6	0.48589057
68	0xbe1d003f	-0.15332125
69	0xbed3f95a	-0.41401178
70	0xbee98ac3	-0.4561368
71	0x3df9c157	0.1219508
72	0xbd0d771f	-0.03453743
73	0xbe82f2fc	-0.25576007
74	0x3dddb824	0.10826138
75	0x3e3ef0cc	0.18646544
76	0x3ecbfce5	0.3984138
77	0x3ec6d07e	0.38830942
78	0xbd9b3f03	-0.07580378
79	0xbee1bb7e	-0.44088358
80	0xbee753d8	-0.45181155
81	0x3eef0432	0.46682888
82	0x3e6266e5	0.22109564
83	0x3e6ed2c9	0.23322596
84	0xbedaf3c6	-0.4276411
85	0x3eedc827	0.46441767
86	0x3eecb2be	0.4623012
87	0x3eec9ce4	0.46213448
88	0xbed7f530	-0.4217925
89	0xbe39f229	-0.18158783
90	0xbeae8ad6	-0.34090298
91	0x3eefb16d	0.46815053
92	0xbe553198	-0.208197
93	0xbe718893	-0.23587255
94	0x3e850686	0.2598154
95	0xbe682cc3	-0.22673325
96	0xbe777a71	-0.24167801
97	0xbd2682ce	-0.04065209
98	0xbd82c6fc	-0.063856095
99	0xbec6b6b2	-0.3881126
100	0x3ed3a2d7	0.41335174
101	0xbe62b377	-0.22138773
102	0x3e376974	0.17911321
103	0x3ede68c0	0.43439293
104	0x3e788186	0.2426816
105	0x3d91797a	0.07103248
106	0x3ed8df50	0.42357874
107	0x3d6bc4a4	0.057560578
108	0xbe664e2d	-0.22490759
109	0x3ef2607e	0.47339243
110	0x3dea170c	0.11430177
111	0xbef9c638	-0.4878404
112	0xbe0e30de	-0.13885829
113	0xbeb0c437	-0.345247
114	0x3ee0866c	0.43852556
115	0xbd9e176c	-0.07719311
116	0xbee959b2	-0.45576245
117	0xbce9c2c0	-0.028535247
118	0x3ea1a5db	0.3157185
119	0x3df66870	0.120316386
120	0x3e288537	0.16457067
121	0x3d3fe5b4	0.04684992
122	0x3e3cc50b	0.18434541
123	0xbe02fb5a	-0.12791196
124	0xbe4570ff	-0.19281386
125	0xbeef490e	-0.46735424
126	0xbebfee96	-0.37486714
127	0x3e5affec	0.21386689

bn1.weight f4 [128]
0	0x3f7f6c7d	0.99774915
1	0x3f7ef0f2	0.99586403
2	0x3f805ad2	1.0027716
3	0x3f7efbda	0.99603045
4	0x3f80560a	1.0026257
5	0x3f7e7e37	0.9941134
6	0x3f7fdf6f	0.9995031
7	0x3f803791	1.0016958
8	0x3f8096c8	1.0046015
9	0x3f7dc7a7	0.9913277
10	0x3f7fe6a5	0.9996131
11	0x3f800000	1.0
12	0x3f7ea872	0.9947578
13	0x3f7ecec9	0.9953428
14	0x3f7f73f3	0.997863
15	0x3f7e98ce	0.9945191
16	0x3f7f55df	0.99740404
17	0x3f7fe02f	0.9995145
18	0x3f8041d8	1.0020094
19	0x3f7f8127	0.99806446
20	0x3f7f148c	0.9964073
21	0x3f800000	1.0
22	0x3f7f1f66	0.99657285
23	0x3f7e42ae	0.99320495
24	0x3f801074	1.0005021
25	0x3f800000	1.0
26	0x3f7fa754	0.998647
27	0x3f8018af	1.0007533
28	0x3f7d6383	0.9897997
29	0x3f7ee39a	0.9956604
30	0x3f7fb100	0.99879456
31	0x3f800c52	1.000376
32	0x3f7e891f	0.9942798
33	0x3f809599	1.0045654
34	0x3f800000	1.0
35	0x3f802a6b	1.0012945
36	0x3f7ee9c6	0.9957546
37	0x3f807b01	1.0037538
38	0x3f7e3300	0.9929657
39	0x3f800000	1.0
40	0x3f7f0fb1	0.9963332
41	0x3f800000	1.0
42	0x3f80c39f	1.0059699
43	0x3f7f48b4	0.9972031
44	0x3f7ed950	0.9955034
45	0x3f7f1787	0.99645275
46	0x3f7eac4e	0.99481666
47	0x3f808e1a	1.0043366
48	0x3f800000	1.0
49	0x3f7efba7	0.9960274
50	0x3f7f8c02	0.9982301
51	0x3f7faf50	0.9987688
52	0x3f800000	1.0
53	0x3f8142a1	1.0098459
54	0x3f7ef3b8	0.99590635
55	0x3f7ffcd1	0.9999514
56	0x3f8089d0	1.0042057
57	0x3f7fb0fa	0.9987942
58	0x3f7f2eed	0.9968098
59	0x3f80572c	1.0026603
60	0x3f804539	1.0021125
61	0x3f7fdfc1	0.99950796
62	0x3f7f9a62	0.99844944
63	0x3f80568e	1.0026414
64	0x3f804926	1.0022323
65	0x3f800000	1.0
66	0x3f80a5d5	1.0050608
67	0x3f81352c	1.0094352
68	0x3f800e8c	1.0004439
69	0x3f800000	1.0
70	0x3f7f82a4	0.99808717
71	0x3f7fc19c	0.999048
72	0x3f803dcb	1.0018858
73	0x3f7f3432	0.9968902
74	0x3f7f6add	0.99772435
75	0x3f80d8c3	1.006615
76	0x3f7fba7c	0.9989393
77	0x3f7f1834	0.99646306
78	0x3f7df6a1	0.9920445
79	0x3f800000	1.0
80	0x3f800000	1.0
81	0x3f81cdb8	1.0140905
82	0x3f7f7bc1	0.9979821
83	0x3f80c2e0	1.0059471
84	0x3f7f0cd7	0.9962897
85	0x3f80c62e	1.006048
86	0x3f7f969b	0.9983918
87	0x3f7f17f7	0.9964594
88	0x3f800000	1.0
89	0x3f7fd5e9	0.99935776
90	0x3f7f6cf0	0.997756
91	0x3f7ec3ca	0.995175
92	0x3f80740c	1.0035415
93	0x3f7e4c9b	0.9933564
94	0x3f8077ba	1.0036538
95	0x3f7f0f10	0.9963236
96	0x3f7c84bc	0.98640037
97	0x3f7e6c43	0.99383944
98	0x3f7fbeb4	0.99900365
99	0x3f802c41	1.0013505
100	0x3f806b9e	1.0032842
101	0x3f7ff48e	0.99982536
102	0x3f804bf9	1.0023185
103	0x3f80ad64	1.0052915
104	0x3f8091af	1.0044459
105	0x3f804c11	1.0023214
106	0x3f8077bf	1.0036544
107	0x3f8035f2	1.0016463
108	0x3f7edf61	0.995596
109	0x3f8045af	1.0021266
110	0x3f8071bf	1.0034713
111	0x3f800000	1.0
112	0x3f804520	1.0021095
113	0x3f7ef9d5	0.99599963
114	0x3f80c3ad	1.0059716
115	0x3f7f0e35	0.99631053
116	0x3f800000	1.0
117	0x3f807f6c	1.0038886
118	0x3f7f79b7	0.997951
119	0x3f7f260b	0.99667424
120	0x3f803016	1.0014675
121	0x3f800894	1.0002618
122	0x3f8075ae	1.0035913
123	0x3f801e54	1.0009255
124	0x3f7ef83a	0.99597514
125	0x3f800000	1.0
126	0x3f7e81e8	0.9941697
127	0x3f7ff805	0.9998782

bn1.bias f4 [128]
0	0xbb959ea2	-0.0045660296
1	0x3a8e2abc	0.0010846476
2	0xbc38af4f	-0.011272266
3	0x3b21f56c	0.0024712933
4	0xbc47f236	-0.012203744
5	0xba064f91	-0.00051235507
6	0xba826c04	-0.0009950404
7	0xbb20b2d7	-0.002452066
8	0x3b28773a	0.002570583
9	0x3bccb08c	0.006246632
10	0xb8e8fc2a	-0.00011109591
11	0x3a9b7fda	0.0011863664
12	0xbbf570d7	-0.007490258
13	0x3ba15b8f	0.0049242447
14	0xbbb627f2	-0.005558961
15	0x3ab209cd	0.0013583243
16	0xbbbe7ddc	-0.0058133435
17	0xba8d73df	-0.0010791979
18	0xbb1cc7a2	-0.0023922701
19	0xbc9a02cb	-0.01880016
20	0xbb092020	-0.002092369
21	0xbafd7318	-0.0019336669
22	0xbbc75227	-0.0060827914
23	0xbc0aa7f3	-0.008462894
24	0xba3c7efe	-0.0007190554
25	0xbb89a744	-0.004200848
26	0x3bb7f8cb	0.005614375
27	0xbbfa4673	-0.0076377927
28	0xbbcfed3f	-0.0063454206
29	0x3ba03319	0.004888904
30	0x3aff9219	0.0019498497
31	0x3b22e461	0.0024855363
32	0xbbec5ef6	-0.0072134687
33	0xbad4f070	-0.0016245972
34	0xbbc403a4	-0.0059818793
35	0xba9ed0de	-0.0012116691
36	0x3befc6c7	0.0073173973
37	0xbba6185b	-0.0050688214
38	0x3c02f4ae	0.0079929065
39	0x3a1217cc	0.0005573004
40	0x3bb5281c	0.005528463
41	0x3bb4748c	0.0055070575
42	0xbc2ade3d	-0.010428962
43	0xbc15828c	-0.009125363
44	0x3a071a3c	0.00051537505
45	0x3aa27673	0.001239492
46	0xbbb8342a	-0.005621453
47	0xbc5e1198	-0.013553999
48	0xbc22ca29	-0.009935894
49	0x3a75d36f	0.00093775144
50	0x3bd971c3	0.006635876
51	0x3bb773ad	0.0055985064
52	0x3b873822	0.0041265646
53	0x3b39aca0	0.0028331652
54	0x3a665c2c	0.00087875384
55	0xbba8f90b	-0.0051566414
56	0xbb4b308f	-0.0031004285
57	0xbb6f7e1b	-0.003654367
58	0x383d5ac0	4.514563e-05
59	0x3a039895	0.000501999
60	0x3b2f7e33	0.0026778101
61	0xbb6dd0bf	-0.0036287752
62	0x3c43be49	0.011947223
63	0xbb9a6f47	-0.0047129723
64	0xbb8a8ad0	-0.0042279735
65	0xbc15c832	-0.009141969
66	0xbbfd8812	-0.007737168
67	0x3b47561f	0.0030416322
68	0xbbf4d735	-0.0074719437
69	0xb9a81ba6	-0.00032064057
70	0xbc027068	-0.00796137
71	0xba70c9a5	-0.0009185321
72	0xbbacb106	-0.0052701263
73	0xba4823b3	-0.0007634714
74	0xbbc7802b	-0.006088277
75	0x3bef5aba	0.0073045166
76	0xbb0ef7d4	-0.0021815198
77	0xba19c90c	-0.0005866445
78	0x3c23e76f	0.010003909
79	0x3ade34e0	0.0016953014
80	0x3c500bbe	0.012698112
81	0xbb9cf0b2	-0.0047894353
82	0xbbb0e9d1	-0.005398967
83	0x3bd12699	0.006382775
84	0x3bde80fa	0.0067902775
85	0x3bace277	0.00527602
86	0x3be39d6d	0.006946257
87	0x3b0cbd00	0.0021474957
88	0x3b90aca2	0.0044151107
89	0x3ba08a36	0.0048992885
90	0x3c24389c	0.010023262
91	0x39d12fce	0.00039899204
92	0xb9c4ad22	-0.00037513027
93	0x3b857f39	0.004074004
94	0xbb67b9d5	-0.0035358567
95	0x3bb3eca4	0.0054908562
96	0xbb41c7b0	-0.0029568486
97	0xbacaa83c	-0.0015461515
98	0x3b9de234	0.0048182253
99	0x3b448b05	0.0029990089
100	0xbaaf9f30	-0.0013398882
101	0xbbbcca15	-0.0057613947
102	0x3bae3922	0.0053168694
103	0x3b954a51	0.0045559783
104	0x3c7e32b7	0.015515021
105	0xb9981907	-0.00029010346
106	0xbbbf1e88	-0.005832497
107	0x3b210752	0.0024571014
108	0xbb852d83	-0.0040642633
109	0xbb9b2ea2	-0.0047357837
110	0x3c40f625	0.011777435
111	0x3c14ab71	0.009074078
112	0x3b35a2d8	0.002771547
113	0x3b9e894b	0.004838144
114	0x3affb66e	0.0019509324
115	0x3b39706f	0.0028295775
116	0x3bacf15b	0.0052777953
117	0x3b1980d0	0.0023422725
118	0xbb9635e8	-0.004584063
119	0xbb24d62e	-0.0025152075
120	0xbbceefb0	-0.006315194
121	0x3b86858c	0.0041052755
122	0xba589acd	-0.0008262813
123	0xbb2a55cd	-0.0025991083
124	0xbb9b82dc	-0.0047458243
125	0x3c459890	0.0120602995
126	0x39cbbe70	0.00038861064
127	0x3c047a21	0.008085758

bn1.running_mean f4 [128]
0	0x3b4436e3	0.0029939942
1	0x00000004	6e-45
2	0x3d3f5ebc	0.046721205
3	0x3d2467b6	0.04013797
4	0x3a4a2379	0.00077109743
5	0x3c8afe52	0.016966973
6	0x3ee9de99	0.4567764
7	0x3b1bcad0	0.0023772009
8	0x3d4455f0	0.04793352
9	0x3809f240	3.288896e-05
10	0x3e93641e	0.2878732
11	0x00000000	0.0
12	0x00000004	6e-45
13	0x3da9e36f	0.08295333
14	0x3ed328cc	0.41242063
15	0x3a829c6b	0.0009964829
16	0x3df642ec	0.12024483
17	0x3aac8f8e	0.0013165341
18	0x3f322fb3	0.69604033
19	0x3f24c9f6	0.6437067
20	0x000147aa	1.17544e-40
21	0x00000000	0.0
22	0x3ae3ecff	0.0017389356
23	0x3d340847	0.043953206
24	0x3aea8f79	0.0017895541
25	0x00000000	0.0
26	0x3b53a817	0.0032296234
27	0x3d27dc32	0.04098148
28	0x00013205	1.09779e-40
29	0x3dc6bb0b	0.09703644
30	0x3a2e19a7	0.0006641396
31	0x00007285	4.1082e-41
32	0x3d321d6e	0.043485098
33	0x3ee7d70d	0.45281258
34	0x00000000	0.0
35	0x3ebb3047	0.3656027
36	0x3c54f313	0.012997407
37	0x3e78d364	0.24299389
38	0x0000402c	2.302e-41
39	0x00000000	0.0
40	0x3e8850f0	0.2662425
41	0x00000000	0.0
42	0x3e2f17b1	0.17098881
43	0x3d0c2b67	0.03422108
44	0x3e235b2a	0.15952745
45	0x3e145dc9	0.14488901
46	0x3ea28e49	0.3174918
47	0x3d927964	0.0715206
48	0x00000000	0.0
49	0x3a860a55	0.0010226468
50	0x3b18f068	0.0023336653
51	0x3d4614c0	0.048359632
52	0x00000000	0.0
53	0x3f060363	0.5234892
54	0x3dbc4c71	0.091942675
55	0x3b06cd6b	0.0020569216
56	0x3de2f933	0.11082687
57	0x3e454626	0.19265041
58	0x3f01f402	0.5076295
59	0x3eb29410	0.34878588
60	0x39966286	0.00028683635
61	0x3ded83f6	0.11597435
62	0x3af2a104	0.0018511121
63	0x3ef0a847	0.47003385
64	0x3b3463ce	0.0027525309
65	0x00000000	0.0
66	0x3e7199a1	0.23593761
67	0x3f01fc52	0.50775635
68	0x3b33872f	0.0027393808
69	0x00000000	0.0
70	0x00000004	6e-45
71	0x3d1d06f1	0.038336698
72	0x3b33a98b	0.0027414288
73	0x00000690	2.354e-42
74	0x3ed805a4	0.42191803
75	0x3d3ecbaa	0.046580948
76	0x3f0edcbe	0.55805576
77	0x3e927d7c	0.28611362
78	0x3e04566e	0.12923595
79	0x00000000	0.0
80	0x00000000	0.0
81	0x3f25930d	0.64677507
82	0x3e38d39b	0.18049471
83	0x3e560a30	0.20902324
84	0x3d06bf1c	0.0328971
85	0x3f25b705	0.6473239
86	0x3eb51875	0.35370222
87	0x3e68fe03	0.22753148
88	0x00000000	0.0
89	0x3b2ad6b5	0.0026067917
90	0x3a3c8eab	0.000719289
91	0x3f2b4e11	0.66915995
92	0x3b010874	0.0019688876
93	0x3b437e29	0.0029829836
94	0x3f017c39	0.50580174
95	0x3ddf310d	0.108980276
96	0x3b0a5a7b	0.002111106
97	0x39977b78	0.00028892956
98	0x3b5b4de0	0.0033463165
99	0x00000004	6e-45
100	0x3ed6cfde	0.41955465
101	0x3e5cf7cf	0.21578906
102	0x3d171774	0.0368876
103	0x3edd603a	0.43237478
104	0x3e6d4a37	0.23172842
105	0x3e233696	0.15938792
106	0x3f132ca8	0.57490015
107	0x3c06ed2b	0.008235256
108	0x3591f9da	1.0876058e-06
109	0x3f3722d2	0.71537507
110	0x3ccb2da0	0.02480203
111	0x00000000	0.0
112	0x3e450622	0.1924062
113	0x00000004	6e-45
114	0x3e5bd11e	0.2146649
115	0x3a1270d3	0.000558627
116	0x00000000	0.0
117	0x3cf4556c	0.029825889
118	0x3f0605d0	0.5235262
119	0x3c565234	0.013081122
120	0x3d5894b4	0.05287619
121	0x3dfab246	0.12241034
122	0x3e30f1c2	0.17279723
123	0x3e8368c7	0.25665876
124	0x3d8239e7	0.063587
125	0x00000000	0.0
126	0x3caf2987	0.021382106
127	0x3d8e17d3	0.06938138

bn1.running_var f4 [128]
0	0x3a7e7c56	0.00097078586
1	0x00000004	6e-45
2	0x3b323e95	0.0027197946
3	0x3ba76415	0.0051083663
4	0x38870bed	6.439523e-05
5	0x3a448336	0.00074963586
6	0x3d4a369f	0.049368497
7	0x39f33fa6	0.00046395994
8	0x3ba8cc14	0.005151281
9	0x3517a628	5.649367e-07
10	0x3b78458b	0.0037883248
11	0x00000004	6e-45
12	0x00000004	6e-45
13	0x3bf0b320	0.007345572
14	0x3ce3a862	0.027790252
15	0x38e187b9	0.000107541164
16	0x3ac97a92	0.0015371612
17	0x3944d391	0.00018770831
18	0x3d52bba9	0.051448498
19	0x3b941c24	0.004519956
20	0x00006304	3.552e-41
21	0x00000004	6e-45
22	0x38200475	3.8151124e-05
23	0x3b602f5c	0.0034207916
24	0x39b5d629	0.00034682572
25	0x00000004	6e-45
26	0x3a940f14	0.0011295998
27	0x3b0ffe07	0.002197148
28	0x00005675	3.1015e-41
29	0x3aa5961b	0.0012633236
30	0x38485f1c	4.7772293e-05
31	0x00000c55	4.424e-42
32	0x3b0c5ffd	0.0021419518
33	0x3ce21ba5	0.027601073
34	0x00000004	6e-45
35	0x3d896689	0.0670901
36	0x39a4a58b	0.00031403857
37	0x3d6e2ce6	0.058148287
38	0x00000451	1.548e-42
39	0x00000004	6e-45
40	0x3d63e7c4	0.05564095
41	0x00000004	6e-45
42	0x3cdf80a3	0.027283018
43	0x3b080c10	0.0020759143
44	0x3cde7430	0.027155012
45	0x3cb7324e	0.022362854
46	0x3b554d5b	0.0032547328
47	0x3bb7ec37	0.005612876
48	0x00000004	6e-45
49	0x38ed86b1	0.00011326129
50	0x3a1a9c22	0.00058978994
51	0x3beb6c7d	0.0071845637
52	0x00000004	6e-45
53	0x39c40f16	0.00037395273
54	0x3c1544ab	0.00911061
55	0x388953c6	6.548273e-05
56	0x3ca68bcf	0.020330338
57	0x39f13065	0.0004600316
58	0x3cc4277f	0.023944614
59	0x3c24c5eb	0.010056953
60	0x37158381	8.91171e-06
61	0x3c78bb57	0.015181384
62	0x39c28f27	0.0003710922
63	0x3c9475ba	0.018122543
64	0x3a56354d	0.00081713946
65	0x00000004	6e-45
66	0x3b89b179	0.0042020646
67	0x3c3eaaeb	0.01163743
68	0x3a550abb	0.0008126904
69	0x00000004	6e-45
70	0x00000004	6e-45
71	0x3b282c14	0.0025661038
72	0x3a555c19	0.0008139029
73	0x0000000a	1.4e-44
74	0x3cb5a213	0.02217201
75	0x3ba56233	0.0050471066
76	0x3bb6142d	0.0055566044
77	0x3d20af75	0.03922983
78	0x3c32ba61	0.010908694
79	0x00000004	6e-45
80	0x00000004	6e-45
81	0x3cdd75a2	0.02703363
82	0x3d047859	0.032341335
83	0x3cc934e1	0.024561347
84	0x3ac6caa9	0.0015166599
85	0x3d2c0182	0.041993625
86	0x3c4ec274	0.012619603
87	0x3c850f18	0.016242549
88	0x00000004	6e-45
89	0x3a40eae2	0.0007359219
90	0x386b028f	5.603075e-05
91	0x3d40c04e	0.047058396
92	0x39dc1b71	0.00041982115
93	0x3a7c9da9	0.00096365303
94	0x3d26a722	0.040686734
95	0x3c418325	0.011811052
96	0x3869898d	5.5679633e-05
97	0x36f72de6	7.366517e-06
98	0x3a9bf6ab	0.0011899074
99	0x00000004	6e-45
100	0x3c3f42a8	0.011673607
101	0x3d4c2893	0.049843382
102	0x3ba04b57	0.0048917937
103	0x3cd80545	0.0263697
104	0x3a121739	0.00055729185
105	0x3ab6c50a	0.001394422
106	0x3b9a3fd6	0.004707317
107	0x3b3686e7	0.0027851404
108	0x31909e52	4.2089505e-09
109	0x3cc9f5d4	0.024653353
110	0x3b31ae7b	0.0027112055
111	0x00000004	6e-45
112	0x3d1efc23	0.038814675
113	0x00000004	6e-45
114	0x3d335042	0.04377771
115	0x37ac6487	2.055081e-05
116	0x00000004	6e-45
117	0x3a7c9359	0.00096349936
118	0x3c6ed20f	0.014576449
119	0x3b946e3f	0.004529744
120	0x3bd37eb4	0.006454313
121	0x3c7ca296	0.015419623
122	0x3b35eb83	0.0027758784
123	0x3d55856d	0.052129198
124	0x3b916301	0.004436851
125	0x00000004	6e-45
126	0x3a7d95dc	0.0009673515
127	0x3bc89afc	0.006121991

fc2.weight f4 [64, 128]
0	0xbd4a9255	-0.04945596
1	0x3c13e0d6	0.009025773
2	0x3cf1642e	0.029466715
3	0x3ba4fe4a	0.0050351964
4	0xbd6d2d51	-0.057904545
5	0x3da5ffa9	0.08105404
6	0xbd52b617	-0.051443186
7	0x3d8d82ca	0.06909712
8	0xbd8f36e1	-0.06992889
9	0xbcc801b4	-0.024414875
10	0x3d48009d	0.04882871
11	0xbd1be51f	-0.038060304
12	0x3d901973	0.07036104
13	0xbd72d502	-0.05928517
14	0xbd9722be	-0.073796734
15	0xbd2352b9	-0.039873812
16	0x3ca9a18b	0.020706913
17	0x3da73eae	0.08166252
18	0xbd2bfc4c	-0.041988656
19	0x3d1488db	0.036263328
20	0xbcaf81ac	-0.021424137
21	0xbc8cd5ec	-0.01719185
22	0x3d8e5719	0.06950206
23	0xbd89f627	-0.06736403
24	0x3c4a53c6	0.012349075
25	0x3daf3765	0.085554875
26	0xbc2e51e5	-0.010639642
27	0x3d893116	0.066988155
28	0xbcf6bd66	-0.03011961
29	0x3d8cb89a	0.068711475
30	0xbdb60caf	-0.08889138
31	0xbb82b0e3	-0.0039883717
32	0xbc9690dd	-0.018379623
33	0x3ce0a287	0.02742125
34	0x3d11ff9f	0.03564417
35	0x3d8e86ba	0.06959291
36	0xbc152ac4	-0.009104434
37	0xbb804ef0	-0.00391566
38	0x3d7a1062	0.06105078
39	0xbcc80572	-0.024416659
40	0x3d9f5981	0.077807434
41	0xbd75d18c	-0.060014293
42	0xbc33b4e1	-0.010968418
43	0xbbbe0b70	-0.0057997033
44	0x3d1e20ef	0.038605627
45	0x3d789015	0.060684282
46	0xbc2f3a94	-0.010695118
47	0xbd99cee1	-0.07510162
48	0x3d366fba	0.044540145
49	0x3cd97b22	0.026547972
50	0x3d1d60dd	0.038422454
51	0xbd6dc837	-0.058052268
52	0x3d62ea6e	0.05539935
53	0x3db0c56c	0.08631405
54	0x3ba25a42	0.004954607
55	0xbdac7e1e	-0.084224924
56	0x3d7f7ace	0.062372975
57	0xbd9678ea	-0.07347281
58	0x3caea6b6	0.021319728
59	0x3c55f990	0.013059989
60	0xbd38fc49	-0.045162473
61	0x3d05d986	0.03267815
62	0xbda5d349	-0.0809694
63	0x3cb30b0b	0.021855852
64	0xbd631162	-0.0554365
65	0xbc0c6183	-0.0085681705
66	0x3c412797	0.011789224
67	0x3da000c5	0.07812647
68	0xbd22ea53	-0.03977425
69	0x3d686581	0.056737427
70	0xbc256c1f	-0.010096579
71	0xbd30e441	-0.04318643
72	0xbda2d1d5	-0.079501785
73	0xbd902aa9	-0.07039387
74	0x3dc2140e	0.094764814
75	0xbcc08b79	-0.023504006
76	0x3c0999e6	0.008398509
77	0x3ccb23dc	0.024797373
78	0x3d780292	0.060549326
79	0x3d9f4a2f	0.07777821
80	0x3d973ef9	0.07385058
81	0xbd82cc6b	-0.06386646
82	0xbc53f04f	-0.012935712
83	0xbd50d2ba	-0.050982215
84	0xbd3fb086	-0.046799205
85	0x3ca292a9	0.019845324
86	0x3da7946b	0.08182605
87	0xbd9d38c3	-0.07676842
88	0x3d57c39a	0.052676775
89	0xbd38d441	-0.045124296
90	0xbca8abfd	-0.020589823
91	0x3d92939c	0.071570605
92	0xbcba6d44	-0.02275718
93	0x3c1433e8	0.009045579
94	0xbd77a069	-0.060455713
95	0x3da43684	0.080182105
96	0xba96b2d3	-0.0011497386
97	0xbd8411a9	-0.06448681
98	0x3cbaca18	0.022801444
99	0xbd8a2647	-0.06745582
100	0xbd8e8e26	-0.069607064
101	0x3bc1f658	0.005919259
102	0x3d8f59f0	0.06999576
103	0xbcbde7dd	-0.02318185
104	0x3d14697d	0.036233414
105	0x3d9b1183	0.075716995
106	0x3d793566	0.06084194
107	0xbd520c73	-0.051281404
108	0x3b075362	0.0020649065
109	0xbcd368de	-0.02580684
110	0xbd974f9e	-0.07388233
111	0xbadba71f	-0.001675818
112	0x3d8749ea	0.06605895
113	0x3d91f7bf	0.07127332
114	0x3c089b10	0.008337751
115	0x3c9d1726	0.019176077
116	0xbd1f5a6d	-0.038904596
117	0x3d7ac311	0.061221186
118	0xbd05c65b	-0.03265987
119	0xbd85f0cb	-0.06540068
120	0x3c40409c	0.011734154
121	0x3d580205	0.0527363
122	0xbda41977	-0.080126695
123	0x3da62ccc	0.08114013
124	0x3ce31785	0.027721176
125	0xbd6d9b8f	-0.05800968
126	0xbc9bdea5	-0.019027064
127	0x3d99c265	0.07507781
128	0xbd8a1f1f	-0.06744217
129	0xbd0d6c24	-0.03452696
130	0x3cd87b22	0.026425902
131	0xbd9f1a99	-0.07768745
132	0x3d4995e3	0.04921521
133	0x3d2c209f	0.042023297
134	0x3d6cd2e4	0.05781831
135	0xbd655438	-0.05598852
136	0x3db1d764	0.086836606
137	0xbd2c1efd	-0.04202174
138	0x3dbc1e18	0.091854274
139	0xbda8fac4	-0.08250955
140	0xbdb5fda5	-0.088862695
141	0x3d6b1604	0.057394043
142	0x3bdb3d31	0.006690644
143	0x3bc20dbd	0.005922048
144	0xbd3d3b21	-0.046198968
145	0xbd14659b	-0.03622971
146	0xbcc1cd27	-0.023657395
147	0xbda70af7	-0.08156388
148	0xbbf85aff	-0.007579207
149	0x3c145500	0.009053469
150	0x3a529404	0.00080329203
151	0x3cd020d9	0.025406288
152	0x3dacf718	0.08445567
153	0x3c694249	0.014236995
154	0xbd01d9fb	-0.031702023
155	0xbd1df180	-0.03856039
156	0xbd92bb15	-0.07164589
157	0xbd66cb64	-0.056346312
158	0xbc5f82f0	-0.013642058
159	0xbcad5cfb	-0.0211625
160	0x3d1d0ff4	0.038345292
161	0xbd0b42a6	-0.033999108
162	0x3d824aa7	0.06361895
163	0xbd73691a	-0.059426405
164	0x3b88682f	0.0041628103
165	0x3d9d7cc9	0.076898165
166	0x3d9c6fcb	0.0763851
167	0xbd5d9a2b	-0.054102104
168	0x3c5385c8	0.012910314
169	0x3ca0be66	0.019622039
170	0xbd19e9de	-0.03757655
171	0xbd0ba5e6	-0.03409376
172	0x3ce4ba07	0.027920736
173	0xbd6b7d12	-0.057492323
174	0x3c13aa84	0.009012822
175	0x3d27d2b6	0.040972434
176	0xbd324452	-0.043522187
177	0x3d98023e	0.07422303
178	0xbbb139bd	-0.0054084943
179	0x3d1e3e85	0.038633842
180	0x3dc13a7a	0.09434982
181	0xbcb0d6d2	-0.02158681
182	0x3d56559c	0.052327737
183	0xbc7b799c	-0.015348818
184	0xbc73d54a	-0.014882395
185	0xbb64ec27	-0.0034930797
186	0x3a82f142	0.0009990113
187	0xbd14a49e	-0.036289804
188	0x3caff1ed	0.021477664
189	0x3c04d9fb	0.008108611
190	0x3d691236	0.056902133
191	0xbcb67463	-0.022272294
192	0x3c1bfafa	0.009520287
193	0xbd2b6e11	-0.041853014
194	0xbd9ef4d1	-0.07761539
195	0x3cf9ca6b	0.030492028
196	0x3c3ef149	0.011654207
197	0xbd1ee7ca	-0.03879527
198	0xbd2c7032	-0.042099185
199	0x3ca55661	0.02018279
200	0xbc781900	-0.015142679
201	0x3d50b763	0.05095614
202	0x3c0e86a5	0.008699094
203	0x3d028023	0.031860482
204	0x3d30cf07	0.043166187
205	0xbccc823e	-0.024964448
206	0x3d2ebf94	0.042663172
207	0x3d7ae2a2	0.06125129
208	0x3c3ba278	0.01145231
209	0x3c97bb2c	0.018521868
210	0xba00b309	-0.0004909491
211	0x3d67bd7c	0.05657719
212	0xbd2d469d	-0.04230367
213	0xbd31e9be	-0.043435805
214	0x3d2d0161	0.042237643
215	0xbda2c0d8	-0.07946938
216	0x3c04d713	0.008107918
217	0xbd22cc8f	-0.039745864
218	0x3d71865a	0.05896602
219	0xbda558b5	-0.0807356
220	0x3d5ed36e	0.054400854
221	0x3db4aa2d	0.08821521
222	0x3ca1db04	0.019757755
223	0xbae05473	-0.0017115012
224	0x3db66f0e	0.08907901
225	0xbd2ccd6f	-0.042188104
226	0xbbd791f5	-0.0065786787
227	0xbd36923f	-0.044573065
228	0xbc85d469	-0.016336637
229	0x3cc11849	0.02357115
230	0x3c256fd3	0.010097462
231	0xbcab74d5	-0.020929733
232	0xbda6fcf3	-0.08153715
233	0x3c2cf6f5	0.010556926
234	0xbb4c0c4b	-0.0031135257
235	0x3c645a26	0.013937509
236	0x3d85c817	0.06532305
237	0x3db6c848	0.08924919
238	0xbd58c872	-0.052925535
239	0x3a9db9ec	0.0012033558
240	0xbcfc7c14	-0.030820884
241	0xbdadcb35	-0.08486024
242	0xbd89e1fa	-0.06732555
243	0x3da2638e	0.07929145
244	0x3d6df44d	0.05809431
245	0x3d59c529	0.053166542
246	0x3d51cdaf	0.051221546
247	0xbd8e6704	-0.069532424
248	0x3c0b241d	0.008492497
249	0x3dadcd06	0.08486371
250	0xbd521027	-0.051284935
251	0x3da9b6e0	0.08286834
252	0x3ce7e6c2	0.028308276
253	0x3d84fe61	0.064938314
254	0xbcefaccc	-0.0292572
255	0x3d1e4b96	0.038646303

fc2.bias f4 [64]
0	0x3c44e737	0.012018017
1	0x3da334db	0.07969066
2	0x3d50e7c2	0.05100227
3	0xbd3432e1	-0.043993834
4	0xbd2d6aa2	-0.04233802
5	0x3ca1589b	0.01969557
6	0xbd5000ae	-0.0507819
7	0xbb765443	-0.0037586845
8	0x3cd9f7b2	0.026607368
9	0xbd1c545d	-0.038166393
10	0x3cfdac96	0.030966084
11	0xbc647437	-0.013943723
12	0x3db0513f	0.086092465
13	0xbd9a50c6	-0.075349376
14	0x3d856118	0.0651266
15	0x3d907b13	0.070547245
16	0xbd945a62	-0.07243802
17	0x3cbef4ab	0.023310026
18	0xbc3928b1	-0.0113012055
19	0x3d3a35d0	0.045461476
20	0x3d81be99	0.06335182
21	0xbd6345ca	-0.055486478
22	0xbd37e2df	-0.044894096
23	0xbd8bb6f0	-0.06822002
24	0x3d8d1a71	0.06889809
25	0xbd9618d7	-0.073289566
26	0xbd8673cb	-0.065650545
27	0x3d9ec033	0.07751503
28	0x3d45aedf	0.048262473
29	0x3d860836	0.06544535
30	0x3d827378	0.0636968
31	0xbd9662e8	-0.073430836
32	0xbcadf298	-0.021233842
33	0xbaa02209	-0.0012217175
34	0x3dc74d49	0.09731538
35	0xbcfd319c	-0.030907445
36	0xbb9f8173	-0.0048677265
37	0x3d53a6cf	0.051672753
38	0x3d4b6e58	0.04966578
39	0xbd63568c	-0.05550246
40	0xbd75f910	-0.060051978
41	0xbcd3b978	-0.025845274
42	0x3cb744c5	0.022371659
43	0x3dbd844b	0.092537485
44	0x3d26884a	0.04065732
45	0x3d6bd4a7	0.057575848
46	0x3cf8e00a	0.030380268
47	0xbcd5e040	-0.026107907
48	0xbc6f81da	-0.014618361
49	0x3d9d26d2	0.0767342
50	0x3cbdfc10	0.023191482
51	0x3c1a981b	0.009435679
52	0x3d0017c3	0.03127266
53	0x3d56a6b9	0.052405093
54	0x3c980757	0.018558187
55	0xbb80c682	-0.003929914
56	0xbd2c5e69	-0.042082224
57	0xbd52447b	-0.05133484
58	0xbd21adb3	-0.039472293
59	0x3da4ca4c	0.080463976
60	0x3d871f66	0.06597786
61	0xbd330014	-0.043701246
62	0x3d94494f	0.07240545
63	0xbd09b53c	-0.033620104

bn2.weight f4 [64]
0	0x3f7f4915	0.9972089
1	0x3f80031c	1.0000949
2	0x3f8078b6	1.0036838
3	0x3f7f2074	0.99658895
4	0x3f7ea641	0.99472433
5	0x3f7f6423	0.9976217
6	0x3f7ec230	0.99515057
7	0x3f7eb0e9	0.99488693
8	0x3f805033	1.0024475
9	0x3f7fb762	0.99889195
10	0x3f7f3200	0.9968567
11	0x3f8071b0	1.0034695
12	0x3f7f6759	0.9976707
13	0x3f7edfb0	0.9956007
14	0x3f7f6cf5	0.9977563
15	0x3f7ff7cd	0.9998749
16	0x3f802d44	1.0013814
17	0x3f7e45e3	0.9932539
18	0x3f7ec63c	0.9952123
19	0x3f7f08b7	0.9962267
20	0x3f807192	1.0034659
21	0x3f804eda	1.0024064
22	0x3f801df5	1.0009142
23	0x3f7ee0d2	0.995618
24	0x3f800c2b	1.0003713
25	0x3f7fd825	0.99939185
26	0x3f7ee323	0.99565333
27	0x3f7f184f	0.99646467
28	0x3f807eeb	1.0038732
29	0x3f802c83	1.0013584
30	0x3f803560	1.0016289
31	0x3f7f9146	0.99831045
32	0x3f80986a	1.0046513
33	0x3f7ea2ef	0.99467367
34	0x3f7eafca	0.9948698
35	0x3f7f960a	0.99838316
36	0x3f7f0cb2	0.99628747
37	0x3f7fc30f	0.9990701
38	0x3f7f95d4	0.99837995
39	0x3f805f86	1.0029151
40	0x3f800ca9	1.0003864
41	0x3f7f7dd8	0.998014
42	0x3f7efb06	0.9960178
43	0x3f803d0d	1.0018631
44	0x3f7e81b1	0.99416643
45	0x3f7f0b38	0.99626493
46	0x3f7ec680	0.99521637
47	0x3f808415	1.0040308
48	0x3f7d4126	0.98927534
49	0x3f7f00b1	0.9961043
50	0x3f805bbd	1.0027996
51	0x3f7fe72b	0.9996211
52	0x3f7ee340	0.99565506
53	0x3f7e8308	0.9941869
54	0x3f7f22bf	0.99662393
55	0x3f7e91f9	0.99441487
56	0x3f7eb474	0.994941
57	0x3f7f617a	0.9975811
58	0x3f7f4a72	0.9972297
59	0x3f7f1fa2	0.9965764
60	0x3f7fdcb3	0.99946135
61	0x3f7ee7cb	0.9957244
62	0x3f808fba	1.0043862
63	0x3f7fa1df	0.9985637

bn2.bias f4 [64]
0	0x3e372e7a	0.17888823
1	0xbe31e21a	-0.17371407
2	0x3e15a0d4	0.14612132
3	0x3e1f1649	0.15535845
4	0x3e4a4c6d	0.19755717
5	0x3e32c0d1	0.17456366
6	0xbe2518e5	-0.16122778
7	0x3e3ca241	0.1842127
8	0x3e1bfdf5	0.15233596
9	0x3e1e1571	0.15437867
10	0xbe188471	-0.14894272
11	0xbe2853e7	-0.16438256
12	0x3e18ea1e	0.14933059
13	0x3e1d6f79	0.15374555
14	0x3e216de3	0.15764575
15	0xbe15fe16	-0.14647707
16	0xbe1e563f	-0.15462588
17	0xbe2fae4c	-0.17156333
18	0xbe221a1a	-0.1583027
19	0xbe427bec	-0.18992585
20	0xbe19e4d8	-0.15028703
21	0x3e167370	0.14692473
22	0xbe1c5555	-0.15266927
23	0xbe2336db	-0.15938894
24	0xbe307311	-0.17231394
25	0xbe229405	-0.15876777
26	0x3e3dafe4	0.18524128
27	0x3e22abc0	0.1588583
28	0x3e35f60d	0.17769642
29	0x3e1b7bfd	0.15184017
30	0x3e6b730d	0.22993107
31	0xbe28369c	-0.16427082
32	0xbe3b9670	-0.18319106
33	0x3e6bd278	0.23029506
34	0xbe28ffe3	-0.16503863
35	0x3e17e679	0.14834012
36	0x3e1c0d99	0.15239562
37	0x3e1b533a	0.15168467
38	0xbe17fdd2	-0.14842919
39	0x3e1937bd	0.14962669
40	0xbe228099	-0.15869369
41	0xbe1f1358	-0.15534723
42	0x3e33834f	0.17530559
43	0x3e417e88	0.18895924
44	0xbe1a6983	-0.15079312
45	0x3e18c1ae	0.14917633
46	0x3e18cb82	0.14921382
47	0x3e426cee	0.18986866
48	0x3e4ce421	0.200089
49	0x3e2d9d5e	0.16954562
50	0xbe500bff	-0.20317076
51	0xbe276920	-0.16348696
52	0xbe1f491b	-0.15555231
53	0xbe342d6d	-0.17595454
54	0xbe1bd45a	-0.15217724
55	0x3e26a524	0.16273934
56	0xbe53055f	-0.20607518
57	0xbe31ff17	-0.17382465
58	0xbe32efef	-0.1747434
59	0x3e2b37a3	0.16720442
60	0xbe1e6ddd	-0.15471597
61	0x3e1db471	0.15400864
62	0x3e211f58	0.15734613
63	0x3e1a48c7	0.15066825

bn2.running_mean f4 [64]
0	0x3edf0239	0.43556383
1	0x3e5ea154	0.2174123
2	0x3e373063	0.17889552
3	0x3e9d1457	0.3067958
4	0x3e1d46bc	0.15359014
5	0x3e7da4ca	0.24769893
6	0x3da7e070	0.08197105
7	0x3e0f2685	0.13979538
8	0x3ec0548a	0.37564498
9	0x3d877a8e	0.06615172
10	0x3e8eb3a9	0.27871445
11	0x3e5e4097	0.21704327
12	0x3e5e0da1	0.21684887
13	0x3e0c1c6e	0.1368272
14	0x3e01f5e6	0.12691459
15	0x3e2a7804	0.16647345
16	0x3e1bd5ad	0.1521823
17	0x3e15c875	0.1462725
18	0x3e7ee99d	0.24893804
19	0x3e42dc38	0.1902932
20	0x3e81e47b	0.2536963
21	0x3dee634b	0.116400324
22	0x3e3a41d0	0.18189168
23	0x3d854a31	0.065082915
24	0x3e7f99cc	0.24961013
25	0x3dfc42b6	0.123174116
26	0x3e67e635	0.22646411
27	0x3ea051e3	0.31312475
28	0x3e7f28c0	0.24917889
29	0x3ede4fcd	0.43420258
30	0x3e336e0d	0.1752245
31	0x3e030e5c	0.12798446
32	0x3e9cfbcc	0.30660856
33	0x3e86ff7d	0.26366797
34	0x3e72ecbe	0.23723122
35	0x3dd7a352	0.10529198
36	0x3e800323	0.25002393
37	0x3e27c197	0.16382442
38	0x3de72d91	0.11287988
39	0x3e0f077c	0.13967699
40	0x3e5c1891	0.21493746
41	0x3e60b360	0.21943426
42	0x3e8239d7	0.25434753
43	0x3f06c7df	0.5264873
44	0x3e55fafa	0.20896521
45	0x3eb8dcaa	0.36105853
46	0x3e3af979	0.18259229
47	0x3e5e4f0c	0.21709841
48	0x3e262bba	0.16227618
49	0x3e2080b2	0.15674093
50	0x3ebd6048	0.3698752
51	0x3e2befb6	0.16790661
52	0x3e760d04	0.24028403
53	0x3e3a9334	0.18220216
54	0x3e1d0232	0.15332869
55	0x3ec0291a	0.37531358
56	0x3e062d12	0.1310313
57	0x3e0bcaa0	0.13651514
58	0x3ec255ed	0.3795618
59	0x3f3ed4ed	0.7454365
60	0x3e125d4f	0.14293407
61	0x3e6b6345	0.22987087
62	0x3e863020	0.2620859
63	0x3dc776bf	0.09739446

bn2.running_var f4 [64]
0	0x3e896559	0.26835135
1	0x3da218b1	0.07914866
2	0x3d29656f	0.0413565
3	0x3dd362cb	0.10321578
4	0x3e1ea2b6	0.15491757
5	0x3dc8d5a5	0.098063745
6	0x3d78dc78	0.06075713
7	0x3df305d4	0.11866346
8	0x3e81eca3	0.25375852
9	0x3d5ae380	0.053439617
10	0x3e09508d	0.13409634
11	0x3de094d4	0.10965887
12	0x3d5847f3	0.05280299
13	0x3e2a4c65	0.16630705
14	0x3e05e942	0.13077262
15	0x3d0460d3	0.0323189
16	0x3d7b6710	0.061377585
17	0x3d62c6a5	0.055365223
18	0x3dca3a71	0.09874428
19	0x3d3ff16f	0.04686111
20	0x3d989e40	0.07452059
21	0x3cd84373	0.02639935
22	0x3d19cf0e	0.03755098
23	0x3c1e7bd0	0.009673074
24	0x3d909ff1	0.070617564
25	0x3e4bedf6	0.19914994
26	0x3d9225f7	0.071361475
27	0x3dd5ecac	0.10445532
28	0x3d95aabe	0.07307957
29	0x3e4ac77c	0.1980266
30	0x3d21f1ee	0.039537363
31	0x3ceb1f06	0.028701317
32	0x3de2e961	0.1107967
33	0x3d98e2b2	0.07465114
34	0x3d7155ef	0.058919843
35	0x3c89d1bc	0.016823642
36	0x3d975083	0.07388403
37	0x3cc07ea7	0.023497893
38	0x3cbe82f5	0.023255805
39	0x3cb5d8cc	0.022198103
40	0x3d677758	0.0565103
41	0x3d840fa9	0.064482994
42	0x3db1b2bb	0.08676668
43	0x3e90b002	0.28259283
44	0x3e0ad8e9	0.13559307
45	0x3e168717	0.1469997
46	0x3e3dce66	0.18535766
47	0x3de13873	0.10997095
48	0x3d4a252a	0.04935185
49	0x3d9e1d4c	0.07720432
50	0x3e2f1473	0.17097645
51	0x3f497f06	0.7870945
52	0x3daacbc1	0.08339644
53	0x3d32f5a7	0.043691304
54	0x3d2c3d52	0.042050667
55	0x3e43aafc	0.19108194
56	0x3e25bccb	0.161853
57	0x3e7d217b	0.24719803
58	0x3e709596	0.23494563
59	0x3f18f1a9	0.59743744
60	0x3d35b070	0.044357717
61	0x3e140f3f	0.14458941
62	0x3dddaa5c	0.10823509
63	0x3cadc39d	0.02121144

fc3.weight f4 [1, 64]
0	0xbe27240a	-0.16322342
1	0x3e48b340	0.19599628
2	0xbe5c2d8e	-0.21501753
3	0xbe477ec1	-0.19481947
4	0xbe3746e2	-0.17898133
5	0xbe3ae01e	-0.18249556
6	0x3e476aba	0.19474307
7	0xbe343911	-0.17599894
8	0xbe864a55	-0.26228586
9	0xbe91257d	-0.28348914
10	0x3e87a5d3	0.264937
11	0x3e570474	0.20997792
12	0xbe8f0f10	-0.2794118
13	0xbe81f1fa	-0.25379926
14	0xbe5f39d9	-0.21799411
15	0x3e758eb6	0.23980221
16	0x3e40561d	0.1878285
17	0x3e2e1861	0.17001487
18	0x3e4f8553	0.20265703
19	0x3e1a29d8	0.15055025
20	0x3e592c58	0.21208322
21	0xbe5e841f	-0.21730088
22	0x3e7c79de	0.24655864
23	0x3e2c0557	0.16798912
24	0x3e48da4e	0.19614527
25	0x3e7db0b2	0.24774435
26	0xbe1861da	-0.14881077
27	0xbe3102d9	-0.17286243
28	0xbe42b9a0	-0.19016123
29	0xbe6b8142	-0.22998527
30	0xbe293cc2	-0.16527084
31	0x3e6a62f3	0.22889309
32	0x3e2408c6	0.16018972
33	0xbe1feb8f	-0.15617202
34	0x3e26ac89	0.16276754
35	0xbe7afe10	-0.2451098
36	0xbe4bbe87	-0.19896899
37	0xbe85fbaa	-0.26168567
38	0x3e8d7c01	0.2763367
39	0xbe850b18	-0.25985026
40	0x3e3ce0b8	0.18445098
41	0x3e79f7e0	0.24410963
42	0xbe27cabb	-0.1638593
43	0xbe2a385e	-0.16623065
44	0x3e71c371	0.23609711
45	0xbe665c34	-0.2249611
46	0xbe8a067e	-0.26958078
47	0xbe287a90	-0.16453004
48	0xbe296525	-0.1654249
49	0xbe4c5e61	-0.19957878
50	0x3e1edc8f	0.15513824
51	0x3e7183ae	0.23585388
52	0x3e3573da	0.17719975
53	0x3e306ff9	0.17230214
54	0x3e58054f	0.21095775
55	0xbe40c404	-0.18824774
56	0x3e3a36eb	0.18185012
57	0x3e5b62f3	0.21424465
58	0x3e49a45c	0.19691604
59	0xbe289aa9	-0.16465248
60	0x3e869d9b	0.26292118
61	0xbe71ed50	-0.23625684
62	0xbe35761e	-0.1772084
63	0xbe8eda67	-0.27901003
