PreTrained/cstr_ode/Deep_DQN/0_10/600.pth (torch, 43158 bytes, 13 tensors)

fc1.weight f4 [128, 4]
00000000: 7195 24bc cb20 8c3e 4592 d4be 1cba b9be
00000010: 73cc 40be a4b6 0d3e 25d7 22bc 60c5 c83e
00000020: 9e07 3cbd 7c09 063e a93a 20be 4bef b1bd
00000030: 18fd f8be 1d00 a7be adc8 54be 4776 403c
00000040: 2d16 483e e53d 9a3e 7a46 adbe 5021 5cbe
00000050: 7fec 383e 6013 d53e 6656 d9bd 1d0a c23e
00000060: aaa9 a3bd e57e 823d 0020 e53e a2e7 f5be
00000070: 6a08 a3be 4d33 e2bd 6446 53be 8dfa dc3e
00000080: 9ae8 a5be 39b8 6cbe c89d b3be 6220 eebe
00000090: c684 99be b949 da3e 96c0 5c3e 16aa 753e
000000a0: 1683 e13c 7a49 81be 6f26 b83d 89ec ebbe
000000b0: 1afa b8be c6f9 83be 2685 a13e 2619 963e
000000c0: bea0 5dbe 8108 4ebc 9fb9 a33e b0b2 fb3e
000000d0: 25ed 3e3e 6d12 8c3d fc79 b33e 9da7 94be
000000e0: e15b b13d b6cc c7be 7cbe b2be 04f0 80be
000000f0: f62d 703e 9164 453e a462 93be c8ad 1a3e
00000100: 360a 8f3e 6153 57bd 9c31 8a3c 687c dc3d
00000110: 020d 9e3e c391 f63e 7507 c6be 5a2b 39be
00000120: d14c 4d3e 4dfb cf3e 2470 e03e 836e e53e
00000130: 3fa3 d33d a545 d8be 6b82 583d 60b5 9ebe
00000140: f884 eebe a2ea e23e 215c c23e 43b7 febe
00000150: 08aa bf3d c880 acbd b882 a8bd 1c5f 6abe
00000160: fc3b 4e3e 9836 9cbe 7eb1 453e 1676 813e
00000170: 5b0d b33e 3fee 3e3e 1f86 01bf ae12 a3be
00000180: 3338 7f3e fe53 d63d 4327 c7be 3b75 93be
00000190: f2d4 f03e 547f ac3e b03e 5fbe d4dc 00be
000001a0: 092c f2be 444a 3dbc 30af bfbe 10f1 c6be
000001b0: 7edf e3bc 341d 993d e8d9 4abe 354f 943e
000001c0: 3fca a1be 6e37 ee3e bb76 a93e 6ba2 d2be
000001d0: 26c4 00be 2f83 a83c cab9 933d b43d e43d
000001e0: 645b 493e 3294 f33c b563 79be 593a 703e
000001f0: 95a7 f5be 7fa5 97be aa2c 00be 9093 79be
00000200: 365d 38be ce88 ccbe 3a5c e8bd 02fd ca3d
00000210: 1f34 a8be 20ef a6bc 8cda b53e 3c8e 73bd
00000220: 80ac 633c c0ad 30bd 103d cf3d 60c6 a23e
00000230: 41c7 ee3e 2716 a83e 7c94 f53e 0b20 d2bc
00000240: fdb8 e2be 27c1 77be c08b b13e 608e 303b
00000250: d080 80be 984d c1be 0adc f6be 2d23 d6be
00000260: 3eb5 d8bd 7184 8e3e 5656 873e 57fc f2be
00000270: 2eb0 9f3e 8a52 c8be f07b d8bd 1c9a 4fbe
00000280: f3ef babd 397d d1bd 9ce2 e6be 4f8c dcbe
00000290: 283c a0bd 80e1 d33b b896 68be b8de 403e
000002a0: 3327 e7be d2b2 ffbc 50cd df3e 61ad 58be
000002b0: d944 e23e 44f9 443e 1d21 e5be a916 a23e
000002c0: 28e0 6bbd ec4f 62be 3679 ce3e 396b cebe
000002d0: 39f7 633d 8369 d1bd 61c3 b73e 0024 123e
000002e0: a3e1 753e 65d1 363e 9197 f3bd 1413 dfbd
000002f0: 760b dbbe 3806 933e a57d c23e eb48 b23e
00000300: ac93 b4be 60ae b63c 9076 b4be 88ec 8cbe
00000310: 0dab 8ebe 09f7 213e 920c 92be 00ba 32bc
00000320: 081f cb3c 0206 a33e 287b bbbe 6ac8 b0be
00000330: a78b 93be 2141 af3e 0780 32be c375 d73e
00000340: a024 393e 40aa 813d 00ed 73bb 086d cabd
00000350: 714c 6d3d 8fc9 fbbd 33a5 273b 24cd 5d3d
00000360: e87d c5be 9fdd 82be dc4f d23e 5efe d4be
00000370: 28a1 bebc 7ec4 f43e 7c29 423e 2c3c 673c
00000380: 31bf d6be c3e7 723e 7880 b1be f26e 10be
00000390: ed35 32be 4ae6 8dbd 3a48 b8ba affa d33e
000003a0: d423 883d f02f e13e d986 9f3e f0f6 9fbe
000003b0: 4eca 633e ee26 b4be 9847 5bbe 0945 0e3e
000003c0: a5fc 263e 1f18 c13e 73e4 26be 00d4 513a
000003d0: 9999 7f3e 5b21 f4be fcb4 b63e ddae d1be
000003e0: 7843 b83b 5642 aabd 15b6 84be 8a8e 8a3d
000003f0: b092 d73e fdbd 17be cc82 94be a386 3fbe
-0.010045395 0.2736877 -0.41517845 -0.36274803 -0.18827991 0.13839203 -0.00993899 0.39213085
-0.0459057 0.13089556 -0.15647377 -0.0868822 -0.48630595 -0.32617274 -0.20779677 0.0117469495
0.1953971 0.30125347 -0.33842832 -0.21497083 0.18058966 0.41616344 -0.10612182 0.3789834
-0.07991345 0.063718595 0.44750977 -0.48028284 -0.31842357 -0.11044941 -0.2063232 0.43159905
-0.32404023 -0.2311715 -0.35081315 -0.4650908 -0.2998411 0.4263437 0.2155784 0.23990664
0.027528327 -0.2525137 0.089917056 -0.460789 -0.36128312 -0.257765 0.31546897 0.29316062
-0.2164335 -0.01257527 0.31977555 0.49159765 0.18645151 0.06839452 0.35054004 -0.2903413
0.08660103 -0.3902337 -0.34910953 -0.25183117 0.23455033 0.19276644 -0.28786194 0.15105355
0.27937478 -0.05256975 0.016869359 0.10765916 0.308693 0.48158082 -0.38677564 -0.18082944
0.20048834 0.40621415 0.43835557 0.44810876 0.10333871 -0.42240635 0.05285875 -0.30997753
-0.46585822 0.44319636 0.37960914 -0.49749193 0.09358603 -0.084230006 -0.082280576 -0.22887844
0.2014007 -0.30510402 0.19305989 0.25285405 0.34971127 0.18645571 -0.5059528 -0.3185019
0.24923782 0.10465239 -0.38897142 -0.28800377 0.47037464 0.33690894 -0.21801257 -0.12584239
-0.4729922 -0.011553351 -0.37438345 -0.3885579 -0.02781653 0.07476273 -0.19809687 0.2896668
-0.31599614 0.46526664 0.33098397 -0.4113954 -0.12574825 0.020570366 0.07213171 0.111445814
0.19663769 0.029733751 -0.24354441 0.23459758 -0.47979417 -0.2961845 -0.12517038 -0.24372697
-0.18004307 -0.39948124 -0.11345716 0.09911539 -0.32852265 -0.020377696 0.355183 -0.059461817
0.013896108 -0.04313445 0.101190686 0.31791973 0.46636394 0.328294 0.47964847 -0.025650045
-0.4428176 -0.24194776 0.34676933 0.002694033 -0.25098276 -0.37754512 -0.4821475 -0.41823712
-0.10581444 0.2783542 0.26433057 -0.47458145 0.31189102 -0.39125472 -0.10570514 -0.20273632
-0.09127798 -0.102289625 -0.45094764 -0.43075797 -0.07823974 0.0064660907 -0.22713745 0.1883496
-0.45147094 -0.031213198 0.43711329 -0.21159889 0.44193152 0.19235712 -0.44751826 0.31657913
-0.05758682 -0.221008 0.40326852 -0.4031618 0.05565569 -0.10225203 0.3589125 0.14271545
0.24011855 0.17853315 -0.118941434 -0.10892311 -0.42782182 0.28715682 0.37986484 0.34821257
-0.35268915 0.022299945 -0.35246706 -0.2752421 -0.27864876 0.15816893 -0.28525215 -0.010908604
0.02479507 0.3184052 -0.36617398 -0.34527904 -0.28817484 0.34229377 -0.17431651 0.42082033
0.18080378 0.06331301 -0.003722012 -0.09884077 0.05793423 -0.122943036 0.0025580644 0.054150715
-0.3857262 -0.25559708 0.41076553 -0.41600317 -0.023270205 0.47806162 0.18961138 0.014113467
-0.41942742 0.23721223 -0.34668326 -0.14104822 -0.17403384 -0.0692869 -0.0014059611 0.41402194
0.06647459 0.43981886 0.31157568 -0.31243086 0.22245142 -0.3518595 -0.2141403 0.13893522
0.16307314 0.37713715 -0.16298084 0.0008004308 0.24960937 -0.47681698 0.35684955 -0.40953723
0.0056232773 -0.08313434 -0.25920168 0.067654684 0.421041 -0.14818569 -0.2900604 -0.18703704

fc1.bias f4 [128]
00000000: d76d 14be de49 43be 9f5d 013e f496 2b3e
00000010: 27f2 7abe 62ec 303d 5ed2 943e 7840 46bd
00000020: ae34 1b3e b0da 00be cd6a 393e e671 b9be
00000030: e055 99be daf6 74be 072a eb3e e148 12be
00000040: 2c80 01bd 3996 76be f425 003f 83ea fa3e
00000050: 1bb9 c1be 1088 cfbe 0e0c bdbe 6da2 65bc
00000060: 0f15 07be 4e90 a7be 2007 35be a720 cf3d
00000070: ed00 8bbe 21dd e43d 4542 ecbd 0cec 77be
00000080: 49e3 893d 465f d23e 8813 adbe 4da2 8b3c
00000090: 1057 36be 45d8 f53e d1ca f6be d26a f5be
000000a0: 1120 fc3e f8f7 a1be 79f8 cb3d bb07 8cbd
000000b0: 4a7c d2bd ace8 debd a2dc a33e 57b7 7e3c
000000c0: ce3e f9be 0aa3 9dbe ef29 33be 092b 833e
000000d0: 8eaa a5be 2783 f03e b4f4 d2bd d20c b5bd
000000e0: 452b cf3e c2fd 793e 090a da3e bff4 933e
000000f0: e93e 19be a331 aebe c78f 20bd e65a d43e
00000100: 0efb 27be 1e68 edbe 63bf 473e 1ccd fa3e
00000110: 2eef 1ebe 5af9 d3be c38a e9be 33ae f73d
00000120: 1681 04bd fcf2 82be d2f1 de3d 0a8f 373e
00000130: ce3d cb3e 25db c63e 665b adbd 7ebb e1be
00000140: d853 e7be b994 ee3e f571 603e 5bb9 753e
00000150: b4f3 d9be d343 ee3e beb2 ec3e e49c ec3e
00000160: 30f5 d7be 779f 3abe 377a adbe 6db1 ef3e
00000170: b003 53be c95c 75be dc02 863e 96b8 64be
00000180: 337a 74be 5e2d 2fbd ed1d 84bd b2b6 c6be
00000190: 9ba2 d33e 2550 5ebe f4ba 313e f978 dd3e
000001a0: 9a81 783e 2885 943d 2e44 dc3e d223 723d
000001b0: cf24 66be bb04 f33e 9c0b e63d 38c6 f9be
000001c0: d622 01be 37c4 b0be 1e9e df3e 7da8 9abd
000001d0: b259 e9be 63fd c2bc cea5 a13e b81d e73d
000001e0: 808a 2e3e 5cad 4a3d d533 3a3e 0773 f5bd
000001f0: a6ae 43be 0e49 efbe 5fed c0be c6c0 573e
-0.14495026 -0.19071147 0.1263337 0.16756803 -0.24506436 0.043194182 0.29066747 -0.048401326
0.15156814 -0.12583423 0.18107148 -0.3621971 -0.2994833 -0.23922291 0.45930502 -0.14285614
-0.031616375 -0.24080743 0.5005791 0.49007043 -0.37836537 -0.40533495 -0.3692326 -0.014015776
-0.13191627 -0.32727283 -0.17678499 0.1011365 -0.27149144 0.111749895 -0.115360774 -0.24211138
0.06732804 0.41088313 -0.33803964 0.017045164 -0.17806649 0.48016563 -0.48201612 -0.4793306
0.49243215 -0.31634498 0.09959502 -0.06837412 -0.102776125 -0.108842224 0.32004267 0.015546641
-0.4868073 -0.3078845 -0.17496465 0.2561877 -0.32356685 0.4697506 -0.1030058 -0.08840336
0.404627 0.24413207 0.4258578 0.28897664 -0.14965405 -0.34022245 -0.039199617 0.414756
-0.16404364 -0.46368498 0.19506602 0.4898461 -0.15520927 -0.41401178 -0.4561368 0.12093773
-0.03234967 -0.25576007 0.10885967 0.17925659 0.3969559 0.3883907 -0.084646985 -0.44088358
-0.45181155 0.4659784 0.21918471 0.23996489 -0.42568743 0.4653612 0.4623012 0.46213448
-0.4217925 -0.18224894 -0.33882305 0.46815053 -0.20606875 -0.23961176 0.26174057 -0.22336039
-0.2387474 -0.042767875 -0.064510204 -0.3881126 0.41334996 -0.2171026 0.17356473 0.43256357
0.24268189 0.0725196 0.43020767 0.059116192 -0.22474979 0.47464547 0.11232683 -0.4878404
-0.12610945 -0.345247 0.4367532 -0.07551668 -0.45576245 -0.023802465 0.3157181 0.11284965
0.17045021 0.049481735 0.18183835 -0.1198483 -0.19109592 -0.46735424 -0.376811 0.21069631

bn1.weight f4 [128]
00000000: 277e 7f3f f2f0 7e3f 277c 803f 50bd 7f3f
00000010: 4375 803f f3d8 7e3f 3295 7f3f 1699 803f
00000020: 89a9 803f 0e03 7d3f d725 803f 0000 803f
00000030: 72a8 7e3f 7f70 7e3f bc8b 7f3f 9b41 7e3f
00000040: df21 803f cfd5 7f3f 253b 803f 7877 7f3f
00000050: 8c14 7f3f 0000 803f c9a7 7f3f e8cf 7e3f
00000060: b161 803f 0000 803f 73e0 7f3f c71e 803f
00000070: 8363 7d3f 5aff 7e3f e5b4 7f3f 520c 803f
00000080: 7b85 7d3f 49c6 803f 0000 803f d611 803f
00000090: e5d7 7e3f 7351 803f 0033 7e3f 0000 803f
000000a0: b101 7f3f 0000 803f 747e 813f 82f3 7f3f
000000b0: a2d4 7e3f 01df 7e3f 296b 7e3f 8dba 803f
000000c0: 0000 803f e8a7 7e3f b690 7f3f 1c9c 7f3f
000000d0: 0000 803f 1628 823f de06 7f3f bf1c 7f3f
000000e0: af6d 803f b7a4 7f3f e526 7f3f 7264 803f
000000f0: 1986 803f f922 803f 1be3 7f3f 7150 803f
00000100: 0b53 803f 0000 803f b1d1 803f 9a1e 813f
00000110: dbee 7f3f 0000 803f a482 7f3f fcef 7e3f
00000120: 9046 803f 3234 7f3f f771 7f3f 0e58 813f
00000130: b13f 7f3f b17f 7e3f cb4b 7d3f 0000 803f
00000140: 0000 803f 5139 823f 1596 7f3f 09bf 803f
00000150: ee2e 7e3f 16ec 803f 76f1 7f3f 6184 7f3f
00000160: 0000 803f 2dfe 7e3f cd6f 7f3f b068 7e3f
00000170: 2388 803f bf89 7d3f 4735 803f a6a7 7f3f
00000180: c921 7c3f d90e 7c3f e0fc 7f3f 412c 803f
00000190: ab60 803f b324 803f ef67 803f 43b7 803f
000001a0: 1b99 803f 39d3 7f3f d67f 803f 4230 803f
000001b0: 21b2 7e3f d305 803f 07cc 803f 0000 803f
000001c0: 5692 7f3f d5f9 7e3f 2bed 803f 9bcc 7d3f
000001d0: 0000 803f da41 803f b2ee 7f3f 022d 7e3f
000001e0: bd6a 7f3f dad7 7f3f db6f 803f 9524 803f
000001f0: e171 7e3f 0000 803f d05c 7e3f d811 803f
0.9980187 0.99586403 1.0037888 0.9989824 1.0035785 0.9954979 0.9983703 1.0046718
1.0051738 0.98832786 1.0011548 1.0 0.9947578 0.99390405 0.9982259 0.99318856
1.0010337 0.9993562 1.001805 0.9979167 0.9964073 1.0 0.99865395 0.9953599
1.0029813 1.0 0.9995186 1.0009392 0.9897997 0.99608386 0.998854 1.000376
0.990318 1.0060512 1.0 1.0005443 0.9954818 1.0024856 0.9929657 1.0
0.99611956 1.0 1.0116715 0.9998094 0.995432 0.99559027 0.99382263 1.0056931
1.0 0.99474955 0.99830186 0.9984758 1.0 1.0168483 0.99619853 0.9965324
1.0033473 0.9986071 0.99668723 1.0030653 1.0040923 1.0010673 0.9995591 1.0024549
1.0025343 1.0 1.0063993 1.0087464 0.9997384 1.0 0.99808717 0.9958494
1.0021534 0.9968902 0.9978327 1.0104997 0.9970656 0.9941359 0.98943776 1.0
1.0 1.0173742 0.9983838 1.0058299 0.9929036 1.0072048 0.99977815 0.9981137
1.0 0.9960659 0.9977997 0.9937849 1.0041546 0.9903831 1.0016259 0.99865186
0.9848905 0.98460156 0.9999523 1.0013505 1.0029501 1.00112 1.0031718 1.0055927
1.0046724 0.99931675 1.0039012 1.0014727 0.99490553 1.0001777 1.0062264 1.0
0.99832666 0.99599963 1.0072378 0.9914033 1.0 1.0020096 0.99973595 0.99287426
0.99772245 0.9993874 1.0034136 1.0011164 0.99392515 1.0 0.9936037 1.0005445

bn1.bias f4 [128]
00000000: 26bd 08ba a88a 383a 73f8 04bc dced 05bc
00000010: a910 87bc 8b8e 3f3b 4175 f0ba 4718 35bb
00000020: 3561 843b df96 873b 0709 853b 0f82 dd3b
00000030: 751b adba d2e9 153c f246 fbbb 9f6d f7ba
00000040: af23 1fbc efcb 713a 2a28 d7ba b4ba 97bc
00000050: 11e3 51ba dad0 7e3b eb47 0ebc 777f 9cbb
00000060: 7295 27b9 1839 5dbb 0428 093b 5e3b f0bb
00000070: 75c6 0fbc 1822 8d3b e626 213b 11c6 a03a
00000080: 0878 67bc 034f 0ebb 5825 15bb 355c 533b
00000090: 70ab 583c 8641 8bbb d4fd c93b cbbe 843a
000000a0: 0930 bd3b 68d4 033c 05a6 58bc 7f65 34bc
000000b0: 920f 173b 638e 7aba 9608 53bb c02a 82bc
000000c0: 3136 40bc d57e a8ba dd4d cb3b 1930 583b
000000d0: f3e6 4a3b 66d6 4e3b 1673 193a 3a04 cbbb
000000e0: 0afd c339 d2b0 7ebc b14f 983b 84e2 bf3a
000000f0: 3d68 f1ba 93a5 8dbb 838b 343c d210 7bbb
00000100: 0bfd d2ba 1c65 27bc e4c9 4bbb dde4 0e3a
00000110: 7d8f 69bb 7ba3 02bb 27f0 a2bb a92e 213b
00000120: 9db4 d8bb dd16 acbb 0925 023b 3665 c13b
00000130: ce1c f0ba 4132 5cbb 0acb 543c 83ad 493b
00000140: a79a cf3b ce85 86bb 303f 0cbc f8d5 cf3b
00000150: e9db 813b e9d8 e03b 95e4 513b 17c5 a3ba
00000160: d623 6f3c c529 3c3b 54b8 e93b 3d93 de38
00000170: 35db 16bb b045 923b 722e 85bb d783 753b
00000180: 1aa4 50bb 482a 0abb 774d a53b 88e8 1b3c
00000190: 1aed 103a d71f 9fbb 5975 213c 6001 a53a
000001a0: 0484 7e3c 7318 bab9 734e 58bb 74e9 863a
000001b0: 22bb 00bc d5c2 94bb 87bf 3f3c 1ad0 7d3c
000001c0: 813b 703b f0dd 3e3c 2920 babb 815d 1bbb
000001d0: c6c3 1d3c 5137 af3a 235f c0bb 08ab 9ebb
000001e0: bc9f 023c 2e34 d7ba b99d a73a 3fb4 4cba
000001f0: b772 c4bb de36 883c 91c2 3b3b 7476 bc3b
-0.00052161736 0.00070397044 -0.008115876 -0.008174386 -0.016487436 0.002922925 -0.0018345491 -0.0027632879
0.0040399083 0.0041378583 0.004059914 0.006759889 -0.0013207035 0.009149985 -0.0076683694 -0.0018877274
-0.0097130975 0.0009223809 -0.0016415168 -0.018521644 -0.0008006553 0.003888181 -0.008684139 -0.004775937
-0.00015982034 -0.0033755954 0.0020928392 -0.007331296 -0.008775343 0.004307043 0.0024589836 0.001226606
-0.014127739 -0.0021714575 -0.0022757854 0.0032251005 0.013224468 -0.0042497544 0.006164292 0.0010127662
0.0057735485 0.008046247 -0.013223176 -0.011010527 0.0023050052 -0.00095579604 -0.0032201163 -0.015889525
-0.01173167 -0.0012855182 0.0062043504 0.0032987653 0.003096041 0.0031560897 0.0005853636 -0.006195572
0.00037381827 -0.015545087 0.004648172 0.001463965 -0.0018417906 -0.0043227165 0.01101959 -0.0038309586
-0.0016097141 -0.010216977 -0.0031095678 0.00054509734 -0.0035638504 -0.0019933868 -0.004972476 0.0024594462
-0.0066133277 -0.005251749 0.00198585 0.005901958 -0.0018319131 -0.003359929 0.012987861 0.0030773587
0.0063355747 -0.004105306 -0.008559987 0.0063426457 0.003962983 0.006861795 0.0032027115 -0.001249465
0.014595946 0.002871142 0.0071325693 0.0001061321 -0.0023018841 0.004463874 -0.0040643746 0.0037462616
-0.0031836093 -0.002108233 0.005044635 0.009515889 0.0005528495 -0.0048560905 0.009854638 0.0012588911
0.015534405 -0.000354949 -0.0033005744 0.0010292963 -0.007857116 -0.0045398274 0.0117033785 0.01549151
0.003665656 0.011649594 -0.0056801033 -0.0023706856 0.009629196 0.0013367926 -0.005870716 -0.004842166
0.007972654 -0.0016418749 0.0012788094 -0.0007808841 -0.0059951204 0.016627725 0.0028649906 0.0057514254

bn1.running_mean f4 [128]
00000000: 8037 3e3b 0400 0000 f37e 453d caad 183d
00000010: 8613 4d3a 93ba a13c 8053 ef3e 39f8 1e3b
00000020: 9d8d 433d 7f4a 2a37 af32 923e 0000 0000
00000030: 0400 0000 ba5a b73d 9246 cc3e 9a6e 743a
00000040: 0b1c c63d e85e a13a e6d0 353f 208c 233f
00000050: 0400 0000 0000 0000 e679 363b 2947 1e3d
00000060: b5ff e13a 0000 0000 9d7a 4c3b 5f0f 2f3d
00000070: 0400 0000 453e c33d acf2 1e3a 0400 0000
00000080: 6eef 1a3d 9595 ed3e 0000 0000 c356 bd3e
00000090: 961f 533c 70e1 713e 0400 0000 0000 0000
000000a0: 2305 843e 0000 0000 e7ce 323e 26e3 e03c
000000b0: 69bb 273e a878 193e 2676 a23e 80a4 863d
000000c0: 0000 0000 9a43 6c3a 55fa 0e3b 30e0 7b3d
000000d0: 0000 0000 cd74 043f a3ee c53d b9f5 ba3a
000000e0: 0e98 003e 4fed 433e 8220 043f f940 ad3e
000000f0: 5f3b a139 ca9a fe3d 397a e93a 0f71 ec3e
00000100: 0cb8 2d3b 0000 0000 988a 6d3e 4e64 003f
00000110: abe1 2b3b 0000 0000 0400 0000 0503 323d
00000120: c11d 303b 0400 0000 900a d63e 6f49 3e3d
00000130: 5784 0d3f 9898 8d3e f8b9 ec3d 0000 0000
00000140: 0000 0000 979c 263f 6c70 2a3e 0278 573e
00000150: 0055 0c3d 3b17 273f d963 b93e f6bc 6c3e
00000160: 0000 0000 fc61 233b 42d8 413a 72cf 2c3f
00000170: 21fd fe3a a83c 363b 3d84 033f 2db7 e73d
00000180: d3be ee3a 6233 3139 7615 523b 0400 0000
00000190: ed22 d23e cfcb 683e 4583 253d 72a0 d73e
000001a0: 4d76 6e3e 90b9 203e 0b5f 113f c692 fe3b
000001b0: c9db 6d35 a0da 363f 14f3 b03c 0000 0000
000001c0: 0929 5c3e 0400 0000 3ea0 573e adca e939
000001d0: 0000 0000 e5e5 173d 8d87 053f 5789 403c
000001e0: 0d49 673d c0cc fc3d b757 293e ca33 883e
000001f0: af37 8a3d 0000 0000 1b73 b73c eb9f 923d
0.002902478 6e-45 0.04821677 0.037275113 0.00078230386 0.019742286 0.46743393 0.002425684
0.047742475 1.0150135e-05 0.28554294 0.0 6e-45 0.089528516 0.3989759 0.0009324342
0.096733175 0.001231161 0.7102188 0.6388569 6e-45 0.0 0.0027843653 0.038642082
0.0017242344 0.0 0.0031201013 0.04273927 6e-45 0.09533361 0.00060633826 6e-45
0.037825994 0.46403185 0.0 0.36980256 0.012885949 0.23621154 6e-45 0.0
0.2578517 0.0 0.1746174 0.027452063 0.16380085 0.14987433 0.31730765 0.06574345
0.0 0.0009012759 0.002181669 0.0614931 0.0 0.51740724 0.09664657 0.0014263905
0.12558004 0.19133495 0.51612103 0.33838633 0.00030752548 0.124318674 0.0017812914 0.46180007
0.0026507406 0.0 0.231974 0.5015305 0.0026227038 0.0 6e-45 0.04345991
0.0026873203 6e-45 0.41804934 0.04645675 0.5528006 0.27655482 0.11558908 0.0
0.0 0.6508269 0.16644448 0.21041873 0.03426075 0.6526982 0.3620899 0.23118958
0.0 0.002493023 0.00073945906 0.67504036 0.00194541 0.002780715 0.51373655 0.11314235
0.0018214829 0.00016899177 0.0032056249 6e-45 0.4104227 0.22733997 0.04040839 0.42114598
0.23287316 0.15695786 0.5678565 0.0077689616 8.860921e-07 0.71427345 0.021600284 0.0
0.21500029 6e-45 0.21057221 0.00044592228 0.0 0.03708448 0.5215996 0.011751494
0.05646615 0.123437405 0.16537367 0.26602012 0.06748902 0.0 0.022393754 0.07159408

bn1.running_var f4 [128]
00000000: 22d4 773a 0400 0000 d2ca 3d3b 2d74 943b
00000010: e507 9038 5ee8 503a 7f3f 443d e8fe 073a
00000020: ded3 a33b 8b71 fa33 a728 903b 0400 0000
00000030: 0400 0000 a035 053c ba29 c63c c89d cc38
00000040: 7671 c33a d05c 3239 fada 4c3d ba84 a93b
00000050: 0400 0000 0400 0000 361c 7938 4964 413b
00000060: 25eb ae39 0400 0000 5b31 8f3a fa12 1b3b
00000070: 0400 0000 7a91 643a 1b0c 2d38 0400 0000
00000080: 0f3f e93a 55e6 d13c 0400 0000 b152 8b3d
00000090: 0589 9d39 fe91 6c3d 0400 0000 0400 0000
000000a0: 3741 643d 0400 0000 8ac1 df3c 43f4 cb3a
000000b0: fbcd de3c aa53 ba3c ecee 443b f9f7 953b
000000c0: 0400 0000 892b bf38 3705 0c3a 874b fc3b
000000d0: 0400 0000 24c7 c739 089f 1c3c b1ab 3538
000000e0: 1bdf b93c 58ec f339 edb1 ad3c 2e09 ef3b
000000f0: 3610 3237 a255 853c cfaf ba39 912e 673c
00000100: 3f6c 4e3a 0400 0000 b1f4 423b 13f2 2c3c
00000110: af5a 4a3a 0400 0000 0400 0000 7253 3d3b
00000120: b072 543a 0400 0000 2d84 d53c c504 9e3b
00000130: 8454 dc3b a4f9 173d 04c4 3c3c 0400 0000
00000140: 0400 0000 4dff d13c 2a8e ec3c f56f bc3c
00000150: 9bad be3a 7592 2d3d 89e7 053c 71a2 913c
00000160: 0400 0000 8cd6 363a 9faf 8038 8a3b 343d
00000170: 21ac de39 9a78 633a 6012 233d da4b 523c
00000180: a2d4 4838 ae61 8636 8cd8 953a 0400 0000
00000190: bf1f 2c3c b244 573d 8050 9a3b 1d84 bd3c
000001a0: 0a48 043a 47a1 d33a 58a8 4d3b 03ea 2d3b
000001b0: 47c8 e331 7d66 e63c db4c 183b 0400 0000
000001c0: 95aa 3c3d 0400 0000 aff0 393d 89fe 8737
000001d0: 0400 0000 8799 b53a af89 813c eca3 883b
000001e0: 833d d73b 1ced 703c 4663 1e3b 6aa5 723d
000001f0: 4820 9b3b 0400 0000 322d 623a fe8e d33b
0.00094539125 6e-45 0.0028960002 0.004530451 6.8679255e-05 0.0007969196 0.047912117 0.00051878253
0.004999622 1.16621855e-07 0.0043993774 6e-45 6e-45 0.008130461 0.024189819 9.756867e-05
0.0014911133 0.00017009978 0.05001352 0.005173293 6e-45 6e-45 5.93925e-05 0.0029509238
0.00033363063 6e-45 0.0010924743 0.0023662434 6e-45 0.00087191875 4.125769e-05 6e-45
0.0017795282 0.025622526 6e-45 0.068028815 0.0003004746 0.057756416 6e-45 6e-45
0.055726256 6e-45 0.027313966 0.0015560467 0.027197829 0.022744972 0.0030049635 0.00457668
6e-45 9.115699e-05 0.0005341353 0.0076994332 6e-45 0.0003810461 0.0095594 4.3313663e-05
0.022689393 0.00046524662 0.021203006 0.0072947955 1.0613401e-05 0.016276184 0.00035607672 0.014110223
0.00078744063 6e-45 0.0029747898 0.010555762 0.00077192014 6e-45 6e-45 0.0028888849
0.0008104248 6e-45 0.026064003 0.004822346 0.0067239422 0.03710331 0.011521343 6e-45
6e-45 0.025634432 0.028876383 0.023002604 0.0014547588 0.042376 0.008172878 0.017777653
6e-45 0.0006974719 6.1362276e-05 0.044002093 0.00042471386 0.0008677334 0.039812446 0.012835467
4.7881746e-05 4.0048826e-06 0.0011432334 6e-45 0.010505616 0.052555747 0.0047093034 0.023134286
0.0005046135 0.0016146087 0.0031380858 0.0026537187 6.6293384e-09 0.028125042 0.0023239169 6e-45
0.046061117 6e-45 0.04539555 1.6211781e-05 6e-45 0.0013854959 0.015812723 0.0041699316
0.006568612 0.014704969 0.0024168058 0.059239782 0.004734073 6e-45 0.00086279504 0.006456255

fc2.weight f4 [64, 128]
00000000: 46c8 50bd 461c 153c 7c48 e03c 2b18 fd3a
00000010: 25d8 75bd 0fb6 9f3d 8d42 4cbd 19d0 8c3d
00000020: fabb 94bd c03a aebc 2175 683d 760b 0bbd
00000030: 65d1 8f3d 32c7 6abd 01a7 9abd 0969 2abd
00000040: 628b bc3c 7fe6 a33d e746 25bd 23c4 193d
00000050: 43c6 afbc f3f8 61bc 24aa 8a3d 409d 8ebd
00000060: b5bb 303c fa83 aa3d 8b5a 45bc 032d 853d
00000070: db1d fabc 48cd 903d 7668 b8bd 9f13 2dbb
00000080: 90af b2bc 7d21 ed3c 7da5 073d 6f56 923d
00000090: 0047 c6bb b277 c1bb cf9e 7b3d 331b ccbc
000000a0: a800 9c3d 5d0e 66bd 8c90 1dbc 0071 00bc
000000b0: 0f07 253d 09c0 7f3d 7ef9 45bc 03ec 96bd
000000c0: 077c 263d efca cb3c 84a9 173d ed83 7fbd
000000d0: 6082 723d e089 ae3d 422c c33b 7250 a9bd
000000e0: 4a02 743d f833 98bd 1e8f bc3c 5e3b 2e3c
000000f0: 12af 44bd 2710 193d 8d56 a8bd a076 a23c
00000100: 35d9 69bd 1ee3 4bbc 74f5 193c 1cc2 9c3d
00000110: 97d4 29bd 2c5c 5b3d 303a 42bc ba12 3cbd
00000120: 3f1c a6bd a172 97bd 3710 cb3d 4aa9 ddbc
00000130: 735d 613c 987a be3c 4ac6 813d bd7a aa3d
00000140: 6c40 9d3d 2d6e 7ebd aeca 71bc 1384 57bd
00000150: e8b1 38bd d340 b03c 7798 ad3d 3d47 a3bd
00000160: a181 6d3d a8ea 3ebd d379 b0bc aa02 963d
00000170: 411d c5bc 042f f93b 1a3a 70bd b90b ab3d
00000180: 43e7 d3ba 33a8 67bd d6f8 b13c 6beb 86bd
00000190: 5ed5 91bd c743 033c 52fd 853d ede0 cabc
000001a0: 32ac 1a3d 0c18 9c3d 0c09 693d 075a 58bd
000001b0: 1a5d 2d39 088f babc 2d41 9cbd c022 143b
000001c0: 827d 8b3d 7cf2 923d 5d3f d73b 44f1 c43c
000001d0: b9b0 0ebd 0e86 7d3d 5000 f7bc 1658 88bd
000001e0: ea73 133c d655 5e3d 84b0 a7bd 61e0 aa3d
000001f0: 99b5 e73c 046d 5ebd 7247 afbc 2117 953d
00000200: 2891 86bd f0df 19bd 4321 dc3c 4ae4 9abd
00000210: 545e 513d d8ba 2b3d e103 6c3d 52df 5fbd
00000220: 9caf b43d 34b7 17bd 9bf3 ba3d 235a afbd
00000230: 6a4e b4bd 91d7 6a3d c318 e13b f0a3 fe3b
00000240: 91bd 41bd 7f14 0dbd 39b8 c4bc ae49 a9bd
00000250: 8493 f9bb 63e2 f73b e8cb 16bb 57d7 da3c
00000260: ca93 b03d f996 733c 2f78 f5bc 0256 1bbd
00000270: ac72 91bd 092f 67bd 6242 40bc 7cae acbc
00000280: fc48 243d 6771 0cbd 54ac 823d b464 73bd
00000290: b109 653b 38bd 9e3d e24d 9b3d b957 56bd
000002a0: 899c 593c 6c55 953c ade1 18bd f22b 06bd
000002b0: 9fcc e43c 0880 6bbd 04d6 1a3c eaa2 2f3d
000002c0: fb57 2cbd 90b4 9b3d a2ec 6fbb 1ef5 223d
000002d0: 03b9 ba3d 2385 c1bc df25 583d 16b1 39bc
000002e0: 1430 67bc e251 79ba 5dc3 483a 2804 18bd
000002f0: e5e3 c23c c6d9 ef3b 7f40 703d 62ab b6bc
00000300: 437f 383c 764d 23bd 763b a0bd f01f fc3c
00000310: aa50 5b3c 1863 17bd c270 28bd 3871 a63c
00000320: 8891 5bbc e188 523d 5e41 083c ef46 073d
00000330: 365f 2d3d 40ea c9bc 33cf 2d3d 3835 6f3d
00000340: 2ea5 2a3c 62e7 933c 99dd c739 bd94 693d
00000350: 65c1 26bd e973 33bd 6fde 353d a74e a1bd
00000360: ab11 b83b 1dac 1bbd c054 793d cf1f a6bd
00000370: feff 653d dc34 b83d 8757 9f3c 6d89 1dbb
00000380: f7b9 bf3d 028e 5bbd 6902 a2bb ca99 3dbd
00000390: ecc4 83bc c9c7 be3c d0ed 363c 367d a9bc
000003a0: 3039 a8bd 9c79 193c 88b3 13bc 0a14 7f3c
000003b0: a0e1 853d a8c0 b53d 17b0 50bd ce23 f2b9
000003c0: 8a68 febc 185b b1bd d23a 89bd dcba 8c3d
000003d0: 1bfd 633d 0821 5b3d b118 4f3d 5f39 8abd
000003e0: 7741 213c 652c af3d cea4 51bd bd84 a93d
000003f0: c8db ec3c 6f71 813d c279 f5bc e134 203d
-0.050972246 0.009100979 0.027378313 0.0019309571 -0.060020585 0.07798397 -0.049868155 0.06875629
-0.07262416 -0.021268249 0.056752328 -0.033946477 0.07022361 -0.057318874 -0.07551385 -0.041604076
0.023015682 0.08002948 -0.04035082 0.037540566 -0.021456843 -0.013792264 0.06770733 -0.06963587
0.01078694 0.08325954 -0.012045513 0.06502726 -0.030531814 0.07070404 -0.09004299 -0.00264094
-0.02181223 0.028946633 0.033116806 0.07145392 -0.0060509443 -0.0059041614 0.06143075 -0.024915313
0.07617313 -0.05616604 -0.009616982 -0.007839441 0.040289935 0.062439 -0.012083409 -0.073692344
0.040645625 0.02487704 0.037026897 -0.062381674 0.059206367 0.08522391 0.0059562037 -0.08267297
0.059572496 -0.07431787 0.023017462 0.010634271 -0.048018523 0.03736892 -0.08219633 0.019831955
-0.05709191 -0.012444286 0.0093968995 0.07654211 -0.041462507 0.0535547 -0.011854693 -0.045916297
-0.08110856 -0.073949106 0.09915202 -0.027058262 0.01375519 0.023251817 0.06336649 0.08324192
0.07678303 -0.06211679 -0.014757795 -0.05261619 -0.04509154 0.021515286 0.08476346 -0.07972572
0.057984952 -0.046610504 -0.021542465 0.07324727 -0.0240618 0.0076044817 -0.05864916 0.08351845
-0.0016166944 -0.05655689 0.0217251 -0.06587871 -0.07120775 0.008011765 0.06542458 -0.024765456
0.037761874 0.07621774 0.056893393 -0.05282023 0.00016533249 -0.02277328 -0.07629619 0.002260372
0.06811048 0.071751565 0.006568833 0.024040826 -0.034836505 0.061895423 -0.030151516 -0.06657426
0.008999804 0.05428108 -0.081879646 0.08343578 0.028284835 -0.054303184 -0.021396372 0.07279802
-0.06570655 -0.03756708 0.02687133 -0.07563074 0.05111535 0.041926235 0.057620887 -0.054656334
0.08822557 -0.03703995 0.09128495 -0.08562114 -0.08804019 0.057334486 0.006869407 0.0077710077
-0.047299925 -0.034443375 -0.024013625 -0.082660064 -0.007616462 0.007564829 -0.0023009721 0.02671401
0.086219385 0.014867538 -0.029964535 -0.03792382 -0.0710195 -0.05644134 -0.011734577 -0.021079294
0.040108666 -0.034287836 0.06380525 -0.05942221 0.0034948403 0.07750934 0.07583214 -0.052329753
0.01328195 0.018229209 -0.037324596 -0.032756753 0.027929602 -0.057495147 0.009450439 0.042879976
-0.042076092 0.07602799 -0.003660955 0.039784543 0.091173194 -0.023623055 0.05277049 -0.0113337245
-0.014110584 -0.00095107977 0.0007658506 -0.03711334 0.02379031 0.007319662 0.05865526 -0.022298519
0.01126081 -0.039868794 -0.07823841 0.030776948 0.013385931 -0.036959738 -0.04112316 0.020317659
-0.013401397 0.05140007 0.008316366 0.033026632 0.04232713 -0.024647832 0.04243393 0.058400363
0.0104153585 0.018054668 0.0003812134 0.057026614 -0.04071178 -0.043811712 0.044401582 -0.0787633
0.0056173406 -0.038005937 0.06087184 -0.08111536 0.056152336 0.08994457 0.019450916 -0.002403821
0.09361642 -0.053602226 -0.004944135 -0.046289243 -0.01608511 0.023288624 0.011165097 -0.020689588
-0.08214033 0.009367373 -0.009014972 0.0155687425 0.06537175 0.08874637 -0.050949182 -0.00046184513
-0.031055707 -0.08659953 -0.06700672 0.06871578 0.055661302 0.053498298 0.050560657 -0.06749224
0.009842268 0.085533895 -0.05118256 0.08277271 0.028913394 0.06320464 -0.029965285 0.03911293

fc2.bias f4 [64]
00000000: 538e 803c 34a3 9f3d 00bc 663d 5d21 1bbd
00000010: 5261 1dbd 4a1a bc3c 32dc 55bd 688c 61bb
00000020: d5e8 de3c 9e2c 0ebd 434c 013d a6e0 52bc
00000030: 6e78 ac3d b84f 92bd f67b 6d3d 49ef 9e3d
00000040: cdea 8fbd 6949 c13c 578c 30bc 852b 453d
00000050: b4f4 803d 3472 65bd 8e48 2bbd 836f 86bd
00000060: 6245 903d 081e 96bd c9b2 7dbd aad4 943d
00000070: 2e1f 4f3d 107e 853d 08dd 843d 3735 94bd
00000080: a571 a6bc 630b 0d3b c56c cb3d c29f fbbc
00000090: 4a6d 6b39 4e54 833d f432 4a3d 4b49 5abd
000000a0: 8b8b 7ebd d0d1 dbbc cfac d23c 9563 ca3d
000000b0: 068b 283d a96c 893d a6c0 fb3c 7cc3 babc
000000c0: b219 38bc 887e 9c3d 0261 b33c c36b 1239
000000d0: 8e3c af3c 3ee1 633d 93a6 983c 2c0f bdba
000000e0: 21a1 30bd a9f0 60bd 6c00 10bd 9a79 aa3d
000000f0: 10b8 873d fc64 30bd 5c42 943d 084f f3bc
0.015692865 0.077948004 0.056331635 -0.037873615 -0.03842289 0.022961754 -0.052211948 -0.0034415964
0.027210632 -0.03471052 0.03156687 -0.012870943 0.08421408 -0.071441114 0.057979546 0.07760484
-0.070272066 0.023594575 -0.010775647 0.048137207 0.062966734 -0.056017116 -0.04181724 -0.06564238
0.07044484 -0.07329947 -0.06193808 0.07267125 0.050566845 0.06518185 0.06487471 -0.072367124
-0.020317862 0.002152168 0.099328555 -0.030715827 0.0002245206 0.06412564 0.049365 -0.053292554
-0.062144797 -0.026833445 0.025717167 0.09882275 0.041148208 0.067101784 0.03073151 -0.022798292
-0.011236595 0.076413214 0.021896843 0.0001396379 0.02139118 0.05563473 0.018634116 -0.0014424077
-0.043122414 -0.05491701 -0.035156652 0.08323975 0.06626904 -0.043065056 0.072392195 -0.029700771

bn2.weight f4 [64]
00000000: a6be 7f3f 122c 7f3f ee11 803f c996 7f3f
00000010: 7f53 7d3f 5caf 7f3f 84ce 7f3f 4d72 7d3f
00000020: abcf 7f3f 58bc 7d3f 56ae 7f3f 13b0 803f
00000030: 55dd 7e3f 95c2 7e3f 8202 7f3f 6a26 7f3f
00000040: 7d34 803f 2150 7e3f 471f 7f3f 625a 7f3f
00000050: 172d 803f b1d7 7e3f 158e 7f3f ec8a 7e3f
00000060: b56f 7f3f 8784 7f3f 5950 7f3f 9da7 7f3f
00000070: 0120 803f b3c8 7f3f 4b7b 803f f8e4 7e3f
00000080: 7f40 803f d6d3 7d3f d81b 7f3f e0ef 7f3f
00000090: 0976 7f3f fef9 7d3f f717 7e3f f1ed 7f3f
000000a0: 7506 7f3f 96a8 7e3f 2562 7f3f 3b99 7f3f
000000b0: 6202 7f3f 9856 7f3f 87ef 7d3f 84b8 7f3f
000000c0: fb95 7d3f cd98 7d3f 1818 803f 31db 7f3f
000000d0: 21da 7f3f a5af 7d3f 89ae 7e3f 2ae8 7e3f
000000e0: 9314 7f3f 98e6 7e3f 1f96 7f3f 34a9 7f3f
000000f0: c400 7f3f 02ba 7d3f c30c 803f b64c 7e3f
0.9990028 0.9967662 1.0005472 0.99839455 0.9895553 0.9987695 0.9992449 0.99002534
0.9992625 0.99115515 0.9987539 1.0053734 0.99556476 0.9951566 0.996132 0.9966799
1.0016018 0.99341017 0.996571 0.9974729 1.001376 0.9954787 0.99826175 0.9943073
0.99779826 0.99811596 0.99731976 0.9986513 1.0009767 0.9991562 1.0037626 0.9956813
1.0019683 0.9915136 0.9965186 0.99975395 0.9978948 0.9920958 0.9925532 0.99972445
0.9961923 0.9947599 0.9975913 0.99843186 0.9961301 0.99741507 0.99193615 0.99890924
0.9905698 0.9906128 1.0007353 0.99943835 0.99942213 0.9909614 0.9948507 0.99573004
0.9964077 0.9957061 0.9983844 0.9986756 0.99610543 0.9911195 1.0003895 0.993358

bn2.bias f4 [64]
00000000: ab43 863e e476 80be cac5 593e 54d3 693e
00000010: 15a1 8f3e 8627 823e 2fdc 72be 6ec1 883e
00000020: 7a4b 603e 2675 613e e222 5cbe 16df 74be
00000030: e7b7 5a3e aa7c 633e b5a2 6b3e 9a73 59be
00000040: 59fd 69be 37a0 81be 79e8 6dbe 6e19 8ebe
00000050: 5995 60be feef 5a3e 7055 61be 7381 72be
00000060: 0008 7fbe 2dc8 69be 479a 8b3e c620 713e
00000070: c125 833e 91ad 613e d803 a13e 5d9c 71be
00000080: 12a4 88be 8576 a23e e61f 7bbe 7f43 5c3e
00000090: 0a4d 653e e3f7 5e3e 8a3d 5abe 1b1b 5c3e
000000a0: ac72 6fbe 972a 65be f024 843e 968a 8b3e
000000b0: c0c5 60be a072 5e3e 845c 5c3e 7760 8c3e
000000c0: 6d81 923e 3b68 7c3e b880 94be 5eba 70be
000000d0: 19e0 6bbe 2a9e 83be 3824 64be 71ab 743e
000000e0: be98 93be 1b25 7fbe 0f48 81be e27a 7d3e
000000f0: 604f 63be 36fa 643e 606b 6d3e bb48 5c3e
0.26223502 -0.25090706 0.21266857 0.22834522 0.28052583 0.2542078 -0.23716806 0.26710075
0.21903792 0.22017345 -0.21497682 -0.23913226 0.21359216 0.22215524 0.23011287 -0.21235505
-0.2285055 -0.25317547 -0.23233213 -0.27753776 -0.21931972 0.21380612 -0.22005248 -0.23682193
-0.24905396 -0.22830267 0.27266142 0.23547658 0.2561474 0.22038867 0.31448245 -0.23594804
-0.26687676 0.31731048 -0.24523887 0.21510123 0.2239267 0.21774249 -0.21312538 0.21494715
-0.23383588 -0.22379528 0.2580943 0.2725417 -0.21950436 0.21723413 0.21519667 0.27417347
0.2861437 0.24649136 -0.29004455 -0.23508593 -0.23034705 -0.25706607 -0.22279441 0.23893525
-0.2882747 -0.24916498 -0.2525029 0.24753907 -0.22198248 0.22361073 0.23185492 0.2151212

bn2.running_mean f4 [64]
00000000: 4e90 0a3f 87ae 473e ebdd 533e 1292 d53e
00000010: ffa4 533e d171 b03e c3d7 d13d 2769 ee3d
00000020: 7a24 d83e f0a7 ba3d b2d3 a33e cd54 8f3e
00000030: 9f52 7e3e 7e75 4c3e 8904 003e 2132 4f3e
00000040: f32e 793e 1824 573e 5220 9c3e 8c3c 8b3e
00000050: c96c 933e 4d8f c63d de0f 6c3e 032c f53d
00000060: 41f5 9e3e fced f03d e3f7 a03e 205e a03e
00000070: 319e 973e 508b d43e 4a25 543e 3c95 323e
00000080: 58cd af3e 891f ac3e 2373 963e 500b 263e
00000090: c9d8 b63e 2fee 473e f7bd 123e 2c44 373e
000000a0: 4e49 503e 6c21 803e 1e6c b33e e887 1e3f
000000b0: 79b9 683e e8d0 c73e 93f3 1c3e c683 8a3e
000000c0: b995 903e b175 2d3e ee16 d53e 0c05 363e
000000d0: ab11 553e d55e 623e f2e7 3b3e f9d5 db3e
000000e0: af31 353e 851a e83d 04bb ff3e ac13 4b3f
000000f0: 460a 173e 10cd 8d3e 1eb7 653e 1169 fa3d
0.5412644 0.1950017 0.20690124 0.41713005 0.2066841 0.34461835 0.102462314 0.1164115
0.4221533 0.09114063 0.31997448 0.27994385 0.24836205 0.19966695 0.1250173 0.20233966
0.24334316 0.21009862 0.30493408 0.2719463 0.28793934 0.09695301 0.23052928 0.11971285
0.3104649 0.11764142 0.31439123 0.31321812 0.29612878 0.41512537 0.2071735 0.17439741
0.34336352 0.3361781 0.29384717 0.16215253 0.3571227 0.19524454 0.14330278 0.178971
0.20340464 0.250255 0.35043424 0.61926126 0.22727002 0.3902657 0.15327291 0.2705366
0.2823923 0.16939427 0.41619056 0.17775363 0.20807521 0.22106488 0.18350199 0.42936686
0.17694734 0.11333183 0.4994737 0.7932689 0.14750013 0.27695513 0.22433135 0.12227071

bn2.running_var f4 [64]
00000000: 464c b33e 43be bb3d 7b1a 5b3d 8cfe 363e
00000010: 68d6 363e 1c4d 1d3e 6854 9c3d c5c8 1c3e
00000020: e6b0 913e fe88 b33d eb77 193e 327e 063e
00000030: 27f8 923d c721 213e 183a 0d3e 9962 383d
00000040: 209f b13d 0064 e63d bd79 1a3e ec20 a93d
00000050: 5da3 b83d 2379 d53c ca02 623d 1be6 bc3c
00000060: 54e5 cf3d e05c 493e 8a66 ee3d c6da ce3d
00000070: f3b0 de3d d5be 4a3e 54d9 453d 8697 353d
00000080: 43dd 063e d457 fd3d 19a7 c03d caa9 0d3d
00000090: acff 093e 7454 f23c bba4 ef3c 5d3f 153d
000000a0: a6ab 593d 5e6a a33d bd23 0f3e da80 d13e
000000b0: 940b 113e 95eb 243e e7e9 5a3e 4706 4e3e
000000c0: 3426 cd3d 0bdc 0e3e 1ef5 493e 87cc 5e3f
000000d0: 7c77 8d3d 4a99 703d 56ec 533d 04ff 593e
000000e0: 24da 453e abbf bb3e 9fe0 a43e 1e3b 243f
000000f0: 4453 4a3d e3f6 5b3e ff64 b43d aa89 f73c
0.3501913 0.09167149 0.05349205 0.1787054 0.17855227 0.15361446 0.07633287 0.15310962
0.28455275 0.087663636 0.14987151 0.13134077 0.071762376 0.15735541 0.13791692 0.045015905
0.08672929 0.11249542 0.15085502 0.082582325 0.09015534 0.026058739 0.05517844 0.023058942
0.10151163 0.19664335 0.116406515 0.101003215 0.10873594 0.19799359 0.048302963 0.044333957
0.13170342 0.123702675 0.09406871 0.03458575 0.13476437 0.029581286 0.029253354 0.03643738
0.053142212 0.07979272 0.13978477 0.40918618 0.14164573 0.16105492 0.21378289 0.20119582
0.10017052 0.13951127 0.19722411 0.87030834 0.069075555 0.058739938 0.05173906 0.21288687
0.19321495 0.3666967 0.32202622 0.64152706 0.049395815 0.21480899 0.08808326 0.03021701

fc3.weight f4 [1, 64]
00000000: 7734 74be 5b4a 883e f853 8dbe fd0f 88be
00000010: 7628 83be 4e08 84be 8587 8b3e 9934 82be
00000020: 18d9 aabe 7ca7 b6be ba1c ae3e 1f66 933e
00000030: 9273 b0be 2b25 a9be 2bed 96be 2d21 9c3e
00000040: 7357 863e 0355 7d3e e8b5 8e3e 5bc3 683e
00000050: 49ec 8d3e ec99 8fbe 7cf8 9f3e 5988 763e
00000060: c4c9 873e 9afc a43e 63bd 66be 9b06 7abe
00000070: d818 86be c67c 98be 91e6 74be 4b42 993e
00000080: 485f 6b3e eb7b 68be ad97 713e 3274 a2be
00000090: 6ef4 89be d8cd a7be 28f7 b03e 2cb4 a5be
000000a0: a5a4 813e 028e 9f3e 1eef 74be 9e4f 73be
000000b0: 8635 9f3e 30b3 96be 6ae3 b0be 4fc5 73be
000000c0: 095f 79be 7383 8dbe 3a1b 683e c488 9f3e
000000d0: 9dcd 7c3e 0ef6 783e ab5b 8f3e 6fbd 85be
000000e0: c1aa 843e ea3f 943e a14a 8c3e 562f 73be
000000f0: a6c5 aa3e 6b2c 9fbe 5d6b 77be 3517 b0be
-0.23848139 0.2661923 -0.27603126 -0.26574698 -0.25616807 -0.25787586 0.2725183 -0.25430754
-0.33368754 -0.35674655 0.34006292 0.2878885 -0.34463173 -0.3303617 -0.2947782 0.3049406
0.26238593 0.2473946 0.27873158 0.22730772 0.27719334 -0.2804712 0.31244266 0.2407545
0.26521122 0.3222397 -0.22533183 -0.24416582 -0.2619083 -0.29782695 -0.23916079 0.2993339
0.22985566 -0.22703521 0.23593016 -0.31729275 -0.26944298 -0.32774234 0.34563565 -0.32364023
0.25320926 0.3116303 -0.23919341 -0.2376084 0.31095523 -0.29433584 -0.34548503 -0.23805736
-0.2435266 -0.2763935 0.22666636 0.3115903 0.2468781 0.24312612 0.27999625 -0.2612109
0.25911525 0.28955013 0.27400687 -0.23748526 0.3335392 -0.31088576 -0.2416205 -0.34392706
